one_hour_run/checkpoints/ep_0002.pt (torch, 145855 bytes, 11 tensors)

feature.0.weight f4 [128, 16]
00000000: a516 8c3e 80f2 f8be ad33 76be b1a0 c3be
00000010: 3ace 9ebe f06b 943e f83e 423f 700c be3e
00000020: d05c 64be 49ab 92be 86db babe 18ec 04bf
00000030: e103 71bb fec2 4e3d 9ef7 ce3f 70c8 35bf
00000040: d13b c83e 74fb bdbd feca e6be 30e6 7cbe
00000050: 2659 f73e 883f 6c3e 97d5 223f eed4 fb3e
00000060: 7803 5abf 5790 fbbe c940 6cbe eb07 1abf
00000070: 4469 86be d046 d8be 0796 d03e e576 cebe
00000080: 7f1c c0be c91e 773e 5184 343e 02cf 813c
00000090: aac4 95bd c96e c33d fd96 3c3e 7dd5 a63e
000000a0: 8792 0f3f ddf8 113f 3789 763f 1b51 623f
000000b0: 9f77 f63e 2a3f 26be 32d6 a9be 6957 30be
000000c0: 47cf 8f3f 0d2f 39be 4c4d 95bd 578c 1b3e
000000d0: 111f 553f 4bc3 18bf 1c56 3abe 5255 4bbe
000000e0: 3acf cb3e 86c1 f53e 5716 873d 62ac 18be
000000f0: 5026 1c3f 52ce 2abf a584 dd3e f0de ffbc
00000100: a5f9 b53d a29f fabd c296 debd ab6b 343e
00000110: 6b3d 283f 65fd bd3b 2206 08be 9525 463e
00000120: b3c7 c33e 18dd 4f3e 1795 2cbd 5763 26bd
00000130: 14f7 203d 41da 49c0 259a 603e e550 fd3d
00000140: dc2c 61bd 216d d13e 1817 1b3e 318a 8e3e
00000150: 2dcf c3bf a17e 113f 8180 303f d57c 523f
00000160: ae5e 4ebf 2fcc 36bf 8559 ba3e e149 f43e
00000170: bfb7 d43d 42f0 773e 5aa9 0d3f 68b7 d2be
00000180: c214 8bbf 1f40 b5be 831e 66be 54c3 0bbe
00000190: 41c4 d6be a261 8fbc 93f7 1a3e 8576 253e
000001a0: 04d1 b83e a048 bd3e bcf3 ba3e e98b 253e
000001b0: 846b 943e ca3c c0be a8f2 423e b22f 15be
000001c0: 8b9d 613e 160d df3e a708 053f eb0a 023f
000001d0: b0d9 16bf 26dc 83be 9a61 96be d865 8ebe
000001e0: e079 063e 7019 dc3e 9eb4 acbf f30f c4bf
000001f0: b2ae 63be 8b96 4a3c 60f3 42bf 0bdf e03e
00000200: 6408 b0bf 0da4 ee3c c809 9f3d daaa b2bd
00000210: da06 93bf e5ba d4bf 2674 fdbf b608 f5bf
00000220: f714 3e3f 9fd0 443f 8f91 78be 2af6 36be
00000230: d118 37be 8cb3 c13d 3b3a 2d3f d331 e0bd
00000240: a8ed 0ebe b188 3d3f 93fd 113f e572 2a3f
00000250: 7ea4 95bd 9c73 ba3e 16a8 c33e 9cc6 cb3e
00000260: 2939 8cbd 8688 80be d3ef abbf 3925 d1bf
00000270: acfd af3e 2704 a53d 4059 84be aa23 34bd
00000280: f7cd 213f 0ef3 5dbe ae34 15be a879 f4be
00000290: 079e 06bf b9e2 28bb c68d 5c3d a3f1 183e
000002a0: 769a d13e 5acb ad3e 6aa3 88bd 53ab 16be
000002b0: feed 0e3f 81b2 52bf 0e0f 24bf b3ee 19bd
000002c0: 1a75 ac3c 1107 d3bc 31ae 00be 966f 0cbd
000002d0: 20ba 593f 730c 5c3e 3275 eb3d 152a 78bd
000002e0: 1bb7 bfbe 6faa 0abf ac32 05be d463 01be
000002f0: 389d 223e 3a51 b3bf 80af f43e 37f4 9dbd
00000300: 5447 1dbf 05e4 b83e 5627 713e f31f d93e
00000310: 6a4e 55bf 6aa9 633e cde5 733c a1fa f43c
00000320: 26e4 583d e4c4 d23c d93d 2d3f 523f f33e
00000330: 80d6 d63e c7bc 83be aa61 dbbd b386 96be
00000340: cec2 393f c6f3 ac3e 4b03 f63d 97a2 08be
00000350: 55ea 9f3e 960f 503e bccd dc3e 17f8 7d3e
00000360: 18e2 19be 3790 153d e961 57bc 015a 513e
00000370: db42 003f 4549 32bc bf40 a73d 1c7c a0bd
00000380: 55bd 043d 0440 a33e a2a5 bc3d fa02 d13d
00000390: a9c7 3ebe d124 bc3e 9bdf 8c3d 07ae 623e
000003a0: 92f9 ba3d 681a 0039 0f31 11be 13c5 a8bb
000003b0: 50ae a73e 9dc4 7bbe e051 163e 98ca 2ebe
000003c0: 3a6b a63f 66b6 3bbe fc9d 8abd dee4 f0bc
000003d0: dcde b1bf ef17 923e 7194 f53e 5dc3 9c3e
000003e0: 0eaf 59ba 6219 353e f73b acbf 9f15 98bf
000003f0: 0b5a da3e d26c 97bb 9598 23be f5a4 33bd
0.27361026 -0.48622513 -0.2404315 -0.38208535 -0.31016713 0.289886 0.7587733 0.37118864
-0.2230103 -0.28646305 -0.36495608 -0.5192275 -0.0036775994 0.050478928 1.6169317 -0.7100897
0.39108136 -0.092764765 -0.45076746 -0.24697185 0.48310202 0.2307111 0.6360716 0.4918589
-0.8516154 -0.4913356 -0.23071589 -0.6016833 -0.26252186 -0.42241526 0.40739462 -0.40325084
-0.3752174 0.24132837 0.176286 0.01584578 -0.07312901 0.09542615 0.18416972 0.32584754
0.5608296 0.5702036 0.96303123 0.8840501 0.4813814 -0.16235033 -0.3317123 -0.17220844
1.1235131 -0.18084355 -0.07290134 0.15190254 0.8325053 -0.59672993 -0.1819691 -0.19856766
0.3980654 0.4799921 0.06596058 -0.14909509 0.6099596 -0.6672107 0.43265262 -0.031234235
0.088855065 -0.12237479 -0.108685985 0.17619197 0.65718716 0.0057980292 -0.1328359 0.19350274
0.38238296 0.20299184 -0.04213437 -0.04062208 0.039298132 -3.1539462 0.21933801 0.12368945
-0.05497442 0.4090357 0.15145528 0.27839807 -1.52976 0.56833845 0.6894608 0.8222173
-0.8061322 -0.7140531 0.36396423 0.47712615 0.10386609 0.24212745 0.55336535 -0.41155553
-1.086571 -0.35400483 -0.22472577 -0.1364873 -0.41946605 -0.01750261 0.15133505 0.16158493
0.36096966 0.3696947 0.3651408 0.16166653 0.28988278 -0.37546378 0.19037879 -0.14568976
0.22032754 0.4356467 0.5196633 0.5079791 -0.58925915 -0.25753897 -0.2937134 -0.27812076
0.13132429 0.42988157 -1.349262 -1.5317367 -0.2223461 0.012364994 -0.7615261 0.43920168
-1.3752561 0.02913096 0.077655375 -0.087239936 -1.1486466 -1.6619536 -1.9801071 -1.9143283
0.7425074 0.7688083 -0.24274276 -0.17867342 -0.1788056 0.09458074 0.6766698 -0.10947003
-0.13957846 0.740367 0.5702755 0.66581565 -0.07306765 0.36416328 0.38214177 0.39799964
-0.0684684 -0.2510416 -1.3432564 -1.6339484 0.34373224 0.080574326 -0.25849342 -0.043979324
0.632049 -0.2167475 -0.14570877 -0.47749066 -0.5258488 -0.0025769903 0.053846143 0.14935927
0.40938157 0.33944207 -0.06671794 -0.14713793 0.558319 -0.82303625 -0.6408547 -0.037581157
0.021051932 -0.025760205 -0.12566449 -0.034286104 0.8504963 0.21489124 0.114969626 -0.060587008
-0.37444386 -0.5416631 -0.13007611 -0.12635738 0.15880287 -1.4009163 0.47790146 -0.07712596
-0.61436963 0.36111465 0.23550162 0.42407188 -0.83322775 0.22232595 0.014886332 0.029904665
0.052951954 0.02572865 0.676725 0.47509247 0.41960526 -0.25729963 -0.10711987 -0.29399642
0.72562873 0.33779734 0.12012347 -0.13343273 0.3123347 0.20318446 0.43125713 0.2480167
-0.15027654 0.036514487 -0.013145902 0.2044449 0.50102013 -0.010881727 0.08166646 -0.07836172
0.032407124 0.31884778 0.092112795 0.10205646 -0.18630852 0.3674684 0.06878587 0.22136699
0.09129633 0.00012216868 -0.1417887 -0.005150446 0.32750177 -0.24586721 0.1467967 -0.17069471
1.3001473 -0.18331298 -0.067684144 -0.029406007 -1.3896136 0.28533885 0.47964814 0.306178
-0.0008303978 0.17685464 -1.34558 -1.1881598 0.42646822 -0.0046211267 -0.15976174 -0.043858487

feature.0.bias f4 [128]
00000000: b731 203e c61a cfbd 5e7d 85be fb17 1b3f
00000010: e096 693f 2df4 ab3e 5eb6 bfbe afb4 2c3f
00000020: 450a 453f bcee b7bd 5581 023e fb7d c53e
00000030: 150f b43d ab1e 023f b9c4 dd3d 37c4 53bf
00000040: 1ba4 9ebf eb55 c53f 8881 973f ad59 3dbe
00000050: e3f8 d8bd 093f 853f dcff aa3e 3fc8 87be
00000060: 134d 91be b7e6 af3e a06d 74bd 06eb e7be
00000070: 1eeb 863e c684 d6be 8d22 d93e 0a02 a7be
00000080: ca29 edbd c7d0 a7bf aba6 3ebf 5775 60bd
00000090: b551 f4be a224 653f f362 a93e dc49 753b
000000a0: 23a4 6f3e e94e 3a3f f254 e9be cf81 473f
000000b0: c749 1ebe e285 a9bd 3247 d1bf d37f 433f
000000c0: 8812 613f 9a35 c2bf 1539 4d3e 81b0 ccbe
000000d0: 0908 63be 7424 b2be 79f6 7e3e e0f0 9fbd
000000e0: c9ab b3bd 07d7 6dbe 5277 053e c6ea df3d
000000f0: 7eff 70bf 604e 33bc 19f3 d53d 413f bf3e
00000100: 9e8a 8fbf c772 96bf 760d b9be 2288 ddbb
00000110: 87ac 5e3e 15cf aebc 6529 67bd 1346 e53e
00000120: f9c4 f7be e476 09bf e39d 9cbf 019a a0bf
00000130: b58b ac3e 9d8e a9bf b409 9dbf 783a e03e
00000140: 72bf 1bbe 8136 3bbf 75fc 38bd 7ff7 943e
00000150: 2962 ea3e c252 e0be 48c9 e93c 457b 41bf
00000160: 2b1e 43bb 2060 a0bf 7451 50be 1e35 4fbf
00000170: b605 fdbd b963 6bbf 5263 34be 86ae 913f
00000180: e420 b7be dcf7 8ebe 4fac 873e 19de 94bd
00000190: cc6d 1c3f d25b dd3e ec42 e4bf 9b8b 3bbf
000001a0: b4c5 26bf 0a36 f6bd 3308 133e 5fed ee3e
000001b0: dd88 e43d 5076 4bbd 6e9f 713e 948a 43bf
000001c0: a41f 063e aa28 323f 0314 ed3e c70b dd3f
000001d0: 3b94 67be 5d1f 333f b065 15bd 4a45 9e3f
000001e0: 61c8 bbbf d13d 6a3f 4d8e febe b189 a33d
000001f0: 24a4 973f 6759 09bf 46ce 233f 9c12 8ebe
0.15643965 -0.101125285 -0.2607221 0.60583466 0.9124584 0.3358473 -0.37443823 0.674632
0.76968795 -0.08981082 0.12744649 0.38572678 0.08791939 0.50828046 0.108285375 -0.82721275
-1.2393831 1.5416845 1.1836405 -0.1849124 -0.105943464 1.0409862 0.3339833 -0.26519963
-0.28379115 0.3435571 -0.05967486 -0.45296496 0.26351255 -0.41898173 0.42409173 -0.32618743
-0.11580236 -1.3110589 -0.74473065 -0.054799404 -0.47718588 0.8950902 0.33083305 0.0037428057
0.23402457 0.7277666 -0.4557262 0.7793245 -0.15457831 -0.08277489 -1.6349852 0.7636692
0.879189 -1.5172608 0.20041306 -0.39978412 -0.22171034 -0.34793437 0.2489871 -0.07809615
-0.08773 -0.23226558 0.13033798 0.10933451 -0.9413985 -0.010943979 0.10446758 0.37352946
-1.1214178 -1.1753777 -0.36143082 -0.006760613 0.21745501 -0.021338979 -0.05643596 0.44780025
-0.48392466 -0.5369704 -1.2235683 -1.2546998 0.33700338 -1.3246647 -1.2268586 0.43794608
-0.1520975 -0.7313004 -0.045162637 0.29095075 0.45778015 -0.4381314 0.028538361 -0.7557872
-0.002977262 -1.2529335 -0.20343572 -0.80940425 -0.12354605 -0.9194904 -0.17616013 1.1381385
-0.3576728 -0.27923477 0.2649865 -0.07268924 0.61105037 0.43234116 -1.7832923 -0.73259896
-0.6514542 -0.12022026 0.14358597 0.46665475 0.11158917 -0.04967338 0.23595974 -0.7638333
0.13098007 0.695933 0.4630433 1.7269219 -0.22615139 0.6996973 -0.03647393 1.2364895
-1.4670526 0.91500574 -0.49717942 0.07985247 1.1846967 -0.5365204 0.63986623 -0.27748573

feature.2.weight f4 [128, 128]
00000000: 7240 bfbd 1608 3dbf 2d49 b0bd 8ff4 553d
00000010: 5c1b a4be 0fae db3d 9d3d 50bd ce4f 86bf
00000020: f5ef 6b3c 2e93 82be 8fa7 09be d99c 88be
00000030: 2679 073e 653b 85bd a13b 0b3c 77c8 863c
00000040: c636 a13d 96c6 91bd e376 283f 6bd3 64be
00000050: b209 5e3f 1132 6cbe 9572 a5bf ac5e 703b
00000060: 0ef9 b2be 9a4d d3bc 685a 583c c76a cc3c
00000070: 6cbd 013d 2663 a8bc dab2 15bf f0c6 913e
00000080: 247c e13d f5af 06bf 554c 60be 5549 36bd
00000090: 8832 adbd a76b a3be c526 873d 2a07 703d
000000a0: cdbd fdbd ce9c 35be 622d 8abe 656a c3bd
000000b0: 18bf 2bbd 9438 89bd 5b42 453d 0786 2dbe
000000c0: 4ac1 78be 3568 c2bb 9b4f cc3d 1e96 c8be
000000d0: f4b5 693d 4b1e 183d affb 05be c05b 9dbd
000000e0: 5fa3 54be 2cd0 1dbf 6f14 0e3e cc4e 51be
000000f0: 0214 073e 95e4 46bd e696 51be ae50 0b3e
00000100: 3c82 37be b540 aabe eac0 e8bd 3d1a 383c
00000110: c23d 8ebe 98a8 73be 617d 80be cdf5 53bf
00000120: 5c23 cd3d 6ea8 52be ed4f d93d f7b7 03bf
00000130: 709e 2fbf 1a3c 90be 0fa3 b4bd 2c45 d63e
00000140: 0b69 9ebe 4ec7 34be 3af1 ce3d dbcb 133d
00000150: 9908 f23e 2d57 ccbe e104 85bf 0c10 33bf
00000160: 2f97 20bb 9a87 9a3e 5b2a 173e 80c6 12be
00000170: 7da5 60bf b767 a1bd a70f 38be e528 0a3f
00000180: eb15 11be 1598 663e b8c5 50be bfc3 9ebe
00000190: 5ae6 17be b2c3 273e c47e a03c 817f 1cbe
000001a0: 7708 17bf 579d 07be 9cbf 11bf edc0 313b
000001b0: d0b0 7d3e fedf 933d e85b 493d cab5 43bf
000001c0: dbd3 9bba 2eeb 83be 9b92 85bf 0774 993c
000001d0: 4fc3 1bbf 7a4c 6dbe 3c0a b4bd 9b88 393c
000001e0: 9558 89be bd6d f2bf c6a6 cdbe 681b 4c3e
000001f0: 6ba0 373f 9914 83bd c067 093f a80c 30bd
00000200: f52f 75be 12b3 0e3d 4690 263e 95b3 e03e
00000210: f190 1c3d 8dd8 39be ecd8 fabd 00af 7e3e
00000220: 05da 25bf 2f8a a2bd 43b1 d3be 7063 583e
00000230: e4a5 fdbd 21f2 723e 1bf9 823d cbcc 853d
00000240: 808a 96ba 902e 11be afc4 76be be46 083f
00000250: 3291 15be f541 68be 3004 5dbe 6dab 38be
00000260: 7289 98be 6846 f1bd 56c2 333d 301f 37be
00000270: dba3 4abe 8847 0cbf 0738 adbd a629 94bd
00000280: bd1d 9dbe cfe8 a0be d8a7 35be 7b80 623c
00000290: 29f5 993e e1a2 cf3d 0b35 c8be 40d3 42be
000002a0: fab4 1ebe e83d 2dbf bb19 ffbd 9484 38be
000002b0: 1adf 983d 65e9 afbf a714 273e 379b 82be
000002c0: 50ee 13bd 9bfd 713d b9d1 5b3e f32b b4be
000002d0: d75b 19bd 2553 a93c 850d 4fbd 4517 99bd
000002e0: fd38 18bd 5fac 483d 7227 503e e365 94bd
000002f0: cc2f c1bd 9026 0dbc 710d a2bd d79b dc3b
00000300: cd9f 183e 5cc0 dc3e 0b58 62bd f83c 9ebd
00000310: 67c9 f13e 6058 aabc 10ba a9be d971 583d
00000320: 8212 0ebf f978 88bc 5b24 bdbc abca 3d3f
00000330: 5563 cf3c af5a e6bc 49b8 bd3d f70d b1bd
00000340: ab31 5b3e ae45 7dbf 2acc 0ebf e96e 8cbc
00000350: 220e b63e 7ab5 47bf 0fb5 b5be cca8 7ebd
00000360: 2ed0 1ebd 0db9 05bd 37b3 b53d 76d6 04bd
00000370: 601a 463f b304 32be 1811 303d 28cb 3dbe
00000380: dca8 dbbe 8959 02bf 7fc1 d6bd 2cc2 02bf
00000390: 597b 31be 1804 52bf d5bf c43d 76a8 ea3d
000003a0: 81db eabc a945 6ebe 0ba0 89bd 3165 d4be
000003b0: a8da 183e bb58 9d3d 411d 4ebe 31e8 0cbc
000003c0: 1b46 75be f079 18be 2630 23be bc78 3dbe
000003d0: 7175 073e 7ce3 993d 304a a4bb fbbc 1abf
000003e0: 0483 7abe c383 1a3e 1a2c 8bbd 57d7 37bf
000003f0: 1f4b 5cbe 4a59 63bf 2aa5 57be fe61 03bf
-0.09338464 -0.73840463 -0.08607707 0.052235182 -0.32052124 0.107265584 -0.05084001 -1.0493104
0.014400472 -0.25502914 -0.13442825 -0.26682165 0.13229808 -0.06505469 0.008498103 0.016453011
0.07871775 -0.071179554 0.65806407 -0.22346275 0.86733544 -0.23065974 -1.2925593 0.0036677523
-0.3495564 -0.02579384 0.013205148 0.02495326 0.031674787 -0.02055509 -0.5847603 0.2847209
0.11010006 -0.5261224 -0.21904118 -0.04450353 -0.08456904 -0.3191807 0.065991916 0.058600582
-0.12389717 -0.17735597 -0.2698775 -0.095417775 -0.041930288 -0.067002445 0.048158985 -0.16945659
-0.24292484 -0.0059328326 0.09976121 -0.3917703 0.05705829 0.037138265 -0.13084291 -0.076835155
-0.20765446 -0.6164577 0.13874982 -0.20440215 0.13191226 -0.048557837 -0.2046772 0.13604996
-0.17920774 -0.33252493 -0.113649204 0.011236724 -0.27781492 -0.23794782 -0.25095657 -0.8279694
0.1001651 -0.20572063 0.10610948 -0.51452583 -0.6860113 -0.28170854 -0.088201635 0.4184965
-0.30939516 -0.17654154 0.10104604 0.036083084 0.47272184 -0.3991026 -1.0392114 -0.6994636
-0.0024504175 0.3018158 0.14762251 -0.14333534 -0.87752515 -0.0788111 -0.17974721 0.5396865
-0.14168517 0.22518952 -0.20387924 -0.31008717 -0.14833966 0.16383246 0.019591697 -0.15283014
-0.5899729 -0.13243614 -0.56933 0.002712305 0.2477448 0.072204575 0.049159914 -0.76449263
-0.0011888699 -0.25765365 -1.0435365 0.018732084 -0.6084489 -0.23173705 -0.087910146 0.011324073
-0.26825395 -1.893974 -0.401663 0.1993233 0.71729153 -0.06400413 0.53673935 -0.04298082
-0.23944075 0.034838744 0.16265973 0.4388701 0.038224164 -0.18149014 -0.12248406 0.24871445
-0.64785796 -0.07936513 -0.41346177 0.21131682 -0.12385157 0.23725177 0.06395169 0.06533202
-0.0011485368 -0.14177918 -0.24098466 0.53232944 -0.14606169 -0.2268141 -0.21583629 -0.18034144
-0.29792362 -0.11781007 0.043886505 -0.17882991 -0.19789068 -0.5479665 -0.08457952 -0.07234506
-0.3068675 -0.3142762 -0.17739809 0.013824577 0.30069855 0.101384886 -0.3910297 -0.19025898
-0.15498725 -0.67672586 -0.124560796 -0.18019325 0.07464428 -1.3743101 0.16316472 -0.25509045
-0.036115944 0.059079748 0.21466722 -0.3518978 -0.0374411 0.02066953 -0.050550003 -0.074751414
-0.037163723 0.04899251 0.20327547 -0.07245996 -0.09432945 -0.008615151 -0.0791272 0.0067324447
0.14904709 0.4311551 -0.055259746 -0.077264726 0.4722397 -0.020794094 -0.33149767 0.05284295
-0.5549699 -0.016659247 -0.023088625 0.7413737 0.02531592 -0.028119413 0.09263665 -0.08645242
0.21405666 -0.9893445 -0.5578028 -0.01714273 0.35557657 -0.78011286 -0.354897 -0.062172696
-0.038772754 -0.03264718 0.08872073 -0.03243109 0.77383995 -0.17384605 0.042985052 -0.18534529
-0.42902267 -0.5091787 -0.10486125 -0.5107753 -0.1733221 -0.82037497 0.096069016 0.114579126
-0.02866912 -0.2326876 -0.06719979 -0.41483453 0.1492716 0.076829396 -0.20128347 -0.008600281
-0.23952524 -0.14890265 -0.15936336 -0.18503088 0.13228394 0.07514092 -0.0050137267 -0.6044461
-0.24464041 0.15089326 -0.06795521 -0.7181296 -0.21513031 -0.8880812 -0.21059099 -0.513214

feature.2.bias f4 [128]
00000000: 26f7 1cbe 2620 d0bd e1d4 6c3f 1d3b 333f
00000010: 270a e23c 2e70 18bc 073e 133e 7614 533f
00000020: eb14 8c3e 4bc7 4dbe 1954 ab3e e0bf 253e
00000030: 567f 5b3e 938b 80be 6989 35be 4f66 de3d
00000040: cbbb 9fbc 3fb9 b93d 6ad6 33bd 128e ef3e
00000050: a0da 693e a457 c7bd 0889 68bf 4010 f0bd
00000060: fe2b 66be e67f 80bd f32e fabd 8b0d 21be
00000070: 3c93 84ba 45c4 0c3f 76a5 09be d1e6 cf3d
00000080: f017 863b b53f e43e f3c5 483e bfbe 94bd
00000090: 2586 eb3e 2c4e c93e a786 28be 7cc4 633e
000000a0: 38b0 01be 5089 993d 6ac8 1f3e 8888 ddbd
000000b0: 0e32 a13e d4a5 1abe 0c6a 97be d93d 943d
000000c0: ae3b 10bf abd9 2bbe d8bc 7bbf 703c 48bf
000000d0: 888d 8dbd c9d4 ab3e 75dd 723d 6fb5 083f
000000e0: 3a7d 9f3d 7176 85be b994 e83d 9cad 0abe
000000f0: 2685 54bd b71d 46bd e9af 2dbd 7206 073f
00000100: caa8 9f3e 392b f0bd 441b 04be 2edb 97bd
00000110: 6635 103f ab15 ebbb a8c4 d9bd 69e1 1fbe
00000120: 850a 1f3f 6401 b1be 70c6 c03e db0e a9bc
00000130: e8d0 0cbe 5da0 fb3c c0e0 a73e 5fe4 a6bd
00000140: 6adc d93e be77 353e 9df1 c3be 7e06 9dbd
00000150: e22f 51bd 91a8 4bbd 7ee3 193f 7935 ff3e
00000160: 50a0 16be 1d7e ebbe fe94 07bc 819f b8bd
00000170: e574 b8bc b082 2b3f 9dfc 57be 5385 f0bc
00000180: 5090 59bd 5fb8 c9bd 6b99 b63e cecc 203f
00000190: 412e 50bd 57f7 37bf 4bf8 843f 6306 543f
000001a0: e6fb 2d3f 2622 efbd f527 093f 53bf 2abe
000001b0: 9d96 e43e ad68 903b 7d10 cdbc 64b9 ebbd
000001c0: 27ca dc3e be47 99bd 4c5f d1be 1ac8 c63c
000001d0: a669 f43e a173 ad3e 2cec 343f 62bd 8ebb
000001e0: f9b7 5abc dc53 cc3e 6128 a9bd ff61 83bd
000001f0: 74ca 453e 3eec e5bd 4fd4 01bc b98f 0cbf
-0.15328655 -0.10162382 0.9251233 0.70012075 0.027592732 -0.0093040895 0.1437913 0.82453096
0.2735971 -0.20095555 0.334626 0.16186476 0.21435294 -0.25106487 -0.17728199 0.108593576
-0.019498726 0.09068536 -0.043905653 0.4678808 0.22837305 -0.09733513 -0.90834093 -0.117218494
-0.22477719 -0.06274395 -0.12215986 -0.15727822 -0.001011468 0.54986984 -0.13442025 0.101514466
0.004092209 0.44579855 0.19606762 -0.072629444 0.46000782 0.39317453 -0.16457616 0.22242922
-0.12664878 0.074968934 0.15603796 -0.10817057 0.314835 -0.15102321 -0.29573095 0.07238359
-0.56341064 -0.16782252 -0.9833503 -0.7821722 -0.069117606 0.3356078 0.05929323 0.53401846
0.07787557 -0.26066926 0.113564916 -0.13542789 -0.051884793 -0.048368182 -0.04240409 0.5274421
0.31183463 -0.11726994 -0.12901026 -0.07414852 0.5633148 -0.007174214 -0.10633212 -0.15613331
0.62125427 -0.34571373 0.37651396 -0.020636966 -0.13751566 0.030716116 0.32788658 -0.08149027
0.42550975 0.1772146 -0.38270274 -0.07667254 -0.051071055 -0.049721304 0.6011275 0.49845484
-0.14709592 -0.45994654 -0.008275269 -0.09014798 -0.022516677 0.6699629 -0.21092458 -0.029360449
-0.053116143 -0.09849619 0.35663924 0.6281251 -0.05082536 -0.71861786 1.0388273 0.82822245
0.6796249 -0.11676435 0.53576595 -0.16674547 0.4464616 0.0044070096 -0.025032276 -0.1150997
0.4312298 -0.07484387 -0.40893018 0.024265338 0.47736853 0.3387728 0.7067287 -0.0043560723
-0.013349527 0.3990773 -0.08259655 -0.06415176 0.19315511 -0.112267 -0.0079241535 -0.54906803

value.0.weight f4 [64, 128]
00000000: dc7c 203f 8dd4 f8bc ebc0 89bf d5d5 fdbd
00000010: 72fa a5bc 51fb b5bd 12b2 313e 390a 37bf
00000020: 2396 3dbf 69c6 343d 1333 68be d5f9 353b
00000030: 4292 26bf f9b1 ebbd a2c5 24bf 3896 38bf
00000040: def4 2ebc 05ad 5fbf 6a89 813c ae6d 78bf
00000050: 01d2 a7be 1313 a1bd 53bd 5fbf 0079 95bb
00000060: 952c 353e bae0 84bc ecf2 a83d a25d b3be
00000070: a0ab 8abc 2534 57bd 0097 063c bfcc 55be
00000080: ccda 78bd 11bf 54bf 1e27 e9bd af5b a0bd
00000090: dd0f 57bc a013 5cbf b19d 75bf 12e6 49be
000000a0: f585 22be 0589 aebe 3f0e 81be c24d 6ebd
000000b0: 442b 11bf 4d66 cdbd afb6 aebc 4acf 843d
000000c0: 9824 d6be e3a4 e0be 72a8 7bbe ee76 8cbe
000000d0: 7010 97bc 7223 afbe 180a 40be 6969 e0bf
000000e0: 9782 3cbf 2f43 be3f 924b 06bf 1280 153d
000000f0: f44c 143d 8074 873a 5209 523d b471 6dbf
00000100: 28a5 61be 6b07 923d 4a2c 643d 5449 8c3c
00000110: 62bd bf3d 8bc6 133d a271 cb3d 77aa dcbd
00000120: 4dde b1be 6fae 703e 4905 4dbf 399d 00bd
00000130: d69a 47be 5bdf 17be 5c4b b5be 9a79 863d
00000140: cc5f e7be 8e31 19bc f84b 593f fcff 763d
00000150: 1a6a cf3c d3f0 48bd 0b66 afbe f838 28be
00000160: 451d 6ebe 13bc 4d3e 0f76 86bc 0c8a cd3d
00000170: 48bc b6be 44fc 653e 592c b23e 4a37 d5be
00000180: 3f96 683c 8361 82bd 5deb 293e 8586 3abd
00000190: 8620 bfbe c194 7ebe 34b3 fcbf 8fa8 5bbf
000001a0: b933 bebe 2cc1 cd3c bd48 e2be fc29 72bf
000001b0: b19e b2bf 036f 9e3d 4912 493d 93d1 493d
000001c0: 48c1 15be 72fc ccbc d572 86be ad50 7ebe
000001d0: 966c 8dbe 03ce 82bf 7624 5c3e da42 64bd
000001e0: bc4c 413f 66fe 3d3e 4d98 8e3d fdea 273d
000001f0: 5cc9 43be 3a47 94bd 486e d73c 425a 893d
00000200: 27ad abbd 68ae 0bbd e4f5 0fbe 1ebb fdbd
00000210: e49f 9ebd ac74 b3bd 3d8f 9abe b637 b5bc
00000220: 10e5 873e de4b 033a 9cb7 c5be e70b a1be
00000230: 504d b93d 34ed a83c 0123 febd c3c6 87bd
00000240: 791d 8abd 5e86 b53c 7f78 573d f477 d3be
00000250: cd4e a5bd b909 69bd fd87 103e 0058 c03a
00000260: 8d91 07bd dc36 0ebe 88bf 0ebd 54db d7bd
00000270: e9e3 1c3b 3b52 20be 0e5b 7ebd b8b7 cfbd
00000280: 9a28 4a3d bfe1 f1bd 21de ba3e d373 433d
00000290: fd31 93bd 8a16 8abd 4877 e5bd 6789 27bd
000002a0: 0d01 0ebe f902 35be 3853 1dbd 4069 2abd
000002b0: afdc d7bd 66e5 3c3d f526 923d 5364 f0bd
000002c0: e9ae cd3d 38f6 963d d21f 323e ce23 cfbd
000002d0: c6da 583d 0606 87be d2f6 ccbe ef05 6dbd
000002e0: 9c79 01be cc28 a83e a585 2c3d a581 a23d
000002f0: 91bc 0dbd d387 b1bd 6f26 5ebd 923a 5cbe
00000300: 8c5c 63bd b0c2 afbb 36c4 7b3d cf1a 58bd
00000310: eae4 68be be83 1d3d 90fb f53b 78e0 e73d
00000320: 8b04 143d 4e72 81be 2896 82be 2d9a 643d
00000330: 0de7 99bd 079b b9be 4681 75bd 17a9 c43d
00000340: 5d37 bfbe f7ff 123d 7e47 1f3e d3d4 b33d
00000350: a441 09bd e8d4 0e3d a045 9bbe 0542 30be
00000360: a4fa 98bd 2127 e73d 79c6 1ebc e69b 953d
00000370: e40e 693d 545c 16be 7e40 99be f52c c13e
00000380: b075 b93c b049 c2bb c28a 8e3e 4b6e 17be
00000390: 2cde 9ebc 6763 4dbe 06c8 13bc 3033 90be
000003a0: 6c89 7abe 00a8 c939 81c4 31be f6e4 30be
000003b0: eda3 e8bc 1866 8abd 68d6 8fbc ce70 7d3d
000003c0: 1716 b2bd 1d59 9abd 5610 2cbe 1da6 99bc
000003d0: c7cc cbbd 2df2 59be 1750 1bbf e11d deba
000003e0: 0d7c 2fbe 2fd7 38bd 7492 86bd 7f9b b13d
000003f0: 567c c9bd 5cad ccbc 544b 87bc b94a 3c3e
0.6269052 -0.03037479 -1.0761999 -0.12394301 -0.020261023 -0.088858254 0.17353085 -0.71499974
-0.74057215 0.04413453 -0.22675733 0.002776732 -0.6506692 -0.11508555 -0.64364064 -0.72104216
-0.010678498 -0.8737338 0.015812594 -0.9704236 -0.32777408 -0.07864966 -0.8739826 -0.0045615435
0.17692788 -0.01622044 0.08249459 -0.35032374 -0.01692754 -0.052539963 0.008214712 -0.20878886
-0.060755536 -0.83104044 -0.11384414 -0.07829987 -0.013126341 -0.85967445 -0.95943743 -0.19716671
-0.15871413 -0.34088913 -0.2520618 -0.058179624 -0.56706643 -0.10029278 -0.021327345 0.0648485
-0.41824794 -0.438758 -0.24575976 -0.27434486 -0.018440455 -0.3420673 -0.1875385 -1.7532169
-0.73636764 1.4864253 -0.5245906 0.03649909 0.0362062 0.0010334402 0.05127842 -0.9275162
-0.22035658 0.07130321 0.0557063 0.01712481 0.09362294 0.036078017 0.09933783 -0.10774701
-0.34739915 0.23504041 -0.8008619 -0.03139994 -0.19492659 -0.14831297 -0.35409057 0.065661624
-0.45190275 -0.009350194 0.84881544 0.06030272 0.025319148 -0.049057793 -0.3425754 -0.16427982
-0.23253353 0.20091276 -0.016413717 0.10036096 -0.35690522 0.22459513 0.3479946 -0.41643745
0.014195978 -0.06366255 0.1659369 -0.045538444 -0.373295 -0.24861433 -1.9742188 -0.85804075
-0.37148836 0.025116526 -0.4419612 -0.94595313 -1.3954679 0.077360176 0.049089704 0.04927213
-0.14624512 -0.025022719 -0.26259485 -0.24835463 -0.27621907 -1.021912 0.21498284 -0.055727817
0.7550771 0.18554077 0.06962643 0.040995587 -0.19119781 -0.07240148 0.026297703 0.067066684
-0.083826356 -0.034101874 -0.14058644 -0.123892054 -0.077453405 -0.08762488 -0.30187407 -0.022121292
0.26541948 0.00050085585 -0.38616645 -0.31454393 0.09047949 0.02062092 -0.1240902 -0.06629708
-0.06743903 0.022158798 0.05260515 -0.41302454 -0.08071671 -0.056894038 0.14114375 0.0014674664
-0.033097792 -0.13888115 -0.034850627 -0.105398804 0.0023939556 -0.15656368 -0.062098555 -0.101424634
0.049355127 -0.11810636 0.36497596 0.04771788 -0.07187269 -0.0674258 -0.11204392 -0.04090252
-0.13867588 -0.17676915 -0.03840944 -0.04160428 -0.10540139 0.04611721 0.07136337 -0.11737885
0.10043127 0.07371181 0.17394951 -0.10114251 0.052943014 -0.26371783 -0.4003206 -0.057866987
-0.12644047 0.32843626 0.04211964 0.07934884 -0.03460366 -0.086684845 -0.054235872 -0.21506718
-0.05550818 -0.0053637847 0.06146642 -0.05275994 -0.22743574 0.038455717 0.007506795 0.11322111
0.036137145 -0.2528252 -0.25505185 0.055811096 -0.075147726 -0.3625109 -0.059937738 0.09602564
-0.37346926 0.03588864 0.15554616 0.087808274 -0.033509865 0.034871012 -0.30326557 -0.17212684
-0.07469681 0.1128676 -0.009690874 0.07305126 0.056898966 -0.14683658 -0.29932016 0.37729612
0.022639126 -0.0059291944 0.2784024 -0.14788167 -0.01939305 -0.2005745 -0.009019857 -0.28164053
-0.24466485 0.00038462877 -0.17360117 -0.17274842 -0.028398478 -0.06757754 -0.017558292 0.061875157
-0.086956196 -0.07536528 -0.16803107 -0.018755967 -0.099511676 -0.21283789 -0.6066908 -0.001694616
-0.17137165 -0.04512709 -0.065709025 0.08672237 -0.09838168 -0.024985008 -0.016515411 0.1838788

value.0.bias f4 [64]
00000000: 8165 753d 048a 9dbe 9c4f 5c3f 53af 8dbe
00000010: 09bb b63e d814 093c f282 16be 4501 cc3e
00000020: aa10 af3a 8484 073f 0b1a 11bf f91d 5d3f
00000030: b670 12bf b3e6 453f 8c29 5e3f a8e0 5cbc
00000040: 3b36 a13f ce47 9d3f aa9c eebd f999 71bf
00000050: 3d8f cdbe f435 fb3d 65eb 15bf 7b86 5e3e
00000060: e8ce ec3d 120b 0bbe 2d7b 463f f745 423f
00000070: 9216 a33f 0752 f1bc fcdf 483f eeca 0abe
00000080: 1549 883e 7e83 32bd e941 773d 03ae 9dbe
00000090: a3ab 9e3f ed86 e2bc 7d2a 62be bfa4 703d
000000a0: 752e a73f fa13 a13e b58c a13f 1ae0 b7be
000000b0: f398 bc3e 7ab2 1fbe f5a2 5a3d ca74 92be
000000c0: 190c a93f 7914 71bf 7501 6e3f a559 9c3f
000000d0: 63f9 493f cdeb 393f b2df 67be c17c 9abe
000000e0: c443 05be 7615 86be e58b a33f c1d2 25bd
000000f0: 11c8 63bf 3c8f 863e e3c9 023f 8e63 06be
0.059911255 -0.3076936 0.86058974 -0.27672824 0.35689571 0.008366786 -0.14698389 0.3984472
0.0013356407 0.5293658 -0.56680363 0.8637386 -0.57203233 0.77305144 0.86782146 -0.013481297
1.2594675 1.2287538 -0.11650975 -0.9437557 -0.40148345 0.1226615 -0.5856231 0.21730988
0.11562902 -0.13578442 0.775317 0.7588801 1.2741263 -0.029458059 0.78466773 -0.13553974
0.26618257 -0.043582432 0.06036559 -0.30796823 1.2396129 -0.027652228 -0.2208652 0.058750864
1.3061053 0.31460553 1.2621065 -0.35913163 0.3683544 -0.15595427 0.053378064 -0.28604728
1.3206817 -0.94171864 0.92970973 1.2214857 0.7889616 0.7262543 -0.22643927 -0.30173305
-0.13014132 -0.26188248 1.2777067 -0.040484194 -0.8897715 0.26281154 0.51089305 -0.13123915

value.2.weight f4 [1, 64]
00000000: 01de eabf 250d b23e 43a2 9ebe 40a6 7a3f
00000010: 2349 853f d6fc ea3e c09b ea3b c9cf 90bf
00000020: c701 43be 6bfa 6bbe f83b 003f ffb9 55be
00000030: 707a 3a3f df01 08bf 3abc 79be 59eb cdbb
00000040: b1e7 96be 7853 8fbe 061e 973f 7881 b53f
00000050: 91f4 b0bf 65a2 efbb b14e 503f 3f31 8dbf
00000060: ae07 1cc0 3739 8f3d 1f19 88be e459 64be
00000070: d8a2 acbe 1535 98bc 12b0 aabe 074d 04bc
00000080: 1f0f 023f 01bc b1bb 89cf 913f 849b 873f
00000090: 23e5 abbe 0762 aa3f ea30 1bc0 f886 2bbe
000000a0: a7c9 a0be 26c1 cebe b5c9 73be 1a57 b23f
000000b0: 402a 5e3f e73b f7bc fedb 213f e20f b33c
000000c0: d15c bdbe 93ac 773f 24d8 b4bf 304e 8bbe
000000d0: a6a0 97be 8c93 b1be 1044 d33e fed5 3dbd
000000e0: 0b40 94bc 6974 703f acef a8be b3f0 003f
000000f0: ea41 2a3f e904 edbf 812f 15be fdb2 13bf
-1.8349 0.34775653 -0.3098317 0.9790993 1.0412945 0.45896024 0.00715968 -1.1313411
-0.19043647 -0.23044746 0.50091505 -0.20871733 0.72843075 -0.53127855 -0.24388209 -0.006284159
-0.29473642 -0.2799337 1.1806037 1.4180136 -1.3824636 -0.00731306 0.81370074 -1.1030654
-2.4379687 0.06993335 -0.26581666 -0.22299916 -0.3371799 -0.018579999 -0.33337456 -0.008075005
0.5080432 -0.005424023 1.139146 1.0594335 -0.33573255 1.3311166 -2.4248605 -0.16750705
-0.3140385 -0.40381736 -0.23807414 1.3932831 0.8678322 -0.03017993 0.63226306 0.02185816
-0.36984876 0.967477 -1.4128461 -0.2720809 -0.29614753 -0.34682882 0.41262865 -0.046346657
-0.018096944 0.9392763 -0.32995355 0.5036728 0.66506827 -1.8517123 -0.14568903 -0.5769499

adv.0.weight f4 [64, 128]
00000000: b267 46be b263 823d 84e6 b6bd 34fb b23d
00000010: cab0 9539 cb8b 2a3d 2ca0 97be 86b5 e4be
00000020: 434d 503e fd1d b23d ed4a 1b3f dd50 f0bd
00000030: 2a5f b8be ee52 47bf d338 7cbe 7c66 82bf
00000040: 7193 03bd 2cda a4be 1bbb 8ebd bde1 41be
00000050: 865c adbd e9d7 95bd faea 56bc 9110 223d
00000060: 40c3 00bf 1f9f 2b3a 8e3d b3bd 40f9 4cbe
00000070: f8fb d53e b3cf cabd 64ad b53c 3f74 d43e
00000080: 92f4 ab3c 069e 7cbf 6c31 25be 5909 12bf
00000090: 1a60 c4bf b5ed 9bbd beb8 bcbd 4546 82be
000000a0: 9d86 c1bd 0425 c6bd f31e 8dbe ee66 54bd
000000b0: 39c8 f8be 5128 9c3d 0cf3 e7bd 1178 8cbe
000000c0: 3380 4f3c 4d44 7abf ffcc d63c bb1a 03bf
000000d0: f8ad 8c3d 9140 eabd c826 65be 899f 243d
000000e0: e72a c23e 9d6d 083f a684 06bf 4c3c 4dbd
000000f0: 9e0a 90bd 2256 84bd b70d 67bd c030 4b3e
00000100: 2b58 5dbf 8098 2a3b 00df 6b3c 0d49 5c3d
00000110: 838e 23bf 611f 95bd 1947 89bd 64bf 7dbd
00000120: 98ac b5bf 8648 893c a464 6dbf 97e4 c83c
00000130: 2bd6 a4bc fa3b 47bd a2c5 8b3e d2e5 673e
00000140: 6317 91be c566 7dbe c995 883f 91ef 20bd
00000150: e2c2 653d 170c 89bd 6649 f1be e2a6 8dbf
00000160: c8a7 43bf 62e5 cabe a2df b53a c5c3 94be
00000170: 30a4 67be e935 b4be aa38 d53e 47f7 4ebe
00000180: 9687 9abd 1eff 3d3d 2743 85bf 3e60 5ebf
00000190: 2fc8 583f a4c4 e03e 3019 9cbc b2f2 83be
000001a0: 670e 203c b46d 84bd 6750 723e 1940 f03c
000001b0: 15a9 153e 9435 9b3d 68c7 253c 3451 60bd
000001c0: 8928 4ebe cc87 9ebd fda7 86be d8c4 d7bd
000001d0: 4d22 61bf 3eec a23f 889a 57be b2d9 cdbc
000001e0: 0dd0 b5be 9542 c6bd 4b9c 7ebb 65a5 f73c
000001f0: 4788 65be 10b6 e9bb 6ca7 aabd 91c2 f33e
00000200: 4447 a0bd a6fc 213f 20d3 0abe 8caa 1abf
00000210: 81bf 07bd 2aa2 47bd 3c96 9cbe decc babe
00000220: fb8d 6dbd 48ae c1bd f96b bebe bd92 92be
00000230: 6846 04be 6ed3 1cbe cce3 7bbe 7479 99be
00000240: d2ac 763d ec2d c2be fc03 16bd a9d8 21be
00000250: 8953 c5bd 3ed2 b0bd 4240 853e 081c 4abc
00000260: b4cb 8d3c 2976 9c3d 1589 9a3c 7fec 9dbe
00000270: 380c c2be e048 99bd 6665 2c3d f897 333e
00000280: 8819 07bd f263 3cbf 2d1e 43bf 8541 953c
00000290: 9167 b5bd 9998 af3d d4dd 51bf 9795 fdbd
000002a0: 4d59 6a3d ebc1 d0bd d80c 33be 2c13 bc3c
000002b0: 6887 f5bd 4923 4abd 679a febd 7cff 22be
000002c0: 13be 953e 9758 0ebd e3b4 dc3e b6e8 dcbe
000002d0: 730d 8abc b8d8 983e 33fe 98bd 5d3c 6f3e
000002e0: fe67 adbd 33eb e83d 4b7c f23e 39f6 a6bd
000002f0: a6e9 493d dbe0 93bd a0ff a83b f099 513e
00000300: 3ac2 b23d 00e3 aeb9 418e ab3d 289e 433c
00000310: 668b adbd ec3a 713d 7ff7 6abd bf76 763c
00000320: 916b 8ebd 9092 7f3d caba 8ebe 4285 393d
00000330: 032d 44bd f35f f53d eaea bf3e 2618 9b3e
00000340: 3162 4fbe c887 47be d15d 4f3f 881f 8fbc
00000350: c35d 9d3d 6a72 f9bc 2fe8 32bf 6b7b 9ebe
00000360: 699c 923d 01af c0be 0a3e 4b3d 5f75 8b3e
00000370: 1a5e 02be 0321 02bd 1750 ef3c c4f4 99bc
00000380: a3d3 69bd 959a 343d 8b5a cc3e 2e51 58bf
00000390: ecd8 703e 032b 77be eb1c 29be c343 54bf
000003a0: 22ed ddbd 8d8d 7dbd 431f b2be 85fc f2be
000003b0: a886 35bf 707a d2bc 80c2 e7ba 6a0f 683d
000003c0: 38c1 80be 5489 abbd 9d53 f1bd 5da5 efbd
000003d0: cc70 d93e 61d5 4a3e b107 29be 4558 93bd
000003e0: 6dc0 b53c 1efa 65bd de80 66bd 788d 06bd
000003f0: 156f 86bd 3b04 a43d f053 993b fdb3 233f
-0.19375494 0.063666716 -0.08930686 0.087393194 0.00028551213 0.041637223 -0.2961439 -0.4466974
0.20341973 0.08697126 0.606612 -0.117341734 -0.36010104 -0.77860916 -0.24631052 -1.0187526
-0.032123033 -0.32197702 -0.06969281 -0.18933769 -0.08464913 -0.07316572 -0.013117546 0.03956658
-0.5029793 0.0006546843 -0.08751975 -0.20016956 0.417938 -0.09902897 0.022177406 0.4149494
0.020990644 -0.98678625 -0.16132134 -0.57045513 -1.5341828 -0.076136984 -0.09214924 -0.25444236
-0.094495036 -0.09675029 -0.27562675 -0.051855974 -0.48590258 0.07624877 -0.113256544 -0.27435353
0.012664842 -0.9776047 0.026220797 -0.5121266 0.068691194 -0.11438096 -0.22378075 0.040191207
0.37923357 0.53292257 -0.52546155 -0.05010633 -0.07033275 -0.06461741 -0.056409564 0.19842815
-0.8646266 0.0026030838 0.014396429 0.053780604 -0.6388933 -0.07281376 -0.06703014 -0.061950102
-1.4193296 0.016758215 -0.9273169 0.024523063 -0.020121654 -0.048641182 0.2729922 0.22646263
-0.28338155 -0.24746235 1.0670711 -0.03929097 0.056094058 -0.06691759 -0.4712631 -1.1066554
-0.7642789 -0.3962813 0.0013875852 -0.2905561 -0.22621226 -0.3519738 0.41644794 -0.20211516
-0.07545392 0.046385877 -1.0411118 -0.86865604 0.84680456 0.43900025 -0.01905498 -0.257711
0.009769059 -0.06466237 0.23663484 0.02932744 0.14615281 0.075785786 0.010118343 -0.05476494
-0.2013265 -0.07740745 -0.2630004 -0.10535592 -0.87942964 1.2728345 -0.21055043 -0.02512822
-0.35510293 -0.09680668 -0.0038850482 0.030230233 -0.22415267 -0.0071322992 -0.083327144 0.4760938
-0.07826093 0.63276136 -0.135571 -0.60416484 -0.033141617 -0.048738636 -0.3058337 -0.36484426
-0.05799673 -0.0945707 -0.37191752 -0.28627577 -0.12917483 -0.15315029 -0.24598616 -0.29975474
0.060223408 -0.3792566 -0.036624894 -0.15805306 -0.09635074 -0.086338505 0.26025587 -0.012335785
0.017309047 0.07639725 0.018864194 -0.30844495 -0.37899947 -0.07484603 0.04208889 0.1753844
-0.032983333 -0.73590004 -0.7621792 0.018219719 -0.08857644 0.085740276 -0.8197911 -0.123820476
0.05721407 -0.10193237 -0.17485368 0.02295836 -0.11988717 -0.049350057 -0.12431794 -0.15917772
0.29246578 -0.034752455 0.43106756 -0.43146294 -0.016852116 0.29852843 -0.0747036 0.2336287
-0.084671006 0.11372986 0.47360453 -0.08152432 0.04929509 -0.07220622 0.005157426 0.20468879
0.08728452 -0.00033356994 0.08376742 0.011939563 -0.08473854 0.058894083 -0.057364937 0.01504296
-0.069541104 0.062395632 -0.27876884 0.0452931 -0.04789449 0.119811915 0.37483913 0.3029186
-0.20252301 -0.1948539 0.8100253 -0.01747109 0.07683899 -0.030450065 -0.69885534 -0.30953535
0.07158739 -0.37633517 0.049619712 0.27237985 -0.1273121 -0.031769764 0.029212995 -0.018793471
-0.057086598 0.044092733 0.3991283 -0.8449887 0.23520249 -0.24137501 -0.16514938 -0.82915896
-0.10836245 -0.06190257 -0.34789476 -0.47458282 -0.70908594 -0.025693148 -0.0017681867 0.056655325
-0.25147414 -0.08375803 -0.11783526 -0.117014624 0.4246887 0.1980796 -0.1650684 -0.071945705
0.022186482 -0.056146733 -0.05627524 -0.03284976 -0.06564156 0.080086194 0.0046791956 0.63946515

adv.0.bias f4 [64]
00000000: e087 0fbf e20e acbe 711b 84be 3c86 f0be
00000010: baca a6be e862 0f3b fe84 8bbe cabc f8be
00000020: 6446 14be 6db4 2ebf 3239 23be 79a3 8cbe
00000030: 952c 1ebd d976 11be c39b babc 930b fcbe
00000040: 204c 89bd 8d26 1bbf 1667 81be 77e4 18be
00000050: db2c d6bd e8aa cf3e 9669 03bf 1294 84be
00000060: 7914 00bd dc00 a8be 9c32 91bd 8b6b 0cbe
00000070: 080d 85be 0680 dfbe 861e bebe 9f21 f4be
00000080: 0fa1 a1be 24e9 10be 02c3 47be 8bbd de3c
00000090: 7b41 0dbf b3ea d0be c52d 9ebe b760 83bd
000000a0: 9007 e9be 334d 09be 5fa4 04bf 4c8e 1fbe
000000b0: b976 a1be 1a3e 02be 6ae4 2cbf 09d5 aabd
000000c0: bc02 35bf cdd3 f2bd 5a41 05be 723b 6ebd
000000d0: 289f 39be ebb0 35be 359d 2cbe c2e9 85be
000000e0: 2439 05bf 5e78 a1bd 03db f9be 11de 50be
000000f0: 38c4 ecbe 0a8c 0ebe 528a 18be 635d 8cbe
-0.56066704 -0.33605105 -0.25802186 -0.46977413 -0.32576543 0.002187902 -0.27249902 -0.48581535
-0.14479977 -0.6824406 -0.15939787 -0.2746847 -0.038616735 -0.14205493 -0.022779351 -0.4922758
-0.06703973 -0.606057 -0.2527396 -0.14930902 -0.10457774 0.4056008 -0.51332986 -0.2589422
-0.031269524 -0.32813156 -0.07089731 -0.137129 -0.25986505 -0.43652362 -0.37132663 -0.476819
-0.3156819 -0.14151436 -0.19507983 0.02718999 -0.5517804 -0.4080406 -0.30894294 -0.06414931
-0.45513582 -0.13408355 -0.5181331 -0.15581626 -0.3153589 -0.12719002 -0.6753603 -0.083414145
-0.707073 -0.11856804 -0.13013211 -0.05816216 -0.1812712 -0.1774327 -0.16856845 -0.26154906
-0.52040315 -0.07884286 -0.48799905 -0.20397212 -0.46243453 -0.13920608 -0.14896515 -0.27414998

adv.2.weight f4 [2, 64]
00000000: e60a cfbf 3e27 30bf ca93 6d3d 065b 41bf
00000010: 34aa 50bf 8126 00be 1ae2 0b3f baa1 b6be
00000020: 3871 ef3d 7d39 8c3f e2b4 7bbd ed69 aebf
00000030: 2409 4c3f 1162 113d cdba dcbd f710 7cbe
00000040: bf29 93bd 32cb 88bf c0d9 bfbd 9cd4 d2bc
00000050: 5b54 9fbe 70bb 4b3e 14ba 143f ab43 c2be
00000060: 5d95 bbbc 063d 13bf 90c2 fdbd 1319 ae3e
00000070: 17fc 313f e0bc f9bf 20aa 66be 07c2 6a3e
00000080: 2ff9 0abf 4d26 da3c b52c 91bd c164 b53e
00000090: e3e7 0cc0 e76d 9d3e 1fa0 613d a34d d93e
000000a0: 2907 293f 38bb 37bc 2293 24bf 4571 863d
000000b0: c067 9cbe d445 193e c64c d6bf ab52 693f
000000c0: 5e8c bdbf 254c 623f f5d6 543d bf5e c53c
000000d0: 0d8e f73c 84a2 643e 7ebd 3bbd a1ee 37be
000000e0: 131d 323f 36c2 8c3e c969 92bf dec8 a43c
000000f0: b83e 233e 0300 833d 0467 4a3c 1b7a 93bf
00000100: 42a8 c63f c63c 343f 8122 b93b e267 2e3f
00000110: e0d8 613f 6e70 323e 82a5 0bbf d60c de3e
00000120: 924a 8e3d d36a 88bf 6403 a8bd 07c1 9f3f
00000130: 588d 41bf b025 673d 0ac1 8ebc 7c20 093e
00000140: 1cb3 a8bb a5b4 913f 0bdc 1abd 7fa4 44bd
00000150: e011 0c3e 6564 94be f229 1cbf 7b36 b33e
00000160: e29f 8a3d 9482 093f 3e1b b7bd 3d5b d4be
00000170: 2de3 22bf f82f f83f 5e17 a63d c15c c6be
00000180: 4ea1 043f 3ad1 423d c0c6 72bc 55e0 8ebe
00000190: 0b74 0640 76c7 d4be 8758 21be 50a7 b8be
000001a0: 6963 24bf b7fe 163c 8ee6 1d3f df70 aa3c
000001b0: 2ef1 353e 1469 f1bd 0e65 e03f d75c 67bf
000001c0: d65b c13f c573 42bf d81c bfbd 5e29 603b
000001d0: 69cf efbb e54c b4be 4e03 de3b 5742 2c3e
000001e0: 5b40 43bf fa2b 97be f1dc 8f3f bf7a 583c
000001f0: 3254 89be 07a5 643b b89a 33bc 4db7 9c3f
-1.6175201 -0.6880988 0.05800227 -0.75529516 -0.8150971 -0.12514688 0.5464188 -0.35670263
0.11691517 1.0955044 -0.0614518 -1.3626076 0.7970145 0.035493914 -0.10777817 -0.24615847
-0.07185697 -1.068701 -0.093677044 -0.025736146 -0.31119046 0.1989572 0.5809643 -0.37942252
-0.02289837 -0.5751499 -0.123906255 0.34003505 0.69525284 -1.9510765 -0.22525835 0.22925578
-0.54286474 0.026629591 -0.07088605 0.35428432 -2.2016532 0.3074791 0.055084344 0.42442045
0.6602655 -0.01121407 -0.64287007 0.06564573 -0.30547905 0.14968044 -1.6742179 0.91141766
-1.4808462 0.8839744 0.05196281 0.02409303 0.030219102 0.2232762 -0.04583501 -0.17962123
0.69575614 0.2749192 -1.1438533 0.020115312 0.15941894 0.063964866 0.012353662 -1.1521639
1.5520098 0.7040523 0.005649865 0.6812726 0.8822155 0.17425701 -0.5454942 0.43369168
0.06947817 -1.06576 -0.08203772 1.2480782 -0.756063 0.056432426 -0.017426033 0.13391298
-0.0051483046 1.1383253 -0.037807506 -0.04800844 0.13678694 -0.28982845 -0.61001503 0.35002503
0.067687765 0.5371487 -0.08940743 -0.4147586 -0.6362789 1.9389639 0.08109926 -0.3874264
0.5180863 0.047562815 -0.0148178935 -0.27905527 2.1008327 -0.41558427 -0.15756427 -0.3606515
-0.6421419 0.009216002 0.61679924 0.020805774 0.17767784 -0.1178762 1.753084 -0.9037604
1.5106151 -0.759579 -0.093316734 0.0034204344 -0.0073184264 -0.35214916 0.0067752963 0.16822182
-0.76270074 -0.2952574 1.1239301 0.013212859 -0.26822048 0.0034888403 -0.010962181 1.2243439

adv.2.bias f4 [2]
00000000: 6bda 9abd cfd5 95bd
-0.07561191 -0.073161714
