positive_tune2/checkpoints/ep_0001.pt (torch, 145855 bytes, 11 tensors)

feature.0.weight f4 [128, 16]
000000 28 2d 90 3f 6e 83 66 bf 60 97 27 bf c4 da 4b bf
       1.126378 -0.90044296 -0.65465355 -0.79630685
000010 21 7e 41 c0 ad b2 36 3f b3 5e 97 3f cd 82 4b 3f
       -3.0233233 0.7136639 1.1825775 0.7949646
000020 07 69 3f 3f ee 2a 2f 3f b9 aa 03 bf 65 28 2b bf
       0.74769634 0.6842488 -0.5143238 -0.6685851
000030 52 c8 80 bd 87 39 af 3e 4c 60 18 40 e6 bb 9f bf
       -0.06288208 0.34223577 2.3808775 -1.2479217
000040 51 49 86 3e 74 fb bd bd fe ca e6 be 30 e6 7c be
       0.2622781 -0.092764765 -0.45076746 -0.24697185
000050 03 e2 ac 3e 88 3f 6c 3e 97 d5 22 3f ee d4 fb 3e
       0.33766183 0.2307111 0.6360716 0.4918589
000060 78 03 5a bf 57 90 fb be c9 40 6c be eb 07 1a bf
       -0.8516154 -0.4913356 -0.23071589 -0.6016833
000070 b5 87 b5 be 8a 24 ca be 52 0a 74 3e d8 51 03 bf
       -0.354551 -0.39481002 0.23832062 -0.5129676
000080 d5 3b ed be 27 35 a8 3e f7 e7 86 3e 1e 0c d3 3d
       -0.4633471 0.32853052 0.2634885 0.103050455
000090 0c ac 61 be fa b4 0e 3e 84 94 69 3e d6 53 bd 3e
       -0.22038287 0.13936225 0.2281056 0.36978024
0000a0 35 c8 0b 3e a5 61 15 3e e6 cd 6b 3f cd 95 57 3f
       0.13650592 0.1458803 0.9211105 0.8421295
0000b0 41 6f 31 3e 76 d6 e5 be 9c eb e0 be 85 21 11 bf
       0.17327596 -0.44890183 -0.43929756 -0.5669177
0000c0 3a fd 04 3f 2f e5 04 3f 71 87 20 3f db 13 5a 3f
       0.51948893 0.51912206 0.6270667 0.8518655
0000d0 f0 ed af 3f f2 33 21 bf 50 1b 5c be 74 1a 6d be
       1.3744488 -0.6296989 -0.21494794 -0.23154622
0000e0 77 1c 89 3f ca 98 93 3f f3 86 b7 3e a6 d5 12 3e
       1.0711812 1.1531003 0.35845146 0.14339313
0000f0 1c 56 1a 3f f6 bb 6f bf b3 88 8b 3e 67 f1 21 bf
       0.6028764 -0.9364618 0.2725273 -0.63258976
000100 2a a3 29 3f a2 9f fa bd c2 96 de bd ab 6b 34 3e
       0.66264594 -0.12237479 -0.108685985 0.17619197
000110 15 20 9c 3f 92 92 3f bd b4 da 3d be 03 51 10 3e
       1.2197291 -0.04677064 -0.1854046 0.14093404
000120 4e 4a 75 3f b4 5d 47 3f 17 95 2c bd 57 63 26 bd
       0.95816505 0.77877355 -0.04213437 -0.04062208
000130 78 32 86 3e c4 7e b4 c0 08 43 01 3f 28 28 aa 3d
       0.2621038 -5.6404743 0.50492907 0.083084404
000140 1a fc 04 3f df c8 ad 3e 8a 94 a7 3d cc c8 55 3e
       0.51947176 0.33942315 0.081826285 0.20877379
000150 bd 85 0d c0 10 4a 6d 3f 5e 26 86 3f fc 23 97 3f
       -2.2112877 0.92691135 1.0480459 1.1807857
000160 d1 f5 26 bf 31 63 0f bf 3c 04 8e 3e 33 f4 c7 3e
       -0.65218836 -0.5601073 0.27737606 0.39053497
000170 1e 51 c9 3e d1 3b a6 3e 2a 40 a1 3f 0c 55 f8 be
       0.393197 0.3246751 1.2597706 -0.48502386
000180 aa 14 f1 3e 1f 40 b5 be 83 1e 66 be 54 c3 0b be
       0.47086078 -0.35400483 -0.22472577 -0.1364873
000190 c3 22 9e be e1 85 fb bc 18 73 0d 3e 0a f2 17 3e
       -0.30885896 -0.030703487 0.13813436 0.14838424
0001a0 38 b7 3a 3e 70 a6 43 3e 11 11 a7 3e 75 8d fb 3d
       0.18233955 0.1910646 0.32630208 0.1228284
0001b0 85 00 40 3e 48 d0 0f bf 78 83 00 3e ff 72 25 bf
       0.18750198 -0.56177187 0.12550151 -0.64628595
0001c0 bd 17 2c 3f c8 04 35 be a4 f9 bd bd 6c e6 d5 bd
       0.6722372 -0.17677605 -0.09276131 -0.1044434
0001d0 13 49 f6 bf 6d 2c 0d bf 11 6f 16 bf 15 71 12 bf
       -1.924105 -0.55145913 -0.58763224 -0.572038
0001e0 d3 92 f7 3e 3b 37 48 3f 80 94 74 bf 78 a5 91 bf
       0.48354205 0.78209275 -0.95539093 -1.1378622
0001f0 f0 d1 83 bf a7 b2 6f bf d7 1b a6 bf 94 57 5c 3e
       -1.0298443 -0.93631977 -1.2977246 0.21517783
000200 d2 16 3e c0 54 90 a9 be c8 b8 90 be 8e 24 e5 be
       -2.9701428 -0.33117926 -0.28265977 -0.44754452
000210 d7 89 c7 3f d0 68 37 c0 62 c5 4b c0 aa 8f 47 c0
       1.558894 -2.8657722 -3.1839223 -3.1181436
000220 56 c9 ec 3e d6 40 fa 3e b0 a6 1f 3f a3 0d 30 3f
       0.46247357 0.4887759 0.6236372 0.6877081
000230 19 4e d4 be b3 e1 cc 3e e5 ee 04 3f c5 c1 93 bc
       -0.41465834 0.40015945 0.51927024 -0.018036732
000240 e3 89 dc bf 2a 62 7a 3f d6 d6 4e 3f 6c 4c 67 3f
       -1.722958 0.97806036 0.80796564 0.90350986
000250 9a d0 e0 3f 3f 8a 8a be 4e 55 81 be ab 6d 72 be
       1.756366 -0.27058598 -0.25260395 -0.23674648
000260 30 54 f0 3e 8a d9 92 3e 30 c5 b3 bc 57 11 a0 be
       0.4693923 0.28681594 -0.021944612 -0.3126323
000270 2c 61 2e 3f f4 b9 78 be 3a fd 9e bd 8d 93 44 be
       0.6811702 -0.24289685 -0.07763143 -0.19196911
000280 17 90 9b 3f d9 1c 7d bf 5b ed 6a bf 67 ee 9f bf
       1.2153348 -0.98872143 -0.91768426 -1.249463
000290 73 d7 a4 be be 03 03 bf e2 23 e9 be 76 3d b8 be
       -0.32195625 -0.51177585 -0.4553519 -0.3598439
0002a0 0e 23 b1 3e 74 54 8d 3e 35 92 e8 be 84 df 08 bf
       0.34597057 0.27603495 -0.45424047 -0.5346606
0002b0 3d fe 16 be f7 3f b0 bf 97 29 44 bf d3 34 b3 3b
       -0.14745422 -1.376952 -0.7662596 0.0054689436
0002c0 f6 57 60 be 11 07 d3 bc 31 ae 00 be 96 6f 0c bd
       -0.21908554 -0.025760205 -0.12566449 -0.034286104
0002d0 bf dc d7 3f 66 ed 64 3e 4a 37 fd 3d f8 a5 54 bd
       1.6864241 0.22356185 0.12364061 -0.051916093
0002e0 1b 4b 87 be ac e9 dc be ac 32 05 be d4 63 01 be
       -0.26424488 -0.43147027 -0.13007611 -0.12635738
0002f0 64 5d ae 3e a9 9e 23 c0 ff ac 2c 3f fc 6b b2 bd
       0.34055626 -2.5565588 0.6745147 -0.08712003
000300 a9 6e 02 bf d4 4d 11 3f f7 4b e2 3e 9d 6b 21 3f
       -0.50950104 0.5675938 0.44198582 0.6305483
000310 c1 d6 44 c0 27 77 b8 be 46 56 11 bf f4 7d 0d bf
       -3.0756075 -0.36028406 -0.5677227 -0.55270314
000320 de 5c ea 3e aa 6c dc 3e eb f6 39 3f 81 59 06 3f
       0.45773977 0.43051654 0.7264239 0.5248032
000330 00 b2 3c 3f ca b2 b6 bd 14 a6 24 3f 48 d3 50 bf
       0.73709106 -0.0892082 0.64315915 -0.8157239
000340 e0 78 cd be 83 83 92 3f 59 4e 6d 3f 77 65 2c 3f
       -0.40131283 1.1446384 0.92697674 0.67342323
000350 c4 64 a4 3f 6e 6a 68 be e9 18 91 3a 17 82 3a be
       1.2843251 -0.2269685 0.0011070046 -0.18213688
000360 19 8a 23 bd 2a 62 16 3e 02 2a b8 3f 9a 03 d4 3f
       -0.039926622 0.14685884 1.438782 1.6563599
000370 0d d2 58 3f 2c 23 02 bf 00 5e ee be 0b 97 63 3d
       0.8469551 -0.5083492 -0.4655609 0.055563968
000380 d9 5a 23 bf e9 09 31 3f d4 fe ed 3e c6 16 f3 3e
       -0.638105 0.69155747 0.4648348 0.47478312
000390 e9 62 42 bf 4f f6 d1 be be 71 35 bf 2b 62 0e bf
       -0.75932175 -0.4100823 -0.7087668 -0.5561854
0003a0 ac 62 59 bf b6 b9 70 bf 8e 4f 5c 3f 72 4a 7f 3f
       -0.84916186 -0.9403337 0.8605889 0.9972297
0003b0 d6 ed 00 3f bb f0 d6 be 98 62 ed 3e 2a a4 42 bd
       0.5036291 -0.41980538 0.46364284 -0.04751984
0003c0 43 c8 d6 3f 18 52 58 bd 97 a3 80 3d 27 09 cf 3d
       1.6779865 -0.052812666 0.06281202 0.101091675
0003d0 17 55 2d c0 40 20 13 3f 41 df 44 3f 0c 76 18 3f
       -2.7083185 0.57471085 0.7690316 0.59555125
0003e0 ee 3b 3c 3f c4 b8 69 3f b1 ad 8c bf 08 0f 71 bf
       0.73528945 0.91297555 -1.0990506 -0.9416356
0003f0 37 7b 34 3f f6 69 0b be 3f 12 a8 3d 78 01 2e be
       0.7050051 -0.1361464 0.08206605 -0.16992748

feature.0.bias f4 [128]
000000 9d 27 7a be 08 89 83 be b6 4d b4 be 4e 0c 3c 3f
       -0.24429174 -0.25690484 -0.3521554 0.73456275
000010 d4 32 ab 3f 0a a0 7f 3f 7b 14 09 bf cc fb 88 3f
       1.3374887 0.99853575 -0.53546876 1.0701842
000020 9f 6d 86 3f 63 be 29 be a1 9d 07 bf bf 8d a8 3f
       1.0502204 -0.16576533 -0.529749 1.3168257
000030 bc 63 d0 3e 7f f7 a4 3e 2e 4e 28 3f 10 b8 14 c0
       0.4070109 0.32220075 0.6574429 -2.3237343
000040 66 7f a5 bf 9f c0 14 40 53 88 f4 3f 25 3e a6 3e
       -1.2929504 2.3242567 1.9104103 0.32469288
000050 25 ce 6d 3f 02 a3 d9 3f fa aa bb 3f 3c 46 00 bf
       0.92892677 1.7002871 1.4661553 -0.5010717
000060 dc 1b 91 bd aa 8b 4b 3f a0 6d 74 bd 4a 34 a2 bf
       -0.07085392 0.79509985 -0.05967486 -1.2672207
000070 dc 68 90 3f 17 f9 0b bf fc ee 8a 3f 31 c4 f2 be
       1.1282 -0.54676956 1.0854182 -0.47415307
000080 6f 96 c4 be 99 4f 27 c0 27 9a 89 bf 57 75 60 bd
       -0.38396022 -2.6142333 -1.0750169 -0.054799404
000090 54 0c 02 3f 53 65 c8 3f 36 2a 1b 3f 75 d7 90 bc
       0.5080006 1.5655922 0.60611284 -0.017680863
0000a0 62 36 91 bf 7c b0 cf 3f 73 d9 18 bf 9c 5b c2 3f
       -1.1344721 1.6225734 -0.597068 1.5184207
0000b0 c7 49 1e be 4d be 10 bf 42 93 2a c0 e5 9b 61 3f
       -0.15457831 -0.56540376 -2.665238 0.881285
0000c0 54 19 92 3f 0e 43 1b c0 41 1e ce 3e 40 31 eb be
       1.141398 -2.4259677 0.40257457 -0.45936012
0000d0 fd 99 21 bf a3 a5 b2 be 48 94 4d 3f 1d ca 51 3f
       -0.6312559 -0.34891996 0.80304384 0.81949025
0000e0 9e a1 dc bd d9 ef 2c bf 96 a7 2b 3e 3c 5e aa be
       -0.107730135 -0.6755348 0.16763148 -0.3327502
0000f0 7e ff 70 bf 60 4e 33 bc b4 c7 72 3e 36 9f 60 3f
       -0.9413985 -0.010943979 0.23708993 0.87742937
000100 cb 07 f4 bf aa f5 02 c0 e4 57 b7 bf 22 88 dd bb
       -1.9064878 -2.0462441 -1.4323697 -0.006760613
000110 2a eb 3c 3f 11 3f 95 3f b2 d5 20 3e 66 de 87 3f
       0.7379633 1.1659871 0.15706518 1.0614746
000120 e6 70 dd be 39 ec 61 bf 3f 11 bb bf bc d4 ea bf
       -0.43250197 -0.8825107 -1.4614638 -1.8346171
000130 c4 cc 74 3f 7e 3d d6 bf e5 ea 0e c0 3d d1 24 3f
       0.9562495 -1.6737516 -2.2330868 0.6438177
000140 fa a3 4c bd f2 1a f5 bf f6 15 9a 3e ab 29 73 bd
       -0.049961068 -1.9148848 0.3009488 -0.05936591
000150 fe 9b d5 be 3d 46 f5 be 5c a9 f0 3d e7 2a 04 bf
       -0.41720575 -0.4790515 0.11751053 -0.51627964
000160 2b 1e 43 bb 57 9e a4 bf 74 51 50 be d9 f7 60 bf
       -0.002977262 -1.2860821 -0.20343572 -0.87878186
000170 84 eb 83 bf d2 3e 15 bf b9 4f 3a bf 1c 48 08 40
       -1.0306249 -0.5829898 -0.727779 2.1294012
000180 49 6e 91 be 9b b8 90 bf ae 97 c0 bd e7 f4 c2 be
       -0.28404453 -1.1306337 -0.094039306 -0.3807747
000190 03 91 6c 3f 6e 7f e9 be 17 29 52 c0 77 fd 70 bf
       0.9240877 -0.45605034 -3.283758 -0.94136757
0001a0 e0 df 93 bf 82 49 70 bf 75 0f e5 3e 34 69 f7 3e
       -1.1552696 -0.93862164 0.44738355 0.4832245
0001b0 bd f0 1f 3e 67 70 94 bd 78 f1 ad 3e 0f 30 aa bf
       0.15619178 -0.072480015 0.3397329 -1.3295916
0001c0 fc 3b aa bf 14 7a 2f 3f d8 85 d4 3e eb 7e 06 40
       -1.3299556 0.6854565 0.41508365 2.1014965
0001d0 b7 08 13 3e fd 93 32 3f b0 65 15 bd 99 73 8b 3f
       0.14358793 0.6975706 -0.03647393 1.0894653
0001e0 3d 3e 06 c0 4f 20 7a 3f c0 da 80 bf cd 67 b1 bd
       -2.0975487 0.9770555 -1.0066757 -0.086623766
0001f0 f5 32 90 3f cc 6c 0f bf eb a7 67 3f 5a 3a a7 bf
       1.1265551 -0.56025386 0.904906 -1.3064682

feature.2.weight f4 [128, 128]
000000 72 40 bf bd 16 08 3d bf 2d 49 b0 bd 8f f4 55 3d
       -0.09338464 -0.73840463 -0.08607707 0.052235182
000010 5c 1b a4 be 0f ae db 3d 9d 3d 50 bd ce 4f 86 bf
       -0.32052124 0.107265584 -0.05084001 -1.0493104
000020 f5 ef 6b 3c 2e 93 82 be 8f a7 09 be d9 9c 88 be
       0.014400472 -0.25502914 -0.13442825 -0.26682165
000030 26 79 07 3e 65 3b 85 bd a1 3b 0b 3c 77 c8 86 3c
       0.13229808 -0.06505469 0.008498103 0.016453011
000040 c6 36 a1 3d 96 c6 91 bd e3 76 28 3f 6b d3 64 be
       0.07871775 -0.071179554 0.65806407 -0.22346275
000050 b2 09 5e 3f 11 32 6c be 95 72 a5 bf ac 5e 70 3b
       0.86733544 -0.23065974 -1.2925593 0.0036677523
000060 0e f9 b2 be 9a 4d d3 bc 68 5a 58 3c c7 6a cc 3c
       -0.3495564 -0.02579384 0.013205148 0.02495326
000070 6c bd 01 3d 26 63 a8 bc da b2 15 bf f0 c6 91 3e
       0.031674787 -0.02055509 -0.5847603 0.2847209
000080 24 7c e1 3d f5 af 06 bf 55 4c 60 be 55 49 36 bd
       0.11010006 -0.5261224 -0.21904118 -0.04450353
000090 88 32 ad bd a7 6b a3 be c5 26 87 3d 2a 07 70 3d
       -0.08456904 -0.3191807 0.065991916 0.058600582
0000a0 cd bd fd bd ce 9c 35 be 62 2d 8a be 65 6a c3 bd
       -0.12389717 -0.17735597 -0.2698775 -0.095417775
0000b0 18 bf 2b bd 94 38 89 bd 5b 42 45 3d 07 86 2d be
       -0.041930288 -0.067002445 0.048158985 -0.16945659
0000c0 4a c1 78 be 35 68 c2 bb 9b 4f cc 3d 1e 96 c8 be
       -0.24292484 -0.0059328326 0.09976121 -0.3917703
0000d0 f4 b5 69 3d 4b 1e 18 3d af fb 05 be c0 5b 9d bd
       0.05705829 0.037138265 -0.13084291 -0.076835155
0000e0 5f a3 54 be 2c d0 1d bf 6f 14 0e 3e cc 4e 51 be
       -0.20765446 -0.6164577 0.13874982 -0.20440215
0000f0 02 14 07 3e 95 e4 46 bd e6 96 51 be ae 50 0b 3e
       0.13191226 -0.048557837 -0.2046772 0.13604996
000100 3c 82 37 be b5 40 aa be ea c0 e8 bd 3d 1a 38 3c
       -0.17920774 -0.33252493 -0.113649204 0.011236724
000110 c2 3d 8e be 98 a8 73 be 61 7d 80 be cd f5 53 bf
       -0.27781492 -0.23794782 -0.25095657 -0.8279694
000120 5c 23 cd 3d 6e a8 52 be ed 4f d9 3d f7 b7 03 bf
       0.1001651 -0.20572063 0.10610948 -0.51452583
000130 70 9e 2f bf 1a 3c 90 be 0f a3 b4 bd 2c 45 d6 3e
       -0.6860113 -0.28170854 -0.088201635 0.4184965
000140 0b 69 9e be 4e c7 34 be 3a f1 ce 3d db cb 13 3d
       -0.30939516 -0.17654154 0.10104604 0.036083084
000150 99 08 f2 3e 2d 57 cc be e1 04 85 bf 0c 10 33 bf
       0.47272184 -0.3991026 -1.0392114 -0.6994636
000160 2f 97 20 bb 9a 87 9a 3e 5b 2a 17 3e 80 c6 12 be
       -0.0024504175 0.3018158 0.14762251 -0.14333534
000170 7d a5 60 bf b7 67 a1 bd a7 0f 38 be e5 28 0a 3f
       -0.87752515 -0.0788111 -0.17974721 0.5396865
000180 eb 15 11 be 15 98 66 3e b8 c5 50 be bf c3 9e be
       -0.14168517 0.22518952 -0.20387924 -0.31008717
000190 5a e6 17 be b2 c3 27 3e c4 7e a0 3c 81 7f 1c be
       -0.14833966 0.16383246 0.019591697 -0.15283014
0001a0 77 08 17 bf 57 9d 07 be 9c bf 11 bf ed c0 31 3b
       -0.5899729 -0.13243614 -0.56933 0.002712305
0001b0 d0 b0 7d 3e fe df 93 3d e8 5b 49 3d ca b5 43 bf
       0.2477448 0.072204575 0.049159914 -0.76449263
0001c0 db d3 9b ba 2e eb 83 be 9b 92 85 bf 07 74 99 3c
       -0.0011888699 -0.25765365 -1.0435365 0.018732084
0001d0 4f c3 1b bf 7a 4c 6d be 3c 0a b4 bd 9b 88 39 3c
       -0.6084489 -0.23173705 -0.087910146 0.011324073
0001e0 95 58 89 be bd 6d f2 bf c6 a6 cd be 68 1b 4c 3e
       -0.26825395 -1.893974 -0.401663 0.1993233
0001f0 6b a0 37 3f 99 14 83 bd c0 67 09 3f a8 0c 30 bd
       0.71729153 -0.06400413 0.53673935 -0.04298082
000200 f5 2f 75 be 12 b3 0e 3d 46 90 26 3e 0a 7c d3 3e
       -0.23944075 0.034838744 0.16265973 0.41305572
000210 38 99 4a 3c 8d d8 39 be ec d8 fa bd 9d 97 63 3e
       0.012365632 -0.18149014 -0.12248406 0.22225805
000220 30 df 29 bf 2f 8a a2 bd df ca db be 72 df 3d 3e
       -0.6635618 -0.07936513 -0.42928216 0.18542269
000230 e4 a5 fd bd d4 39 58 3e 1b f9 82 3d 1f 6d 23 3d
       -0.12385157 0.2111581 0.06395169 0.039898988
000240 80 8a 96 ba 42 d3 2b be af c4 76 be 37 f9 00 3f
       -0.0011485368 -0.16779807 -0.24098466 0.5038027
000250 32 91 15 be 31 88 81 be 03 13 77 be 6d ab 38 be
       -0.14606169 -0.25299218 -0.24128346 -0.18034144
000260 72 89 98 be 68 46 f1 bd 56 c2 33 3d 4b b4 47 be
       -0.29792362 -0.11781007 0.043886505 -0.1950237
000270 db a3 4a be 35 56 13 bf 07 38 ad bd a6 29 94 bd
       -0.19789068 -0.57553416 -0.08457952 -0.07234506
000280 bd 1d 9d be cf e8 a0 be d8 a7 35 be 7b 80 62 3c
       -0.3068675 -0.3142762 -0.17739809 0.013824577
000290 29 f5 99 3e 6c df 99 3d 75 23 d1 be 40 d3 42 be
       0.30069855 0.075133175 -0.40847364 -0.19025898
0002a0 fa b4 1e be d5 9c 30 bf bb 19 ff bd 94 84 38 be
       -0.15498725 -0.68989307 -0.124560796 -0.18019325
0002b0 1a df 98 3d 65 e9 af bf a7 14 27 3e 51 07 90 be
       0.07464428 -1.3743101 0.16316472 -0.28130582
0002c0 ac e8 7e bd 44 b5 15 3d 18 0d 41 3e f3 2b b4 be
       -0.062233612 0.03654982 0.18852651 -0.3518978
0002d0 d7 5b 19 bd 25 53 a9 3c 85 0d 4f bd 45 17 99 bd
       -0.0374411 0.02066953 -0.050550003 -0.074751414
0002e0 fd 38 18 bd 4e 95 08 3d 72 27 50 3e 01 f3 ca bd
       -0.037163723 0.033345513 0.20327547 -0.099096306
0002f0 cc 2f c1 bd 90 26 0d bc 71 0d a2 bd 10 91 a4 bc
       -0.09432945 -0.008615151 -0.0791272 -0.020088702
000300 a4 98 fb 3d e4 56 cf 3e 0b 58 62 bd f8 3c 9e bd
       0.12284973 0.4049598 -0.055259746 -0.077264726
000310 67 c9 f1 3e 60 58 aa bc 10 ba a9 be d9 71 58 3d
       0.4722397 -0.020794094 -0.33149767 0.05284295
000320 82 12 0e bf 87 8e 2f bd 5b 24 bd bc ab ca 3d 3f
       -0.5549699 -0.042860534 -0.023088625 0.7413737
000330 55 63 cf 3c af 5a e6 bc 49 b8 bd 3d f7 0d b1 bd
       0.02531592 -0.028119413 0.09263665 -0.08645242
000340 ab 31 5b 3e ae 45 7d bf 2a cc 0e bf e9 6e 8c bc
       0.21405666 -0.9893445 -0.5578028 -0.01714273
000350 30 b3 a8 3e 7a b5 47 bf 7f e3 c2 be cc a8 7e bd
       0.3294921 -0.78011286 -0.3806419 -0.062172696
000360 2e d0 1e bd 0d b9 05 bd 37 b3 b5 3d 76 d6 04 bd
       -0.038772754 -0.03264718 0.08872073 -0.03243109
000370 60 1a 46 3f b3 04 32 be 4d 2c 86 3c 28 cb 3d be
       0.77383995 -0.17384605 0.016378546 -0.18534529
000380 dc a8 db be 89 59 02 bf 7f c1 d6 bd ff 83 06 bf
       -0.42902267 -0.5091787 -0.10486125 -0.5254516
000390 59 7b 31 be 64 68 58 bf d5 bf c4 3d 76 a8 ea 3d
       -0.1733221 -0.8453429 0.096069016 0.114579126
0003a0 81 db ea bc 54 0f 84 be 0b a0 89 bd 31 65 d4 be
       -0.02866912 -0.25792944 -0.06719979 -0.41483453
0003b0 36 e6 fa 3d bb 58 9d 3d 41 1d 4e be e9 f0 0d bd
       0.122509405 0.076829396 -0.20128347 -0.034653578
0003c0 1b 46 75 be f0 79 18 be 7a dc 3d be 5e 51 58 be
       -0.23952524 -0.14890265 -0.18541136 -0.21124789
0003d0 71 75 07 3e 7c e3 99 3d 30 4a a4 bb b1 c7 1e bf
       0.13228394 0.07514092 -0.0050137267 -0.62023455
0003e0 04 83 7a be c3 83 1a 3e 1a 2c 8b bd 57 d7 37 bf
       -0.24464041 0.15089326 -0.06795521 -0.7181296
0003f0 1f 4b 5c be 4a 59 63 bf 2a a5 57 be fe 61 03 bf
       -0.21513031 -0.8880812 -0.21059099 -0.513214

feature.2.bias f4 [128]
000000 26 f7 1c be 28 d2 02 be f9 7b 5f 3f ed d0 c6 3f
       -0.15328655 -0.12775481 0.8729854 1.5532509
000010 68 17 88 bb 2c 54 40 bd 4e c5 c4 bc b1 b6 20 3f
       -0.004153181 -0.046955273 -0.024019863 0.62778765
000020 f8 a3 77 3e c7 43 6e be 49 37 0d 3f e0 bf 25 3e
       0.24183643 -0.23268043 0.55162483 0.16186476
000030 00 7d 26 3e d2 2f d4 be 69 89 35 be 99 23 d1 3c
       0.16258621 -0.41442734 -0.17728199 0.02552967
000040 4e bc a3 bc 3d f1 f5 be 6a d6 33 bd 55 a0 98 3f
       -0.019987252 -0.48035613 -0.043905653 1.192393
000050 c7 ec 2d be 0d 61 11 be 46 9a 0f c0 41 3d 04 be
       -0.16984855 -0.14197178 -2.243791 -0.12913992
000060 85 d0 9f bd 4c 1a 01 be 78 9d 1d be 9d 59 ba be
       -0.07803444 -0.12607688 -0.15392101 -0.36396495
000070 3c 93 84 ba ad 5a 2b 3f 11 2c 2a be 56 65 b5 3e
       -0.001011468 0.66935235 -0.16618372 0.35428876
000080 21 bd 22 bb d8 f5 d7 3e dc 3e 28 3e bf be 94 bd
       -0.0024831968 0.4217975 0.16430229 -0.072629444
000090 8a 04 cf 3e 0b d4 ca 3e f9 c0 0a 3e 7c c4 63 3e
       0.4043315 0.396149 0.13550176 0.22242922
0000a0 38 b0 01 be 50 89 99 3d 1b 2e 31 bd 88 88 dd bd
       -0.12664878 0.074968934 -0.04325686 -0.10817057
0000b0 d1 ca 10 3e d4 a5 1a be 76 ad a7 be 15 05 0f 3d
       0.14139868 -0.15102321 -0.32749528 0.034916956
0000c0 c3 78 13 c0 33 59 a1 be b6 7e ce bf db 57 54 bf
       -2.3042457 -0.31513366 -1.6132419 -0.82946557
0000d0 88 8d 8d bd 04 a3 cf 3e fa ea 9d 3d ee 4f bc 3e
       -0.069117606 0.4055406 0.07710834 0.36779732
0000e0 18 3d 49 bd 08 c4 c5 be a6 33 ca 3d 52 10 2b be
       -0.04913053 -0.38626122 0.098731324 -0.16705444
0000f0 26 85 54 bd b7 1d 46 bd e9 af 2d bd 4c 4b 8a 3f
       -0.051884793 -0.048368182 -0.04240409 1.0804229
000100 73 a2 66 3e 39 2b f0 bd d2 e6 40 be 2e db 97 bd
       0.22522907 -0.11726994 -0.18838051 -0.07414852
000110 d6 08 51 be ab 15 eb bb b9 0d 17 be 69 e1 1f be
       -0.20413527 -0.007174214 -0.14751329 -0.15613331
000120 52 ba 69 3e de a6 2d bf 9d 59 94 3e fd 8a 56 bd
       0.22824982 -0.67832744 0.2897462 -0.052378643
000130 e8 d0 0c be eb fc 1f 3d eb 87 9c 3e c4 32 12 be
       -0.13751566 0.03905956 0.30572447 -0.14277178
000140 0c bc 19 3f 1d 73 55 3e 78 d2 e3 be 7e 06 9d bd
       0.6005256 0.20844693 -0.44496512 -0.07667254
000150 a1 12 d7 bd 9b d3 a6 bd 49 59 ec 3e 60 32 81 3e
       -0.105016 -0.08145829 0.4616187 0.25233746
000160 46 4f 6e be 15 ab 13 bf 2a b5 23 bd 93 17 74 3e
       -0.23272428 -0.57682925 -0.039967693 0.23837118
000170 8f e0 25 bd 8c 81 6e 3f 0b 54 71 bf 53 85 f0 bc
       -0.04049736 0.9316642 -0.94268864 -0.029360449
000180 d4 54 1f be d4 09 e7 bd cb 5e 8a 3e ce cc 20 3f
       -0.15559703 -0.112811714 0.27025446 0.6281251
000190 41 2e 50 bd 22 3f 0d bf cf 03 33 3f 67 1e 17 3f
       -0.05082536 -0.5517446 0.69927686 0.59030765
0001a0 29 8f 8f 3f 26 22 ef bd 39 99 c7 3e 53 bf 2a be
       1.1215564 -0.11676435 0.38984087 -0.16674547
0001b0 15 c8 0b 3f ad 68 90 3b 12 9b 68 bd c2 39 16 be
       0.54602176 0.0044070096 -0.05678851 -0.1467047
0001c0 85 ac 2f 3f 03 1b f9 bd 77 97 e9 be 1a c8 c6 3c
       0.6862262 -0.12163355 -0.4562337 0.024265338
0001d0 6f 1d 80 3e 9f 49 0a 3e df 8b 0e 3f 62 bd 8e bb
       0.25022456 0.13504647 0.55682176 -0.0043560723
0001e0 70 c9 38 bd d8 e0 e4 3e 61 28 a9 bd 46 5f c4 bd
       -0.04511398 0.44702792 -0.08259655 -0.095884845
0001f0 74 ca 45 3e cd 26 13 be 4f d4 01 bc ec d6 95 be
       0.19315511 -0.1437027 -0.0079241535 -0.29265535

value.0.weight f4 [64, 128]
000000 dc 7c 20 3f a5 b1 14 bc eb c0 89 bf 21 74 62 bf
       0.6269052 -0.009075557 -1.0761999 -0.8845845
000010 72 fa a5 bc 51 fb b5 bd fc 8d 0d be f9 07 39 bf
       -0.020261023 -0.088858254 -0.13823694 -0.7227779
000020 23 96 3d bf 69 c6 34 3d 6d c3 64 be d5 f9 35 3b
       -0.74057215 0.04413453 -0.22340174 0.002776732
000030 2a c6 2f bf 20 82 96 bd a2 c5 24 bf 38 96 38 bf
       -0.6866175 -0.07349038 -0.64364064 -0.72104216
000040 92 78 ff bb 05 ad 5f bf 6a 89 81 3c db 9c c2 bf
       -0.0077963555 -0.8737338 0.015812594 -1.5204118
000050 8e 12 c8 be 13 13 a1 bd 86 4c 20 c0 00 79 95 bb
       -0.39076656 -0.07864966 -2.5046706 -0.0045615435
000060 63 53 07 3e ba e0 84 bc ec f2 a8 3d e7 53 d0 be
       0.13215403 -0.01622044 0.08249459 -0.40689012
000070 a0 ab 8a bc 03 87 8c bd 00 97 06 3c b5 2e 6f bf
       -0.01692754 -0.06861689 0.008214712 -0.93430644
000080 cc da 78 bd d2 c1 cb bf 1e 27 e9 bd af 5b a0 bd
       -0.060755536 -1.5918524 -0.11384414 -0.07829987
000090 dd 0f 57 bc 1a 71 5a bf 62 c5 5f bf 12 e6 49 be
       -0.013126341 -0.8532883 -0.8741056 -0.19716671
0000a0 f5 85 22 be 05 89 ae be b4 8d d9 be c2 4d 6e bd
       -0.15871413 -0.34088913 -0.42490923 -0.058179624
0000b0 44 2b 11 bf 4d 66 cd bd af b6 ae bc 4a cf 84 3d
       -0.56706643 -0.10029278 -0.021327345 0.0648485
0000c0 f2 40 68 3e e3 a4 e0 be 4c 4a af bf ee 76 8c be
       0.22681025 -0.438758 -1.3694549 -0.27434486
0000d0 70 10 97 bc 72 23 af be d4 c5 b7 be 69 69 e0 bf
       -0.018440455 -0.3420673 -0.35893118 -1.7532169
0000e0 97 82 3c bf 13 b9 b1 3f 92 4b 06 bf 12 80 15 3d
       -0.73636764 1.3884605 -0.5245906 0.03649909
0000f0 f4 4c 14 3d 80 74 87 3a 52 09 52 3d 9b e3 aa bf
       0.0362062 0.0010334402 0.05127842 -1.335071
000100 28 a5 61 be 6b 07 92 3d 4a 2c 64 3d 54 49 8c 3c
       -0.22035658 0.07130321 0.0557063 0.01712481
000110 22 84 00 be 8b c6 13 3d a2 71 cb 3d 77 aa dc bd
       -0.12550405 0.036078017 0.09933783 -0.10774701
000120 4d de b1 be d1 6a 14 3f 49 05 4d bf 39 9d 00 bd
       -0.34739915 0.5797549 -0.8008619 -0.03139994
000130 d6 9a 47 be 5e e3 9d be 5c 4b b5 be 9a 79 86 3d
       -0.19492659 -0.3083753 -0.35409057 0.065661624
000140 ce 18 92 3d 8e 31 19 bc f8 4b 59 3f fc ff 76 3d
       0.07133637 -0.009350194 0.84881544 0.06030272
000150 1a 6a cf 3c d3 f0 48 bd 0b 66 af be f8 38 28 be
       0.025319148 -0.049057793 -0.3425754 -0.16427982
000160 45 1d 6e be 13 bc 4d 3e 0f 76 86 bc 1c 36 fe 3e
       -0.23253353 0.20091276 -0.016413717 0.49650657
000170 48 bc b6 be 22 65 4b bd 91 df a0 3e 4a 37 d5 be
       -0.35690522 -0.049656995 0.31420568 -0.41643745
000180 3f 96 68 3c 53 bc f4 3e 74 93 ac 3e 85 86 3a bd
       0.014195978 0.4779993 0.33706248 -0.045538444
000190 86 20 bf be c1 94 7e be 7e c1 00 c0 8f a8 5b bf
       -0.373295 -0.24861433 -2.0118098 -0.85804075
0001a0 9d 86 9f be 2c c1 cd 3c bd 48 e2 be fc 29 72 bf
       -0.3115739 0.025116526 -0.4419612 -0.94595313
0001b0 b1 9e b2 bf 03 6f 9e 3d 49 12 49 3d 93 d1 49 3d
       -1.3954679 0.077360176 0.049089704 0.04927213
0001c0 f3 d0 d9 be 72 fc cc bc d5 72 86 be ad 50 7e be
       -0.42542228 -0.025022719 -0.26259485 -0.24835463
0001d0 96 6c 8d be 03 ce 82 bf 76 24 5c 3e da 42 64 bd
       -0.27621907 -1.021912 0.21498284 -0.055727817
0001e0 bc 4c 41 3f 66 fe 3d 3e 4d 98 8e 3d fd ea 27 3d
       0.7550771 0.18554077 0.06962643 0.040995587
0001f0 5c c9 43 be 3a 47 94 bd 48 6e d7 3c 41 e9 ca 3e
       -0.19119781 -0.07240148 0.026297703 0.39631084
000200 27 ad ab bd 68 ae 0b bd e4 f5 0f be 83 29 73 bf
       -0.083826356 -0.034101874 -0.14058644 -0.94985217
000210 e4 9f 9e bd ac 74 b3 bd 3d 8f 9a be b6 37 b5 bc
       -0.077453405 -0.08762488 -0.30187407 -0.022121292
000220 10 e5 87 3e de 4b 03 3a 23 8a 06 bf e7 0b a1 be
       0.26541948 0.00050085585 -0.5255453 -0.31454393
000230 50 4d b9 3d 34 ed a8 3c 01 23 fe bd c3 c6 87 bd
       0.09047949 0.02062092 -0.1240902 -0.06629708
000240 4e 31 90 bd 94 85 4a 3e 7f 78 57 3d 55 d0 3a be
       -0.07040654 0.19777519 0.05260515 -0.18243535
000250 cd 4e a5 bd b9 09 69 bd 66 2a 67 3f 00 58 c0 3a
       -0.08071671 -0.056894038 0.9029907 0.0014674664
000260 24 42 51 bf dc 36 0e be 88 bf 0e bd 54 db d7 bd
       -0.8174155 -0.13888115 -0.034850627 -0.105398804
000270 e9 e3 1c 3b 3b 52 20 be 0e 5b 7e bd 2f ec 88 bd
       0.0023939556 -0.15656368 -0.062098555 -0.066856734
000280 9a 28 4a 3d 7d d0 ef 3c 21 de ba 3e d3 73 43 3d
       0.049355127 0.02927422 0.36497596 0.04771788
000290 fd 31 93 bd 78 d1 c2 be 48 77 e5 bd 67 89 27 bd
       -0.07187269 -0.38050437 -0.11204392 -0.04090252
0002a0 0d 01 0e be f9 02 35 be 38 53 1d bd 40 69 2a bd
       -0.13867588 -0.17676915 -0.03840944 -0.04160428
0002b0 af dc d7 bd 66 e5 3c 3d f5 26 92 3d 53 64 f0 bd
       -0.10540139 0.04611721 0.07136337 -0.11737885
0002c0 0b 43 e7 bd 38 f6 96 3d b1 71 c8 ba ce 23 cf bd
       -0.11292084 0.07371181 -0.0015292672 -0.10114251
0002d0 c6 da 58 3d 06 06 87 be 23 ec 42 be ef 05 6d bd
       0.052943014 -0.26371783 -0.19035392 -0.057866987
0002e0 9c 79 01 be 6e 3a 22 3f a5 85 2c 3d a5 81 a2 3d
       -0.12644047 0.63370407 0.04211964 0.07934884
0002f0 91 bc 0d bd d3 87 b1 bd 6f 26 5e bd 1c 1e 89 bf
       -0.03460366 -0.086684845 -0.054235872 -1.0712314
000300 8c 5c 63 bd b0 c2 af bb 36 c4 7b 3d cf 1a 58 bd
       -0.05550818 -0.0053637847 0.06146642 -0.05275994
000310 28 24 c5 be be 83 1d 3d 90 fb f5 3b 78 e0 e7 3d
       -0.38504148 0.038455717 0.007506795 0.11322111
000320 8b 04 14 3d 63 f3 09 bf 56 78 f9 be 2d 9a 64 3d
       0.036137145 -0.53887004 -0.48724622 0.055811096
000330 0d e7 99 bd 70 3d af be 46 81 75 bd 17 a9 c4 3d
       -0.075147726 -0.3422656 -0.059937738 0.09602564
000340 ba 71 f8 be f7 ff 12 3d 7e 47 1f 3e d3 d4 b3 3d
       -0.48524266 0.03588864 0.15554616 0.087808274
000350 a4 41 09 bd e8 d4 0e 3d a0 45 9b be 05 42 30 be
       -0.033509865 0.034871012 -0.30326557 -0.17212684
000360 a4 fa 98 bd 21 27 e7 3d 79 c6 1e bc aa f9 1b 3c
       -0.07469681 0.1128676 -0.009690874 0.009519974
000370 e4 0e 69 3d 50 69 4f be 7e 40 99 be f5 2c c1 3e
       0.056898966 -0.20255017 -0.29932016 0.37729612
000380 27 7c ef 3c 3b 24 bb 3c 62 0b 9e 3e 4b 6e 17 be
       0.029234005 0.022844424 0.3086806 -0.14788167
000390 2c de 9e bc 67 63 4d be 06 c8 13 bc 30 33 90 be
       -0.01939305 -0.2005745 -0.009019857 -0.28164053
0003a0 f0 07 c6 be 00 a8 c9 39 81 c4 31 be f6 e4 30 be
       -0.3867793 0.00038462877 -0.17360117 -0.17274842
0003b0 ed a3 e8 bc 18 66 8a bd 68 d6 8f bc ce 70 7d 3d
       -0.028398478 -0.06757754 -0.017558292 0.061875157
0003c0 c2 2f a1 be 1d 59 9a bd 56 10 2c be 1d a6 99 bc
       -0.3148175 -0.07536528 -0.16803107 -0.018755967
0003d0 c7 cc cb bd 2d f2 59 be 17 50 1b bf e1 1d de ba
       -0.099511676 -0.21283789 -0.6066908 -0.001694616
0003e0 0d 7c 2f be 2f d7 38 bd 74 92 86 bd 7f 9b b1 3d
       -0.17137165 -0.04512709 -0.065709025 0.08672237
0003f0 56 7c c9 bd 5c ad cc bc 54 4b 87 bc 32 48 87 be
       -0.09838168 -0.024985008 -0.016515411 -0.26422268

value.0.bias f4 [64]
000000 1a 4b 3e 3e fd d2 42 bf 6b 80 b1 3f f6 5f 85 bf
       0.18583336 -0.7610319 1.3867315 -1.041991
000010 ab 51 c7 3f 2d 1f 40 3f 3c 59 76 be 7c 46 bb be
       1.5571798 0.7504757 -0.24057478 -0.36577213
000020 f4 e3 1c 3f cf 72 5e bf 33 36 ab bf 46 d6 80 3f
       0.6128533 -0.86893934 -1.3375915 1.0065391
000030 f2 ac cd bf 54 62 16 3f cf ad 0f 40 f2 12 d5 bd
       -1.6068404 0.58743787 2.2449834 -0.10404004
000040 2e 5f bf 3f 74 b0 b4 3f 05 b8 41 3f d7 0d 27 c0
       1.4950922 1.4116349 0.75671417 -2.6102197
000050 ea 2e b4 bd bf 70 a1 3f 73 98 b8 bf 98 cc 0c be
       -0.08798011 1.2612532 -1.4421524 -0.13749921
000060 af 5c 1d 3f e9 c6 03 3e f2 f7 7a 3f 12 fa bd 3e
       0.6146955 0.12868847 0.98034585 0.3710485
000070 45 6d 75 3f b4 2f ba bd 1a 55 85 3f 64 c2 b9 be
       0.9586986 -0.0909113 1.0416596 -0.3628112
000080 8c 64 26 3f c0 ec 46 bd eb 07 1c 3e 3d 56 1e 3f
       0.6499717 -0.048565626 0.15237395 0.6185034
000090 f2 c4 77 3f f1 9d 96 bd 61 12 c6 be 08 85 de be
       0.9678489 -0.07354344 -0.38685897 -0.4346087
0000a0 52 58 f9 3e 35 25 80 bf 3a 6a 80 3e 49 c1 3b bf
       0.48700196 -1.0011355 0.25081044 -0.73341805
0000b0 56 35 9f 3f 14 34 40 be 6b 2f 60 3f ca 74 92 be
       1.2438152 -0.18769866 0.87572354 -0.28604728
0000c0 fd 51 85 3f ab 96 d4 bf 15 5e 1f be d2 50 3d 3e
       1.0415646 -1.660848 -0.15563233 0.18487862
0000d0 db 5d 8b 3f 2d 83 71 3f 48 8d ea be c1 7c 9a be
       1.0888017 0.94340783 -0.45810914 -0.30173305
0000e0 f0 b3 6c be a8 47 b5 bf c7 d5 80 3f d2 f6 cc bf
       -0.23115516 -1.4162493 1.006524 -1.6012824
0000f0 30 4d 61 bf 67 94 f2 bf 83 ec 9b bf e4 96 75 be
       -0.88008404 -1.8951539 -1.2181553 -0.23983341

value.2.weight f4 [1, 64]
000000 d8 95 06 c0 39 e0 b5 3f 50 ee 14 bf b8 65 f7 3f
       -2.1028957 1.4209052 -0.58176136 1.9327917
000010 0f b0 af 3f 1c 06 86 3f 0b 67 b0 bc f0 34 3d be
       1.3725604 1.0470614 -0.02153351 -0.18477225
000020 92 34 91 bf 36 f2 13 bd 6e 93 f9 3e 89 be 90 be
       -1.1344168 -0.036119662 0.48745292 -0.28270367
000030 d7 55 3b 3f fb c3 c8 be ea 3f df be 22 2d f8 3c
       0.73177856 -0.3921202 -0.4360345 0.030294959
000040 7c 9d 02 be 17 1e 9e bd d3 5c a2 3f fd 66 66 3f
       -0.12755388 -0.07720583 1.2684578 0.900009
000050 a9 70 dc bf b1 96 ba 3f b7 d4 1f 3f 65 4b b3 bf
       -1.7221881 1.4577237 0.6243395 -1.4007384
000060 bc 37 1f c0 fb 8d 4c 3f c2 2f e9 bd 06 11 3f bf
       -2.4877768 0.79904145 -0.11386062 -0.7463535
000070 48 77 3d be 1f 5b b1 bb 9b d2 2c be 8f 6a 84 be
       -0.18502533 -0.005412474 -0.16877215 -0.25862548
000080 05 bf 8d 3f 94 99 31 3d 6a 3c 20 3f 51 16 d2 3e
       1.107392 0.043359354 0.62592185 0.4103265
000090 93 84 32 be 06 76 65 3f 26 6e 11 c0 14 15 f4 be
       -0.17433386 0.89633214 -2.272348 -0.4767233
0000a0 c8 fe a2 bd 03 db 9f bf 3f f9 4b bf 02 61 1d 3f
       -0.07958752 -1.2488712 -0.79677194 0.6147615
0000b0 8d 43 64 3f e7 4a cb 3a db e6 3d 3f e2 0f b3 3c
       0.89165574 0.0015509994 0.7418038 0.02185816
0000c0 28 e5 99 be 7b ec 34 3f e9 80 0f c0 e3 fa 08 bf
       -0.30057645 0.7067334 -2.242243 -0.5350782
0000d0 fc 09 1b be 00 9b 28 be 35 06 a4 3e fe d5 3d bd
       -0.15140527 -0.16465378 0.32035986 -0.046346657
0000e0 de f1 e7 bd 18 8e 1a 3f a9 c6 14 be d4 60 95 3f
       -0.113254294 0.6037307 -0.14528908 1.1670175
0000f0 4f 87 1d 3f 9c 40 26 c0 a0 3f a0 bf d8 24 69 bf
       0.6153459 -2.5976934 -1.2519417 -0.91071844

adv.0.weight f4 [64, 128]
000000 b2 67 46 be b2 63 82 3d 24 9a 23 3e f0 79 b2 3e
       -0.19375494 0.063666716 0.15976769 0.34858656
000010 ca b0 95 39 e9 67 4f 3b 26 07 ce be b4 81 c8 be
       0.00028551213 0.0031647629 -0.4023983 -0.39161456
000020 43 4d 50 3e 9f 29 64 3d 5e db 34 3f dd 50 f0 bd
       0.20341973 0.055703755 0.7064723 -0.117341734
000030 2a 5f b8 be ee 52 47 bf d3 38 7c be 56 ab 7c bf
       -0.36010104 -0.77860916 -0.24631052 -0.9869894
000040 38 85 0f bd 6c ba aa be 1b bb 8e bd b6 d7 9d bb
       -0.035039157 -0.33345354 -0.06969281 -0.0048169745
000050 17 5b c6 3c e9 d7 95 bd bb b6 45 bf bb 8a a2 3c
       0.024213357 -0.07316572 -0.7723195 0.019841542
000060 65 34 00 bf 1f 9f 2b 3a 8e 3d b3 bd 40 f9 4c be
       -0.5007995 0.0006546843 -0.08751975 -0.20016956
000070 f8 fb d5 3e e8 a3 5f be 0c 22 1c bc 94 5b de be
       0.417938 -0.21839869 -0.009529602 -0.43429244
000080 92 f4 ab 3c 5e d7 70 bf 6c 31 25 be 59 09 12 bf
       0.020990644 -0.94078624 -0.16132134 -0.57045513
000090 1a 60 c4 bf d1 75 41 bf bf 77 89 bf 45 46 82 be
       -1.5341828 -0.755704 -1.0739669 -0.25444236
0000a0 9d 86 c1 bd 04 25 c6 bd f3 1e 8d be ee 66 54 bd
       -0.094495036 -0.09675029 -0.27562675 -0.051855974
0000b0 39 c8 f8 be 51 28 9c 3d 0c f3 e7 bd 11 78 8c be
       -0.48590258 0.07624877 -0.113256544 -0.27435353
0000c0 ff fe a1 3c 4d 44 7a bf 33 86 8b be bb 1a 03 bf
       0.019774912 -0.9776047 -0.27250823 -0.5121266
0000d0 f8 ad 8c 3d 30 66 a2 be a9 54 1f be 49 16 31 3e
       0.068691194 -0.31718588 -0.15559639 0.17293657
0000e0 e7 2a c2 3e e2 83 50 3f a6 84 06 bf 4c 3c 4d bd
       0.37923357 0.8145124 -0.52546155 -0.05010633
0000f0 9e 0a 90 bd 22 56 84 bd b7 0d 67 bd b2 e7 8b bf
       -0.07033275 -0.06461741 -0.056409564 -1.0930083
000100 2b 58 5d bf 80 98 2a 3b 00 df 6b 3c 0d 49 5c 3d
       -0.8646266 0.0026030838 0.014396429 0.053780604
000110 c9 ad 32 bf 61 1f 95 bd 19 47 89 bd 64 bf 7d bd
       -0.69796425 -0.07281376 -0.06703014 -0.061950102
000120 4d 9b b3 bf c8 57 a0 be a4 64 6d bf 97 e4 c8 3c
       -1.4031769 -0.31316972 -0.9273169 0.024523063
000130 2b d6 a4 bc a1 16 26 bf 5a 07 9c 3e d2 e5 67 3e
       -0.020121654 -0.6487828 0.3047436 0.22646263
000140 a4 73 0d bd 5a f5 8a be 54 25 87 3f 91 ef 20 bd
       -0.03453411 -0.27140313 1.0558267 -0.03929097
000150 e2 c2 65 3d 17 0c 89 bd 66 49 f1 be e2 a6 8d bf
       0.056094058 -0.06691759 -0.4712631 -1.1066554
000160 c8 a7 43 bf 80 d3 e2 be a2 df b5 3a d0 a0 cc c0
       -0.7642789 -0.44301987 0.0013875852 -6.3946304
000170 30 a4 67 be 37 3f 49 be e0 fc 26 3e 47 f7 4e be
       -0.22621226 -0.19653021 0.16307402 -0.20211516
000180 5b f3 32 bd 4e 75 fc be e1 c8 6a bf 3e 60 5e bf
       -0.043689113 -0.49308246 -0.91712767 -0.86865604
000190 2f c8 58 3f 8b 92 99 3f 7f bb 8e bd 44 34 53 bf
       0.84680456 1.1997846 -0.06969356 -0.82501626
0001a0 24 4d da bf b4 6d 84 bd b3 c2 6e 3e 19 40 f0 3c
       -1.7054791 -0.06466237 0.2331646 0.02932744
0001b0 8d 15 0e be 94 35 9b 3d 68 c7 25 3c 34 51 60 bd
       -0.13875408 0.075785786 0.010118343 -0.05476494
0001c0 b3 29 0f bf cc 87 9e bd fd a7 86 be d8 c4 d7 bd
       -0.55923 -0.07740745 -0.2630004 -0.10535592
0001d0 76 46 ac bf da bf ec 3d e4 d9 81 bd b2 d9 cd bc
       -1.3459003 0.1156003 -0.063403875 -0.02512822
0001e0 0d d0 b5 be 00 94 a1 be 4b 9c 7e bb 65 a5 f7 3c
       -0.35510293 -0.31558228 -0.0038850482 0.030230233
0001f0 47 88 65 be 10 b6 e9 bb 6c a7 aa bd d6 a2 4c 3c
       -0.22415267 -0.0071322992 -0.083327144 0.012489995
000200 44 47 a0 bd a6 fc 21 3f fe 3b a9 be fc fb 7f bf
       -0.07826093 0.63276136 -0.33053583 -0.9999387
000210 81 bf 07 bd 2a a2 47 bd a4 9d fd bd 6c 62 bb be
       -0.033141617 -0.048738636 -0.12383583 -0.36598527
000220 fb 8d 6d bd 48 ae c1 bd 32 1d f0 be bd 92 92 be
       -0.05799673 -0.0945707 -0.46897274 -0.28627577
000230 68 46 04 be 6e d3 1c be cc e3 7b be 74 79 99 be
       -0.12917483 -0.15315029 -0.24598616 -0.29975474
000240 d2 ac 76 3d 4b 3a 60 bf fc 03 16 bd c4 17 22 bf
       0.060223408 -0.8758895 -0.036624894 -0.63317513
000250 89 53 c5 bd 3e d2 b0 bd 70 95 18 3f 08 1c 4a bc
       -0.09635074 -0.086338505 0.59603024 -0.012335785
000260 6b 04 2d bd 29 76 9c 3d 15 89 9a 3c 7f ec 9d be
       -0.04224054 0.07639725 0.018864194 -0.30844495
000270 38 0c c2 be d5 78 c5 bd 66 65 2c 3d 94 18 af 3d
       -0.37899947 -0.096421875 0.04208889 0.0854961
000280 88 19 07 bd f2 63 3c bf 2d 1e 43 bf 85 41 95 3c
       -0.032983333 -0.73590004 -0.7621792 0.018219719
000290 91 67 b5 bd bb 50 ab bc 1f 11 69 bf 97 95 fd bd
       -0.08857644 -0.020912519 -0.9104175 -0.123820476
0002a0 4d 59 6a 3d eb c1 d0 bd d8 0c 33 be 2c 13 bc 3c
       0.05721407 -0.10193237 -0.17485368 0.02295836
0002b0 68 87 f5 bd 49 23 4a bd 67 9a fe bd 7c ff 22 be
       -0.11988717 -0.049350057 -0.12431794 -0.15917772
0002c0 b9 4d e1 3e 1b 0e 3b 3b 06 48 27 3f b6 e8 dc be
       0.4400461 0.0028542343 0.65344274 -0.43146294
0002d0 73 0d 8a bc b8 d8 98 3e cd d2 9f 3d 07 7b 6c 3e
       -0.016852116 0.29852843 0.07803879 0.23093806
0002e0 fe 67 ad bd ed 06 42 3e 4b 7c f2 3e 39 f6 a6 bd
       -0.084671006 0.18947954 0.47360453 -0.08152432
0002f0 a6 e9 49 3d db e0 93 bd a0 ff a8 3b 5d b6 87 be
       0.04929509 -0.07220622 0.005157426 -0.2650632
000300 3a c2 b2 3d 00 e3 ae b9 57 af 7b 3d 28 9e 43 3c
       0.08728452 -0.00033356994 0.061446514 0.011939563
000310 71 1e 6e bf ec 3a 71 3d 7f f7 6a bd bf 76 76 3c
       -0.930152 0.058894083 -0.057364937 0.01504296
000320 56 d9 64 be 43 b5 82 3e f8 4b 41 be 42 85 39 3d
       -0.22348532 0.25528917 -0.18876636 0.0452931
000330 03 2d 44 bd 46 2b d6 be ea ea bf 3e 26 18 9b 3e
       -0.04789449 -0.4182989 0.37483913 0.3029186
000340 e0 62 27 bc c8 87 47 be d1 5d 4f 3f 88 1f 8f bc
       -0.010216445 -0.1948539 0.8100253 -0.01747109
000350 c3 5d 9d 3d 6a 72 f9 bc 2f e8 32 bf 6b 7b 9e be
       0.07683899 -0.030450065 -0.69885534 -0.30953535
000360 69 9c 92 3d 01 af c0 be 0a 3e 4b 3d 23 2d 0f bf
       0.07158739 -0.37633517 0.049619712 -0.5592825
000370 1a 5e 02 be a8 2a eb be ec 3c 41 3e c4 f4 99 bc
       -0.1273121 -0.45930982 0.18870896 -0.018793471
000380 a3 d3 69 bd 99 96 f6 3d e8 4d d5 3e 2e 51 58 bf
       -0.057086598 0.12040443 0.41661 -0.8449887
000390 ec d8 70 3e 23 03 9d be 23 40 aa 3c c3 43 54 bf
       0.23520249 -0.30666456 0.020782536 -0.82915896
0003a0 b2 98 9a bf 8d 8d 7d bd 43 1f b2 be 85 fc f2 be
       -1.2077849 -0.06190257 -0.34789476 -0.47458282
0003b0 ea 93 38 bf 70 7a d2 bc 80 c2 e7 ba 6a 0f 68 3d
       -0.721007 -0.025693148 -0.0017681867 0.056655325
0003c0 38 c1 80 be 54 89 ab bd 9d 53 f1 bd 5d a5 ef bd
       -0.25147414 -0.08375803 -0.11783526 -0.117014624
0003d0 04 d0 9d 3e 6b 6f 47 3e 64 98 2b be 45 58 93 bd
       0.30822766 0.19476096 -0.16757351 -0.071945705
0003e0 6d c0 b5 3c 1e fa 65 bd de 80 66 bd 78 8d 06 bd
       0.022186482 -0.056146733 -0.05627524 -0.03284976
0003f0 15 6f 86 bd 3b 04 a4 3d f0 53 99 3b fe dc f9 3d
       -0.06564156 0.080086194 0.0046791956 0.12200354

adv.0.bias f4 [64]
000000 50 14 e1 bf 45 13 bc bf 9f 3a 0f bf 8e e9 26 bf
       -1.7584324 -1.469338 -0.55948824 -0.65200126
000010 df 5a 9b bf df 07 31 bf 9c a1 86 bf 14 7e fa bf
       -1.2137107 -0.69152635 -1.0518069 -1.9569726
000020 66 92 34 be f4 e0 39 bf 88 03 53 be 34 31 99 bf
       -0.17633972 -0.72608876 -0.20606816 -1.1968141
000030 72 fe c9 be d6 c5 1f be 09 b2 81 bf af 1b 8c bf
       -0.3945194 -0.15602812 -1.0132457 -1.0945948
000040 c5 9d bb be f3 2e 07 c0 e5 f1 23 bf e8 b3 a6 bf
       -0.36643806 -2.1122406 -0.64040977 -1.3023653
000050 07 85 89 be b3 dc 15 bc 02 55 0e bf 6d a8 df bf
       -0.26859304 -0.009146857 -0.5559846 -1.7473274
000060 9d e7 44 bd 88 1e 28 bf ed 21 a3 be d9 1d 1c bf
       -0.048072446 -0.65671587 -0.3186182 -0.60983044
000070 5b 85 02 bf a7 de 81 bf d0 7c 34 c0 97 a9 07 bf
       -0.50984734 -1.0146073 -2.820118 -0.5299315
000080 07 7c 81 3e c7 c0 55 be 3b 28 8d be 5a 2c da bf
       0.25289938 -0.2087432 -0.27569756 -1.7044785
000090 05 72 a6 bf 20 4f 29 bf 6d 3f cd be 97 1d db bd
       -1.3003546 -0.6613636 -0.40087453 -0.10699003
0000a0 de 3d 33 bf 33 4d 09 be 2e 88 8d bf 4c 8e 1f be
       -0.70016277 -0.13408355 -1.1057184 -0.15581626
0000b0 b4 2a 07 bf 75 13 6d 3e 6b 78 9d bf 29 14 86 bf
       -0.52799535 0.23151954 -1.2302374 -1.0474902
0000c0 e3 e4 d4 bf a4 3f 0e 3c 96 08 6b 3e 3b da 20 be
       -1.6632351 0.008682165 0.22952494 -0.15708248
0000d0 a9 31 22 bf d9 ff 38 bf fa f6 c2 be 8c e5 9d be
       -0.63357025 -0.7226539 -0.38079053 -0.30839193
0000e0 0a 29 39 bf 4e 68 c7 bf fa 72 29 bf 11 de 50 be
       -0.72328246 -1.5578706 -0.66191065 -0.20397212
0000f0 fe 65 3c 3d 5f 41 09 3c 5f e9 2c be 1f 0e 01 bf
       0.045995705 0.008377402 -0.16885899 -0.5041217

adv.2.weight f4 [2, 64]
000000 cc 23 4b c0 b9 cf 8f 3f 00 33 34 c0 d8 e1 18 bf
       -3.1740599 1.1235267 -2.8156128 -0.5971961
000010 1c f7 c4 be a5 77 c5 bd 3e 1e 8e 3f 05 92 21 c0
       -0.3846978 -0.09641961 1.1102979 -2.5245373
000020 aa 9e b4 3d 50 ad a7 3f b1 0e 9c bd 70 19 d2 bf
       0.08819325 1.3099766 -0.0761999 -1.6414013
000030 47 fc 6f 3f 75 b7 4a 3d 32 f4 84 bf d5 50 91 bf
       0.9374432 0.049491365 -1.0387022 -1.1352793
000040 54 c6 70 be 5f f5 64 bf fa bd 1a bf 90 48 67 3f
       -0.23513156 -0.89436907 -0.6044613 0.90345097
000050 93 ff 67 bf 22 be b8 3e 7b fd 35 3f b6 a1 ae bf
       -0.9062435 0.3608256 0.71089906 -1.36431
000060 9a d9 de bd 30 f0 90 be 05 a0 88 be 9d d6 c0 3e
       -0.10881348 -0.2830825 -0.26684585 0.37663737
000070 6f e7 39 3f bc 9e 93 bf fb 4d 93 bf 87 17 ac 3d
       0.72618765 -1.1532817 -1.1508173 0.08402925
000080 ef a4 a4 bf d2 6b e9 3c 5a 52 e4 be c1 bf 9e 3f
       -1.2862834 0.028493796 -0.4459408 1.2402269
000090 77 f6 26 c0 f5 18 08 40 31 1c a0 3e f9 3b 62 3f
       -2.608793 2.1265233 0.31271508 0.8837276
0000a0 a1 da e5 3e 38 bb 37 bc a6 c9 f6 bf 45 71 86 3d
       0.44893363 -0.01121407 -1.9280288 0.06564573
0000b0 b4 45 18 bf cb e5 8f 3f c3 00 64 bf fb d9 05 40
       -0.5948136 1.1242002 -0.8906366 2.0914295
0000c0 1c 36 49 c0 de 3b 07 40 d7 62 25 3f 74 8c fd 3c
       -3.1439276 2.113029 0.6460394 0.030950762
0000d0 13 a1 07 bf 6f b0 af 3f 25 5f c5 bc 34 05 08 be
       -0.52980155 1.3725718 -0.02409322 -0.13283235
0000e0 e9 82 11 3f 1e 42 03 40 52 65 44 bf de c8 a4 3c
       0.5684038 2.0509105 -0.767171 0.020115312
0000f0 87 3d 83 bf e1 c0 a6 3e e4 57 f1 bb 05 7a 72 bf
       -1.0253152 0.3256903 -0.0073652137 -0.9471744
000100 80 f2 46 40 25 c5 8d bf de 45 38 40 b4 ee 05 3f
       3.108551 -1.1075789 2.8792644 0.5231736
000110 94 52 e7 3e e0 05 15 3e f0 ff 8d bf 57 7f 26 40
       0.4518019 0.14553022 -1.1093731 2.6015222
000120 20 1d c9 3d be de a3 bf 21 cf 89 bd 8a 70 c3 3f
       0.09820008 -1.280235 -0.0672896 1.5268719
000130 4b 80 65 bf 4c d0 2d 3d 6f db 69 3f be f2 82 3f
       -0.89648885 0.042434976 0.91350454 1.0230329
000140 6e eb 21 3e 25 c8 76 3f e1 29 f2 3e 50 29 7a bf
       0.15812466 0.96399146 0.47297576 -0.9771929
000150 b7 59 3b 3f d2 44 e7 be 59 6d 3d bf 88 de aa 3f
       0.7318377 -0.45169693 -0.73994976 1.3349161
000160 2c 4a 1d 3e 6f f6 7a 3e 64 42 5b 3d e7 17 e7 be
       0.15360326 0.2450807 0.053530112 -0.45135424
000170 99 ce 2a bf d4 11 92 3f eb d9 80 3f 50 04 78 be
       -0.66721493 1.1411691 1.0066503 -0.24220395
000180 ed 78 a1 3f 71 2e 3b 3d 73 70 b8 3e 87 1e 95 bf
       1.2615029 0.045698587 0.36023292 -1.1649941
000190 a9 82 20 40 21 04 0f c0 08 95 d4 be e3 e8 51 bf
       2.5079749 -2.234627 -0.41519952 -0.8199598
0001a0 19 93 dc be b7 fe 16 3c 86 73 f3 3f df 70 aa 3c
       -0.43080977 0.009216002 1.901963 0.020805774
0001b0 28 1d ef 3e a1 d3 8b bf 6b 31 78 3f 82 5c 05 c0
       0.46701932 -1.0923959 0.96950406 -2.0837712
0001c0 d6 1d 4b 40 a3 8b fe bf 03 f9 2f bf c2 43 61 bb
       3.173696 -1.9886364 -0.68739337 -0.0034372662
0001d0 e3 7d 0d 3f 16 2f c0 bf fd 39 75 bc d2 b1 f8 3d
       0.5527021 -1.501437 -0.014967439 0.121432915
0001e0 31 a6 22 bf 57 8f 04 c0 96 4b 3f 3f bf 7a 58 3c
       -0.6353484 -2.0712488 0.7472471 0.013212859
0001f0 04 a1 6a 3f d7 37 84 be 46 78 0f 3c 3b 7a 82 3f
       0.9165194 -0.25823852 0.008756703 1.0193552

adv.2.bias f4 [2]
000000 f2 ec 73 be 3e 2a b7 3d
       -0.23820856 0.08943604
