final_finetune_45/checkpoints/ep_0010.pt (torch, 145855 bytes, 11 tensors)

feature.0.weight f4 [128, 16]
0	0x402f7ed3	2.7421157
1	0x3f9c903e	1.2231519
2	0x3fbc065e	1.4689443
3	0x3fa9e4a2	1.3272898
4	0xc0a1fe5d	-5.0623
5	0xbff1bcbb	-1.8885721
6	0xbfb5b6f3	-1.4196457
7	0xbfe75475	-1.8072649
8	0x3edbcfad	0.42931882
9	0x3ebb53a7	0.3658726
10	0x3d2b2b70	0.041789472
11	0xbde65a97	-0.112477474
12	0x3f92d49d	1.1471134
13	0x3f33c00a	0.70214903
14	0x40631599	3.5481932
15	0xbf173e53	-0.59079474
16	0x3e864951	0.2622781
17	0xbdbdfb74	-0.092764765
18	0xbee6cafe	-0.45076746
19	0xbe7ce630	-0.24697185
20	0x3eace203	0.33766183
21	0x3e6c3f88	0.2307111
22	0x3f22d597	0.6360716
23	0x3efbd4ee	0.4918589
24	0xbf5a0378	-0.8516154
25	0xbefb9057	-0.4913356
26	0xbe6c40c9	-0.23071589
27	0xbf1a07eb	-0.6016833
28	0xbeb587b5	-0.354551
29	0xbeca248a	-0.39481002
30	0x3e740a52	0.23832062
31	0xbf0351d8	-0.5129676
32	0xbeed3bd5	-0.4633471
33	0x3ea83527	0.32853052
34	0x3e86e7f7	0.2634885
35	0x3dd30c1e	0.103050455
36	0xbe61ac0c	-0.22038287
37	0x3e0eb4fa	0.13936225
38	0x3e699484	0.2281056
39	0x3ebd53d6	0.36978024
40	0x3e0bc835	0.13650592
41	0x3e1561a5	0.1458803
42	0x3f6bcde6	0.9211105
43	0x3f5795cd	0.8421295
44	0x3e316f41	0.17327596
45	0xbee5d676	-0.44890183
46	0xbee0eb9c	-0.43929756
47	0xbf112185	-0.5669177
48	0x3f88c238	1.0684271
49	0xbe8af8a2	-0.27142817
50	0xbe27682f	-0.16348337
51	0x3d7b2d1b	0.061322313
52	0x3fead760	1.8346977
53	0xbd482e26	-0.048872136
54	0x3ebb53f0	0.36587477
55	0x3eb2d45a	0.34927636
56	0x3f101c2e	0.56293
57	0x3f2514a5	0.64484626
58	0xbe962364	-0.29323876
59	0xbf021fa9	-0.5082956
60	0x3eac0825	0.33599964
61	0xbf99101c	-1.1958041
62	0x3f39e106	0.72608984
63	0xbf48df7f	-0.7846603
64	0x3fb42367	1.4073304
65	0xbe3c84c1	-0.18410017
66	0xbe2e8056	-0.17041144
67	0x3dea6d66	0.11446647
68	0x3f818fd9	1.0122024
69	0xbddb1595	-0.10697476
70	0xbe7b80d1	-0.24560858
71	0x3da555c7	0.08073001
72	0x3fcea904	1.614533
73	0x3fb7b2ac	1.4351401
74	0xbee201a9	-0.44141892
75	0xbee13b73	-0.4399067
76	0x3f401334	0.750293
77	0xc0d40da9	-6.6266675
78	0x3eee3c6d	0.46530476
79	0x3d0f8303	0.035037052
80	0x3ca73be8	0.020414308
81	0x3f601b22	0.875414
82	0x3f1e2974	0.61782
83	0x3f3ea91e	0.744768
84	0xbfebf6a7	-1.8434647
85	0x3f5f5db9	0.87252384
86	0x3f7e609c	0.99366164
87	0x3f902d85	1.1263891
88	0xbd7a98fd	-0.061181057
89	0x3cfd268e	0.030902173
90	0xbe9aaa7b	-0.3020819
91	0xbe41750b	-0.18892305
92	0x3f5b14a6	0.8557838
93	0x3ebb7040	0.36609077
94	0x3f9a9940	1.2078018
95	0xbdb0de30	-0.08636129
96	0x3ef114aa	0.47086078
97	0xbeb5401f	-0.35400483
98	0xbe661e83	-0.22472577
99	0xbe0bc354	-0.1364873
100	0xbe9e22c3	-0.30885896
101	0xbcfb85e1	-0.030703487
102	0x3e0d7318	0.13813436
103	0x3e17f20a	0.14838424
104	0x3e3ab738	0.18233955
105	0x3e43a670	0.1910646
106	0x3ea71111	0.32630208
107	0x3dfb8d75	0.1228284
108	0x3e400085	0.18750198
109	0xbf0fd048	-0.56177187
110	0x3e008378	0.12550151
111	0xbf2572ff	-0.64628595
112	0x3e175073	0.14776783
113	0xbe4f9b34	-0.20274049
114	0xbdf326d7	-0.118726425
115	0xbe0589c2	-0.13040832
116	0xc026b6c5	-2.6049054
117	0xbe92e0dc	-0.2868718
118	0xbea56613	-0.3230444
119	0xbe9d6a13	-0.3074499
120	0x3f2d3890	0.6766443
121	0x3f79a69c	0.9751985
122	0xbf89beba	-1.076133
123	0xbfa119fb	-1.2586054
124	0xbf77d2ac	-0.96805835
125	0xbfcc944b	-1.5982755
126	0xbfbe3635	-1.4860293
127	0xbee4e52b	-0.4470609
128	0xc0076606	-2.115602
129	0xbeb6244c	-0.35574567
130	0xbe9d4ca4	-0.30722535
131	0xbef1b826	-0.47210807
132	0x40090b08	2.1412983
133	0xc0464588	-3.0979939
134	0xc05aa21a	-3.416144
135	0xc0566c62	-3.3503652
136	0x3fabba18	1.3416166
137	0x3faf17fc	1.3679194
138	0xbf32fbc7	-0.6991543
139	0xbf2294b7	-0.6350817
140	0xbe9e1db1	-0.30882028
141	0x3e2aad78	0.16667736
142	0x3e115135	0.14191134
143	0xbba39069	-0.0049915803
144	0xc0013015	-2.0185597
145	0x3f327f82	0.6972581
146	0x3f06f459	0.52716595
147	0x3f1f69f8	0.6227107
148	0x3feaf1ad	1.8355004
149	0xbed0bf6d	-0.40771046
150	0xbec78a81	-0.38972858
151	0xbebf6bf2	-0.37387043
152	0xbe312aa8	-0.17301428
153	0xbeb60f7e	-0.35558695
154	0x3edbf08f	0.4295697
155	0x3e0e36b3	0.13888054
156	0x3eb2a36f	0.34890315
157	0xbf33b2a0	-0.70194435
158	0xbb552873	-0.003252533
159	0xbf0b9e81	-0.5453873
160	0x3fcc21f0	1.5947857
161	0xbf7d1cd9	-0.98872143
162	0xbf6aed5b	-0.91768426
163	0xbf9fee67	-1.249463
164	0xbf87a624	-1.0597577
165	0xbf0303be	-0.51177585
166	0xbee923e2	-0.4553519
167	0xbeb83d76	-0.3598439
168	0x3e01a4a0	0.12660456
169	0x3d681daf	0.056668933
170	0xbee89235	-0.45424047
171	0xbf08df84	-0.5346606
172	0x3c8a3322	0.016870085
173	0xbfb03ff7	-1.376952
174	0xbf068bb4	-0.5255692
175	0xbeb98aa8	-0.362386
176	0xbe59675e	-0.21230838
177	0x3ba84156	0.005134742
178	0xbdc21688	-0.09476954
179	0xbb5e3dea	-0.0033911415
180	0x3eb27e39	0.34861925
181	0x3e64ed66	0.22356185
182	0x3dfd374a	0.12364061
183	0xbd54a5f8	-0.051916093
184	0xbf47379d	-0.77819234
185	0xbf7206ef	-0.9454183
186	0xbe0532ac	-0.13007611
187	0xbe0163d4	-0.12635738
188	0xbf10c89b	-0.565561
189	0xc05490d6	-3.32134
190	0x3f12c2c3	0.5732843
191	0xbf141471	-0.5784369
192	0x3e71a3e1	0.23597671
193	0x3f113a56	0.5672964
194	0x3ee2259e	0.44169325
195	0x3f21582e	0.63025177
196	0xc0598854	-3.3989458
197	0xbe568fb6	-0.20953259
198	0xbed57dbc	-0.4169749
199	0xbecdcd10	-0.40195513
200	0xbf1d8166	-0.6152557
201	0xbf24797a	-0.6424786
202	0x3ed1cca6	0.40976447
203	0x3e552367	0.20814286
204	0x3f09f276	0.5388559
205	0xbee9a0cf	-0.456305
206	0x3e777491	0.2416556
207	0xbfb7d875	-1.4362932
208	0x3ec8120d	0.39076272
209	0x3f6984c2	0.912182
210	0x3f31cc16	0.69452035
211	0x3ee1c6ef	0.44097087
212	0x3fc3fd59	1.531169
213	0xbe4d7317	-0.20063435
214	0x3ce0ca57	0.027440233
215	0xbe1f8a19	-0.15580024
216	0xbf5a01e2	-0.8515912
217	0xbf2a30b2	-0.66480553
218	0x3f9ca9ec	1.2239356
219	0x3fb883c8	1.4415216
220	0x3f2347f8	0.6378169
221	0xbf47e675	-0.78086025
222	0xbfd9aac9	-1.7005244
223	0xbe566e6e	-0.20940563
224	0xbf51fde8	-0.82028055
225	0x3f2e1198	0.67995596
226	0x3ee80e09	0.45323208
227	0x3eed25e3	0.46317968
228	0xbfbbbae9	-1.4666415
229	0xbf323842	-0.6961709
230	0xbf7eade8	-0.9948411
231	0xbf579eec	-0.8422687
232	0xbf58c10f	-0.84669584
233	0xbf701833	-0.93786925
234	0x3f9c9818	1.2233915
235	0x3fae158a	1.3600323
236	0x3f0e0d88	0.554894
237	0xbeae7887	-0.3407633
238	0x3f103392	0.5632869
239	0xbcb209bd	-0.02173316
240	0x3fe89768	1.8171206
241	0xbf14cfc6	-0.5812954
242	0xbeee6c55	-0.46567026
243	0xbedad2ef	-0.42739055
244	0xc0253aa9	-2.5817053
245	0x3e5d9000	0.21636963
246	0x3ed24607	0.41069052
247	0x3e72e706	0.23720941
248	0x3fa6e832	1.303961
249	0x3fbda6a8	1.4816484
250	0xbf320db4	-0.6955216
251	0xbf09c15a	-0.53810656
252	0x3f1f53ab	0.6223704
253	0xbeadb444	-0.33926594
254	0x3c77d1d2	0.015125709
255	0xbebaf4dd	-0.3651494

feature.0.bias f4 [128]
0	0x3f0f165b	0.55893487
1	0xbe838908	-0.25690484
2	0xbeb44db6	-0.3521554
3	0x3fcca682	1.5988314
4	0x3fa28664	1.2697263
5	0x3fbeb54f	1.4899081
6	0xbf09147b	-0.53546876
7	0x3f628588	0.88485
8	0x3fd64132	1.6738646
9	0xbf1c2149	-0.6098829
10	0xbe64aac7	-0.22330771
11	0x3fc50e12	1.5394919
12	0xbd0b34fe	-0.033986084
13	0x3f1a601a	0.6030289
14	0x3f455e92	0.7709743
15	0xc0167ee4	-2.3514948
16	0xbfa57f66	-1.2929504
17	0x40553103	3.3311164
18	0x3fb39572	1.4029982
19	0x3e6a677f	0.22891043
20	0x3f4f300a	0.80932677
21	0x3ff47ec6	1.9101188
22	0x3fa6edec	1.3041358
23	0xbde801f4	-0.113284975
24	0xbf3e86d5	-0.7442449
25	0x3f89664c	1.0734344
26	0xbd746da0	-0.05967486
27	0xbf83f964	-1.0310483
28	0x3fbe0115	1.484408
29	0xbf3a1c72	-0.72699654
30	0x3f8cb47e	1.0992582
31	0xbef1d78c	-0.47234762
32	0xbec4966f	-0.38396022
33	0xc0535f02	-3.3026738
34	0xbfa75193	-1.307177
35	0xbd607557	-0.054799404
36	0x3e6da9f7	0.23209368
37	0x3fb40e7e	1.4066923
38	0x3ec961ee	0.39332527
39	0xbe892b72	-0.2679096
40	0xbf642f93	-0.8913509
41	0x3fd5605c	1.6670032
42	0xbf1b0634	-0.6055634
43	0x401eb9ba	2.4800858
44	0xbe26e1fc	-0.16297144
45	0x3e33c479	0.17555417
46	0xc04d019d	-3.2032235
47	0x3fccec9f	1.6009711
48	0x3fadfd87	1.3592995
49	0xc0103744	-2.2533731
50	0xbd3735c7	-0.04472902
51	0xbf37b691	-0.7176295
52	0xbf2199fd	-0.6312559
53	0xbeb2a5a3	-0.34891996
54	0x3f59966b	0.84995145
55	0x3f31fe76	0.695289
56	0xbe4b76d3	-0.19869547
57	0xbf00e8ed	-0.50355417
58	0x3c1622fd	0.009163615
59	0xbea0f915	-0.31440035
60	0xbf70ff7e	-0.9413985
61	0xbc334e60	-0.010943979
62	0xbd25c811	-0.040474
63	0x3f05acbe	0.5221671
64	0xc0033e38	-2.0506725
65	0xc02d9587	-2.7122514
66	0xbfbc5353	-1.4712929
67	0xbbdd8822	-0.006760613
68	0x3d298610	0.041387618
69	0x3faa3687	1.329789
70	0x3e4ee37e	0.20203969
71	0x3f3d5397	0.7395567
72	0xbedd70e6	-0.43250197
73	0xc000b598	-2.0110836
74	0xbfd05f32	-1.6279051
75	0xbfd7dd30	-1.6864376
76	0x3f307a14	0.68936276
77	0xbfd63d7e	-1.6737516
78	0xc016cb29	-2.35615
79	0x3ef2d5d8	0.47428775
80	0xbf0bd481	-0.5462113
81	0xbfd7112f	-1.6802119
82	0xbe6fb6d3	-0.23409586
83	0x3b46c9ff	0.0030332801
84	0xbf60baa0	-0.8778477
85	0x3e38b2ae	0.18036911
86	0x3e324bb2	0.17411688
87	0xbec22afc	-0.3792342
88	0x3eef278e	0.46709865
89	0xbfa49e57	-1.2860821
90	0xbe505174	-0.20343572
91	0xbf60f7d9	-0.87878186
92	0xbf9f1954	-1.2429605
93	0xbee1e607	-0.4412081
94	0xbe253c00	-0.1613617
95	0x3fb21def	1.3915385
96	0xbecb2a8f	-0.39680907
97	0xbf6356f6	-0.88804567
98	0xbe273adc	-0.16331047
99	0xbf544a32	-0.82925713
100	0x3f37516b	0.7160861
101	0xbf947d88	-1.1600809
102	0xc0594f16	-3.395452
103	0xbf7d4159	-0.9892784
104	0xbf649d3f	-0.8930244
105	0xbf2ba86f	-0.67053884
106	0x3ed078e8	0.40717244
107	0x3ebb6b3e	0.36605257
108	0xbd0ce34e	-0.034396462
109	0xbde0d6f9	-0.10978503
110	0x3f37e24e	0.7182969
111	0xbecd3eb8	-0.40086913
112	0xbfae3be2	-1.3612025
113	0x3f5dad07	0.86592144
114	0x3fb674ec	1.4254432
115	0x4053d515	3.3098805
116	0x3f09371f	0.53599733
117	0x3f22d05b	0.63599175
118	0xbd1565b0	-0.03647393
119	0x3f5413d0	0.8284273
120	0xbfd1428c	-1.6348433
121	0x3fd10964	1.6330991
122	0xbf80dac0	-1.0066757
123	0xbdb167cd	-0.086623766
124	0x3f3e5812	0.74353135
125	0x3eec6a16	0.46174687
126	0x3f036a39	0.5133396
127	0xbf30dbe5	-0.6908553

feature.2.weight f4 [128, 128]
0	0xbdbf4072	-0.09338464
1	0xbf3d0816	-0.73840463
2	0xbdb0492d	-0.08607707
3	0x3d55f48f	0.052235182
4	0xbea41b5c	-0.32052124
5	0x3ddbae0f	0.107265584
6	0xbd503d9d	-0.05084001
7	0xbf864fce	-1.0493104
8	0x3c6beff5	0.014400472
9	0xbe82932e	-0.25502914
10	0xbe09a78f	-0.13442825
11	0xbe889cd9	-0.26682165
12	0x3e077926	0.13229808
13	0xbd853b65	-0.06505469
14	0x3c0b3ba1	0.008498103
15	0x3c86c877	0.016453011
16	0x3da136c6	0.07871775
17	0xbd91c696	-0.071179554
18	0x3f2876e3	0.65806407
19	0xbe64d36b	-0.22346275
20	0x3f5e09b2	0.86733544
21	0xbe6c3211	-0.23065974
22	0xbfa57295	-1.2925593
23	0x3b705eac	0.0036677523
24	0xbeb2f90e	-0.3495564
25	0xbcd34d9a	-0.02579384
26	0x3c585a68	0.013205148
27	0x3ccc6ac7	0.02495326
28	0x3d01bd6c	0.031674787
29	0xbca86326	-0.02055509
30	0xbf15b2da	-0.5847603
31	0x3e91c6f0	0.2847209
32	0x3de17c24	0.11010006
33	0xbf06aff5	-0.5261224
34	0xbe604c55	-0.21904118
35	0xbd364955	-0.04450353
36	0xbdad3288	-0.08456904
37	0xbea36ba7	-0.3191807
38	0x3d8726c5	0.065991916
39	0x3d70072a	0.058600582
40	0xbdfdbdcd	-0.12389717
41	0xbe359cce	-0.17735597
42	0xbe8a2d62	-0.2698775
43	0xbdc36a65	-0.095417775
44	0xbd2bbf18	-0.041930288
45	0xbd893894	-0.067002445
46	0x3d45425b	0.048158985
47	0xbe2d8607	-0.16945659
48	0xbe78c14a	-0.24292484
49	0xbbc26835	-0.0059328326
50	0x3dcc4f9b	0.09976121
51	0xbec8961e	-0.3917703
52	0x3d69b5f4	0.05705829
53	0x3d181e4b	0.037138265
54	0xbe05fbaf	-0.13084291
55	0xbd9d5bc0	-0.076835155
56	0xbe54a35f	-0.20765446
57	0xbf1dd02c	-0.6164577
58	0x3e0e146f	0.13874982
59	0xbe514ecc	-0.20440215
60	0x3e071402	0.13191226
61	0xbd46e495	-0.048557837
62	0xbe5196e6	-0.2046772
63	0x3e0b50ae	0.13604996
64	0xbe37823c	-0.17920774
65	0xbeaa40b5	-0.33252493
66	0xbde8c0ea	-0.113649204
67	0x3c381a3d	0.011236724
68	0xbe8e3dc2	-0.27781492
69	0xbe73a898	-0.23794782
70	0xbe807d61	-0.25095657
71	0xbf53f5cd	-0.8279694
72	0x3dcd235c	0.1001651
73	0xbe52a86e	-0.20572063
74	0x3dd94fed	0.10610948
75	0xbf03b7f7	-0.51452583
76	0xbf2f9e70	-0.6860113
77	0xbe903c1a	-0.28170854
78	0xbdb4a30f	-0.088201635
79	0x3ed6452c	0.4184965
80	0xbe9e690b	-0.30939516
81	0xbe34c74e	-0.17654154
82	0x3dcef13a	0.10104604
83	0x3d13cbdb	0.036083084
84	0x3ef20899	0.47272184
85	0xbecc572d	-0.3991026
86	0xbf8504e1	-1.0392114
87	0xbf33100c	-0.6994636
88	0xbb20972f	-0.0024504175
89	0x3e9a879a	0.3018158
90	0x3e172a5b	0.14762251
91	0xbe12c680	-0.14333534
92	0xbf60a57d	-0.87752515
93	0xbda167b7	-0.0788111
94	0xbe380fa7	-0.17974721
95	0x3f0a28e5	0.5396865
96	0xbe1115eb	-0.14168517
97	0x3e669815	0.22518952
98	0xbe50c5b8	-0.20387924
99	0xbe9ec3bf	-0.31008717
100	0xbe17e65a	-0.14833966
101	0x3e27c3b2	0.16383246
102	0x3ca07ec4	0.019591697
103	0xbe1c7f81	-0.15283014
104	0xbf170877	-0.5899729
105	0xbe079d57	-0.13243614
106	0xbf11bf9c	-0.56933
107	0x3b31c0ed	0.002712305
108	0x3e7db0d0	0.2477448
109	0x3d93dffe	0.072204575
110	0x3d495be8	0.049159914
111	0xbf43b5ca	-0.76449263
112	0xba9bd3db	-0.0011888699
113	0xbe83eb2e	-0.25765365
114	0xbf85929b	-1.0435365
115	0x3c997407	0.018732084
116	0xbf1bc34f	-0.6084489
117	0xbe6d4c7a	-0.23173705
118	0xbdb40a3c	-0.087910146
119	0x3c39889b	0.011324073
120	0xbe895895	-0.26825395
121	0xbff26dbd	-1.893974
122	0xbecda6c6	-0.401663
123	0x3e4c1b68	0.1993233
124	0x3f37a06b	0.71729153
125	0xbd831499	-0.06400413
126	0x3f0967c0	0.53673935
127	0xbd300ca8	-0.04298082
128	0xbe752ff5	-0.23944075
129	0x3d0eb312	0.034838744
130	0x3e269046	0.16265973
131	0x3ed37c0a	0.41305572
132	0x3c4a9938	0.012365632
133	0xbe39d88d	-0.18149014
134	0xbdfad8ec	-0.12248406
135	0x3e63979d	0.22225805
136	0xbf29df30	-0.6635618
137	0xbda28a2f	-0.07936513
138	0xbedbcadf	-0.42928216
139	0x3e3ddf72	0.18542269
140	0xbdfda5e4	-0.12385157
141	0x3e5839d4	0.2111581
142	0x3d82f91b	0.06395169
143	0x3d236d1f	0.039898988
144	0xba968a80	-0.0011485368
145	0xbe2bd342	-0.16779807
146	0xbe76c4af	-0.24098466
147	0x3f00f937	0.5038027
148	0xbe159132	-0.14606169
149	0xbe818831	-0.25299218
150	0xbe771303	-0.24128346
151	0xbe38ab6d	-0.18034144
152	0xbe988972	-0.29792362
153	0xbdf14668	-0.11781007
154	0x3d33c256	0.043886505
155	0xbe47b44b	-0.1950237
156	0xbe4aa3db	-0.19789068
157	0xbf135635	-0.57553416
158	0xbdad3807	-0.08457952
159	0xbd9429a6	-0.07234506
160	0xbe9d1dbd	-0.3068675
161	0xbea0e8cf	-0.3142762
162	0xbe35a7d8	-0.17739809
163	0x3c62807b	0.013824577
164	0x3e99f529	0.30069855
165	0x3d99df6c	0.075133175
166	0xbed12375	-0.40847364
167	0xbe42d340	-0.19025898
168	0xbe1eb4fa	-0.15498725
169	0xbf309cd5	-0.68989307
170	0xbdff19bb	-0.124560796
171	0xbe388494	-0.18019325
172	0x3d98df1a	0.07464428
173	0xbfafe965	-1.3743101
174	0x3e2714a7	0.16316472
175	0xbe900751	-0.28130582
176	0xbd7ee8ac	-0.062233612
177	0x3d15b544	0.03654982
178	0x3e410d18	0.18852651
179	0xbeb42bf3	-0.3518978
180	0xbd195bd7	-0.0374411
181	0x3ca95325	0.02066953
182	0xbd4f0d85	-0.050550003
183	0xbd991745	-0.074751414
184	0xbd1838fd	-0.037163723
185	0x3d08954e	0.033345513
186	0x3e502772	0.20327547
187	0xbdcaf301	-0.099096306
188	0xbdc12fcc	-0.09432945
189	0xbc0d2690	-0.008615151
190	0xbda20d71	-0.0791272
191	0xbca49110	-0.020088702
192	0x3dfb98a4	0.12284973
193	0x3ecf56e4	0.4049598
194	0xbd62580b	-0.055259746
195	0xbd9e3cf8	-0.077264726
196	0x3ef1c967	0.4722397
197	0xbcaa5860	-0.020794094
198	0xbea9ba10	-0.33149767
199	0x3d5871d9	0.05284295
200	0xbf0e1282	-0.5549699
201	0xbd2f8e87	-0.042860534
202	0xbcbd245b	-0.023088625
203	0x3f3dcaab	0.7413737
204	0x3ccf6355	0.02531592
205	0xbce65aaf	-0.028119413
206	0x3dbdb849	0.09263665
207	0xbdb10df7	-0.08645242
208	0x3e5b31ab	0.21405666
209	0xbf7d45ae	-0.9893445
210	0xbf0ecc2a	-0.5578028
211	0xbc8c6ee9	-0.01714273
212	0x3ea8b330	0.3294921
213	0xbf47b57a	-0.78011286
214	0xbec2e37f	-0.3806419
215	0xbd7ea8cc	-0.062172696
216	0xbd1ed02e	-0.038772754
217	0xbd05b90d	-0.03264718
218	0x3db5b337	0.08872073
219	0xbd04d676	-0.03243109
220	0x3f461a60	0.77383995
221	0xbe3204b3	-0.17384605
222	0x3c862c4d	0.016378546
223	0xbe3dcb28	-0.18534529
224	0xbedba8dc	-0.42902267
225	0xbf025989	-0.5091787
226	0xbdd6c17f	-0.10486125
227	0xbf0683ff	-0.5254516
228	0xbe317b59	-0.1733221
229	0xbf586864	-0.8453429
230	0x3dc4bfd5	0.096069016
231	0x3deaa876	0.114579126
232	0xbceadb81	-0.02866912
233	0xbe840f54	-0.25792944
234	0xbd89a00b	-0.06719979
235	0xbed46531	-0.41483453
236	0x3dfae636	0.122509405
237	0x3d9d58bb	0.076829396
238	0xbe4e1d41	-0.20128347
239	0xbd0df0e9	-0.034653578
240	0xbe75461b	-0.23952524
241	0xbe1879f0	-0.14890265
242	0xbe3ddc7a	-0.18541136
243	0xbe58515e	-0.21124789
244	0x3e077571	0.13228394
245	0x3d99e37c	0.07514092
246	0xbba44a30	-0.0050137267
247	0xbf1ec7b1	-0.62023455
248	0xbe7a8304	-0.24464041
249	0x3e1a83c3	0.15089326
250	0xbd8b2c1a	-0.06795521
251	0xbf37d757	-0.7181296
252	0xbe5c4b1f	-0.21513031
253	0xbf63594a	-0.8880812
254	0xbe57a52a	-0.21059099
255	0xbf0361fe	-0.513214

feature.2.bias f4 [128]
0	0xbe1cf726	-0.15328655
1	0xbe02d228	-0.12775481
2	0x3f5f7bf9	0.8729854
3	0x40248eea	2.5712228
4	0xbc7d3d87	-0.015456564
5	0xbd40542c	-0.046955273
6	0xbd8e5a53	-0.06950822
7	0x3f06a80c	0.5260017
8	0x3e77a3f8	0.24183643
9	0xbe72baac	-0.23704022
10	0x3f007335	0.5017579
11	0x3e25bfe0	0.16186476
12	0x3e267d00	0.16258621
13	0xbed42fd2	-0.41442734
14	0xbe358969	-0.17728199
15	0x3cd12399	0.02552967
16	0xbd53f3b5	-0.05174609
17	0xbef5f13d	-0.48035613
18	0xbd33d66a	-0.043905653
19	0x3f99b8d1	1.2009526
20	0xbd04e2bf	-0.032442804
21	0xbe11610d	-0.14197178
22	0xc01a914d	-2.4151185
23	0xbe043d41	-0.12913992
24	0xbe144d27	-0.14482556
25	0xbe011a4c	-0.12607688
26	0xbe1d9d78	-0.15392101
27	0xbeba599d	-0.36396495
28	0xba84933c	-0.001011468
29	0x3f19049b	0.5977265
30	0xbe2a2c11	-0.16618372
31	0x3eacda21	0.3376017
32	0xbc813db9	-0.015776502
33	0x3ea1f4d1	0.31632093
34	0x3e283edc	0.16430229
35	0xbd94bebf	-0.072629444
36	0x3ecf048a	0.4043315
37	0x3f1c7c1e	0.6112689
38	0xbe822b50	-0.2542367
39	0x3e63c47c	0.22242922
40	0xbe223727	-0.15841351
41	0x3d30f6b6	0.043204032
42	0xbe15d106	-0.14630517
43	0xbddd8888	-0.10817057
44	0x3e10cad1	0.14139868
45	0xbe2cf677	-0.16890894
46	0xbe54b05e	-0.20770404
47	0x3d0f0515	0.034916956
48	0xc02557ac	-2.583476
49	0xbeb0a41a	-0.345002
50	0xbfe01eaa	-1.7509358
51	0xbf5457db	-0.82946557
52	0xbd8d8d88	-0.069117606
53	0x3ebc5cfe	0.36789697
54	0x3d9deafa	0.07710834
55	0x3ebc4fee	0.36779732
56	0xbd493d18	-0.04913053
57	0xbf17bc4d	-0.592717
58	0x3db50650	0.08839095
59	0xbe4b7714	-0.19869643
60	0xbd548526	-0.051884793
61	0xbd461db7	-0.048368182
62	0xbd2dafe9	-0.04240409
63	0x3f852332	1.0401366
64	0x3e66a273	0.22522907
65	0x3d459272	0.048235364
66	0xbe40e6d2	-0.18838051
67	0xbd97db2e	-0.07414852
68	0xbe8bd507	-0.27310964
69	0xbc29ca2e	-0.010363145
70	0xbe170db9	-0.14751329
71	0xbe1fe169	-0.15613331
72	0x3e69ba52	0.22824982
73	0xbd06fe28	-0.032957226
74	0x3e94599d	0.2897462
75	0xbd568afd	-0.052378643
76	0xbe0cd0e8	-0.13751566
77	0x3cb12c59	0.021627592
78	0x3e9c87eb	0.30572447
79	0xbe325dc8	-0.17418587
80	0x3f2e0683	0.67978686
81	0x3e55731d	0.20844693
82	0xbee9a928	-0.45636868
83	0xbd9d067e	-0.07667254
84	0xbdd712a1	-0.105016
85	0xbdfcfe4c	-0.12353191
86	0x3eec5949	0.4616187
87	0x3e813260	0.25233746
88	0xbe6e4f46	-0.23272428
89	0xbf13ab15	-0.57682925
90	0xbd23b52a	-0.039967693
91	0x3f0856d0	0.53257465
92	0xbd25e08f	-0.04049736
93	0x3f28a582	0.65877545
94	0xbf796723	-0.97423
95	0x3c3640c3	0.011123839
96	0xbe1f54d4	-0.15559703
97	0xbde7283b	-0.1128697
98	0x3e8a5ecb	0.27025446
99	0x3f20ccce	0.6281251
100	0xbde88144	-0.113527805
101	0xbf0d3f22	-0.5517446
102	0x3f3303cf	0.69927686
103	0x3f171e67	0.59030765
104	0x3e46baf5	0.19407256
105	0xbdef2226	-0.11676435
106	0x3ec79939	0.38984087
107	0xbe2abf53	-0.16674547
108	0x3f0bc815	0.54602176
109	0x3b9068ad	0.0044070096
110	0xbd689b12	-0.05678851
111	0xbe1639c2	-0.1467047
112	0x3f05d39b	0.5227601
113	0xbdf91b03	-0.12163355
114	0xbee99777	-0.4562337
115	0x3cc6c81a	0.024265338
116	0x3e801d6f	0.25022456
117	0x3e0a499f	0.13504647
118	0x3f1bad17	0.6081099
119	0xbb8ebd62	-0.0043560723
120	0xbd38c970	-0.04511398
121	0x3ee4e0d8	0.44702792
122	0xbde9ebf8	-0.114219606
123	0xbdc45f46	-0.095884845
124	0x3e45ca74	0.19315511
125	0xbe1326cd	-0.1437027
126	0xbd228c01	-0.0396843
127	0xbeae6146	-0.3405859

value.0.weight f4 [64, 128]
0	0x3f207cdc	0.6269052
1	0xbc14b1a5	-0.009075557
2	0xbf89c0eb	-1.0761999
3	0xbe871739	-0.26384905
4	0xbca5fa72	-0.020261023
5	0xbdb5fb51	-0.088858254
6	0xbdf46f6c	-0.119353145
7	0xbf3907f9	-0.7227779
8	0xbf3d9623	-0.74057215
9	0x3d34c669	0.04413453
10	0xbe940b4c	-0.2891487
11	0x3b35f9d5	0.002776732
12	0xbf2fc62a	-0.6866175
13	0xbd968220	-0.07349038
14	0xbf24c5a2	-0.64364064
15	0xbf389638	-0.72104216
16	0xbbff7892	-0.0077963555
17	0xbf5fad05	-0.8737338
18	0x3c81896a	0.015812594
19	0xbfb11ae8	-1.3836336
20	0xbec8128e	-0.39076656
21	0xbda11313	-0.07864966
22	0xc01cbeba	-2.449141
23	0xbb957900	-0.0045615435
24	0x3edbd272	0.42933995
25	0xbc84e0ba	-0.01622044
26	0x3da8f2ec	0.08249459
27	0xbed053e7	-0.40689012
28	0xbc8aaba0	-0.01692754
29	0xbd86e3f2	-0.06586446
30	0x3c069700	0.008214712
31	0xbfa958d5	-1.3230234
32	0xbd78dacc	-0.060755536
33	0xbfd5c7f5	-1.6701647
34	0xbde9271e	-0.11384414
35	0xbda05baf	-0.07829987
36	0xbc570fdd	-0.013126341
37	0xbf3a6527	-0.72810596
38	0xbf08c193	-0.5342037
39	0xbe49e612	-0.19716671
40	0xbe2285f5	-0.15871413
41	0xbe9e4899	-0.30914763
42	0xbed98db4	-0.42490923
43	0xbd6e4dc2	-0.058179624
44	0xbf112b44	-0.56706643
45	0xbdcd664d	-0.10029278
46	0xbda8b2e7	-0.08237248
47	0x3d84cf4a	0.0648485
48	0x3d672520	0.05643189
49	0xbee0a4e3	-0.438758
50	0xbfa12166	-1.2588317
51	0xbe8c76ee	-0.27434486
52	0xbc971070	-0.018440455
53	0xbeaf2372	-0.3420673
54	0xbeb7c5d4	-0.35893118
55	0xbfe06969	-1.7532169
56	0xbf3c8297	-0.73636764
57	0x3f8955c3	1.0729297
58	0xbf064b92	-0.5245906
59	0x3d158012	0.03649909
60	0x3d144cf4	0.0362062
61	0x3a877480	0.0010334402
62	0x3d520952	0.05127842
63	0xbf8ab857	-1.0837506
64	0xbe61a528	-0.22035658
65	0x3e69b2db	0.22822134
66	0x3d642c4a	0.0557063
67	0x3c8c4954	0.01712481
68	0xbe89d7f6	-0.26922578
69	0x3d13c68b	0.036078017
70	0x3dcb71a2	0.09933783
71	0xbddcaa77	-0.10774701
72	0xbeb1de4d	-0.34739915
73	0x3f561b81	0.8363572
74	0xbf4d0549	-0.8008619
75	0xbd009d39	-0.03139994
76	0xbe479ad6	-0.19492659
77	0xbe9dea36	-0.3084275
78	0xbeb54b5c	-0.35409057
79	0x3d86799a	0.065661624
80	0xbd999f0d	-0.0750104
81	0xbc19318e	-0.009350194
82	0x3f4e399b	0.8055665
83	0x3d76fffc	0.06030272
84	0x3ccf6a1a	0.025319148
85	0xbda585b8	-0.080821455
86	0xbeaf660b	-0.3425754
87	0xbe2838f8	-0.16427982
88	0xbe6e1d45	-0.23253353
89	0x3e4dbc13	0.20091276
90	0xbc86760f	-0.016413717
91	0x3d163edf	0.036681052
92	0xbeb6bc48	-0.35690522
93	0xbcf6001d	-0.03002935
94	0x3ea0df91	0.31420568
95	0xbe8af312	-0.27138573
96	0x3c68963f	0.014195978
97	0x3ef4bc53	0.4779993
98	0x3eac9374	0.33706248
99	0xbd3a8685	-0.045538444
100	0xbebf2086	-0.373295
101	0xbe7e94c1	-0.24861433
102	0xc000c17e	-2.0118098
103	0xbf5ba88f	-0.85804075
104	0xbee969a5	-0.45588413
105	0x3ccdc12c	0.025116526
106	0xbee248bd	-0.4419612
107	0xbf7229fc	-0.94595313
108	0xbfb29eb1	-1.3954679
109	0x3d9e6f03	0.077360176
110	0x3d491249	0.049089704
111	0x3d49d193	0.04927213
112	0xbebbe528	-0.3669827
113	0xbcccfc72	-0.025022719
114	0xbe8672d5	-0.26259485
115	0xbe7e50ad	-0.24835463
116	0xbe8d6c96	-0.27621907
117	0xbf82ce03	-1.021912
118	0x3e5c2476	0.21498284
119	0xbd6442da	-0.055727817
120	0x3f414cbc	0.7550771
121	0x3e3dfe66	0.18554077
122	0x3d1bb208	0.03801158
123	0x3d27eafd	0.040995587
124	0xbe43c95c	-0.19119781
125	0xbd94473a	-0.07240148
126	0x3cd76e48	0.026297703
127	0x3de4c23c	0.1116986
128	0xbdabad27	-0.083826356
129	0xbd0bae68	-0.034101874
130	0xbe0ff5e4	-0.14058644
131	0xbf80bb46	-1.0057151
132	0xbd9e9fe4	-0.077453405
133	0xbdb374ac	-0.08762488
134	0xbe9a8f3d	-0.30187407
135	0xbcb537b6	-0.022121292
136	0x3e87e510	0.26541948
137	0x3a034bde	0.00050085585
138	0xbf068a23	-0.5255453
139	0xbea10be7	-0.31454393
140	0x3db94d50	0.09047949
141	0x3ca8ed34	0.02062092
142	0xbdfe2301	-0.1240902
143	0xbd87c6c3	-0.06629708
144	0xbd90314e	-0.07040654
145	0x3e4a8594	0.19777519
146	0x3d57787f	0.05260515
147	0xbdcd7186	-0.100314185
148	0xbda54ecd	-0.08071671
149	0xbd6909b9	-0.056894038
150	0x3f672a66	0.9029907
151	0x3ac05800	0.0014674664
152	0xbf6111ea	-0.8791796
153	0xbe0e36dc	-0.13888115
154	0xbd0ebf88	-0.034850627
155	0xbdd7db54	-0.105398804
156	0x3b1ce3e9	0.0023939556
157	0xbe20523b	-0.15656368
158	0xbd7e5b0e	-0.062098555
159	0xbd88ec2f	-0.066856734
160	0x3d4a289a	0.049355127
161	0xbb1bbe67	-0.0023764612
162	0x3ebade21	0.36497596
163	0x3d4373d3	0.04771788
164	0xbd9331fd	-0.07187269
165	0xbec2d178	-0.38050437
166	0xbde57748	-0.11204392
167	0xbd278967	-0.04090252
168	0xbe0e010d	-0.13867588
169	0xbe3502f9	-0.17676915
170	0xbd1d5338	-0.03840944
171	0xbd2a6940	-0.04160428
172	0xbdd7dcaf	-0.10540139
173	0x3d3ce566	0.04611721
174	0x3dbc0a22	0.0918162
175	0xbdf06453	-0.11737885
176	0xbde7430b	-0.11292084
177	0x3d96f638	0.07371181
178	0xbac871b1	-0.0015292672
179	0xbdcf23ce	-0.10114251
180	0x3d58dac6	0.052943014
181	0xbe870606	-0.26371783
182	0xbe42ec23	-0.19035392
183	0xbd6d05ef	-0.057866987
184	0xbe01799c	-0.12644047
185	0x3f1e6b9e	0.6188296
186	0x3d2c85a5	0.04211964
187	0x3da281a5	0.07934884
188	0xbd0dbc91	-0.03460366
189	0xbdb187d3	-0.086684845
190	0xbd5e266f	-0.054235872
191	0xbf891e1c	-1.0712314
192	0xbd635c8c	-0.05550818
193	0x3d4a65a1	0.049413327
194	0x3d7bc436	0.06146642
195	0xbd581acf	-0.05275994
196	0xbed3e3d5	-0.4138476
197	0x3d1d83be	0.038455717
198	0x3bf5fb90	0.007506795
199	0x3de7e078	0.11322111
200	0x3d14048b	0.036137145
201	0xbef09799	-0.4699066
202	0xbef97856	-0.48724622
203	0x3d649a2d	0.055811096
204	0xbd99e70d	-0.075147726
205	0xbeaf3d70	-0.3422656
206	0xbd758146	-0.059937738
207	0x3dc4a917	0.09602564
208	0xbef871ba	-0.48524266
209	0x3d12fff7	0.03588864
210	0x3e1f477e	0.15554616
211	0x3db3d4d3	0.087808274
212	0xbd0941a4	-0.033509865
213	0x3d0ed4e8	0.034871012
214	0xbe9b45a0	-0.30326557
215	0xbe304205	-0.17212684
216	0xbd98faa4	-0.07469681
217	0x3de72721	0.1128676
218	0xbc1ec679	-0.009690874
219	0x3c1bf9aa	0.009519974
220	0x3d690ee4	0.056898966
221	0xbe8293ee	-0.25503486
222	0xbe99407e	-0.29932016
223	0x3ca292f1	0.019845458
224	0x3cef7c27	0.029234005
225	0x3cbb243b	0.022844424
226	0x3e9e0b62	0.3086806
227	0xbe176e4b	-0.14788167
228	0xbc9ede2c	-0.01939305
229	0xbe4d6367	-0.2005745
230	0xbc13c806	-0.009019857
231	0xbe903330	-0.28164053
232	0xbe9be235	-0.3044602
233	0x39c9a800	0.00038462877
234	0xbe31c481	-0.17360117
235	0xbe30e4f6	-0.17274842
236	0xbce8a3ed	-0.028398478
237	0xbd8a6618	-0.06757754
238	0xbc8fd668	-0.017558292
239	0x3d7d70ce	0.061875157
240	0xbea12fc2	-0.3148175
241	0xbd9a591d	-0.07536528
242	0xbe2c1056	-0.16803107
243	0xbc99a61d	-0.018755967
244	0xbdcbccc7	-0.099511676
245	0xbe59f22d	-0.21283789
246	0xbf1b5017	-0.6066908
247	0xbade1de1	-0.001694616
248	0xbe2f7c0d	-0.17137165
249	0xbd38d72f	-0.04512709
250	0xbd869274	-0.065709025
251	0x3db19b7f	0.08672237
252	0xbdc97c56	-0.09838168
253	0xbcccad5c	-0.024985008
254	0xbc874b54	-0.016515411
255	0xbe9ad0f3	-0.3023754

value.0.bias f4 [64]
0	0xbfbdbbec	-1.4822974
1	0xbf8f7347	-1.1207055
2	0x3f80b23b	1.0054392
3	0xbfa08a4c	-1.2542205
4	0x4031e421	2.779549
5	0x3df10d5a	0.11770125
6	0xbe5c651e	-0.21522948
7	0x3e4fd113	0.20294599
8	0x3e0cbc94	0.13743812
9	0xbf4a05f5	-0.7891534
10	0x3f10c65f	0.5655269
11	0xbf229901	-0.63514715
12	0xbb9d12ee	-0.0047935164
13	0x3f434998	0.7628417
14	0x3f362ee3	0.71165293
15	0xbd453b0c	-0.048152015
16	0x403f62fa	2.990416
17	0x405e8039	3.476576
18	0x401a5a66	2.4117675
19	0xbf25b35d	-0.6472681
20	0xbfbe518c	-1.4868636
21	0x3fe7fcff	1.8124083
22	0x3edfa151	0.43677762
23	0x3ee371a3	0.44422635
24	0x3f1a2130	0.6020689
25	0x400696a8	2.1029453
26	0xbf0484cc	-0.5176513
27	0xbe6b6ca3	-0.2299066
28	0xbf414d03	-0.75508136
29	0xbe6fa553	-0.2340291
30	0x3e1e157e	0.15437886
31	0xbf829313	-1.0201133
32	0x3fcc7f41	1.5976335
33	0xbf0c9f85	-0.5493091
34	0x3fcae929	1.5852405
35	0x3f0113f1	0.50421053
36	0xbfdd90b2	-1.7309783
37	0x3f7fe831	0.9996367
38	0xbef6b454	-0.48184454
39	0xbf3401c0	-0.7031517
40	0x3f252f55	0.6452535
41	0xc01434a0	-2.315712
42	0x3ea1a89d	0.31573954
43	0xbef80cd6	-0.48447293
44	0x3f73b645	0.95199996
45	0xbeabdba6	-0.33566016
46	0x3f77a64e	0.96738136
47	0xbeb07fb4	-0.3447243
48	0xbf000639	-0.50009495
49	0x3e106550	0.14101148
50	0xbfc0bb1c	-1.5057101
51	0x3ef91302	0.48647314
52	0xbeacca3e	-0.3374805
53	0xc02bfc44	-2.687272
54	0xbf0b1239	-0.5432468
55	0xbf1224a3	-0.57087153
56	0xbed69e66	-0.41917723
57	0xbfbcd113	-1.4751304
58	0xbee7b5ec	-0.45255983
59	0xbf187638	-0.5955539
60	0xbf9c8667	-1.2228516
61	0xc01fea13	-2.4986618
62	0x3e79e2eb	0.24402969
63	0xbfe2d73d	-1.7721936

value.2.weight f4 [1, 64]
0	0xbff20767	-1.8908509
1	0x3f9f347d	1.2437893
2	0xbec55d33	-0.38547668
3	0x3fe2eaed	1.7727944
4	0x3fe61f6c	1.7978339
5	0x3f2c0590	0.6719599
6	0xbd0f5817	-0.03499612
7	0xbee043b0	-0.4380164
8	0xbf76f7e2	-0.9647199
9	0xbe90d5e7	-0.28288195
10	0x3efd335d	0.4945325
11	0xbdbfaf6a	-0.093596295
12	0x3f3eb0d1	0.7448855
13	0xbf031d38	-0.5121646
14	0x3d4801f1	0.048829976
15	0x3dc381b0	0.0954622
16	0x3f91adca	1.1381161
17	0x3fa25d65	1.2684752
18	0x401f0cd2	2.4851575
19	0x3f375b32	0.7162353
20	0xbfefabb8	-1.8724279
21	0x40027c2d	2.038829
22	0x3eca2af7	0.39485905
23	0xbf964e97	-1.1742734
24	0xc00fecbd	-2.2488244
25	0x3f6ef213	0.93338126
26	0xbe83b50c	-0.25724065
27	0xbf26ac96	-0.65107095
28	0x3bb11b57	0.0054048705
29	0xbcee799d	-0.029110724
30	0x3dd85c3d	0.10564468
31	0xbf85647a	-1.0421288
32	0x3f8b4238	1.0879583
33	0x3eeeeda3	0.46665677
34	0x3f4b699a	0.7945801
35	0x3ee7bede	0.45262808
36	0xbec75c04	-0.3893739
37	0x3f8334ed	1.0250527
38	0xc0203155	-2.503011
39	0xbf95b67f	-1.1696318
40	0xbe83ca4e	-0.25740284
41	0xbfcd091e	-1.6018407
42	0xbe8a26b2	-0.26982647
43	0x3fa8ed00	1.3197327
44	0x3f4c6134	0.7983582
45	0xbbb77d9f	-0.005599692
46	0x3f65230e	0.89506614
47	0x3c9a680a	0.018848438
48	0xbe543ae5	-0.20725591
49	0x3f428234	0.75979924
50	0xc0081204	-2.1260996
51	0xbe9ed7bf	-0.31023976
52	0xbe9c3798	-0.30511165
53	0xbfb8b231	-1.442938
54	0x3e40540d	0.18782063
55	0xbf6c9699	-0.92417294
56	0xbf1b40e1	-0.6064587
57	0x3f32e352	0.69878113
58	0xbe80f1a1	-0.25184348
59	0x3f577e41	0.84177023
60	0x3f7c7cbd	0.98627836
61	0xc008a9ef	-2.135372
62	0xbf894eee	-1.0727212
63	0xbf475cf0	-0.77876186

adv.0.weight f4 [64, 128]
0	0xbe4667b2	-0.19375494
1	0x3d8263b2	0.063666716
2	0x3e239a24	0.15976769
3	0x3d2172da	0.03941617
4	0x3995b0ca	0.00028551213
5	0x3b4f67e9	0.0031647629
6	0xbece0726	-0.4023983
7	0xbec881b4	-0.39161456
8	0x3e504d43	0.20341973
9	0x3d64299f	0.055703755
10	0x3f2d0b1f	0.67595094
11	0xbdf050dd	-0.117341734
12	0xbeb85f2a	-0.36010104
13	0xbf4752ee	-0.77860916
14	0xbe7c38d3	-0.24631052
15	0xbf7cab56	-0.9869894
16	0xbd0f8538	-0.035039157
17	0xbeaaba6c	-0.33345354
18	0xbd8ebb1b	-0.06969281
19	0xbd315af1	-0.04329962
20	0x3cc65b17	0.024213357
21	0xbd95d7e9	-0.07316572
22	0xbf45b6bb	-0.7723195
23	0x3ca28abb	0.019841542
24	0xbeb32e27	-0.3499615
25	0x3a2b9f1f	0.0006546843
26	0xbdb33d8e	-0.08751975
27	0xbe4cf940	-0.20016956
28	0x3ed5fbf8	0.417938
29	0xbe5fb8b5	-0.21847804
30	0xbc1c220c	-0.009529602
31	0xbd140148	-0.036134034
32	0x3cabf492	0.020990644
33	0xbf95f19d	-1.171436
34	0xbe25316c	-0.16132134
35	0xbf120959	-0.57045513
36	0xbfc4601a	-1.5341828
37	0xbf33f456	-0.702947
38	0xbf69bebb	-0.91306657
39	0xbe824645	-0.25444236
40	0xbdc1869d	-0.094495036
41	0xbdc62504	-0.09675029
42	0xbe9fdce4	-0.31223214
43	0xbd5466ee	-0.051855974
44	0xbef8c839	-0.48590258
45	0x3d9c2851	0.07624877
46	0xbf12838e	-0.57231987
47	0xbe8c7811	-0.27435353
48	0x3ca1feff	0.019774912
49	0xbf7a444d	-0.9776047
50	0xbe953997	-0.291455
51	0xbf031abb	-0.5121266
52	0x3d8cadf8	0.068691194
53	0xbea26630	-0.31718588
54	0xbe1f54a9	-0.15559639
55	0x3e311649	0.17293657
56	0x3ec22ae7	0.37923357
57	0x3f4e898e	0.8067864
58	0xbf0684a6	-0.52546155
59	0xbd4d3c4c	-0.05010633
60	0xbd900a9e	-0.07033275
61	0xbd845622	-0.06461741
62	0xbd670db7	-0.056409564
63	0xbf820f22	-1.0160868
64	0xbf5d582b	-0.8646266
65	0x3e0140cc	0.12622374
66	0x3c6bdf00	0.014396429
67	0x3d5c490d	0.053780604
68	0xbf2f876f	-0.6856603
69	0xbd951f61	-0.07281376
70	0xbd894719	-0.06703014
71	0xbd7dbf64	-0.061950102
72	0xbfb39b4d	-1.4031769
73	0xbf40ac25	-0.7526267
74	0xbf6d64a4	-0.9273169
75	0x3cc8e497	0.024523063
76	0xbca4d62b	-0.020121654
77	0xbf2616a1	-0.6487828
78	0x3e9c075a	0.3047436
79	0x3e67e5d2	0.22646263
80	0x3dce0095	0.10058705
81	0xbe8af55a	-0.27140313
82	0x3f85ba7e	1.0447538
83	0xbd20ef91	-0.03929097
84	0x3d65c2e2	0.056094058
85	0xbd890c17	-0.06691759
86	0xbef14966	-0.4712631
87	0xbf8da6e2	-1.1066554
88	0xbf43a7c8	-0.7642789
89	0xbee2d380	-0.44301987
90	0x3ab5dfa2	0.0013875852
91	0xc0ca2ba1	-6.317826
92	0xbe67a430	-0.22621226
93	0xbed46f51	-0.41491178
94	0x3e26fce0	0.16307402
95	0xbe81e2fb	-0.25368485
96	0xbd32f35b	-0.043689113
97	0xbefc754e	-0.49308246
98	0xbf6ac8e1	-0.91712767
99	0xbf5e603e	-0.86865604
100	0x3f592f1b	0.848375
101	0x3f99928b	1.1997846
102	0xbd8ebb7f	-0.06969356
103	0xbf533444	-0.82501626
104	0xbf8786b0	-1.0587978
105	0xbd846db4	-0.06466237
106	0x3e6ec2b3	0.2331646
107	0x3cf04019	0.02932744
108	0xbe0e158d	-0.13875408
109	0x3d9b3594	0.075785786
110	0x3c25c768	0.010118343
111	0xbd605134	-0.05476494
112	0xbf6f0d3a	-0.9337956
113	0xbd9e87cc	-0.07740745
114	0xbe86a7fd	-0.2630004
115	0xbdd7c4d8	-0.10535592
116	0xbfac4676	-1.3459003
117	0x3decbfda	0.1156003
118	0xbd81d9e4	-0.063403875
119	0xbccdd9b2	-0.02512822
120	0xbeb5d00d	-0.35510293
121	0xbea19400	-0.31558228
122	0xbb7e9c4b	-0.0038850482
123	0x3cf7a565	0.030230233
124	0xbe658847	-0.22415267
125	0xbbe9b610	-0.0071322992
126	0xbdaaa76c	-0.083327144
127	0xbed9b538	-0.4252107
128	0xbda04744	-0.07826093
129	0x3f21fca6	0.63276136
130	0xbea93bfe	-0.33053583
131	0xbfaaadd2	-1.3334296
132	0xbd07bf81	-0.033141617
133	0xbd47a22a	-0.048738636
134	0xbdfd9da4	-0.12383583
135	0xbebb626c	-0.36598527
136	0xbd6d8dfb	-0.05799673
137	0xbdc1ae48	-0.0945707
138	0xbef01d32	-0.46897274
139	0xbe9292bd	-0.28627577
140	0xbe044668	-0.12917483
141	0xbe1cd36e	-0.15315029
142	0xbe7be3cc	-0.24598616
143	0xbe997974	-0.29975474
144	0x3d76acd2	0.060223408
145	0xbf603a4b	-0.8758895
146	0xbd1603fc	-0.036624894
147	0xbf2217c4	-0.63317513
148	0xbdc55389	-0.09635074
149	0xbdb0d23e	-0.086338505
150	0x3f189570	0.59603024
151	0xbc4a1c08	-0.012335785
152	0xbd2d046b	-0.04224054
153	0x3d9c7629	0.07639725
154	0x3c9a8915	0.018864194
155	0xbe9dec7f	-0.30844495
156	0xbec20c38	-0.37899947
157	0xbdc578d5	-0.096421875
158	0x3d2c6566	0.04208889
159	0x3ddccf5c	0.10781738
160	0xbd071988	-0.032983333
161	0xbf3c63f2	-0.73590004
162	0xbf431e2d	-0.7621792
163	0x3c954185	0.018219719
164	0xbdb56791	-0.08857644
165	0xbd57c43d	-0.05267738
166	0xbf69111f	-0.9104175
167	0xbdfd9597	-0.123820476
168	0x3d6a594d	0.05721407
169	0xbdd0c1eb	-0.10193237
170	0xbe330cd8	-0.17485368
171	0x3cbc132c	0.02295836
172	0xbdf58768	-0.11988717
173	0xbd4a2349	-0.049350057
174	0xbd96bec1	-0.07360602
175	0xbe22ff7c	-0.15917772
176	0x3e54d805	0.2078553
177	0x3b3b0e1b	0.0028542343
178	0x3f4956f6	0.78648317
179	0xbedce8b6	-0.43146294
180	0xbc8a0d73	-0.016852116
181	0x3e98d8b8	0.29852843
182	0x3d9fd2cd	0.07803879
183	0x3e6c7b07	0.23093806
184	0xbdad67fe	-0.084671006
185	0x3e4206ed	0.18947954
186	0x3ef27c4b	0.47360453
187	0xbda6f639	-0.08152432
188	0x3d49e9a6	0.04929509
189	0xbd93e0db	-0.07220622
190	0x3ba8ffa0	0.005157426
191	0xbe87b65d	-0.2650632
192	0x3db2c23a	0.08728452
193	0xb9aee300	-0.00033356994
194	0x3d7baf57	0.061446514
195	0x3c439e28	0.011939563
196	0xbf7220bb	-0.9458119
197	0x3d713aec	0.058894083
198	0xbd6af77f	-0.057364937
199	0x3c7676bf	0.01504296
200	0xbe64d956	-0.22348532
201	0x3c8cb196	0.017174523
202	0xbe414bf8	-0.18876636
203	0x3d398542	0.0452931
204	0xbd442d03	-0.04789449
205	0xbed62b46	-0.4182989
206	0x3ebfeaea	0.37483913
207	0x3e9b1826	0.3029186
208	0xbc2762e0	-0.010216445
209	0xbe4787c8	-0.1948539
210	0x3f51a551	0.8189288
211	0xbc8f1f88	-0.01747109
212	0x3d9d5dc3	0.07683899
213	0xbcf9726a	-0.030450065
214	0xbf32e82f	-0.69885534
215	0xbe9e7b6b	-0.30953535
216	0x3d929c69	0.07158739
217	0xbec0af01	-0.37633517
218	0x3d4b3e0a	0.049619712
219	0xbf15b4d9	-0.58479077
220	0xbe025e1a	-0.1273121
221	0xbedae71d	-0.4275445
222	0x3e413cec	0.18870896
223	0xbc99f4c4	-0.018793471
224	0xbd69d3a3	-0.057086598
225	0x3df69699	0.12040443
226	0x3ed54de8	0.41661
227	0xbf58512e	-0.8449887
228	0x3e70d8ec	0.23520249
229	0xbe9d0323	-0.30666456
230	0x3caa4023	0.020782536
231	0xbf5443c3	-0.82915896
232	0xbf94782e	-1.1599176
233	0xbd7d8d8d	-0.06190257
234	0xbeb21f43	-0.34789476
235	0xbef2fc85	-0.47458282
236	0xbf3893ea	-0.721007
237	0xbcd27a70	-0.025693148
238	0xbae7c280	-0.0017681867
239	0x3d680f6a	0.056655325
240	0xbe80c138	-0.25147414
241	0xbdab8954	-0.08375803
242	0xbdf1539d	-0.11783526
243	0xbdefa55d	-0.117014624
244	0x3e9dd004	0.30822766
245	0x3e476f6b	0.19476096
246	0xbe2b9864	-0.16757351
247	0xbd935845	-0.071945705
248	0x3cb5c06d	0.022186482
249	0xbd65fa1e	-0.056146733
250	0xbd6680de	-0.05627524
251	0xbd068d78	-0.03284976
252	0xbd866f15	-0.06564156
253	0x3da4043b	0.080086194
254	0x3b9953f0	0.0046791956
255	0x3e06700e	0.13128683

adv.0.bias f4 [64]
0	0xbfd9e192	-1.7021964
1	0xbfd934b6	-1.6969211
2	0xbf238143	-0.6386911
3	0xbf590c94	-0.8478482
4	0xbfb8b96d	-1.4431587
5	0xbf62b574	-0.88558125
6	0xbfcb6979	-1.5891563
7	0xbffd25d5	-1.977717
8	0xbf2d0b0e	-0.67594993
9	0xbf3d1230	-0.73855877
10	0xbe9840a3	-0.29736814
11	0xbfa7933f	-1.3091811
12	0xbeea81c5	-0.4580213
13	0xbea16b9d	-0.31527415
14	0xbf6fcf99	-0.93676144
15	0xbfc2cb4f	-1.5218295
16	0xbec9cfff	-0.394165
17	0xc00575a1	-2.0853045
18	0xbf5f88a0	-0.8731785
19	0xbfb6f829	-1.4294482
20	0x3d092dec	0.03349106
21	0xbe523e64	-0.20531613
22	0xbf1b2798	-0.6060729
23	0xc005add1	-2.088734
24	0xbedcee31	-0.43150476
25	0xbf281e88	-0.65671587
26	0xbed3b9cd	-0.41352692
27	0xbf35604a	-0.7085005
28	0xbf02855b	-0.50984734
29	0xbf2c6823	-0.673464
30	0xc041e5f4	-3.0296602
31	0xbf182c72	-0.5944282
32	0x3ea11818	0.31463695
33	0xbe8933ff	-0.26797482
34	0xbe9e1293	-0.30873546
35	0xc003b6bf	-2.058029
36	0xbfd11ea1	-1.6337472
37	0xbf0c7f42	-0.5488168
38	0x3d3659a5	0.044519085
39	0xbeb7b81a	-0.35882646
40	0xbf3b5f91	-0.731927
41	0xbe0876eb	-0.13326614
42	0xbfac13ee	-1.3443582
43	0xbe3ad491	-0.1824515
44	0xbf0f167b	-0.5589368
45	0x3e15d104	0.14630514
46	0xbfbb00c5	-1.460961
47	0xbfb53944	-1.4158101
48	0xbfde1fe0	-1.7353477
49	0x3d300753	0.042975735
50	0x3e63a9d3	0.22232752
51	0xbea02322	-0.31276804
52	0xbf580df5	-0.84396297
53	0xbfd0a0e3	-1.6299099
54	0xbf058f01	-0.5217133
55	0xbeabf14b	-0.3358253
56	0xbf39290a	-0.72328246
57	0xc0046ae6	-2.0690246
58	0xbf09c747	-0.538197
59	0xbec3d772	-0.3825031
60	0x3e2c543b	0.16829006
61	0xbe458d32	-0.19292143
62	0xbc28cfbb	-0.010303433
63	0xbf02a935	-0.5103944

adv.2.weight f4 [2, 64]
0	0xc0057728	-2.0853977
1	0x3f824683	1.0177768
2	0xc0121e96	-2.2831168
3	0xbebf1c43	-0.3732625
4	0xbe7201d6	-0.23633513
5	0x3bdeebc7	0.006803009
6	0x3f765d24	0.9623587
7	0xc0049c98	-2.0720577
8	0x3e9ca8ee	0.30597633
9	0x3f886063	1.0654415
10	0xbd4815b9	-0.04884884
11	0xbfb3218f	-1.3994616
12	0x3f5fc794	0.8741391
13	0x3ecf13fe	0.4044494
14	0xbf49a352	-0.7876483
15	0xbf3c99c7	-0.73672146
16	0xbe7c9f5b	-0.24670164
17	0xbf6005dc	-0.8750894
18	0xbf0aa5e7	-0.54159397
19	0x3f421aa2	0.7582189
20	0xbf6ad63a	-0.91733134
21	0x3f30090e	0.68763816
22	0x3f570043	0.83984774
23	0xbf4fa125	-0.8110526
24	0xbf2786c3	-0.65440005
25	0xbe90f030	-0.2830825
26	0xbe30dddd	-0.17272134
27	0x3eb9a3f0	0.36257887
28	0x3f39e76f	0.72618765
29	0xbf7a273f	-0.97716135
30	0xbf6ce634	-0.9253876
31	0x3d3966ec	0.04526417
32	0xbf9a7fb2	-1.207022
33	0x3d044eb4	0.03230162
34	0xbede2734	-0.43389285
35	0x3fa57ada	1.2928116
36	0xbff86b90	-1.9407825
37	0x3ff8a460	1.9425163
38	0x3f34634c	0.70464015
39	0x3f3122b1	0.6919356
40	0x3ed5b5e4	0.41740334
41	0xbdfe084d	-0.12403927
42	0xbfabd026	-1.3422897
43	0x3d592dbe	0.05302214
44	0xbf1161dd	-0.5678995
45	0x3f085499	0.53254086
46	0xbf28a1a7	-0.6587166
47	0x40020406	2.0314956
48	0xc04f11d8	-3.235464
49	0x3fbaa56e	1.4581735
50	0x3f5275e8	0.8221116
51	0x3d15a627	0.03653541
52	0xbecc5e18	-0.39915538
53	0x3f26dff7	0.65185493
54	0x3eaa9c86	0.33322543
55	0xbdda0f60	-0.10647464
56	0x3f1182e9	0.5684038
57	0x3fb331b5	1.3999544
58	0xbf439e83	-0.76413745
59	0x3e281562	0.16414407
60	0xbf943660	-1.1579094
61	0xbe351464	-0.1768356
62	0xbe9764c5	-0.2956907
63	0xbf6e8f4a	-0.9318739
64	0x400145dc	2.0198889
65	0xbf803beb	-1.0018286
66	0x40163174	2.3467684
67	0x3e9935d7	0.2992389
68	0x3e9b5c5c	0.30343902
69	0x3d2d4ae2	0.042307742
70	0xbf762088	-0.9614339
71	0x400989ea	2.1490426
72	0xbdf4e89d	-0.1195843
73	0xbf8491cd	-1.0356995
74	0xbdc1d2ee	-0.0946406
75	0x3fa478a9	1.2849323
76	0xbf554b98	-0.8331847
77	0xbea00316	-0.31252354
78	0x3f299626	0.66244733
79	0x3f1fdd73	0.6244728
80	0x3e2dc479	0.1696948
81	0x3f71d8a4	0.9447119
82	0x3ed1f988	0.4101069
83	0xbf54fb5f	-0.8319606
84	0x3f3e3040	0.74292374
85	0xbf474c2c	-0.77850604
86	0xbf5e7021	-0.86889845
87	0x3f481a9d	0.7816561
88	0x3f32fe0d	0.699189
89	0x3e7af66f	0.2450807
90	0xbd26468e	-0.04059463
91	0xbedfe594	-0.43729842
92	0xbf2ace99	-0.66721493
93	0x3f770d4c	0.96504664
94	0x3f47fe11	0.7812205
95	0xbe5052af	-0.20344041
96	0x3f9753b0	1.1822414
97	0x3d2b95a6	0.041890763
98	0x3eb2454e	0.348185
99	0xbf9bd97a	-1.2175744
100	0x3feb83ca	1.8399594
101	0xc0033d9b	-2.050635
102	0xbf4e9fa6	-0.80712354
103	0xbf20cf9b	-0.6281678
104	0xbecc6e5c	-0.39927948
105	0x3df9f0c7	0.12204128
106	0x3fa879fe	1.3162229
107	0x3d08ed3b	0.033429366
108	0x3ee15573	0.44010505
109	0xbf003057	-0.5007376
110	0x3f3cd24f	0.73758405
111	0xc0018691	-2.0238383
112	0x4050f992	3.2652326
113	0xbfaab906	-1.3337715
114	0xbf5d0bda	-0.8634621
115	0xbc13d0c0	-0.009021938
116	0x3ed817ba	0.42205602
117	0xbf47dd07	-0.78071636
118	0xbebe9c38	-0.3722856
119	0x3dc2b6cb	0.09507521
120	0xbf22a631	-0.6353484
121	0xbfb5cc31	-1.4202939
122	0x3f3e84c7	0.7442135
123	0xbe05f4a0	-0.13081598
124	0x3f8648bb	1.0490946
125	0x3e7a25e5	0.24428518
126	0x3e981b2b	0.29708228
127	0x3f8084e0	1.004055

adv.2.bias f4 [2]
0	0x3dec1349	0.11527116
1	0xbe873090	-0.26404238
