dqn_sumo_advanced_500.pt (torch, 146619 bytes, 11 tensors)

feature.0.weight f4 [128, 16]
-0.58598584 -0.6916896 -0.44589448 -0.5875497 0.43035713 1.6283985 2.0972586 1.7096908
-1.0027425 -1.0661944 -1.243679 -1.3979483 0.73305494 0.32218063 2.086315 -1.0788574
0.3827474 0.32962182 -0.028374854 0.17541763 2.4281735 -0.25881234 0.14655028 0.002334871
-2.1362693 -1.7759967 0.15377028 -0.2172044 0.13759853 0.118502565 0.7815115 -1.9026964
-1.3021497 1.0572999 0.9922592 0.8318266 -0.22038025 -0.08320799 0.0055369036 0.14721288
1.1819087 1.1912793 1.0443584 0.96537244 0.71205443 -0.7148363 -1.3948141 -0.23448168
1.6403232 -0.5234517 -0.41551572 -0.19071141 1.322191 0.07865984 0.49342018 0.4768225
-0.5894641 -0.5075409 1.4987004 1.2836487 0.62556934 -0.73752874 0.8042595 -0.5676915
-0.0052717887 -0.14144117 -0.12775236 0.15712559 1.6917495 0.077903844 -0.060730036 0.2656094
-0.13477375 -0.31417188 -0.04213437 -0.04062208 0.68747354 -6.2104654 0.63081217 0.083364904
-1.1805205 0.30997983 0.05239893 0.17934413 -0.16955478 0.73344684 0.8545693 0.9873278
0.11859651 0.21067747 0.40690723 0.5200646 0.5796028 -0.10466572 1.8251758 -0.68907005
-1.086571 -0.35400483 -0.22472577 -0.1364873 -0.41946605 -0.01750261 0.15133505 0.16158493
0.21147358 0.22019872 0.31446695 0.11099297 0.11208361 -0.42620575 0.048450883 -0.28937697
0.6420691 0.67301404 0.75702643 0.74534345 -0.11094114 -1.5632522 -1.5994284 -1.5838342
0.5043535 0.8029144 0.5065777 0.32409963 -0.25660804 -0.12582086 0.52972203 0.03498113
0.66816527 0.56708455 0.6156076 0.45071864 -0.8499338 -3.7238746 -4.042029 -3.976244
0.75101584 0.7773184 -1.3658768 -1.3018037 0.18661603 0.4227394 0.0040079965 -0.8030912
-2.764797 1.3949757 1.2248795 1.3204236 -0.65255636 0.4895941 0.5075734 0.5234314
-0.7537759 -0.9363505 -3.7684584 -4.059144 0.52529293 -0.01779346 -1.3303542 0.057437982
1.7683103 -0.9564154 -0.88537633 -1.2171507 -0.88352644 -0.73596275 -0.6795392 -0.5840274
0.68097544 0.6110301 -0.06671794 -0.14713793 0.4841075 -0.8421085 -1.8573855 0.02495494
0.7623876 -0.057525117 -0.1574294 -0.06605102 1.308702 -0.23147321 -0.33139512 -0.5069523
-1.7283379 -1.8955599 -0.0405294 -0.03681067 0.39881858 -2.444235 0.30189267 -0.27916965
-0.5743371 0.19619514 0.07058279 0.25915328 -1.4796182 0.032476846 -0.17496243 -0.15994424
0.11607872 0.0888558 0.59158593 0.38995498 0.16999573 -0.68370813 -0.75863254 -0.63923854
-0.9337098 0.8486136 0.6309483 0.37738678 -0.80093926 0.7631405 0.9912224 0.80797344
-0.86468524 -0.6778926 -0.62954235 -0.41194472 0.821332 -0.09147364 -0.548192 -0.7316345
0.3424893 0.21114857 -0.015585884 -0.005641982 -0.4924399 0.23316409 -0.06552221 0.08705865
0.7735968 0.68242365 -0.31407037 -0.17743161 0.062432315 -0.84210896 -0.11916301 -0.6412058
-1.7639002 -0.4502203 -0.3345906 -0.29630712 -3.5510774 0.80918336 1.0034624 0.83002293
0.41064584 0.58834213 -2.3885736 -2.23117 0.68907434 0.42645407 -0.2523973 -0.029268486
00000000: 2b03 16bf 9212 31bf 484c e4be a869 16bf
00000010: c557 dc3e 5d6f d03f 7c39 0640 26d7 da3f
00000020: de59 80bf 0f79 88bf e030 9fbf f8ef b2bf
00000030: 7da9 3b3f dcf4 a43e 2f86 0540 0018 8abf
00000040: 78f7 c33e 31c4 a83e 6272 e8bc aea0 333e
00000050: 3267 1b40 0d83 84be 4711 163e a304 193b
00000060: a3b8 08c0 dc53 e3bf f575 1d3e d56a 5ebe
00000070: a1e6 0c3e 79b1 f23d 2311 483f 8e8b f3bf
00000080: d7ac a6bf 9a55 873f b304 7e3f 97f2 543f
00000090: 5cab 61be f368 aabd ea6e b53b f9be 163e
000000a0: c948 973f d77b 983f 89ad 853f a622 773f
000000b0: 3349 363f 83ff 36bf 4589 b2bf f71b 70be
000000c0: 1cf6 d13f ee00 06bf 7abe d4be da49 43be
000000d0: 8e3d a93f 6918 a13d 92a1 fc3e 1422 f43e
000000e0: 1fe7 16bf 33ee 01bf 6ad5 bf3f 9a4e a43f
000000f0: 5025 203f afce 3cbf f3e3 4d3f 3b54 11bf
00000100: f8be acbb f4d5 10be 84d1 02be 88e5 203e
00000110: 3f8b d83f 0d8c 9f3d 0fc0 78bd f5fd 873e
00000120: 2102 0abe 23db a0be 1795 2cbd 5763 26bd
00000130: 44fe 2f3f 22bc c6c0 e87c 213f 38bb aa3d
00000140: 4c1b 97bf adb5 9e3e 43a0 563d fda5 373e
00000150: c59f 2dbe 2cc3 3b3f 0ec5 5a3f 84c1 7c3f
00000160: bae2 f23d d6bb 573e 2556 d03e f422 053f
00000170: d960 143f fb5a d6bd 5c9f e93f e566 30bf
00000180: c214 8bbf 1f40 b5be 831e 66be 54c3 0bbe
00000190: 41c4 d6be a261 8fbc 93f7 1a3e 8576 253e
000001a0: 888c 583e c67b 613e d001 a13e 4850 e33d
000001b0: 178c e53d a437 dabe 6f74 463d 3829 94be
000001c0: a45e 243f a64a 2c3f 7ccc 413f d4ce 3e3f
000001d0: 1c35 e3bd a618 c8bf 12ba ccbf 14bb cabf
000001e0: 501d 013f cc8b 4d3f 13af 013f 63f0 a53e
000001f0: 2162 83be 2fd7 00be dd9b 073f 6048 0f3d
00000200: e10c 2b3f 742c 113f 7698 1d3f 98c4 e63e
00000210: 4395 59bf f653 6ec0 4d58 81c0 c87a 7ec0
00000220: 9342 403f 57fe 463f 0dd5 aebf 81a1 a6bf
00000230: 4618 3f3e 4c71 d83e 8355 833b 6397 4dbf
00000240: 6ff2 30c0 908e b23f dac8 9c3f a403 a93f
00000250: ef0d 27bf 14ac fa3e 55f0 013f 9aff 053f
00000260: 75f7 40bf abb4 6fbf 6c2e 71c0 82e4 81c0
00000270: 9979 063f 97c3 91bc 0c49 aabf 1744 6b3d
00000280: fe57 e23f a4d7 74bf 06a8 62bf 98cb 9bbf
00000290: ca2e 62bf 0e68 3cbf 48f6 2dbf d282 15bf
000002a0: 6854 2e3f 786c 1c3f 6aa3 88bd 53ab 16be
000002b0: f0dc f73e 6c94 57bf cfbe edbf 4d6e cc3c
000002c0: d52b 433f 759f 6bbd 2c35 21be c245 87bd
000002d0: 8c83 a73f 5007 6dbe 9fac a9be a0c7 01bf
000002e0: 2d3a ddbf b5a1 f2bf 2802 26bd c9c6 16bd
000002f0: f331 cc3e 596e 1cc0 ad91 9a3e 53ef 8ebe
00000300: c207 13bf 61e7 483e b68d 903d bdaf 843e
00000310: 2164 bdbf 7106 053d 5a29 33be 6cc8 23be
00000320: aeba ed3d 08fa b53d 2d72 173f 2ea8 c73e
00000330: 5c13 2e3e 7f07 2fbf be35 42bf 23a5 23bf
00000340: 9b07 6fbf be3e 593f d485 213f d738 c13e
00000350: 5b0a 4dbf 2d5d 433f c0c0 7d3f 59d7 4e3f
00000360: 035c 5dbf 5f8a 2dbf b029 21bf 6bea d2be
00000370: d042 523f 8856 bbbd 5056 0cbf 664c 3bbf
00000380: c25a af3e 5537 583e f05b 7fbc 60e0 b8bb
00000390: 1521 fcbe 91c2 6e3e 8230 86bd ce4b b23d
000003a0: 710a 463f 51b3 2e3f d5cd a0be a2b0 35be
000003b0: 07b9 7f3d 7494 57bf bc0b f4bd 1026 24bf
000003c0: 7bc7 e1bf 4683 e6be 764f abbe 91b5 97be
000003d0: da44 63c0 a426 4f3f 7571 803f 627c 543f
000003e0: 2c40 d23e 979d 163f 64de 18c0 7dcb 0ec0
000003f0: 2d67 303f 3058 da3e 383a 81be 77c4 efbc

feature.0.bias f4 [128]
-1.4565066 0.33363342 0.36595842 0.87289894 1.9496845 0.80717874 -0.536128 2.834799
-0.2992646 -3.6411774 1.0139865 -0.021901121 0.7679332 -0.02632066 0.26777676 -2.323656
-1.2584918 2.170745 1.8538343 -0.45628256 0.27194226 1.4308822 2.11921 -0.08994561
-2.037543 -0.6790964 -0.05967486 -0.306199 -0.030815762 -0.46513683 0.50058144 -1.3163884
0.00957047 -2.2146337 -1.0575464 -0.054799404 -1.1010498 0.9757245 0.36582574 0.10303995
-0.0017790375 -0.16173105 -0.31491238 1.1714377 -0.15457831 -1.7123463 -3.9080813 1.0059602
1.5636444 -2.4965134 0.2350454 -0.4490264 -0.22171034 -0.13576819 -0.0064406465 0.071614444
-0.0663354 -0.5998931 -0.1875612 0.31339845 -0.9413985 -0.010943979 -0.1439897 -0.2642881
-1.1707221 -1.6265675 -0.95073223 -0.006760613 0.8202048 0.9741469 -0.30903617 2.022885
-0.43910345 -0.8956164 -2.7574503 -1.3101133 1.0785761 -1.4721301 -1.7300979 -0.26794565
-0.022538524 -1.2056779 -0.12708202 -0.17874064 2.5706635 0.54593337 -0.6393776 -1.1386245
-0.028384428 -2.069857 -0.20343572 -0.8677035 -0.4547932 -2.0589292 -0.32994416 1.1620092
-0.15882428 -1.2645859 -0.09265847 -0.99893665 1.0143113 -0.014229979 -2.7332966 -0.9300969
0.23400648 -0.26686072 0.6319568 0.72352064 0.22968657 -0.0822996 -0.076591365 -0.5415243
0.75668406 1.9699191 1.9736128 2.4253812 -1.773181 1.418271 -0.03647393 2.434747
-1.582246 0.061811313 0.08327081 -0.0032171465 2.0863547 0.22317487 1.2830006 -0.6172792
00000000: cf6e babf 00d2 aa3e e75e bb3e 4e76 5f3f
00000010: 438f f93f 44a3 4e3f af3f 09bf 596d 3540
00000020: 3639 99be 0d09 69c0 4fca 813f fb69 b3bc
00000030: 4597 443f 6d9e d7bc 091a 893e c8b6 14c0
00000040: 4216 a1bf 7ced 0a40 714a ed3f de9d e9be
00000050: 043c 8b3e 2627 b73f 23a1 0740 6735 b8bd
00000060: 1b67 02c0 43d9 2dbf a06d 74bd 1ec6 9cbe
00000070: 5671 fcbc 6a26 eebe 1b26 003f 6a7f a8bf
00000080: 76cd 1c3c 8fbc 0dc0 ae5d 87bf 5775 60bd
00000090: 33ef 8cbf 15c9 793f 834d bb3e 9c06 d33d
000000a0: 982e e9ba d39c 25be 323c a1be acf1 953f
000000b0: c749 1ebe 2a2e dbbf 011e 7ac0 4ec3 803f
000000c0: 8025 c83f e0c6 1fc0 beaf 703e cae6 e5be
000000d0: 0908 63be d106 0bbe 0f0c d3bb 98aa 923d
000000e0: dbda 87bd 9892 19bf 0b10 40be c375 a03e
000000f0: 7eff 70bf 604e 33bc 0972 13be c550 87be
00000100: 39da 95bf 5d33 d0bf 3063 73bf 2288 ddbb
00000110: f1f8 513f b161 793f fd39 9ebe f376 0140
00000120: 2bd2 e0be 1e47 65bf 117a 30c0 cbb1 a7bf
00000130: c80e 8a3f c26e bcbf d973 ddbf 2c30 89be
00000140: b6a2 b8bc a753 9abf ca21 02be c907 37be
00000150: c085 2440 4ac2 0b3f 40ae 23bf 73be 91bf
00000160: 7686 e8bc 8978 04c0 7451 50be d121 5ebf
00000170: a8da e8be 7fc5 03c0 71ee a8be b8bc 943f
00000180: d5a2 22be f3dd a1bf b9c3 bdbd 50ba 7fbf
00000190: f4d4 813f dc24 69bc 55ee 2ec0 d51a 6ebf
000001a0: 659f 6f3e f8a1 88be ecc7 213f a638 393f
000001b0: f532 6b3e b18c a8bd efdb 9cbd 56a1 0abf
000001c0: 0cb6 413f 4f26 fc3f 589f fc3f 7239 1b40
000001d0: 98f7 e2bf e789 b53f b065 15bd e5d2 1b40
000001e0: 0987 cabf dc2d 7d3d e389 aa3d c3d6 52bb
000001f0: d686 0540 f487 643e 5d39 a43f 0206 1ebf

feature.2.weight f4 [128, 128]
-0.09338464 -0.73840463 -0.08607707 0.052235182 -0.32052124 0.107265584 -0.05084001 -1.0493104
0.014400472 -0.25502914 -0.13442825 -0.26682165 0.13229808 -0.06505469 0.008498103 0.016453011
0.07871775 -0.071179554 0.65806407 -0.22346275 0.86733544 -0.23065974 -1.2925593 0.0036677523
-0.3495564 -0.02579384 0.013205148 0.02495326 0.031674787 -0.02055509 -0.5847603 0.2847209
0.11010006 -0.5261224 -0.21904118 -0.04450353 -0.08456904 -0.3191807 0.065991916 0.058600582
-0.12389717 -0.17735597 -0.2698775 -0.095417775 -0.041930288 -0.067002445 0.048158985 -0.16945659
-0.24292484 -0.0059328326 0.09976121 -0.3917703 0.05705829 0.037138265 -0.13084291 -0.076835155
-0.20765446 -0.6164577 0.13874982 -0.20440215 0.13191226 -0.048557837 -0.2046772 0.13604996
-0.17920774 -0.33252493 -0.113649204 0.011236724 -0.27781492 -0.23794782 -0.25095657 -0.8279694
0.1001651 -0.20572063 0.10610948 -0.51452583 -0.6860113 -0.28170854 -0.088201635 0.4184965
-0.30939516 -0.17654154 0.10104604 0.036083084 0.47272184 -0.3991026 -1.0392114 -0.6994636
-0.0024504175 0.3018158 0.14762251 -0.14333534 -0.87752515 -0.0788111 -0.17974721 0.5396865
-0.14168517 0.22518952 -0.20387924 -0.31008717 -0.14833966 0.16383246 0.019591697 -0.15283014
-0.5899729 -0.13243614 -0.56933 0.002712305 0.2477448 0.072204575 0.049159914 -0.76449263
-0.0011888699 -0.25765365 -1.0435365 0.018732084 -0.6084489 -0.23173705 -0.087910146 0.011324073
-0.26825395 -1.893974 -0.401663 0.1993233 0.71729153 -0.06400413 0.53673935 -0.04298082
-0.23944075 0.034838744 0.17503424 0.4388701 0.038224164 -0.1731201 -0.12248406 0.22449747
-0.64785796 -0.0630819 -0.38440403 0.21131682 -0.12385157 0.25039265 0.06395169 0.06533202
-0.0011485368 -0.17161255 -0.24098466 0.548112 -0.14606169 -0.2268141 -0.24615407 -0.21202038
-0.29792362 -0.13348538 0.043886505 -0.20954682 -0.19789068 -0.5479665 -0.08457952 -0.07234506
-0.3068675 -0.39906916 -0.17739809 0.013824577 0.30069855 0.101384886 -0.3910297 -0.19025898
-0.15498725 -0.72075903 -0.124560796 -0.15902388 0.07464428 -1.3743101 0.16316472 -0.27761245
-0.023287477 0.06987443 0.1359877 -0.3518978 -0.0374411 0.02066953 -0.050550003 -0.074751414
-0.037163723 0.04899251 0.17905854 -0.07245996 -0.09432945 -0.008615151 -0.06460814 0.0067324447
0.107845254 0.405717 -0.055259746 -0.077264726 0.4722397 -0.003891684 -0.33149767 0.05284295
-0.5549699 -0.016659247 -0.048963804 0.7413737 0.02531592 -0.033994317 0.09263665 -0.08645242
0.21405666 -0.9893445 -0.5470337 -0.01714273 0.37477285 -0.78011286 -0.354897 -0.103412144
-0.038772754 -0.03264718 0.08872073 -0.03243109 0.77383995 -0.11978256 0.042985052 -0.18534529
-0.42902267 -0.5091787 -0.10486125 -0.5284239 -0.1733221 -0.82037497 0.07160353 0.14134209
-0.05162366 -0.2326876 -0.06719979 -0.41483453 0.12571327 0.076829396 -0.20128347 -0.038136836
-0.27942112 -0.14890265 -0.16898005 -0.18503088 0.13228394 0.0908104 -0.0050137267 -0.5998201
-0.20862222 0.15089326 -0.06795521 -0.7181296 -0.21513031 -0.8916857 -0.21059099 -0.513214
00000000: 7240 bfbd 1608 3dbf 2d49 b0bd 8ff4 553d
00000010: 5c1b a4be 0fae db3d 9d3d 50bd ce4f 86bf
00000020: f5ef 6b3c 2e93 82be 8fa7 09be d99c 88be
00000030: 2679 073e 653b 85bd a13b 0b3c 77c8 863c
00000040: c636 a13d 96c6 91bd e376 283f 6bd3 64be
00000050: b209 5e3f 1132 6cbe 9572 a5bf ac5e 703b
00000060: 0ef9 b2be 9a4d d3bc 685a 583c c76a cc3c
00000070: 6cbd 013d 2663 a8bc dab2 15bf f0c6 913e
00000080: 247c e13d f5af 06bf 554c 60be 5549 36bd
00000090: 8832 adbd a76b a3be c526 873d 2a07 703d
000000a0: cdbd fdbd ce9c 35be 622d 8abe 656a c3bd
000000b0: 18bf 2bbd 9438 89bd 5b42 453d 0786 2dbe
000000c0: 4ac1 78be 3568 c2bb 9b4f cc3d 1e96 c8be
000000d0: f4b5 693d 4b1e 183d affb 05be c05b 9dbd
000000e0: 5fa3 54be 2cd0 1dbf 6f14 0e3e cc4e 51be
000000f0: 0214 073e 95e4 46bd e696 51be ae50 0b3e
00000100: 3c82 37be b540 aabe eac0 e8bd 3d1a 383c
00000110: c23d 8ebe 98a8 73be 617d 80be cdf5 53bf
00000120: 5c23 cd3d 6ea8 52be ed4f d93d f7b7 03bf
00000130: 709e 2fbf 1a3c 90be 0fa3 b4bd 2c45 d63e
00000140: 0b69 9ebe 4ec7 34be 3af1 ce3d dbcb 133d
00000150: 9908 f23e 2d57 ccbe e104 85bf 0c10 33bf
00000160: 2f97 20bb 9a87 9a3e 5b2a 173e 80c6 12be
00000170: 7da5 60bf b767 a1bd a70f 38be e528 0a3f
00000180: eb15 11be 1598 663e b8c5 50be bfc3 9ebe
00000190: 5ae6 17be b2c3 273e c47e a03c 817f 1cbe
000001a0: 7708 17bf 579d 07be 9cbf 11bf edc0 313b
000001b0: d0b0 7d3e fedf 933d e85b 493d cab5 43bf
000001c0: dbd3 9bba 2eeb 83be 9b92 85bf 0774 993c
000001d0: 4fc3 1bbf 7a4c 6dbe 3c0a b4bd 9b88 393c
000001e0: 9558 89be bd6d f2bf c6a6 cdbe 681b 4c3e
000001f0: 6ba0 373f 9914 83bd c067 093f a80c 30bd
00000200: f52f 75be 12b3 0e3d 2d3c 333e 95b3 e03e
00000210: f190 1c3d 6546 31be ecd8 fabd aae2 653e
00000220: 05da 25bf 1531 81bd 9bd0 c4be 7063 583e
00000230: e4a5 fdbd 7733 803e 1bf9 823d cbcc 853d
00000240: 808a 96ba 33bb 2fbe afc4 76be 1151 0c3f
00000250: 3291 15be f541 68be d00f 7cbe df1b 59be
00000260: 7289 98be 64b0 08be 56c2 333d 7193 56be
00000270: dba3 4abe 8847 0cbf 0738 adbd a629 94bd
00000280: bd1d 9dbe cb52 ccbe d8a7 35be 7b80 623c
00000290: 29f5 993e e1a2 cf3d 0b35 c8be 40d3 42be
000002a0: fab4 1ebe aa83 38bf bb19 ffbd 28d7 22be
000002b0: 1adf 983d 65e9 afbf a714 273e 3823 8ebe
000002c0: 61c5 bebc 531a 8f3d 5c40 0b3e f32b b4be
000002d0: d75b 19bd 2553 a93c 850d 4fbd 4517 99bd
000002e0: fd38 18bd 5fac 483d 1f5b 373e e365 94bd
000002f0: cc2f c1bd 9026 0dbc 4651 84bd d79b dc3b
00000300: f9dd dc3d 23ba cf3e 0b58 62bd f83c 9ebd
00000310: 67c9 f13e a00b 7fbb 10ba a9be d971 583d
00000320: 8212 0ebf f978 88bc 458e 48bd abca 3d3f
00000330: 5563 cf3c a03d 0bbd 49b8 bd3d f70d b1bd
00000340: ab31 5b3e ae45 7dbf 670a 0cbf e96e 8cbc
00000350: 3ae2 bf3e 7ab5 47bf 0fb5 b5be bfc9 d3bd
00000360: 2ed0 1ebd 0db9 05bd 37b3 b53d 76d6 04bd
00000370: 601a 463f 8f50 f5bd 1811 303d 28cb 3dbe
00000380: dca8 dbbe 8959 02bf 7fc1 d6bd ca46 07bf
00000390: 597b 31be 1804 52bf dfa4 923d fbbb 103e
000003a0: 5573 53bd a945 6ebe 0ba0 89bd 3165 d4be
000003b0: fbba 003e bb58 9d3d 411d 4ebe 5f35 1cbd
000003c0: 4910 8fbe f079 18be 1b09 2dbe bc78 3dbe
000003d0: 7175 073e cefa b93d 304a a4bb cf8d 19bf
000003e0: 10a1 55be c383 1a3e 1a2c 8bbd 57d7 37bf
000003f0: 1f4b 5cbe 8445 64bf 2aa5 57be fe61 03bf

feature.2.bias f4 [128]
-0.15328655 -0.12808692 0.053861227 1.8616769 -0.003992686 -0.042933103 0.24017271 0.5571956
0.2735971 -0.23271158 0.4544587 0.16186476 0.15413703 -0.32067654 -0.17728199 0.089052506
-0.034258444 -0.05440111 -0.043905653 0.54951936 0.15052672 -0.1290597 -1.8239907 -0.13710274
0.07725035 -0.094491854 -0.14009817 -0.33120537 -0.001011468 0.15839273 -0.13442025 0.101514466
-0.03352302 0.6286819 0.19606762 -0.10439488 0.46000782 -0.24382173 -0.42146158 0.22242922
-0.12664878 0.074968934 0.17399818 -0.10817057 0.29517344 -0.15102321 -0.31005353 0.07238359
-2.0032158 -0.036547188 -1.2138274 -0.7821722 -0.069117606 0.30920362 -0.11661231 0.5474089
0.05027716 -0.81255513 0.113564916 -0.13542789 -0.051884793 -0.048368182 -0.04240409 1.0976324
0.2533518 -0.11726994 -0.19248684 -0.07414852 0.60659975 -0.007174214 -0.13042283 -0.15613331
0.81128895 -0.15064429 0.3464585 -0.05239074 -0.13751566 0.098881245 0.32788658 -0.12941527
0.3422577 0.1772146 -0.4355433 -0.07667254 -0.051071055 -0.10591098 0.567532 0.936734
-0.14709592 -0.6000545 -0.039923016 0.38485155 -0.022516677 0.81821734 -0.26469168 -0.061039966
-0.08483426 -0.09849619 0.22808044 0.6281251 -0.05082536 -1.0824015 0.9097818 0.66305614
0.93448645 -0.11676435 0.52232337 -0.16674547 0.18964536 -0.02720175 -0.025032276 -0.1150997
0.45396128 -0.1433356 -0.4843289 0.024265338 0.41838038 0.3277564 0.5822363 -0.0043560723
-0.114184104 0.3460877 -0.08259655 -0.10690039 0.19315511 -0.14402002 -0.0079241535 -2.1372876
00000000: 26f7 1cbe 3829 03be 979d 5c3d 6e4b ee3f
00000010: 14d5 82bb 9fda 2fbd d6ef 753e 5fa4 0e3f
00000020: eb14 8c3e f24b 6ebe d0ae e83e e0bf 253e
00000030: 19d6 1d3e b72f a4be 6989 35be 2961 b63d
00000040: 9552 0cbd b3d3 5ebd 6ad6 33bd 4dad 0c3f
00000050: ad23 1a3e 3a28 04be 8778 e9bf a964 0cbe
00000060: 6e35 9e3d f284 c1bd e575 0fbe c093 a9be
00000070: 3c93 84ba b431 223e 76a5 09be d1e6 cf3d
00000080: 6f4f 09bd 4cf1 203f f3c5 483e fccc d5bd
00000090: 2586 eb3e 67ac 79be d0c9 d7be 7cc4 633e
000000a0: 38b0 01be 5089 993d 942c 323e 8888 ddbd
000000b0: f920 973e d4a5 1abe 56bf 9ebe d93d 943d
000000c0: b034 00c0 81b2 15bd b25e 9bbf 703c 48bf
000000d0: 888d 8dbd f04f 9e3e 6fd2 eebd fd22 0c3f
000000e0: 6cef 4d3d 9d03 50bf b994 e83d 9cad 0abe
000000f0: 2685 54bd b71d 46bd e9af 2dbd 387f 8c3f
00000100: 54b7 813e 392b f0bd 451b 45be 2edb 97bd
00000110: 1f4a 1b3f ab15 ebbb 908d 05be 69e1 1fbe
00000120: a2b0 4f3f 7f42 1abe 0263 b13e ac97 56bd
00000130: e8d0 0cbe 4082 ca3d c0e0 a73e 7085 04be
00000140: 673c af3e be77 353e 88ff debe 7e06 9dbd
00000150: e22f 51bd dbe7 d8bd c749 113f cdcd 6f3f
00000160: 50a0 16be 2c9d 19bf 5186 23bd 430b c53e
00000170: e574 b8bc b176 513f ab85 87be 0b05 7abd
00000180: 96bd adbd 5fb8 c9bd eb8d 693e cecc 203f
00000190: 412e 50bd 228c 8abf 76e7 683f 0cbe 293f
000001a0: 813a 6f3f 2622 efbd fcb6 053f 53bf 2abe
000001b0: 6532 423e 34d6 debc 7d10 cdbc 64b9 ebbd
000001c0: 9d6d e83e 91c6 12be f5f9 f7be 1ac8 c63c
000001d0: f435 d63e b0cf a73e 700d 153f 62bd 8ebb
000001e0: 5bd9 e9bd 6832 b13e 6128 a9bd 97ee dabd
000001f0: 74ca 453e fc79 13be 4fd4 01bc 52c9 08c0

value.0.weight f4 [64, 128]
0.6269052 -0.03037479 -1.3888986 -0.18033274 -0.020261023 -0.088858254 0.03661089 -0.71499974
-0.74057215 0.04413453 -0.22675733 0.002776732 -0.6506692 -0.11508555 -0.64364064 -0.72104216
-0.010678498 -0.8985499 0.015812594 -1.4120673 -0.5174395 -0.07864966 -1.2529726 -0.0045615435
-0.2727255 -0.01622044 0.08249459 -0.24975245 -0.01692754 -0.052539963 0.008214712 -0.20878886
-0.060755536 -0.6372407 -0.11384414 -0.07829987 -0.013126341 -0.58512044 -0.7900382 -0.19716671
-0.15871413 -0.34088913 -0.2520618 -0.058179624 -0.56706643 -0.10029278 -0.021327345 0.0648485
-1.5582556 -0.438758 -0.24575976 -0.27434486 -0.018440455 -0.3420673 -0.14641649 -1.8221049
-0.73636764 1.3694581 -0.5245906 0.03649909 0.0362062 0.0010334402 0.05127842 -1.168578
-0.22035658 0.07130321 0.0557063 0.01712481 -0.061594088 0.036078017 0.09933783 -0.10774701
-0.44413647 0.138045 -0.8008619 -0.03139994 -0.19492659 -0.14831297 -0.35409057 0.065661624
-0.45190275 -0.009350194 0.84881544 0.06030272 0.025319148 -0.08061783 -0.3425754 -0.16427982
-0.23253353 0.20091276 -0.016413717 -0.34538206 -0.35690522 0.37086126 0.99339485 -0.41643745
0.014195978 -0.06366255 -0.378431 -0.045538444 -0.373295 -0.24861433 -2.162136 -0.85804075
-1.3736995 0.025116526 -0.4419612 -0.94595313 -1.3954679 0.077360176 0.049089704 0.04927213
-1.0729527 -0.025022719 -0.26259485 -0.24835463 -0.5176978 -1.021912 0.21498284 -0.055727817
0.7151717 0.18554077 0.06962643 0.040995587 -0.19119781 -0.040697813 0.026297703 -0.81393677
-0.083826356 -0.034101874 -0.7681136 0.00073745 -0.077453405 -0.08762488 -0.30187407 -0.053828463
0.26541948 0.00050085585 -0.4307447 -0.31454393 0.09047949 0.02062092 -0.1240902 -0.06629708
-0.06743903 0.033412725 0.05260515 -0.4957757 -0.13216138 -0.056894038 0.5047526 0.0014674664
0.2669712 -0.13888115 -0.034850627 -0.2562852 0.0023939556 -0.15656368 -0.062098555 -0.101424634
0.049355127 -0.52916545 0.36497596 0.04771788 -0.07187269 -0.0480299 -0.9860297 -0.04090252
-0.13867588 -0.17676915 -0.089093015 -0.04160428 -0.10540139 0.04611721 0.07136337 -0.11737885
-0.5452637 -0.11935444 0.17394951 -0.10114251 0.052943014 -0.26371783 -0.25219953 0.013556977
-0.12644047 1.0803989 0.04211964 0.07934884 -0.03460366 -0.086684845 -0.054235872 -0.49341437
-0.05550818 -0.0053637847 0.06146642 -0.05275994 -0.33508575 0.038455717 0.007506795 0.11322111
-0.07611418 -0.3477785 -0.25505185 0.055811096 -0.075147726 -0.526527 -0.059937738 0.09602564
-0.37346926 0.03588864 0.15554616 0.087808274 -0.033509865 0.066453464 -0.30326557 -0.17212684
-0.07469681 0.1128676 -0.009690874 -0.152077 0.056898966 -0.19201197 -0.18259354 0.37729612
0.022639126 -0.0059291944 0.4374254 -0.14788167 -0.01939305 -0.2005745 0.24395312 -0.31339252
-0.94111156 0.00038462877 -0.17360117 -0.17274842 -0.028398478 -0.06757754 -0.017558292 0.061875157
-0.0013953985 -0.07536528 -0.16803107 -0.018755967 -0.08148663 -0.21283789 -0.6066908 -0.001694616
-0.1464426 -0.04512709 -0.065709025 0.08672237 -0.09838168 -0.056459166 -0.016515411 -0.19267903
00000000: dc7c 203f 8dd4 f8bc 6ec7 b1bf 25a9 38be
00000010: 72fa a5bc 51fb b5bd 4df5 153d 390a 37bf
00000020: 2396 3dbf 69c6 343d 1333 68be d5f9 353b
00000030: 4292 26bf f9b1 ebbd a2c5 24bf 3896 38bf
00000040: def4 2ebc 5e07 66bf 6a89 813c 9fbe b4bf
00000050: ea76 04bf 1313 a1bd 6861 a0bf 0079 95bb
00000060: ada2 8bbe bae0 84bc ecf2 a83d 1bbf 7fbe
00000070: a0ab 8abc 2534 57bd 0097 063c bfcc 55be
00000080: ccda 78bd 3522 23bf 1e27 e9bd af5b a0bd
00000090: dd0f 57bc 74ca 15bf f23f 4abf 12e6 49be
000000a0: f585 22be 0589 aebe 3f0e 81be c24d 6ebd
000000b0: 442b 11bf 4d66 cdbd afb6 aebc 4acf 843d
000000c0: eb74 c7bf e3a4 e0be 72a8 7bbe ee76 8cbe
000000d0: 7010 97bc 7223 afbe 34ee 15be bc3a e9bf
000000e0: 9782 3cbf 674a af3f 924b 06bf 1280 153d
000000f0: f44c 143d 8074 873a 5209 523d f793 95bf
00000100: 28a5 61be 6b07 923d 4a2c 643d 5449 8c3c
00000110: 154a 7cbd 8bc6 133d a271 cb3d 77aa dcbd
00000120: db65 e3be ab5b 0d3e 4905 4dbf 399d 00bd
00000130: d69a 47be 5bdf 17be 5c4b b5be 9a79 863d
00000140: cc5f e7be 8e31 19bc f84b 593f fcff 763d
00000150: 1a6a cf3c f61a a5bd 0b66 afbe f838 28be
00000160: 451d 6ebe 13bc 4d3e 0f76 86bc ebd5 b0be
00000170: 48bc b6be 87e1 bd3e 204f 7e3f 4a37 d5be
00000180: 3f96 683c 8361 82bd b5c1 c1be 8586 3abd
00000190: 8620 bfbe c194 7ebe 7060 0ac0 8fa8 5bbf
000001a0: 63d5 afbf 2cc1 cd3c bd48 e2be fc29 72bf
000001b0: b19e b2bf 036f 9e3d 4912 493d 93d1 493d
000001c0: 8456 89bf 72fc ccbc d572 86be ad50 7ebe
000001d0: d887 04bf 03ce 82bf 7624 5c3e da42 64bd
000001e0: 7e15 373f 66fe 3d3e 4d98 8e3d fdea 273d
000001f0: 5cc9 43be c0b2 26bd 486e d73c 295e 50bf
00000200: 27ad abbd 68ae 0bbd 18a3 44bf 6f51 413a
00000210: e49f 9ebd ac74 b3bd 3d8f 9abe 3c7b 5cbd
00000220: 10e5 873e de4b 033a 928a dcbe e70b a1be
00000230: 504d b93d 34ed a83c 0123 febd c3c6 87bd
00000240: 791d 8abd c8db 083d 7f78 573d 50d6 fdbe
00000250: 5055 07be b909 69bd 7737 013f 0058 c03a
00000260: 73b0 883e dc36 0ebe 88bf 0ebd d037 83be
00000270: e9e3 1c3b 3b52 20be 0e5b 7ebd b8b7 cfbd
00000280: 9a28 4a3d 6377 07bf 21de ba3e d373 433d
00000290: fd31 93bd 00bb 44bd 716c 7cbf 6789 27bd
000002a0: 0d01 0ebe f902 35be 6676 b6bd 4069 2abd
000002b0: afdc d7bd 66e5 3c3d f526 923d 5364 f0bd
000002c0: 6796 0bbf 1a70 f4bd d21f 323e ce23 cfbd
000002d0: c6da 583d 0606 87be 4c20 81be 151e 5e3c
000002e0: 9c79 01be 834a 8a3f a585 2c3d a581 a23d
000002f0: 91bc 0dbd d387 b1bd 6f26 5ebd cfa0 fcbe
00000300: 8c5c 63bd b0c2 afbb 36c4 7b3d cf1a 58bd
00000310: 5c90 abbe be83 1d3d 90fb f53b 78e0 e73d
00000320: c0e1 9bbd 0610 b2be 2896 82be 2d9a 643d
00000330: 0de7 99bd 79ca 06bf 4681 75bd 17a9 c43d
00000340: 5d37 bfbe f7ff 123d 7e47 1f3e d3d4 b33d
00000350: a441 09bd c118 883d a045 9bbe 0542 30be
00000360: a4fa 98bd 2127 e73d 79c6 1ebc 13ba 1bbe
00000370: e40e 693d c99e 44be cdf9 3abe f52c c13e
00000380: b075 b93c b049 c2bb 39f6 df3e 4b6e 17be
00000390: 2cde 9ebc 6763 4dbe d9ce 793e fc74 a0be
000003a0: b0ec 70bf 00a8 c939 81c4 31be f6e4 30be
000003b0: eda3 e8bc 1866 8abd 68d6 8fbc ce70 7d3d
000003c0: cee5 b6ba 1d59 9abd 5610 2cbe 1da6 99bc
000003d0: 76e2 a6bd 2df2 59be 1750 1bbf e11d deba
000003e0: 0df5 15be 2fd7 38bd 7492 86bd 7f9b b13d
000003f0: 567c c9bd ba41 67bd 544b 87bc a74d 45be

value.0.bias f4 [64]
-1.5645518 -1.8915521 0.038929887 -0.40013665 0.7235682 0.34278977 -0.8933494 0.033963826
0.83874 -0.785879 -1.7748742 1.7480665 -1.6875013 0.33735314 -0.34791657 -0.03223703
2.1912382 2.145769 0.34992662 -2.5144053 -1.3288969 0.97638494 -1.6811883 0.5047973
-2.112394 -0.19909601 1.2074851 0.020647325 2.3197002 0.8824555 0.95598394 -0.23673348
0.6121585 -0.051648244 0.09072647 -0.29560724 2.282024 0.45490652 -1.4707295 -0.9481767
2.3323183 0.5056692 2.0656843 -1.1251463 0.58485407 -0.18737231 -0.33040822 -0.6027109
2.3866546 -1.9571774 0.47003695 2.1806366 1.2795495 1.7990324 -1.1258636 -0.3649567
-0.29741496 0.7914485 2.2640445 -0.8568774 -1.4798995 0.56450367 1.0379502 0.3064026
00000000: 3c43 c8bf 611e f2bf f274 1f3d b6de ccbe
00000010: c43b 393f 2482 af3e 8cb2 64bf a71d 0b3d
00000020: aab7 563f 5e2f 49bf 142f e3bf a5c0 df3f
00000030: 0b00 d8bf 8db9 ac3e 1f22 b2be fa0a 04bd
00000040: 3f3d 0c40 4754 0940 9529 b33e 04ec 20c0
00000050: 4b19 aabf 5df4 793f 2e31 d7bf 653a 013f
00000060: 7731 07c0 d3df 4bbe df8e 9a3f 9424 a93c
00000070: f875 1440 9be8 613f 5dbb 743f 436a 72be
00000080: 6bb6 1c3f 1c8d 53bd cdce b93d d559 97be
00000090: ae0c 1240 82e9 e83e dd40 bcbf b5bb 72bf
000000a0: b444 1540 8973 013f 2c34 0440 cb04 90bf
000000b0: ffb8 153f 87de 3fbe 442b a9be 434b 1abf
000000c0: f3be 1840 ca84 fabf afa8 f03e 8d8f 0b40
000000d0: 47c8 a33f b246 e63f 4c1c 90bf 9bdb babe
000000e0: c646 98be 5e9c 4a3f 1be6 1040 515c 5bbf
000000f0: 596d bdbf 5083 103f 8ddb 843f cde0 9c3e

value.2.weight f4 [1, 64]
-2.041772 2.3455808 -0.44451004 0.4321025 1.2724223 0.85749936 -0.6258621 -1.4825269
-0.80063266 -0.88769805 0.7253766 -0.34687698 0.601029 -1.2633405 1.2621578 0.006742333
-0.4911553 -0.47621152 1.4930248 1.2485644 -1.0190963 1.1396036 0.71755385 -0.8281125
-4.287676 0.007346496 -0.17362541 -0.3803853 -0.56342524 1.9839449 -0.60828197 0.0075954814
0.4409511 0.1576723 1.9703914 0.8797687 -0.59507996 1.185067 -2.6496916 -1.344421
-0.5126159 -0.6623886 -0.36017004 0.8074615 1.0526427 -0.00770911 0.60275006 -0.6806991
-0.6348289 1.4788156 -1.1866479 -0.42290825 1.104937 -0.5031075 1.4052715 0.012697352
0.011280066 1.0359049 -0.5647719 0.92020255 0.6017524 -1.3563879 -1.2395654 -0.8440446
00000000: 64ac 02c0 ff1d 1640 d296 e3be 8a3c dd3e
00000010: bcde a23f 1485 5b3f 8038 20bf 71c3 bdbf
00000020: 43f6 4cbf 2e40 63bf 48b2 393f dc99 b1be
00000030: 09dd 193f 24b5 a1bf 638e a13f caee dc3b
00000040: b578 fbbe ffd1 f3be 701b bf3f f5d0 9f3f
00000050: bf71 82bf 88de 913f 9cb1 373f 2eff 53bf
00000060: a434 89c0 e0ba f03b dcca 31be ddc1 c2be
00000070: a33c 10bf e8f1 fd3f 5eb8 1bbf 84e3 f83b
00000080: 58c4 e13e d974 213e c935 fc3f 8638 613f
00000090: 2957 18bf 47b0 973f 8c94 29c0 fd15 acbf
000000a0: cc3a 03bf 4d92 29bf 3568 b8be ccb5 4e3f
000000b0: ffbc 863f b49c fcbb d44d 1a3f 4c42 2ebf
000000c0: 2684 22bf d449 bd3f 14e4 97bf 6e87 d8be
000000d0: 936e 8d3f a7cb 00bf f0df b33f 8e08 503c
000000e0: 07d0 383c 8898 843f e494 10bf 6592 6b3f
000000f0: 720c 1a3f 1e9e adbf 14aa 9ebf 4f13 58bf

adv.0.weight f4 [64, 128]
-0.19375494 0.063666716 -0.20517054 0.3584819 0.00028551213 0.041637223 -0.60801643 -0.349182
0.20341973 0.08697126 -0.18499212 -0.117341734 -0.36010104 -0.77860916 -0.24631052 -1.0187526
-0.032123033 -0.33345354 -0.06969281 -1.4967303 0.32039452 -0.07316572 -0.16729899 0.03956658
-0.56540024 0.0006546843 -0.08751975 -0.20016956 0.417938 -0.06740765 0.022177406 0.4149494
0.021002103 -0.88039845 -0.16132134 -0.57045513 -1.5341828 0.10591771 -0.18324073 -0.25444236
-0.094495036 -0.09675029 -0.17111783 -0.051855974 -0.48590258 0.07624877 -0.14501865 -0.27435353
0.06995362 -0.7168279 0.104591124 -0.5121266 0.068691194 -0.11438096 -0.22378075 0.11595465
0.37923357 0.33576265 -0.52546155 -0.05010633 -0.07033275 -0.06461741 -0.056409564 -0.26744226
-0.8646266 0.0026030838 0.014396429 0.053780604 -0.63748664 -0.07281376 -0.06703014 -0.061950102
-1.3830088 0.6491071 -0.9273169 0.024523063 -0.020121654 -0.5607845 0.2729922 0.22646263
-0.28338155 -0.24746235 -0.028834945 -0.03929097 0.056094058 -0.06691759 -0.4712631 -1.1651927
-0.7642789 -0.3962813 0.0013875852 -1.4188192 -0.22621226 -0.5811858 0.042734038 -0.20211516
-0.07545392 0.046385877 -0.82510424 -0.86865604 0.84680456 0.362375 -0.24592052 -0.257711
-0.95422137 -0.06466237 0.23663484 0.02932744 0.2056996 0.075785786 0.010118343 -0.05476494
-0.26458463 -0.109172925 -0.2630004 -0.10535592 -0.87942964 1.1012453 -0.24929215 -0.02512822
-0.35510293 -0.09680668 -0.0038850482 0.061929915 -0.22415267 -0.0071322992 -0.083327144 0.22444764
-0.07826093 0.63276136 -1.1896753 -1.1555693 -0.033141617 -0.048738636 -0.3345535 -0.36598527
-0.05799673 -0.0945707 -0.49872798 -0.28627577 -0.12917483 -0.15315029 -0.24598616 -0.2728004
0.060223408 -0.3684859 -0.036624894 -0.40077665 -0.01762442 -0.086338505 0.20986639 -0.012335785
-0.2448836 0.07639725 0.018864194 -0.30844495 -0.37899947 -0.22504194 0.04208889 0.1753844
-0.032983333 -0.7676046 -0.7621792 0.018219719 -0.08857644 -0.2642288 -0.85154146 -0.123820476
0.05721407 -0.10193237 -0.17485368 0.02295836 -0.11988717 -0.049350057 -0.12431794 -0.15917772
0.035290644 -0.0651884 0.5320516 -0.43146294 -0.016852116 0.29852843 -0.41253072 0.23093806
-0.084671006 -0.18136315 0.47360453 -0.08152432 0.04929509 -0.07220622 0.005157426 0.09026138
0.08728452 -0.00033356994 0.08376742 0.011939563 -0.7346947 0.058894083 -0.057364937 0.01504296
-0.27937773 -0.08238412 -0.26532015 0.0452931 -0.04789449 -0.0023643717 0.37483913 0.3029186
-0.20252301 -0.1948539 0.8100253 -0.01747109 0.07683899 -0.030450065 -0.69885534 -0.30953535
0.07158739 -0.37633517 0.049619712 -0.026221583 -0.1273121 -0.35082087 -0.12574472 -0.018793471
-0.057086598 0.044092733 0.19182163 -0.8449887 0.23520249 -0.2512115 -0.3192894 -0.82915896
-0.21831903 -0.06190257 -0.34789476 -0.47458282 -0.670057 -0.025693148 -0.0017681867 0.056655325
-0.2827869 -0.08375803 -0.11783526 -0.117014624 0.1668704 0.19476096 -0.16757351 -0.071945705
0.022186482 -0.056146733 -0.05627524 -0.03284976 -0.06564156 0.080086194 0.0046791956 0.8571667
00000000: b267 46be b263 823d 3a18 52be f18a b73e
00000010: cab0 9539 cb8b 2a3d f7a6 1bbf fcc7 b2be
00000020: 434d 503e fd1d b23d 936e 3dbe dd50 f0bd
00000030: 2a5f b8be ee52 47bf d338 7cbe 7c66 82bf
00000040: 7193 03bd 6cba aabe 1bbb 8ebd dc94 bfbf
00000050: c00a a43e e9d7 95bd 6d50 2bbe 9110 223d
00000060: 12be 10bf 1f9f 2b3a 8e3d b3bd 40f9 4cbe
00000070: f8fb d53e 060d 8abd 64ad b53c 3f74 d43e
00000080: 9a0c ac3c cb61 61bf 6c31 25be 5909 12bf
00000090: 1a60 c4bf 62eb d83d 75a3 3bbe 4546 82be
000000a0: 9d86 c1bd 0425 c6bd 8339 2fbe ee66 54bd
000000b0: 39c8 f8be 5128 9c3d c57f 14be 1178 8cbe
000000c0: d843 8f3d 0982 37bf df33 d63d bb1a 03bf
000000d0: f8ad 8c3d 9140 eabd c826 65be a279 ed3d
000000e0: e72a c23e 15e9 ab3e a684 06bf 4c3c 4dbd
000000f0: 9e0a 90bd 2256 84bd b70d 67bd 31ee 88be
00000100: 2b58 5dbf 8098 2a3b 00df 6b3c 0d49 5c3d
00000110: 5332 23bf 611f 95bd 1947 89bd 64bf 7dbd
00000120: 6f06 b1bf e22b 263f a464 6dbf 97e4 c83c
00000130: 2bd6 a4bc 938f 0fbf a2c5 8b3e d2e5 673e
00000140: 6317 91be c566 7dbe 4337 ecbc 91ef 20bd
00000150: e2c2 653d 170c 89bd 6649 f1be 0925 95bf
00000160: c8a7 43bf 62e5 cabe a2df b53a de9b b5bf
00000170: 30a4 67be 98c8 14bf e309 2f3d 47f7 4ebe
00000180: 9687 9abd 1eff 3d3d 083a 53bf 3e60 5ebf
00000190: 2fc8 583f 3789 b93e 97d2 7bbe b2f2 83be
000001a0: da47 74bf b46d 84bd 6750 723e 1940 f03c
000001b0: eaa2 523e 9435 9b3d 68c7 253c 3451 60bd
000001c0: a377 87be 0e96 dfbd fda7 86be d8c4 d7bd
000001d0: 4d22 61bf 9bf5 8c3f 7146 7fbe b2d9 cdbc
000001e0: 0dd0 b5be 9542 c6bd 4b9c 7ebb 39aa 7d3d
000001f0: 4788 65be 10b6 e9bb 6ca7 aabd 9ad5 653e
00000200: 4447 a0bd a6fc 213f 4847 98bf b2e9 93bf
00000210: 81bf 07bd 2aa2 47bd 994a abbe 6c62 bbbe
00000220: fb8d 6dbd 48ae c1bd 4659 ffbe bd92 92be
00000230: 6846 04be 6ed3 1cbe cce3 7bbe 7eac 8bbe
00000240: d2ac 763d 2faa bcbe fc03 16bd 9932 cdbe
00000250: 1661 90bc 3ed2 b0bd 37e7 563e 081c 4abc
00000260: c4c2 7abe 2976 9c3d 1589 9a3c 7fec 9dbe
00000270: 380c c2be 6571 66be 6665 2c3d f897 333e
00000280: 8819 07bd bc81 44bf 2d1e 43bf 8541 953c
00000290: 9167 b5bd ff48 87be 9ffe 59bf 9795 fdbd
000002a0: 4d59 6a3d ebc1 d0bd d80c 33be 2c13 bc3c
000002b0: 6887 f5bd 4923 4abd 679a febd 7cff 22be
000002c0: ec8c 103d 7f81 85bd 8934 083f b6e8 dcbe
000002d0: 730d 8abc b8d8 983e 3a37 d3be 077b 6c3e
000002e0: fe67 adbd 43b7 39be 4b7c f23e 39f6 a6bd
000002f0: a6e9 493d dbe0 93bd a0ff a83b f5da b83d
00000300: 3ac2 b23d 00e3 aeb9 418e ab3d 289e 433c
00000310: f414 3cbf ec3a 713d 7ff7 6abd bf76 763c
00000320: 990a 8fbe 01b9 a8bd 0bd8 87be 4285 393d
00000330: 032d 44bd 93f3 1abb eaea bf3e 2618 9b3e
00000340: 3162 4fbe c887 47be d15d 4f3f 881f 8fbc
00000350: c35d 9d3d 6a72 f9bc 2fe8 32bf 6b7b 9ebe
00000360: 699c 923d 01af c0be 0a3e 4b3d a5ce d6bc
00000370: 1a5e 02be cb9e b3be 39c3 00be c4f4 99bc
00000380: a3d3 69bd 959a 343d e46c 443e 2e51 58bf
00000390: ecd8 703e cb9e 80be e679 a3be c343 54bf
000003a0: 068f 5fbe 8d8d 7dbd 431f b2be 85fc f2be
000003b0: db88 2bbf 707a d2bc 80c2 e7ba 6a0f 683d
000003c0: 72c9 90be 5489 abbd 9d53 f1bd 5da5 efbd
000003d0: 13e0 2a3e 6b6f 473e 6498 2bbe 4558 93bd
000003e0: 6dc0 b53c 1efa 65bd de80 66bd 788d 06bd
000003f0: 156f 86bd 3b04 a43d f053 993b 476f 5b3f

adv.0.bias f4 [64]
-2.2472396 -1.1948996 -1.0971143 -0.77421814 -0.6480113 -0.84383184 -0.78995156 -1.5050173
-0.21216616 -1.0243696 -1.2064927 -0.2674811 -0.31743678 -0.07373998 -2.1375735 -1.2877678
-0.18654002 -2.657585 -0.32553986 -0.19648334 -0.77225494 -0.26947948 -1.0950598 -2.484713
-0.0050542243 -0.6937651 -0.82154953 -2.5204487 -1.5735269 -0.12816983 -2.52829 -0.57263637
-0.46141568 -0.32983395 -0.585061 -0.53674704 -1.2128981 -1.5822569 -0.4598295 -0.5588572
-1.3215028 -0.18281469 -0.7787145 -0.15581626 -0.92490894 -0.8149885 -1.456626 -1.3810431
-1.006416 -0.78940517 -1.4736404 -0.15802622 -1.1663905 -0.209053 -0.23098315 -0.37724483
-0.94882894 -1.0376606 -0.26974687 -0.2467294 -2.036098 -0.38170767 -0.21243204 -0.5476104
00000000: c6d2 0fc0 78f2 98bf 3e6e 8cbf 2933 46bf
00000010: 12e4 25bf 5d05 58bf 443a 4abf 68a4 c0bf
00000020: 1642 59be 8b1e 83bf 5a6e 9abf 48f3 88be
00000030: 1387 a2be fd04 97bd 01ce 08c0 93d5 a4bf
00000040: 5904 3fbe df15 2ac0 29ad a6be ee32 49be
00000050: 80b2 45bf 37f9 89be eb2a 8cbf 8a05 1fc0
00000060: e89d a5bb 979a 31bf 1251 52bf 084f 21c0
00000070: 5469 c9bf f43e 03be 81cf 21c0 4c98 12bf
00000080: ad3e ecbe ffdf a8be 8fc6 15bf 4168 09bf
00000090: 3f40 9bbf 6587 cabf c66e ebbe 4411 0fbf
000000a0: 0127 a9bf c633 3bbe d559 47bf 4c8e 1fbe
000000b0: d5c6 6cbf 16a3 50bf b972 babf 05c6 b0bf
000000c0: 3dd2 80bf 7516 4abf 40a0 bcbf a0d1 21be
000000d0: 494c 95bf fd11 56be d986 6cbe 3c26 c1be
000000e0: 74e6 72bf 10d2 84bf 431c 8abe a2a6 7cbe
000000f0: 6e4f 02c0 306f c3be c987 59be 3230 0cbf

adv.2.weight f4 [2, 64]
-2.791525 -0.36637086 -0.5846933 -0.43608287 -0.5087278 -0.67124504 0.89791656 0.55406934
0.06843615 0.7218113 0.78465223 -0.9273778 0.57180506 0.09963353 -2.1236498 -0.408235
-0.015219909 -0.58887225 -0.06243647 -0.05720642 0.0135408845 0.5539511 1.1309831 -0.7655059
-0.27286023 -0.22724304 -0.11097007 0.28842276 0.4298105 -1.6289818 -1.4204847 0.025761992
-0.23741405 0.02122467 -0.40334067 0.37814203 -1.7668089 0.4388415 0.2201151 0.36527938
0.5392126 0.011065447 -0.42693758 0.06564573 -0.67311084 1.7354678 -0.7481705 1.1704605
-0.9100632 2.3786843 0.42373368 0.028283574 -1.9780169 0.20324768 -0.015076409 -0.021616234
1.0660871 0.8906402 -0.46848083 0.15931995 0.72125345 0.15639953 -0.0052305115 -0.84148085
2.7260122 0.38232332 0.6483431 0.36205766 0.57584625 0.72035867 -0.8969921 -0.47707888
0.11795723 -0.6920663 -0.9281448 0.81285924 -0.5308494 -0.007707481 1.9984413 0.29598403
-0.061785337 0.6585062 -0.06904814 -0.016538115 -0.18794192 -0.64482194 -1.1600313 0.73611176
0.3176499 0.18924147 -0.10234637 -0.36315197 -0.3708391 1.6168737 1.2763349 -0.18393402
0.21263804 0.05296761 0.31763747 -0.30291238 1.665973 -0.5469529 -0.32259518 -0.3015138
-0.52108896 -0.013063516 0.4008661 0.020805774 0.5453075 -1.7036651 0.82703614 -1.1627979
0.9398387 -2.2542932 -0.4650893 -0.00077011925 2.0009177 -0.33212075 -0.023983302 0.010216557
-1.133031 -0.9109789 0.44855553 -0.1259919 -0.8300547 -0.08894522 0.006621997 0.913659
00000000: 58a8 32c0 f694 bbbe 76ae 15bf 4146 dfbe
00000010: fc3b 02bf b7d6 2bbf dcdd 653f 7dd7 0d3f
00000020: 4128 8c3d a0c8 383f f8de 483f a268 6dbf
00000030: d161 123f aa0c cc3d e1e9 07c0 2e04 d1be
00000040: ed5c 79bc 55c0 16bf 62bd 7fbd 4751 6abd
00000050: 96da 5d3c bdcf 0d3f 0ec4 903f 32f8 43bf
00000060: 56b4 8bbe 66b2 68be 4744 e3bd 26ac 933e
00000070: 1f10 dc3e 7a82 d0bf 71d2 b5bf d00a d33c
00000080: ab1c 73be 5cdf ad3c ab82 cebe d59b c13e
00000090: cb26 e2bf d5af e03e da65 613e e605 bb3e
000000a0: d609 0a3f d94b 353c 9097 dabe 4571 863d
000000b0: fe50 2cbf cf23 de3f 1a88 3fbf a6d1 953f
000000c0: e7f9 68bf 5d3c 1840 9ff3 d83e f4b2 e73c
000000d0: a82f fdbf 2920 503e 0b03 77bc 8714 b1bc
000000e0: 8b75 883f ff00 643f b8dc efbe c524 233e
000000f0: 11a4 383f 3327 203e b664 abbb 4a6b 57bf
00000100: fc76 2e40 e2bf c33e d0f9 253f 9f5f b93e
00000110: a96a 133f 6d69 383f 46a1 65bf af43 f4be
00000120: 8f93 f13d 422b 31bf e69a 6dbf 8b17 503f
00000130: bfe5 07bf 098f fcbb edcc ff3f 388b 973e
00000140: 9f12 7dbd dd93 283f 1c69 8dbd f17a 87bc
00000150: d973 40be 0d13 25bf e87b 94bf d271 3c3f
00000160: 02a3 a23e 84c8 413e f99a d1bd 0eef b9be
00000170: 9fde bdbe b8f5 ce3f f15e a33f 3359 3cbe
00000180: c9bd 593e 91f4 583d 61a1 a23e 5517 9bbe
00000190: 9a3e d53f 1b05 0cbf 322b a5be 0460 9abe
000001a0: 1666 05bf 5b08 56bc 523e cd3e df70 aa3c
000001b0: 4699 0b3f b311 dabf a4b8 533f 90d6 94bf
000001c0: 4599 703f 5746 10c0 2f20 eebe d4e1 49ba
000001d0: 090f 0040 bb0b aabe a178 c4bc 5963 273c
000001e0: 2907 91bf ea35 69bf 12a9 e53e 0504 01be
000001f0: 777e 54bf e928 b6bd 56fd d83b 8ee5 693f

adv.2.bias f4 [2]
-0.08045865 -0.068315096
00000000: 81c7 a4bd c9e8 8bbd
