dqn_final_45.pt (torch, 146457 bytes, 11 tensors)

feature.0.weight f4 [128, 16]
000000 da 76 2a 40 73 9f 9c 3f 93 15 bc 3f d7 f3 a9 3f
       2.6635041 1.223616 1.4694084 1.3277539
000010 80 04 a0 c0 fc 91 f9 bf 34 8c bd bf b6 29 ef bf
       -5.0005493 -1.9497676 -1.4808412 -1.8684604
000020 ad 10 08 3f 53 a5 ef 3e 39 2b 49 bd f9 42 50 be
       0.53150445 0.4680582 -0.049113486 -0.20338048
000030 76 b0 91 3f 68 ea 2a 3f 6e 31 67 40 67 db 0d bf
       1.1381977 0.66763926 3.612392 -0.55412906
000040 51 49 86 3e 74 fb bd bd fe ca e6 be 30 e6 7c be
       0.2622781 -0.092764765 -0.45076746 -0.24697185
000050 03 e2 ac 3e 88 3f 6c 3e 97 d5 22 3f ee d4 fb 3e
       0.33766183 0.2307111 0.6360716 0.4918589
000060 78 03 5a bf 57 90 fb be c9 40 6c be eb 07 1a bf
       -0.8516154 -0.4913356 -0.23071589 -0.6016833
000070 b5 87 b5 be 8a 24 ca be 52 0a 74 3e d8 51 03 bf
       -0.354551 -0.39481002 0.23832062 -0.5129676
000080 d5 3b ed be 27 35 a8 3e f7 e7 86 3e 1e 0c d3 3d
       -0.4633471 0.32853052 0.2634885 0.103050455
000090 0c ac 61 be fa b4 0e 3e 84 94 69 3e d6 53 bd 3e
       -0.22038287 0.13936225 0.2281056 0.36978024
0000a0 35 c8 0b 3e a5 61 15 3e e6 cd 6b 3f cd 95 57 3f
       0.13650592 0.1458803 0.9211105 0.8421295
0000b0 41 6f 31 3e 76 d6 e5 be 9c eb e0 be 85 21 11 bf
       0.17327596 -0.44890183 -0.43929756 -0.5669177
0000c0 e3 55 8e 3f d2 b6 7b be ba 2d 0d be 63 0b b2 3d
       1.111996 -0.24581459 -0.13786975 0.08693578
0000d0 4e 2c e4 3f 3d e6 9a bd 26 a0 ad 3e 90 20 a5 3e
       1.7826021 -0.07563446 0.33911246 0.32251406
0000e0 bb c7 1c 3f 32 c0 31 3f 64 23 96 be a9 1f 02 bf
       0.61242265 0.6943389 -0.29323876 -0.5082956
0000f0 a6 8f b4 3e e9 1d ab bf d1 37 3f 3f 0e b8 49 bf
       0.35265845 -1.3368503 0.74694544 -0.7879647
000100 48 9e ba 3f c1 84 3c be 56 80 2e be 66 6d ea 3d
       1.4579554 -0.18410017 -0.17041144 0.11446647
000110 f9 f5 6d 3f 95 15 db bd d1 80 7b be c7 55 a5 3d
       0.9295345 -0.10697476 -0.24560858 0.08073001
000120 b5 dd e0 3f 5d e7 c9 3f 3a 64 db be 04 9e da be
       1.756766 1.5773731 -0.42849904 -0.4269868
000130 d1 bb 3e 3f a5 49 da c0 0a 3b f0 3e 43 49 4f 3d
       0.74505335 -6.82149 0.46920043 0.050606977
000140 32 5b 78 3d 69 e2 5e 3f bb f0 1c 3f 65 70 3d 3f
       0.060633846 0.87064224 0.61304826 0.73999625
000150 89 ec fb bf 02 25 4e 3f ca 27 6d 3f 32 91 87 3f
       -1.968156 0.8052522 0.9263884 1.0591185
000160 06 4d 05 bc 60 ec ab 3d 1d 70 68 be 73 20 e9 bd
       -0.00813604 0.08394694 -0.22699018 -0.11383142
000170 cc b7 55 3f 4a 04 b2 3e a4 78 9a 3f ba 19 3e be
       0.83483577 0.34768897 1.2068067 -0.18564501
000180 aa 14 f1 3e 1f 40 b5 be 83 1e 66 be 54 c3 0b be
       0.47086078 -0.35400483 -0.22472577 -0.1364873
000190 c3 22 9e be e1 85 fb bc 18 73 0d 3e 0a f2 17 3e
       -0.30885896 -0.030703487 0.13813436 0.14838424
0001a0 38 b7 3a 3e 70 a6 43 3e 11 11 a7 3e 75 8d fb 3d
       0.18233955 0.1910646 0.32630208 0.1228284
0001b0 85 00 40 3e 48 d0 0f bf 78 83 00 3e ff 72 25 bf
       0.18750198 -0.56177187 0.12550151 -0.64628595
0001c0 73 50 17 3e 34 9b 4f be d7 26 f3 bd c2 89 05 be
       0.14776783 -0.20274049 -0.118726425 -0.13040832
0001d0 c5 b6 26 c0 dc e0 92 be 13 66 a5 be 13 6a 9d be
       -2.6049054 -0.2868718 -0.3230444 -0.3074499
0001e0 90 38 2d 3f 9c a6 79 3f ba be 89 bf fb 19 a1 bf
       0.6766443 0.9751985 -1.076133 -1.2586054
0001f0 ac d2 77 bf 4b 94 cc bf 35 36 be bf a0 a2 b2 be
       -0.96805835 -1.5982755 -1.4860293 -0.34889698
000200 d7 3f fc bf 05 8f b5 be 5d b7 9c be d9 22 f1 be
       -1.9706982 -0.35460678 -0.30608645 -0.470969
000210 9c 0a 08 40 c9 a5 4d c0 5b 02 62 c0 a3 cc 5d c0
       2.1256475 -3.2132437 -3.5313938 -3.465615
000220 ac ff a4 3f 90 5d a8 3f 40 8c 18 bf 30 25 08 bf
       1.2890525 1.3153553 -0.59589005 -0.53181744
000230 31 94 9d be 10 e2 23 3e 22 de 52 3e 92 c7 35 3d
       -0.30777124 0.16004205 0.2059255 0.04437978
000240 15 30 01 c0 82 7f 32 3f 59 f4 06 3f f8 69 1f 3f
       -2.0185597 0.6972581 0.52716595 0.6227107
000250 ba 24 e5 3f 6d bf d0 be 81 8a c7 be f2 6b bf be
       1.7901833 -0.40771046 -0.38972858 -0.37387043
000260 a8 2a 31 be 7e 0f b6 be 8f f0 db 3e b3 36 0e 3e
       -0.17301428 -0.35558695 0.4295697 0.13888054
000270 8c 6f 9b 3e 8c 2a 4d bf b3 9c e7 bd 64 38 17 bf
       0.3035854 -0.80143046 -0.11309185 -0.5907042
000280 95 8e c9 3f d9 1c 7d bf 5b ed 6a bf 67 ee 9f bf
       1.5746638 -0.98872143 -0.91768426 -1.249463
000290 24 a6 87 bf be 03 03 bf e2 23 e9 be 76 3d b8 be
       -1.0597577 -0.51177585 -0.4553519 -0.3598439
0002a0 a0 a4 01 3e af 1d 68 3d 35 92 e8 be 84 df 08 bf
       0.12660456 0.056668933 -0.45424047 -0.5346606
0002b0 df 26 55 bb f7 3f b0 bf b7 f8 dc be a7 c0 b7 be
       -0.003252439 -1.376952 -0.43158504 -0.3588917
0002c0 4b b8 12 be 56 41 a8 3b 88 16 c2 bd ea 3d 5e bb
       -0.14328115 0.005134742 -0.09476954 -0.0033911415
0002d0 45 45 d8 3e 66 ed 64 3e 4a 37 fd 3d f8 a5 54 bd
       0.42240348 0.22356185 0.12364061 -0.051916093
0002e0 9d 37 47 bf ef 06 72 bf ac 32 05 be d4 63 01 be
       -0.77819234 -0.9454183 -0.13007611 -0.12635738
0002f0 48 0b ef be d6 90 54 c0 ca 43 25 3f d9 88 16 bf
       -0.46688294 -3.32134 0.6455656 -0.5880256
000300 65 a3 87 3e 4e b3 0f 3f 83 17 df 3e 26 d1 1f 3f
       0.26491848 0.5613297 0.43572626 0.6242851
000310 54 88 59 c0 b6 8f 56 be bc 7d d5 be 10 cd cd be
       -3.3989458 -0.20953259 -0.4169749 -0.40195513
000320 66 81 1d bf 7a 79 24 bf a6 cc d1 3e 67 23 55 3e
       -0.6152557 -0.6424786 0.40976447 0.20814286
000330 4e 74 09 3f 30 9d ea be ba b7 71 3e 40 9c b8 bf
       0.5369309 -0.4582305 0.23605242 -1.4422684
000340 dc ce c4 3e da 46 5f 3f 2e 8e 27 3f 01 4b cd 3e
       0.3843907 0.87217486 0.65451324 0.40096286
000350 cf f7 c4 3f 5d 2e 81 be e2 82 c6 bc bd 73 54 be
       1.5388125 -0.25230685 -0.024232332 -0.20747276
000360 e2 01 5a bf b2 30 2a bf 6b 22 99 3f 47 fc b4 3f
       -0.8515912 -0.66480553 1.1963629 1.4139489
000370 f7 59 1f 3f 85 e6 56 bf b1 1d 01 c0 53 d8 35 be
       0.6224665 -0.83945495 -2.0174372 -0.17758302
000380 fc 1b 53 bf 98 a6 24 3f 46 38 d5 3e 20 50 da 3e
       -0.82464576 0.643167 0.41644496 0.42639256
000390 34 4c c6 bf 8a 7b 34 bf 9d 78 80 bf 34 e2 59 bf
       -1.5492005 -0.70501006 -1.0036808 -0.85110784
0003a0 76 31 f0 be e0 6f 0f bf fb 20 9f 3f 6d 9e b0 3f
       -0.46912736 -0.5603008 1.243194 1.3798348
0003b0 8a f3 08 3f af 1a b7 be 21 b6 11 3f 09 75 64 bd
       0.5349661 -0.35762545 0.5691853 -0.055775676
0003c0 0c 08 fe 3f c6 cf 14 bf 55 6c ee be ef d2 da be
       1.9846206 -0.5812954 -0.46567026 -0.42739055
0003d0 a9 3a 25 c0 94 ec 70 3e 50 f4 db 3e ca 21 83 3e
       -2.5817053 0.23527747 0.42959833 0.25611717
0003e0 c5 da a7 3f 3b 99 be 3f b4 0d 32 bf 5a c1 09 bf
       1.3113638 1.4890512 -0.6955216 -0.53810656
0003f0 e3 6d 26 3f ce 7b a8 be 0d bd 9d bc 88 6e 9e be
       0.65011424 -0.32906955 -0.019255185 -0.30943704

feature.0.bias f4 [128]
000000 1c c1 17 3f 08 89 83 be b6 4d b4 be cc ae cc 3f
       0.59279037 -0.25690484 -0.3521554 1.5990844
000010 2c 7a a3 3f cf d0 b1 3f 7b 14 09 bf 72 ce 79 3f
       1.2771659 1.3891848 -0.53546876 0.97580636
000020 0c ad d8 3f 2c bb 27 bf b5 45 79 be 99 f6 c5 3f
       1.692781 -0.65519977 -0.24342997 1.5465881
000030 e7 50 25 bd c7 11 26 3f a4 77 45 3f f4 11 15 c0
       -0.040360358 0.64870876 0.7713568 -2.3292208
000040 66 7f a5 bf 32 d5 4d 40 45 ea bb 3f c9 ef 5f 3e
       -1.2929504 3.2161374 1.4680868 0.21868815
000050 5b 3b 4a 3f 5a 3d f1 3f ab f9 ab 3f c0 8b 22 be
       0.7899682 1.8846848 1.3435568 -0.15873623
000060 20 7b 48 bf 28 fc 86 3f a0 6d 74 bd 48 50 8d bf
       -0.78312874 1.0545702 -0.05967486 -1.1040125
000070 a1 0f c2 3f 72 1c 3a bf 4d 28 8a 3f 8c d7 f1 be
       1.516102 -0.72699654 1.0793549 -0.47234762
000080 6f 96 c4 be 62 3d 50 c0 bc 94 c1 bf 57 75 60 bd
       -0.38396022 -3.2537465 -1.5123515 -0.054799404
000090 dd 14 12 3e 2a a4 b5 3f 09 b7 c4 3e e4 a7 86 be
       0.14265771 1.4190724 0.38420895 -0.26299965
0000a0 8c 86 6e bf 2e 37 d2 3f 4a b1 ea be 9d e4 1d 40
       -0.9317405 1.642309 -0.45838386 2.4670784
0000b0 fc e1 26 be 49 c0 1f 3e a4 fa 4e c0 e7 26 cd 3f
       -0.16297144 0.15600695 -3.234048 1.6027497
0000c0 bd 6c ad 3f a5 b9 14 c0 42 7d 30 be c8 36 45 bf
       1.3548809 -2.3238308 -0.17235282 -0.77036715
0000d0 fd 99 21 bf a3 a5 b2 be b8 0b 62 3f 09 e7 2a 3f
       -0.6312559 -0.34891996 0.8829913 0.6675878
0000e0 d3 76 4b be b4 85 0e bf 12 70 a3 3c bd e8 a6 be
       -0.19869547 -0.55672765 0.0199509 -0.3259944
0000f0 7e ff 70 bf 60 4e 33 bc 11 c8 25 bd 26 ac f6 3e
       -0.9413985 -0.010943979 -0.040474 0.48178214
000100 99 49 05 c0 0b 6e 31 c0 54 a0 bc bf 22 88 dd bb
       -2.082617 -2.7723415 -1.4736428 -0.006760613
000110 6a 8f e1 3c f9 f9 a8 3f f1 63 40 3e a8 44 2e 3f
       0.027534205 1.3201286 0.18788125 0.6807351
000120 e6 70 dd be 6c ca 01 c0 b9 91 c0 bf 09 a1 da bf
       -0.43250197 -2.0279799 -1.5044471 -1.7080394
000130 8b 88 2c 3f 7e 3d d6 bf 21 5f 15 c0 39 18 a2 3e
       0.6739585 -1.6737516 -2.3339312 0.31659105
000140 22 a8 12 bf 68 29 db bf fa a7 81 be 1b 9e 71 3d
       -0.572878 -1.7122011 -0.25323468 0.05898867
000150 41 97 5c bf 51 00 3e 3e 5f d0 19 3e 41 af 96 be
       -0.86168295 0.18554808 0.15020894 -0.29430583
000160 fc 19 06 3f 57 9e a4 bf 74 51 50 be d9 f7 60 bf
       0.523834 -1.2860821 -0.20343572 -0.87878186
000170 54 19 9f bf eb f0 db be 7a 3b 13 be 81 65 a1 3f
       -1.2429605 -0.42957243 -0.14378157 1.2609102
000180 61 10 f2 be 39 a0 51 bf dc 3a 27 be 75 2d 56 bf
       -0.4727812 -0.81885105 -0.16331047 -0.8366311
000190 f5 2b 39 3f f9 d5 94 bf 80 40 58 c0 59 41 7d bf
       0.723327 -1.1627799 -3.3789368 -0.9892784
0001a0 8f e5 60 bf d2 16 10 bf 9b a4 e1 3e 9a 32 b6 3e
       -0.8785028 -0.5628482 0.44070897 0.3558548
0001b0 90 33 93 3d f9 d6 e0 bd de dd 41 3f b8 e7 ac be
       0.07187569 -0.10978503 0.7572917 -0.33770537
0001c0 e2 3b ae bf 37 63 61 3f 14 a2 b3 3f 23 34 52 40
       -1.3612025 0.88042015 1.4033837 3.2844322
0001d0 7d df 07 3f a7 ef 19 3f b0 65 15 bd 62 58 52 3f
       0.5307539 0.60131305 -0.03647393 0.8216611
0001e0 a0 06 d2 bf 91 9d cc 3f c0 da 80 bf cd 67 b1 bd
       -1.6408272 1.5985585 -1.0066757 -0.086623766
0001f0 59 71 2f 3f 06 ed d7 3e b9 3e fa 3e 2f e0 1b bf
       0.6853233 0.42173022 0.4887598 -0.6088895

feature.2.weight f4 [128, 128]
000000 72 40 bf bd 16 08 3d bf 2d 49 b0 bd 8f f4 55 3d
       -0.09338464 -0.73840463 -0.08607707 0.052235182
000010 5c 1b a4 be 0f ae db 3d 9d 3d 50 bd ce 4f 86 bf
       -0.32052124 0.107265584 -0.05084001 -1.0493104
000020 f5 ef 6b 3c 2e 93 82 be 8f a7 09 be d9 9c 88 be
       0.014400472 -0.25502914 -0.13442825 -0.26682165
000030 26 79 07 3e 65 3b 85 bd a1 3b 0b 3c 77 c8 86 3c
       0.13229808 -0.06505469 0.008498103 0.016453011
000040 c6 36 a1 3d 96 c6 91 bd e3 76 28 3f 6b d3 64 be
       0.07871775 -0.071179554 0.65806407 -0.22346275
000050 b2 09 5e 3f 11 32 6c be 95 72 a5 bf ac 5e 70 3b
       0.86733544 -0.23065974 -1.2925593 0.0036677523
000060 0e f9 b2 be 9a 4d d3 bc 68 5a 58 3c c7 6a cc 3c
       -0.3495564 -0.02579384 0.013205148 0.02495326
000070 6c bd 01 3d 26 63 a8 bc da b2 15 bf f0 c6 91 3e
       0.031674787 -0.02055509 -0.5847603 0.2847209
000080 24 7c e1 3d f5 af 06 bf 55 4c 60 be 55 49 36 bd
       0.11010006 -0.5261224 -0.21904118 -0.04450353
000090 88 32 ad bd a7 6b a3 be c5 26 87 3d 2a 07 70 3d
       -0.08456904 -0.3191807 0.065991916 0.058600582
0000a0 cd bd fd bd ce 9c 35 be 62 2d 8a be 65 6a c3 bd
       -0.12389717 -0.17735597 -0.2698775 -0.095417775
0000b0 18 bf 2b bd 94 38 89 bd 5b 42 45 3d 07 86 2d be
       -0.041930288 -0.067002445 0.048158985 -0.16945659
0000c0 4a c1 78 be 35 68 c2 bb 9b 4f cc 3d 1e 96 c8 be
       -0.24292484 -0.0059328326 0.09976121 -0.3917703
0000d0 f4 b5 69 3d 4b 1e 18 3d af fb 05 be c0 5b 9d bd
       0.05705829 0.037138265 -0.13084291 -0.076835155
0000e0 5f a3 54 be 2c d0 1d bf 6f 14 0e 3e cc 4e 51 be
       -0.20765446 -0.6164577 0.13874982 -0.20440215
0000f0 02 14 07 3e 95 e4 46 bd e6 96 51 be ae 50 0b 3e
       0.13191226 -0.048557837 -0.2046772 0.13604996
000100 3c 82 37 be b5 40 aa be ea c0 e8 bd 3d 1a 38 3c
       -0.17920774 -0.33252493 -0.113649204 0.011236724
000110 c2 3d 8e be 98 a8 73 be 61 7d 80 be cd f5 53 bf
       -0.27781492 -0.23794782 -0.25095657 -0.8279694
000120 5c 23 cd 3d 6e a8 52 be ed 4f d9 3d f7 b7 03 bf
       0.1001651 -0.20572063 0.10610948 -0.51452583
000130 70 9e 2f bf 1a 3c 90 be 0f a3 b4 bd 2c 45 d6 3e
       -0.6860113 -0.28170854 -0.088201635 0.4184965
000140 0b 69 9e be 4e c7 34 be 3a f1 ce 3d db cb 13 3d
       -0.30939516 -0.17654154 0.10104604 0.036083084
000150 99 08 f2 3e 2d 57 cc be e1 04 85 bf 0c 10 33 bf
       0.47272184 -0.3991026 -1.0392114 -0.6994636
000160 2f 97 20 bb 9a 87 9a 3e 5b 2a 17 3e 80 c6 12 be
       -0.0024504175 0.3018158 0.14762251 -0.14333534
000170 7d a5 60 bf b7 67 a1 bd a7 0f 38 be e5 28 0a 3f
       -0.87752515 -0.0788111 -0.17974721 0.5396865
000180 eb 15 11 be 15 98 66 3e b8 c5 50 be bf c3 9e be
       -0.14168517 0.22518952 -0.20387924 -0.31008717
000190 5a e6 17 be b2 c3 27 3e c4 7e a0 3c 81 7f 1c be
       -0.14833966 0.16383246 0.019591697 -0.15283014
0001a0 77 08 17 bf 57 9d 07 be 9c bf 11 bf ed c0 31 3b
       -0.5899729 -0.13243614 -0.56933 0.002712305
0001b0 d0 b0 7d 3e fe df 93 3d e8 5b 49 3d ca b5 43 bf
       0.2477448 0.072204575 0.049159914 -0.76449263
0001c0 db d3 9b ba 2e eb 83 be 9b 92 85 bf 07 74 99 3c
       -0.0011888699 -0.25765365 -1.0435365 0.018732084
0001d0 4f c3 1b bf 7a 4c 6d be 3c 0a b4 bd 9b 88 39 3c
       -0.6084489 -0.23173705 -0.087910146 0.011324073
0001e0 95 58 89 be bd 6d f2 bf c6 a6 cd be 68 1b 4c 3e
       -0.26825395 -1.893974 -0.401663 0.1993233
0001f0 6b a0 37 3f 99 14 83 bd c0 67 09 3f a8 0c 30 bd
       0.71729153 -0.06400413 0.53673935 -0.04298082
000200 f5 2f 75 be 12 b3 0e 3d 46 90 26 3e 0a 7c d3 3e
       -0.23944075 0.034838744 0.16265973 0.41305572
000210 38 99 4a 3c 8d d8 39 be ec d8 fa bd 9d 97 63 3e
       0.012365632 -0.18149014 -0.12248406 0.22225805
000220 30 df 29 bf 2f 8a a2 bd df ca db be 72 df 3d 3e
       -0.6635618 -0.07936513 -0.42928216 0.18542269
000230 e4 a5 fd bd d4 39 58 3e 1b f9 82 3d 1f 6d 23 3d
       -0.12385157 0.2111581 0.06395169 0.039898988
000240 80 8a 96 ba 42 d3 2b be af c4 76 be 37 f9 00 3f
       -0.0011485368 -0.16779807 -0.24098466 0.5038027
000250 32 91 15 be 31 88 81 be 03 13 77 be 6d ab 38 be
       -0.14606169 -0.25299218 -0.24128346 -0.18034144
000260 72 89 98 be 68 46 f1 bd 56 c2 33 3d 4b b4 47 be
       -0.29792362 -0.11781007 0.043886505 -0.1950237
000270 db a3 4a be 35 56 13 bf 07 38 ad bd a6 29 94 bd
       -0.19789068 -0.57553416 -0.08457952 -0.07234506
000280 bd 1d 9d be cf e8 a0 be d8 a7 35 be 7b 80 62 3c
       -0.3068675 -0.3142762 -0.17739809 0.013824577
000290 29 f5 99 3e 6c df 99 3d 75 23 d1 be 40 d3 42 be
       0.30069855 0.075133175 -0.40847364 -0.19025898
0002a0 fa b4 1e be d5 9c 30 bf bb 19 ff bd 94 84 38 be
       -0.15498725 -0.68989307 -0.124560796 -0.18019325
0002b0 1a df 98 3d 65 e9 af bf a7 14 27 3e 51 07 90 be
       0.07464428 -1.3743101 0.16316472 -0.28130582
0002c0 ac e8 7e bd 44 b5 15 3d 18 0d 41 3e f3 2b b4 be
       -0.062233612 0.03654982 0.18852651 -0.3518978
0002d0 d7 5b 19 bd 25 53 a9 3c 85 0d 4f bd 45 17 99 bd
       -0.0374411 0.02066953 -0.050550003 -0.074751414
0002e0 fd 38 18 bd 4e 95 08 3d 72 27 50 3e 01 f3 ca bd
       -0.037163723 0.033345513 0.20327547 -0.099096306
0002f0 cc 2f c1 bd 90 26 0d bc 71 0d a2 bd 10 91 a4 bc
       -0.09432945 -0.008615151 -0.0791272 -0.020088702
000300 a4 98 fb 3d e4 56 cf 3e 0b 58 62 bd f8 3c 9e bd
       0.12284973 0.4049598 -0.055259746 -0.077264726
000310 67 c9 f1 3e 60 58 aa bc 10 ba a9 be d9 71 58 3d
       0.4722397 -0.020794094 -0.33149767 0.05284295
000320 82 12 0e bf 87 8e 2f bd 5b 24 bd bc ab ca 3d 3f
       -0.5549699 -0.042860534 -0.023088625 0.7413737
000330 55 63 cf 3c af 5a e6 bc 49 b8 bd 3d f7 0d b1 bd
       0.02531592 -0.028119413 0.09263665 -0.08645242
000340 ab 31 5b 3e ae 45 7d bf 2a cc 0e bf e9 6e 8c bc
       0.21405666 -0.9893445 -0.5578028 -0.01714273
000350 30 b3 a8 3e 7a b5 47 bf 7f e3 c2 be cc a8 7e bd
       0.3294921 -0.78011286 -0.3806419 -0.062172696
000360 2e d0 1e bd 0d b9 05 bd 37 b3 b5 3d 76 d6 04 bd
       -0.038772754 -0.03264718 0.08872073 -0.03243109
000370 60 1a 46 3f b3 04 32 be 4d 2c 86 3c 28 cb 3d be
       0.77383995 -0.17384605 0.016378546 -0.18534529
000380 dc a8 db be 89 59 02 bf 7f c1 d6 bd ff 83 06 bf
       -0.42902267 -0.5091787 -0.10486125 -0.5254516
000390 59 7b 31 be 64 68 58 bf d5 bf c4 3d 76 a8 ea 3d
       -0.1733221 -0.8453429 0.096069016 0.114579126
0003a0 81 db ea bc 54 0f 84 be 0b a0 89 bd 31 65 d4 be
       -0.02866912 -0.25792944 -0.06719979 -0.41483453
0003b0 36 e6 fa 3d bb 58 9d 3d 41 1d 4e be e9 f0 0d bd
       0.122509405 0.076829396 -0.20128347 -0.034653578
0003c0 1b 46 75 be f0 79 18 be 7a dc 3d be 5e 51 58 be
       -0.23952524 -0.14890265 -0.18541136 -0.21124789
0003d0 71 75 07 3e 7c e3 99 3d 30 4a a4 bb b1 c7 1e bf
       0.13228394 0.07514092 -0.0050137267 -0.62023455
0003e0 04 83 7a be c3 83 1a 3e 1a 2c 8b bd 57 d7 37 bf
       -0.24464041 0.15089326 -0.06795521 -0.7181296
0003f0 1f 4b 5c be 4a 59 63 bf 2a a5 57 be fe 61 03 bf
       -0.21513031 -0.8880812 -0.21059099 -0.513214

feature.2.bias f4 [128]
000000 26 f7 1c be 28 d2 02 be f9 7b 5f 3f e8 bd 22 40
       -0.15328655 -0.12775481 0.8729854 2.542841
000010 87 3d 7d bc 2c 54 40 bd 53 5a 8e bd 0c a8 06 3f
       -0.015456564 -0.046955273 -0.06950822 0.5260017
000020 f8 a3 77 3e ac ba 72 be 35 73 00 3f e0 bf 25 3e
       0.24183643 -0.23704022 0.5017579 0.16186476
000030 00 7d 26 3e d2 2f d4 be 69 89 35 be 99 23 d1 3c
       0.16258621 -0.41442734 -0.17728199 0.02552967
000040 b5 f3 53 bd 3d f1 f5 be 6a d6 33 bd 6d ee 93 3f
       -0.05174609 -0.48035613 -0.043905653 1.1557137
000050 07 68 c4 bd 0d 61 11 be 4d 91 1a c0 41 3d 04 be
       -0.09590154 -0.14197178 -2.4151185 -0.12913992
000060 2c 1d 43 be 4c 1a 01 be 78 9d 1d be 9d 59 ba be
       -0.19054097 -0.12607688 -0.15392101 -0.36396495
000070 3c 93 84 ba 9b 04 19 3f 11 2c 2a be be 4b aa 3e
       -0.001011468 0.5977265 -0.16618372 0.33260912
000080 b9 3d 81 bc 93 1f 89 3e dc 3e 28 3e bf be 94 bd
       -0.015776502 0.26781902 0.16430229 -0.072629444
000090 8a 04 cf 3e a1 b0 22 3f f4 c0 8e be 7c c4 63 3e
       0.4043315 0.63550764 -0.27881587 0.22242922
0000a0 27 37 22 be b6 f6 30 3d 06 d1 15 be 88 88 dd bd
       -0.15841351 0.043204032 -0.14630517 -0.10817057
0000b0 d1 ca 10 3e 77 f6 2c be 7e 7b 6f be 15 05 0f 3d
       0.14139868 -0.16890894 -0.23386952 0.034916956
0000c0 ac 57 25 c0 1a a4 b0 be aa 1e e0 bf db 57 54 bf
       -2.583476 -0.345002 -1.7509358 -0.82946557
0000d0 88 8d 8d bd fe 5c bc 3e fa ea 9d 3d ee 4f bc 3e
       -0.069117606 0.36789697 0.07710834 0.36779732
0000e0 18 3d 49 bd 4d bc 17 bf 50 06 b5 3d 14 77 4b be
       -0.04913053 -0.592717 0.08839095 -0.19869643
0000f0 26 85 54 bd b7 1d 46 bd e9 af 2d bd 32 23 85 3f
       -0.051884793 -0.048368182 -0.04240409 1.0401366
000100 73 a2 66 3e 8a d3 5c 3d d2 e6 40 be 2e db 97 bd
       0.22522907 0.053912677 -0.18838051 -0.07414852
000110 8e 18 9c be 2e ca 29 bc b9 0d 17 be 69 e1 1f be
       -0.30487484 -0.010363145 -0.14751329 -0.15613331
000120 52 ba 69 3e 40 ae a5 3b 9d 59 94 3e fd 8a 56 bd
       0.22824982 0.0050561726 0.2897462 -0.052378643
000130 e8 d0 0c be 59 2c b1 3c eb 87 9c 3e 2e 54 52 be
       -0.13751566 0.021627592 0.30572447 -0.20539925
000140 83 06 2e 3f 1d 73 55 3e 28 a9 e9 be 7e 06 9d bd
       0.67978686 0.20844693 -0.45636868 -0.07667254
000150 a1 12 d7 bd 4c fe fc bd 49 59 ec 3e 60 32 81 3e
       -0.105016 -0.12353191 0.4616187 0.25233746
000160 46 4f 6e be 15 ab 13 bf 2a b5 23 bd de 2a 0d 3f
       -0.23272428 -0.57682925 -0.039967693 0.55143535
000170 8f e0 25 bd 82 a5 28 3f 23 67 79 bf dd d4 12 3d
       -0.04049736 0.65877545 -0.97423 0.035847533
000180 d4 54 1f be 3b 28 e7 bd cb 5e 8a 3e ce cc 20 3f
       -0.15559703 -0.1128697 0.27025446 0.6281251
000190 44 81 e8 bd 22 3f 0d bf cf 03 33 3f 67 1e 17 3f
       -0.113527805 -0.5517446 0.69927686 0.59030765
0001a0 69 ff 22 3e 26 22 ef bd 39 99 c7 3e 53 bf 2a be
       0.15917744 -0.11676435 0.38984087 -0.16674547
0001b0 15 c8 0b 3f ad 68 90 3b 12 9b 68 bd c2 39 16 be
       0.54602176 0.0044070096 -0.05678851 -0.1467047
0001c0 97 a3 f9 3e 03 1b f9 bd 77 97 e9 be 1a c8 c6 3c
       0.48757622 -0.12163355 -0.4562337 0.024265338
0001d0 6f 1d 80 3e 9f 49 0a 3e 17 ad 1b 3f 62 bd 8e bb
       0.25022456 0.13504647 0.6081099 -0.0043560723
0001e0 70 c9 38 bd d8 e0 e4 3e f8 eb e9 bd 46 5f c4 bd
       -0.04511398 0.44702792 -0.114219606 -0.095884845
0001f0 74 ca 45 3e cd 26 13 be 01 8c 22 bd 91 0e b6 be
       0.19315511 -0.1437027 -0.0396843 -0.35557988

value.0.weight f4 [64, 128]
000000 dc 7c 20 3f a5 b1 14 bc eb c0 89 bf 95 d2 b7 be
       0.6269052 -0.009075557 -1.0761999 -0.3590285
000010 72 fa a5 bc 51 fb b5 bd 6c 6f f4 bd f9 07 39 bf
       -0.020261023 -0.088858254 -0.119353145 -0.7227779
000020 23 96 3d bf 69 c6 34 3d 4c 0b 94 be d5 f9 35 3b
       -0.74057215 0.04413453 -0.2891487 0.002776732
000030 2a c6 2f bf 20 82 96 bd a2 c5 24 bf 38 96 38 bf
       -0.6866175 -0.07349038 -0.64364064 -0.72104216
000040 92 78 ff bb 05 ad 5f bf 6a 89 81 3c e8 1a b1 bf
       -0.0077963555 -0.8737338 0.015812594 -1.3836336
000050 8e 12 c8 be 13 13 a1 bd ba be 1c c0 00 79 95 bb
       -0.39076656 -0.07864966 -2.449141 -0.0045615435
000060 61 83 e4 3e ba e0 84 bc ec f2 a8 3d e7 53 d0 be
       0.44631484 -0.01622044 0.08249459 -0.40689012
000070 a0 ab 8a bc f2 e3 86 bd 00 97 06 3c d5 58 a9 bf
       -0.01692754 -0.06586446 0.008214712 -1.3230234
000080 cc da 78 bd f5 c7 d5 bf 1e 27 e9 bd af 5b a0 bd
       -0.060755536 -1.6701647 -0.11384414 -0.07829987
000090 dd 0f 57 bc 27 65 3a bf 93 c1 08 bf 12 e6 49 be
       -0.013126341 -0.72810596 -0.5342037 -0.19716671
0000a0 f5 85 22 be 99 48 9e be b4 8d d9 be c2 4d 6e bd
       -0.15871413 -0.30914763 -0.42490923 -0.058179624
0000b0 44 2b 11 bf 4d 66 cd bd e7 b2 a8 bd 4a cf 84 3d
       -0.56706643 -0.10029278 -0.08237248 0.0648485
0000c0 20 25 67 3d e3 a4 e0 be 66 21 a1 bf ee 76 8c be
       0.05643189 -0.438758 -1.2588317 -0.27434486
0000d0 70 10 97 bc 72 23 af be d4 c5 b7 be 69 69 e0 bf
       -0.018440455 -0.3420673 -0.35893118 -1.7532169
0000e0 97 82 3c bf c3 55 89 3f 92 4b 06 bf 12 80 15 3d
       -0.73636764 1.0729297 -0.5245906 0.03649909
0000f0 f4 4c 14 3d 80 74 87 3a 52 09 52 3d 57 b8 8a bf
       0.0362062 0.0010334402 0.05127842 -1.0837506
000100 28 a5 61 be 8b d6 67 3e 4a 2c 64 3d 54 49 8c 3c
       -0.22035658 0.22640435 0.0557063 0.01712481
000110 f6 d7 89 be 8b c6 13 3d a2 71 cb 3d 77 aa dc bd
       -0.26922578 0.036078017 0.09933783 -0.10774701
000120 4d de b1 be b1 6c 56 3f 49 05 4d bf 39 9d 00 bd
       -0.34739915 0.837596 -0.8008619 -0.03139994
000130 d6 9a 47 be 36 ea 9d be 5c 4b b5 be 9a 79 86 3d
       -0.19492659 -0.3084275 -0.35409057 0.065661624
000140 0d 9f 99 bd 8e 31 19 bc 9b 39 4e 3f fc ff 76 3d
       -0.0750104 -0.009350194 0.8055665 0.06030272
000150 1a 6a cf 3c b8 85 a5 bd 0b 66 af be f8 38 28 be
       0.025319148 -0.080821455 -0.3425754 -0.16427982
000160 45 1d 6e be 13 bc 4d 3e 0f 76 86 bc df 3e 16 3d
       -0.23253353 0.20091276 -0.016413717 0.036681052
000170 48 bc b6 be 1d 00 f6 bc 91 df a0 3e e4 41 91 be
       -0.35690522 -0.03002935 0.31420568 -0.28370583
000180 3f 96 68 3c 53 bc f4 3e 74 93 ac 3e 85 86 3a bd
       0.014195978 0.4779993 0.33706248 -0.045538444
000190 86 20 bf be c1 94 7e be 7e c1 00 c0 8f a8 5b bf
       -0.373295 -0.24861433 -2.0118098 -0.85804075
0001a0 37 28 fe be 2c c1 cd 3c bd 48 e2 be fc 29 72 bf
       -0.49640056 0.025116526 -0.4419612 -0.94595313
0001b0 b1 9e b2 bf 03 6f 9e 3d 49 12 49 3d 93 d1 49 3d
       -1.3954679 0.077360176 0.049089704 0.04927213
0001c0 9d d7 cf be 72 fc cc bc d5 72 86 be ad 50 7e be
       -0.40594187 -0.025022719 -0.26259485 -0.24835463
0001d0 96 6c 8d be 03 ce 82 bf 76 24 5c 3e da 42 64 bd
       -0.27621907 -1.021912 0.21498284 -0.055727817
0001e0 bc 4c 41 3f 66 fe 3d 3e 08 b2 1b 3d fd ea 27 3d
       0.7550771 0.18554077 0.03801158 0.040995587
0001f0 5c c9 43 be 3a 47 94 bd 48 6e d7 3c 3c c2 e4 3d
       -0.19119781 -0.07240148 0.026297703 0.1116986
000200 27 ad ab bd 68 ae 0b bd e4 f5 0f be 46 bb 80 bf
       -0.083826356 -0.034101874 -0.14058644 -1.0057151
000210 e4 9f 9e bd ac 74 b3 bd 3d 8f 9a be b6 37 b5 bc
       -0.077453405 -0.08762488 -0.30187407 -0.022121292
000220 10 e5 87 3e de 4b 03 3a 23 8a 06 bf e7 0b a1 be
       0.26541948 0.00050085585 -0.5255453 -0.31454393
000230 50 4d b9 3d 34 ed a8 3c 01 23 fe bd c3 c6 87 bd
       0.09047949 0.02062092 -0.1240902 -0.06629708
000240 4e 31 90 bd 94 85 4a 3e 7f 78 57 3d 86 71 cd bd
       -0.07040654 0.19777519 0.05260515 -0.100314185
000250 cd 4e a5 bd b9 09 69 bd 66 2a 67 3f 00 58 c0 3a
       -0.08071671 -0.056894038 0.9029907 0.0014674664
000260 ea 11 61 bf dc 36 0e be 88 bf 0e bd 54 db d7 bd
       -0.8791796 -0.13888115 -0.034850627 -0.105398804
000270 e9 e3 1c 3b 3b 52 20 be 0e 5b 7e bd 2f ec 88 bd
       0.0023939556 -0.15656368 -0.062098555 -0.066856734
000280 9a 28 4a 3d 67 be 1b bb 21 de ba 3e d3 73 43 3d
       0.049355127 -0.0023764612 0.36497596 0.04771788
000290 fd 31 93 bd 78 d1 c2 be 48 77 e5 bd 67 89 27 bd
       -0.07187269 -0.38050437 -0.11204392 -0.04090252
0002a0 0d 01 0e be f9 02 35 be 38 53 1d bd 40 69 2a bd
       -0.13867588 -0.17676915 -0.03840944 -0.04160428
0002b0 af dc d7 bd 66 e5 3c 3d 22 0a bc 3d 53 64 f0 bd
       -0.10540139 0.04611721 0.0918162 -0.11737885
0002c0 0b 43 e7 bd 38 f6 96 3d b1 71 c8 ba ce 23 cf bd
       -0.11292084 0.07371181 -0.0015292672 -0.10114251
0002d0 c6 da 58 3d 06 06 87 be 23 ec 42 be ef 05 6d bd
       0.052943014 -0.26371783 -0.19035392 -0.057866987
0002e0 9c 79 01 be 9e 6b 1e 3f a5 85 2c 3d a5 81 a2 3d
       -0.12644047 0.6188296 0.04211964 0.07934884
0002f0 91 bc 0d bd d3 87 b1 bd 6f 26 5e bd 1c 1e 89 bf
       -0.03460366 -0.086684845 -0.054235872 -1.0712314
000300 8c 5c 63 bd a1 65 4a 3d 36 c4 7b 3d cf 1a 58 bd
       -0.05550818 0.049413327 0.06146642 -0.05275994
000310 d5 e3 d3 be be 83 1d 3d 90 fb f5 3b 78 e0 e7 3d
       -0.4138476 0.038455717 0.007506795 0.11322111
000320 8b 04 14 3d 99 97 f0 be 56 78 f9 be 2d 9a 64 3d
       0.036137145 -0.4699066 -0.48724622 0.055811096
000330 0d e7 99 bd 70 3d af be 46 81 75 bd 17 a9 c4 3d
       -0.075147726 -0.3422656 -0.059937738 0.09602564
000340 ba 71 f8 be f7 ff 12 3d 7e 47 1f 3e d3 d4 b3 3d
       -0.48524266 0.03588864 0.15554616 0.087808274
000350 a4 41 09 bd e8 d4 0e 3d a0 45 9b be 05 42 30 be
       -0.033509865 0.034871012 -0.30326557 -0.17212684
000360 a4 fa 98 bd 21 27 e7 3d 79 c6 1e bc aa f9 1b 3c
       -0.07469681 0.1128676 -0.009690874 0.009519974
000370 e4 0e 69 3d ee 93 82 be 7e 40 99 be f1 92 a2 3c
       0.056898966 -0.25503486 -0.29932016 0.019845458
000380 27 7c ef 3c 3b 24 bb 3c 62 0b 9e 3e 4b 6e 17 be
       0.029234005 0.022844424 0.3086806 -0.14788167
000390 2c de 9e bc 67 63 4d be 06 c8 13 bc 30 33 90 be
       -0.01939305 -0.2005745 -0.009019857 -0.28164053
0003a0 35 e2 9b be 00 a8 c9 39 81 c4 31 be f6 e4 30 be
       -0.3044602 0.00038462877 -0.17360117 -0.17274842
0003b0 ed a3 e8 bc 18 66 8a bd 68 d6 8f bc ce 70 7d 3d
       -0.028398478 -0.06757754 -0.017558292 0.061875157
0003c0 c2 2f a1 be 1d 59 9a bd 56 10 2c be 1d a6 99 bc
       -0.3148175 -0.07536528 -0.16803107 -0.018755967
0003d0 c7 cc cb bd 2d f2 59 be 17 50 1b bf e1 1d de ba
       -0.099511676 -0.21283789 -0.6066908 -0.001694616
0003e0 0d 7c 2f be 2f d7 38 bd 74 92 86 bd 7f 9b b1 3d
       -0.17137165 -0.04512709 -0.065709025 0.08672237
0003f0 56 7c c9 bd 5c ad cc bc 54 4b 87 bc f3 d0 9a be
       -0.09838168 -0.024985008 -0.016515411 -0.3023754

value.0.bias f4 [64]
000000 2c 39 c5 bf 47 73 8f bf e5 f4 76 3f 4c 8a a0 bf
       -1.5408072 -1.1207055 0.9646743 -1.2542205
000010 97 60 34 40 9e e9 c4 3d 1e 65 5c be 51 8b 81 3e
       2.8183954 0.096148714 -0.21522948 0.25301602
000020 ab 7a fb 3d 09 1c 6e bf 7d 4d 1c 3f 87 81 41 bf
       0.122792564 -0.9301153 0.6105574 -0.7558827
000030 83 82 1b 3b 8b 75 3b 3f 39 74 37 3f 0c 3b 45 bd
       0.0023728914 0.7322623 0.71661717 -0.048152015
000040 36 3e 43 40 bb 97 61 40 29 40 1d 40 49 ac 12 bf
       3.050672 3.524886 2.457041 -0.57294136
000050 12 fb ca bf 94 f8 eb 3f 9e f4 02 3f f3 38 e7 3e
       -1.585787 1.8435235 0.51154506 0.45160636
000060 fe ed 16 3f ba b0 0a 40 36 92 27 bf 90 31 9a be
       0.589569 2.1670365 -0.65457475 -0.30115938
000070 fe 8a 44 bf 53 a5 6f be 70 8b 21 3e ab e3 7a bf
       -0.76774585 -0.2340291 0.15775847 -0.98003644
000080 e0 54 d4 3f 44 2d d4 be 82 31 d6 3f 5b 84 14 3f
       1.6588402 -0.41440785 1.6733859 0.5801446
000090 c9 e7 e5 bf f7 53 85 3f 54 b4 f6 be b8 d0 2f bf
       -1.796136 1.0416249 -0.48184454 -0.68677855
0000a0 c8 36 19 3f 34 85 12 c0 58 f0 8c 3e e8 c3 c3 be
       0.59849215 -2.28938 0.27527118 -0.38235402
0000b0 a1 f4 83 3f a6 db ab be fb 91 7c 3f b4 7f b0 be
       1.030903 -0.33566016 0.9866025 -0.3447243
0000c0 b4 1b 22 bf bd a3 38 3e c6 a0 b1 bf 61 b3 e9 3e
       -0.6332352 0.18031211 -1.3877189 0.45644668
0000d0 fe 77 e8 be 1a 2c 2e c0 39 12 0b bf c4 f2 2e bf
       -0.45404047 -2.7214417 -0.5432468 -0.6833918
0000e0 45 2b eb be 7d 03 c4 bf 69 15 ff be f7 a6 12 bf
       -0.4593145 -1.5313565 -0.49821022 -0.5728602
0000f0 b0 33 94 bf 12 73 26 c0 be b9 76 3e bc e3 e3 bf
       -1.1578274 -2.6007733 0.24094293 -1.7803874

value.2.weight f4 [1, 64]
000000 3b a0 f2 bf 7d 34 9f 3f 2b 1e c4 be ed ea e2 3f
       -1.8955148 1.2437893 -0.38304266 1.7727944
000010 92 ef e8 3f 49 a4 2b 3f 17 58 0f bd 36 11 00 bf
       1.8198111 0.67047554 -0.03499612 -0.5002626
000020 03 30 74 bf 3f e6 86 be a8 a0 fc 3e f6 dc b2 bd
       -0.9538576 -0.2634754 0.4934132 -0.08733551
000030 17 ea 38 3f 07 e4 eb be eb 7f 4b 3d b0 81 c3 3d
       0.7223219 -0.4607241 0.04968254 0.0954622
000040 cf 9e 96 3f 97 6b a8 3f 50 6b 21 40 70 36 37 3f
       1.1767215 1.3157834 2.5221748 0.7156744
000050 cd 48 f2 bf 58 69 02 40 2d eb c4 3e 83 ff 95 bf
       -1.8928467 2.0376797 0.38460675 -1.1718601
000060 a4 08 10 c0 68 76 78 3f 01 0e 6b be 86 d6 23 bf
       -2.2505274 0.97055674 -0.22954561 -0.6399921
000070 d4 f3 83 bb 9d 79 ee bc 42 27 ce 3d 0d 21 9a bf
       -0.0040268693 -0.029110724 0.100660816 -1.2041336
000080 05 09 8e 3f d9 bb fd 3e 96 7d 4e 3f f7 3f f7 3e
       1.1096503 0.4955738 0.8066038 0.4829099
000090 44 97 d0 be 15 2c 85 3f 55 31 20 c0 73 4b 99 bf
       -0.40740407 1.0404078 -2.503011 -1.197615
0000a0 96 2a 6c be 86 21 d0 bf 47 7c 43 be 24 7c a3 3f
       -0.2306312 -1.626023 -0.19090377 1.277226
0000b0 70 23 56 3f 9f 7d b7 bb 29 6c 66 3f 0a 68 9a 3c
       0.83647823 -0.005599692 0.9000879 0.018848438
0000c0 4d 32 6c be db bf 3d 3f 04 07 08 c0 43 1b 99 be
       -0.23066063 0.74120873 -2.1254282 -0.29903612
0000d0 2c b9 92 be 5a ec b7 bf 0d 54 40 3e 60 ab 6a bf
       -0.286569 -1.4369004 0.18782063 -0.9166775
0000e0 4e 86 1b bf 17 7e 2e 3f 44 71 80 be bf 22 4d 3f
       -0.6075181 0.6816115 -0.25086415 0.80131143
0000f0 86 24 79 3f 08 4f 09 c0 8a 47 87 bf 61 c3 45 bf
       0.97321355 -2.1454487 -1.0568707 -0.7725125

adv.0.weight f4 [64, 128]
000000 b2 67 46 be b2 63 82 3d 24 9a 23 3e da 72 21 3d
       -0.19375494 0.063666716 0.15976769 0.03941617
000010 ca b0 95 39 e9 67 4f 3b 26 07 ce be b4 81 c8 be
       0.00028551213 0.0031647629 -0.4023983 -0.39161456
000020 43 4d 50 3e 9f 29 64 3d 1f 0b 2d 3f dd 50 f0 bd
       0.20341973 0.055703755 0.67595094 -0.117341734
000030 2a 5f b8 be ee 52 47 bf d3 38 7c be 56 ab 7c bf
       -0.36010104 -0.77860916 -0.24631052 -0.9869894
000040 38 85 0f bd 6c ba aa be 1b bb 8e bd f1 5a 31 bd
       -0.035039157 -0.33345354 -0.06969281 -0.04329962
000050 17 5b c6 3c e9 d7 95 bd bb b6 45 bf bb 8a a2 3c
       0.024213357 -0.07316572 -0.7723195 0.019841542
000060 27 2e b3 be 1f 9f 2b 3a 8e 3d b3 bd 40 f9 4c be
       -0.3499615 0.0006546843 -0.08751975 -0.20016956
000070 f8 fb d5 3e b5 b8 5f be 0c 22 1c bc 48 01 14 bd
       0.417938 -0.21847804 -0.009529602 -0.036134034
000080 92 f4 ab 3c 9d f1 95 bf 6c 31 25 be 59 09 12 bf
       0.020990644 -1.171436 -0.16132134 -0.57045513
000090 1a 60 c4 bf 56 f4 33 bf bb be 69 bf 45 46 82 be
       -1.5341828 -0.702947 -0.91306657 -0.25444236
0000a0 9d 86 c1 bd 04 25 c6 bd e4 dc 9f be ee 66 54 bd
       -0.094495036 -0.09675029 -0.31223214 -0.051855974
0000b0 39 c8 f8 be 51 28 9c 3d 8e 83 12 bf 11 78 8c be
       -0.48590258 0.07624877 -0.57231987 -0.27435353
0000c0 ff fe a1 3c 4d 44 7a bf 97 39 95 be bb 1a 03 bf
       0.019774912 -0.9776047 -0.291455 -0.5121266
0000d0 f8 ad 8c 3d 30 66 a2 be a9 54 1f be 49 16 31 3e
       0.068691194 -0.31718588 -0.15559639 0.17293657
0000e0 e7 2a c2 3e 8e 89 4e 3f a6 84 06 bf 4c 3c 4d bd
       0.37923357 0.8067864 -0.52546155 -0.05010633
0000f0 9e 0a 90 bd 22 56 84 bd b7 0d 67 bd 22 0f 82 bf
       -0.07033275 -0.06461741 -0.056409564 -1.0160868
000100 2b 58 5d bf cc 40 01 3e 00 df 6b 3c 0d 49 5c 3d
       -0.8646266 0.12622374 0.014396429 0.053780604
000110 6f 87 2f bf 61 1f 95 bd 19 47 89 bd 64 bf 7d bd
       -0.6856603 -0.07281376 -0.06703014 -0.061950102
000120 4d 9b b3 bf 25 ac 40 bf a4 64 6d bf 97 e4 c8 3c
       -1.4031769 -0.7526267 -0.9273169 0.024523063
000130 2b d6 a4 bc a1 16 26 bf 5a 07 9c 3e d2 e5 67 3e
       -0.020121654 -0.6487828 0.3047436 0.22646263
000140 95 00 ce 3d 5a f5 8a be 7e ba 85 3f 91 ef 20 bd
       0.10058705 -0.27140313 1.0447538 -0.03929097
000150 e2 c2 65 3d 17 0c 89 bd 66 49 f1 be e2 a6 8d bf
       0.056094058 -0.06691759 -0.4712631 -1.1066554
000160 c8 a7 43 bf 80 d3 e2 be a2 df b5 3a a1 2b ca c0
       -0.7642789 -0.44301987 0.0013875852 -6.317826
000170 30 a4 67 be 51 6f d4 be e0 fc 26 3e fb e2 81 be
       -0.22621226 -0.41491178 0.16307402 -0.25368485
000180 5b f3 32 bd 4e 75 fc be e1 c8 6a bf 3e 60 5e bf
       -0.043689113 -0.49308246 -0.91712767 -0.86865604
000190 1b 2f 59 3f 8b 92 99 3f 7f bb 8e bd 44 34 53 bf
       0.848375 1.1997846 -0.06969356 -0.82501626
0001a0 b0 86 87 bf b4 6d 84 bd b3 c2 6e 3e 19 40 f0 3c
       -1.0587978 -0.06466237 0.2331646 0.02932744
0001b0 8d 15 0e be 94 35 9b 3d 68 c7 25 3c 34 51 60 bd
       -0.13875408 0.075785786 0.010118343 -0.05476494
0001c0 3a 0d 6f bf cc 87 9e bd fd a7 86 be d8 c4 d7 bd
       -0.9337956 -0.07740745 -0.2630004 -0.10535592
0001d0 76 46 ac bf da bf ec 3d e4 d9 81 bd b2 d9 cd bc
       -1.3459003 0.1156003 -0.063403875 -0.02512822
0001e0 0d d0 b5 be 00 94 a1 be 4b 9c 7e bb 65 a5 f7 3c
       -0.35510293 -0.31558228 -0.0038850482 0.030230233
0001f0 47 88 65 be 10 b6 e9 bb 6c a7 aa bd 38 b5 d9 be
       -0.22415267 -0.0071322992 -0.083327144 -0.4252107
000200 44 47 a0 bd a6 fc 21 3f fe 3b a9 be d2 ad aa bf
       -0.07826093 0.63276136 -0.33053583 -1.3334296
000210 81 bf 07 bd 2a a2 47 bd a4 9d fd bd 6c 62 bb be
       -0.033141617 -0.048738636 -0.12383583 -0.36598527
000220 fb 8d 6d bd 48 ae c1 bd 32 1d f0 be bd 92 92 be
       -0.05799673 -0.0945707 -0.46897274 -0.28627577
000230 68 46 04 be 6e d3 1c be cc e3 7b be 74 79 99 be
       -0.12917483 -0.15315029 -0.24598616 -0.29975474
000240 d2 ac 76 3d 4b 3a 60 bf fc 03 16 bd c4 17 22 bf
       0.060223408 -0.8758895 -0.036624894 -0.63317513
000250 89 53 c5 bd 3e d2 b0 bd 70 95 18 3f 08 1c 4a bc
       -0.09635074 -0.086338505 0.59603024 -0.012335785
000260 6b 04 2d bd 29 76 9c 3d 15 89 9a 3c 7f ec 9d be
       -0.04224054 0.07639725 0.018864194 -0.30844495
000270 38 0c c2 be d5 78 c5 bd 66 65 2c 3d e5 5b b6 3d
       -0.37899947 -0.096421875 0.04208889 0.08904246
000280 88 19 07 bd f2 63 3c bf 2d 1e 43 bf 85 41 95 3c
       -0.032983333 -0.73590004 -0.7621792 0.018219719
000290 91 67 b5 bd 3d c4 57 bd 1f 11 69 bf 97 95 fd bd
       -0.08857644 -0.05267738 -0.9104175 -0.123820476
0002a0 4d 59 6a 3d eb c1 d0 bd d8 0c 33 be 2c 13 bc 3c
       0.05721407 -0.10193237 -0.17485368 0.02295836
0002b0 68 87 f5 bd 49 23 4a bd c1 be 96 bd 7c ff 22 be
       -0.11988717 -0.049350057 -0.07360602 -0.15917772
0002c0 05 d8 54 3e 1b 0e 3b 3b f6 56 49 3f b6 e8 dc be
       0.2078553 0.0028542343 0.78648317 -0.43146294
0002d0 73 0d 8a bc b8 d8 98 3e cd d2 9f 3d 07 7b 6c 3e
       -0.016852116 0.29852843 0.07803879 0.23093806
0002e0 fe 67 ad bd ed 06 42 3e 4b 7c f2 3e 39 f6 a6 bd
       -0.084671006 0.18947954 0.47360453 -0.08152432
0002f0 a6 e9 49 3d db e0 93 bd a0 ff a8 3b 5d b6 87 be
       0.04929509 -0.07220622 0.005157426 -0.2650632
000300 3a c2 b2 3d 00 e3 ae b9 57 af 7b 3d 28 9e 43 3c
       0.08728452 -0.00033356994 0.061446514 0.011939563
000310 bb 20 72 bf ec 3a 71 3d 7f f7 6a bd bf 76 76 3c
       -0.9458119 0.058894083 -0.057364937 0.01504296
000320 56 d9 64 be 96 b1 8c 3c f8 4b 41 be 42 85 39 3d
       -0.22348532 0.017174523 -0.18876636 0.0452931
000330 03 2d 44 bd 46 2b d6 be ea ea bf 3e 26 18 9b 3e
       -0.04789449 -0.4182989 0.37483913 0.3029186
000340 e0 62 27 bc c8 87 47 be 51 a5 51 3f 88 1f 8f bc
       -0.010216445 -0.1948539 0.8189288 -0.01747109
000350 c3 5d 9d 3d 6a 72 f9 bc 2f e8 32 bf 6b 7b 9e be
       0.07683899 -0.030450065 -0.69885534 -0.30953535
000360 69 9c 92 3d 01 af c0 be 0a 3e 4b 3d d9 b4 15 bf
       0.07158739 -0.37633517 0.049619712 -0.58479077
000370 1a 5e 02 be 1d e7 da be ec 3c 41 3e c4 f4 99 bc
       -0.1273121 -0.4275445 0.18870896 -0.018793471
000380 a3 d3 69 bd 99 96 f6 3d e8 4d d5 3e 2e 51 58 bf
       -0.057086598 0.12040443 0.41661 -0.8449887
000390 ec d8 70 3e 23 03 9d be 23 40 aa 3c c3 43 54 bf
       0.23520249 -0.30666456 0.020782536 -0.82915896
0003a0 2e 78 94 bf 8d 8d 7d bd 43 1f b2 be 85 fc f2 be
       -1.1599176 -0.06190257 -0.34789476 -0.47458282
0003b0 ea 93 38 bf 70 7a d2 bc 80 c2 e7 ba 6a 0f 68 3d
       -0.721007 -0.025693148 -0.0017681867 0.056655325
0003c0 38 c1 80 be 54 89 ab bd 9d 53 f1 bd 5d a5 ef bd
       -0.25147414 -0.08375803 -0.11783526 -0.117014624
0003d0 04 d0 9d 3e 6b 6f 47 3e 64 98 2b be 45 58 93 bd
       0.30822766 0.19476096 -0.16757351 -0.071945705
0003e0 6d c0 b5 3c 1e fa 65 bd de 80 66 bd 78 8d 06 bd
       0.022186482 -0.056146733 -0.05627524 -0.03284976
0003f0 15 6f 86 bd 3b 04 a4 3d f0 53 99 3b 0e 70 06 3e
       -0.06564156 0.080086194 0.0046791956 0.13128683

adv.0.bias f4 [64]
000000 92 e1 d9 bf 5a b4 db bf 75 af 07 bf 94 0c 59 bf
       -1.7021964 -1.7164414 -0.530021 -0.8478482
000010 6d b9 b8 bf 74 b5 62 bf 34 6b c6 bf d5 25 fd bf
       -1.4431587 -0.88558125 -1.5501466 -1.977717
000020 98 d0 39 bf 65 2f 43 bf a3 40 98 be ec 26 a4 bf
       -0.72583914 -0.76244193 -0.29736814 -1.2824378
000030 c5 81 ea be 9d 6b a1 be 30 54 7c bf 4f cb c2 bf
       -0.4580213 -0.31527415 -0.9856596 -1.5218295
000040 ff cf c9 be a1 75 05 c0 a0 88 5f bf 29 f8 b6 bf
       -0.394165 -2.0853045 -0.8731785 -1.4294482
000050 13 eb c4 bc 0d b4 92 be 1e 47 25 bf d1 ad 05 c0
       -0.024037873 -0.28652993 -0.6456164 -2.088734
000060 cb 97 c0 be 88 1e 28 bf cd b9 d3 be 65 bb fe be
       -0.3761581 -0.65671587 -0.41352692 -0.49752346
000070 5b 85 02 bf 3a bc 31 bf f4 e5 41 c0 ea 87 42 bf
       -0.50984734 -0.69427836 -3.0296602 -0.7598864
000080 20 97 a6 3e ff 33 89 be 93 12 9e be 2b dd 04 c0
       0.32537174 -0.26797482 -0.30873546 -2.075999
000090 c8 e3 c7 bf 44 35 0e bf 2f 8b e6 3c 1a b8 b7 be
       -1.5616388 -0.55550027 0.02814254 -0.35882646
0000a0 91 5f 3b bf ec d6 4c be a1 c4 b0 bf 91 d4 3a be
       -0.731927 -0.20003861 -1.3810006 -0.1824515
0000b0 7b 16 0f bf f2 eb 10 3e c5 00 bb bf 44 39 b5 bf
       -0.5589368 0.14152506 -1.460961 -1.4158101
0000c0 e0 1f de bf 4b 25 8f 3d f9 3d 74 3e 22 23 a0 be
       -1.7353477 0.06989535 0.23851766 -0.31276804
0000d0 f5 0d 58 bf ee 1c cf bf 01 8f 05 bf 4b f1 ab be
       -0.84396297 -1.6180704 -0.5217133 -0.3358253
0000e0 0a 29 39 bf a7 56 06 c0 47 c7 09 bf 72 d7 c3 be
       -0.72328246 -2.0990388 -0.538197 -0.3825031
0000f0 97 17 3d 3e 6c be 88 be d6 47 f2 3c 35 a9 02 bf
       0.1846603 -0.2670778 0.02957527 -0.5103944

adv.2.weight f4 [2, 64]
000000 28 77 05 c0 51 9e 7c 3f e6 dc 12 c0 43 1c bf be
       -2.0853977 0.9867907 -2.2947326 -0.3732625
000010 d6 01 72 be c7 eb de 3b 7e 8d 6d 3f 98 9c 04 c0
       -0.23633513 0.006803009 0.92794025 -2.0720577
000020 20 36 be 3e ad 64 88 3f b9 15 48 bd d3 4f ba bf
       0.3715067 1.0655724 -0.04884884 -1.455561
000030 94 c7 5f 3f fe 13 cf 3e ae af 64 bf c7 99 3c bf
       0.8741391 0.4044494 -0.89330566 -0.73672146
000040 5b 9f 7c be dc 05 60 bf e7 a5 0a bf a2 1a 42 3f
       -0.24670164 -0.8750894 -0.54159397 0.7582189
000050 a1 d5 6c bf 4e f4 19 3f eb e7 42 3f 25 a1 4f bf
       -0.9251347 0.60138404 0.7613513 -0.8110526
000060 62 83 37 bf 30 f0 90 be dd dd 30 be 40 36 11 3f
       -0.7168485 -0.2830825 -0.17272134 0.56723404
000070 6f e7 39 3f bf 49 82 bf 34 e6 6c bf be de 40 3e
       0.72618765 -1.0178756 -0.9253876 0.1883497
000080 3c 5e 9d bf b4 4e 04 3d 34 27 de be 8b b9 bb 3f
       -1.2294383 0.03230162 -0.43389285 1.4665998
000090 e5 ec f6 bf 19 40 f8 3f 6e 80 16 3f b1 22 31 3f
       -1.9291044 1.9394561 0.5878972 0.6919356
0000a0 e4 b5 d5 3e d8 89 83 bd 8a 4d a1 bf be 2d 59 3d
       0.41740334 -0.06422776 -1.2601788 0.05302214
0000b0 dd 61 11 bf c9 e4 04 3f a7 a1 28 bf 06 04 02 40
       -0.5678995 0.519116 -0.6587166 2.0314956
0000c0 d8 11 4f c0 0d 29 b5 3f 32 1f 56 3f 27 a6 15 3d
       -3.235464 1.4153153 0.8364135 0.03653541
0000d0 18 5e cc be 8c 93 72 3f 86 9c aa 3e 60 0f da bd
       -0.39915538 0.9475639 0.33322543 -0.10647464
0000e0 e9 82 11 3f 2a b5 ae 3f 83 9e 43 bf 62 15 28 3e
       0.5684038 1.3649037 -0.76413745 0.16414407
0000f0 ea 53 8d bf 9b 15 05 be 61 5b 69 be 4a 8f 6e bf
       -1.1041234 -0.12996523 -0.22788765 -0.9318739
000100 dc 45 01 40 25 89 78 bf c4 ef 16 40 d7 35 99 3e
       2.0198889 -0.97084266 2.3583841 0.2992389
000110 5c 5c 9b 3e e2 4a 2d 3d e2 50 6d bf ea 89 09 40
       0.30343902 0.042307742 -0.9270154 2.1490426
000120 67 8e 3d be 17 96 84 bf ee d2 c1 bd ed a6 ab 3f
       -0.18511353 -1.0358304 -0.0946406 1.3410317
000130 98 4b 55 bf 16 03 a0 be 82 a2 44 3f 73 dd 1f 3f
       -0.8331847 -0.31252354 0.7681047 0.6244728
000140 79 c4 2d 3e a4 d8 71 3f 88 f9 d1 3e 5f fb 54 bf
       0.1696948 0.9447119 0.4101069 -0.8319606
000150 a7 2f 40 3f 6c 37 31 bf c9 57 4a bf 9d 1a 48 3f
       0.7507271 -0.6922519 -0.790402 0.7816561
000160 ac fa 42 3f 6f f6 7a 3e 8e 46 26 bd 22 57 24 bf
       0.76163745 0.2450807 -0.04059463 -0.64195454
000170 99 ce 2a bf d6 bc 80 3f 11 fe 47 3f f9 6b b1 be
       -0.66721493 1.0057628 0.7812205 -0.3465269
000180 3a 32 9a 3f a6 95 2b 3d 4e 45 b2 3e 2b 18 b2 bf
       1.2046578 0.041890763 0.348185 -1.3913625
000190 1f 05 ea 3f 57 0b 03 c0 c8 bc 30 bf 9b cf 20 bf
       1.8282813 -2.0475671 -0.6903806 -0.6281678
0001a0 5c 6e cc be 97 e4 7e 3d 62 f7 9d 3f 3b ed 08 3d
       -0.39927948 0.06222972 1.234112 0.033429366
0001b0 73 55 e1 3e 2e 81 f9 be 4f d2 3c 3f 91 86 01 c0
       0.44010505 -0.4873137 0.73758405 -2.0238383
0001c0 92 f9 50 40 a5 3c a5 bf 24 b5 60 bf c0 d0 13 bc
       3.2652326 -1.2909132 -0.877764 -0.009021938
0001d0 ba 17 d8 3e 5f c8 89 bf 38 9c be be cb b6 c2 3d
       0.42205602 -1.0764273 -0.3722856 0.09507521
0001e0 31 a6 22 bf a6 4f b1 bf c7 84 3e 3f a0 f4 05 be
       -0.6353484 -1.3852432 0.7442135 -0.13081598
0001f0 8e cc 7e 3f 05 27 4a 3e 2d c8 6a 3e e0 84 80 3f
       0.99530876 0.19741447 0.22927924 1.004055

adv.2.bias f4 [2]
000000 7f 97 f1 3d 73 91 88 be
       0.11796474 -0.2667347
