dqn_tuned2.pt (torch, 146421 bytes, 11 tensors)

feature.0.weight f4 [128, 16]
1.1082995 -0.8584887 -0.6126993 -0.75435257 -3.0241172 0.6960388 1.1649506 0.7773395
0.77439755 0.7109501 -0.65797913 -0.8122405 -0.034687076 0.35303465 2.3943942 -1.2507821
0.2622781 -0.092764765 -0.45076746 -0.24697185 0.33766183 0.2307111 0.6360716 0.4918589
-0.8516154 -0.4913356 -0.23071589 -0.6016833 -0.354551 -0.39481002 0.23832062 -0.5129676
-0.4633471 0.32853052 0.2634885 0.103050455 -0.22038287 0.13936225 0.2281056 0.36978024
0.13650592 0.1458803 0.9211105 0.8421295 0.17327596 -0.44890183 -0.43929756 -0.5669177
0.25402492 0.51912206 0.6270667 0.8518655 1.4028618 -0.6296989 -0.21494794 -0.23154622
1.0945271 1.1764462 0.35845146 0.14339313 0.5903948 -0.9930481 0.30990335 -0.6683483
0.5755431 -0.12237479 -0.108685985 0.17619197 1.2970741 -0.04677064 -0.1854046 0.14093404
0.9152166 0.7358251 -0.04213437 -0.04062208 0.26571923 -5.6404743 0.5587648 0.10078625
0.5865478 0.34122038 0.083623804 0.21057129 -2.2721899 0.83284044 0.9539754 1.0867156
-0.7942912 -0.7022101 0.2947647 0.40792418 0.3335258 0.29395464 1.2591895 -0.5435912
0.47086078 -0.35400483 -0.22472577 -0.1364873 -0.30885896 -0.030703487 0.13813436 0.14838424
0.18233955 0.1910646 0.32630208 0.1228284 0.18750198 -0.56177187 0.12550151 -0.64628595
0.6344639 -0.17677605 -0.09276131 -0.1044434 -1.9623663 -0.55145913 -0.58763224 -0.572038
0.6328544 0.93140525 -0.95539093 -1.1378622 -1.0549831 -0.967551 -1.1832569 0.21493885
-3.000588 -0.31850362 -0.26998413 -0.43486887 1.5189259 -2.8265245 -3.1446745 -3.0788958
0.4647451 0.49104783 0.74929047 0.81336135 -0.40019873 0.39339426 0.5366187 0.015002738
-1.7393384 1.0290774 0.8589826 0.95452684 1.5202956 -0.34879512 -0.3308131 -0.31495547
0.33350018 0.15092427 -0.021944612 -0.3126323 0.67283124 -0.22221504 -0.057843484 -0.24586666
1.289083 -0.98872143 -0.91768426 -1.249463 -0.32195625 -0.51177585 -0.4553519 -0.3598439
0.21137469 0.14143904 -0.45424047 -0.5346606 -0.14603862 -1.376952 -0.7662596 0.030401517
-0.19935414 -0.025760205 -0.12566449 -0.034286104 1.7337115 0.22356185 0.12364061 -0.051916093
-0.36120415 -0.52843 -0.13007611 -0.12635738 0.3404348 -2.522161 0.6851147 -0.12093049
-0.5916876 0.54593545 0.4203277 0.60888994 -3.1479213 -0.39688677 -0.604326 -0.5893065
0.18811148 0.16088817 0.5344568 0.33283797 0.70693403 -0.11305094 0.592436 -0.8379113
-0.513519 1.2011065 0.98344564 0.72989213 1.2856829 -0.17149086 0.0565845 -0.12665929
-0.1577089 0.029076621 1.3883876 1.6059655 0.87210613 -0.44633234 -0.4407639 0.09806781
-0.6642456 0.6445211 0.41779745 0.42774576 -0.7252787 -0.4100823 -0.7087668 -0.5561854
-0.9757181 -1.0668923 0.82101065 0.95765144 0.45557058 -0.46528652 0.4191226 -0.082112655
1.656729 -0.09909064 0.016534042 0.05481367 -2.7083185 0.59794754 0.7922683 0.61878794
0.7519126 0.9295987 -1.0990506 -0.9416356 0.7008303 -0.1454511 0.062446076 -0.18352723
00000000: c2dc 8d3f eac5 5bbf dcd9 1cbf 401d 41bf
00000010: 238b 41c0 992f 323f 1a1d 953f b9ff 463f
00000020: eb3e 463f d300 363f 5271 28bf feee 4fbf
00000030: 0914 0ebd f5c0 b43e c13d 1940 a119 a0bf
00000040: 5149 863e 74fb bdbd feca e6be 30e6 7cbe
00000050: 03e2 ac3e 883f 6c3e 97d5 223f eed4 fb3e
00000060: 7803 5abf 5790 fbbe c940 6cbe eb07 1abf
00000070: b587 b5be 8a24 cabe 520a 743e d851 03bf
00000080: d53b edbe 2735 a83e f7e7 863e 1e0c d33d
00000090: 0cac 61be fab4 0e3e 8494 693e d653 bd3e
000000a0: 35c8 0b3e a561 153e e6cd 6b3f cd95 573f
000000b0: 416f 313e 76d6 e5be 9ceb e0be 8521 11bf
000000c0: 8e0f 823e 2fe5 043f 7187 203f db13 5a3f
000000d0: fa90 b33f f233 21bf 501b 5cbe 741a 6dbe
000000e0: 7719 8c3f ca95 963f f386 b73e a6d5 123e
000000f0: 1d24 173f 6638 7ebf a7ab 9e3e e018 2bbf
00000100: cb56 133f a29f fabd c296 debd ab6b 343e
00000110: 8606 a63f 9292 3fbd b4da 3dbe 0351 103e
00000120: a34b 6a3f 095f 3c3f 1795 2cbd 5763 26bd
00000130: 5a0c 883e c47e b4c0 360b 0f3f 0569 ce3d
00000140: ff27 163f 70b4 ae3e f542 ab3d 00a0 573e
00000150: 8f6b 11c0 0835 553f bb37 743f 7f19 8b3f
00000160: ab56 4bbf 0bc4 33bf 66eb 963e 70db d03e
00000170: e5c3 aa3e 3981 963e 1f2d a13f cb28 0bbf
00000180: aa14 f13e 1f40 b5be 831e 66be 54c3 0bbe
00000190: c322 9ebe e185 fbbc 1873 0d3e 0af2 173e
000001a0: 38b7 3a3e 70a6 433e 1111 a73e 758d fb3d
000001b0: 8500 403e 48d0 0fbf 7883 003e ff72 25bf
000001c0: 3a6c 223f c804 35be a4f9 bdbd 6ce6 d5bd
000001d0: d22e fbbf 6d2c 0dbf 116f 16bf 1571 12bf
000001e0: bf02 223f 9370 6e3f 8094 74bf 78a5 91bf
000001f0: b009 87bf 6cb1 77bf f674 97bf ee18 5c3e
00000200: a209 40c0 e812 a3be 5c3b 8abe 22a7 debe
00000210: 2a6c c23f c7e5 34c0 5942 49c0 a10c 45c0
00000220: 12f3 ed3e 9f6a fb3e 80d1 3f3f 7338 503f
00000230: d9e6 ccbe f96a c93e d85f 093f 0bce 753c
00000240: a4a2 debf cfb8 833f 49e6 5b3f df5b 743f
00000250: 0c99 c23f 4695 b2be 5660 a9be d841 a1be
00000260: 89c0 aa3e e48b 1a3e 30c5 b3bc 5711 a0be
00000270: ab3e 2c3f 578c 63be 4aed 6cbd 78c4 7bbe
00000280: ac00 a53f d91c 7dbf 5bed 6abf 67ee 9fbf
00000290: 73d7 a4be be03 03bf e223 e9be 763d b8be
000002a0: 9b72 583e 65d5 103e 3592 e8be 84df 08bf
000002b0: 268b 15be f73f b0bf 9729 44bf 9a0c f93c
000002c0: 7e23 4cbe 1107 d3bc 31ae 00be 966f 0cbd
000002d0: 42ea dd3f 66ed 643e 4a37 fd3d f8a5 54bd
000002e0: c0ef b8be 3047 07bf ac32 05be d463 01be
000002f0: 784d ae3e 166b 21c0 ad63 2f3f 68aa f7bd
00000300: d778 17bf 6dc2 0b3f 3135 d73e 36e0 1b3f
00000310: 8b77 49c0 be34 cbbe 1cb5 1abf cadc 16bf
00000320: 4ca0 403e debf 243e 29d2 083f bd69 aa3e
00000330: a1f9 343f 4087 e7bd e3a9 173f 5b81 56bf
00000340: fb75 03bf dcbd 993f 18c3 7b3f 36da 3a3f
00000350: 4291 a43f 4d9b 2fbe 26c5 673d f9b2 01be
00000360: 717e 21be 1832 ee3c afb6 b13f 4790 cd3f
00000370: 5942 5f3f ac85 e4be ceab e1be c7d7 c83d
00000380: 000c 2abf 56ff 243f 8ce9 d53e 7e01 db3e
00000390: ddab 39bf 4ff6 d1be be71 35bf 2b62 0ebf
000003a0: a9c8 79bf ed8f 88bf c12d 523f a528 753f
000003b0: 8c40 e93e 093a eebe 3d97 d63e ae2a a8bd
000003c0: b20f d43f 09f0 cabd 6672 873c 4d84 603d
000003d0: 1755 2dc0 1713 193f 18d2 4a3f e368 1e3f
000003e0: 587d 403f 2efa 6d3f b1ad 8cbf 080f 71bf
000003f0: 9d69 333f 22f1 14be 75c7 7f3d 90ee 3bbe

feature.0.bias f4 [128]
-0.25443122 -0.25690484 -0.3521554 0.75378877 1.3758547 0.9552167 -0.53546876 1.0795869
1.0884024 -0.21945117 -0.49431527 1.32408 0.34595627 0.34358752 0.61503166 -2.3299403
-1.2929504 2.3434374 1.8913468 0.28341976 0.8438568 1.7514058 1.4992784 -0.4943407
-0.1853224 0.82670784 -0.05967486 -1.2973002 1.1935781 -0.6151068 1.0036997 -0.47415307
-0.38396022 -2.6302779 -1.0960801 -0.054799404 0.50821614 1.6013205 0.69970566 -0.030807052
-1.1302812 1.5830597 -0.62319946 1.4964098 -0.15457831 -0.50233 -2.655133 0.9099949
1.111423 -2.402574 0.4213613 -0.4603264 -0.6312559 -0.34891996 0.80304384 0.7872441
-0.072244436 -0.6673608 0.20377268 -0.30312636 -0.9413985 -0.010943979 0.23663555 0.8744126
-1.909314 -2.0442808 -1.3848768 -0.006760613 0.74296826 1.164062 0.11091673 1.0662327
-0.43250197 -0.95043415 -1.4707565 -1.8320651 0.98209244 -1.6737516 -2.196 0.6493207
-0.08552728 -1.8714032 0.30727983 -0.09613372 -0.43061677 -0.48730877 0.12105401 -0.5404376
-0.002977262 -1.2860821 -0.20343572 -0.87878186 -1.0860538 -0.584173 -0.68115 2.1714666
-0.26389912 -1.0705308 -0.11831229 -0.3843398 0.831854 -0.51417094 -3.281205 -0.94136757
-1.0991948 -0.9282875 0.4375521 0.4832245 0.15622261 -0.049572606 0.34085745 -1.3303677
-1.3299556 0.70069736 0.40935284 2.1129844 0.20431602 0.7335632 -0.03647393 1.0840861
-2.0556016 0.8987816 -1.0066757 -0.086623766 1.1265551 -0.5839541 0.931203 -1.3137968
00000000: cf44 82be 0889 83be b64d b4be 4df8 403f
00000010: 021c b03f 1589 743f 7b14 09bf e72f 8a3f
00000020: c550 8b3f cfb7 60be e416 fdbe 747b a93f
00000030: 2e21 b13e b4ea af3e b772 1d3f be1d 15c0
00000040: 667f a5bf e1fa 1540 a717 f23f 651c 913e
00000050: 0007 583f 112e e03f 5be8 bf3f 391a fdbe
00000060: 28c5 3dbe 20a3 533f a06d 74bd ef0d a6bf
00000070: 2bc7 983f a477 1dbf 3b79 803f 31c4 f2be
00000080: 6f96 c4be 7956 28c0 5a4c 8cbf 5775 60bd
00000090: 741a 023f 12f8 cc3f e91f 333f 125f fcbc
000000a0: 0ead 90bf b3a1 ca3f 008a 1fbf 5b8a bf3f
000000b0: c749 1ebe b398 00bf b3ed 29c0 6df5 683f
000000c0: 1c43 8e3f c6c3 19c0 abbc d73e e7af ebbe
000000d0: fd99 21bf a3a5 b2be 4894 4d3f d488 493f
000000e0: e4f4 93bd 28d8 2abf c9a9 503e 6133 9bbe
000000f0: 7eff 70bf 604e 33bc 9750 723e 81d9 5f3f
00000100: 6764 f4bf 7fd5 02c0 a543 b1bf 2288 ddbb
00000110: 2b33 3e3f fcff 943f 4f28 e33d 507a 883f
00000120: e670 ddbe a74f 73bf c041 bcbf 1c81 eabf
00000130: 696a 7b3f 7e3d d6bf 448b 0cc0 e239 263f
00000140: ed28 afbd 248a efbf c853 9d3e c1e1 c4bd
00000150: cd79 dcbe 8980 f9be 2aeb f73d 1e5a 0abf
00000160: 2b1e 43bb 579e a4bf 7451 50be d9f7 60bf
00000170: d003 8bbf 5d8c 15bf d95f 2ebf 4ff9 0a40
00000180: c91d 87be 2707 89bf b74d f2bd 30c8 c4be
00000190: 62f4 543f b5a0 03bf 43ff 51c0 77fd 70bf
000001a0: 6ab2 8cbf 40a4 6dbf d406 e03e 3469 f73e
000001b0: d2f8 1f3e a50c 4bbd de84 ae3e 7d49 aabf
000001c0: fc3b aabf e760 333f b296 d13e 233b 0740
000001d0: 3838 513e ccca 3b3f b065 15bd 55c3 8a3f
000001e0: fa8e 03c0 8d16 663f c0da 80bf cd67 b1bd
000001f0: f532 903f 047e 15bf 5263 6e3f 7e2a a8bf

feature.2.weight f4 [128, 128]
-0.09338464 -0.73840463 -0.08607707 0.052235182 -0.32052124 0.107265584 -0.05084001 -1.0493104
0.014400472 -0.25502914 -0.13442825 -0.26682165 0.13229808 -0.06505469 0.008498103 0.016453011
0.07871775 -0.071179554 0.65806407 -0.22346275 0.86733544 -0.23065974 -1.2925593 0.0036677523
-0.3495564 -0.02579384 0.013205148 0.02495326 0.031674787 -0.02055509 -0.5847603 0.2847209
0.11010006 -0.5261224 -0.21904118 -0.04450353 -0.08456904 -0.3191807 0.065991916 0.058600582
-0.12389717 -0.17735597 -0.2698775 -0.095417775 -0.041930288 -0.067002445 0.048158985 -0.16945659
-0.24292484 -0.0059328326 0.09976121 -0.3917703 0.05705829 0.037138265 -0.13084291 -0.076835155
-0.20765446 -0.6164577 0.13874982 -0.20440215 0.13191226 -0.048557837 -0.2046772 0.13604996
-0.17920774 -0.33252493 -0.113649204 0.011236724 -0.27781492 -0.23794782 -0.25095657 -0.8279694
0.1001651 -0.20572063 0.10610948 -0.51452583 -0.6860113 -0.28170854 -0.088201635 0.4184965
-0.30939516 -0.17654154 0.10104604 0.036083084 0.47272184 -0.3991026 -1.0392114 -0.6994636
-0.0024504175 0.3018158 0.14762251 -0.14333534 -0.87752515 -0.0788111 -0.17974721 0.5396865
-0.14168517 0.22518952 -0.20387924 -0.31008717 -0.14833966 0.16383246 0.019591697 -0.15283014
-0.5899729 -0.13243614 -0.56933 0.002712305 0.2477448 0.072204575 0.049159914 -0.76449263
-0.0011888699 -0.25765365 -1.0435365 0.018732084 -0.6084489 -0.23173705 -0.087910146 0.011324073
-0.26825395 -1.893974 -0.401663 0.1993233 0.71729153 -0.06400413 0.53673935 -0.04298082
-0.23944075 0.034838744 0.16265973 0.41305572 0.012365632 -0.18149014 -0.12248406 0.22225805
-0.6635618 -0.07936513 -0.42928216 0.18542269 -0.12385157 0.2111581 0.06395169 0.039898988
-0.0011485368 -0.16779807 -0.24098466 0.5038027 -0.14606169 -0.25299218 -0.24128346 -0.18034144
-0.29792362 -0.11781007 0.043886505 -0.1950237 -0.19789068 -0.57553416 -0.08457952 -0.07234506
-0.3068675 -0.3142762 -0.17739809 0.013824577 0.30069855 0.075133175 -0.40847364 -0.19025898
-0.15498725 -0.68989307 -0.124560796 -0.18019325 0.07464428 -1.3743101 0.16316472 -0.28130582
-0.062233612 0.03654982 0.18852651 -0.3518978 -0.0374411 0.02066953 -0.050550003 -0.074751414
-0.037163723 0.033345513 0.20327547 -0.099096306 -0.09432945 -0.008615151 -0.0791272 -0.020088702
0.12284973 0.4049598 -0.055259746 -0.077264726 0.4722397 -0.020794094 -0.33149767 0.05284295
-0.5549699 -0.042860534 -0.023088625 0.7413737 0.02531592 -0.028119413 0.09263665 -0.08645242
0.21405666 -0.9893445 -0.5578028 -0.01714273 0.3294921 -0.78011286 -0.3806419 -0.062172696
-0.038772754 -0.03264718 0.08872073 -0.03243109 0.77383995 -0.17384605 0.016378546 -0.18534529
-0.42902267 -0.5091787 -0.10486125 -0.5254516 -0.1733221 -0.8453429 0.096069016 0.114579126
-0.02866912 -0.25792944 -0.06719979 -0.41483453 0.122509405 0.076829396 -0.20128347 -0.034653578
-0.23952524 -0.14890265 -0.18541136 -0.21124789 0.13228394 0.07514092 -0.0050137267 -0.62023455
-0.24464041 0.15089326 -0.06795521 -0.7181296 -0.21513031 -0.8880812 -0.21059099 -0.513214
00000000: 7240 bfbd 1608 3dbf 2d49 b0bd 8ff4 553d
00000010: 5c1b a4be 0fae db3d 9d3d 50bd ce4f 86bf
00000020: f5ef 6b3c 2e93 82be 8fa7 09be d99c 88be
00000030: 2679 073e 653b 85bd a13b 0b3c 77c8 863c
00000040: c636 a13d 96c6 91bd e376 283f 6bd3 64be
00000050: b209 5e3f 1132 6cbe 9572 a5bf ac5e 703b
00000060: 0ef9 b2be 9a4d d3bc 685a 583c c76a cc3c
00000070: 6cbd 013d 2663 a8bc dab2 15bf f0c6 913e
00000080: 247c e13d f5af 06bf 554c 60be 5549 36bd
00000090: 8832 adbd a76b a3be c526 873d 2a07 703d
000000a0: cdbd fdbd ce9c 35be 622d 8abe 656a c3bd
000000b0: 18bf 2bbd 9438 89bd 5b42 453d 0786 2dbe
000000c0: 4ac1 78be 3568 c2bb 9b4f cc3d 1e96 c8be
000000d0: f4b5 693d 4b1e 183d affb 05be c05b 9dbd
000000e0: 5fa3 54be 2cd0 1dbf 6f14 0e3e cc4e 51be
000000f0: 0214 073e 95e4 46bd e696 51be ae50 0b3e
00000100: 3c82 37be b540 aabe eac0 e8bd 3d1a 383c
00000110: c23d 8ebe 98a8 73be 617d 80be cdf5 53bf
00000120: 5c23 cd3d 6ea8 52be ed4f d93d f7b7 03bf
00000130: 709e 2fbf 1a3c 90be 0fa3 b4bd 2c45 d63e
00000140: 0b69 9ebe 4ec7 34be 3af1 ce3d dbcb 133d
00000150: 9908 f23e 2d57 ccbe e104 85bf 0c10 33bf
00000160: 2f97 20bb 9a87 9a3e 5b2a 173e 80c6 12be
00000170: 7da5 60bf b767 a1bd a70f 38be e528 0a3f
00000180: eb15 11be 1598 663e b8c5 50be bfc3 9ebe
00000190: 5ae6 17be b2c3 273e c47e a03c 817f 1cbe
000001a0: 7708 17bf 579d 07be 9cbf 11bf edc0 313b
000001b0: d0b0 7d3e fedf 933d e85b 493d cab5 43bf
000001c0: dbd3 9bba 2eeb 83be 9b92 85bf 0774 993c
000001d0: 4fc3 1bbf 7a4c 6dbe 3c0a b4bd 9b88 393c
000001e0: 9558 89be bd6d f2bf c6a6 cdbe 681b 4c3e
000001f0: 6ba0 373f 9914 83bd c067 093f a80c 30bd
00000200: f52f 75be 12b3 0e3d 4690 263e 0a7c d33e
00000210: 3899 4a3c 8dd8 39be ecd8 fabd 9d97 633e
00000220: 30df 29bf 2f8a a2bd dfca dbbe 72df 3d3e
00000230: e4a5 fdbd d439 583e 1bf9 823d 1f6d 233d
00000240: 808a 96ba 42d3 2bbe afc4 76be 37f9 003f
00000250: 3291 15be 3188 81be 0313 77be 6dab 38be
00000260: 7289 98be 6846 f1bd 56c2 333d 4bb4 47be
00000270: dba3 4abe 3556 13bf 0738 adbd a629 94bd
00000280: bd1d 9dbe cfe8 a0be d8a7 35be 7b80 623c
00000290: 29f5 993e 6cdf 993d 7523 d1be 40d3 42be
000002a0: fab4 1ebe d59c 30bf bb19 ffbd 9484 38be
000002b0: 1adf 983d 65e9 afbf a714 273e 5107 90be
000002c0: ace8 7ebd 44b5 153d 180d 413e f32b b4be
000002d0: d75b 19bd 2553 a93c 850d 4fbd 4517 99bd
000002e0: fd38 18bd 4e95 083d 7227 503e 01f3 cabd
000002f0: cc2f c1bd 9026 0dbc 710d a2bd 1091 a4bc
00000300: a498 fb3d e456 cf3e 0b58 62bd f83c 9ebd
00000310: 67c9 f13e 6058 aabc 10ba a9be d971 583d
00000320: 8212 0ebf 878e 2fbd 5b24 bdbc abca 3d3f
00000330: 5563 cf3c af5a e6bc 49b8 bd3d f70d b1bd
00000340: ab31 5b3e ae45 7dbf 2acc 0ebf e96e 8cbc
00000350: 30b3 a83e 7ab5 47bf 7fe3 c2be cca8 7ebd
00000360: 2ed0 1ebd 0db9 05bd 37b3 b53d 76d6 04bd
00000370: 601a 463f b304 32be 4d2c 863c 28cb 3dbe
00000380: dca8 dbbe 8959 02bf 7fc1 d6bd ff83 06bf
00000390: 597b 31be 6468 58bf d5bf c43d 76a8 ea3d
000003a0: 81db eabc 540f 84be 0ba0 89bd 3165 d4be
000003b0: 36e6 fa3d bb58 9d3d 411d 4ebe e9f0 0dbd
000003c0: 1b46 75be f079 18be 7adc 3dbe 5e51 58be
000003d0: 7175 073e 7ce3 993d 304a a4bb b1c7 1ebf
000003e0: 0483 7abe c383 1a3e 1a2c 8bbd 57d7 37bf
000003f0: 1f4b 5cbe 4a59 63bf 2aa5 57be fe61 03bf

feature.2.bias f4 [128]
-0.15328655 -0.12775481 0.8729854 1.5875175 -0.004153181 -0.046955273 -0.024019863 0.62778765
0.24183643 -0.23268043 0.59072334 0.16186476 0.16258621 -0.41442734 -0.17728199 0.02552967
-0.019987252 -0.48035613 -0.043905653 1.1582156 -0.16984855 -0.14197178 -2.2337348 -0.12913992
-0.11064265 -0.12607688 -0.15392101 -0.36396495 -0.001011468 0.65226144 -0.16618372 0.3857346
-0.0024831968 0.48978296 0.16430229 -0.072629444 0.4043315 0.33334002 0.12929204 0.22242922
-0.12664878 0.074968934 -0.0030098269 -0.10817057 0.14139868 -0.15102321 -0.32749528 0.034916956
-2.308483 -0.31513366 -1.6127068 -0.82946557 -0.069117606 0.4055406 0.07710834 0.36779732
-0.04913053 -0.39611724 0.098731324 -0.16705444 -0.051884793 -0.048368182 -0.04240409 1.0603242
0.22522907 -0.11726994 -0.18838051 -0.07414852 -0.19082695 -0.007174214 -0.14751329 -0.15613331
0.22824982 -0.6669211 0.2897462 -0.052378643 -0.13751566 0.03340966 0.30572447 -0.14277178
0.57578886 0.20844693 -0.44496512 -0.07667254 -0.105016 -0.08145829 0.4616187 0.25233746
-0.23272428 -0.57682925 -0.039967693 0.2675043 -0.04049736 0.90705657 -0.94268864 -0.029360449
-0.15559703 -0.1128697 0.27025446 0.6281251 -0.05082536 -0.5517446 0.69927686 0.59030765
1.1485511 -0.11676435 0.38984087 -0.16674547 0.54602176 0.0044070096 -0.05678851 -0.1467047
0.6331015 -0.12163355 -0.4562337 0.024265338 0.25022456 0.13504647 0.55682176 -0.0043560723
-0.04511398 0.44702792 -0.08259655 -0.095884845 0.19315511 -0.1437027 -0.0079241535 -0.2775162
00000000: 26f7 1cbe 28d2 02be f97b 5f3f c633 cb3f
00000010: 6817 88bb 2c54 40bd 4ec5 c4bc b1b6 203f
00000020: f8a3 773e c743 6ebe a539 173f e0bf 253e
00000030: 007d 263e d22f d4be 6989 35be 9923 d13c
00000040: 4ebc a3bc 3df1 f5be 6ad6 33bd 6940 943f
00000050: c7ec 2dbe 0d61 11be 83f5 0ec0 413d 04be
00000060: 9d98 e2bd 4c1a 01be 789d 1dbe 9d59 babe
00000070: 3c93 84ba 9bfa 263f 112c 2abe 017f c53e
00000080: 21bd 22bb d5c4 fa3e dc3e 283e bfbe 94bd
00000090: 8a04 cf3e 8bab aa3e 2265 043e 7cc4 633e
000000a0: 38b0 01be 5089 993d 8440 45bb 8888 ddbd
000000b0: d1ca 103e d4a5 1abe 76ad a7be 1505 0f3d
000000c0: 2fbe 13c0 3359 a1be 2d6d cebf db57 54bf
000000d0: 888d 8dbd 04a3 cf3e faea 9d3d ee4f bc3e
000000e0: 183d 49bd e1cf cabe a633 ca3d 5210 2bbe
000000f0: 2685 54bd b71d 46bd e9af 2dbd b4b8 873f
00000100: 73a2 663e 392b f0bd d2e6 40be 2edb 97bd
00000110: 2468 43be ab15 ebbb b90d 17be 69e1 1fbe
00000120: 52ba 693e 57bb 2abf 9d59 943e fd8a 56bd
00000130: e8d0 0cbe 91d8 083d eb87 9c3e c432 12be
00000140: e666 133f 1d73 553e 78d2 e3be 7e06 9dbd
00000150: a112 d7bd 9bd3 a6bd 4959 ec3e 6032 813e
00000160: 464f 6ebe 15ab 13bf 2ab5 23bd 53f6 883e
00000170: 8fe0 25bd dc34 683f 0b54 71bf 5385 f0bc
00000180: d454 1fbe 3b28 e7bd cb5e 8a3e cecc 203f
00000190: 412e 50bd 223f 0dbf cf03 333f 671e 173f
000001a0: b903 933f 2622 efbd 3999 c73e 53bf 2abe
000001b0: 15c8 0b3f ad68 903b 129b 68bd c239 16be
000001c0: f112 223f 031b f9bd 7797 e9be 1ac8 c63c
000001d0: 6f1d 803e 9f49 0a3e df8b 0e3f 62bd 8ebb
000001e0: 70c9 38bd d8e0 e43e 6128 a9bd 465f c4bd
000001f0: 74ca 453e cd26 13be 4fd4 01bc 9a16 8ebe

value.0.weight f4 [64, 128]
0.6269052 -0.009075557 -1.0761999 -0.83025837 -0.020261023 -0.088858254 -0.13823694 -0.7227779
-0.74057215 0.04413453 -0.22340174 0.002776732 -0.6866175 -0.07349038 -0.64364064 -0.72104216
-0.0077963555 -0.8737338 0.015812594 -1.5204118 -0.39076656 -0.07864966 -2.5046706 -0.0045615435
0.12541144 -0.01622044 0.08249459 -0.40689012 -0.01692754 -0.06586446 0.008214712 -0.9480835
-0.060755536 -1.5918524 -0.11384414 -0.07829987 -0.013126341 -0.8532883 -0.9306915 -0.19716671
-0.15871413 -0.34088913 -0.42490923 -0.058179624 -0.56706643 -0.10029278 -0.021327345 0.0648485
0.34172764 -0.438758 -1.4498982 -0.27434486 -0.018440455 -0.3420673 -0.35893118 -1.7532169
-0.73636764 1.3599291 -0.5245906 0.03649909 0.0362062 0.0010334402 0.05127842 -1.3920549
-0.22035658 0.07130321 0.0557063 0.01712481 -0.14823869 0.036078017 0.09933783 -0.10774701
-0.34739915 0.58771527 -0.8008619 -0.03139994 -0.19492659 -0.3084275 -0.35409057 0.065661624
-0.021782333 -0.009350194 0.84881544 0.06030272 0.025319148 -0.049057793 -0.3425754 -0.16427982
-0.23253353 0.20091276 -0.016413717 0.49033916 -0.35690522 0.0046694684 0.31420568 -0.41643745
0.014195978 0.4779993 0.33706248 -0.045538444 -0.373295 -0.24861433 -2.0118098 -0.85804075
-0.3256165 0.025116526 -0.4419612 -0.94595313 -1.3954679 0.077360176 0.049089704 0.04927213
-0.42542228 -0.025022719 -0.26259485 -0.24835463 -0.27621907 -1.021912 0.21498284 -0.055727817
0.7550771 0.18554077 0.06962643 0.040995587 -0.19119781 -0.07240148 0.026297703 0.4284226
-0.083826356 -0.034101874 -0.14058644 -0.94985217 -0.077453405 -0.08762488 -0.30187407 -0.022121292
0.26541948 0.00050085585 -0.5255453 -0.31454393 0.09047949 0.02062092 -0.1240902 -0.06629708
-0.07040654 0.19777519 0.05260515 -0.18243535 -0.08071671 -0.056894038 0.9029907 0.0014674664
-0.8174155 -0.13888115 -0.034850627 -0.105398804 0.0023939556 -0.15656368 -0.062098555 -0.066856734
0.049355127 0.02927422 0.36497596 0.04771788 -0.07187269 -0.38050437 -0.11204392 -0.04090252
-0.13867588 -0.17676915 -0.03840944 -0.04160428 -0.10540139 0.04611721 0.07136337 -0.11737885
-0.11292084 0.07371181 -0.0015292672 -0.10114251 0.052943014 -0.26371783 -0.19035392 -0.057866987
-0.12644047 0.63370407 0.04211964 0.07934884 -0.03460366 -0.086684845 -0.054235872 -1.0712314
-0.05550818 -0.0053637847 0.06146642 -0.05275994 -0.38504148 0.038455717 0.007506795 0.11322111
0.036137145 -0.53887004 -0.48724622 0.055811096 -0.075147726 -0.3422656 -0.059937738 0.09602564
-0.48524266 0.03588864 0.15554616 0.087808274 -0.033509865 0.034871012 -0.30326557 -0.17212684
-0.07469681 0.1128676 -0.009690874 0.009519974 0.056898966 -0.20255017 -0.29932016 0.37729612
0.029234005 0.022844424 0.3086806 -0.14788167 -0.01939305 -0.2005745 -0.009019857 -0.28164053
-0.3867793 0.00038462877 -0.17360117 -0.17274842 -0.028398478 -0.06757754 -0.017558292 0.061875157
-0.3148175 -0.07536528 -0.16803107 -0.018755967 -0.099511676 -0.21283789 -0.6066908 -0.001694616
-0.17137165 -0.04512709 -0.065709025 0.08672237 -0.09838168 -0.024985008 -0.016515411 -0.26422268
00000000: dc7c 203f a5b1 14bc ebc0 89bf d08b 54bf
00000010: 72fa a5bc 51fb b5bd fc8d 0dbe f907 39bf
00000020: 2396 3dbf 69c6 343d 6dc3 64be d5f9 353b
00000030: 2ac6 2fbf 2082 96bd a2c5 24bf 3896 38bf
00000040: 9278 ffbb 05ad 5fbf 6a89 813c db9c c2bf
00000050: 8e12 c8be 1313 a1bd 864c 20c0 0079 95bb
00000060: db6b 003e bae0 84bc ecf2 a83d e753 d0be
00000070: a0ab 8abc f2e3 86bd 0097 063c 9ab5 72bf
00000080: ccda 78bd d2c1 cbbf 1e27 e9bd af5b a0bd
00000090: dd0f 57bc 1a71 5abf cc41 6ebf 12e6 49be
000000a0: f585 22be 0589 aebe b48d d9be c24d 6ebd
000000b0: 442b 11bf 4d66 cdbd afb6 aebc 4acf 843d
000000c0: edf6 ae3e e3a4 e0be 4496 b9bf ee76 8cbe
000000d0: 7010 97bc 7223 afbe d4c5 b7be 6969 e0bf
000000e0: 9782 3cbf 2812 ae3f 924b 06bf 1280 153d
000000f0: f44c 143d 8074 873a 5209 523d db2e b2bf
00000100: 28a5 61be 6b07 923d 4a2c 643d 5449 8c3c
00000110: e2cb 17be 8bc6 133d a271 cb3d 77aa dcbd
00000120: 4dde b1be 8274 163f 4905 4dbf 399d 00bd
00000130: d69a 47be 36ea 9dbe 5c4b b5be 9a79 863d
00000140: dd70 b2bc 8e31 19bc f84b 593f fcff 763d
00000150: 1a6a cf3c d3f0 48bd 0b66 afbe f838 28be
00000160: 451d 6ebe 13bc 4d3e 0f76 86bc bc0d fb3e
00000170: 48bc b6be 5702 993b 91df a03e 4a37 d5be
00000180: 3f96 683c 53bc f43e 7493 ac3e 8586 3abd
00000190: 8620 bfbe c194 7ebe 7ec1 00c0 8fa8 5bbf
000001a0: 35b7 a6be 2cc1 cd3c bd48 e2be fc29 72bf
000001b0: b19e b2bf 036f 9e3d 4912 493d 93d1 493d
000001c0: f3d0 d9be 72fc ccbc d572 86be ad50 7ebe
000001d0: 966c 8dbe 03ce 82bf 7624 5c3e da42 64bd
000001e0: bc4c 413f 66fe 3d3e 4d98 8e3d fdea 273d
000001f0: 5cc9 43be 3a47 94bd 486e d73c 355a db3e
00000200: 27ad abbd 68ae 0bbd e4f5 0fbe 8329 73bf
00000210: e49f 9ebd ac74 b3bd 3d8f 9abe b637 b5bc
00000220: 10e5 873e de4b 033a 238a 06bf e70b a1be
00000230: 504d b93d 34ed a83c 0123 febd c3c6 87bd
00000240: 4e31 90bd 9485 4a3e 7f78 573d 55d0 3abe
00000250: cd4e a5bd b909 69bd 662a 673f 0058 c03a
00000260: 2442 51bf dc36 0ebe 88bf 0ebd 54db d7bd
00000270: e9e3 1c3b 3b52 20be 0e5b 7ebd 2fec 88bd
00000280: 9a28 4a3d 7dd0 ef3c 21de ba3e d373 433d
00000290: fd31 93bd 78d1 c2be 4877 e5bd 6789 27bd
000002a0: 0d01 0ebe f902 35be 3853 1dbd 4069 2abd
000002b0: afdc d7bd 66e5 3c3d f526 923d 5364 f0bd
000002c0: 0b43 e7bd 38f6 963d b171 c8ba ce23 cfbd
000002d0: c6da 583d 0606 87be 23ec 42be ef05 6dbd
000002e0: 9c79 01be 6e3a 223f a585 2c3d a581 a23d
000002f0: 91bc 0dbd d387 b1bd 6f26 5ebd 1c1e 89bf
00000300: 8c5c 63bd b0c2 afbb 36c4 7b3d cf1a 58bd
00000310: 2824 c5be be83 1d3d 90fb f53b 78e0 e73d
00000320: 8b04 143d 63f3 09bf 5678 f9be 2d9a 643d
00000330: 0de7 99bd 703d afbe 4681 75bd 17a9 c43d
00000340: ba71 f8be f7ff 123d 7e47 1f3e d3d4 b33d
00000350: a441 09bd e8d4 0e3d a045 9bbe 0542 30be
00000360: a4fa 98bd 2127 e73d 79c6 1ebc aaf9 1b3c
00000370: e40e 693d 5069 4fbe 7e40 99be f52c c13e
00000380: 277c ef3c 3b24 bb3c 620b 9e3e 4b6e 17be
00000390: 2cde 9ebc 6763 4dbe 06c8 13bc 3033 90be
000003a0: f007 c6be 00a8 c939 81c4 31be f6e4 30be
000003b0: eda3 e8bc 1866 8abd 68d6 8fbc ce70 7d3d
000003c0: c22f a1be 1d59 9abd 5610 2cbe 1da6 99bc
000003d0: c7cc cbbd 2df2 59be 1750 1bbf e11d deba
000003e0: 0d7c 2fbe 2fd7 38bd 7492 86bd 7f9b b13d
000003f0: 567c c9bd 5cad ccbc 544b 87bc 3248 87be

value.0.bias f4 [64]
0.21491525 -0.7610319 1.3831546 -1.041991 1.5767068 0.7313369 -0.24057478 -0.39673534
0.57396686 -0.80128074 -1.2774988 0.9701589 -1.5875304 0.5627285 2.2057316 -0.10404004
1.452409 1.3695472 0.7496237 -2.5631225 -0.10428311 1.2675167 -1.4226058 -0.08533895
0.59245235 0.19207443 0.9363135 0.38634303 0.9160099 -0.0909113 1.0005565 -0.32174724
0.66439813 -0.048565626 0.09781966 0.56871593 0.92957735 -0.076050885 -0.38685897 -0.4346087
0.4940304 -1.0275913 0.20947683 -0.73341805 1.2207867 -0.18769866 0.90015143 -0.28604728
1.0025815 -1.6084298 -0.2118349 0.19280812 1.0427752 0.90153456 -0.45810914 -0.30173305
-0.23724172 -1.431414 0.9656369 -1.5449674 -0.9923308 -1.9993796 -1.1921496 -0.28628418
00000000: be12 5c3e fdd2 42bf 360b b13f f65f 85bf
00000010: 87d1 c93f e538 3b3f 3c59 76be e520 cbbe
00000020: 7eef 123f bc20 4dbf 1585 a3bf 555c 783f
00000030: 3234 cbbf fa0e 103f b52a 0d40 f212 d5bd
00000040: 8ae8 b93f 534d af3f 57e7 3f3f 330a 24c0
00000050: 6292 d5bd fd3d a23f f217 b6bf 30c6 aebd
00000060: f5aa 173f 29af 443e 3eb2 6f3f c1ce c53e
00000070: a07f 6a3f b42f babd 3c12 803f 0ebc a4be
00000080: ff15 2a3f c0ec 46bd ad55 c83d 5e97 113f
00000090: c8f8 6d3f 91c0 9bbd 6112 c6be 0885 debe
000000a0: 8df1 fc3e 1d88 83bf 1881 563e 49c1 3bbf
000000b0: bd42 9c3f 1434 40be 5370 663f ca74 92be
000000c0: 9754 803f 07e1 cdbf 3feb 58be 7e6f 453e
000000d0: a879 853f f8ca 663f 488d eabe c17c 9abe
000000e0: 7eef 72be 9338 b7bf fb33 773f 7ec1 c5bf
000000f0: 6409 7ebf aceb ffbf 5c98 98bf d793 92be

value.2.weight f4 [1, 64]
-2.0891228 1.4209052 -0.5858765 1.9327917 1.382081 1.0512265 -0.02153351 -0.16117184
-1.1062582 -0.04066705 0.49661008 -0.28066427 0.72815204 -0.36274597 -0.42362472 0.030294959
-0.117602624 -0.06801441 1.2591763 0.9089016 -1.7210555 1.479104 0.6287947 -1.3989893
-2.4708667 0.8250261 -0.10709307 -0.73022354 -0.1780421 -0.005412474 -0.16185601 -0.47544637
1.1173674 0.043359354 0.61786586 0.3775885 -0.16744119 0.8884779 -2.272348 -0.4767233
-0.0788735 -1.2376174 -0.7675106 0.6147615 0.8911725 0.0015509994 0.7383467 0.02185816
-0.29310855 0.71287405 -2.2513084 -0.557469 -0.14175601 -0.15677637 0.32035986 -0.046346657
-0.10161851 0.59533364 -0.13897897 1.1542876 0.5131285 -2.5892785 -1.2433045 -0.8954899
00000000: 30b4 05c0 39e0 b53f 01fc 15bf b865 f73f
00000010: 08e8 b03f 978e 863f 0b67 b0bc 3b0a 25be
00000020: de99 8dbf 7e92 26bd ad43 fe3e 3ab3 8fbe
00000030: 2c68 3a3f d7b9 b9be 57e5 d8be 222d f83c
00000040: a5d9 f0bd 244b 8bbd b02c a13f c6ad 683f
00000050: 8c4b dcbf 4853 bd3f b1f8 203f 1512 b3bf
00000060: ae22 1ec0 e934 533f 9d53 dbbd eeef 3abf
00000070: ab50 36be 1f5b b1bb 95bd 25be b56d f3be
00000080: e505 8f3f 9499 313d 752c 1e3f 4853 c13e
00000090: b475 2bbe 4a73 633f 266e 11c0 1415 f4be
000000a0: 6e88 a1bd 3f6a 9ebf 937b 44bf 0261 1d3f
000000b0: e223 643f e74a cb3a 4a04 3d3f e20f b33c
000000c0: 5312 96be ea7e 363f 7015 10c0 4ab6 0ebf
000000d0: 7d28 11be fc89 20be 3506 a43e fed5 3dbd
000000e0: 5e1d d0bd c967 183f 8150 0ebe b2bf 933f
000000f0: 645c 033f bdb6 25c0 9a24 9fbf d33e 65bf

adv.0.weight f4 [64, 128]
-0.19375494 0.063666716 0.15976769 0.29184577 0.00028551213 0.0031647629 -0.4023983 -0.39161456
0.20341973 0.055703755 0.7064723 -0.117341734 -0.36010104 -0.77860916 -0.24631052 -0.9869894
-0.035039157 -0.33345354 -0.06969281 -0.015952222 0.024213357 -0.07316572 -0.7723195 0.019841542
-0.5007995 0.0006546843 -0.08751975 -0.20016956 0.417938 -0.21847804 -0.009529602 -0.43429244
0.020990644 -0.94078624 -0.16132134 -0.57045513 -1.5341828 -0.755704 -1.0739669 -0.25444236
-0.094495036 -0.09675029 -0.27562675 -0.051855974 -0.48590258 0.07624877 -0.113256544 -0.27435353
0.019774912 -0.9776047 -0.291455 -0.5121266 0.068691194 -0.31718588 -0.15559639 0.17293657
0.37923357 0.8145124 -0.52546155 -0.05010633 -0.07033275 -0.06461741 -0.056409564 -1.0543827
-0.8646266 0.0026030838 0.014396429 0.053780604 -0.69796425 -0.07281376 -0.06703014 -0.061950102
-1.4031769 -0.35117123 -0.9273169 0.024523063 -0.020121654 -0.6487828 0.3047436 0.22646263
-0.07695106 -0.27140313 1.0558267 -0.03929097 0.056094058 -0.06691759 -0.4712631 -1.1066554
-0.7642789 -0.44301987 0.0013875852 -6.3847537 -0.22621226 -0.2504841 0.16307402 -0.20211516
-0.043689113 -0.49308246 -0.91712767 -0.86865604 0.84680456 1.1997846 -0.06969356 -0.82501626
-1.701671 -0.06466237 0.2331646 0.02932744 -0.13875408 0.075785786 0.010118343 -0.05476494
-0.55923 -0.07740745 -0.2630004 -0.10535592 -1.3459003 0.1156003 -0.063403875 -0.02512822
-0.35510293 -0.31558228 -0.0038850482 0.030230233 -0.22415267 -0.0071322992 -0.083327144 -0.044409934
-0.07826093 0.63276136 -0.33053583 -1.0769926 -0.033141617 -0.048738636 -0.12383583 -0.36598527
-0.05799673 -0.0945707 -0.46897274 -0.28627577 -0.12917483 -0.15315029 -0.24598616 -0.29975474
0.060223408 -0.8758895 -0.036624894 -0.63317513 -0.09635074 -0.086338505 0.59603024 -0.012335785
-0.04224054 0.07639725 0.018864194 -0.30844495 -0.37899947 -0.096421875 0.04208889 0.0854961
-0.032983333 -0.73590004 -0.7621792 0.018219719 -0.08857644 -0.020912519 -0.9104175 -0.123820476
0.05721407 -0.10193237 -0.17485368 0.02295836 -0.11988717 -0.049350057 -0.12431794 -0.15917772
0.4400461 0.0028542343 0.65344274 -0.43146294 -0.016852116 0.29852843 0.07803879 0.23093806
-0.084671006 0.18947954 0.47360453 -0.08152432 0.04929509 -0.07220622 0.005157426 -0.2650632
0.08728452 -0.00033356994 0.061446514 0.011939563 -0.930152 0.058894083 -0.057364937 0.01504296
-0.22348532 0.21888499 -0.18876636 0.0452931 -0.04789449 -0.4182989 0.37483913 0.3029186
-0.010216445 -0.1948539 0.8100253 -0.01747109 0.07683899 -0.030450065 -0.69885534 -0.30953535
0.07158739 -0.37633517 0.049619712 -0.5592825 -0.1273121 -0.45930982 0.18870896 -0.018793471
-0.057086598 0.12040443 0.41661 -0.8449887 0.23520249 -0.30666456 0.020782536 -0.82915896
-1.2378808 -0.06190257 -0.34789476 -0.47458282 -0.721007 -0.025693148 -0.0017681867 0.056655325
-0.25147414 -0.08375803 -0.11783526 -0.117014624 0.30822766 0.19476096 -0.16757351 -0.071945705
0.022186482 -0.056146733 -0.05627524 -0.03284976 -0.06564156 0.080086194 0.0046791956 0.117245845
00000000: b267 46be b263 823d 249a 233e cf6c 953e
00000010: cab0 9539 e967 4f3b 2607 cebe b481 c8be
00000020: 434d 503e 9f29 643d 5edb 343f dd50 f0bd
00000030: 2a5f b8be ee52 47bf d338 7cbe 56ab 7cbf
00000040: 3885 0fbd 6cba aabe 1bbb 8ebd 3cae 82bc
00000050: 175b c63c e9d7 95bd bbb6 45bf bb8a a23c
00000060: 6534 00bf 1f9f 2b3a 8e3d b3bd 40f9 4cbe
00000070: f8fb d53e b5b8 5fbe 0c22 1cbc 945b debe
00000080: 92f4 ab3c 5ed7 70bf 6c31 25be 5909 12bf
00000090: 1a60 c4bf d175 41bf bf77 89bf 4546 82be
000000a0: 9d86 c1bd 0425 c6bd f31e 8dbe ee66 54bd
000000b0: 39c8 f8be 5128 9c3d 0cf3 e7bd 1178 8cbe
000000c0: fffe a13c 4d44 7abf 9739 95be bb1a 03bf
000000d0: f8ad 8c3d 3066 a2be a954 1fbe 4916 313e
000000e0: e72a c23e e283 503f a684 06bf 4c3c 4dbd
000000f0: 9e0a 90bd 2256 84bd b70d 67bd 03f6 86bf
00000100: 2b58 5dbf 8098 2a3b 00df 6b3c 0d49 5c3d
00000110: c9ad 32bf 611f 95bd 1947 89bd 64bf 7dbd
00000120: 4d9b b3bf b7cc b3be a464 6dbf 97e4 c83c
00000130: 2bd6 a4bc a116 26bf 5a07 9c3e d2e5 673e
00000140: 8498 9dbd 5af5 8abe 5425 873f 91ef 20bd
00000150: e2c2 653d 170c 89bd 6649 f1be e2a6 8dbf
00000160: c8a7 43bf 80d3 e2be a2df b53a e74f ccc0
00000170: 30a4 67be 743f 80be e0fc 263e 47f7 4ebe
00000180: 5bf3 32bd 4e75 fcbe e1c8 6abf 3e60 5ebf
00000190: 2fc8 583f 8b92 993f 7fbb 8ebd 4434 53bf
000001a0: 5bd0 d9bf b46d 84bd b3c2 6e3e 1940 f03c
000001b0: 8d15 0ebe 9435 9b3d 68c7 253c 3451 60bd
000001c0: b329 0fbf cc87 9ebd fda7 86be d8c4 d7bd
000001d0: 7646 acbf dabf ec3d e4d9 81bd b2d9 cdbc
000001e0: 0dd0 b5be 0094 a1be 4b9c 7ebb 65a5 f73c
000001f0: 4788 65be 10b6 e9bb 6ca7 aabd 31e7 35bd
00000200: 4447 a0bd a6fc 213f fe3b a9be e5da 89bf
00000210: 81bf 07bd 2aa2 47bd a49d fdbd 6c62 bbbe
00000220: fb8d 6dbd 48ae c1bd 321d f0be bd92 92be
00000230: 6846 04be 6ed3 1cbe cce3 7bbe 7479 99be
00000240: d2ac 763d 4b3a 60bf fc03 16bd c417 22bf
00000250: 8953 c5bd 3ed2 b0bd 7095 183f 081c 4abc
00000260: 6b04 2dbd 2976 9c3d 1589 9a3c 7fec 9dbe
00000270: 380c c2be d578 c5bd 6665 2c3d 9418 af3d
00000280: 8819 07bd f263 3cbf 2d1e 43bf 8541 953c
00000290: 9167 b5bd bb50 abbc 1f11 69bf 9795 fdbd
000002a0: 4d59 6a3d ebc1 d0bd d80c 33be 2c13 bc3c
000002b0: 6887 f5bd 4923 4abd 679a febd 7cff 22be
000002c0: b94d e13e 1b0e 3b3b 0648 273f b6e8 dcbe
000002d0: 730d 8abc b8d8 983e cdd2 9f3d 077b 6c3e
000002e0: fe67 adbd ed06 423e 4b7c f23e 39f6 a6bd
000002f0: a6e9 493d dbe0 93bd a0ff a83b 5db6 87be
00000300: 3ac2 b23d 00e3 aeb9 57af 7b3d 289e 433c
00000310: 711e 6ebf ec3a 713d 7ff7 6abd bf76 763c
00000320: 56d9 64be 6323 603e f84b 41be 4285 393d
00000330: 032d 44bd 462b d6be eaea bf3e 2618 9b3e
00000340: e062 27bc c887 47be d15d 4f3f 881f 8fbc
00000350: c35d 9d3d 6a72 f9bc 2fe8 32bf 6b7b 9ebe
00000360: 699c 923d 01af c0be 0a3e 4b3d 232d 0fbf
00000370: 1a5e 02be a82a ebbe ec3c 413e c4f4 99bc
00000380: a3d3 69bd 9996 f63d e84d d53e 2e51 58bf
00000390: ecd8 703e 2303 9dbe 2340 aa3c c343 54bf
000003a0: e172 9ebf 8d8d 7dbd 431f b2be 85fc f2be
000003b0: ea93 38bf 707a d2bc 80c2 e7ba 6a0f 683d
000003c0: 38c1 80be 5489 abbd 9d53 f1bd 5da5 efbd
000003d0: 04d0 9d3e 6b6f 473e 6498 2bbe 4558 93bd
000003e0: 6dc0 b53c 1efa 65bd de80 66bd 788d 06bd
000003f0: 156f 86bd 3b04 a43d f053 993b 971e f03d

adv.0.bias f4 [64]
-1.8178751 -1.5018412 -0.6015541 -0.65200126 -1.1829318 -0.7106698 -1.110347 -1.9773473
-0.17633972 -0.7569084 -0.20606816 -1.1674669 -0.3945194 -0.15602812 -0.9892344 -1.0945948
-0.36643806 -2.1122406 -0.64499164 -1.3023653 -0.18125425 -0.021183193 -0.5559846 -1.7658116
-0.017785385 -0.65671587 -0.3186182 -0.66184837 -0.50984734 -1.0146073 -2.787858 -0.5299315
0.2105698 -0.2087432 -0.27569756 -1.7044785 -1.30168 -0.52004707 -0.41187173 -0.13003793
-0.70016277 -0.15971367 -1.12342 -0.15581626 -0.52799535 0.22039288 -1.2302374 -1.0919293
-1.6632351 0.038704038 0.26072496 -0.15708248 -0.63357025 -0.9759259 -0.38079053 -0.30839193
-0.72328246 -1.5873159 -0.66191065 -0.20397212 0.038808424 -0.08830043 -0.16885899 -0.5041217
00000000: 22b0 e8bf 553c c0bf 73ff 19bf 8ee9 26bf
00000010: 4f6a 97bf 75ee 35bf da1f 8ebf b719 fdbf
00000020: 6692 34be c0c4 41bf 8803 53be 8e6f 95bf
00000030: 72fe c9be d6c5 1fbe 773e 7dbf af1b 8cbf
00000040: c59d bbbe f32e 07c0 2c1e 25bf e8b3 a6bf
00000050: b79a 39be 6088 adbc 0255 0ebf 1d06 e2bf
00000060: a8b2 91bc 881e 28bf ed21 a3be e56e 29bf
00000070: 5b85 02bf a7de 81bf 446c 32c0 97a9 07bf
00000080: 9c9f 573e c7c0 55be 3b28 8dbe 5a2c dabf
00000090: 739d a6bf ce21 05bf dae0 d2be aa28 05be
000000a0: de3d 33bf fb8b 23be 3acc 8fbf 4c8e 1fbe
000000b0: b42a 07bf acae 613e 6b78 9dbf 57c4 8bbf
000000c0: e3e4 d4bf 2088 1e3d be7d 853e 3bda 20be
000000d0: a931 22bf 48d6 79bf faf6 c2be 8ce5 9dbe
000000e0: 0a29 39bf 2b2d cbbf fa72 29bf 11de 50be
000000f0: 95f5 1e3d dbd6 b4bd 5fe9 2cbe 1f0e 01bf

adv.2.weight f4 [2, 64]
-3.1384606 1.1395121 -2.7641742 -0.5971961 -0.41940257 -0.074006535 1.0956281 -2.4408183
0.08819325 1.3407484 -0.0761999 -1.6936221 0.9374432 0.049491365 -1.073136 -1.1352793
-0.23513156 -0.89436907 -0.60237366 0.90345097 -0.9642534 0.3757815 0.71089906 -1.3112592
-0.14849976 -0.2830825 -0.26684585 0.43239924 0.72618765 -1.1532817 -1.1356351 0.08402925
-1.2863437 0.028493796 -0.4459408 1.2402269 -2.6208925 2.253221 0.2339706 0.85949105
0.44893363 -0.0040464965 -1.9986631 0.06564573 -0.5948136 0.98373663 -0.8906366 2.0495708
-3.1439276 2.091722 0.6822548 0.030950762 -0.52980155 1.1747161 -0.02409322 -0.13283235
0.5684038 2.0015252 -0.767171 0.020115312 -0.97517776 0.21659575 -0.0073652137 -0.9471744
3.0729518 -1.1235642 2.8278258 0.5231736 0.4865065 0.12311727 -1.0947033 2.5178032
0.09820008 -1.3110069 -0.0672896 1.5790927 -0.89648885 0.042434976 0.9479359 1.0230329
0.15812466 0.96399146 0.4708877 -0.9771929 0.7898476 -0.46665284 -0.73994976 1.2818652
0.1932896 0.2450807 0.053530112 -0.50711644 -0.66721493 1.1411691 0.9914685 -0.24220395
1.2615632 0.045698587 0.36023292 -1.1649941 2.5200744 -2.3613248 -0.33645493 -0.79572326
-0.43080977 0.0020484268 1.9725972 0.020805774 0.46701932 -0.9519313 0.96950406 -2.0419126
3.173696 -1.967332 -0.72360873 -0.0034372662 0.5527021 -1.3035814 -0.014967439 0.121432915
-0.6353484 -2.0218632 0.7472471 0.013212859 0.8663819 -0.14914347 0.008756703 1.0193552
00000000: 8adc 48c0 88db 913f 3be8 30c0 d8e1 18bf
00000010: efbb d6be bd90 97bd 8b3d 8c3f 5e36 1cc0
00000020: aa9e b43d a59d ab3f b10e 9cbd 9cc8 d8bf
00000030: 47fc 6f3f 75b7 4a3d 855c 89bf d550 91bf
00000040: 54c6 70be 5ff5 64bf 2935 1abf 9048 673f
00000050: 50d9 76bf 6f66 c03e 7bfd 353f 57d7 a7bf
00000060: 5210 18be 30f0 90be 05a0 88be 6f63 dd3e
00000070: 6fe7 393f bc9e 93bf 7e5c 91bf 8717 ac3d
00000080: e9a6 a4bf d26b e93c 5a52 e4be c1bf 9e3f
00000090: b4bc 27c0 c634 1040 fd95 6f3e 9b07 5c3f
000000a0: a1da e53e 7998 84bb 31d4 ffbf 4571 863d
000000b0: b445 18bf 2ad6 7b3f c300 64bf 2b2c 0340
000000c0: 1c36 49c0 c6de 0540 40a8 2e3f 748c fd3c
000000d0: 13a1 07bf 195d 963f 255f c5bc 3405 08be
000000e0: e982 113f fd18 0040 5265 44bf dec8 a43c
000000f0: 40a5 79bf 47cb 5d3e e457 f1bb 057a 72bf
00000100: 3eab 4440 f4d0 8fbf 19fb 3440 b4ee 053f
00000110: 6117 f93e e824 fc3d 3d1f 8cbf b023 2140
00000120: 201d c93d 13cf a7bf 21cf 89bd b61f ca3f
00000130: 4b80 65bf 4cd0 2d3d edab 723f bef2 823f
00000140: 6eeb 213e 25c8 763f 3118 f13e 5029 7abf
00000150: 7433 4a3f 1fed eebe 596d 3dbf 2914 a43f
00000160: b5ed 453e 6ff6 7a3e 6442 5b3d 62d2 01bf
00000170: 99ce 2abf d411 923f e1d0 7d3f 5004 78be
00000180: e77a a13f 712e 3b3d 7370 b83e 871e 95bf
00000190: e648 2140 f21f 17c0 d243 acbe 85b4 4bbf
000001a0: 1993 dcbe e63e 063b 117e fc3f df70 aa3c
000001b0: 281d ef3e c5b1 73bf 6b31 783f b2ae 02c0
000001c0: d61d 4b40 89d1 fbbf 6c3e 39bf c243 61bb
000001d0: e37d 0d3f c1db a6bf fd39 75bc d2b1 f83d
000001e0: 31a6 22bf 3566 01c0 964b 3f3f bf7a 583c
000001f0: 34cb 5d3f 11b9 18be 4678 0f3c 3b7a 823f

adv.2.bias f4 [2]
-0.27342957 0.1246571
00000000: f6fe 8bbe 394c ff3d
