dqn_sumo_advanced.pt (torch, 146547 bytes, 11 tensors)

feature.0.weight f4 [128, 16]
0	0xbd9e8c3c	-0.07741591
1	0xbda1da10	-0.0790292
2	0x3e40eac4	0.18839556
3	0x3dbd2cbc	0.09237048
4	0xbd728fb8	-0.059219092
5	0xbd59f5e8	-0.05321303
6	0xbe343854	-0.17599612
7	0x3e3529f4	0.17691785
8	0xbd7040f8	-0.05865571
9	0xbd52ba60	-0.051447272
10	0x3e449a40	0.19199467
11	0xbbf8d400	-0.0075936317
12	0x3c87d750	0.016582161
13	0x3e12dc08	0.14341748
14	0xbe540cba	-0.2070798
15	0x3e44fdc6	0.19237432
16	0xbe6d5088	-0.23175251
17	0x3de01ef0	0.10943401
18	0x3dd5e34c	0.10443744
19	0xbd4074d8	-0.04698643
20	0xbbd60740	-0.006531626
21	0x3e09bcb0	0.13450885
22	0x3dd6d604	0.10490039
23	0xbe0bb964	-0.1364494
24	0xbe5972de	-0.21235225
25	0xbd85cc50	-0.0653311
26	0xbe088172	-0.1333063
27	0x3c888320	0.016664088
28	0x3e0fdcb0	0.1404903
29	0x3c9c6f00	0.019095898
30	0xbdd783c4	-0.10523179
31	0x3e16454c	0.14674872
32	0x3e775890	0.24154878
33	0xbddc4340	-0.107550144
34	0xbe537fcc	-0.2065422
35	0x3e4742da	0.19459096
36	0xbe3392ba	-0.1753644
37	0x3e1a01b4	0.15039712
38	0x3e615152	0.22003677
39	0x3db3ca38	0.087788045
40	0xbe7ddcc6	-0.2479125
41	0xbdce0bdc	-0.10060856
42	0xbd115898	-0.03548488
43	0xbd87f910	-0.06639302
44	0xbe1381f6	-0.14405045
45	0xbe591f3a	-0.21203318
46	0xbe5fd628	-0.21859038
47	0x3ce0c410	0.02743724
48	0x3e283a7c	0.1642856
49	0xbe2cf5e6	-0.16890678
50	0xbd528dd0	-0.051404774
51	0xbe7040c8	-0.23462212
52	0x3dc7f308	0.097631514
53	0xbd3ccb10	-0.046092093
54	0x3e7ca716	0.24673113
55	0xbdd07190	-0.1017791
56	0x3e6e1bb2	0.23252752
57	0x3d96588c	0.07341108
58	0x3e56718c	0.20941752
59	0x3e7fb4e6	0.24971351
60	0x3de92fa8	0.11386043
61	0x3ccb4020	0.02481085
62	0x3c2e84c0	0.010651767
63	0x3ca18120	0.019714892
64	0x3e75fdce	0.240226
65	0xbe0a7078	-0.13519466
66	0xbdee9d30	-0.11651075
67	0x3e42ec9c	0.19035572
68	0x3e1378ce	0.14401552
69	0x3e61a50e	0.2203562
70	0xbd793890	-0.060844958
71	0x3e124b34	0.142865
72	0xbdc05c00	-0.093925476
73	0x3d4fac50	0.05070144
74	0x3dd34658	0.103161514
75	0x3d381f60	0.044951797
76	0xbe6d5830	-0.23178172
77	0x3e0ceec4	0.13762957
78	0xbe463e26	-0.19359645
79	0x3e1a0d14	0.15044051
80	0x3d9e16e8	0.07719213
81	0xbd738c88	-0.059460193
82	0xbe7db5bc	-0.24776357
83	0xbe242f98	-0.1603378
84	0x3d8c5240	0.068516254
85	0x3da83340	0.082129
86	0x3dd6f3a0	0.104956865
87	0x3e13548a	0.14387718
88	0x3e5dfaf2	0.2167776
89	0xbd86ea88	-0.06587702
90	0xbdbaad4c	-0.09115085
91	0xbe774844	-0.24148661
92	0xbd006180	-0.031342983
93	0x3e3b321c	0.18280834
94	0xbe31ff24	-0.17382485
95	0xbe0d4884	-0.13797194
96	0xbe05c9ec	-0.13065308
97	0xbd345fb8	-0.044036597
98	0xbdb88cf8	-0.09011263
99	0xbd3540b0	-0.044251144
100	0x3cbf6060	0.023361385
101	0xbd0645d0	-0.032781422
102	0xbe15c000	-0.14624023
103	0x3e7b5014	0.24542266
104	0xbe05760c	-0.13033313
105	0x3c4140c0	0.011795223
106	0xbb811280	-0.003938973
107	0x3d87fc44	0.06639913
108	0xbda070c8	-0.07834011
109	0xbe665838	-0.2249459
110	0x3dc5fc58	0.096672714
111	0xbe4f9dc8	-0.20275033
112	0xbd94ee04	-0.072719604
113	0x3e7693be	0.24079797
114	0xbe033d3c	-0.12816328
115	0xbd7f3f18	-0.06231603
116	0xbcb0dc50	-0.021589428
117	0x3e0734bc	0.1320371
118	0xbd3f15f8	-0.04665181
119	0xbe364318	-0.17799032
120	0xbdc5142c	-0.09622988
121	0x3cd35e00	0.025801659
122	0x3dc73f0c	0.09728822
123	0x3e2c83d4	0.16847163
124	0xbc6911c0	-0.014225423
125	0xbdb5d3b0	-0.08878267
126	0xbd921a8c	-0.0713397
127	0x3e6aec92	0.22941807
128	0x3e354770	0.17703032
129	0xbe114036	-0.14184651
130	0xbdf4b7b8	-0.11949104
131	0xbbd32dc0	-0.006444663
132	0x3e0fcb60	0.14042425
133	0x3e5abc92	0.21360996
134	0xbe492148	-0.19641602
135	0xbe555408	-0.20832837
136	0xbe4d970e	-0.20077154
137	0xbe3c96fa	-0.18416968
138	0xbe482410	-0.19545007
139	0x3e0ad5b8	0.1355809
140	0x3b6f3900	0.003650248
141	0x3e610efa	0.2197837
142	0xbe4300dc	-0.19043297
143	0xbcde7610	-0.027155906
144	0xbe12f23a	-0.14350215
145	0x3a63e800	0.00086939335
146	0xbe01f828	-0.1269232
147	0x3c62e3c0	0.013848245
148	0xbe6233e6	-0.2209011
149	0xbc24af20	-0.010051519
150	0xbe4fbdf2	-0.20287302
151	0x3d8cb6a0	0.068707705
152	0xbe77e380	-0.24207878
153	0xbe160c1a	-0.14653054
154	0x3cd2afb0	0.02571854
155	0x3e4a5dd4	0.19762355
156	0x3e107c66	0.14109954
157	0x3dcebaa0	0.1009419
158	0x3e11eeec	0.14251298
159	0xbe38b02e	-0.18035957
160	0x3d4ea908	0.05045417
161	0xbd188ef8	-0.03724572
162	0xbd411540	-0.047139406
163	0x3e2c094a	0.16800418
164	0x3e7d4104	0.24731833
165	0x3e625262	0.22101739
166	0xbe6da0aa	-0.2320582
167	0xbdb1abd0	-0.08675349
168	0x3d15f7b0	0.036613166
169	0xbe7f01bc	-0.24903005
170	0xbddd1ae8	-0.107961476
171	0xbd442df8	-0.0478954
172	0xbe6cfd7a	-0.23143569
173	0x3e45821e	0.19287917
174	0xbe0838ae	-0.13302872
175	0x3d4dce68	0.050245672
176	0xbd768ff8	-0.060195893
177	0xbe0eac0e	-0.13932821
178	0xbd8a09f4	-0.0674018
179	0x3e6ab58a	0.22920814
180	0x3d97ae88	0.07406336
181	0x3ca339b0	0.019924968
182	0x3d65a0d8	0.056061596
183	0xbd945844	-0.07243398
184	0x3d140320	0.036135793
185	0x3dd1be0c	0.10241327
186	0x3e62a186	0.22131929
187	0xbe66a17c	-0.22522539
188	0xbd7d0d98	-0.061780542
189	0x3d7c0c60	0.06153524
190	0xbd21db70	-0.039515913
191	0x3d6a5f58	0.057219833
192	0x3e5f9b18	0.21836507
193	0x3b4faa80	0.003168732
194	0xbe7a5c36	-0.24449238
195	0x3e2b9ad2	0.16758278
196	0x3cd506b0	0.026004165
197	0xbc9f30e0	-0.019432485
198	0xbcc48630	-0.023989767
199	0xbe28107e	-0.16412541
200	0x3da84584	0.08216384
201	0xbd3fb1a0	-0.046800256
202	0x3e7d87a0	0.24758768
203	0x3e5d44f0	0.21608329
204	0x3e30680c	0.1722719
205	0x3dd77bb8	0.10521644
206	0x3de74a8c	0.112935156
207	0x3e3288be	0.17434976
208	0x3e178c44	0.14799601
209	0xbd24e538	-0.040257663
210	0xbe508a26	-0.203652
211	0xbdf6f5f0	-0.120586276
212	0x3d42d5b0	0.04756707
213	0x3e2c6144	0.16833979
214	0xbd72cbb0	-0.059276283
215	0x3e1e57cc	0.1546318
216	0xbd4c2240	-0.04983735
217	0x3c36e680	0.011163354
218	0x3e4c932c	0.19978017
219	0x3cd57630	0.026057333
220	0xbe1ec182	-0.15503505
221	0xbe14fb90	-0.14549088
222	0x3db63f88	0.088988364
223	0xbe75ef50	-0.24017072
224	0x3c700220	0.014648944
225	0xbca667a0	-0.020313084
226	0x3e5925da	0.21205845
227	0x3de170bc	0.110078305
228	0x3e469804	0.19393927
229	0xbe625a30	-0.22104716
230	0xbe7c8c2a	-0.24662843
231	0x3e0ff6be	0.14058968
232	0xbdc93728	-0.09824973
233	0xbab89300	-0.0014081895
234	0xbd68a060	-0.05679357
235	0xbd7d5438	-0.061847895
236	0x3c16d660	0.009206384
237	0x3e290466	0.16505584
238	0x3e241b0c	0.16025943
239	0x3d23b8e0	0.039971232
240	0x3e0e224c	0.1388027
241	0xbc907c90	-0.017637521
242	0xbe2fff1c	-0.1718716
243	0x3dc182bc	0.09448764
244	0xbe2fcd36	-0.17168126
245	0x3e57533e	0.21027848
246	0xbdb9d114	-0.090730816
247	0x3e7a36f8	0.24435031
248	0xbe120f62	-0.1426368
249	0x3d85a404	0.06525424
250	0x3e5e5aba	0.21714297
251	0xbdf24f34	-0.11831513
252	0xbe51493c	-0.20438093
253	0xbe76a572	-0.2408655
254	0xbe3f8882	-0.18704417
255	0xbe7c29e2	-0.24625352

feature.0.bias f4 [128]
0	0x3cc5b3f0	0.024133652
1	0x3deb03fc	0.11475369
2	0x3d79c740	0.060981035
3	0x3dc40ee0	0.0957315
4	0x3e45ff46	0.1933566
5	0xbd3e7000	-0.04649353
6	0x3e1f54f4	0.15559751
7	0x3cefc620	0.029269278
8	0x3e397a5a	0.1811308
9	0x3c8dc440	0.017305493
10	0xbbe7f9c0	-0.007079333
11	0x3e24ccbe	0.16093728
12	0xbe7119b6	-0.23544964
13	0xbd3d2338	-0.046176165
14	0x3e423468	0.18965304
15	0xbd6e6058	-0.05819735
16	0xbe36307a	-0.1779193
17	0x3d77d378	0.060504407
18	0x3e766a72	0.24064043
19	0xbe6fdc70	-0.23423934
20	0x3e6cbfc0	0.23120022
21	0xbe5522c6	-0.20814046
22	0x3e414558	0.18874109
23	0xbdb80748	-0.08985764
24	0x3e0e0518	0.1386913
25	0xbd00fbd0	-0.031490147
26	0x3e5d681c	0.21621746
27	0xbe22189c	-0.158297
28	0x3d3df7a8	0.04637876
29	0xbd12e6c8	-0.03586462
30	0xbe6cfa1a	-0.23142281
31	0xbcc3a440	-0.023882031
32	0xbe4ec182	-0.20191005
33	0xbe23ad9c	-0.15984195
34	0xbd4ae028	-0.04953018
35	0x3e5cca42	0.2156153
36	0x3d98bcf0	0.07457912
37	0xbe020340	-0.12696552
38	0xbe5be38c	-0.21473521
39	0xbd966c2c	-0.07344851
40	0xbe17584e	-0.1477978
41	0xbd6d96b8	-0.058005065
42	0x3e175496	0.1477836
43	0x3c8a6d10	0.016897708
44	0xbded43b0	-0.11585176
45	0x3b21cc00	0.0024688244
46	0xbd6df840	-0.058098078
47	0xbe4aaa5e	-0.19791552
48	0xbdbec930	-0.09315717
49	0x3df65044	0.12027028
50	0xbe0052d8	-0.12531602
51	0xbe3d9220	-0.18512774
52	0xbe3ccb0e	-0.18436834
53	0x3bf87c00	0.0075831413
54	0x3d696a30	0.056986034
55	0xbe0018e2	-0.12509492
56	0xbd9fa248	-0.077946246
57	0x3e457d46	0.1928607
58	0xbdbc99d4	-0.09209028
59	0xbb0a0400	-0.0021059513
60	0x3bcf1bc0	0.0063204467
61	0x3e0e2d3c	0.13884443
62	0x3e2576e8	0.1615864
63	0x3dd4865c	0.103771895
64	0x3e22b9e2	0.15891221
65	0xbdb79f20	-0.089658976
66	0x3e1fff9c	0.15624851
67	0xbd8fd38c	-0.07022771
68	0xbe683644	-0.2267695
69	0x3dfecc88	0.12441355
70	0xbe26e2a0	-0.16297388
71	0x3db24718	0.08704966
72	0x3d3b52c8	0.045733243
73	0x3db8c444	0.0902181
74	0x3e09d43e	0.1345987
75	0xbe3b0650	-0.18264127
76	0x3e5adae4	0.21372563
77	0xbbdfee00	-0.0068337917
78	0x3de35210	0.110996366
79	0xbc99c5d0	-0.018771082
80	0x3e76aa04	0.24088293
81	0x3e2f8aea	0.17142835
82	0x3d839d74	0.06426516
83	0xbb638500	-0.0034716725
84	0xbe52fcac	-0.20604199
85	0x3d533068	0.051559836
86	0x3dce13b8	0.10062355
87	0x3d4e0630	0.05029887
88	0xbe785fee	-0.24255344
89	0xbddfbfe8	-0.10925275
90	0x3df7d168	0.12100488
91	0x3a354800	0.0006915331
92	0x3e3407ac	0.17581052
93	0x3e065c5e	0.13121173
94	0xbd9f048c	-0.07764539
95	0x3d140640	0.036138773
96	0xbe78b3e0	-0.24287367
97	0xbe1c792e	-0.15280601
98	0x3e78450a	0.24245086
99	0xbe6d6aa6	-0.23185214
100	0x3d9a7610	0.0754205
101	0x3d22a2a0	0.039705873
102	0xbe3a6416	-0.18202242
103	0xbe3c50c0	-0.18390179
104	0xbc0403a0	-0.008057505
105	0xbd84d78c	-0.06486425
106	0xbe6d1fba	-0.23156634
107	0x3bc21ec0	0.005924076
108	0x3d527a20	0.051386
109	0x3da54008	0.080688536
110	0xbe70dda6	-0.23522052
111	0x3ca272e0	0.019830167
112	0xbda20870	-0.079117656
113	0x3d528670	0.05139774
114	0x3e15a5ce	0.1461403
115	0x3d518900	0.051156044
116	0xbd64cbc8	-0.055858403
117	0x3df897bc	0.12138316
118	0xbe15ff24	-0.1464811
119	0x3cbcc140	0.023041368
120	0xbe328b26	-0.17435893
121	0x3def75d4	0.11692396
122	0x3e5d2c82	0.2159901
123	0x3e5446fc	0.20730203
124	0x3e0e3d8e	0.13890669
125	0xbe75d656	-0.24007544
126	0x3df95d44	0.12175992
127	0x3e628c6e	0.22123882

feature.2.weight f4 [128, 128]
0	0xbd95d1e3	-0.07315423
1	0xbda9eec3	-0.08297493
2	0xbd230763	-0.039801966
3	0x3da78099	0.08178825
4	0x3c53a270	0.012917146
5	0x3d608256	0.054811798
6	0xbd3acb88	-0.04560426
7	0x3d90da95	0.07072941
8	0x3d045c4e	0.03231459
9	0x3d955301	0.07291222
10	0xbd47cf74	-0.048781827
11	0xbdb08a04	-0.086200744
12	0xbca008ec	-0.019535504
13	0x3c9910fc	0.018684857
14	0x3da256db	0.079267226
15	0x3d9e0d33	0.07717361
16	0x3d7149c2	0.05890823
17	0x3cff2248	0.031144276
18	0xbd31598c	-0.04329829
19	0x3da3b50d	0.07993517
20	0x3ca5797c	0.02019953
21	0x3be733b0	0.007055722
22	0x3bea5540	0.007151276
23	0xbd693016	-0.056930624
24	0xbdb47521	-0.08811403
25	0xbccd87c4	-0.025089152
26	0x3d8806f5	0.06641952
27	0x3d67e2b6	0.056612693
28	0xbd72ca74	-0.059275106
29	0x3d4c52e6	0.049883746
30	0xbcaad590	-0.020853788
31	0xbc1588e0	-0.009126872
32	0x3cf7ef78	0.030265555
33	0xbd302fdb	-0.04301439
34	0x3d6cd10e	0.057816558
35	0xbd204dd0	-0.039136708
36	0x3cd429f0	0.025898904
37	0xbda489a0	-0.080340624
38	0xbd34f2f1	-0.044177
39	0xbd8166c8	-0.06318432
40	0x3d0cd6b6	0.03438445
41	0x3d3ef846	0.04662349
42	0xbc6c9438	-0.014439635
43	0x3d860025	0.06542996
44	0xbc54ed70	-0.012996063
45	0xbd5a2b2c	-0.05326383
46	0xbd5ef535	-0.054433066
47	0xbb435c40	-0.0029809624
48	0xbccc7678	-0.024958834
49	0xbd0f94fd	-0.035054196
50	0xbd98b783	-0.07456877
51	0x3d5445fa	0.051824547
52	0x3caf4040	0.021392941
53	0xbd70d975	-0.058801133
54	0xbda0ff28	-0.07861167
55	0x3d8d1a71	0.06889809
56	0x3d73987e	0.0594716
57	0xbc081508	-0.0083057955
58	0xbce156d0	-0.027507216
59	0xbce6e8e4	-0.028187223
60	0xbd6f4ba8	-0.05842176
61	0x3cf9a53c	0.030474298
62	0xbd65fb8e	-0.056148104
63	0x3d4477a2	0.047965653
64	0xbd50f50f	-0.051014956
65	0x3d11fd4c	0.035641953
66	0x3bb7aa40	0.005605012
67	0xba9416c0	-0.0011298284
68	0xbd970ea7	-0.073758416
69	0xbd284566	-0.04108181
70	0xbc87644c	-0.016527317
71	0xbd8252f6	-0.0636348
72	0xbcce046c	-0.025148593
73	0x3d31921a	0.043352224
74	0xbd94281e	-0.07234214
75	0xbda4cbfd	-0.0804672
76	0x3d7870d2	0.06065447
77	0x3d1e6f02	0.038680084
78	0xbd3a3dd3	-0.045469116
79	0x3d0c1518	0.034199804
80	0xbd862a61	-0.06551052
81	0x3d7d1192	0.061784334
82	0xbd0efe9c	-0.034910783
83	0xba154100	-0.00056935847
84	0xbd07584f	-0.033043202
85	0xbc7a2028	-0.015266456
86	0x3d397132	0.045273967
87	0x3c46bc20	0.012129813
88	0xbd868729	-0.065687485
89	0x3dac223d	0.08404968
90	0xbd9114fa	-0.07084079
91	0xbd36c0a0	-0.044617295
92	0x3d89e8ff	0.067338936
93	0x3d3477be	0.044059508
94	0x3dadd7f7	0.08488458
95	0x3d29af16	0.04142674
96	0xbd1f2b70	-0.038859785
97	0x3c766510	0.015038744
98	0x3d3b4ffe	0.045730583
99	0xbbbe2060	-0.0058021992
100	0xbd3f584b	-0.046715062
101	0x3d956b0f	0.072958104
102	0x3a962640	0.0011455491
103	0xbd5617b9	-0.052268717
104	0xbd1d4c79	-0.038403008
105	0xbd76eeea	-0.06028644
106	0xbd90349c	-0.070412844
107	0x3d48c902	0.04901982
108	0x3d20f4a6	0.039295815
109	0xbd87a6fe	-0.06623648
110	0x3dac4e69	0.08413393
111	0xbd0dcef9	-0.034621213
112	0xbd42352a	-0.047413982
113	0x3c3d1bc0	0.011542261
114	0xbdb24192	-0.08703913
115	0x3d3a7306	0.04551985
116	0xbd5ba086	-0.053619884
117	0xbd7608f3	-0.06006713
118	0xbb164e80	-0.0022934973
119	0x3d32572a	0.043540157
120	0xbd1672b7	-0.036730494
121	0x3c5f86c0	0.013642967
122	0x3d76f0ae	0.060288124
123	0x3d3bad66	0.045819663
124	0xbdab94ac	-0.08377966
125	0xbd8b0614	-0.06788269
126	0xbc415b48	-0.011801548
127	0x3d9b8d17	0.0759527
128	0xbd43a073	-0.04776044
129	0x3cf86040	0.030319333
130	0x3d1f9aaa	0.03896586
131	0x3d726d62	0.059186347
132	0x3d08a57a	0.033360936
133	0x3d69b1d6	0.057054363
134	0xbcf62692	-0.030047689
135	0xbcddd06e	-0.027076926
136	0x3d668252	0.056276627
137	0x3bc10460	0.005890414
138	0xbd83c8f6	-0.06434815
139	0x3c2396f0	0.009984717
140	0x3ccf5a0c	0.025311492
141	0x3d61ae5a	0.055097915
142	0x3c2a7060	0.010402769
143	0xbc905a1c	-0.017621092
144	0xbd97bdd4	-0.07409254
145	0x3db47fcf	0.0881344
146	0x3c7e2388	0.015511401
147	0xbd29de29	-0.041471634
148	0x3d47b7c2	0.04875923
149	0x3d5fdeae	0.054655723
150	0x3d85af93	0.06527629
151	0x3d18194e	0.037133507
152	0xbcc7041c	-0.024293952
153	0x3d9fc423	0.07801082
154	0x3d167692	0.03673417
155	0xbdab0ec2	-0.08352424
156	0x3d887dd7	0.06664627
157	0xbda93c1e	-0.082634196
158	0x3dad0b65	0.08449439
159	0x3ca09628	0.01960285
160	0xbd825c46	-0.06365256
161	0x3c0c5120	0.008564264
162	0x3d994015	0.07482926
163	0x3d250cee	0.040295534
164	0x3c98a7a4	0.018634625
165	0xbd8a0600	-0.06739426
166	0xbcb8f3b8	-0.022577152
167	0xbcfbd13a	-0.030739415
168	0xbd9d641b	-0.07685109
169	0x3ca4ef90	0.020133764
170	0x3c90b508	0.017664447
171	0x3dafa663	0.085766576
172	0x3cdbca9c	0.02683001
173	0xbbbe5360	-0.005808279
174	0x3d82b7d9	0.063827224
175	0xbcb31a98	-0.021863267
176	0x3c534498	0.012894772
177	0xbd7a3d14	-0.061093405
178	0x3c9fb4c8	0.019495383
179	0xbd3ffc3b	-0.046871405
180	0x3d90f53d	0.070780255
181	0x3d9b96a7	0.07597094
182	0x3d7cd2fe	0.061724655
183	0xbd10fd57	-0.035397854
184	0xbd02f9ab	-0.031976383
185	0x3cb5f000	0.022209167
186	0xbd1a3a47	-0.037653234
187	0x3d53977a	0.05165813
188	0x3d9316c9	0.0718208
189	0x3d55cd4e	0.052197747
190	0xbda02f5a	-0.078215316
191	0x3da4ae47	0.08041053
192	0x3d994dd1	0.074855454
193	0xbce37e76	-0.027770262
194	0xbd806651	-0.06269515
195	0x3d7af2f2	0.061266847
196	0x3d865c95	0.06560627
197	0x3d4100c2	0.047119863
198	0xbd413e4e	-0.04717856
199	0x3cd0da50	0.025494725
200	0xbda613cb	-0.08109244
201	0xbdaad95b	-0.083422385
202	0x3be814b0	0.0070825443
203	0xbd4db3d8	-0.05022034
204	0x3ba8a050	0.005146064
205	0xbd86cbb4	-0.06581822
206	0x3dafc3a1	0.08582235
207	0x3d5768a6	0.052590035
208	0x3da2022f	0.07910573
209	0x3d066e22	0.032819875
210	0xbd63180b	-0.05544285
211	0x3d6dd956	0.058068596
212	0xbb86b980	-0.004111469
213	0x3d28431e	0.041079633
214	0x3c4531b0	0.012035772
215	0x3ce9c168	0.028534606
216	0xbc95efa8	-0.018302754
217	0x3cc57cd0	0.024107367
218	0xbd46aafa	-0.0485029
219	0x3baf24b0	0.0053449497
220	0xbd8a13e0	-0.06742072
221	0x3d484c66	0.048900984
222	0x3d9a4d17	0.07534235
223	0xbc087060	-0.008327574
224	0xbdaaa1fb	-0.083316766
225	0xbc8a11ec	-0.016854249
226	0xb9344200	-0.00017190725
227	0xbd252291	-0.04031617
228	0xbd9a5fbc	-0.07537791
229	0xbd2ac746	-0.04169395
230	0x3d37fe3e	0.0449202
231	0xbdb00ad6	-0.08595817
232	0x3d2edc1e	0.04269039
233	0x3d668cee	0.056286745
234	0xbcfce5d6	-0.030871313
235	0xbda6184c	-0.08110103
236	0xbca4433c	-0.020051591
237	0x3d82d09f	0.063874476
238	0x3bbe5e50	0.005809583
239	0x3d1d09f2	0.038339563
240	0x3d85d88b	0.06535443
241	0x3d6fbb46	0.058528207
242	0x3b37b9c0	0.00280343
243	0x3da1fcc3	0.079095386
244	0x3d94a0cb	0.07257231
245	0x3d93312d	0.07187114
246	0xbd9e9eb0	-0.07745111
247	0x3d1e1a46	0.038599275
248	0xbd2ed2da	-0.042681552
249	0x3d74742a	0.059681095
250	0x3d4a5d4a	0.049405374
251	0xbccd7088	-0.025078073
252	0xbceed56c	-0.029154502
253	0xbd99ba9a	-0.075062945
254	0x3d751e56	0.059843384
255	0x3d1128ce	0.035439305

feature.2.bias f4 [128]
0	0xbd9c4081	-0.07629491
1	0x3dad52b7	0.08463042
2	0x3afc7680	0.001926139
3	0xbba622d0	-0.005070068
4	0x3d45d382	0.048297413
5	0x3b9ffdb0	0.004882537
6	0xbc76a7c0	-0.015054643
7	0x3ba31c50	0.0049777403
8	0x3d56ba92	0.05242402
9	0x3dabe209	0.08392722
10	0xbd05bad4	-0.032648876
11	0x3d9fdd51	0.07805885
12	0xbbd000b0	-0.006347738
13	0xbd587ccc	-0.05285339
14	0xbd19dfb4	-0.037566856
15	0xbd975e3f	-0.07391023
16	0xbd30e7de	-0.043189876
17	0xbdb05517	-0.086099796
18	0x3d252e92	0.040327616
19	0xbd8d099d	-0.06886599
20	0x3d89b3ab	0.06723722
21	0xbcaacbc0	-0.020849109
22	0xba780800	-0.00094616413
23	0x3cea3b24	0.028592654
24	0xbce4761a	-0.027888346
25	0x3d914d51	0.07094825
26	0x3c10f9a8	0.008848585
27	0xbd49633b	-0.0491669
28	0xbcc678fc	-0.024227612
29	0xbd3cc835	-0.04608937
30	0x3d8fb469	0.070168324
31	0xbd172832	-0.036903568
32	0xbd503333	-0.050830077
33	0x3c289ea8	0.010291733
34	0x3d12d85a	0.03585086
35	0x3cc767ec	0.024341546
36	0x3dae4d15	0.08510796
37	0xbd9635a0	-0.07334447
38	0xbb8104e0	-0.0039373487
39	0x3d6dafca	0.058028974
40	0x3db13f71	0.086546786
41	0x3d5e9ee2	0.05435074
42	0xbdaff901	-0.085924156
43	0xbd9f2240	-0.077702045
44	0x3d39d1f6	0.04536625
45	0xbdac8123	-0.084230684
46	0x3d1840c2	0.037171133
47	0xbcfb98a2	-0.03071243
48	0x3c4ceb40	0.01250726
49	0xbd9566ad	-0.072949745
50	0x3ce21eac	0.027602516
51	0x3dab1165	0.08352927
52	0x3d7802a2	0.060549386
53	0xbc8c4ee0	-0.017127454
54	0x3c31e5b0	0.010857984
55	0xbce969ba	-0.028492797
56	0x3bb9f010	0.0056743696
57	0xbc9004d4	-0.017580427
58	0xbd97c04c	-0.074097246
59	0xbcfa014c	-0.030518197
60	0xbda872ae	-0.082249984
61	0xbc407748	-0.011747189
62	0x3d8ae6fd	0.06782339
63	0x3d1b4d32	0.037915416
64	0xbcc08810	-0.02350238
65	0xbd276374	-0.04086633
66	0xbcf48024	-0.029846258
67	0x3ce1adac	0.027548634
68	0x3d366c0a	0.044536628
69	0xbd63b34c	-0.055590913
70	0x3cc101ec	0.023560487
71	0xbd9885a4	-0.07447365
72	0x3d3cb212	0.04606826
73	0x3d79c6b6	0.06098052
74	0xbd434706	-0.047675155
75	0xbd4e8c4c	-0.050426766
76	0x3c62dbe0	0.013846368
77	0x3c57d7e0	0.013174027
78	0x3cce4fe0	0.025184572
79	0x3d6e412e	0.05816763
80	0x3c4bd358	0.012440525
81	0xbd7a0420	-0.06103909
82	0xbc9350f8	-0.017982945
83	0xbd9775a3	-0.07395484
84	0xbbf774c0	-0.0075517595
85	0xbc8c8f6c	-0.017158233
86	0x3c73fc98	0.014891766
87	0xbd86a484	-0.065743476
88	0x3da45ad3	0.08025136
89	0xbd8f6107	-0.07000928
90	0x3d00a196	0.0314041
91	0x3d223fca	0.039611615
92	0x3ce181d0	0.02752772
93	0xbc0d1f28	-0.008613385
94	0x3c229578	0.009923331
95	0x3d6a2ed6	0.057173572
96	0xbd76bb13	-0.060237
97	0xbc936de4	-0.017996736
98	0x3d3cbbf6	0.04607769
99	0x3c1e4180	0.009659171
100	0x3da7d581	0.081950195
101	0xbc8aec2c	-0.016958319
102	0xbd98eb78	-0.07466787
103	0x3dace593	0.08442225
104	0x3d4561de	0.048189037
105	0xbc55b768	-0.013044216
106	0x3d1265f4	0.03574176
107	0x3d68b536	0.05681344
108	0xbdb1c46d	-0.08680043
109	0x3db0af67	0.08627205
110	0xbc0006a0	-0.0078140795
111	0xbdb4c1fd	-0.08826063
112	0xbd393dc3	-0.045224916
113	0x3cbe3980	0.023220778
114	0x3db28bd5	0.08718077
115	0xbcb21404	-0.02173806
116	0x3c5d56b0	0.013509437
117	0x3d881805	0.06645206
118	0x3b1ceba0	0.0023944154
119	0x3c197370	0.009365901
120	0xbd33c30a	-0.043887176
121	0xbc8f0a48	-0.017460957
122	0x3ceb2a0c	0.028706573
123	0x3d2d8b72	0.042369314
124	0xbd961e9b	-0.07330056
125	0xbd921408	-0.07132727
126	0xbdb248f9	-0.08705325
127	0x3da6fdfb	0.08153912

value.0.weight f4 [64, 128]
0	0xbc842834	-0.016132452
1	0x3ccdb7c0	0.025112033
2	0xbcde143a	-0.027109254
3	0xbd96033c	-0.07324836
4	0xbcc1909c	-0.023628525
5	0xbda7408d	-0.08166609
6	0x3d47860e	0.04871183
7	0xbd2cf14e	-0.042222314
8	0xbd8144c3	-0.063119434
9	0x3d5737b2	0.05254335
10	0x3d1404b4	0.036137298
11	0x3cff3cac	0.03115686
12	0x3d323ade	0.04351317
13	0x3d60cdc2	0.054883726
14	0x3d957505	0.0729771
15	0x3d80d783	0.062911056
16	0x3cc054b4	0.02347789
17	0x3cdda294	0.027055062
18	0x3d419002	0.047256477
19	0x3d821021	0.063507326
20	0x3c93d620	0.018046439
21	0xbc0cd818	-0.008596443
22	0xbd9f230c	-0.077703565
23	0xbd945361	-0.07242466
24	0xbbca1d20	-0.0061680228
25	0x3cd7dd3c	0.02635061
26	0xbdab406f	-0.08361899
27	0x3d6a0ac6	0.05713918
28	0xbd9978d6	-0.07493751
29	0x3bc13b00	0.005896926
30	0x3b41e900	0.0029588342
31	0xbd7e078c	-0.062018916
32	0x3d9f9809	0.0779267
33	0x3c81ed48	0.015860215
34	0xbd326cec	-0.043560907
35	0xbd1336ab	-0.035940807
36	0x3cdbc908	0.026829258
37	0xbd8c73ba	-0.068580106
38	0xbda34c5e	-0.0797355
39	0x39b5cf00	0.00034677237
40	0x3d4e3f16	0.050353132
41	0xbb626500	-0.0034545064
42	0x3c66c610	0.014085308
43	0x3d90aacb	0.07063826
44	0x3d8a7cef	0.067621104
45	0xbd901726	-0.07035665
46	0x3da9634f	0.08270895
47	0xbd415555	-0.04720052
48	0x3d2af746	0.041739725
49	0x3d5d4306	0.054018997
50	0x3d6ae986	0.05735161
51	0x3d9c2013	0.07623305
52	0x3d9a40fd	0.07531927
53	0xbd1d5084	-0.038406864
54	0x3d89bb09	0.06725127
55	0xbd82d93c	-0.063890904
56	0x3dad4141	0.08459712
57	0x3d9c7de5	0.076412
58	0xb98ae100	-0.0002648905
59	0x3c9230b0	0.017845482
60	0xbdb1cc6a	-0.08681567
61	0x3cc4697c	0.02397608
62	0x3cf2f72c	0.029658876
63	0xbc84e814	-0.016223945
64	0xbdb1ba74	-0.08678141
65	0xbd791da1	-0.060819272
66	0xbd1cddf9	-0.038297627
67	0xbd8782be	-0.06616734
68	0xbd5985a4	-0.053105965
69	0x3c8a9834	0.01691828
70	0x3d2da362	0.042392142
71	0xbb697020	-0.003561981
72	0xbd129dd6	-0.035795055
73	0xbd7421fa	-0.059602715
74	0xbd91da1f	-0.071216814
75	0xbd0c417b	-0.034242135
76	0xbcf30878	-0.029667124
77	0x3d934a1f	0.07191872
78	0x3cfd5f7c	0.03092932
79	0xbd6b656b	-0.057469767
80	0xbcf7b64a	-0.03023829
81	0xbd842c61	-0.06453777
82	0x3da8798f	0.082263105
83	0x3d2693b6	0.040668212
84	0x3d723cb6	0.05913993
85	0xbd596aa1	-0.053080205
86	0xbd1c6e76	-0.03819128
87	0xbc1493f0	-0.009068474
88	0xbcffcc1e	-0.03122526
89	0xbdade893	-0.08491626
90	0x3d10f9a6	0.035394333
91	0xbd915273	-0.07095804
92	0xbda7613a	-0.08172841
93	0xbd4f74ef	-0.050648626
94	0xbdaf3342	-0.085546985
95	0x3d9cf5c3	0.07664063
96	0xbc82bd6c	-0.015959464
97	0x3cee051c	0.02905517
98	0x3d3f635e	0.046725623
99	0x3d8f5ce5	0.0700014
100	0xbd17343d	-0.036915053
101	0x3d2b5236	0.04182645
102	0xbca2ef7c	-0.019889586
103	0xbd68ccce	-0.056835942
104	0x3c3a3558	0.011365257
105	0xbd7f0cd3	-0.06226809
106	0x3d8d993d	0.069139935
107	0x3daf56e7	0.08561497
108	0x3d2f5676	0.042807065
109	0x3d707a7e	0.058710568
110	0x3d849ea7	0.06475573
111	0x3d362c82	0.04447604
112	0xbc63dc30	-0.013907477
113	0x3d56ff0a	0.052489318
114	0x3d31db2a	0.0434219
115	0xbd899db4	-0.067195326
116	0xb94ed400	-0.00019724667
117	0x3d84cc05	0.06484226
118	0xbcf2019a	-0.02954178
119	0xbd90a232	-0.07062186
120	0xbda4e782	-0.08051969
121	0x3dab205b	0.08355781
122	0xbc362098	-0.011116169
123	0x3da47795	0.08030621
124	0x3db0583f	0.086105816
125	0x3cab3800	0.020900726
126	0x3cd356a4	0.02579815
127	0xbd8d9c22	-0.069145456
128	0xbc521760	-0.012822956
129	0xbc7e8238	-0.015533976
130	0x3d9b06db	0.07569667
131	0x3d496512	0.049168654
132	0x3cba8a60	0.02277106
133	0xbd35c6be	-0.04437899
134	0xbdae847f	-0.085213654
135	0x3d913d8d	0.07091818
136	0x3d548ce6	0.051892184
137	0x3d1c844e	0.038212113
138	0xbd744d4c	-0.05964403
139	0x3bed2f70	0.007238321
140	0xbd4accad	-0.0495116
141	0x3ca29d48	0.019850388
142	0x3d07b4be	0.033131354
143	0x3cf26928	0.029591158
144	0x3d5f93a2	0.054584153
145	0xbc6e7588	-0.014554389
146	0x3d911b8b	0.070853315
147	0xbd94e21e	-0.07269691
148	0xb880b800	-6.137788e-05
149	0x3d48f70a	0.04906372
150	0x3ba83700	0.0051335096
151	0xbd1c3837	-0.03813955
152	0x3d8eaee1	0.06966949
153	0x3d6e3cb2	0.058163352
154	0xbd0b2dac	-0.033979103
155	0x3d44a596	0.048009478
156	0x3c420468	0.011841871
157	0x3d9215b5	0.071330465
158	0xbd589b53	-0.052882504
159	0x3d8579d5	0.06517378
160	0x3cd3893c	0.025822274
161	0x3ce358a8	0.027752236
162	0xbaf50040	-0.0018692091
163	0x3d855c27	0.06511717
164	0xbd16cae2	-0.036814578
165	0x3db47063	0.088104986
166	0xbd6d91d2	-0.058000393
167	0x3d59d2a2	0.05317939
168	0x3cf2513c	0.029579751
169	0xbdb1a746	-0.08674483
170	0xbd97c307	-0.074102454
171	0x3c377ee8	0.01119969
172	0xbd03433d	-0.032046545
173	0xbc9a69b8	-0.018849239
174	0x3d937db7	0.072017126
175	0x3ca4ea18	0.020131156
176	0x3b9bb1d0	0.0047514215
177	0xbca4a898	-0.020099923
178	0x3d9e06c5	0.07716135
179	0xbd1ffffa	-0.039062478
180	0x3da20ed1	0.07912982
181	0x3b97cfc0	0.00463292
182	0xbd22acb6	-0.03971549
183	0x3d8351ef	0.06412112
184	0x3db04189	0.0860625
185	0x3d8234cf	0.06357729
186	0x3dafe4af	0.0858854
187	0x3d8cdcf9	0.06878085
188	0x3adc0e80	0.0016788989
189	0x3d9fdae9	0.07805426
190	0xbd6e51d8	-0.05818352
191	0x3d7857da	0.060630657
192	0xbd5964ce	-0.05307465
193	0x3cf2261c	0.029559188
194	0xbd8b9efd	-0.06817434
195	0xbbff52c0	-0.007791847
196	0xbd88e2cf	-0.06683885
197	0x3d8c1d59	0.06841535
198	0xbd86a8be	-0.06575154
199	0x3d9cc5b5	0.07654897
200	0x3d9ada01	0.07561112
201	0xbda1e376	-0.07904713
202	0x3dad849f	0.08472561
203	0x3db24fd7	0.087066345
204	0x3d4f5e72	0.05062718
205	0xbcbe57a4	-0.02323515
206	0x3d9bc41d	0.07605765
207	0x3d870ba3	0.065940164
208	0x3d96763b	0.073467694
209	0xbda6219c	-0.08111879
210	0x39a8c600	0.00032190979
211	0x3d60dbfe	0.0548973
212	0xbd2d1a4e	-0.042261414
213	0xbd857122	-0.06515719
214	0xbd102f48	-0.03520134
215	0x3db077cb	0.08616599
216	0x3d374572	0.044743963
217	0x3d691956	0.056908928
218	0x3c6e5470	0.014546499
219	0x3c0a8a08	0.008455761
220	0xbd05e139	-0.032685492
221	0xbd9997be	-0.07499646
222	0xbceb8edc	-0.028754644
223	0xbd534466	-0.0515789
224	0x3ce75a44	0.028241284
225	0x3d198e82	0.03748942
226	0xbd5d74a9	-0.054066334
227	0x3c275b90	0.010214701
228	0x3d687e36	0.05676099
229	0x3c5ccd10	0.013476625
230	0xbd0c0aae	-0.034189872
231	0x3d070c92	0.032970972
232	0x3cbc0c6c	0.022955142
233	0xbd06491f	-0.032784577
234	0x3c24d130	0.01005964
235	0xbd5c5f17	-0.053801622
236	0x3db1f255	0.08688799
237	0x3d44be86	0.04803326
238	0xbd79cc65	-0.06098594
239	0x3db2c71b	0.087293826
240	0x3c34f678	0.011045091
241	0x3d836ba3	0.064170144
242	0xbc8269c4	-0.015919574
243	0x3d01c0de	0.031678073
244	0x3c226ea8	0.009914078
245	0xbd91ff8b	-0.07128819
246	0xbab313c0	-0.0013662502
247	0xbcc56e60	-0.024100482
248	0xbccd2fac	-0.025047146
249	0x3ccf2c7c	0.025289766
250	0xbd8d4042	-0.06897022
251	0x3d8af907	0.067857794
252	0x3b0e42a0	0.0021707192
253	0xbbd7dfc0	-0.0065879524
254	0x3c1a5970	0.009420738
255	0xbce38374	-0.027772643

value.0.bias f4 [64]
0	0xbcf541e4	-0.029938646
1	0xbcbd23d8	-0.02308838
2	0x3d312f8e	0.043258242
3	0x3d72cdce	0.059278302
4	0xbd877848	-0.06614739
5	0x3d549122	0.051896222
6	0xbdaffcc8	-0.08593136
7	0xbdafa3cc	-0.08576164
8	0xbda40be8	-0.080100834
9	0x3b1a2420	0.0023520067
10	0x3d94e643	0.072704814
11	0xbb85e560	-0.0040861815
12	0xbd0c41cd	-0.03424244
13	0xbd504ac4	-0.050852552
14	0x3d922acf	0.07137071
15	0xbc06bc00	-0.008223534
16	0xbd9c8bc4	-0.07643846
17	0x3b9f0070	0.004852347
18	0xbc399b68	-0.011328556
19	0x3d3ca52a	0.04605595
20	0x3d8725df	0.0659902
21	0x3882c000	6.234646e-05
22	0xbc856f2c	-0.016288362
23	0xbd8d2873	-0.06892481
24	0x3ca47508	0.020075336
25	0xbc3feb28	-0.01171378
26	0xbd274c2a	-0.04084412
27	0xbd8f860a	-0.07007988
28	0x3d61b64e	0.0551055
29	0x3d947d6b	0.07250484
30	0x3d69807a	0.05700729
31	0x3db248f9	0.08705325
32	0x3d9d3981	0.076769836
33	0x3d838d55	0.06423441
34	0x3d5e64ee	0.054295473
35	0xbd5b7942	-0.053582437
36	0xbd3266de	-0.043555133
37	0xbda4ce26	-0.08047132
38	0x3d4dae2a	0.050214924
39	0xbca11e88	-0.019667879
40	0xbc0804d0	-0.008301929
41	0xbd6dfe84	-0.058104053
42	0xbda2f8d4	-0.079576164
43	0xbcc90a7c	-0.024541132
44	0x3d33d3be	0.043903105
45	0x3d79c73a	0.060981013
46	0x3d05eed0	0.032698452
47	0x3cfefcbc	0.031126373
48	0xbd9e889a	-0.077408984
49	0x3ce96ac0	0.028493285
50	0xbc275fd8	-0.010215722
51	0xbd0285ec	-0.031866
52	0xbc23b188	-0.009991057
53	0x3d2ff112	0.042954512
54	0x3da44095	0.080201305
55	0xbd8f847d	-0.07007692
56	0xbcdedc0c	-0.027204536
57	0x3d02de12	0.031950064
58	0xbc09b060	-0.0084038675
59	0x3cba1e84	0.02271963
60	0xbd59f7c0	-0.05321479
61	0x3d1a365a	0.03764949
62	0xbd63a0a0	-0.055573106
63	0x3c128670	0.008943185

value.2.weight f4 [1, 64]
0	0xbdb43f0e	-0.08801089
1	0xba24e700	-0.0006290525
2	0x3da0788e	0.07835494
3	0xbd9161e6	-0.07098751
4	0xbda9a1d6	-0.08282821
5	0xbdefa42c	-0.11701235
6	0x3c819148	0.015816346
7	0x3d873fb0	0.06603944
8	0x3d16e2ac	0.036837265
9	0x3d504c10	0.05085379
10	0xbdf92c48	-0.12166649
11	0xbcf1cd18	-0.029516742
12	0x3dfcd6b8	0.12345642
13	0x3d5794ec	0.052632257
14	0x3da6b434	0.0813984
15	0x3d90f33e	0.07077645
16	0xbd9ba13e	-0.07599114
17	0xbd0c606c	-0.034271643
18	0xbd28e0dc	-0.041230068
19	0x3c8182d8	0.015809461
20	0x3d79cc58	0.060985893
21	0x3d1510e8	0.036393076
22	0xbdd075da	-0.101787284
23	0xbdc8c20e	-0.09802638
24	0x3d627ad0	0.055292904
25	0x3dd5d162	0.10440327
26	0x3cfd23b8	0.030900821
27	0xbdd6d6be	-0.104901776
28	0xbcad80e0	-0.021179616
29	0xbcee1040	-0.029060483
30	0x3db9e114	0.09076133
31	0x3d6c4d48	0.05769089
32	0xbdc66a56	-0.09688251
33	0x3dae60a8	0.085145295
34	0xbde95120	-0.113924265
35	0xbc8a26d8	-0.016864225
36	0x3bb1ffc0	0.005432099
37	0xbdd1f4c2	-0.10251762
38	0x3dc775fc	0.097393006
39	0xbb997300	-0.0046828985
40	0x3ddf5498	0.10904807
41	0xbd8b3dda	-0.067989066
42	0xbd67ca8c	-0.056589648
43	0xbbe86b60	-0.007092878
44	0xbd2f1110	-0.04274088
45	0x3ce8e988	0.028431669
46	0xbdf50414	-0.119636685
47	0x3d6c23f8	0.05765149
48	0x3dc13b68	0.09435159
49	0x3c583570	0.013196334
50	0x3d1d54a4	0.038410798
51	0x3dd0026e	0.101567134
52	0xbbe28ce0	-0.0069137663
53	0x3d76750c	0.06017022
54	0x3d3568dc	0.044289455
55	0x3d9cfc94	0.07665363
56	0xbd6f36fc	-0.058402047
57	0x3df19816	0.11796586
58	0xbc86ee38	-0.016471013
59	0x3d93e7f8	0.07221979
60	0x3c98ae40	0.018637776
61	0x3c5ab980	0.013349891
62	0xbdeb82c0	-0.11499548
63	0xbc7a3d20	-0.015273362

adv.0.weight f4 [64, 128]
0	0xbd2e5944	-0.0425656
1	0xbcd38d64	-0.025824256
2	0xbceffac8	-0.029294387
3	0xbd9f32f0	-0.077733874
4	0xbb903460	-0.004400775
5	0xbd47ccf4	-0.048779443
6	0xbd2dff13	-0.042479586
7	0xbd875707	-0.06608396
8	0x3cac1c28	0.02100952
9	0xbd3a820c	-0.04553418
10	0x39bc9800	0.00035971403
11	0x3c71bcf0	0.014754519
12	0x3ca33590	0.019923002
13	0x3d8a3303	0.06748011
14	0x3ca131fc	0.019677155
15	0xbda9cb16	-0.08290689
16	0xbc0d13c8	-0.008610673
17	0x3d73224e	0.059358887
18	0x3d38565a	0.045004226
19	0xbd99a718	-0.07502574
20	0x3c545d60	0.012961715
21	0x3c949824	0.018138953
22	0xbd8fb22b	-0.07016405
23	0xbcff18d8	-0.031139776
24	0xbc0dfd40	-0.008666337
25	0x3ca48058	0.02008073
26	0xbd0f7452	-0.03502304
27	0x3d1dd4da	0.03853307
28	0x3c3df1a8	0.01159326
29	0xbda4a645	-0.08039526
30	0x3ce720d0	0.028213888
31	0x3cba6020	0.022750914
32	0x3c94041c	0.018068366
33	0xbd0eff70	-0.034911573
34	0xbd7e4026	-0.062072895
35	0x3bbbe120	0.005733624
36	0xbd867062	-0.06564404
37	0xbd6152c1	-0.05501056
38	0xbdad2986	-0.084551856
39	0xbd27fae8	-0.041010767
40	0x3cad6178	0.02116464
41	0xbbcec560	-0.00631015
42	0x3d5b9606	0.05360987
43	0x3c568df0	0.013095364
44	0xbd9ee316	-0.07758157
45	0xbd930dd6	-0.07180373
46	0x3da4bcbf	0.08043813
47	0xbd920496	-0.07129781
48	0x3c91cd44	0.017798074
49	0x3d2c11d6	0.042009197
50	0x3d08024a	0.033205308
51	0x3da0ffed	0.07861314
52	0xbd50016a	-0.0507826
53	0xbd8a22da	-0.06744929
54	0xbd273edd	-0.040831435
55	0x3b9ed220	0.004846826
56	0x3d40c156	0.04705938
57	0xbc8bd8d8	-0.017071173
58	0x3bdd8e40	0.0067613423
59	0xbd855a54	-0.06511369
60	0xbdb288e0	-0.08717513
61	0x3d82d919	0.06389064
62	0x3d9d6de5	0.07686976
63	0xbc1cab10	-0.009562269
64	0x3bc6cfb0	0.0060672387
65	0x3d4a91c2	0.04945541
66	0x3d4c0c8e	0.04981666
67	0xbd0ab2d6	-0.033861957
68	0xbd477e77	-0.04870459
69	0xbda57726	-0.080793664
70	0xbd9d9cf4	-0.07695952
71	0x3d0610ce	0.03273087
72	0x3db1aecb	0.08675917
73	0x3d959aef	0.07304942
74	0x3d94751d	0.072489
75	0xbb3251e0	-0.0027209446
76	0xbbc7f7d0	-0.0061025396
77	0x3c85a5a0	0.016314328
78	0x3d0ca7e0	0.034339786
79	0xbdacd540	-0.08439112
80	0x3d885a2b	0.06657823
81	0x3ca7f7a0	0.020503819
82	0xbd0d7d34	-0.03454323
83	0xbd026b08	-0.031840354
84	0xbd6b7f8a	-0.057494678
85	0x3bd72cc0	0.006566614
86	0xbd86d1d1	-0.06582988
87	0x39c04d00	0.00036678463
88	0x3d10fd0c	0.035397574
89	0xbd5ca391	-0.053866927
90	0xbd8c4d21	-0.06850649
91	0xbd556435	-0.052097518
92	0xbd2522b3	-0.040316295
93	0x3c62f1e0	0.013851613
94	0x3bbbb2a0	0.005728081
95	0xbd3c3d6a	-0.045957007
96	0xbdb0f742	-0.08640911
97	0xbd5abc23	-0.053402077
98	0xbd575d15	-0.052579004
99	0x3d23d48a	0.039997615
100	0xbda9367b	-0.082623444
101	0xbcfcfc0a	-0.0308819
102	0xbd94e64c	-0.07270488
103	0x3d9ed855	0.07756106
104	0xbb8a2c80	-0.0042167306
105	0xbd87ba59	-0.0662734
106	0x3d99445d	0.074837424
107	0x3d60e6fe	0.05490779
108	0x3abe7400	0.001453042
109	0x3db0cfc9	0.08633382
110	0xbc1f46a8	-0.009721436
111	0xbd55665d	-0.052099574
112	0x3d550ee6	0.05201616
113	0x3cee2964	0.029072471
114	0xbd7efa82	-0.06225062
115	0xbd42b66c	-0.047537252
116	0x3c67a560	0.01413855
117	0x3ceb29c0	0.028706431
118	0x3da88a8d	0.082295515
119	0x3be575c0	0.0070025623
120	0xbc9e9250	-0.019356877
121	0x3c502b60	0.012705654
122	0x3c8c6648	0.017138615
123	0xbc88ded0	-0.016707808
124	0xbc534a58	-0.012896143
125	0xbda50f1f	-0.08059525
126	0x3c98fcdc	0.01867526
127	0x3c945830	0.018108457
128	0x3c883b60	0.016629875
129	0xbd63d31e	-0.05562126
130	0xbca65a08	-0.020306602
131	0x3c8824c8	0.016619101
132	0x3d349e72	0.044096418
133	0x3d8293c3	0.063758396
134	0xbd96f6be	-0.07371281
135	0xbd2d1faa	-0.042266525
136	0xb92afa00	-0.00016305596
137	0xbd5c148b	-0.05373053
138	0x3d05e46e	0.03268855
139	0xbd82051d	-0.063486315
140	0xbd1efa78	-0.038813084
141	0x3d03c7a2	0.032172807
142	0x3d871337	0.06595462
143	0xbd3d6fa6	-0.046249054
144	0xbbfb4f40	-0.0076693594
145	0x3d56e4b6	0.05246421
146	0xbcb50848	-0.022098675
147	0xbd3cfeff	-0.04614162
148	0xbdaed265	-0.08536223
149	0xbb38d140	-0.0028200895
150	0xbabf7f40	-0.0014610067
151	0x3c604f20	0.01369074
152	0x3d013d24	0.03155245
153	0x3c6034b0	0.013684437
154	0x3d9e4495	0.07727925
155	0x3d138500	0.03601551
156	0xbda4cd36	-0.080469534
157	0xbd74a294	-0.05972536
158	0xbd038705	-0.032111187
159	0xbdb0429f	-0.08606457
160	0x3b323900	0.002719462
161	0xbd345a45	-0.0440314
162	0xbcc0a4ac	-0.023516022
163	0x3d827dd7	0.06371658
164	0x3d8e6bcb	0.069541536
165	0x3cea9e00	0.028639793
166	0x3d2dccda	0.04243169
167	0x3c088e10	0.008334652
168	0xbd8a2b96	-0.067465946
169	0xbbae9300	-0.0053275824
170	0x3d708632	0.05872173
171	0xba8e4400	-0.0010854006
172	0xbdb2f6c5	-0.08738474
173	0xbd66bf18	-0.056334585
174	0x3d99dc9b	0.0751278
175	0xbbd739f0	-0.006568186
176	0x3d6f1bbe	0.058376066
177	0xbccd8748	-0.025088921
178	0xbb933fa0	-0.0044936687
179	0x3cdc8740	0.026919961
180	0x3d4b2322	0.049594052
181	0xba4a0a80	-0.0007707253
182	0x3d344592	0.04401166
183	0x39022400	0.00012411177
184	0x3c4d5c78	0.012534253
185	0xbbfe5bb0	-0.007762395
186	0xbd518c5b	-0.051159244
187	0xbcd60882	-0.026127104
188	0xbd63dd56	-0.055631004
189	0x3c9244b4	0.017855026
190	0xbd917388	-0.07102114
191	0xbd41afcf	-0.047286805
192	0x3d31b3fa	0.04338453
193	0xbd2b1254	-0.041765526
194	0xbd839267	-0.064244084
195	0xbb9cb400	-0.0047822
196	0xbd6bf030	-0.057602108
197	0x3c0880e0	0.008331507
198	0x3dabf117	0.083955936
199	0xbd1f40f5	-0.038880307
200	0x3b485a60	0.0030571446
201	0xbd871713	-0.06596198
202	0x3cfb5778	0.030681357
203	0x3c63b710	0.013898626
204	0xbbc0c6d0	-0.0058830753
205	0x3d9a8d09	0.075464316
206	0xbcce037c	-0.025148146
207	0xbd83ffe9	-0.06445295
208	0xbbd36b90	-0.0064520314
209	0xbc8aacd4	-0.016928114
210	0x3d32a31e	0.043612592
211	0xbd202ab1	-0.039103214
212	0x3d745446	0.059650682
213	0x3d1ee5d2	0.038793392
214	0x3be0f460	0.0068650693
215	0x3d93346b	0.07187732
216	0x3cd7e61c	0.026354842
217	0xbd021510	-0.031758368
218	0x3d33faa2	0.043940194
219	0x3d7196b6	0.05898162
220	0xbd4f7b82	-0.050654896
221	0x3d5e3956	0.0542539
222	0xbd38a89e	-0.04508268
223	0x3ca0b670	0.019618243
224	0x3d950f7d	0.07278345
225	0xbd9fcedc	-0.07803127
226	0x3d93beff	0.07214164
227	0xba130300	-0.0005608052
228	0xbd3cc7b6	-0.046088897
229	0x3d5e6eaa	0.054304756
230	0x3d2051f6	0.039140664
231	0x3d742396	0.05960425
232	0xbdaa1f8d	-0.08306799
233	0xbd861138	-0.06546253
234	0xbbe78660	-0.0070655793
235	0xbcfc2186	-0.030777704
236	0xbd8a30bd	-0.06747577
237	0xbd8b7a51	-0.068104394
238	0x3d186276	0.037203275
239	0xbcc6281c	-0.024189048
240	0x3d27e926	0.040993832
241	0xbd9cf6e4	-0.07664278
242	0x3d0a6788	0.03379014
243	0xbd4b7b8a	-0.049678363
244	0xbd5d6fb3	-0.054061603
245	0x3da2186b	0.079148136
246	0xbce02836	-0.027362924
247	0xbdac7836	-0.08421366
248	0x3da991fd	0.08279798
249	0x3d2ef9e2	0.042718776
250	0x3d937dc7	0.072017245
251	0xbd9f6304	-0.077825576
252	0xbcbeb7d8	-0.023281023
253	0xbd8c9d64	-0.068659574
254	0xbc06f138	-0.008236222
255	0xbd4ead85	-0.05045845

adv.0.bias f4 [64]
0	0x3d8d5ae5	0.069021024
1	0xbd50aa04	-0.05094339
2	0x3d1ea84e	0.038734727
3	0xbd91a5e2	-0.07111718
4	0xbd82e5e1	-0.06391502
5	0xbdb2b2b0	-0.08725488
6	0x3da0125f	0.07816004
7	0xbc4a7c88	-0.012358792
8	0xbbfd2c60	-0.007726237
9	0x3cd92cdc	0.026510648
10	0xbda03c9b	-0.078240596
11	0xbda5ef3f	-0.08102273
12	0x3d2d34fa	0.04228685
13	0xbdb10c68	-0.086449444
14	0x3d1983c6	0.037479185
15	0x3d3581d2	0.04431326
16	0xbd2e56de	-0.04256331
17	0x3d0e199e	0.0346924
18	0xbd2a49aa	-0.041574158
19	0x3d5f2a36	0.054483615
20	0x3d829eeb	0.063779674
21	0x3c8c7410	0.017145187
22	0xbd8b95c6	-0.068156764
23	0x3c4a4fb8	0.012348108
24	0x3d8d5845	0.06901602
25	0xbd1da2d9	-0.03848538
26	0x3d438b32	0.04774017
27	0x3d260c36	0.04053899
28	0xbd0266b0	-0.03183621
29	0xbd183ef6	-0.03716942
30	0xbd8de2c0	-0.06928015
31	0xbcc6abf0	-0.024251908
32	0x3dafab63	0.08577611
33	0x3c84d404	0.016214378
34	0xbc5022e0	-0.012703627
35	0x3da04525	0.07825688
36	0xbc8211b8	-0.01587759
37	0xbceeb382	-0.02913833
38	0xbd05177a	-0.032493092
39	0xbd61d2af	-0.055132564
40	0x3d82e8bb	0.06392046
41	0x3d917bb1	0.071036704
42	0xbd477bba	-0.04870198
43	0x3d92dbc1	0.07170821
44	0xbd54d35c	-0.05195938
45	0x3d363a0a	0.044488944
46	0x3db07653	0.086163186
47	0x3bd14180	0.006385982
48	0x3daea245	0.08527044
49	0x3cc7ca40	0.024388433
50	0x3d3e45ca	0.046453275
51	0x3c702360	0.014656872
52	0xbd5f026b	-0.054445665
53	0x3c74c9e0	0.014940709
54	0x3c617a48	0.013762064
55	0xbd541923	-0.051781785
56	0xbd7b8352	-0.061404534
57	0x3d4b915a	0.049699165
58	0x3c3ccc60	0.011523336
59	0xbca87b54	-0.02056662
60	0x3d8a8f2f	0.06765591
61	0x3d317f02	0.043334015
62	0xbb41ab00	-0.0029551387
63	0xbccec314	-0.025239505

adv.2.weight f4 [2, 64]
0	0x3de3d91c	0.11125395
1	0xbafcea00	-0.0019295812
2	0x3d3a7034	0.04551716
3	0x3d6332f0	0.0554685
4	0xbd93733e	-0.07199715
5	0xbd9ee0e0	-0.07757735
6	0xbdd0de76	-0.10198681
7	0xbd051bac	-0.032497093
8	0x3dd9d106	0.10635571
9	0x3da2df52	0.07952751
10	0x3d8d5fbc	0.069030255
11	0xbd5cd7dc	-0.053916797
12	0xbd711fbc	-0.058868155
13	0x3d7cea98	0.061747164
14	0xbd30a08c	-0.04312186
15	0xbd8a3de4	-0.06750086
16	0x3d359e14	0.04434021
17	0x3de0fbb0	0.109855056
18	0x3cfbb5b0	0.030726284
19	0x3941d800	0.0001848638
20	0xbdfd9cd2	-0.12383427
21	0x3d59d118	0.053177923
22	0x3d8cbf18	0.06872386
23	0x3dca99b8	0.09892601
24	0xbc379170	-0.011204109
25	0xbb835120	-0.0040074736
26	0x3d722f64	0.059127226
27	0x3d63bdc0	0.05560088
28	0xbb8ccf00	-0.0042971373
29	0x3d8083e4	0.06275156
30	0x3d14d6f4	0.036337808
31	0xbc88a320	-0.016679347
32	0xbd7dcaa4	-0.06196083
33	0x3d2ff2fc	0.042956337
34	0xbbb87b60	-0.005629942
35	0x3d06b934	0.032891467
36	0xbd221f2c	-0.03958051
37	0xbd615a60	-0.05501783
38	0xbbe0f640	-0.006865293
39	0x3d7f957c	0.06239842
40	0x3d265844	0.04061152
41	0xbdec1022	-0.115265146
42	0xbb405a00	-0.002935052
43	0xbdb0580e	-0.08610545
44	0xbde6f24a	-0.11276682
45	0x3dc3d5b8	0.09562248
46	0xbdfb2df4	-0.12264624
47	0xbdf4afce	-0.119475946
48	0xbdebf6c2	-0.11521675
49	0x3db24028	0.08703643
50	0x3da2a50a	0.07941635
51	0x3c8bcfe0	0.017066896
52	0xbdd9eef2	-0.10641278
53	0x3d9f6230	0.077824
54	0xbdfa3420	-0.12216973
55	0x3cbd8d68	0.023138717
56	0x3d9a2bc4	0.07527879
57	0x3c9a8ed8	0.018866941
58	0xbdcae69a	-0.09907265
59	0xbb0cfec0	-0.0021514148
60	0xbcccf920	-0.025021136
61	0xbd98c360	-0.0745914
62	0xbd9b8aa0	-0.075948
63	0x3db56d04	0.08858684
64	0x3da10c56	0.07863681
65	0x3c2bb130	0.0104792565
66	0xbd84ed62	-0.0649059
67	0xbd08e874	-0.03342481
68	0xbce654a0	-0.028116524
69	0x3dc55808	0.09635931
70	0x3a947900	0.0011327565
71	0x3d6168cc	0.055031583
72	0x3d2690c8	0.040665418
73	0xbca29058	-0.01984422
74	0xbd49dd30	-0.049283206
75	0xbdff0be4	-0.1245344
76	0x3daba1f6	0.08380501
77	0xbd6fdae0	-0.058558345
78	0x3d79a168	0.060944945
79	0xbd6243cc	-0.055240437
80	0x3d971474	0.07376948
81	0xbc43f2a0	-0.011959702
82	0xbaf5ab80	-0.0018743128
83	0x3d343c0c	0.044002578
84	0x3d65d35c	0.05610977
85	0xbc786370	-0.0151604265
86	0xbc872238	-0.016495809
87	0xbd23f600	-0.040029526
88	0xbd9bf500	-0.076150894
89	0x3d10091c	0.035164937
90	0xbd406f58	-0.046981186
91	0x3db424fa	0.08796115
92	0xbd20b6e4	-0.039236918
93	0x3ddfd09e	0.109284624
94	0x3dc8a030	0.09796178
95	0x3d60b504	0.05486013
96	0xbce98158	-0.028504059
97	0xbc694d80	-0.014239669
98	0x3c3c4c60	0.011492819
99	0xbd806de4	-0.0627096
100	0xbdc0932c	-0.09403071
101	0x3cc33d98	0.023833081
102	0xbc974b10	-0.01846841
103	0x3d872712	0.06599249
104	0x3dc63ec2	0.09679939
105	0xbb350b00	-0.0027624965
106	0xbd94966a	-0.07255252
107	0xbdc6e200	-0.09711075
108	0xbdb6f642	-0.08933689
109	0x3d95369a	0.07285805
110	0xbd98378c	-0.0743247
111	0xbca331a0	-0.019921124
112	0x3bc13f40	0.0058974326
113	0xbd0b9678	-0.034079045
114	0xbd707608	-0.058706313
115	0x3d35cfb4	0.044387534
116	0x3daf8ff0	0.08572376
117	0xbcfb4400	-0.030672073
118	0x3d169a2c	0.036768124
119	0x3ddfb0aa	0.10922368
120	0xbdc5e802	-0.096633926
121	0xbd9252d6	-0.07144706
122	0x3d76b088	0.060226947
123	0x3cad3b60	0.021146476
124	0xbdefd734	-0.117109686
125	0xbdf8ca24	-0.1214793
126	0x3dfdb630	0.12388265
127	0xbd9ab170	-0.07553375

adv.2.bias f4 [2]
0	0x3d8a3248	0.06747872
1	0xbd98adb8	-0.07455009
