positive_per_main/checkpoints/ep_0005.pt (torch, 145855 bytes, 11 tensors)

feature.0.weight f4 [128, 16]
2.077411 -0.5207094 -0.27491912 -0.41657242 -2.6770546 0.83502704 1.3039392 0.9163278
0.73323375 0.669788 -0.28899693 -0.4432577 0.32138708 0.54049724 2.4510307 -0.99634224
0.2622781 -0.092764765 -0.45076746 -0.24697185 0.33766183 0.2307111 0.6360716 0.4918589
-0.8516154 -0.4913356 -0.23071589 -0.6016833 -0.354551 -0.39481002 0.23832062 -0.5129676
-0.4633471 0.32853052 0.2634885 0.103050455 -0.22038287 0.13936225 0.2281056 0.36978024
0.13650592 0.1458803 0.9211105 0.8421295 0.17327596 -0.44890183 -0.43929756 -0.5669177
1.0007442 0.35204512 0.4599899 0.6847912 1.8101375 -0.55697 -0.1422208 -0.15881902
0.9144918 0.9964072 0.37109792 0.15603927 0.64264935 -0.9295979 0.60002846 -0.677414
1.4365743 -0.12237479 -0.108685985 0.17619197 1.0960952 -0.04677064 -0.1854046 0.14093404
1.123283 0.9438928 -0.04213437 -0.04062208 0.74289453 -6.1271787 0.49346885 0.028193405
-0.22923262 0.16657767 -0.09101935 0.03592877 -1.8150667 0.9052657 1.0264007 1.1591283
-0.45757687 -0.36549324 0.23165914 0.3448185 0.3587418 0.4414115 0.9204894 -0.41621846
0.47086078 -0.35400483 -0.22472577 -0.1364873 -0.30885896 -0.030703487 0.13813436 0.14838424
0.18233955 0.1910646 0.32630208 0.1228284 0.18750198 -0.56177187 0.12550151 -0.64628595
0.04039305 -0.1895729 -0.10555849 -0.11724052 -2.1539798 -0.08006455 -0.116237365 -0.100642905
0.38955623 0.6881067 -1.0687137 -1.251186 -1.1074995 -1.2173556 -1.1441041 0.07538768
-2.3525112 -0.43040577 -0.38188627 -0.54677284 2.1586797 -2.6062207 -2.9243708 -2.858592
0.7242117 0.75051415 0.13951862 0.2035906 -0.21488248 0.39972112 0.13373102 0.044025227
-1.744175 0.9610943 0.7910009 0.8865455 1.7766464 -0.22930506 -0.21132326 -0.19546516
0.12976594 -0.052808687 0.46133292 0.1706436 0.7089999 -0.4163358 0.17093134 -0.19633362
1.4754419 -0.98872143 -0.91768426 -1.249463 -0.31878212 -0.51177585 -0.4553519 -0.3598439
0.15800321 0.08806757 -0.45424047 -0.5346606 0.0010865993 -1.376952 -0.734559 -0.10789326
0.19818068 0.005134742 -0.09476954 -0.0033911415 1.5501179 0.22356185 0.12364061 -0.051916093
-0.63795006 -0.805176 -0.13007611 -0.12635738 0.4834848 -3.0182543 0.5565789 -0.35712016
-0.22241607 0.56102884 0.43542367 0.6239834 -3.2575548 -0.561714 -0.7691559 -0.7541364
-0.24781589 -0.2750385 0.7301756 0.52855414 0.6801817 -0.039653048 0.4640646 -1.0136015
0.39877677 0.7174409 0.49977916 0.24622592 2.0675616 -0.43367296 -0.20559831 -0.38884127
-0.35714686 -0.17036101 1.495319 1.7128958 0.6132727 -0.6048978 -0.78813964 0.081821606
-0.74068946 0.480596 0.25387412 0.26382223 -0.75781757 -0.40095702 -0.69964194 -0.54706055
-1.1952555 -1.2864299 1.1008544 1.2374953 0.5012162 -0.2931968 0.5672157 -0.15018153
1.7971199 -0.33975187 -0.22412805 -0.18584837 -2.5584476 0.38211632 0.5764378 0.40295702
1.250273 1.4279604 -0.6826143 -0.5251992 0.725752 -0.33305606 0.28709808 -0.31727374
00000000: 4df4 0440 364d 05bf 33c2 8cbe fb48 d5be
00000010: dd54 2bc0 55c4 553f 7be7 a63f 7594 6a3f
00000020: 35b5 3b3f 3a77 2b3f 68f7 93be acf2 e2be
00000030: d98c a43e 075e 0a3f b0dd 1c40 4910 7fbf
00000040: 5149 863e 74fb bdbd feca e6be 30e6 7cbe
00000050: 03e2 ac3e 883f 6c3e 97d5 223f eed4 fb3e
00000060: 7803 5abf 5790 fbbe c940 6cbe eb07 1abf
00000070: b587 b5be 8a24 cabe 520a 743e d851 03bf
00000080: d53b edbe 2735 a83e f7e7 863e 1e0c d33d
00000090: 0cac 61be fab4 0e3e 8494 693e d653 bd3e
000000a0: 35c8 0b3e a561 153e e6cd 6b3f cd95 573f
000000b0: 416f 313e 76d6 e5be 9ceb e0be 8521 11bf
000000c0: 6318 803f 423f b43e cc83 eb3e 7a4e 2f3f
000000d0: 96b2 e73f 9695 0ebf 54a2 11be 74a1 22be
000000e0: 221c 6a3f 8b14 7f3f 8c00 be3e c2c8 1f3e
000000f0: ab84 243f 21fa 6dbf 779b 193f 016b 2dbf
00000100: abe1 b73f a29f fabd c296 debd ab6b 343e
00000110: d94c 8c3f 9292 3fbd b4da 3dbe 0351 103e
00000120: bdc7 8f3f f5a2 713f 1795 2cbd 5763 26bd
00000130: 562e 3e3f d911 c4c0 f3a7 fc3e dbf5 e63c
00000140: f5bb 6abe 5693 2a3e 5a68 babd 0c2a 133d
00000150: 1b54 e8bf 7ebf 673f 1961 833f 515e 943f
00000160: 8447 eabe ee21 bbbe 0e38 6d3e 0d8c b03e
00000170: 01ad b73e b000 e23e 31a5 6b3f 961a d5be
00000180: aa14 f13e 1f40 b5be 831e 66be 54c3 0bbe
00000190: c322 9ebe e185 fbbc 1873 0d3e 0af2 173e
000001a0: 38b7 3a3e 70a6 433e 1111 a73e 758d fb3d
000001b0: 8500 403e 48d0 0fbf 7883 003e ff72 25bf
000001c0: 2f73 253d 661f 42be 0d2f d8bd cc1b f0bd
000001d0: ceda 09c0 e2f8 a3bd db0d eebd de1d cebd
000001e0: ea73 c73e c327 303f 9ccb 88bf dd26 a0bf
000001f0: 8bc2 8dbf 4fd2 9bbf 0172 92bf db64 9a3d
00000200: 8b8f 16c0 255e dcbe 9986 c3be 4ef9 0bbf
00000210: cf27 0a40 52cc 26c0 e428 3bc0 2cf3 36c0
00000220: f065 393f b221 403f f8dd 0e3e 0e7a 503e
00000230: 270a 5cbe 3fa8 cc3e c9f0 083e cc53 343d
00000240: 2041 dfbf 470a 763f 097f 4a3f a5f4 623f
00000250: 2669 e33f f2ce 6abe 2065 58be 0528 48be
00000260: 5de1 043e ec4d 58bd d433 ec3e 32bd 2e3e
00000270: 0481 353f f729 d5be a008 2f3e ae0b 49be
00000280: 48db bc3f d91c 7dbf 5bed 6abf 67ee 9fbf
00000290: 6937 a3be be03 03bf e223 e9be 763d b8be
000002a0: 98cb 213e c55c b43d 3592 e8be 84df 08bf
000002b0: 396c 8e3a f73f b0bf 0f0c 3cbf 24f7 dcbd
000002c0: e0ef 4a3e 5641 a83b 8816 c2bd ea3d 5ebb
000002d0: 436a c63f 66ed 643e 4a37 fd3d f8a5 54bd
000002e0: b250 23bf 0420 4ebf ac32 05be d463 01be
000002f0: 528b f73e 142b 41c0 f47b 0e3f 74d8 b6be
00000300: 0ac1 63be 969f 0f3f daef de3e 60bd 1f3f
00000310: c77b 50c0 7dcc 0fbf 67e7 44bf 150f 41bf
00000320: 73c3 7dbe d9d1 8cbe caec 3a3f 534f 073f
00000330: 6320 2e3f 3c6b 22bd e099 ed3e b2bd 81bf
00000340: 782c cc3e 35aa 373f 0ee3 ff3e a622 7c3e
00000350: ee52 0440 620a debe 5d88 52be 3416 c7be
00000360: f4db b6be 1e73 2ebe 9d66 bf3f 2b40 db3f
00000370: 71ff 1c3f 95da 1abf 85c3 49bf 1692 a73d
00000380: d39d 3dbf ae10 f63e cafb 813e b513 873e
00000390: 5500 42bf 3d4a cdbe bc1b 33bf 290c 0cbf
000003a0: 22fe 98bf bca9 a4bf cce8 8c3f 3f66 9e3f
000003b0: b44f 003f e41d 96be 0c35 113f 30c9 19be
000003c0: 0608 e63f f5f3 adbe d381 65be 094f 3ebe
000003d0: 9bbd 23c0 c0a4 c33e 6d91 133f 6250 ce3e
000003e0: f208 a03f 68c7 b63f d0bf 2ebf 7473 06bf
000003f0: e2ca 393f 5386 aabe 85fe 923e b471 a2be

feature.0.bias f4 [128]
-0.19041663 -0.25690484 -0.3521554 1.3293984 1.406166 0.6796415 -0.53546876 1.2694359
1.2290637 -0.0915459 -0.34038797 1.2957296 0.10403946 0.5568552 0.701453 -2.1652167
-1.2929504 2.8196876 1.7147706 0.19119522 0.77072877 2.1987119 1.1614908 -0.17650242
-0.36110407 0.99299717 -0.05967486 -0.9770281 1.2945684 -0.5061047 0.90093684 -0.47234762
-0.38396022 -2.648812 -1.1977415 -0.054799404 0.23790489 1.5854435 0.5092977 0.14090012
-1.1857495 1.4813851 -0.5952273 1.9268649 -0.16297144 -0.12995939 -3.0726464 1.3914752
1.3627478 -2.5321364 -0.051549345 -0.55338645 -0.6312559 -0.34891996 0.80304384 0.77269393
-0.19869547 -0.6464585 0.11704303 -0.43755665 -0.9413985 -0.010943979 0.16757593 0.69483083
-1.2983446 -2.3824108 -1.2958663 -0.006760613 0.5722694 1.0702405 0.21117948 1.0892882
-0.43250197 -1.6218469 -1.571428 -1.821428 0.88930964 -1.6737516 -2.3948298 0.67565393
0.0930879 -1.7891372 0.1682344 -0.0060319775 -0.58604234 -0.37346816 0.116209514 -0.44389
0.17180942 -1.2860821 -0.20343572 -0.87878186 -1.2429605 -0.63181186 -0.49101883 1.6918463
-0.23388109 -1.1335723 -0.02853001 -0.62528586 0.9309563 -0.6591131 -3.3165162 -0.9892784
-0.93720526 -0.83899194 0.33503777 0.4832245 -0.023691028 -0.10978503 0.6786098 -0.96101964
-1.3612025 0.79776525 0.8428147 2.685762 0.28701738 0.6813187 -0.03647393 0.6588748
-2.1387775 0.663804 -1.0066757 -0.086623766 1.1265551 -0.3882962 0.75451523 -1.1383493
00000000: 94fc 42be 0889 83be b64d b4be ba29 aa3f
00000010: 3ffd b33f fcfc 2d3f 7b14 09bf e07c a23f
00000020: f651 9d3f 6b7c bbbd 5547 aebe 78da a53f
00000030: a412 d53d 108e 0e3f 6c92 333f e992 0ac0
00000040: 667f a5bf c375 3440 9a7d db3f aec8 433e
00000050: 7b4e 453f b2b7 0c40 bbab 943f 0dbd 34be
00000060: a2e2 b8be 1035 7e3f a06d 74bd 831e 7abf
00000070: 6bb4 a53f 1490 01bf cca3 663f 8cd7 f1be
00000080: 6f96 c4be 2386 29c0 984f 99bf 5775 60bd
00000090: 579d 733e d0ef ca3f 5661 023f 1f48 103e
000000a0: a4c6 97bf 079e bd3f d160 18bf 82a3 f63f
000000b0: fce1 26be 1314 05be 3da6 44c0 dc1b b23f
000000c0: 856e ae3f 860e 22c0 6825 53bd bcaa 0dbf
000000d0: fd99 21bf a3a5 b2be 4894 4d3f 45cf 453f
000000e0: d376 4bbe 4e7e 25bf 42b4 ef3d 6d07 e0be
000000f0: 7eff 70bf 604e 33bc 0699 2b3e 6fe0 313f
00000100: 2830 a6bf 6b79 18c0 f2de a5bf 2288 ddbb
00000110: 3f80 123f a4fd 883f 6f3f 583e cc6d 8b3f
00000120: e670 ddbe ae98 cfbf 8d24 c9bf 8d24 e9bf
00000130: cca9 633f 7e3d d6bf e444 19c0 a8f7 2c3f
00000140: dea4 be3d 7302 e5bf a345 2c3e e5a7 c5bb
00000150: df06 16bf 3837 bfbe 41ff ed3d 8d45 e3be
00000160: cfee 2f3e 579e a4bf 7451 50be d9f7 60bf
00000170: 5419 9fbf 6cbe 21bf d266 fbbe 6b8e d83f
00000180: 867e 6fbe e618 91bf c4b7 e9bc bc12 20bf
00000190: 2753 6e3f a3bb 28bf cd41 54c0 5941 7dbf
000001a0: afec 6fbf 2dc8 56bf 128a ab3e 3469 f73e
000001b0: b013 c2bc f9d6 e0bd 5fb9 2d3f 6205 76bf
000001c0: e23b aebf 583a 4c3f b4c2 573f 86e3 2b40
000001d0: f1f3 923e e76a 2e3f b065 15bd 05ac 283f
000001e0: bbe1 08c0 0fef 293f c0da 80bf cd67 b1bd
000001f0: f532 903f c2ce c6be e927 413f 6eb5 91bf

feature.2.weight f4 [128, 128]
-0.09338464 -0.73840463 -0.08607707 0.052235182 -0.32052124 0.107265584 -0.05084001 -1.0493104
0.014400472 -0.25502914 -0.13442825 -0.26682165 0.13229808 -0.06505469 0.008498103 0.016453011
0.07871775 -0.071179554 0.65806407 -0.22346275 0.86733544 -0.23065974 -1.2925593 0.0036677523
-0.3495564 -0.02579384 0.013205148 0.02495326 0.031674787 -0.02055509 -0.5847603 0.2847209
0.11010006 -0.5261224 -0.21904118 -0.04450353 -0.08456904 -0.3191807 0.065991916 0.058600582
-0.12389717 -0.17735597 -0.2698775 -0.095417775 -0.041930288 -0.067002445 0.048158985 -0.16945659
-0.24292484 -0.0059328326 0.09976121 -0.3917703 0.05705829 0.037138265 -0.13084291 -0.076835155
-0.20765446 -0.6164577 0.13874982 -0.20440215 0.13191226 -0.048557837 -0.2046772 0.13604996
-0.17920774 -0.33252493 -0.113649204 0.011236724 -0.27781492 -0.23794782 -0.25095657 -0.8279694
0.1001651 -0.20572063 0.10610948 -0.51452583 -0.6860113 -0.28170854 -0.088201635 0.4184965
-0.30939516 -0.17654154 0.10104604 0.036083084 0.47272184 -0.3991026 -1.0392114 -0.6994636
-0.0024504175 0.3018158 0.14762251 -0.14333534 -0.87752515 -0.0788111 -0.17974721 0.5396865
-0.14168517 0.22518952 -0.20387924 -0.31008717 -0.14833966 0.16383246 0.019591697 -0.15283014
-0.5899729 -0.13243614 -0.56933 0.002712305 0.2477448 0.072204575 0.049159914 -0.76449263
-0.0011888699 -0.25765365 -1.0435365 0.018732084 -0.6084489 -0.23173705 -0.087910146 0.011324073
-0.26825395 -1.893974 -0.401663 0.1993233 0.71729153 -0.06400413 0.53673935 -0.04298082
-0.23944075 0.034838744 0.16265973 0.41305572 0.012365632 -0.18149014 -0.12248406 0.22225805
-0.6635618 -0.07936513 -0.42928216 0.18542269 -0.12385157 0.2111581 0.06395169 0.039898988
-0.0011485368 -0.16779807 -0.24098466 0.5038027 -0.14606169 -0.25299218 -0.24128346 -0.18034144
-0.29792362 -0.11781007 0.043886505 -0.1950237 -0.19789068 -0.57553416 -0.08457952 -0.07234506
-0.3068675 -0.3142762 -0.17739809 0.013824577 0.30069855 0.075133175 -0.40847364 -0.19025898
-0.15498725 -0.68989307 -0.124560796 -0.18019325 0.07464428 -1.3743101 0.16316472 -0.28130582
-0.062233612 0.03654982 0.18852651 -0.3518978 -0.0374411 0.02066953 -0.050550003 -0.074751414
-0.037163723 0.033345513 0.20327547 -0.099096306 -0.09432945 -0.008615151 -0.0791272 -0.020088702
0.12284973 0.4049598 -0.055259746 -0.077264726 0.4722397 -0.020794094 -0.33149767 0.05284295
-0.5549699 -0.042860534 -0.023088625 0.7413737 0.02531592 -0.028119413 0.09263665 -0.08645242
0.21405666 -0.9893445 -0.5578028 -0.01714273 0.3294921 -0.78011286 -0.3806419 -0.062172696
-0.038772754 -0.03264718 0.08872073 -0.03243109 0.77383995 -0.17384605 0.016378546 -0.18534529
-0.42902267 -0.5091787 -0.10486125 -0.5254516 -0.1733221 -0.8453429 0.096069016 0.114579126
-0.02866912 -0.25792944 -0.06719979 -0.41483453 0.122509405 0.076829396 -0.20128347 -0.034653578
-0.23952524 -0.14890265 -0.18541136 -0.21124789 0.13228394 0.07514092 -0.0050137267 -0.62023455
-0.24464041 0.15089326 -0.06795521 -0.7181296 -0.21513031 -0.8880812 -0.21059099 -0.513214
00000000: 7240 bfbd 1608 3dbf 2d49 b0bd 8ff4 553d
00000010: 5c1b a4be 0fae db3d 9d3d 50bd ce4f 86bf
00000020: f5ef 6b3c 2e93 82be 8fa7 09be d99c 88be
00000030: 2679 073e 653b 85bd a13b 0b3c 77c8 863c
00000040: c636 a13d 96c6 91bd e376 283f 6bd3 64be
00000050: b209 5e3f 1132 6cbe 9572 a5bf ac5e 703b
00000060: 0ef9 b2be 9a4d d3bc 685a 583c c76a cc3c
00000070: 6cbd 013d 2663 a8bc dab2 15bf f0c6 913e
00000080: 247c e13d f5af 06bf 554c 60be 5549 36bd
00000090: 8832 adbd a76b a3be c526 873d 2a07 703d
000000a0: cdbd fdbd ce9c 35be 622d 8abe 656a c3bd
000000b0: 18bf 2bbd 9438 89bd 5b42 453d 0786 2dbe
000000c0: 4ac1 78be 3568 c2bb 9b4f cc3d 1e96 c8be
000000d0: f4b5 693d 4b1e 183d affb 05be c05b 9dbd
000000e0: 5fa3 54be 2cd0 1dbf 6f14 0e3e cc4e 51be
000000f0: 0214 073e 95e4 46bd e696 51be ae50 0b3e
00000100: 3c82 37be b540 aabe eac0 e8bd 3d1a 383c
00000110: c23d 8ebe 98a8 73be 617d 80be cdf5 53bf
00000120: 5c23 cd3d 6ea8 52be ed4f d93d f7b7 03bf
00000130: 709e 2fbf 1a3c 90be 0fa3 b4bd 2c45 d63e
00000140: 0b69 9ebe 4ec7 34be 3af1 ce3d dbcb 133d
00000150: 9908 f23e 2d57 ccbe e104 85bf 0c10 33bf
00000160: 2f97 20bb 9a87 9a3e 5b2a 173e 80c6 12be
00000170: 7da5 60bf b767 a1bd a70f 38be e528 0a3f
00000180: eb15 11be 1598 663e b8c5 50be bfc3 9ebe
00000190: 5ae6 17be b2c3 273e c47e a03c 817f 1cbe
000001a0: 7708 17bf 579d 07be 9cbf 11bf edc0 313b
000001b0: d0b0 7d3e fedf 933d e85b 493d cab5 43bf
000001c0: dbd3 9bba 2eeb 83be 9b92 85bf 0774 993c
000001d0: 4fc3 1bbf 7a4c 6dbe 3c0a b4bd 9b88 393c
000001e0: 9558 89be bd6d f2bf c6a6 cdbe 681b 4c3e
000001f0: 6ba0 373f 9914 83bd c067 093f a80c 30bd
00000200: f52f 75be 12b3 0e3d 4690 263e 0a7c d33e
00000210: 3899 4a3c 8dd8 39be ecd8 fabd 9d97 633e
00000220: 30df 29bf 2f8a a2bd dfca dbbe 72df 3d3e
00000230: e4a5 fdbd d439 583e 1bf9 823d 1f6d 233d
00000240: 808a 96ba 42d3 2bbe afc4 76be 37f9 003f
00000250: 3291 15be 3188 81be 0313 77be 6dab 38be
00000260: 7289 98be 6846 f1bd 56c2 333d 4bb4 47be
00000270: dba3 4abe 3556 13bf 0738 adbd a629 94bd
00000280: bd1d 9dbe cfe8 a0be d8a7 35be 7b80 623c
00000290: 29f5 993e 6cdf 993d 7523 d1be 40d3 42be
000002a0: fab4 1ebe d59c 30bf bb19 ffbd 9484 38be
000002b0: 1adf 983d 65e9 afbf a714 273e 5107 90be
000002c0: ace8 7ebd 44b5 153d 180d 413e f32b b4be
000002d0: d75b 19bd 2553 a93c 850d 4fbd 4517 99bd
000002e0: fd38 18bd 4e95 083d 7227 503e 01f3 cabd
000002f0: cc2f c1bd 9026 0dbc 710d a2bd 1091 a4bc
00000300: a498 fb3d e456 cf3e 0b58 62bd f83c 9ebd
00000310: 67c9 f13e 6058 aabc 10ba a9be d971 583d
00000320: 8212 0ebf 878e 2fbd 5b24 bdbc abca 3d3f
00000330: 5563 cf3c af5a e6bc 49b8 bd3d f70d b1bd
00000340: ab31 5b3e ae45 7dbf 2acc 0ebf e96e 8cbc
00000350: 30b3 a83e 7ab5 47bf 7fe3 c2be cca8 7ebd
00000360: 2ed0 1ebd 0db9 05bd 37b3 b53d 76d6 04bd
00000370: 601a 463f b304 32be 4d2c 863c 28cb 3dbe
00000380: dca8 dbbe 8959 02bf 7fc1 d6bd ff83 06bf
00000390: 597b 31be 6468 58bf d5bf c43d 76a8 ea3d
000003a0: 81db eabc 540f 84be 0ba0 89bd 3165 d4be
000003b0: 36e6 fa3d bb58 9d3d 411d 4ebe e9f0 0dbd
000003c0: 1b46 75be f079 18be 7adc 3dbe 5e51 58be
000003d0: 7175 073e 7ce3 993d 304a a4bb b1c7 1ebf
000003e0: 0483 7abe c383 1a3e 1a2c 8bbd 57d7 37bf
000003f0: 1f4b 5cbe 4a59 63bf 2aa5 57be fe61 03bf

feature.2.bias f4 [128]
-0.15328655 -0.12775481 0.8729854 1.8086077 -0.004153181 -0.046955273 -0.05578351 0.5889219
0.24183643 -0.23268043 0.5017579 0.16186476 0.16258621 -0.41442734 -0.17728199 0.02552967
-0.05174609 -0.48035613 -0.043905653 0.9600581 -0.11353007 -0.14197178 -2.4151185 -0.12913992
-0.10500374 -0.12607688 -0.15392101 -0.36396495 -0.001011468 0.5977265 -0.16618372 0.36888766
-0.0024831968 0.5244918 0.16430229 -0.072629444 0.4043315 0.5491989 0.04258659 0.22242922
-0.12664878 0.043204032 -0.08413606 -0.10817057 0.14139868 -0.15102321 -0.13469325 0.034916956
-2.4681153 -0.345002 -1.6816205 -0.82946557 -0.069117606 0.36965325 0.07710834 0.36779732
-0.04913053 -0.5137298 0.08839095 -0.16705444 -0.051884793 -0.048368182 -0.04240409 1.1061326
0.22522907 -0.05195907 -0.18838051 -0.07414852 -0.16074741 -0.007174214 -0.14751329 -0.15613331
0.22824982 -0.08243296 0.2897462 -0.052378643 -0.13751566 0.021627592 0.30572447 -0.14277178
0.7687425 0.20844693 -0.44496512 -0.07667254 -0.105016 -0.08145829 0.4616187 0.25233746
-0.23272428 -0.57682925 -0.039967693 0.5786935 -0.04049736 0.7470742 -0.94268864 -0.029360449
-0.15559703 -0.1128697 0.27025446 0.6281251 -0.05082536 -0.5517446 0.69927686 0.59030765
0.4946402 -0.11676435 0.38984087 -0.16674547 0.54602176 0.0044070096 -0.05678851 -0.1467047
0.6045563 -0.12163355 -0.4562337 0.024265338 0.25022456 0.13504647 0.6081099 -0.0043560723
-0.04511398 0.44702792 -0.08259655 -0.095884845 0.19315511 -0.1437027 -0.0396843 -0.36865795
00000000: 26f7 1cbe 28d2 02be f97b 5f3f 7580 e73f
00000010: 6817 88bb 2c54 40bd 407d 64bd 96c3 163f
00000020: f8a3 773e c743 6ebe 3573 003f e0bf 253e
00000030: 007d 263e d22f d4be 6989 35be 9923 d13c
00000040: b5f3 53bd 3df1 f5be 6ad6 33bd 5ec6 753f
00000050: 7482 e8bd 0d61 11be 4d91 1ac0 413d 04be
00000060: 330c d7bd 4c1a 01be 789d 1dbe 9d59 babe
00000070: 3c93 84ba 9b04 193f 112c 2abe d8de bc3e
00000080: 21bd 22bb 1845 063f dc3e 283e bfbe 94bd
00000090: 8a04 cf3e 4d98 0c3f 476f 2e3d 7cc4 633e
000000a0: 38b0 01be b6f6 303d 874f acbd 8888 ddbd
000000b0: d1ca 103e d4a5 1abe 07ed 09be 1505 0f3d
000000c0: 9af5 1dc0 1aa4 b0be 573f d7bf db57 54bf
000000d0: 888d 8dbd 3143 bd3e faea 9d3d ee4f bc3e
000000e0: 183d 49bd cc83 03bf 5006 b53d 5210 2bbe
000000f0: 2685 54bd b71d 46bd e9af 2dbd c195 8d3f
00000100: 73a2 663e 09d3 54bd d2e6 40be 2edb 97bd
00000110: f89a 24be ab15 ebbb b90d 17be 69e1 1fbe
00000120: 52ba 693e 9dd2 a8bd 9d59 943e fd8a 56bd
00000130: e8d0 0cbe 592c b13c eb87 9c3e c432 12be
00000140: 4fcc 443f 1d73 553e 78d2 e3be 7e06 9dbd
00000150: a112 d7bd 9bd3 a6bd 4959 ec3e 6032 813e
00000160: 464f 6ebe 15ab 13bf 2ab5 23bd 4225 143f
00000170: 8fe0 25bd 4140 3f3f 0b54 71bf 5385 f0bc
00000180: d454 1fbe 3b28 e7bd cb5e 8a3e cecc 203f
00000190: 412e 50bd 223f 0dbf cf03 333f 671e 173f
000001a0: 7b41 fd3e 2622 efbd 3999 c73e 53bf 2abe
000001b0: 15c8 0b3f ad68 903b 129b 68bd c239 16be
000001c0: 34c4 1a3f 031b f9bd 7797 e9be 1ac8 c63c
000001d0: 6f1d 803e 9f49 0a3e 17ad 1b3f 62bd 8ebb
000001e0: 70c9 38bd d8e0 e43e 6128 a9bd 465f c4bd
000001f0: 74ca 453e cd26 13be 018c 22bd bcc0 bcbe

value.0.weight f4 [64, 128]
0.6269052 -0.009075557 -1.0761999 -0.50690097 -0.020261023 -0.088858254 -0.16999066 -0.7227779
-0.74057215 0.04413453 -0.2891487 0.002776732 -0.6866175 -0.07349038 -0.64364064 -0.72104216
-0.0077963555 -0.8737338 0.015812594 -1.2530318 -0.39076656 -0.07864966 -2.449141 -0.0045615435
0.0045622974 -0.01622044 0.08249459 -0.40689012 -0.01692754 -0.06586446 0.008214712 -1.2407876
-0.060755536 -1.6860658 -0.11384414 -0.07829987 -0.013126341 -0.69661725 -0.5900406 -0.19716671
-0.15871413 -0.30914763 -0.42490923 -0.058179624 -0.56706643 -0.10029278 0.09404394 0.0648485
0.024671752 -0.438758 -1.3022146 -0.27434486 -0.018440455 -0.3420673 -0.35893118 -1.7532169
-0.73636764 1.0807632 -0.5245906 0.03649909 0.0362062 0.0010334402 0.05127842 -1.1624821
-0.22035658 0.25447068 0.0557063 0.01712481 -0.26582223 0.036078017 0.09933783 -0.10774701
-0.34739915 0.74858475 -0.8008619 -0.03139994 -0.19492659 -0.3084275 -0.35409057 0.065661624
-0.009323433 -0.009350194 0.84881544 0.06030272 0.025319148 -0.049057793 -0.3425754 -0.16427982
-0.23253353 0.20091276 -0.016413717 0.6189685 -0.35690522 -0.03002935 0.31420568 -0.41643745
0.014195978 0.4779993 0.33706248 -0.045538444 -0.373295 -0.24861433 -2.0118098 -0.85804075
-0.20589505 0.025116526 -0.4419612 -0.94595313 -1.3954679 0.077360176 0.049089704 0.04927213
-0.50240815 -0.025022719 -0.26259485 -0.24835463 -0.27621907 -1.021912 0.21498284 -0.055727817
0.7550771 0.18554077 0.06962643 0.040995587 -0.19119781 -0.07240148 0.026297703 0.2838876
-0.083826356 -0.034101874 -0.14058644 -0.90783936 -0.077453405 -0.08762488 -0.30187407 -0.022121292
0.26541948 0.00050085585 -0.5255453 -0.31454393 0.09047949 0.02062092 -0.1240902 -0.06629708
-0.07040654 0.19777519 0.05260515 -0.18243535 -0.08071671 -0.056894038 0.9029907 0.0014674664
-0.8490117 -0.13888115 -0.034850627 -0.105398804 0.0023939556 -0.15656368 -0.062098555 -0.066856734
0.049355127 0.02927422 0.36497596 0.04771788 -0.07187269 -0.38050437 -0.11204392 -0.04090252
-0.13867588 -0.17676915 -0.03840944 -0.04160428 -0.10540139 0.04611721 0.12358181 -0.11737885
-0.11292084 0.07371181 -0.0015292672 -0.10114251 0.052943014 -0.26371783 -0.19035392 -0.057866987
-0.12644047 0.6188296 0.04211964 0.07934884 -0.03460366 -0.086684845 -0.054235872 -1.0712314
-0.05550818 -0.0053637847 0.06146642 -0.05275994 -0.4138476 0.038455717 0.007506795 0.11322111
0.036137145 -0.4699066 -0.48724622 0.055811096 -0.075147726 -0.3422656 -0.059937738 0.09602564
-0.48524266 0.03588864 0.15554616 0.087808274 -0.033509865 0.034871012 -0.30326557 -0.17212684
-0.07469681 0.1128676 -0.009690874 0.009519974 0.056898966 -0.25503486 -0.29932016 0.37729612
0.029234005 0.022844424 0.3086806 -0.14788167 -0.01939305 -0.2005745 -0.009019857 -0.28164053
-0.38667518 0.00038462877 -0.17360117 -0.17274842 -0.028398478 -0.06757754 -0.017558292 0.061875157
-0.3148175 -0.07536528 -0.16803107 -0.018755967 -0.099511676 -0.21283789 -0.6066908 -0.001694616
-0.17137165 -0.04512709 -0.065709025 0.08672237 -0.09838168 -0.024985008 -0.016515411 -0.3023754
00000000: dc7c 203f a5b1 14bc ebc0 89bf 43c4 01bf
00000010: 72fa a5bc 51fb b5bd 0812 2ebe f907 39bf
00000020: 2396 3dbf 69c6 343d 4c0b 94be d5f9 353b
00000030: 2ac6 2fbf 2082 96bd a2c5 24bf 3896 38bf
00000040: 9278 ffbb 05ad 5fbf 6a89 813c 5963 a0bf
00000050: 8e12 c8be 1313 a1bd babe 1cc0 0079 95bb
00000060: 537f 953b bae0 84bc ecf2 a83d e753 d0be
00000070: a0ab 8abc f2e3 86bd 0097 063c 21d2 9ebf
00000080: ccda 78bd 01d1 d7bf 1e27 e9bd af5b a0bd
00000090: dd0f 57bc 8255 32bf e70c 17bf 12e6 49be
000000a0: f585 22be 9948 9ebe b48d d9be c24d 6ebd
000000b0: 442b 11bf 4d66 cdbd 1c9a c03d 4acf 843d
000000c0: 6a1c ca3c e3a4 e0be f8ae a6bf ee76 8cbe
000000d0: 7010 97bc 7223 afbe d4c5 b7be 6969 e0bf
000000e0: 9782 3cbf 7356 8a3f 924b 06bf 1280 153d
000000f0: f44c 143d 8074 873a 5209 523d 37cc 94bf
00000100: 28a5 61be fb49 823e 4a2c 643d 5449 8c3c
00000110: da19 88be 8bc6 133d a271 cb3d 77aa dcbd
00000120: 4dde b1be 40a3 3f3f 4905 4dbf 399d 00bd
00000130: d69a 47be 36ea 9dbe 5c4b b5be 9a79 863d
00000140: 50c1 18bc 8e31 19bc f84b 593f fcff 763d
00000150: 1a6a cf3c d3f0 48bd 0b66 afbe f838 28be
00000160: 451d 6ebe 13bc 4d3e 0f76 86bc b874 1e3f
00000170: 48bc b6be 1d00 f6bc 91df a03e 4a37 d5be
00000180: 3f96 683c 53bc f43e 7493 ac3e 8586 3abd
00000190: 8620 bfbe c194 7ebe 7ec1 00c0 8fa8 5bbf
000001a0: 27d6 52be 2cc1 cd3c bd48 e2be fc29 72bf
000001b0: b19e b2bf 036f 9e3d 4912 493d 93d1 493d
000001c0: d29d 00bf 72fc ccbc d572 86be ad50 7ebe
000001d0: 966c 8dbe 03ce 82bf 7624 5c3e da42 64bd
000001e0: bc4c 413f 66fe 3d3e 4d98 8e3d fdea 273d
000001f0: 5cc9 43be 3a47 94bd 486e d73c b759 913e
00000200: 27ad abbd 68ae 0bbd e4f5 0fbe 2968 68bf
00000210: e49f 9ebd ac74 b3bd 3d8f 9abe b637 b5bc
00000220: 10e5 873e de4b 033a 238a 06bf e70b a1be
00000230: 504d b93d 34ed a83c 0123 febd c3c6 87bd
00000240: 4e31 90bd 9485 4a3e 7f78 573d 55d0 3abe
00000250: cd4e a5bd b909 69bd 662a 673f 0058 c03a
00000260: d558 59bf dc36 0ebe 88bf 0ebd 54db d7bd
00000270: e9e3 1c3b 3b52 20be 0e5b 7ebd 2fec 88bd
00000280: 9a28 4a3d 7dd0 ef3c 21de ba3e d373 433d
00000290: fd31 93bd 78d1 c2be 4877 e5bd 6789 27bd
000002a0: 0d01 0ebe f902 35be 3853 1dbd 4069 2abd
000002b0: afdc d7bd 66e5 3c3d 7618 fd3d 5364 f0bd
000002c0: 0b43 e7bd 38f6 963d b171 c8ba ce23 cfbd
000002d0: c6da 583d 0606 87be 23ec 42be ef05 6dbd
000002e0: 9c79 01be 9e6b 1e3f a585 2c3d a581 a23d
000002f0: 91bc 0dbd d387 b1bd 6f26 5ebd 1c1e 89bf
00000300: 8c5c 63bd b0c2 afbb 36c4 7b3d cf1a 58bd
00000310: d5e3 d3be be83 1d3d 90fb f53b 78e0 e73d
00000320: 8b04 143d 9997 f0be 5678 f9be 2d9a 643d
00000330: 0de7 99bd 703d afbe 4681 75bd 17a9 c43d
00000340: ba71 f8be f7ff 123d 7e47 1f3e d3d4 b33d
00000350: a441 09bd e8d4 0e3d a045 9bbe 0542 30be
00000360: a4fa 98bd 2127 e73d 79c6 1ebc aaf9 1b3c
00000370: e40e 693d ee93 82be 7e40 99be f52c c13e
00000380: 277c ef3c 3b24 bb3c 620b 9e3e 4b6e 17be
00000390: 2cde 9ebc 6763 4dbe 06c8 13bc 3033 90be
000003a0: 4afa c5be 00a8 c939 81c4 31be f6e4 30be
000003b0: eda3 e8bc 1866 8abd 68d6 8fbc ce70 7d3d
000003c0: c22f a1be 1d59 9abd 5610 2cbe 1da6 99bc
000003d0: c7cc cbbd 2df2 59be 1750 1bbf e11d deba
000003e0: 0d7c 2fbe 2fd7 38bd 7492 86bd 7f9b b13d
000003f0: 567c c9bd 5cad ccbc 544b 87bc f3d0 9abe

value.0.bias f4 [64]
-0.7809016 -0.702648 1.3521916 -1.2542205 2.321323 0.3407814 -0.24057478 -0.01779133
0.26950365 -0.7989116 -0.20315178 0.6882449 -1.0743545 0.6489918 1.3962528 -0.10404004
1.9429737 2.3366451 1.4795661 -1.2828474 -0.75246674 1.3587788 -0.40823895 0.27829587
0.59396076 1.2843925 0.04557507 0.28110123 0.25240743 -0.12212827 0.28262362 -0.86074346
0.73608774 -0.2466504 0.65548474 0.38713858 -0.13750446 0.34125152 -0.29873657 -0.29427788
0.72936165 -1.2871616 0.36547938 -0.791694 0.7347548 -0.2762377 0.699444 -0.3447243
0.34980723 -0.6970063 -1.1205506 0.5556127 -0.016683573 0.22485434 -0.60793406 -0.12467053
-0.23724172 -0.39501655 0.29641548 -0.6384093 -0.54080296 -2.551449 -0.7016092 -1.5584437
00000000: 2be9 47bf bde0 33bf 9d14 ad3f 4c8a a0bf
00000010: 8e90 1440 e67a ae3e 3c59 76be 20bf 91bc
00000020: 62fc 893e 7885 4cbf 0507 50be d130 303f
00000030: 7384 89bf 5424 263f 69b8 b23f f212 d5bd
00000040: 5db3 f83f 988b 1540 6c62 bd3f 5834 a4bf
00000050: a9a1 40bf 77ec ad3f b204 d1be cc7c 8e3e
00000060: d00d 183f f966 a43f edac 3a3d 80ec 8f3e
00000070: 8c3b 813e 631e fabd 0bb4 903e af59 5cbf
00000080: 3f70 3c3f ec91 7cbe d9cd 273f 0737 c63e
00000090: f8cd 0cbe 85b8 ae3e 00f4 98be 97ab 96be
000000a0: 72b7 3a3f b6c1 a4bf 1d20 bb3e 75ac 4abf
000000b0: e418 3c3f 076f 8dbe c30e 333f b47f b0be
000000c0: ef19 b33e 016f 32bf 346e 8fbf a23c 0e3f
000000d0: fdab 88bc 3740 663e 91a1 1bbf 4353 ffbd
000000e0: 7eef 72be 9c3f cabe c5c3 973e cb6e 23bf
000000f0: 1072 0abf f14a 23c0 a99c 33bf 157b c7bf

value.2.weight f4 [1, 64]
-1.916608 1.4054457 -0.53812224 1.7727944 1.7142254 0.83411103 -0.02153351 -0.48269597
-1.3484472 -0.2822065 0.45696416 -0.2877403 0.779182 -0.33591077 -0.23027357 0.030294959
0.25750485 0.45638713 1.6524956 0.7491647 -1.6489106 1.8041364 0.53143096 -1.3547423
-2.4108856 0.7370209 -0.09205986 -0.7065379 -0.079701446 0.026292235 -0.04630881 -0.5400544
0.8648225 0.49322984 0.6303081 0.33993915 -0.06627429 0.85357416 -2.3480198 -0.73864245
-0.4004131 -1.1410239 -0.6940701 0.6126394 0.68224084 0.0005232764 0.49717882 0.018848438
-0.20503764 0.7407435 -2.0654838 -0.5315614 0.012841033 -0.04487988 0.12564234 -0.30043164
-0.10161851 0.65687484 -0.036850885 1.0743692 0.61927694 -1.8979901 -1.2946447 -0.77750015
00000000: 6953 f5bf a5e5 b33f 61c2 09bf edea e23f
00000010: bd6b db3f 4d88 553f 0b67 b0bc ed23 f7be
00000020: eb99 acbf 5f7d 90be 35f7 e93e b252 93be
00000030: 7978 473f 7ffc abbe d6cc 6bbe 222d f83c
00000040: add7 833e 93ab e93e fa84 d33f 42c9 3f3f
00000050: 810f d3bf f1ed e63f dc0b 083f 3268 adbf
00000060: f34b 1ac0 67ad 3c3f e189 bcbd abdf 34bf
00000070: 833a a3bd d062 d73c 4fae 3dbd 0141 0abf
00000080: 0265 5d3f 9f88 fc3e df5b 213f 810c ae3e
00000090: d1ba 87bd d683 5a3f f545 16c0 ac17 3dbf
000000a0: f202 cdbe 120d 92bf 94ae 31bf f0d5 1c3f
000000b0: 56a7 2e3f 7c2c 093a 398e fe3e 0a68 9a3c
000000c0: 63f5 51be 5ea1 3d3f e330 04c0 6814 08bf
000000d0: 3263 523c f7d3 37bd 63a8 003e 2dd2 99be
000000e0: 5e1d d0bd f328 283f f4f0 16bd ee84 893f
000000f0: ef88 1e3f 57f1 f2bf ebb6 a5bf 400a 47bf

adv.0.weight f4 [64, 128]
-0.19375494 0.063666716 0.15976769 0.21562038 0.00028551213 0.0031647629 -0.4023983 -0.39161456
0.20341973 0.055703755 0.67595094 -0.117341734 -0.36010104 -0.77860916 -0.24631052 -0.9869894
-0.035039157 -0.33345354 -0.06969281 -0.015952222 0.024213357 -0.07316572 -0.7723195 0.019841542
-0.5669682 0.0006546843 -0.08751975 -0.20016956 0.417938 -0.21847804 -0.009529602 -0.3964609
0.020990644 -0.8370353 -0.16132134 -0.57045513 -1.5341828 -0.755704 -1.0742884 -0.25444236
-0.094495036 -0.09675029 -0.27562675 -0.051855974 -0.48590258 0.07624877 -0.40176997 -0.27435353
0.019774912 -0.9776047 -0.291455 -0.5121266 0.068691194 -0.31718588 -0.15559639 0.17293657
0.37923357 0.8067864 -0.52546155 -0.05010633 -0.07033275 -0.06461741 -0.056409564 -1.0160868
-0.8646266 0.0026030838 0.014396429 0.053780604 -0.53576237 -0.07281376 -0.06703014 -0.061950102
-1.4031769 -0.6133087 -0.9273169 0.024523063 -0.020121654 -0.6487828 0.3047436 0.22646263
-0.08819519 -0.27140313 1.0558267 -0.03929097 0.056094058 -0.06691759 -0.4712631 -1.1066554
-0.7642789 -0.44301987 0.0013875852 -6.316652 -0.22621226 -0.41491178 0.16307402 -0.20211516
-0.043689113 -0.49308246 -0.91712767 -0.86865604 0.84680456 1.1997846 -0.06969356 -0.82501626
-1.1302414 -0.06466237 0.2331646 0.02932744 -0.13875408 0.075785786 0.010118343 -0.05476494
-0.9024538 -0.07740745 -0.2630004 -0.10535592 -1.3459003 0.1156003 -0.063403875 -0.02512822
-0.35510293 -0.31558228 -0.0038850482 0.030230233 -0.22415267 -0.0071322992 -0.083327144 -0.26769024
-0.07826093 0.63276136 -0.33053583 -1.3093042 -0.033141617 -0.048738636 -0.12383583 -0.36598527
-0.05799673 -0.0945707 -0.46897274 -0.28627577 -0.12917483 -0.15315029 -0.24598616 -0.29975474
0.060223408 -0.8758895 -0.036624894 -0.63317513 -0.09635074 -0.086338505 0.59603024 -0.012335785
-0.04224054 0.07639725 0.018864194 -0.30844495 -0.37899947 -0.096421875 0.04208889 0.0854961
-0.032983333 -0.73590004 -0.7621792 0.018219719 -0.08857644 -0.05267738 -0.9104175 -0.123820476
0.05721407 -0.10193237 -0.17485368 0.02295836 -0.11988717 -0.049350057 -0.17823905 -0.15917772
0.2078553 0.0028542343 0.78648317 -0.43146294 -0.016852116 0.29852843 0.07803879 0.23093806
-0.084671006 0.18947954 0.47360453 -0.08152432 0.04929509 -0.07220622 0.005157426 -0.2650632
0.08728452 -0.00033356994 0.061446514 0.011939563 -0.9458119 0.058894083 -0.057364937 0.01504296
-0.22348532 0.051545918 -0.18876636 0.0452931 -0.04789449 -0.4182989 0.37483913 0.3029186
-0.010216445 -0.1948539 0.8100253 -0.01747109 0.07683899 -0.030450065 -0.69885534 -0.30953535
0.07158739 -0.37633517 0.049619712 -0.52496135 -0.1273121 -0.4275445 0.18870896 -0.018793471
-0.057086598 0.12040443 0.41661 -0.8449887 0.23520249 -0.30666456 0.020782536 -0.82915896
-1.1599176 -0.06190257 -0.34789476 -0.47458282 -0.721007 -0.025693148 -0.0017681867 0.056655325
-0.25147414 -0.08375803 -0.11783526 -0.117014624 0.30822766 0.19476096 -0.16757351 -0.071945705
0.022186482 -0.056146733 -0.05627524 -0.03284976 -0.06564156 0.080086194 0.0046791956 0.13128683
00000000: b267 46be b263 823d 249a 233e 97cb 5c3e
00000010: cab0 9539 e967 4f3b 2607 cebe b481 c8be
00000020: 434d 503e 9f29 643d 1f0b 2d3f dd50 f0bd
00000030: 2a5f b8be ee52 47bf d338 7cbe 56ab 7cbf
00000040: 3885 0fbd 6cba aabe 1bbb 8ebd 3cae 82bc
00000050: 175b c63c e9d7 95bd bbb6 45bf bb8a a23c
00000060: d424 11bf 1f9f 2b3a 8e3d b3bd 40f9 4cbe
00000070: f8fb d53e b5b8 5fbe 0c22 1cbc ecfc cabe
00000080: 92f4 ab3c f247 56bf 6c31 25be 5909 12bf
00000090: 1a60 c4bf d175 41bf 4882 89bf 4546 82be
000000a0: 9d86 c1bd 0425 c6bd f31e 8dbe ee66 54bd
000000b0: 39c8 f8be 5128 9c3d cbb4 cdbe 1178 8cbe
000000c0: fffe a13c 4d44 7abf 9739 95be bb1a 03bf
000000d0: f8ad 8c3d 3066 a2be a954 1fbe 4916 313e
000000e0: e72a c23e 8e89 4e3f a684 06bf 4c3c 4dbd
000000f0: 9e0a 90bd 2256 84bd b70d 67bd 220f 82bf
00000100: 2b58 5dbf 8098 2a3b 00df 6b3c 0d49 5c3d
00000110: b927 09bf 611f 95bd 1947 89bd 64bf 7dbd
00000120: 4d9b b3bf cd01 1dbf a464 6dbf 97e4 c83c
00000130: 2bd6 a4bc a116 26bf 5a07 9c3e d2e5 673e
00000140: ae9f b4bd 5af5 8abe 5425 873f 91ef 20bd
00000150: e2c2 653d 170c 89bd 6649 f1be e2a6 8dbf
00000160: c8a7 43bf 80d3 e2be a2df b53a 0322 cac0
00000170: 30a4 67be 516f d4be e0fc 263e 47f7 4ebe
00000180: 5bf3 32bd 4e75 fcbe e1c8 6abf 3e60 5ebf
00000190: 2fc8 583f 8b92 993f 7fbb 8ebd 4434 53bf
000001a0: c0ab 90bf b46d 84bd b3c2 6e3e 1940 f03c
000001b0: 8d15 0ebe 9435 9b3d 68c7 253c 3451 60bd
000001c0: 3607 67bf cc87 9ebd fda7 86be d8c4 d7bd
000001d0: 7646 acbf dabf ec3d e4d9 81bd b2d9 cdbc
000001e0: 0dd0 b5be 0094 a1be 4b9c 7ebb 65a5 f73c
000001f0: 4788 65be 10b6 e9bb 6ca7 aabd b20e 89be
00000200: 4447 a0bd a6fc 213f fe3b a9be 4897 a7bf
00000210: 81bf 07bd 2aa2 47bd a49d fdbd 6c62 bbbe
00000220: fb8d 6dbd 48ae c1bd 321d f0be bd92 92be
00000230: 6846 04be 6ed3 1cbe cce3 7bbe 7479 99be
00000240: d2ac 763d 4b3a 60bf fc03 16bd c417 22bf
00000250: 8953 c5bd 3ed2 b0bd 7095 183f 081c 4abc
00000260: 6b04 2dbd 2976 9c3d 1589 9a3c 7fec 9dbe
00000270: 380c c2be d578 c5bd 6665 2c3d 9418 af3d
00000280: 8819 07bd f263 3cbf 2d1e 43bf 8541 953c
00000290: 9167 b5bd 3dc4 57bd 1f11 69bf 9795 fdbd
000002a0: 4d59 6a3d ebc1 d0bd d80c 33be 2c13 bc3c
000002b0: 6887 f5bd 4923 4abd 4c84 36be 7cff 22be
000002c0: 05d8 543e 1b0e 3b3b f656 493f b6e8 dcbe
000002d0: 730d 8abc b8d8 983e cdd2 9f3d 077b 6c3e
000002e0: fe67 adbd ed06 423e 4b7c f23e 39f6 a6bd
000002f0: a6e9 493d dbe0 93bd a0ff a83b 5db6 87be
00000300: 3ac2 b23d 00e3 aeb9 57af 7b3d 289e 433c
00000310: bb20 72bf ec3a 713d 7ff7 6abd bf76 763c
00000320: 56d9 64be d021 533d f84b 41be 4285 393d
00000330: 032d 44bd 462b d6be eaea bf3e 2618 9b3e
00000340: e062 27bc c887 47be d15d 4f3f 881f 8fbc
00000350: c35d 9d3d 6a72 f9bc 2fe8 32bf 6b7b 9ebe
00000360: 699c 923d 01af c0be 0a3e 4b3d de63 06bf
00000370: 1a5e 02be 1de7 dabe ec3c 413e c4f4 99bc
00000380: a3d3 69bd 9996 f63d e84d d53e 2e51 58bf
00000390: ecd8 703e 2303 9dbe 2340 aa3c c343 54bf
000003a0: 2e78 94bf 8d8d 7dbd 431f b2be 85fc f2be
000003b0: ea93 38bf 707a d2bc 80c2 e7ba 6a0f 683d
000003c0: 38c1 80be 5489 abbd 9d53 f1bd 5da5 efbd
000003d0: 04d0 9d3e 6b6f 473e 6498 2bbe 4558 93bd
000003e0: 6dc0 b53c 1efa 65bd de80 66bd 788d 06bd
000003f0: 156f 86bd 3b04 a43d f053 993b 0e70 063e

adv.0.bias f4 [64]
-1.7256141 -1.5991641 -0.7272592 -0.66912085 -1.3595201 -0.8773655 -1.3285819 -1.8453315
-0.21328987 -0.5582948 -0.26585343 -1.1997429 -0.3945194 -0.14592078 -0.70873487 -1.1793396
-0.394165 -2.0592113 -0.5401764 -1.3931606 0.095001794 -0.45035532 -0.58774585 -1.7761285
-0.16810445 -0.65671587 -0.3186182 -0.7494752 -0.50984734 -0.84180796 -2.9456556 -0.6177058
0.27615124 -0.26797482 -0.27569756 -1.8154582 -1.3310355 -0.6736436 0.111623526 -0.11628959
-0.70016277 -0.023585722 -0.9294464 -0.15581626 -0.5589368 0.16845691 -1.2617176 -1.5483859
-1.7147312 0.11447151 0.35199988 -0.18867338 -0.5320855 -1.557686 -0.50444436 -0.3358253
-0.72328246 -2.0362499 -0.33105332 -0.34198955 0.083229505 0.23046497 -0.30243993 -0.5041217
00000000: ece0 dcbf 69b1 ccbf a92d 3abf 814b 2bbf
00000010: c104 aebf 079b 60bf f90e aabf d333 ecbf
00000020: a968 5abe 68ec 0ebf f11d 88be 2d91 99bf
00000030: 72fe c9be 426c 15be a66f 35bf 9af4 96bf
00000040: ffcf c9be 1eca 03c0 0049 0abf 1653 b2bf
00000050: 4d90 c23d f994 e6be 8376 16bf 2e58 e3bf
00000060: 9323 2cbe 881e 28bf ed21 a3be 9bdd 3fbf
00000070: 5b85 02bf ba80 57bf 9f85 3cc0 f821 1ebf
00000080: b263 8d3e ff33 89be 3b28 8dbe ef60 e8bf
00000090: 5f5f aabf e873 2cbf e09a e43d 3d29 eebd
000000a0: de3d 33bf d836 c1bc 33f0 6dbf 4c8e 1fbe
000000b0: 7b16 0fbf f87f 2c3e f67f a1bf 8231 c6bf
000000c0: 507c dbbf 0a70 ea3d 5439 b43e 9833 41be
000000d0: c136 08bf 4162 c7bf 4423 01bf 4bf1 abbe
000000e0: 0a29 39bf eb51 02c0 d27f a9be 4119 afbe
000000f0: 3b74 aa3d 02ff 6b3e 68d9 9abe 1f0e 01bf

adv.2.weight f4 [2, 64]
-2.438581 1.0145667 -2.3606124 -0.60190374 -0.3304657 -0.009126851 1.2472819 -2.2338958
0.4527273 1.2571999 -0.07956724 -1.534909 0.9374432 0.17227325 -0.9962268 -1.0247084
-0.24670164 -0.88788855 -0.73632205 1.029482 -0.96983385 0.45131406 0.67917305 -0.9742899
-0.5123213 -0.2830825 -0.26684585 0.39404473 0.72618765 -1.0997256 -1.0168829 0.061248776
-1.2803125 0.03230162 -0.4459408 1.5123112 -2.1621897 2.0785525 0.5511192 0.88002765
0.44893363 -0.21450572 -1.6480229 0.06564573 -0.5678995 0.7724926 -0.7938376 1.8963451
-3.26469 1.919874 0.7260103 -0.0007219386 -0.6826905 0.8418836 0.10606488 -0.10647464
0.5684038 1.5431207 -0.85876715 0.18054776 -1.073575 0.2549949 0.0049408353 -0.9471744
2.3730721 -0.99861854 2.424264 0.5278809 0.39756957 0.058237527 -1.2463571 2.3108807
-0.26633307 -1.2274584 -0.06392227 1.4203796 -0.89648885 -0.08034686 0.8710258 0.9124598
0.1696948 0.95751107 0.6048355 -1.1032242 0.7954264 -0.5421827 -0.70822376 0.9448936
0.5571102 0.2450807 0.053530112 -0.4687643 -0.66721493 1.087613 0.8727138 -0.2194249
1.255532 0.041890763 0.36023292 -1.4370785 2.0613744 -2.1866562 -0.6536032 -0.81625986
-0.43080977 0.21250783 1.6219561 0.020805774 0.44010505 -0.7406886 0.87270504 -1.8886883
3.2944584 -1.7954718 -0.76736426 0.028235422 0.7055911 -0.97074527 -0.14512533 0.09507521
-0.6353484 -1.5634602 0.8388432 -0.14721943 0.9647771 -0.1875437 -0.0035492927 1.0193552
00000000: b611 1cc0 52dd 813f 4614 17c0 5d16 1abf
00000010: cd32 a9be ca88 15bc efa6 9f3f 26f8 0ec0
00000020: dfcb e73e edeb a03f 26f4 a2bd e677 c4bf
00000030: 47fc 6f3f 6668 303e b808 7fbf a529 83bf
00000040: 5b9f 7cbe aa4c 63bf 9a7f 3cbf 11c6 833f
00000050: 0847 78bf a312 e73e 49de 2d3f 106b 79bf
00000060: 7d27 03bf 30f0 90be 05a0 88be 3bc0 c93e
00000070: 6fe7 393f cfc3 8cbf 3829 82bf ffdf 7a3d
00000080: 48e1 a3bf b44e 043d 5a52 e4be 6a93 c13f
00000090: 5161 0ac0 0107 0540 2616 0d3f 7e49 613f
000000a0: a1da e53e 63a7 5bbe 6af2 d2bf 4571 863d
000000b0: dd61 11bf 13c2 453f f138 4bbf 70bb f23f
000000c0: aef0 50c0 6ebe f53f d0db 393f 7b40 3dba
000000d0: cec4 2ebf af85 573f 8b38 d93d 600f dabd
000000e0: e982 113f fb84 c53f 2ad8 5bbf 83e1 383e
000000f0: e86a 89bf b18e 823e bbe6 a13b 057a 72bf
00000100: 6ae0 1740 77a5 7fbf 2427 1b40 3423 073f
00000110: 3d8e cb3e 798a 6e3d a188 9fbf 78e5 1340
00000120: cf5c 88be 5b1d 9dbf aee9 82bd 00cf b53f
00000130: 4b80 65bf e58c a4bd 8cfb 5e3f f796 693f
00000140: 79c4 2d3e 721f 753f 80d6 1a3f 7336 8dbf
00000150: 11a1 4b3f 7ccc 0abf 274e 35bf 8ce4 713f
00000160: c69e 0e3f 6ff6 7a3e 6442 5b3d e001 f0be
00000170: 99ce 2abf e736 8b3f 2c6a 5f3f ecb0 60be
00000180: 46b5 a03f a695 2b3d 7370 b83e 30f2 b7bf
00000190: 8fed 0340 2df2 0bc0 8a52 27bf 68f6 50bf
000001a0: 1993 dcbe a79b 593e 429c cf3f df70 aa3c
000001b0: 7355 e13e c59d 3dbf 9969 5f3f 8ac0 f1bf
000001c0: 68d8 5240 05d2 e5bf fc71 44bf f94d e73c
000001d0: 9ea1 343f c382 78bf bc9b 14be cbb6 c23d
000001e0: 31a6 22bf 771f c8bf 6ebe 563f b1c0 16be
000001f0: a2fb 763f 750b 40be 409b 68bb 3b7a 823f

adv.2.bias f4 [2]
-0.18323284 0.034459874
00000000: 64a1 3bbe cc25 0d3d
