positive_tune/checkpoints/ep_0002.pt (torch, 145855 bytes, 11 tensors)

feature.0.weight f4 [128, 16]
00000000: 1890 8a3f 12d7 69bf 04eb 2abf 682e 4fbf
00000010: 43e0 46c0 4a01 4a3f f505 a13f 6ad1 5e3f
00000020: 1889 0e3f f295 fc3e bdd4 d4be ffe7 11bf
00000030: 14d2 34bd f656 ad3e dbe2 1940 af8a 9cbf
00000040: 5149 863e 74fb bdbd feca e6be 30e6 7cbe
00000050: 03e2 ac3e 883f 6c3e 97d5 223f eed4 fb3e
00000060: 7803 5abf 5790 fbbe c940 6cbe eb07 1abf
00000070: b587 b5be 8a24 cabe 520a 743e d851 03bf
00000080: d53b edbe 2735 a83e f7e7 863e 1e0c d33d
00000090: 0cac 61be fab4 0e3e 8494 693e d653 bd3e
000000a0: 35c8 0b3e a561 153e e6cd 6b3f cd95 573f
000000b0: 416f 313e 76d6 e5be 9ceb e0be 8521 11bf
000000c0: 3afd 043f 2fe5 043f 7187 203f db13 5a3f
000000d0: 73d3 af3f f233 21bf 501b 5cbe 741a 6dbe
000000e0: d062 5a3f 7a5b 6f3f f386 b73e a6d5 123e
000000f0: 39ac 0d3f 4991 6ebf b8f3 483e 8bde 2ebf
00000100: 0eb0 2d3f a29f fabd c296 debd ab6b 343e
00000110: ac34 8d3f 9292 3fbd b4da 3dbe 0351 103e
00000120: 77a0 5b3f ddb3 2d3f 1795 2cbd 5763 26bd
00000130: 298b 153e 489e b3c0 c960 003f e9cc 473d
00000140: f992 e73e 4f2e b13e 4d2a b53d a893 5c3e
00000150: bb20 0ec0 66b5 693f 0a5c 843f a759 953f
00000160: 5a6a 2cbf bad7 14bf 7a1f 783e bdff b53e
00000170: 50d8 c83e ad27 ad3e a7d6 a23f f8c0 f4be
00000180: aa14 f13e 1f40 b5be 831e 66be 54c3 0bbe
00000190: c322 9ebe e185 fbbc 1873 0d3e 0af2 173e
000001a0: 38b7 3a3e 70a6 433e 1111 a73e 758d fb3d
000001b0: 8500 403e 48d0 0fbf 7883 003e ff72 25bf
000001c0: cd12 2b3f c804 35be a4f9 bdbd 6ce6 d5bd
000001d0: d7aa edbf 6d2c 0dbf 116f 16bf 1571 12bf
000001e0: 13d6 1e3f e743 6b3f 8094 74bf 78a5 91bf
000001f0: d122 75bf fa22 64bf e421 b1bf f8ab 723e
00000200: 56e1 39c0 b478 a1be 28a1 88be ee0c ddbe
00000210: f3f4 da3f 613a 38c0 f396 4cc0 3b61 48c0
00000220: 6b2e 2a3f 27ea 303f 5366 073f 46cd 173f
00000230: 2b90 bfbe d41f d23e 9060 123f f134 963c
00000240: 784c e6bf e0e5 763f 8c5a 4b3f 22d0 633f
00000250: 760a f03f e5b9 a8be f384 9fbe 7566 97be
00000260: 9753 fe3e e4d8 a03e 07b6 81bc 68f0 9cbe
00000270: fae9 2c3f cde3 69be 9f30 b7bd ed83 20be
00000280: 1790 9b3f d91c 7dbf 5bed 6abf 67ee 9fbf
00000290: 73d7 a4be be03 03bf e223 e9be 763d b8be
000002a0: 0e23 b13e 7454 8d3e 3592 e8be 84df 08bf
000002b0: 3dfe 16be f73f b0bf 9729 44bf d334 b33b
000002c0: f07d 4fbe 1107 d3bc 31ae 00be 966f 0cbd
000002d0: fd38 d53f 66ed 643e 4a37 fd3d f8a5 54bd
000002e0: 5a28 c2be 81e3 0bbf ac32 05be d463 01be
000002f0: 6988 9a3e 1a44 1ec0 eb82 263f 578b acbd
00000300: 8661 e8be 23eb 0b3f bd86 d73e ec08 1c3f
00000310: d724 45c0 7ee4 78be a1a7 e6be fdf6 debe
00000320: eb10 2c3f d318 253f e30b 513f 796e 1d3f
00000330: eb82 3d3f 68d8 d6bd d649 283f 6256 53bf
00000340: 1ac9 babe a48f 893f 8666 5b3f a47d 1a3f
00000350: b792 963f d32a 20be a0c3 923d f584 e4bd
00000360: 6e90 b7bd f9f8 c63d 2f73 b93f c74c d53f
00000370: ff02 583f 4d09 12bf f14f f2be 61be 803d
00000380: 658d 29bf 467b 353f 9ee1 f63e 8ff9 fb3e
00000390: 6f50 61bf 4ff6 d1be be71 35bf 2b62 0ebf
000003a0: 6326 5ebf 6d7d 75bf fedf 5d3f 676d 803f
000003b0: c3a4 043f 1cb3 cfbe 95b5 e93e d15a c6bd
000003c0: 7994 d33f 2640 a2bd 1019 153d 15f2 983d
000003d0: e9ff 26c0 3395 1a3f 3454 4c3f ffea 1f3f
000003e0: 7357 173f 49d4 443f b1ad 8cbf 080f 71bf
000003f0: 3968 363f c664 c8bd 6ad9 aa3d 848a 42be
1.0825224 -0.91343796 -0.66764855 -0.80930185 -3.1074378 0.78908217 1.2579943 0.8703829
0.5567794 0.4933315 -0.41568556 -0.5699462 -0.04414566 0.33855408 2.4044712 -1.2229823
0.2622781 -0.092764765 -0.45076746 -0.24697185 0.33766183 0.2307111 0.6360716 0.4918589
-0.8516154 -0.4913356 -0.23071589 -0.6016833 -0.354551 -0.39481002 0.23832062 -0.5129676
-0.4633471 0.32853052 0.2634885 0.103050455 -0.22038287 0.13936225 0.2281056 0.36978024
0.13650592 0.1458803 0.9211105 0.8421295 0.17327596 -0.44890183 -0.43929756 -0.5669177
0.51948893 0.51912206 0.6270667 0.8518655 1.3736404 -0.6296989 -0.21494794 -0.23154622
0.85307026 0.9349896 0.35845146 0.14339313 0.55340916 -0.9319044 0.19624221 -0.68308324
0.67846763 -0.12237479 -0.108685985 0.17619197 1.1031699 -0.04677064 -0.1854046 0.14093404
0.85791725 0.67852575 -0.04213437 -0.04062208 0.14603867 -5.6130714 0.5014768 0.048779402
0.4522932 0.34605643 0.08845959 0.21540701 -2.2207477 0.9129242 1.0340588 1.1667985
-0.6734978 -0.5814167 0.24230757 0.35546675 0.39227533 0.33819333 1.2721757 -0.47803473
0.47086078 -0.35400483 -0.22472577 -0.1364873 -0.30885896 -0.030703487 0.13813436 0.14838424
0.18233955 0.1910646 0.32630208 0.1228284 0.18750198 -0.56177187 0.12550151 -0.64628595
0.6682556 -0.17677605 -0.09276131 -0.1044434 -1.8567761 -0.55145913 -0.58763224 -0.572038
0.620454 0.91900486 -0.95539093 -1.1378622 -0.9575625 -0.8911587 -1.3838468 0.23698413
-2.9043784 -0.31537402 -0.26685452 -0.43173927 1.7106003 -2.8785632 -3.1967132 -3.1309345
0.6647708 0.6910729 0.5289051 0.592976 -0.3741468 0.41039908 0.5717859 0.018335791
-1.7992086 0.9644451 0.7943504 0.8898946 1.8753192 -0.32954326 -0.3115612 -0.29570356
0.4967315 0.31415474 -0.015833868 -0.30652165 0.6754452 -0.22840805 -0.089448206 -0.15675326
1.2153348 -0.98872143 -0.91768426 -1.249463 -0.32195625 -0.51177585 -0.4553519 -0.3598439
0.34597057 0.27603495 -0.45424047 -0.5346606 -0.14745422 -1.376952 -0.7662596 0.0054689436
-0.20262885 -0.025760205 -0.12566449 -0.034286104 1.6658016 0.22356185 0.12364061 -0.051916093
-0.3792141 -0.5464402 -0.13007611 -0.12635738 0.30182198 -2.4729066 0.65043515 -0.084250145
-0.45386904 0.54655665 0.42094985 0.60951114 -3.0803735 -0.24305913 -0.45049766 -0.43547812
0.67213315 0.64491004 0.8165876 0.6149669 0.7402789 -0.10490495 0.65737665 -0.82553685
-0.36481553 1.0746961 0.85703313 0.6034796 1.1763524 -0.15641336 0.07166219 -0.11158172
-0.08963095 0.097154565 1.4488276 1.6664056 0.8437957 -0.5704544 -0.47326615 0.06286312
-0.66231376 0.70891225 0.48219007 0.49213836 -0.88013357 -0.4100823 -0.7087668 -0.5561854
-0.86777323 -0.9589451 0.8666991 1.0033387 0.51813906 -0.40566337 0.4564635 -0.096852906
1.6529685 -0.079223916 0.036400855 0.074680485 -2.6093695 0.6038391 0.79815984 0.6246795
0.5911781 0.7688642 -1.0990506 -0.9416356 0.7125278 -0.09784846 0.0834225 -0.18998152

feature.0.bias f4 [128]
00000000: ba90 4fbe 0889 83be b64d b4be 9e17 273f
00000010: ac18 ad3f 8546 7e3f 7b14 09bf 9bf4 873f
00000020: de8e 8c3f 5501 01be a19d 07bf ff93 b03f
00000030: f8c7 de3e 092a b63e be1f 293f 08b3 14c0
00000040: 667f a5bf a5bc 1140 46d0 ed3f 895f bf3e
00000050: f788 653f 3a18 e33f b1fc b53f 5b0a 0bbf
00000060: 232b ea3b 8498 5f3f a06d 74bd 9871 a3bf
00000070: 40f5 8d3f d215 f8be bc77 873f 31c4 f2be
00000080: 6f96 c4be 963f 28c0 73fb 89bf 5775 60bd
00000090: 2073 033f 4305 d03f 1d9b 3c3f 0a27 0b3d
000000a0: 235d 90bf 034b d93f fd5b 1cbf a6e1 bd3f
000000b0: c749 1ebe 5a0f 1ebf e518 29c0 00bc 5c3f
000000c0: ac9f 963f b829 1dc0 4475 f73e 6881 e9be
000000d0: fd99 21bf a3a5 b2be 5afc 4f3f d6c3 483f
000000e0: 9ea1 dcbd 638a 1abf 3268 173e 0a3c bebe
000000f0: 7eff 70bf 604e 33bc 84f6 a03e 42b4 633f
00000100: 2d35 ebbf f338 04c0 7309 b9bf 2288 ddbb
00000110: 1f31 393f a06a 973f 694c e43d c558 873f
00000120: e670 ddbe ca57 60bf a1bc b8bf db2f e3bf
00000130: f1a9 6f3f 7e3d d6bf 9fed 0cc0 8fae 203f
00000140: 6884 57bd 134d f6bf 7182 8e3e bfb5 a3bc
00000150: 8c4e d9be e1b8 00bf 10f6 213e cd19 0cbf
00000160: 2b1e 43bb 579e a4bf 7451 50be d9f7 60bf
00000170: feb8 6fbf c67d 1bbf 5528 22bf 62d1 0740
00000180: dd34 a2be e19c 99bf 033c 93bd 05bf b3be
00000190: e9f3 723f eca2 edbe 9a51 51c0 77fd 70bf
000001a0: a47f 99bf 8b0a 6dbf 52f2 0b3f d03e fc3e
000001b0: 05e2 2e3e 6770 94bd aaab be3e 0f14 a7bf
000001c0: fc3b aabf e180 1c3f c91c c33e d780 0740
000001d0: fb5f c13d 4f1d 223f b065 15bd 466d 8f3f
000001e0: 8611 08c0 8938 803f c0da 80bf cd67 b1bd
000001f0: b038 8f3f 3f62 0ebf 485b 5e3f b952 acbf
-0.20270053 -0.25690484 -0.3521554 0.6527041 1.3523154 0.99326354 -0.53546876 1.0621523
1.09811 -0.12598164 -0.529749 1.3795165 0.4351194 0.35578945 0.6606406 -2.3234272
-1.2929504 2.277139 1.8579185 0.37377575 0.89662117 1.7741768 1.421774 -0.54312676
0.0071462556 0.87342095 -0.05967486 -1.2769041 1.1090469 -0.48454148 1.0583415 -0.47415307
-0.38396022 -2.628881 -1.0779861 -0.054799404 0.5134754 1.6251606 0.73674184 0.033972777
-1.1278423 1.6976017 -0.6107786 1.4834487 -0.15457831 -0.61742175 -2.6421444 0.86224365
1.1767478 -2.4556713 0.48331654 -0.45606542 -0.6312559 -0.34891996 0.8124443 0.7842382
-0.107730135 -0.6036741 0.14785841 -0.3715518 -0.9413985 -0.010943979 0.31438076 0.88946927
-1.8375603 -2.065976 -1.4456009 -0.006760613 0.7234058 1.1829414 0.111473866 1.0573965
-0.43250197 -0.87633955 -1.4432565 -1.7748979 0.93618685 -1.6737516 -2.2020032 0.62766355
-0.052616507 -1.9242271 0.27833894 -0.019984124 -0.4244274 -0.502821 0.15816522 -0.5472687
-0.002977262 -1.2860821 -0.20343572 -0.87878186 -0.9364165 -0.6073879 -0.6334279 2.1221547
-0.31680956 -1.2001001 -0.07189181 -0.35106674 0.9490343 -0.46413362 -3.2706056 -0.94136757
-1.1992078 -0.9259421 0.54666626 0.49266672 0.17078407 -0.072480015 0.37240344 -1.3052996
-1.3299556 0.61134154 0.381079 2.1172388 0.09442135 0.6332597 -0.03647393 1.1205223
-2.1260695 1.0017253 -1.0066757 -0.086623766 1.1189175 -0.5561866 0.86858034 -1.3462745

feature.2.weight f4 [128, 128]
00000000: 7240 bfbd 1608 3dbf 2d49 b0bd 8ff4 553d
00000010: 5c1b a4be 0fae db3d 9d3d 50bd ce4f 86bf
00000020: f5ef 6b3c 2e93 82be 8fa7 09be d99c 88be
00000030: 2679 073e 653b 85bd a13b 0b3c 77c8 863c
00000040: c636 a13d 96c6 91bd e376 283f 6bd3 64be
00000050: b209 5e3f 1132 6cbe 9572 a5bf ac5e 703b
00000060: 0ef9 b2be 9a4d d3bc 685a 583c c76a cc3c
00000070: 6cbd 013d 2663 a8bc dab2 15bf f0c6 913e
00000080: 247c e13d f5af 06bf 554c 60be 5549 36bd
00000090: 8832 adbd a76b a3be c526 873d 2a07 703d
000000a0: cdbd fdbd ce9c 35be 622d 8abe 656a c3bd
000000b0: 18bf 2bbd 9438 89bd 5b42 453d 0786 2dbe
000000c0: 4ac1 78be 3568 c2bb 9b4f cc3d 1e96 c8be
000000d0: f4b5 693d 4b1e 183d affb 05be c05b 9dbd
000000e0: 5fa3 54be 2cd0 1dbf 6f14 0e3e cc4e 51be
000000f0: 0214 073e 95e4 46bd e696 51be ae50 0b3e
00000100: 3c82 37be b540 aabe eac0 e8bd 3d1a 383c
00000110: c23d 8ebe 98a8 73be 617d 80be cdf5 53bf
00000120: 5c23 cd3d 6ea8 52be ed4f d93d f7b7 03bf
00000130: 709e 2fbf 1a3c 90be 0fa3 b4bd 2c45 d63e
00000140: 0b69 9ebe 4ec7 34be 3af1 ce3d dbcb 133d
00000150: 9908 f23e 2d57 ccbe e104 85bf 0c10 33bf
00000160: 2f97 20bb 9a87 9a3e 5b2a 173e 80c6 12be
00000170: 7da5 60bf b767 a1bd a70f 38be e528 0a3f
00000180: eb15 11be 1598 663e b8c5 50be bfc3 9ebe
00000190: 5ae6 17be b2c3 273e c47e a03c 817f 1cbe
000001a0: 7708 17bf 579d 07be 9cbf 11bf edc0 313b
000001b0: d0b0 7d3e fedf 933d e85b 493d cab5 43bf
000001c0: dbd3 9bba 2eeb 83be 9b92 85bf 0774 993c
000001d0: 4fc3 1bbf 7a4c 6dbe 3c0a b4bd 9b88 393c
000001e0: 9558 89be bd6d f2bf c6a6 cdbe 681b 4c3e
000001f0: 6ba0 373f 9914 83bd c067 093f a80c 30bd
00000200: f52f 75be 12b3 0e3d 4690 263e 0a7c d33e
00000210: 3899 4a3c 8dd8 39be ecd8 fabd 9d97 633e
00000220: 30df 29bf 2f8a a2bd dfca dbbe 72df 3d3e
00000230: e4a5 fdbd d439 583e 1bf9 823d 1f6d 233d
00000240: 808a 96ba 42d3 2bbe afc4 76be 37f9 003f
00000250: 3291 15be 3188 81be 0313 77be 6dab 38be
00000260: 7289 98be 6846 f1bd 56c2 333d 4bb4 47be
00000270: dba3 4abe 3556 13bf 0738 adbd a629 94bd
00000280: bd1d 9dbe cfe8 a0be d8a7 35be 7b80 623c
00000290: 29f5 993e 6cdf 993d 7523 d1be 40d3 42be
000002a0: fab4 1ebe d59c 30bf bb19 ffbd 9484 38be
000002b0: 1adf 983d 65e9 afbf a714 273e 5107 90be
000002c0: ace8 7ebd 44b5 153d 180d 413e f32b b4be
000002d0: d75b 19bd 2553 a93c 850d 4fbd 4517 99bd
000002e0: fd38 18bd 4e95 083d 7227 503e 01f3 cabd
000002f0: cc2f c1bd 9026 0dbc 710d a2bd 1091 a4bc
00000300: a498 fb3d e456 cf3e 0b58 62bd f83c 9ebd
00000310: 67c9 f13e 6058 aabc 10ba a9be d971 583d
00000320: 8212 0ebf 878e 2fbd 5b24 bdbc abca 3d3f
00000330: 5563 cf3c af5a e6bc 49b8 bd3d f70d b1bd
00000340: ab31 5b3e ae45 7dbf 2acc 0ebf e96e 8cbc
00000350: 30b3 a83e 7ab5 47bf 7fe3 c2be cca8 7ebd
00000360: 2ed0 1ebd 0db9 05bd 37b3 b53d 76d6 04bd
00000370: 601a 463f b304 32be 4d2c 863c 28cb 3dbe
00000380: dca8 dbbe 8959 02bf 7fc1 d6bd ff83 06bf
00000390: 597b 31be 6468 58bf d5bf c43d 76a8 ea3d
000003a0: 81db eabc 540f 84be 0ba0 89bd 3165 d4be
000003b0: 36e6 fa3d bb58 9d3d 411d 4ebe e9f0 0dbd
000003c0: 1b46 75be f079 18be 7adc 3dbe 5e51 58be
000003d0: 7175 073e 7ce3 993d 304a a4bb b1c7 1ebf
000003e0: 0483 7abe c383 1a3e 1a2c 8bbd 57d7 37bf
000003f0: 1f4b 5cbe 4a59 63bf 2aa5 57be fe61 03bf
-0.09338464 -0.73840463 -0.08607707 0.052235182 -0.32052124 0.107265584 -0.05084001 -1.0493104
0.014400472 -0.25502914 -0.13442825 -0.26682165 0.13229808 -0.06505469 0.008498103 0.016453011
0.07871775 -0.071179554 0.65806407 -0.22346275 0.86733544 -0.23065974 -1.2925593 0.0036677523
-0.3495564 -0.02579384 0.013205148 0.02495326 0.031674787 -0.02055509 -0.5847603 0.2847209
0.11010006 -0.5261224 -0.21904118 -0.04450353 -0.08456904 -0.3191807 0.065991916 0.058600582
-0.12389717 -0.17735597 -0.2698775 -0.095417775 -0.041930288 -0.067002445 0.048158985 -0.16945659
-0.24292484 -0.0059328326 0.09976121 -0.3917703 0.05705829 0.037138265 -0.13084291 -0.076835155
-0.20765446 -0.6164577 0.13874982 -0.20440215 0.13191226 -0.048557837 -0.2046772 0.13604996
-0.17920774 -0.33252493 -0.113649204 0.011236724 -0.27781492 -0.23794782 -0.25095657 -0.8279694
0.1001651 -0.20572063 0.10610948 -0.51452583 -0.6860113 -0.28170854 -0.088201635 0.4184965
-0.30939516 -0.17654154 0.10104604 0.036083084 0.47272184 -0.3991026 -1.0392114 -0.6994636
-0.0024504175 0.3018158 0.14762251 -0.14333534 -0.87752515 -0.0788111 -0.17974721 0.5396865
-0.14168517 0.22518952 -0.20387924 -0.31008717 -0.14833966 0.16383246 0.019591697 -0.15283014
-0.5899729 -0.13243614 -0.56933 0.002712305 0.2477448 0.072204575 0.049159914 -0.76449263
-0.0011888699 -0.25765365 -1.0435365 0.018732084 -0.6084489 -0.23173705 -0.087910146 0.011324073
-0.26825395 -1.893974 -0.401663 0.1993233 0.71729153 -0.06400413 0.53673935 -0.04298082
-0.23944075 0.034838744 0.16265973 0.41305572 0.012365632 -0.18149014 -0.12248406 0.22225805
-0.6635618 -0.07936513 -0.42928216 0.18542269 -0.12385157 0.2111581 0.06395169 0.039898988
-0.0011485368 -0.16779807 -0.24098466 0.5038027 -0.14606169 -0.25299218 -0.24128346 -0.18034144
-0.29792362 -0.11781007 0.043886505 -0.1950237 -0.19789068 -0.57553416 -0.08457952 -0.07234506
-0.3068675 -0.3142762 -0.17739809 0.013824577 0.30069855 0.075133175 -0.40847364 -0.19025898
-0.15498725 -0.68989307 -0.124560796 -0.18019325 0.07464428 -1.3743101 0.16316472 -0.28130582
-0.062233612 0.03654982 0.18852651 -0.3518978 -0.0374411 0.02066953 -0.050550003 -0.074751414
-0.037163723 0.033345513 0.20327547 -0.099096306 -0.09432945 -0.008615151 -0.0791272 -0.020088702
0.12284973 0.4049598 -0.055259746 -0.077264726 0.4722397 -0.020794094 -0.33149767 0.05284295
-0.5549699 -0.042860534 -0.023088625 0.7413737 0.02531592 -0.028119413 0.09263665 -0.08645242
0.21405666 -0.9893445 -0.5578028 -0.01714273 0.3294921 -0.78011286 -0.3806419 -0.062172696
-0.038772754 -0.03264718 0.08872073 -0.03243109 0.77383995 -0.17384605 0.016378546 -0.18534529
-0.42902267 -0.5091787 -0.10486125 -0.5254516 -0.1733221 -0.8453429 0.096069016 0.114579126
-0.02866912 -0.25792944 -0.06719979 -0.41483453 0.122509405 0.076829396 -0.20128347 -0.034653578
-0.23952524 -0.14890265 -0.18541136 -0.21124789 0.13228394 0.07514092 -0.0050137267 -0.62023455
-0.24464041 0.15089326 -0.06795521 -0.7181296 -0.21513031 -0.8880812 -0.21059099 -0.513214

feature.2.bias f4 [128]
00000000: 26f7 1cbe 28d2 02be f97b 5f3f 4cc1 c53f
00000010: 6817 88bb 2c54 40bd 4ec5 c4bc 6da4 123f
00000020: f8a3 773e c743 6ebe 38d4 133f e0bf 253e
00000030: 007d 263e d22f d4be 6989 35be 9923 d13c
00000040: 4ebc a3bc 3df1 f5be 6ad6 33bd 5a72 9c3f
00000050: c7ec 2dbe 0d61 11be b2ec 11c0 413d 04be
00000060: 33df e3bd 4c1a 01be 789d 1dbe 9d59 babe
00000070: 3c93 84ba 2918 303f 112c 2abe 4fb8 b83e
00000080: 21bd 22bb 2be5 dd3e dc3e 283e bfbe 94bd
00000090: 8a04 cf3e f6d6 cf3e 6988 383e 7cc4 633e
000000a0: 38b0 01be 5089 993d 1b2e 31bd 8888 ddbd
000000b0: d1ca 103e d4a5 1abe 76ad a7be 1505 0f3d
000000c0: bd63 10c0 3359 a1be 69a9 cebf db57 54bf
000000d0: 888d 8dbd 04a3 cf3e faea 9d3d ee4f bc3e
000000e0: 183d 49bd 0f1a b7be a633 ca3d 5210 2bbe
000000f0: 2685 54bd b71d 46bd e9af 2dbd 4dd6 873f
00000100: 73a2 663e 392b f0bd d2e6 40be 2edb 97bd
00000110: d0d3 2abe ab15 ebbb b90d 17be 69e1 1fbe
00000120: 52ba 693e 8ee3 2bbf 9d59 943e fd8a 56bd
00000130: e8d0 0cbe f9e2 393d eb87 9c3e c432 12be
00000140: ec82 123f 1d73 553e 78d2 e3be 7e06 9dbd
00000150: a112 d7bd 9bd3 a6bd 4959 ec3e 6032 813e
00000160: 464f 6ebe 15ab 13bf 2ab5 23bd 4d27 663e
00000170: 8fe0 25bd 9f52 743f 0b54 71bf 5385 f0bc
00000180: d454 1fbe c8ab bebd cb5e 8a3e cecc 203f
00000190: 412e 50bd 223f 0dbf cf03 333f 671e 173f
000001a0: 1d9b 8f3f 2622 efbd 3999 c73e 53bf 2abe
000001b0: 15c8 0b3f ad68 903b 129b 68bd c239 16be
000001c0: 0dc6 283f 031b f9bd 7797 e9be 1ac8 c63c
000001d0: 6f1d 803e 9f49 0a3e df8b 0e3f 62bd 8ebb
000001e0: 70c9 38bd d8e0 e43e 6128 a9bd 465f c4bd
000001f0: 74ca 453e cd26 13be 4fd4 01bc 7cf2 b1be
-0.15328655 -0.12775481 0.8729854 1.5449615 -0.004153181 -0.046955273 -0.024019863 0.57282144
0.24183643 -0.23268043 0.57745695 0.16186476 0.16258621 -0.41442734 -0.17728199 0.02552967
-0.019987252 -0.48035613 -0.043905653 1.2222397 -0.16984855 -0.14197178 -2.2800717 -0.12913992
-0.11126556 -0.12607688 -0.15392101 -0.36396495 -0.001011468 0.68786865 -0.16618372 0.36078116
-0.0024831968 0.43338904 0.16430229 -0.072629444 0.4043315 0.4059369 0.18020786 0.22242922
-0.12664878 0.074968934 -0.04325686 -0.10817057 0.14139868 -0.15102321 -0.32749528 0.034916956
-2.2560875 -0.31513366 -1.614545 -0.82946557 -0.069117606 0.4055406 0.07710834 0.36779732
-0.04913053 -0.3576207 0.098731324 -0.16705444 -0.051884793 -0.048368182 -0.04240409 1.0612274
0.22522907 -0.11726994 -0.18838051 -0.07414852 -0.16682363 -0.007174214 -0.14751329 -0.15613331
0.22824982 -0.67144096 0.2897462 -0.052378643 -0.13751566 0.045382474 0.30572447 -0.14277178
0.5723102 0.20844693 -0.44496512 -0.07667254 -0.105016 -0.08145829 0.4616187 0.25233746
-0.23272428 -0.57682925 -0.039967693 0.2247593 -0.04049736 0.9543857 -0.94268864 -0.029360449
-0.15559703 -0.093101084 0.27025446 0.6281251 -0.05082536 -0.5517446 0.69927686 0.59030765
1.1219212 -0.11676435 0.38984087 -0.16674547 0.54602176 0.0044070096 -0.05678851 -0.1467047
0.659272 -0.12163355 -0.4562337 0.024265338 0.25022456 0.13504647 0.55682176 -0.0043560723
-0.04511398 0.44702792 -0.08259655 -0.095884845 0.19315511 -0.1437027 -0.0079241535 -0.34755313

value.0.weight f4 [64, 128]
00000000: dc7c 203f a5b1 14bc ebc0 89bf 6694 72bf
00000010: 72fa a5bc 51fb b5bd fc8d 0dbe 2614 40bf
00000020: 2396 3dbf 69c6 343d b6e1 8dbe d5f9 353b
00000030: 2ac6 2fbf 2082 96bd a2c5 24bf 3896 38bf
00000040: 9278 ffbb 05ad 5fbf 6a89 813c db9c c2bf
00000050: 8e12 c8be 1313 a1bd 864c 20c0 0079 95bb
00000060: 12d5 393e bae0 84bc ecf2 a83d e753 d0be
00000070: a0ab 8abc 5b26 16bd 0097 063c b090 6cbf
00000080: ccda 78bd d2c1 cbbf 1e27 e9bd af5b a0bd
00000090: dd0f 57bc 1a71 5abf 7807 49bf 12e6 49be
000000a0: f585 22be 0589 aebe b48d d9be c24d 6ebd
000000b0: 442b 11bf 4d66 cdbd afb6 aebc 4acf 843d
000000c0: fc40 353e e3a4 e0be 2d18 98bf ee76 8cbe
000000d0: 7010 97bc 7223 afbe d4c5 b7be 6969 e0bf
000000e0: 9782 3cbf 3145 b73f 924b 06bf 1280 153d
000000f0: f44c 143d 8074 873a 5209 523d 9be3 aabf
00000100: 28a5 61be 6b07 923d 4a2c 643d 5449 8c3c
00000110: b424 a4bd 8bc6 133d a271 cb3d 77aa dcbd
00000120: 4dde b1be f73d 133f 4905 4dbf 399d 00bd
00000130: d69a 47be 94ca 93be 5c4b b5be 9a79 863d
00000140: 057d 523d 8e31 19bc f84b 593f fcff 763d
00000150: 1a6a cf3c d3f0 48bd 0b66 afbe f838 28be
00000160: 451d 6ebe 13bc 4d3e 0f76 86bc 1ed5 fd3e
00000170: 48bc b6be e7c1 02be 91df a03e 4a37 d5be
00000180: 3f96 683c 53bc f43e 7493 ac3e 8586 3abd
00000190: 8620 bfbe c194 7ebe 7ec1 00c0 8fa8 5bbf
000001a0: 018c 6dbe 2cc1 cd3c bd48 e2be fc29 72bf
000001b0: b19e b2bf 036f 9e3d 4912 493d 93d1 493d
000001c0: f3d0 d9be 72fc ccbc d572 86be ad50 7ebe
000001d0: 966c 8dbe 03ce 82bf 7624 5c3e da42 64bd
000001e0: bc4c 413f 66fe 3d3e 4d98 8e3d fdea 273d
000001f0: 5cc9 43be 3a47 94bd 486e d73c 5137 c13e
00000200: 27ad abbd 68ae 0bbd e4f5 0fbe 8329 73bf
00000210: e49f 9ebd ac74 b3bd 3d8f 9abe b637 b5bc
00000220: 10e5 873e de4b 033a 238a 06bf e70b a1be
00000230: 504d b93d 34ed a83c 0123 febd c3c6 87bd
00000240: 4e31 90bd 9485 4a3e 7f78 573d 55d0 3abe
00000250: cd4e a5bd b909 69bd 662a 673f 0058 c03a
00000260: 2442 51bf dc36 0ebe 88bf 0ebd 54db d7bd
00000270: e9e3 1c3b 3b52 20be 0e5b 7ebd 2fec 88bd
00000280: 9a28 4a3d 7dd0 ef3c 21de ba3e d373 433d
00000290: fd31 93bd 78d1 c2be 4877 e5bd 6789 27bd
000002a0: 0d01 0ebe f902 35be 3853 1dbd 4069 2abd
000002b0: afdc d7bd 66e5 3c3d f526 923d 5364 f0bd
000002c0: 0b43 e7bd 38f6 963d b171 c8ba ce23 cfbd
000002d0: c6da 583d 0606 87be 23ec 42be ef05 6dbd
000002e0: 9c79 01be 6e3a 223f a585 2c3d a581 a23d
000002f0: 91bc 0dbd d387 b1bd 6f26 5ebd 1c1e 89bf
00000300: 8c5c 63bd b0c2 afbb 36c4 7b3d cf1a 58bd
00000310: 2824 c5be be83 1d3d 90fb f53b 78e0 e73d
00000320: 8b04 143d 63f3 09bf 5678 f9be 2d9a 643d
00000330: 0de7 99bd 703d afbe 4681 75bd 17a9 c43d
00000340: ba71 f8be f7ff 123d 7e47 1f3e d3d4 b33d
00000350: a441 09bd e8d4 0e3d a045 9bbe 0542 30be
00000360: a4fa 98bd 2127 e73d 79c6 1ebc aaf9 1b3c
00000370: e40e 693d 5069 4fbe 7e40 99be f52c c13e
00000380: 277c ef3c 3b24 bb3c 620b 9e3e 4b6e 17be
00000390: 2cde 9ebc 6763 4dbe 06c8 13bc 3033 90be
000003a0: f007 c6be 00a8 c939 81c4 31be f6e4 30be
000003b0: eda3 e8bc 1866 8abd 68d6 8fbc ce70 7d3d
000003c0: c22f a1be 1d59 9abd 5610 2cbe 1da6 99bc
000003d0: c7cc cbbd 2df2 59be 1750 1bbf e11d deba
000003e0: 0d7c 2fbe 2fd7 38bd 7492 86bd 7f9b b13d
000003f0: 567c c9bd 5cad ccbc 544b 87bc 3248 87be
0.6269052 -0.009075557 -1.0761999 -0.9475769 -0.020261023 -0.088858254 -0.13823694 -0.75030744
-0.74057215 0.04413453 -0.27711266 0.002776732 -0.6866175 -0.07349038 -0.64364064 -0.72104216
-0.0077963555 -0.8737338 0.015812594 -1.5204118 -0.39076656 -0.07864966 -2.5046706 -0.0045615435
0.18147686 -0.01622044 0.08249459 -0.40689012 -0.01692754 -0.036657672 0.008214712 -0.92408276
-0.060755536 -1.5918524 -0.11384414 -0.07829987 -0.013126341 -0.8532883 -0.7852702 -0.19716671
-0.15871413 -0.34088913 -0.42490923 -0.058179624 -0.56706643 -0.10029278 -0.021327345 0.0648485
0.17700571 -0.438758 -1.1882378 -0.27434486 -0.018440455 -0.3420673 -0.35893118 -1.7532169
-0.73636764 1.431799 -0.5245906 0.03649909 0.0362062 0.0010334402 0.05127842 -1.335071
-0.22035658 0.07130321 0.0557063 0.01712481 -0.08014813 0.036078017 0.09933783 -0.10774701
-0.34739915 0.57516426 -0.8008619 -0.03139994 -0.19492659 -0.28865492 -0.35409057 0.065661624
0.05138876 -0.009350194 0.84881544 0.06030272 0.025319148 -0.049057793 -0.3425754 -0.16427982
-0.23253353 0.20091276 -0.016413717 0.49576658 -0.35690522 -0.1276928 0.31420568 -0.41643745
0.014195978 0.4779993 0.33706248 -0.045538444 -0.373295 -0.24861433 -2.0118098 -0.85804075
-0.23197939 0.025116526 -0.4419612 -0.94595313 -1.3954679 0.077360176 0.049089704 0.04927213
-0.42542228 -0.025022719 -0.26259485 -0.24835463 -0.27621907 -1.021912 0.21498284 -0.055727817
0.7550771 0.18554077 0.06962643 0.040995587 -0.19119781 -0.07240148 0.026297703 0.37737516
-0.083826356 -0.034101874 -0.14058644 -0.94985217 -0.077453405 -0.08762488 -0.30187407 -0.022121292
0.26541948 0.00050085585 -0.5255453 -0.31454393 0.09047949 0.02062092 -0.1240902 -0.06629708
-0.07040654 0.19777519 0.05260515 -0.18243535 -0.08071671 -0.056894038 0.9029907 0.0014674664
-0.8174155 -0.13888115 -0.034850627 -0.105398804 0.0023939556 -0.15656368 -0.062098555 -0.066856734
0.049355127 0.02927422 0.36497596 0.04771788 -0.07187269 -0.38050437 -0.11204392 -0.04090252
-0.13867588 -0.17676915 -0.03840944 -0.04160428 -0.10540139 0.04611721 0.07136337 -0.11737885
-0.11292084 0.07371181 -0.0015292672 -0.10114251 0.052943014 -0.26371783 -0.19035392 -0.057866987
-0.12644047 0.63370407 0.04211964 0.07934884 -0.03460366 -0.086684845 -0.054235872 -1.0712314
-0.05550818 -0.0053637847 0.06146642 -0.05275994 -0.38504148 0.038455717 0.007506795 0.11322111
0.036137145 -0.53887004 -0.48724622 0.055811096 -0.075147726 -0.3422656 -0.059937738 0.09602564
-0.48524266 0.03588864 0.15554616 0.087808274 -0.033509865 0.034871012 -0.30326557 -0.17212684
-0.07469681 0.1128676 -0.009690874 0.009519974 0.056898966 -0.20255017 -0.29932016 0.37729612
0.029234005 0.022844424 0.3086806 -0.14788167 -0.01939305 -0.2005745 -0.009019857 -0.28164053
-0.3867793 0.00038462877 -0.17360117 -0.17274842 -0.028398478 -0.06757754 -0.017558292 0.061875157
-0.3148175 -0.07536528 -0.16803107 -0.018755967 -0.099511676 -0.21283789 -0.6066908 -0.001694616
-0.17137165 -0.04512709 -0.065709025 0.08672237 -0.09838168 -0.024985008 -0.016515411 -0.26422268

value.0.bias f4 [64]
00000000: 9015 1e3e fdd2 42bf b16f b13f 8272 6abf
00000010: 8ac4 be3f 8d45 383f 3c59 76be 7c46 bbbe
00000020: 223d 193f 1997 51bf c0f7 a8bf 8f2f 813f
00000030: 5d45 cebf c9a9 193f 36bf 0d40 f212 d5bd
00000040: d74c c23f 6ac5 b73f 493a 3c3f 4f72 25c0
00000050: de94 68bd feaa a33f 10dc b7bf 347f 02be
00000060: 94ae 1d3f 06b2 4e3d cb0d 7d3f 2715 b53e
00000070: 5bc5 753f b42f babd baa0 853f 3170 63be
00000080: dfaa 213f 72bc 9cbd 6670 393e 3c46 0e3f
00000090: 2d61 7c3f 0cac adbd 6112 c6be 0885 debe
000000a0: 1038 f93e b8f9 83bf 1d7b 933e 49c1 3bbf
000000b0: 4d4b a23f 1434 40be ebc3 5d3f ca74 92be
000000c0: 8e78 833f 6938 cebf 7308 04be 96ab 463e
000000d0: 4edb 8d3f 9d13 723f 488d eabe c17c 9abe
000000e0: dc0b 47be 42ed b1bf f413 803f 66ef cabf
000000f0: 8b85 62bf f7fd f3bf d9ee 96bf 876e 80be
0.15437913 -0.7610319 1.386221 -0.91580975 1.4903729 0.71981126 -0.24057478 -0.36577213
0.59858906 -0.8187118 -1.3200607 1.0092639 -1.6114918 0.60024697 2.2147956 -0.10404004
1.51797 1.4357121 0.73526436 -2.5851018 -0.056782596 1.2786558 -1.4364033 -0.12743837
0.6159451 0.050462745 0.9884917 0.353677 0.96004266 -0.0909113 1.0439675 -0.22210766
0.63151354 -0.076531306 0.18109283 0.5557592 0.9858578 -0.08480081 -0.38685897 -0.4346087
0.48675585 -1.0310583 0.28804865 -0.73341805 1.267923 -0.18769866 0.8662707 -0.28604728
1.0271165 -1.6110965 -0.12893848 0.19401392 1.1082551 0.9456118 -0.45810914 -0.30173305
-0.19438118 -1.390053 1.0006089 -1.5854309 -0.8848502 -1.9061879 -1.179164 -0.25084326

value.2.weight f4 [1, 64]
00000000: 9ee4 07c0 39e0 b53f 9359 19bf 23e5 ff3f
00000010: efee ab3f e62f 833f 0b67 b0bc f034 3dbe
00000020: f112 90bf 0914 c1bd acea fd3e 746f 95be
00000030: 5fa2 3a3f faa2 dfbe 4bf6 dbbe 222d f83c
00000040: 64e3 0abe baed afbd 282b a33f abae 663f
00000050: 62dd dbbf bd78 bc3f e73c 203f 0245 b4bf
00000060: df20 1ec0 3010 413f aac6 e5bd 9cf3 42bf
00000070: 192e 3ebe 1f5b b1bb 1f3a 2fbe 61a3 00be
00000080: 7e5a 8b3f 7acc ac3a 0123 203f 418f c23e
00000090: b6a7 35be 7e0b 6a3f 266e 11c0 1415 f4be
000000a0: 87de c0bd 1529 aabf c46d 4abf 0261 1d3f
000000b0: d8c0 613f e74a cb3a 6052 3b3f e20f b33c
000000c0: 9c70 99be 3937 313f 8ae2 13c0 49cc 04bf
000000d0: 0004 1fbe 5ac8 2abe 3506 a43e fed5 3dbd
000000e0: 2eae 24be 4e38 0d3f db69 15be b8dd 903f
000000f0: c279 0f3f e451 2dc0 3173 99bf c6d4 65bf
-2.1233287 1.4209052 -0.59902304 1.9991802 1.3432292 1.0248992 -0.02153351 -0.18477225
-1.125578 -0.094276495 0.49593103 -0.29186594 0.7290401 -0.4367903 -0.42961344 0.030294959
-0.13563305 -0.085902646 1.2747545 0.9011027 -1.7176936 1.4724346 0.6259293 -1.408356
-2.4707563 0.75415325 -0.11219533 -0.7615297 -0.18572272 -0.005412474 -0.17112015 -0.12562324
1.0886991 0.0013183497 0.6255341 0.3799992 -0.17739758 0.91423786 -2.272348 -0.4767233
-0.09417444 -1.3293787 -0.7907374 0.6147615 0.8818488 0.0015509994 0.7317257 0.02185816
-0.29968727 0.6922489 -2.3107018 -0.51874214 -0.1552887 -0.1667799 0.32035986 -0.046346657
-0.1608207 0.5516404 -0.14591162 1.1317663 0.5604516 -2.7081232 -1.1988279 -0.8977779

adv.0.weight f4 [64, 128]
00000000: b267 46be b263 823d 249a 233e edc6 bf3e
00000010: cab0 9539 e967 4f3b 2607 cebe b481 c8be
00000020: 434d 503e 9f29 643d db9b 423f dd50 f0bd
00000030: 2a5f b8be ee52 47bf d338 7cbe 56ab 7cbf
00000040: 3885 0fbd 6cba aabe 1bbb 8ebd 93ac a23d
00000050: 175b c63c e9d7 95bd bbb6 45bf bb8a a23c
00000060: 6534 00bf 1f9f 2b3a 8e3d b3bd 40f9 4cbe
00000070: f8fb d53e e40c 54be 0c22 1cbc 945b debe
00000080: 92f4 ab3c 5ed7 70bf 6c31 25be 5909 12bf
00000090: 1a60 c4bf d175 41bf bf77 89bf 4546 82be
000000a0: 9d86 c1bd 0425 c6bd f31e 8dbe ee66 54bd
000000b0: 39c8 f8be 5128 9c3d 0cf3 e7bd 1178 8cbe
000000c0: fffe a13c 4d44 7abf 8fee 51be bb1a 03bf
000000d0: f8ad 8c3d 3066 a2be a954 1fbe 4916 313e
000000e0: e72a c23e e283 503f a684 06bf 4c3c 4dbd
000000f0: 9e0a 90bd 2256 84bd b70d 67bd 1a7d 87bf
00000100: 2b58 5dbf 8098 2a3b 00df 6b3c 0d49 5c3d
00000110: c9ad 32bf 611f 95bd 1947 89bd 64bf 7dbd
00000120: 4d9b b3bf 3296 a3be a464 6dbf 97e4 c83c
00000130: 2bd6 a4bc a116 26bf 5a07 9c3e d2e5 673e
00000140: 0a95 f6bd 5af5 8abe 5425 873f 91ef 20bd
00000150: e2c2 653d 170c 89bd 6649 f1be e2a6 8dbf
00000160: c8a7 43bf 80d3 e2be a2df b53a d875 cfc0
00000170: 30a4 67be 373f 49be e0fc 263e 47f7 4ebe
00000180: 5bf3 32bd 4e75 fcbe e1c8 6abf 3e60 5ebf
00000190: 2fc8 583f 8b92 993f 7fbb 8ebd 4434 53bf
000001a0: e03b cebf b46d 84bd b3c2 6e3e 1940 f03c
000001b0: 8d15 0ebe 9435 9b3d 68c7 253c 3451 60bd
000001c0: b329 0fbf cc87 9ebd fda7 86be d8c4 d7bd
000001d0: 7646 acbf dabf ec3d e4d9 81bd b2d9 cdbc
000001e0: 0dd0 b5be 0094 a1be 4b9c 7ebb 65a5 f73c
000001f0: 4788 65be 10b6 e9bb 6ca7 aabd 9720 dc3c
00000200: 4447 a0bd a6fc 213f fe3b a9be b8e0 70bf
00000210: 81bf 07bd 2aa2 47bd a49d fdbd 6c62 bbbe
00000220: fb8d 6dbd 48ae c1bd 321d f0be bd92 92be
00000230: 6846 04be 6ed3 1cbe cce3 7bbe 7479 99be
00000240: d2ac 763d 4b3a 60bf fc03 16bd c417 22bf
00000250: 8953 c5bd 3ed2 b0bd 7095 183f 081c 4abc
00000260: 6b04 2dbd 2976 9c3d 1589 9a3c 7fec 9dbe
00000270: 380c c2be d578 c5bd 6665 2c3d 9418 af3d
00000280: 8819 07bd f263 3cbf 2d1e 43bf 8541 953c
00000290: 9167 b5bd bb50 abbc 1f11 69bf 9795 fdbd
000002a0: 4d59 6a3d ebc1 d0bd d80c 33be 2c13 bc3c
000002b0: 6887 f5bd 4923 4abd 679a febd 7cff 22be
000002c0: b94d e13e 1b0e 3b3b 0648 273f b6e8 dcbe
000002d0: 730d 8abc b8d8 983e cdd2 9f3d 077b 6c3e
000002e0: fe67 adbd ed06 423e 4b7c f23e 39f6 a6bd
000002f0: a6e9 493d dbe0 93bd a0ff a83b 5db6 87be
00000300: 3ac2 b23d 00e3 aeb9 57af 7b3d 289e 433c
00000310: 711e 6ebf ec3a 713d 7ff7 6abd bf76 763c
00000320: 56d9 64be 983d 8b3e f84b 41be 4285 393d
00000330: 032d 44bd 462b d6be eaea bf3e 2618 9b3e
00000340: e062 27bc c887 47be d15d 4f3f 881f 8fbc
00000350: c35d 9d3d 6a72 f9bc 2fe8 32bf 6b7b 9ebe
00000360: 699c 923d 01af c0be 0a3e 4b3d e528 15bf
00000370: 1a5e 02be a82a ebbe ec3c 413e c4f4 99bc
00000380: a3d3 69bd 9996 f63d e84d d53e 2e51 58bf
00000390: ecd8 703e 2303 9dbe 2340 aa3c c343 54bf
000003a0: 532e 9dbf 8d8d 7dbd 431f b2be 85fc f2be
000003b0: ea93 38bf 707a d2bc 80c2 e7ba 6a0f 683d
000003c0: 38c1 80be 5489 abbd 9d53 f1bd 5da5 efbd
000003d0: 04d0 9d3e 6b6f 473e 6498 2bbe 4558 93bd
000003e0: 6dc0 b53c 1efa 65bd de80 66bd 788d 06bd
000003f0: 156f 86bd 3b04 a43d f053 993b a276 2b3e
-0.19375494 0.063666716 0.15976769 0.37456456 0.00028551213 0.0031647629 -0.4023983 -0.39161456
0.20341973 0.055703755 0.76019067 -0.117341734 -0.36010104 -0.77860916 -0.24631052 -0.9869894
-0.035039157 -0.33345354 -0.06969281 0.07943072 0.024213357 -0.07316572 -0.7723195 0.019841542
-0.5007995 0.0006546843 -0.08751975 -0.20016956 0.417938 -0.20708042 -0.009529602 -0.43429244
0.020990644 -0.94078624 -0.16132134 -0.57045513 -1.5341828 -0.755704 -1.0739669 -0.25444236
-0.094495036 -0.09675029 -0.27562675 -0.051855974 -0.48590258 0.07624877 -0.113256544 -0.27435353
0.019774912 -0.9776047 -0.20501159 -0.5121266 0.068691194 -0.31718588 -0.15559639 0.17293657
0.37923357 0.8145124 -0.52546155 -0.05010633 -0.07033275 -0.06461741 -0.056409564 -1.0585053
-0.8646266 0.0026030838 0.014396429 0.053780604 -0.69796425 -0.07281376 -0.06703014 -0.061950102
-1.4031769 -0.31950527 -0.9273169 0.024523063 -0.020121654 -0.6487828 0.3047436 0.22646263
-0.12040146 -0.27140313 1.0558267 -0.03929097 0.056094058 -0.06691759 -0.4712631 -1.1066554
-0.7642789 -0.44301987 0.0013875852 -6.483135 -0.22621226 -0.19653021 0.16307402 -0.20211516
-0.043689113 -0.49308246 -0.91712767 -0.86865604 0.84680456 1.1997846 -0.06969356 -0.82501626
-1.6112022 -0.06466237 0.2331646 0.02932744 -0.13875408 0.075785786 0.010118343 -0.05476494
-0.55923 -0.07740745 -0.2630004 -0.10535592 -1.3459003 0.1156003 -0.063403875 -0.02512822
-0.35510293 -0.31558228 -0.0038850482 0.030230233 -0.22415267 -0.0071322992 -0.083327144 0.026871009
-0.07826093 0.63276136 -0.33053583 -0.94092894 -0.033141617 -0.048738636 -0.12383583 -0.36598527
-0.05799673 -0.0945707 -0.46897274 -0.28627577 -0.12917483 -0.15315029 -0.24598616 -0.29975474
0.060223408 -0.8758895 -0.036624894 -0.63317513 -0.09635074 -0.086338505 0.59603024 -0.012335785
-0.04224054 0.07639725 0.018864194 -0.30844495 -0.37899947 -0.096421875 0.04208889 0.0854961
-0.032983333 -0.73590004 -0.7621792 0.018219719 -0.08857644 -0.020912519 -0.9104175 -0.123820476
0.05721407 -0.10193237 -0.17485368 0.02295836 -0.11988717 -0.049350057 -0.12431794 -0.15917772
0.4400461 0.0028542343 0.65344274 -0.43146294 -0.016852116 0.29852843 0.07803879 0.23093806
-0.084671006 0.18947954 0.47360453 -0.08152432 0.04929509 -0.07220622 0.005157426 -0.2650632
0.08728452 -0.00033356994 0.061446514 0.011939563 -0.930152 0.058894083 -0.057364937 0.01504296
-0.22348532 0.2719543 -0.18876636 0.0452931 -0.04789449 -0.4182989 0.37483913 0.3029186
-0.010216445 -0.1948539 0.8100253 -0.01747109 0.07683899 -0.030450065 -0.69885534 -0.30953535
0.07158739 -0.37633517 0.049619712 -0.58265525 -0.1273121 -0.45930982 0.18870896 -0.018793471
-0.057086598 0.12040443 0.41661 -0.8449887 0.23520249 -0.30666456 0.020782536 -0.82915896
-1.2279762 -0.06190257 -0.34789476 -0.47458282 -0.721007 -0.025693148 -0.0017681867 0.056655325
-0.25147414 -0.08375803 -0.11783526 -0.117014624 0.30822766 0.19476096 -0.16757351 -0.071945705
0.022186482 -0.056146733 -0.05627524 -0.03284976 -0.06564156 0.080086194 0.0046791956 0.16744474

adv.0.bias f4 [64]
00000000: 76a2 debf 1d6e b6bf a9ff 14bf 8ee9 26bf
00000010: c3f6 a1bf 51f1 2cbf 877e 8ebf 2a0c fbbf
00000020: 6692 34be c87b 37bf 8803 53be b1b4 9cbf
00000030: 72fe c9be d6c5 1fbe f3d5 8bbf af1b 8cbf
00000040: c59d bbbe f32e 07c0 1ffb 0fbf e8b3 a6bf
00000050: d358 56be 45a5 3f3d 8c99 0cbf 76e1 e7bf
00000060: e9a0 4cbc 881e 28bf ed21 a3be 4277 3abf
00000070: 5b85 02bf a7de 81bf 055a 36c0 5816 07bf
00000080: 273c 8b3e c7c0 55be 3b28 8dbe 5a2c dabf
00000090: 7a38 a6bf 8943 1dbf a21b aebe 49a1 c5bd
000000a0: de3d 33bf 334d 09be cddc 8fbf 4c8e 1fbe
000000b0: b42a 07bf ab0a 603e 6b78 9dbf fe8f 80bf
000000c0: dde0 d5bf e3c8 0c3d 5c64 673e 3bda 20be
000000d0: a931 22bf be10 66bf faf6 c2be 8ce5 9dbe
000000e0: 0a29 39bf 9136 c5bf 98c4 42bf 11de 50be
000000f0: eb18 f33b 1dfd af3b 5fe9 2cbe 1f0e 01bf
-1.7393329 -1.4252354 -0.58202606 -0.65200126 -1.2653431 -0.6755572 -1.1132363 -1.9613087
-0.17633972 -0.7167325 -0.20606816 -1.2242643 -0.3945194 -0.15602812 -1.0924667 -1.0945948
-0.36643806 -2.1122406 -0.56242555 -1.3023653 -0.20932321 0.046788473 -0.54921794 -1.811568
-0.012489536 -0.65671587 -0.3186182 -0.72838223 -0.50984734 -1.0146073 -2.8492444 -0.5276847
0.2719433 -0.2087432 -0.27569756 -1.7044785 -1.2985985 -0.61431175 -0.34005457 -0.09649903
-0.70016277 -0.13408355 -1.1239258 -0.15581626 -0.52799535 0.2187907 -1.2302374 -1.0043943
-1.6709248 0.034371268 0.22596878 -0.15708248 -0.63357025 -0.89869297 -0.38079053 -0.30839193
-0.72328246 -1.5407277 -0.7608123 -0.20397212 0.007418742 0.0053707496 -0.16885899 -0.5041217

adv.2.weight f4 [2, 64]
00000000: 1fed 4cc0 839e 903f 8d4c 2ec0 d8e1 18bf
00000010: 5813 a8be 902a edbd 8adc 8c3f 693b 24c0
00000020: aa9e b43d ed0f af3f b10e 9cbd 242e cfbf
00000030: 47fc 6f3f 75b7 4a3d ffb7 6ebf d550 91bf
00000040: 54c6 70be 5ff5 64bf 01e8 38bf 9048 673f
00000050: 952a 73bf 283e a83e dceb 323f 0fd2 b1bf
00000060: 6ee6 8c3d 30f0 90be 05a0 88be 2b39 8a3e
00000070: 6fe7 393f bc9e 93bf 3290 99bf 3dca b23d
00000080: f03c a0bf d26b e93c 5a52 e4be c1bf 9e3f
00000090: 17d4 29c0 dbbe 0840 deb8 883e 5d7a 5f3f
000000a0: a1da e53e 38bb 37bc 5515 e9bf 4571 863d
000000b0: b445 18bf 256e 8d3f c300 64bf 88b3 0540
000000c0: 1b7f 48c0 c3e3 0e40 c1b1 273f 748c fd3c
000000d0: 13a1 07bf 89cd 9d3f 255f c5bc 3405 08be
000000e0: e982 113f b1c8 0140 819a 2fbf dec8 a43c
000000f0: 5bf7 83bf 2fdd ae3e e457 f1bb 057a 72bf
00000100: d3bb 4840 ef93 8ebf 6b5f 3240 b4ee 053f
00000110: d06e ca3e 57df 283e 3cbe 8cbf bb28 2940
00000120: 201d c93d 5b41 abbf 21cf 89bd 3e85 c03f
00000130: 4b80 65bf 4cd0 2d3d 03ab 4e3f bef2 823f
00000140: 6eeb 213e 25c8 763f f53e 173f 5029 7abf
00000150: b984 463f d8c4 d6be ba5b 3abf e10e ae3f
00000160: dfae c4bc 6ff6 7a3e 6442 5b3d 757a b0be
00000170: 99ce 2abf d411 923f 221c 873f ab5d 7bbe
00000180: ee10 9d3f 712e 3b3d 7370 b83e 871e 95bf
00000190: 4960 2340 07aa 0fc0 b531 bdbe 4727 4fbf
000001a0: 1993 dcbe b7fe 163c 35bf e53f df70 aa3c
000001b0: 281d ef3e fb5b 89bf 6b31 783f 0f36 05c0
000001c0: d566 4a40 b3ed 06c0 ed47 32bf c243 61bb
000001d0: e37d 0d3f 304c aebf fd39 75bc d2b1 f83d
000001e0: 31a6 22bf ea15 03c0 c580 2a3f bf7a 583c
000001f0: a814 6c3f 2554 8cbe 4678 0f3c 3b7a 823f
-3.2019727 1.1298374 -2.7234223 -0.5971961 -0.32827258 -0.11580384 1.1004803 -2.566126
0.08819325 1.3676735 -0.0761999 -1.6185956 0.9374432 0.049491365 -0.93249506 -1.1352793
-0.23513156 -0.89436907 -0.7222901 0.90345097 -0.9498685 0.3285992 0.6989114 -1.389223
0.068798885 -0.2830825 -0.26684585 0.2699674 0.72618765 -1.1532817 -1.199713 0.0872998
-1.2518597 0.028493796 -0.4459408 1.2402269 -2.65357 2.136649 0.26703542 0.87296087
0.44893363 -0.01121407 -1.8209635 0.06564573 -0.5948136 1.1049238 -0.8906366 2.0890827
-3.132758 2.2326515 0.65505606 0.030950762 -0.52980155 1.2328349 -0.02409322 -0.13283235
0.5684038 2.0278742 -0.6859513 0.020115312 -1.0309862 0.34153125 -0.0073652137 -0.9471744
3.1364639 -1.1138896 2.7870739 0.5231736 0.39537668 0.16491447 -1.0995555 2.643111
0.09820008 -1.337932 -0.0672896 1.5040662 -0.89648885 0.042434976 0.80729693 1.0230329
0.15812466 0.96399146 0.5908044 -0.9771929 0.7754627 -0.41947055 -0.72796214 1.3598291
-0.024009166 0.2450807 0.053530112 -0.34468427 -0.66721493 1.1411691 1.055546 -0.2454745
1.2270792 0.045698587 0.36023292 -1.1649941 2.5527518 -2.2447526 -0.36951986 -0.8091931
-0.43080977 0.009216002 1.7948977 0.020805774 0.46701932 -1.0731195 0.96950406 -2.0814245
3.1625264 -2.108258 -0.69641 -0.0034372662 0.5527021 -1.3617 -0.014967439 0.121432915
-0.6353484 -2.0482125 0.66602737 0.013212859 0.9221902 -0.27407947 0.008756703 1.0193552

adv.2.bias f4 [2]
00000000: 5933 74be 05b7 b73d
-0.23847713 0.08970455
