final_finetune/checkpoints/ep_0010.pt (torch, 145855 bytes, 11 tensors)

feature.0.weight f4 [128, 16]
0	0x404b288d	3.17435
1	0x3faa52b2	1.3306487
2	0x3fc9c8d1	1.5764409
3	0x3fb7a716	1.4347866
4	0xc0aff400	-5.498535
5	0xbfe7b56c	-1.810224
6	0xbfabafcc	-1.3413024
7	0xbfdd4d4e	-1.7289217
8	0x3f7a9c50	0.97894764
9	0x3f6a5e40	0.91550064
10	0xbe905fce	-0.28198093
11	0xbedf5ba0	-0.43624592
12	0x3fa61255	1.2974344
13	0x3f350cf6	0.707229
14	0x4064df4a	3.5761285
15	0xbf220473	-0.6328804
16	0x3e864951	0.2622781
17	0xbdbdfb74	-0.092764765
18	0xbee6cafe	-0.45076746
19	0xbe7ce630	-0.24697185
20	0x3eace203	0.33766183
21	0x3e6c3f88	0.2307111
22	0x3f22d597	0.6360716
23	0x3efbd4ee	0.4918589
24	0xbf5a0378	-0.8516154
25	0xbefb9057	-0.4913356
26	0xbe6c40c9	-0.23071589
27	0xbf1a07eb	-0.6016833
28	0xbeb587b5	-0.354551
29	0xbeca248a	-0.39481002
30	0x3e740a52	0.23832062
31	0xbf0351d8	-0.5129676
32	0xbeed3bd5	-0.4633471
33	0x3ea83527	0.32853052
34	0x3e86e7f7	0.2634885
35	0x3dd30c1e	0.103050455
36	0xbe61ac0c	-0.22038287
37	0x3e0eb4fa	0.13936225
38	0x3e699484	0.2281056
39	0x3ebd53d6	0.36978024
40	0x3e0bc835	0.13650592
41	0x3e1561a5	0.1458803
42	0x3f6bcde6	0.9211105
43	0x3f5795cd	0.8421295
44	0x3e316f41	0.17327596
45	0xbee5d676	-0.44890183
46	0xbee0eb9c	-0.43929756
47	0xbf112185	-0.5669177
48	0x3f84b7cd	1.0368592
49	0xbd4fc74f	-0.050727185
50	0x3d6a5d72	0.057218023
51	0x3e906536	0.28202218
52	0x4004877d	2.0707695
53	0xbe7f8112	-0.2495158
54	0x3e2932f2	0.1652334
55	0x3e1833cc	0.14863509
56	0x3f0cb089	0.5495687
57	0x3f21a8f3	0.6314842
58	0x3a9cd840	0.0011966303
59	0xbe5afe72	-0.21386126
60	0x3f0ccf61	0.55003935
61	0xbf5b269d	-0.85605794
62	0x3f200505	0.6250766
63	0xbf1eb4c4	-0.61994576
64	0x3fb134d9	1.3844253
65	0xbdfa9fa2	-0.12237479
66	0xbdde96c2	-0.108685985
67	0x3e346bab	0.17619197
68	0x3faffc72	1.3748915
69	0xbd3f9292	-0.04677064
70	0xbe3ddab4	-0.1854046
71	0x3e105103	0.14093404
72	0x3f98e8f1	1.1946088
73	0x3f81f299	1.015216
74	0xbe454f49	-0.19268526
75	0xbe43c2d9	-0.19117297
76	0x3f533aab	0.82511395
77	0xc0d030da	-6.5059633
78	0x3eb43a49	0.35200718
79	0x3de0d4d2	0.10978092
80	0xbec7730f	-0.3895497
81	0x3f17d79b	0.5931336
82	0x3eabcbbc	0.33553874
83	0x3eeccaf0	0.4624858
84	0xbf8a9034	-1.0825257
85	0x3f834e6b	1.0258306
86	0x3f92cfcd	1.1469666
87	0x3fa3cd05	1.2796942
88	0xbefc0fd3	-0.49230823
89	0xbeccea2c	-0.4002241
90	0x3dda3f2d	0.10656581
91	0x3e60ff9c	0.21972507
92	0x3f3cbc90	0.73725224
93	0x3ee36ab9	0.4441736
94	0x3f9cbba8	1.2244768
95	0xbe82b003	-0.2552491
96	0x3ef114aa	0.47086078
97	0xbeb5401f	-0.35400483
98	0xbe661e83	-0.22472577
99	0xbe0bc354	-0.1364873
100	0xbe9e22c3	-0.30885896
101	0xbcfb85e1	-0.030703487
102	0x3e0d7318	0.13813436
103	0x3e17f20a	0.14838424
104	0x3e3ab738	0.18233955
105	0x3e43a670	0.1910646
106	0x3ea71111	0.32630208
107	0x3dfb8d75	0.1228284
108	0x3e400085	0.18750198
109	0xbf0fd048	-0.56177187
110	0x3e008378	0.12550151
111	0xbf2572ff	-0.64628595
112	0x3cfc5c96	0.030805867
113	0xbe4ccfa4	-0.20001084
114	0xbded8fb3	-0.11599674
115	0xbe02be32	-0.12767866
116	0xc0081d89	-2.1268027
117	0xbe8ce02b	-0.27514777
118	0xbe9f6567	-0.3113205
119	0xbe976967	-0.29572603
120	0x3f38700d	0.72045976
121	0x3f826eff	1.0190123
122	0xbf89beba	-1.076133
123	0xbfa119fb	-1.2586054
124	0xbf53fb9b	-0.82805794
125	0xbfb06fa3	-1.3784069
126	0xbfaae886	-1.335221
127	0x3e28f6b5	0.16500361
128	0xc029fa52	-2.6559033
129	0xbed766ad	-0.42070523
130	0xbebe8f21	-0.37218574
131	0xbf097d49	-0.53706795
132	0x40191a88	2.3922443
133	0xc03a66f5	-2.912534
134	0xc04ec387	-3.230684
135	0xc04a8dcf	-3.1649053
136	0x3f881aae	1.0633142
137	0x3f8b7891	1.0896169
138	0xbe1475d5	-0.14498074
139	0xbda5b300	-0.08090782
140	0xbe93dc89	-0.28879192
141	0x3e8545f4	0.26029932
142	0x3f114240	0.56741714
143	0x3db8567c	0.090008706
144	0xc00046d1	-2.0043223
145	0x3f5b637b	0.8569867
146	0x3f2fd855	0.6868947
147	0x3f484df1	0.7824393
148	0x3fe3b128	1.7788439
149	0xbea81a4b	-0.3283256
150	0xbe9ee55f	-0.3103437
151	0xbe96c6d0	-0.29448557
152	0x3d0fb6b7	0.03508636
153	0xbe1706dc	-0.1474871
154	0x3edbf08f	0.4295697
155	0x3e0e36b3	0.13888054
156	0x3f07a47e	0.5298537
157	0xbefcbf57	-0.4936473
158	0x3e25d686	0.16195115
159	0xbee842cb	-0.4536346
160	0x3fc06aff	1.5032653
161	0xbf7d1cd9	-0.98872143
162	0xbf6aed5b	-0.91768426
163	0xbf9fee67	-1.249463
164	0xbf2e34b7	-0.68049186
165	0xbf0303be	-0.51177585
166	0xbee923e2	-0.4553519
167	0xbeb83d76	-0.3598439
168	0x3e01a4a0	0.12660456
169	0x3d681daf	0.056668933
170	0xbee89235	-0.45424047
171	0xbf08df84	-0.5346606
172	0xbc9eb48e	-0.019373205
173	0xbfb03ff7	-1.376952
174	0xbf60bdb3	-0.8778946
175	0xbe15226d	-0.14563914
176	0x3e3725b5	0.17885478
177	0x3ba84156	0.005134742
178	0xbdc21688	-0.09476954
179	0xbb5e3dea	-0.0033911415
180	0x3f5556cb	0.8333556
181	0x3e64ed66	0.22356185
182	0x3dfd374a	0.12364061
183	0xbd54a5f8	-0.051916093
184	0xbf47379d	-0.77819234
185	0xbf7206ef	-0.9454183
186	0xbe0532ac	-0.13007611
187	0xbe0163d4	-0.12635738
188	0xbd00ab28	-0.031413227
189	0xc05490d6	-3.32134
190	0x3eea1c14	0.45724547
191	0xbf10f28f	-0.56620115
192	0x3e8064bd	0.25076857
193	0x3f1e25e0	0.6177654
194	0x3efbfc97	0.49216148
195	0x3f2e43aa	0.68072
196	0xc0598854	-3.3989458
197	0xbee503f7	-0.44729587
198	0xbf279cdf	-0.6547374
199	0xbf23c48d	-0.6397179
200	0xbee9f1b1	-0.45692208
201	0xbef7e1ed	-0.48414555
202	0x3f0e2c45	0.555363
203	0x3eb51d79	0.35374048
204	0x3f2f5717	0.68492264
205	0xbda211c1	-0.079135425
206	0x3ef15087	0.4713175
207	0xbf9b4c71	-1.2132703
208	0x3f06254c	0.5240066
209	0x3f26e300	0.65190125
210	0x3ede5510	0.43424273
211	0x3e39069d	0.18068929
212	0x3fdff0f9	1.7495414
213	0xbbf49329	-0.007463832
214	0x3e61e7b5	0.22061045
215	0x3d191153	0.037370037
216	0xbf1d63f8	-0.61480665
217	0xbedb25a8	-0.42802167
218	0x3f5f0fc6	0.87133443
219	0x3f8b61a1	1.0889169
220	0x3f447dc4	0.76754403
221	0xbf31d10b	-0.694596
222	0xbfdb731b	-1.7144502
223	0xbdec9373	-0.11551561
224	0xbf247dfe	-0.6425475
225	0x3ec52348	0.3850348
226	0x3e221d04	0.15831381
227	0x3e2c4cda	0.16826192
228	0xbf92869e	-1.1447332
229	0xbf495ce5	-0.7865737
230	0xbf8ae9b2	-1.0852568
231	0xbf6ec3d4	-0.9326756
232	0xbfa0fb9f	-1.2576789
233	0xbfaca736	-1.3488529
234	0x3f9b737c	1.2144618
235	0x3facf0ee	1.3511026
236	0x3eeb48de	0.4595403
237	0xbe3d1f62	-0.18469003
238	0x3f49fc40	0.7890053
239	0xbdaa5920	-0.083177805
240	0x3fdf5776	1.7448566
241	0xbeaa380d	-0.33245888
242	0xbe5e09d0	-0.2168343
243	0xbe36d6fe	-0.1785545
244	0xc0253aa9	-2.5817053
245	0x3ebc259c	0.36747444
246	0x3f0fd1e0	0.5617962
247	0x3ec6d13e	0.38831514
248	0x3f966314	1.1748986
249	0x3fad218a	1.352586
250	0xbf2a9ce1	-0.6664563
251	0xbf025085	-0.50904113
252	0x3f16a4f3	0.5884544
253	0xbea60c9a	-0.3243149
254	0xbddf7222	-0.10910441
255	0xbf0c7de2	-0.5487958

feature.0.bias f4 [128]
0	0x3f4958d1	0.7865115
1	0xbe838908	-0.25690484
2	0xbeb44db6	-0.3521554
3	0x3fc19c5b	1.5125841
4	0x3fa850a1	1.3149606
5	0x3fbe32a7	1.4859208
6	0xbf09147b	-0.53546876
7	0x3f9fd327	1.2486314
8	0x3fd8beec	1.6933265
9	0xbec5d8d9	-0.38642004
10	0xbea13278	-0.31483817
11	0x3fa3cdb8	1.2797155
12	0x3e180183	0.14844327
13	0x3f6b3d69	0.9189058
14	0x3f4cb936	0.7997011
15	0xc0180a96	-2.375646
16	0xbfa57f66	-1.2929504
17	0x4054d15e	3.3252788
18	0x3fc38d66	1.5277526
19	0x3ea2b43b	0.3177813
20	0x3f454e7b	0.77072877
21	0x4008ede7	2.1395204
22	0x3f9a4393	1.2051872
23	0x3e0db7de	0.13839671
24	0xbed0eda6	-0.4080631
25	0x3f726651	0.9468737
26	0xbd746da0	-0.05967486
27	0xbf91390b	-1.1345533
28	0x3fb50692	1.414263
29	0xbf2847e0	-0.6573467
30	0x3f483d4b	0.78218526
31	0xbef1d78c	-0.47234762
32	0xbec4966f	-0.38396022
33	0xc0566a94	-3.350255
34	0xbfa14a2f	-1.2600764
35	0xbd607557	-0.054799404
36	0x3f066821	0.5250264
37	0x3fbcf915	1.4763514
38	0x3f026156	0.5092977
39	0x3d1d9019	0.0384675
40	0xbf8e0c44	-1.1097493
41	0x3fd1a1b5	1.6377474
42	0xbeed4b72	-0.46346623
43	0x4014370d	2.31586
44	0xbe26e1fc	-0.16297144
45	0x3e0f79fe	0.1401138
46	0xc04c33fc	-3.1906729
47	0x3fb824b0	1.4386196
48	0x3f9a3a60	1.2049065
49	0xc010c51e	-2.262031
50	0xbdcbbb55	-0.0994784
51	0xbef18ac2	-0.47176176
52	0xbf2199fd	-0.6312559
53	0xbeb2a5a3	-0.34891996
54	0x3f4d9448	0.80304384
55	0x3f4bf9d5	0.7967809
56	0xbe4b76d3	-0.19869547
57	0xbefd9efd	-0.4953536
58	0x3db1085a	0.08644171
59	0xbef7309f	-0.48279282
60	0xbf70ff7e	-0.9413985
61	0xbc334e60	-0.010943979
62	0xbd25c811	-0.040474
63	0x3f13d64f	0.57748884
64	0xbfe80f5f	-1.8129691
65	0xc024c8f4	-2.5747652
66	0xbfb4eae5	-1.4134184
67	0xbbdd8822	-0.006760613
68	0x3ed42525	0.4143459
69	0x3fb2fde8	1.3983736
70	0x3eacd20c	0.33754003
71	0x3f08cd4c	0.5343826
72	0xbedd70e6	-0.43250197
73	0xbfd62459	-1.6729842
74	0xbfda779c	-1.7067752
75	0xbfd98f5c	-1.6996875
76	0x3f438dba	0.7638813
77	0xbfd63d7e	-1.6737516
78	0xc014d154	-2.3252764
79	0x3f16cc4e	0.58905494
80	0xbec14326	-0.37746543
81	0xbfe11412	-1.758425
82	0xbd3585c2	-0.044317015
83	0xbd6b31ca	-0.05742053
84	0xbf7a59af	-0.97793096
85	0x3dfb90f8	0.1228351
86	0x3e0079e9	0.12546505
87	0xbe98867b	-0.297901
88	0x3e3d224a	0.18470111
89	0xbfa49e57	-1.2860821
90	0xbe505174	-0.20343572
91	0xbf60f7d9	-0.87878186
92	0xbf9f1954	-1.2429605
93	0xbeb0638b	-0.34450945
94	0xbea27214	-0.3172766
95	0x3fcadf1c	1.5849338
96	0xbea8bcb3	-0.32956466
97	0xbf813fbb	-1.0097574
98	0x3b7a72d0	0.0038215406
99	0xbf5044fa	-0.8135525
100	0x3f6970a1	0.91187483
101	0xbf54cb25	-0.83122474
102	0xc0504c5d	-3.2546608
103	0xbf7d4159	-0.9892784
104	0xbf91eabb	-1.1399759
105	0xbf4c101c	-0.7971208
106	0x3ede1fb0	0.4338355
107	0x3ef76934	0.4832245
108	0x3d8ad242	0.06778385
109	0xbde0d6f9	-0.10978503
110	0x3f505240	0.81375504
111	0xbf28911f	-0.6584644
112	0xbfae3be2	-1.3612025
113	0x3f55ca39	0.8351169
114	0x3fb5641f	1.417118
115	0x404f4e69	3.2391608
116	0x3f030894	0.51184964
117	0x3f2a8a1c	0.6661699
118	0xbd1565b0	-0.03647393
119	0x3f608fbb	0.87719315
120	0xbfb7ba15	-1.4353663
121	0x3fdb7c67	1.714734
122	0xbf80dac0	-1.0066757
123	0xbdb167cd	-0.086623766
124	0x3f9032f5	1.1265551
125	0x3ed0efc8	0.4080794
126	0x3f25dd6b	0.6479098
127	0xbf389765	-0.7210601

feature.2.weight f4 [128, 128]
0	0xbdbf4072	-0.09338464
1	0xbf3d0816	-0.73840463
2	0xbdb0492d	-0.08607707
3	0x3d55f48f	0.052235182
4	0xbea41b5c	-0.32052124
5	0x3ddbae0f	0.107265584
6	0xbd503d9d	-0.05084001
7	0xbf864fce	-1.0493104
8	0x3c6beff5	0.014400472
9	0xbe82932e	-0.25502914
10	0xbe09a78f	-0.13442825
11	0xbe889cd9	-0.26682165
12	0x3e077926	0.13229808
13	0xbd853b65	-0.06505469
14	0x3c0b3ba1	0.008498103
15	0x3c86c877	0.016453011
16	0x3da136c6	0.07871775
17	0xbd91c696	-0.071179554
18	0x3f2876e3	0.65806407
19	0xbe64d36b	-0.22346275
20	0x3f5e09b2	0.86733544
21	0xbe6c3211	-0.23065974
22	0xbfa57295	-1.2925593
23	0x3b705eac	0.0036677523
24	0xbeb2f90e	-0.3495564
25	0xbcd34d9a	-0.02579384
26	0x3c585a68	0.013205148
27	0x3ccc6ac7	0.02495326
28	0x3d01bd6c	0.031674787
29	0xbca86326	-0.02055509
30	0xbf15b2da	-0.5847603
31	0x3e91c6f0	0.2847209
32	0x3de17c24	0.11010006
33	0xbf06aff5	-0.5261224
34	0xbe604c55	-0.21904118
35	0xbd364955	-0.04450353
36	0xbdad3288	-0.08456904
37	0xbea36ba7	-0.3191807
38	0x3d8726c5	0.065991916
39	0x3d70072a	0.058600582
40	0xbdfdbdcd	-0.12389717
41	0xbe359cce	-0.17735597
42	0xbe8a2d62	-0.2698775
43	0xbdc36a65	-0.095417775
44	0xbd2bbf18	-0.041930288
45	0xbd893894	-0.067002445
46	0x3d45425b	0.048158985
47	0xbe2d8607	-0.16945659
48	0xbe78c14a	-0.24292484
49	0xbbc26835	-0.0059328326
50	0x3dcc4f9b	0.09976121
51	0xbec8961e	-0.3917703
52	0x3d69b5f4	0.05705829
53	0x3d181e4b	0.037138265
54	0xbe05fbaf	-0.13084291
55	0xbd9d5bc0	-0.076835155
56	0xbe54a35f	-0.20765446
57	0xbf1dd02c	-0.6164577
58	0x3e0e146f	0.13874982
59	0xbe514ecc	-0.20440215
60	0x3e071402	0.13191226
61	0xbd46e495	-0.048557837
62	0xbe5196e6	-0.2046772
63	0x3e0b50ae	0.13604996
64	0xbe37823c	-0.17920774
65	0xbeaa40b5	-0.33252493
66	0xbde8c0ea	-0.113649204
67	0x3c381a3d	0.011236724
68	0xbe8e3dc2	-0.27781492
69	0xbe73a898	-0.23794782
70	0xbe807d61	-0.25095657
71	0xbf53f5cd	-0.8279694
72	0x3dcd235c	0.1001651
73	0xbe52a86e	-0.20572063
74	0x3dd94fed	0.10610948
75	0xbf03b7f7	-0.51452583
76	0xbf2f9e70	-0.6860113
77	0xbe903c1a	-0.28170854
78	0xbdb4a30f	-0.088201635
79	0x3ed6452c	0.4184965
80	0xbe9e690b	-0.30939516
81	0xbe34c74e	-0.17654154
82	0x3dcef13a	0.10104604
83	0x3d13cbdb	0.036083084
84	0x3ef20899	0.47272184
85	0xbecc572d	-0.3991026
86	0xbf8504e1	-1.0392114
87	0xbf33100c	-0.6994636
88	0xbb20972f	-0.0024504175
89	0x3e9a879a	0.3018158
90	0x3e172a5b	0.14762251
91	0xbe12c680	-0.14333534
92	0xbf60a57d	-0.87752515
93	0xbda167b7	-0.0788111
94	0xbe380fa7	-0.17974721
95	0x3f0a28e5	0.5396865
96	0xbe1115eb	-0.14168517
97	0x3e669815	0.22518952
98	0xbe50c5b8	-0.20387924
99	0xbe9ec3bf	-0.31008717
100	0xbe17e65a	-0.14833966
101	0x3e27c3b2	0.16383246
102	0x3ca07ec4	0.019591697
103	0xbe1c7f81	-0.15283014
104	0xbf170877	-0.5899729
105	0xbe079d57	-0.13243614
106	0xbf11bf9c	-0.56933
107	0x3b31c0ed	0.002712305
108	0x3e7db0d0	0.2477448
109	0x3d93dffe	0.072204575
110	0x3d495be8	0.049159914
111	0xbf43b5ca	-0.76449263
112	0xba9bd3db	-0.0011888699
113	0xbe83eb2e	-0.25765365
114	0xbf85929b	-1.0435365
115	0x3c997407	0.018732084
116	0xbf1bc34f	-0.6084489
117	0xbe6d4c7a	-0.23173705
118	0xbdb40a3c	-0.087910146
119	0x3c39889b	0.011324073
120	0xbe895895	-0.26825395
121	0xbff26dbd	-1.893974
122	0xbecda6c6	-0.401663
123	0x3e4c1b68	0.1993233
124	0x3f37a06b	0.71729153
125	0xbd831499	-0.06400413
126	0x3f0967c0	0.53673935
127	0xbd300ca8	-0.04298082
128	0xbe752ff5	-0.23944075
129	0x3d0eb312	0.034838744
130	0x3e269046	0.16265973
131	0x3ed37c0a	0.41305572
132	0x3c4a9938	0.012365632
133	0xbe39d88d	-0.18149014
134	0xbdfad8ec	-0.12248406
135	0x3e63979d	0.22225805
136	0xbf29df30	-0.6635618
137	0xbda28a2f	-0.07936513
138	0xbedbcadf	-0.42928216
139	0x3e3ddf72	0.18542269
140	0xbdfda5e4	-0.12385157
141	0x3e5839d4	0.2111581
142	0x3d82f91b	0.06395169
143	0x3d236d1f	0.039898988
144	0xba968a80	-0.0011485368
145	0xbe2bd342	-0.16779807
146	0xbe76c4af	-0.24098466
147	0x3f00f937	0.5038027
148	0xbe159132	-0.14606169
149	0xbe818831	-0.25299218
150	0xbe771303	-0.24128346
151	0xbe38ab6d	-0.18034144
152	0xbe988972	-0.29792362
153	0xbdf14668	-0.11781007
154	0x3d33c256	0.043886505
155	0xbe47b44b	-0.1950237
156	0xbe4aa3db	-0.19789068
157	0xbf135635	-0.57553416
158	0xbdad3807	-0.08457952
159	0xbd9429a6	-0.07234506
160	0xbe9d1dbd	-0.3068675
161	0xbea0e8cf	-0.3142762
162	0xbe35a7d8	-0.17739809
163	0x3c62807b	0.013824577
164	0x3e99f529	0.30069855
165	0x3d99df6c	0.075133175
166	0xbed12375	-0.40847364
167	0xbe42d340	-0.19025898
168	0xbe1eb4fa	-0.15498725
169	0xbf309cd5	-0.68989307
170	0xbdff19bb	-0.124560796
171	0xbe388494	-0.18019325
172	0x3d98df1a	0.07464428
173	0xbfafe965	-1.3743101
174	0x3e2714a7	0.16316472
175	0xbe900751	-0.28130582
176	0xbd7ee8ac	-0.062233612
177	0x3d15b544	0.03654982
178	0x3e410d18	0.18852651
179	0xbeb42bf3	-0.3518978
180	0xbd195bd7	-0.0374411
181	0x3ca95325	0.02066953
182	0xbd4f0d85	-0.050550003
183	0xbd991745	-0.074751414
184	0xbd1838fd	-0.037163723
185	0x3d08954e	0.033345513
186	0x3e502772	0.20327547
187	0xbdcaf301	-0.099096306
188	0xbdc12fcc	-0.09432945
189	0xbc0d2690	-0.008615151
190	0xbda20d71	-0.0791272
191	0xbca49110	-0.020088702
192	0x3dfb98a4	0.12284973
193	0x3ecf56e4	0.4049598
194	0xbd62580b	-0.055259746
195	0xbd9e3cf8	-0.077264726
196	0x3ef1c967	0.4722397
197	0xbcaa5860	-0.020794094
198	0xbea9ba10	-0.33149767
199	0x3d5871d9	0.05284295
200	0xbf0e1282	-0.5549699
201	0xbd2f8e87	-0.042860534
202	0xbcbd245b	-0.023088625
203	0x3f3dcaab	0.7413737
204	0x3ccf6355	0.02531592
205	0xbce65aaf	-0.028119413
206	0x3dbdb849	0.09263665
207	0xbdb10df7	-0.08645242
208	0x3e5b31ab	0.21405666
209	0xbf7d45ae	-0.9893445
210	0xbf0ecc2a	-0.5578028
211	0xbc8c6ee9	-0.01714273
212	0x3ea8b330	0.3294921
213	0xbf47b57a	-0.78011286
214	0xbec2e37f	-0.3806419
215	0xbd7ea8cc	-0.062172696
216	0xbd1ed02e	-0.038772754
217	0xbd05b90d	-0.03264718
218	0x3db5b337	0.08872073
219	0xbd04d676	-0.03243109
220	0x3f461a60	0.77383995
221	0xbe3204b3	-0.17384605
222	0x3c862c4d	0.016378546
223	0xbe3dcb28	-0.18534529
224	0xbedba8dc	-0.42902267
225	0xbf025989	-0.5091787
226	0xbdd6c17f	-0.10486125
227	0xbf0683ff	-0.5254516
228	0xbe317b59	-0.1733221
229	0xbf586864	-0.8453429
230	0x3dc4bfd5	0.096069016
231	0x3deaa876	0.114579126
232	0xbceadb81	-0.02866912
233	0xbe840f54	-0.25792944
234	0xbd89a00b	-0.06719979
235	0xbed46531	-0.41483453
236	0x3dfae636	0.122509405
237	0x3d9d58bb	0.076829396
238	0xbe4e1d41	-0.20128347
239	0xbd0df0e9	-0.034653578
240	0xbe75461b	-0.23952524
241	0xbe1879f0	-0.14890265
242	0xbe3ddc7a	-0.18541136
243	0xbe58515e	-0.21124789
244	0x3e077571	0.13228394
245	0x3d99e37c	0.07514092
246	0xbba44a30	-0.0050137267
247	0xbf1ec7b1	-0.62023455
248	0xbe7a8304	-0.24464041
249	0x3e1a83c3	0.15089326
250	0xbd8b2c1a	-0.06795521
251	0xbf37d757	-0.7181296
252	0xbe5c4b1f	-0.21513031
253	0xbf63594a	-0.8880812
254	0xbe57a52a	-0.21059099
255	0xbf0361fe	-0.513214

feature.2.bias f4 [128]
0	0xbe1cf726	-0.15328655
1	0xbe02d228	-0.12775481
2	0x3f5f7bf9	0.8729854
3	0x401f51c7	2.4893663
4	0xbc7d3d87	-0.015456564
5	0xbd40542c	-0.046955273
6	0xbd647d40	-0.05578351
7	0x3f06a80c	0.5260017
8	0x3e77a3f8	0.24183643
9	0xbe6e43c7	-0.23268043
10	0x3f007335	0.5017579
11	0x3e25bfe0	0.16186476
12	0x3e267d00	0.16258621
13	0xbed42fd2	-0.41442734
14	0xbe358969	-0.17728199
15	0x3cd12399	0.02552967
16	0xbd53f3b5	-0.05174609
17	0xbef5f13d	-0.48035613
18	0xbd33d66a	-0.043905653
19	0x3f929bd8	1.145381
20	0xbd9a236b	-0.07526287
21	0xbe11610d	-0.14197178
22	0xc01a914d	-2.4151185
23	0xbe043d41	-0.12913992
24	0xbe142e06	-0.14470682
25	0xbe011a4c	-0.12607688
26	0xbe1d9d78	-0.15392101
27	0xbeba599d	-0.36396495
28	0xba84933c	-0.001011468
29	0x3f19049b	0.5977265
30	0xbe2a2c11	-0.16618372
31	0x3ebdd254	0.3707453
32	0xbc813db9	-0.015776502
33	0x3efb1464	0.49038994
34	0x3e283edc	0.16430229
35	0xbd94bebf	-0.072629444
36	0x3ecf048a	0.4043315
37	0x3f1e9e1c	0.61960006
38	0xbd2c9d98	-0.04214248
39	0x3e63c47c	0.22242922
40	0xbe01b038	-0.12664878
41	0x3d30f6b6	0.043204032
42	0xbded1d74	-0.11577883
43	0xbddd8888	-0.10817057
44	0x3e10cad1	0.14139868
45	0xbe2cf677	-0.16890894
46	0xbdac6892	-0.08418383
47	0x3d0f0515	0.034916956
48	0xc0234f51	-2.551716
49	0xbeb0a41a	-0.345002
50	0xbfe01eaa	-1.7509358
51	0xbf5457db	-0.82946557
52	0xbd8d8d88	-0.069117606
53	0x3ecb9a86	0.3976633
54	0x3d9deafa	0.07710834
55	0x3ebc4fee	0.36779732
56	0xbd493d18	-0.04913053
57	0xbf0fa299	-0.5610748
58	0x3db50650	0.08839095
59	0xbe2b1052	-0.16705444
60	0xbd548526	-0.051884793
61	0xbd461db7	-0.048368182
62	0xbd2dafe9	-0.04240409
63	0x3f89bdd8	1.0761061
64	0x3e66a273	0.22522907
65	0xbdb5c50b	-0.088754736
66	0xbe40e6d2	-0.18838051
67	0xbd97db2e	-0.07414852
68	0xbe1607b6	-0.14651379
69	0xbbeb15ab	-0.007174214
70	0xbe170db9	-0.14751329
71	0xbe1fe169	-0.15613331
72	0x3e69ba52	0.22824982
73	0xbe114449	-0.14186205
74	0x3e94599d	0.2897462
75	0xbd568afd	-0.052378643
76	0xbe0cd0e8	-0.13751566
77	0x3cb12c59	0.021627592
78	0x3e9c87eb	0.30572447
79	0xbe1232c4	-0.14277178
80	0x3f48a30d	0.78373796
81	0x3e55731d	0.20844693
82	0xbee3d278	-0.44496512
83	0xbd9d067e	-0.07667254
84	0xbdd712a1	-0.105016
85	0xbda6d39b	-0.08145829
86	0x3eec5949	0.4616187
87	0x3e813260	0.25233746
88	0xbe6e4f46	-0.23272428
89	0xbf13ab15	-0.57682925
90	0xbd23b52a	-0.039967693
91	0x3f19d731	0.6009398
92	0xbd25e08f	-0.04049736
93	0x3f30c717	0.69053787
94	0xbf71540b	-0.94268864
95	0x39694a58	0.00022248307
96	0xbe1f54d4	-0.15559703
97	0xbde7283b	-0.1128697
98	0x3e8a5ecb	0.27025446
99	0x3f20ccce	0.6281251
100	0xbde88144	-0.113527805
101	0xbf0d3f22	-0.5517446
102	0x3f3303cf	0.69927686
103	0x3f171e67	0.59030765
104	0x3ea91d7c	0.33030307
105	0xbdef2226	-0.11676435
106	0x3ec79939	0.38984087
107	0xbe2abf53	-0.16674547
108	0x3f0bc815	0.54602176
109	0x3b9068ad	0.0044070096
110	0xbd689b12	-0.05678851
111	0xbe1639c2	-0.1467047
112	0x3f13905a	0.5764214
113	0xbdf91b03	-0.12163355
114	0xbee99777	-0.4562337
115	0x3cc6c81a	0.024265338
116	0x3e801d6f	0.25022456
117	0x3e0a499f	0.13504647
118	0x3f1bad17	0.6081099
119	0xbb8ebd62	-0.0043560723
120	0xbd38c970	-0.04511398
121	0x3ee4e0d8	0.44702792
122	0xbda92861	-0.08259655
123	0xbdc45f46	-0.095884845
124	0x3e45ca74	0.19315511
125	0xbe1326cd	-0.1437027
126	0xbd228c01	-0.0396843
127	0xbeaa32b7	-0.33241817

value.0.weight f4 [64, 128]
0	0x3f207cdc	0.6269052
1	0xbc14b1a5	-0.009075557
2	0xbf89c0eb	-1.0761999
3	0xbe938ef2	-0.28819996
4	0xbca5fa72	-0.020261023
5	0xbdb5fb51	-0.088858254
6	0xbe2e1208	-0.16999066
7	0xbf3907f9	-0.7227779
8	0xbf3d9623	-0.74057215
9	0x3d34c669	0.04413453
10	0xbe940b4c	-0.2891487
11	0x3b35f9d5	0.002776732
12	0xbf2fc62a	-0.6866175
13	0xbd968220	-0.07349038
14	0xbf24c5a2	-0.64364064
15	0xbf389638	-0.72104216
16	0xbbff7892	-0.0077963555
17	0xbf5fad05	-0.8737338
18	0x3c81896a	0.015812594
19	0xbfa8796c	-1.3162055
20	0xbec8128e	-0.39076656
21	0xbda11313	-0.07864966
22	0xc01cbeba	-2.449141
23	0xbb957900	-0.0045615435
24	0x3e30c57b	0.17262833
25	0xbc84e0ba	-0.01622044
26	0x3da8f2ec	0.08249459
27	0xbed053e7	-0.40689012
28	0xbc8aaba0	-0.01692754
29	0xbd86e3f2	-0.06586446
30	0x3c069700	0.008214712
31	0xbf9cc152	-1.2246497
32	0xbd78dacc	-0.060755536
33	0xbfd9d8c0	-1.7019272
34	0xbde9271e	-0.11384414
35	0xbda05baf	-0.07829987
36	0xbc570fdd	-0.013126341
37	0xbf3a6527	-0.72810596
38	0xbf1bbffc	-0.6083982
39	0xbe49e612	-0.19716671
40	0xbe2285f5	-0.15871413
41	0xbe9e4899	-0.30914763
42	0xbed98db4	-0.42490923
43	0xbd6e4dc2	-0.058179624
44	0xbf112b44	-0.56706643
45	0xbdcd664d	-0.10029278
46	0xbda8b2e7	-0.08237248
47	0x3d84cf4a	0.0648485
48	0x3d672520	0.05643189
49	0xbee0a4e3	-0.438758
50	0xbfa12166	-1.2588317
51	0xbe8c76ee	-0.27434486
52	0xbc971070	-0.018440455
53	0xbeaf2372	-0.3420673
54	0xbeb7c5d4	-0.35893118
55	0xbfe06969	-1.7532169
56	0xbf3c8297	-0.73636764
57	0x3f8955c3	1.0729297
58	0xbf064b92	-0.5245906
59	0x3d158012	0.03649909
60	0x3d144cf4	0.0362062
61	0x3a877480	0.0010334402
62	0x3d520952	0.05127842
63	0xbf8ab857	-1.0837506
64	0xbe61a528	-0.22035658
65	0x3e6c6d90	0.2308867
66	0x3d642c4a	0.0557063
67	0x3c8c4954	0.01712481
68	0xbe89d7f6	-0.26922578
69	0x3d13c68b	0.036078017
70	0x3dcb71a2	0.09933783
71	0xbddcaa77	-0.10774701
72	0xbeb1de4d	-0.34739915
73	0x3f4eecb7	0.8082995
74	0xbf4d0549	-0.8008619
75	0xbd009d39	-0.03139994
76	0xbe479ad6	-0.19492659
77	0xbe9dea36	-0.3084275
78	0xbeb54b5c	-0.35409057
79	0x3d86799a	0.065661624
80	0xbd999f0d	-0.0750104
81	0xbc19318e	-0.009350194
82	0x3f594bf8	0.84881544
83	0x3d76fffc	0.06030272
84	0x3ccf6a1a	0.025319148
85	0xbd48f0d3	-0.049057793
86	0xbeaf660b	-0.3425754
87	0xbe2838f8	-0.16427982
88	0xbe6e1d45	-0.23253353
89	0x3e4dbc13	0.20091276
90	0xbc86760f	-0.016413717
91	0x3ec4d434	0.38443148
92	0xbeb6bc48	-0.35690522
93	0xbcf6001d	-0.03002935
94	0x3ea0df91	0.31420568
95	0xbed5374a	-0.41643745
96	0x3c68963f	0.014195978
97	0x3ef4bc53	0.4779993
98	0x3eac9374	0.33706248
99	0xbd3a8685	-0.045538444
100	0xbebf2086	-0.373295
101	0xbe7e94c1	-0.24861433
102	0xc000c17e	-2.0118098
103	0xbf5ba88f	-0.85804075
104	0xbe831c93	-0.25607738
105	0x3ccdc12c	0.025116526
106	0xbee248bd	-0.4419612
107	0xbf7229fc	-0.94595313
108	0xbfb29eb1	-1.3954679
109	0x3d9e6f03	0.077360176
110	0x3d491249	0.049089704
111	0x3d49d193	0.04927213
112	0xbe8d2e33	-0.2757431
113	0xbcccfc72	-0.025022719
114	0xbe8672d5	-0.26259485
115	0xbe7e50ad	-0.24835463
116	0xbe8d6c96	-0.27621907
117	0xbf82ce03	-1.021912
118	0x3e5c2476	0.21498284
119	0xbd6442da	-0.055727817
120	0x3f414cbc	0.7550771
121	0x3e3dfe66	0.18554077
122	0x3d8e984d	0.06962643
123	0x3d27eafd	0.040995587
124	0xbe43c95c	-0.19119781
125	0xbd94473a	-0.07240148
126	0x3cd76e48	0.026297703
127	0x3e927718	0.28606486
128	0xbdabad27	-0.083826356
129	0xbd0bae68	-0.034101874
130	0xbe0ff5e4	-0.14058644
131	0xbf789b0f	-0.971116
132	0xbd9e9fe4	-0.077453405
133	0xbdb374ac	-0.08762488
134	0xbe9a8f3d	-0.30187407
135	0xbcb537b6	-0.022121292
136	0x3e87e510	0.26541948
137	0x3a034bde	0.00050085585
138	0xbf068a23	-0.5255453
139	0xbea10be7	-0.31454393
140	0x3db94d50	0.09047949
141	0x3ca8ed34	0.02062092
142	0xbdfe2301	-0.1240902
143	0xbd87c6c3	-0.06629708
144	0xbd90314e	-0.07040654
145	0x3e4a8594	0.19777519
146	0x3d57787f	0.05260515
147	0xbe3ad055	-0.18243535
148	0xbda54ecd	-0.08071671
149	0xbd6909b9	-0.056894038
150	0x3f672a66	0.9029907
151	0x3ac05800	0.0014674664
152	0xbf5958d5	-0.8490117
153	0xbe0e36dc	-0.13888115
154	0xbd0ebf88	-0.034850627
155	0xbdd7db54	-0.105398804
156	0x3b1ce3e9	0.0023939556
157	0xbe20523b	-0.15656368
158	0xbd7e5b0e	-0.062098555
159	0xbd88ec2f	-0.066856734
160	0x3d4a289a	0.049355127
161	0xbb1bbe67	-0.0023764612
162	0x3ebade21	0.36497596
163	0x3d4373d3	0.04771788
164	0xbd9331fd	-0.07187269
165	0xbec2d178	-0.38050437
166	0xbde57748	-0.11204392
167	0xbd278967	-0.04090252
168	0xbe0e010d	-0.13867588
169	0xbe3502f9	-0.17676915
170	0xbd1d5338	-0.03840944
171	0xbd2a6940	-0.04160428
172	0xbdd7dcaf	-0.10540139
173	0x3d3ce566	0.04611721
174	0x3dfd1876	0.12358181
175	0xbdf06453	-0.11737885
176	0xbde7430b	-0.11292084
177	0x3d96f638	0.07371181
178	0xbac871b1	-0.0015292672
179	0xbdcf23ce	-0.10114251
180	0x3d58dac6	0.052943014
181	0xbe870606	-0.26371783
182	0xbe42ec23	-0.19035392
183	0xbd6d05ef	-0.057866987
184	0xbe01799c	-0.12644047
185	0x3f1e6b9e	0.6188296
186	0x3d2c85a5	0.04211964
187	0x3da281a5	0.07934884
188	0xbd0dbc91	-0.03460366
189	0xbdb187d3	-0.086684845
190	0xbd5e266f	-0.054235872
191	0xbf891e1c	-1.0712314
192	0xbd635c8c	-0.05550818
193	0xbbafc2b0	-0.0053637847
194	0x3d7bc436	0.06146642
195	0xbd581acf	-0.05275994
196	0xbed3e3d5	-0.4138476
197	0x3d1d83be	0.038455717
198	0x3bf5fb90	0.007506795
199	0x3de7e078	0.11322111
200	0x3d14048b	0.036137145
201	0xbef09799	-0.4699066
202	0xbef97856	-0.48724622
203	0x3d649a2d	0.055811096
204	0xbd99e70d	-0.075147726
205	0xbeaf3d70	-0.3422656
206	0xbd758146	-0.059937738
207	0x3dc4a917	0.09602564
208	0xbef871ba	-0.48524266
209	0x3d12fff7	0.03588864
210	0x3e1f477e	0.15554616
211	0x3db3d4d3	0.087808274
212	0xbd0941a4	-0.033509865
213	0x3d0ed4e8	0.034871012
214	0xbe9b45a0	-0.30326557
215	0xbe304205	-0.17212684
216	0xbd98faa4	-0.07469681
217	0x3de72721	0.1128676
218	0xbc1ec679	-0.009690874
219	0x3c1bf9aa	0.009519974
220	0x3d690ee4	0.056898966
221	0xbe8293ee	-0.25503486
222	0xbe99407e	-0.29932016
223	0x3e95df90	0.29272127
224	0x3cef7c27	0.029234005
225	0x3cbb243b	0.022844424
226	0x3e9e0b62	0.3086806
227	0xbe176e4b	-0.14788167
228	0xbc9ede2c	-0.01939305
229	0xbe4d6367	-0.2005745
230	0xbc13c806	-0.009019857
231	0xbe903330	-0.28164053
232	0xbec5fa4a	-0.38667518
233	0x39c9a800	0.00038462877
234	0xbe31c481	-0.17360117
235	0xbe30e4f6	-0.17274842
236	0xbce8a3ed	-0.028398478
237	0xbd8a6618	-0.06757754
238	0xbc8fd668	-0.017558292
239	0x3d7d70ce	0.061875157
240	0xbea12fc2	-0.3148175
241	0xbd9a591d	-0.07536528
242	0xbe2c1056	-0.16803107
243	0xbc99a61d	-0.018755967
244	0xbdcbccc7	-0.099511676
245	0xbe59f22d	-0.21283789
246	0xbf1b5017	-0.6066908
247	0xbade1de1	-0.001694616
248	0xbe2f7c0d	-0.17137165
249	0xbd38d72f	-0.04512709
250	0xbd869274	-0.065709025
251	0x3db19b7f	0.08672237
252	0xbdc97c56	-0.09838168
253	0xbcccad5c	-0.024985008
254	0xbc874b54	-0.016515411
255	0xbe9ad0f3	-0.3023754

value.0.bias f4 [64]
0	0xbf967331	-1.1753904
1	0xbf4565fb	-0.77108735
2	0x3f91602c	1.1357474
3	0xbfa08a4c	-1.2542205
4	0x401c5089	2.4424155
5	0x3e7fc23c	0.24976438
6	0xbe56328c	-0.2091772
7	0x3cd91e6f	0.02650377
8	0x3e953631	0.29142907
9	0xbf45f7e3	-0.7733137
10	0x3e870652	0.2637201
11	0xbc795634	-0.015218306
12	0xbef45b70	-0.4772601
13	0x3f60335e	0.8757838
14	0x3f816520	1.0108986
15	0xbdd512f2	-0.10404004
16	0x4031eb71	2.7799952
17	0x4044d3f5	3.0754368
18	0x400bd7ff	2.1850584
19	0xbfb30107	-1.3984689
20	0xbf9996a4	-1.1999097
21	0x3fd6be3d	1.6776806
22	0x3e81a870	0.2532382
23	0x3eb68bda	0.35653573
24	0x3f256955	0.6461385
25	0x3fdee6ac	1.7414145
26	0xbe098638	-0.13430107
27	0xbd290917	-0.041268434
28	0xbf2f68ea	-0.6851946
29	0xbe00e8cd	-0.12588806
30	0xbeb41ade	-0.35176748
31	0xbf56b09e	-0.83863246
32	0x3fbd4d47	1.4789208
33	0xbec7789c	-0.38959205
34	0x3fa4a479	1.2862693
35	0x3efef1ae	0.49793762
36	0xbfde4b55	-1.736674
37	0x3f291613	0.6604931
38	0xbefbe6f6	-0.49199647
39	0xbdd5ad72	-0.10433473
40	0x3f2f62a8	0.6850991
41	0xc0143401	-2.315674
42	0x3ea5eef8	0.3240888
43	0xbf0bd259	-0.5461784
44	0x3f6b1bec	0.9183948
45	0xbe8d6f07	-0.2762377
46	0x3f802bf0	1.0013409
47	0xbeb07fb4	-0.3447243
48	0xbca1cff0	-0.019752473
49	0xbe88a81a	-0.2669075
50	0xbfb1dbf5	-1.389525
51	0x3f03e61c	0.51522994
52	0xbdce9be1	-0.10088325
53	0xc02552d0	-2.5831795
54	0xbf1ba191	-0.60793406
55	0xbeea00ba	-0.4570368
56	0xbe72ef7e	-0.23724172
57	0xbf8da05e	-1.1064565
58	0xbe26b7c1	-0.16281034
59	0xbf231787	-0.63707775
60	0xbfb824b9	-1.4386207
61	0xc01b14c6	-2.423143
62	0x3e860282	0.26173788
63	0xbfc828ce	-1.5637453

value.2.weight f4 [1, 64]
0	0xbfe9a824	-1.8254437
1	0x3faac34f	1.3340853
2	0xbe952ea7	-0.29137155
3	0x3fe2eaed	1.7727944
4	0x3fd33a30	1.6502132
5	0x3f59f1c5	0.85134536
6	0xbdd2d5c9	-0.102946825
7	0xbe83c421	-0.25735572
8	0xbf8fdbd6	-1.1238964
9	0xbe54f109	-0.20795073
10	0x3eccb653	0.39982852
11	0xbe54ef39	-0.20794381
12	0x3f44e7d4	0.7691624
13	0xbf1c953e	-0.61165226
14	0xbd966c27	-0.07344847
15	0x3cf82d22	0.030294959
16	0x3f721577	0.94564
17	0x3f7fe152	0.99953187
18	0x40152aa9	2.3307288
19	0x3f4e1166	0.804953
20	0xbfe4f71e	-1.7887914
21	0x4005ff9b	2.093726
22	0x3eed0080	0.46289444
23	0xbf936fc0	-1.1518478
24	0xc0182102	-2.3770146
25	0x3f4819ad	0.7816418
26	0xbbc72d4d	-0.0060783983
27	0xbf2acc91	-0.66718394
28	0x3df664de	0.12030958
29	0xbd46b670	-0.04851383
30	0x3cfa8c66	0.030584525
31	0xbf2e915b	-0.68190545
32	0x3f789c5e	0.971136
33	0x3f0b4b46	0.54411733
34	0x3f352e70	0.70773983
35	0x3f0b871e	0.5450305
36	0xbeaa5d65	-0.3327438
37	0x3f5bfb65	0.8593047
38	0xc00fe24e	-2.2481875
39	0xbf936c81	-1.1517488
40	0xbea05038	-0.31311202
41	0xbfcd0575	-1.601729
42	0xbef0ee50	-0.47056818
43	0x3f8ccde6	1.1000335
44	0x3f6656f6	0.8997644
45	0x3a092c7c	0.0005232764
46	0x3f49cc48	0.78827333
47	0x3c9a680a	0.018848438
48	0xbd909730	-0.07060087
49	0x3f3609a5	0.71108466
50	0xc007c4f7	-2.1213968
51	0xbed0eba9	-0.40804794
52	0xbc055652	-0.008138256
53	0xbfa7c236	-1.3106143
54	0x3e00a863	0.12564234
55	0xbee9a459	-0.456332
56	0xbdd01d5e	-0.10161851
57	0x3f545ded	0.8295582
58	0xbd02aa7f	-0.03190088
59	0x3f7fc959	0.9991661
60	0x3f83e4d8	1.0304213
61	0xc00da87c	-2.2134085
62	0xbf9920a7	-1.196309
63	0xbf3a569c	-0.72788405

adv.0.weight f4 [64, 128]
0	0xbe4667b2	-0.19375494
1	0x3d8263b2	0.063666716
2	0x3e239a24	0.15976769
3	0x3dd7cb93	0.105368756
4	0x3995b0ca	0.00028551213
5	0x3b4f67e9	0.0031647629
6	0xbece0726	-0.4023983
7	0xbec881b4	-0.39161456
8	0x3e504d43	0.20341973
9	0x3d64299f	0.055703755
10	0x3f2d0b1f	0.67595094
11	0xbdf050dd	-0.117341734
12	0xbeb85f2a	-0.36010104
13	0xbf4752ee	-0.77860916
14	0xbe7c38d3	-0.24631052
15	0xbf7cab56	-0.9869894
16	0xbd0f8538	-0.035039157
17	0xbeaaba6c	-0.33345354
18	0xbd8ebb1b	-0.06969281
19	0xbc1faa02	-0.009745123
20	0x3cc65b17	0.024213357
21	0xbd95d7e9	-0.07316572
22	0xbf45b6bb	-0.7723195
23	0x3ca28abb	0.019841542
24	0xbeb32e27	-0.3499615
25	0x3a2b9f1f	0.0006546843
26	0xbdb33d8e	-0.08751975
27	0xbe4cf940	-0.20016956
28	0x3ed5fbf8	0.417938
29	0xbe5fb8b5	-0.21847804
30	0xbc1c220c	-0.009529602
31	0xbcb8a66d	-0.022540295
32	0x3cabf492	0.020990644
33	0xbf974214	-1.181704
34	0xbe25316c	-0.16132134
35	0xbf120959	-0.57045513
36	0xbfc4601a	-1.5341828
37	0xbf33f456	-0.702947
38	0xbf69bebb	-0.91306657
39	0xbe824645	-0.25444236
40	0xbdc1869d	-0.094495036
41	0xbdc62504	-0.09675029
42	0xbe9fdce4	-0.31223214
43	0xbd5466ee	-0.051855974
44	0xbef8c839	-0.48590258
45	0x3d9c2851	0.07624877
46	0xbf12838e	-0.57231987
47	0xbe8c7811	-0.27435353
48	0x3ca1feff	0.019774912
49	0xbf7a444d	-0.9776047
50	0xbe953997	-0.291455
51	0xbf031abb	-0.5121266
52	0x3d8cadf8	0.068691194
53	0xbea26630	-0.31718588
54	0xbe1f54a9	-0.15559639
55	0x3e311649	0.17293657
56	0x3ec22ae7	0.37923357
57	0x3f4e898e	0.8067864
58	0xbf0684a6	-0.52546155
59	0xbd4d3c4c	-0.05010633
60	0xbd900a9e	-0.07033275
61	0xbd845622	-0.06461741
62	0xbd670db7	-0.056409564
63	0xbf820f22	-1.0160868
64	0xbf5d582b	-0.8646266
65	0x3e46c383	0.1941052
66	0x3c6bdf00	0.014396429
67	0x3d5c490d	0.053780604
68	0xbf2f876f	-0.6856603
69	0xbd951f61	-0.07281376
70	0xbd894719	-0.06703014
71	0xbd7dbf64	-0.061950102
72	0xbfb39b4d	-1.4031769
73	0xbf358940	-0.7091255
74	0xbf6d64a4	-0.9273169
75	0x3cc8e497	0.024523063
76	0xbca4d62b	-0.020121654
77	0xbf2616a1	-0.6487828
78	0x3e9c075a	0.3047436
79	0x3e67e5d2	0.22646263
80	0x3dce0095	0.10058705
81	0xbe8af55a	-0.27140313
82	0x3f872554	1.0558267
83	0xbd20ef91	-0.03929097
84	0x3d65c2e2	0.056094058
85	0xbd890c17	-0.06691759
86	0xbef14966	-0.4712631
87	0xbf8da6e2	-1.1066554
88	0xbf43a7c8	-0.7642789
89	0xbee2d380	-0.44301987
90	0x3ab5dfa2	0.0013875852
91	0xc0ca2ba1	-6.317826
92	0xbe67a430	-0.22621226
93	0xbed46f51	-0.41491178
94	0x3e26fce0	0.16307402
95	0xbe87588f	-0.26434752
96	0xbd32f35b	-0.043689113
97	0xbefc754e	-0.49308246
98	0xbf6ac8e1	-0.91712767
99	0xbf5e603e	-0.86865604
100	0x3f592f1b	0.848375
101	0x3f99928b	1.1997846
102	0xbd8ebb7f	-0.06969356
103	0xbf533444	-0.82501626
104	0xbf86d3df	-1.0533408
105	0xbd846db4	-0.06466237
106	0x3e6ec2b3	0.2331646
107	0x3cf04019	0.02932744
108	0xbe0e158d	-0.13875408
109	0x3d9b3594	0.075785786
110	0x3c25c768	0.010118343
111	0xbd605134	-0.05476494
112	0xbf6f0d3a	-0.9337956
113	0xbd9e87cc	-0.07740745
114	0xbe86a7fd	-0.2630004
115	0xbdd7c4d8	-0.10535592
116	0xbfac4676	-1.3459003
117	0x3decbfda	0.1156003
118	0xbd81d9e4	-0.063403875
119	0xbccdd9b2	-0.02512822
120	0xbeb5d00d	-0.35510293
121	0xbea19400	-0.31558228
122	0xbb7e9c4b	-0.0038850482
123	0x3cf7a565	0.030230233
124	0xbe658847	-0.22415267
125	0xbbe9b610	-0.0071322992
126	0xbdaaa76c	-0.083327144
127	0xbed9b538	-0.4252107
128	0xbda04744	-0.07826093
129	0x3f21fca6	0.63276136
130	0xbea93bfe	-0.33053583
131	0xbfab1d0c	-1.3368239
132	0xbd07bf81	-0.033141617
133	0xbd47a22a	-0.048738636
134	0xbdfd9da4	-0.12383583
135	0xbebb626c	-0.36598527
136	0xbd6d8dfb	-0.05799673
137	0xbdc1ae48	-0.0945707
138	0xbef01d32	-0.46897274
139	0xbe9292bd	-0.28627577
140	0xbe044668	-0.12917483
141	0xbe1cd36e	-0.15315029
142	0xbe7be3cc	-0.24598616
143	0xbe997974	-0.29975474
144	0x3d76acd2	0.060223408
145	0xbf603a4b	-0.8758895
146	0xbd1603fc	-0.036624894
147	0xbf2217c4	-0.63317513
148	0xbdc55389	-0.09635074
149	0xbdb0d23e	-0.086338505
150	0x3f189570	0.59603024
151	0xbc4a1c08	-0.012335785
152	0xbd2d046b	-0.04224054
153	0x3d9c7629	0.07639725
154	0x3c9a8915	0.018864194
155	0xbe9dec7f	-0.30844495
156	0xbec20c38	-0.37899947
157	0xbdc578d5	-0.096421875
158	0x3d2c6566	0.04208889
159	0x3daf1894	0.0854961
160	0xbd071988	-0.032983333
161	0xbf3c63f2	-0.73590004
162	0xbf431e2d	-0.7621792
163	0x3c954185	0.018219719
164	0xbdb56791	-0.08857644
165	0xbd57c43d	-0.05267738
166	0xbf69111f	-0.9104175
167	0xbdfd9597	-0.123820476
168	0x3d6a594d	0.05721407
169	0xbdd0c1eb	-0.10193237
170	0xbe330cd8	-0.17485368
171	0x3cbc132c	0.02295836
172	0xbdf58768	-0.11988717
173	0xbd4a2349	-0.049350057
174	0xbe36844c	-0.17823905
175	0xbe22ff7c	-0.15917772
176	0x3e54d805	0.2078553
177	0x3b3b0e1b	0.0028542343
178	0x3f4956f6	0.78648317
179	0xbedce8b6	-0.43146294
180	0xbc8a0d73	-0.016852116
181	0x3e98d8b8	0.29852843
182	0x3d9fd2cd	0.07803879
183	0x3e6c7b07	0.23093806
184	0xbdad67fe	-0.084671006
185	0x3e4206ed	0.18947954
186	0x3ef27c4b	0.47360453
187	0xbda6f639	-0.08152432
188	0x3d49e9a6	0.04929509
189	0xbd93e0db	-0.07220622
190	0x3ba8ffa0	0.005157426
191	0xbe87b65d	-0.2650632
192	0x3db2c23a	0.08728452
193	0xb9aee300	-0.00033356994
194	0x3d7baf57	0.061446514
195	0x3c439e28	0.011939563
196	0xbf7220bb	-0.9458119
197	0x3d713aec	0.058894083
198	0xbd6af77f	-0.057364937
199	0x3c7676bf	0.01504296
200	0xbe64d956	-0.22348532
201	0x3bbcd35a	0.0057624998
202	0xbe414bf8	-0.18876636
203	0x3d398542	0.0452931
204	0xbd442d03	-0.04789449
205	0xbed62b46	-0.4182989
206	0x3ebfeaea	0.37483913
207	0x3e9b1826	0.3029186
208	0xbc2762e0	-0.010216445
209	0xbe4787c8	-0.1948539
210	0x3f4f5dd1	0.8100253
211	0xbc8f1f88	-0.01747109
212	0x3d9d5dc3	0.07683899
213	0xbcf9726a	-0.030450065
214	0xbf32e82f	-0.69885534
215	0xbe9e7b6b	-0.30953535
216	0x3d929c69	0.07158739
217	0xbec0af01	-0.37633517
218	0x3d4b3e0a	0.049619712
219	0xbf0663de	-0.52496135
220	0xbe025e1a	-0.1273121
221	0xbedae71d	-0.4275445
222	0x3e413cec	0.18870896
223	0xbc99f4c4	-0.018793471
224	0xbd69d3a3	-0.057086598
225	0x3df69699	0.12040443
226	0x3ed54de8	0.41661
227	0xbf58512e	-0.8449887
228	0x3e70d8ec	0.23520249
229	0xbe9d0323	-0.30666456
230	0x3caa4023	0.020782536
231	0xbf5443c3	-0.82915896
232	0xbf94782e	-1.1599176
233	0xbd7d8d8d	-0.06190257
234	0xbeb21f43	-0.34789476
235	0xbef2fc85	-0.47458282
236	0xbf3893ea	-0.721007
237	0xbcd27a70	-0.025693148
238	0xbae7c280	-0.0017681867
239	0x3d680f6a	0.056655325
240	0xbe80c138	-0.25147414
241	0xbdab8954	-0.08375803
242	0xbdf1539d	-0.11783526
243	0xbdefa55d	-0.117014624
244	0x3e9dd004	0.30822766
245	0x3e476f6b	0.19476096
246	0xbe2b9864	-0.16757351
247	0xbd935845	-0.071945705
248	0x3cb5c06d	0.022186482
249	0xbd65fa1e	-0.056146733
250	0xbd6680de	-0.05627524
251	0xbd068d78	-0.03284976
252	0xbd866f15	-0.06564156
253	0x3da4043b	0.080086194
254	0x3b9953f0	0.0046791956
255	0x3e06700e	0.13128683

adv.0.bias f4 [64]
0	0xbfce38eb	-1.611112
1	0xbfd19af3	-1.6375412
2	0xbf12f9c5	-0.5741237
3	0xbf1c37c6	-0.61022604
4	0xbfb1fe32	-1.3905699
5	0xbf609b07	-0.8773655
6	0xbf9f58f4	-1.2449021
7	0xbfee5cf9	-1.8622123
8	0xbecce0da	-0.40015298
9	0xbf335eda	-0.70066607
10	0xbe881df1	-0.26585343
11	0xbf9b7dee	-1.2147806
12	0xbec9fe72	-0.3945194
13	0xbe836295	-0.2566115
14	0xbf414615	-0.7549756
15	0xbfa36bc4	-1.2767262
16	0xbec9cfff	-0.394165
17	0xc003ca1e	-2.0592113
18	0xbf5fd7ff	-0.8743896
19	0xbfb0969e	-1.3795965
20	0xbdabb825	-0.08384732
21	0xbe889f25	-0.26683918
22	0xbf2554ce	-0.64582527
23	0xc0030dc7	-2.047716
24	0xbea8db1b	-0.32979664
25	0xbf281e88	-0.65671587
26	0xbea321ed	-0.3186182
27	0xbf2f0b84	-0.68376946
28	0xbf02855b	-0.50984734
29	0xbf249a1e	-0.64297664
30	0xc041e5f4	-3.0296602
31	0xbf303484	-0.6883013
32	0x3e9d4354	0.3071543
33	0xbe8933ff	-0.26797482
34	0xbe79dc2a	-0.24400392
35	0xc0056cc5	-2.0847638
36	0xbfb21128	-1.3911486
37	0xbf50a5a1	-0.8150273
38	0xbc579c83	-0.013159874
39	0xbe7ede6d	-0.24889536
40	0xbf333dde	-0.70016277
41	0xbd622b0e	-0.05521684
42	0xbf8f8ef7	-1.1215504
43	0xbe1f8e4c	-0.15581626
44	0xbf0f167b	-0.5589368
45	0x3ddfaf60	0.10922122
46	0xbfb8167b	-1.438186
47	0xbfb28618	-1.3947172
48	0xbfde1fe0	-1.7353477
49	0x3d8f0fc9	0.06985433
50	0x3e582981	0.21109582
51	0xbe7ffaf4	-0.24998075
52	0xbf056d1d	-0.5211962
53	0xbfd08f6d	-1.629377
54	0xbf1ba75c	-0.60802245
55	0xbeabf14b	-0.3358253
56	0xbf39290a	-0.72328246
57	0xc00b7ad7	-2.1793725
58	0xbee7949f	-0.45230576
59	0xbeaf1941	-0.34198955
60	0x3e020ed7	0.12700973
61	0x3da9abe8	0.08284742
62	0xbe1705ed	-0.14748354
63	0xbf010e1f	-0.5041217

adv.2.weight f4 [2, 64]
0	0xc007e0c7	-2.1230943
1	0x3f761e77	0.96140236
2	0xc014320d	-2.3155549
3	0xbf0c76cf	-0.5486879
4	0xbe99506c	-0.2994417
5	0xbc1588ca	-0.009126851
6	0x3f8f3e20	1.1190834
7	0xc00c7fa5	-2.1952908
8	0x3eb97a07	0.36225912
9	0x3f957b53	1.167826
10	0xbda2f426	-0.07956724
11	0xbfbf757c	-1.4957728
12	0x3f6ffc47	0.9374432
13	0x3e1b4148	0.15161622
14	0xbf6e6021	-0.9311543
15	0xbf6ac883	-0.91712207
16	0xbe7c9f5b	-0.24670164
17	0xbf634caa	-0.88788855
18	0xbf14ef62	-0.5817777
19	0x3f5055cf	0.81380934
20	0xbf60fc91	-0.87885386
21	0x3f28c3df	0.65923876
22	0x3f258dc5	0.6466945
23	0xbf37d5bc	-0.7181051
24	0xbf32146e	-0.69562423
25	0xbe90f030	-0.2830825
26	0xbe88a005	-0.26684585
27	0x3ed255ef	0.41081187
28	0x3f39e76f	0.72618765
29	0xbf94ad45	-1.1615378
30	0xbf6ce634	-0.9253876
31	0xbb9b01f6	-0.0047304584
32	0xbfa14d80	-1.2601776
33	0x3d044eb4	0.03230162
34	0xbef40afd	-0.47664633
35	0x3faff833	1.3747619
36	0xc00a6caf	-2.1628835
37	0x3ff8c1ec	1.943418
38	0x3f1e000f	0.6171884
39	0x3f447818	0.7674575
40	0x3ee5daa1	0.44893363
41	0xbe3dbfdd	-0.18530221
42	0xbfceba6e	-1.6150644
43	0x3d867145	0.06564573
44	0xbf1161dd	-0.5678995
45	0x3f1f565a	0.6224114
46	0xbf3abba2	-0.72942555
47	0x40020c5e	2.0320048
48	0xc04f11d8	-3.235464
49	0x3fe0dc19	1.7567168
50	0x3f873cb8	1.0565405
51	0xba608dee	-0.0008566071
52	0xbf21b87b	-0.6317212
53	0x3f2bbb5e	0.67082775
54	0x3dbca21a	0.09210606
55	0xbdda0f60	-0.10647464
56	0x3f1182e9	0.5684038
57	0x3fa62d6b	1.298261
58	0xbf4afcc4	-0.7929194
59	0x3e38e183	0.18054776
60	0xbf81472e	-1.0099847
61	0xbd019843	-0.03163935
62	0xbd98191d	-0.07426665
63	0xbf727a05	-0.9471744
64	0x4003af7b	2.0575855
65	0xbf720944	-0.9454539
66	0x401844eb	2.3792064
67	0x3ef30744	0.4746648
68	0x3ebbabdc	0.36654556
69	0x3d6e8a79	0.058237527
70	0xbf8f1fd2	-1.1181586
71	0x40116cf7	2.2722757
72	0xbe341629	-0.17586578
73	0xbf91acc1	-1.1380845
74	0xbd82e9ae	-0.06392227
75	0x3fb0cc96	1.3812435
76	0xbf65804b	-0.89648885
77	0xbd747d08	-0.05968955
78	0x3f4e52f5	0.8059533
79	0x3f4e0c2f	0.8048734
80	0x3e2dc479	0.1696948
81	0x3f751f72	0.95751107
82	0x3ee68c7f	0.45029065
83	0xbf63368c	-0.88755107
84	0x3f34569b	0.7044465
85	0xbf4006fd	-0.75010663
86	0xbf2cfda3	-0.6757452
87	0x3f304f34	0.68870854
88	0x3f3d8bb8	0.7404132
89	0x3e7af66f	0.2450807
90	0x3d5b4264	0.053530112
91	0xbef897a9	-0.48553208
92	0xbf2ace99	-0.66721493
93	0x3f93205d	1.1494251
94	0x3f47fe11	0.7812205
95	0xbe1d20e7	-0.15344582
96	0x3f9e217e	1.2353971
97	0x3d2b95a6	0.041890763
98	0x3ec82917	0.3909385
99	0xbfa656f9	-1.2995292
100	0x4003f8bd	2.0620568
101	0xc0034c31	-2.0515254
102	0xbf383c76	-0.71967256
103	0xbf342502	-0.7036897
104	0xbedc9319	-0.43080977
105	0x3e3bb421	0.18330432
106	0x3fcb6446	1.5889976
107	0x3caa70df	0.020805774
108	0x3ee15573	0.44010505
109	0xbf17320c	-0.5906074
110	0x3f4eec4a	0.808293
111	0xc0018ee9	-2.0243475
112	0x4050f992	3.2652326
113	0xbfd0efb1	-1.6323148
114	0xbf8c87be	-1.0978925
115	0x3ce86861	0.028370084
116	0x3f27954b	0.6546218
117	0xbf4cb86e	-0.7996892
118	0xbe06507e	-0.13116643
119	0x3dc2b6cb	0.09507521
120	0xbf22a631	-0.6353484
121	0xbfa8c7e7	-1.3186005
122	0x3f45e308	0.7729955
123	0xbe16c0b1	-0.14721943
124	0x3f66b3dc	0.90118194
125	0x3dcaef23	0.09908893
126	0x3d9af2af	0.075658195
127	0x3f827a3b	1.0193552

adv.2.bias f4 [2]
0	0x3d26c354	0.040713623
1	0xbe420895	-0.18948586
