final_finetune/checkpoints/ep_0050.pt (torch, 145855 bytes, 11 tensors)

feature.0.weight f4 [128, 16]
000000 47 49 45 40 56 c9 ad 3f 76 3f cd 3f ba 1d bb 3f
       3.0825975 1.3577068 1.6034992 1.4618447
000010 cf 68 ad c0 cc f0 fc bf 2c eb c0 bf ae 88 f2 bf
       -5.419044 -1.9760985 -1.5071769 -1.8947961
000020 0b 8e 14 3f fb 4f 04 3f e1 0e 37 3d d1 68 e0 bd
       0.5802924 0.5168454 0.044691924 -0.10957492
000030 ef 6d 9a 3f 2f fc 30 3f f1 93 6b 40 c1 86 11 bf
       1.2064799 0.691348 3.6809046 -0.56846243
000040 51 49 86 3e 74 fb bd bd fe ca e6 be 30 e6 7c be
       0.2622781 -0.092764765 -0.45076746 -0.24697185
000050 03 e2 ac 3e 88 3f 6c 3e 97 d5 22 3f ee d4 fb 3e
       0.33766183 0.2307111 0.6360716 0.4918589
000060 78 03 5a bf 57 90 fb be c9 40 6c be eb 07 1a bf
       -0.8516154 -0.4913356 -0.23071589 -0.6016833
000070 b5 87 b5 be 8a 24 ca be 52 0a 74 3e d8 51 03 bf
       -0.354551 -0.39481002 0.23832062 -0.5129676
000080 d5 3b ed be 27 35 a8 3e f7 e7 86 3e 1e 0c d3 3d
       -0.4633471 0.32853052 0.2634885 0.103050455
000090 0c ac 61 be fa b4 0e 3e 84 94 69 3e d6 53 bd 3e
       -0.22038287 0.13936225 0.2281056 0.36978024
0000a0 35 c8 0b 3e a5 61 15 3e e6 cd 6b 3f cd 95 57 3f
       0.13650592 0.1458803 0.9211105 0.8421295
0000b0 41 6f 31 3e 76 d6 e5 be 9c eb e0 be 85 21 11 bf
       0.17327596 -0.44890183 -0.43929756 -0.5669177
0000c0 14 0f 9d 3f 34 76 b2 be 21 63 76 be 8f 7d 81 bc
       1.2270226 -0.34855807 -0.24061252 -0.015806941
0000d0 9a e8 ec 3f d7 c7 64 bc 81 33 cd 3e eb b3 c4 3e
       1.8508484 -0.013963661 0.40078357 0.38418517
0000e0 e2 02 12 3f 5c fb 26 3f 64 23 96 be a9 1f 02 bf
       0.5703565 0.65227294 -0.29323876 -0.5082956
0000f0 db ed c3 3e 44 42 87 bf b8 a5 3c 3f df f6 33 bf
       0.38267407 -1.0567098 0.73690367 -0.7029857
000100 55 7d ba 3f c1 84 3c be 56 80 2e be 66 6d ea 3d
       1.4569498 -0.18410017 -0.17041144 0.11446647
000110 31 28 9a 3f 38 23 9b bd ab 87 5b be 24 48 e5 3d
       1.2043515 -0.07575077 -0.21438472 0.111954
000120 ea 07 bc 3f 92 11 a5 3f 2c 68 dd be f6 a1 dc be
       1.4689915 1.2895987 -0.4324354 -0.43092316
000130 6a 50 62 3f fe c4 d1 c0 77 26 e1 3e 1f 8c 60 3d
       0.8840395 -6.555297 0.4397466 0.05482113
000140 2c 56 70 be 2c 4a 52 3f 7e 58 10 3f 28 d8 30 3f
       -0.23470372 0.8214443 0.5638503 0.6907983
000150 e0 5f d4 bf f7 ef 88 3f 59 71 98 3f 91 6e a9 3f
       -1.6591759 1.0698231 1.1909591 1.3236867
000160 60 d9 87 be bd 67 31 be bc 5a 86 be bc d5 18 be
       -0.2653303 -0.1732473 -0.262411 -0.14925283
000170 90 a5 52 3f 00 e8 d8 3e b4 1c 9a 3f 3b ec 0d be
       0.8228388 0.42364502 1.204001 -0.13859646
000180 aa 14 f1 3e 1f 40 b5 be 83 1e 66 be 54 c3 0b be
       0.47086078 -0.35400483 -0.22472577 -0.1364873
000190 c3 22 9e be e1 85 fb bc 18 73 0d 3e 0a f2 17 3e
       -0.30885896 -0.030703487 0.13813436 0.14838424
0001a0 38 b7 3a 3e 70 a6 43 3e 11 11 a7 3e 75 8d fb 3d
       0.18233955 0.1910646 0.32630208 0.1228284
0001b0 85 00 40 3e 48 d0 0f bf 78 83 00 3e ff 72 25 bf
       0.18750198 -0.56177187 0.12550151 -0.64628595
0001c0 d8 dc 3c 3e 34 9b 4f be d7 26 f3 bd c2 89 05 be
       0.1844362 -0.20274049 -0.118726425 -0.13040832
0001d0 c5 b6 26 c0 dc e0 92 be 13 66 a5 be 13 6a 9d be
       -2.6049054 -0.2868718 -0.3230444 -0.3074499
0001e0 90 38 2d 3f 9c a6 79 3f ba be 89 bf fb 19 a1 bf
       0.6766443 0.9751985 -1.076133 -1.2586054
0001f0 90 6f 6e bf 4b 94 cc bf 35 36 be bf 8a 17 b8 bd
       -0.9313898 -1.5982755 -1.4860293 -0.08988865
000200 49 06 1b c0 7c 27 50 be 58 78 1e be a5 a7 a3 be
       -2.4222586 -0.20327562 -0.15475595 -0.3196384
000210 bb 18 0d 40 22 ce 3b c0 b4 2a 50 c0 fc f4 4b c0
       2.2046344 -2.9344563 -3.2526064 -3.1868277
000220 4a b5 9c 3f 2e 13 a0 3f ab f3 1b bf 9a 8c 0b bf
       1.2242825 1.2505853 -0.6091868 -0.54511416
000230 6c 05 5c be 2d ef 72 3e 63 da c7 3e 86 71 93 3c
       -0.21486443 0.23724051 0.39033803 0.017998468
000240 15 30 01 c0 a6 02 3e 3f 7d 77 12 3f 1c ed 2a 3f
       -2.0185597 0.7422279 0.57213575 0.6676805
000250 70 d5 ef 3f 6d bf d0 be 81 8a c7 be f2 6b bf be
       1.8737011 -0.40771046 -0.38972858 -0.37387043
000260 a8 2a 31 be 7e 0f b6 be 8f f0 db 3e b3 36 0e 3e
       -0.17301428 -0.35558695 0.4295697 0.13888054
000270 52 5a d1 3e a2 9f 2e bf 7d 10 09 bd 60 44 eb be
       0.4088922 -0.6821233 -0.03346299 -0.45950603
000280 10 36 d8 3f d9 1c 7d bf 5b ed 6a bf 67 ee 9f bf
       1.6891499 -0.98872143 -0.91768426 -1.249463
000290 24 a6 87 bf be 03 03 bf e2 23 e9 be 76 3d b8 be
       -1.0597577 -0.51177585 -0.4553519 -0.3598439
0002a0 a0 a4 01 3e af 1d 68 3d 35 92 e8 be 84 df 08 bf
       0.12660456 0.056668933 -0.45424047 -0.5346606
0002b0 2c cd e3 3d f7 3f b0 bf 43 b6 fa be da 48 82 be
       0.11123118 -1.376952 -0.4896718 -0.25446206
0002c0 9c 6b 46 be 56 41 a8 3b 88 16 c2 bd ea 3d 5e bb
       -0.19376987 0.005134742 -0.09476954 -0.0033911415
0002d0 22 4c 23 3f 66 ed 64 3e 4a 37 fd 3d f8 a5 54 bd
       0.63788044 0.22356185 0.12364061 -0.051916093
0002e0 9d 37 47 bf ef 06 72 bf ac 32 05 be d4 63 01 be
       -0.77819234 -0.9454183 -0.13007611 -0.12635738
0002f0 98 44 f3 be d6 90 54 c0 0f 8e 01 3f fd f6 1b bf
       -0.4751327 -3.32134 0.5060739 -0.6092375
000300 69 a3 5a 3e 00 af 36 3f 7c 87 16 3f d8 cc 46 3f
       0.21351399 0.7136078 0.5880048 0.77656317
000310 54 88 59 c0 0e 5d 30 be 92 64 c2 be e6 b3 ba be
       -3.3989458 -0.17222998 -0.37967354 -0.36465377
000320 17 b8 0d bf 2b b0 14 bf e5 3a c8 3e e1 ff 41 3e
       -0.55359024 -0.5808131 0.39107433 0.18945266
000330 e6 03 39 3f ce 67 65 be d7 84 d7 3e 4b d8 9d bf
       0.72271574 -0.2240288 0.42093536 -1.2331632
000340 a8 31 76 3e 74 b3 9e 3f 41 d7 82 3f c4 c5 44 3f
       0.2404238 1.2398515 1.022194 0.76864266
000350 26 05 b8 3f e2 00 27 bd 22 cc 3f 3e 23 18 85 3b
       1.4376571 -0.040772326 0.18730214 0.004061715
000360 e2 01 5a bf b2 30 2a bf 56 e2 8f 3f 32 bc ab 3f
       -0.8515912 -0.66480553 1.1240947 1.3416808
000370 39 e0 40 3f 13 88 2f bf 33 6d c8 bf 9c 28 59 be
       0.75342137 -0.6856701 -1.5658325 -0.21206897
000380 72 05 7b bf a8 50 08 3f 2b 8c 9c 3e 05 a4 a1 3e
       -0.98055184 0.5324807 0.3057569 0.3157045
000390 a7 5b a0 bf 65 47 5d bf a3 de 94 bf 2c 57 81 bf
       -1.252797 -0.86437064 -1.1630443 -1.0104728
0003a0 8d 3b 9f bf 23 e7 aa bf ae 60 a2 3f 20 de b3 3f
       -1.2440048 -1.3351787 1.2685754 1.4052162
0003b0 6e 15 d9 3e a9 17 a2 be e1 e9 0a 3f db 1c 45 bd
       0.42399162 -0.31658676 0.5426312 -0.04812322
0003c0 f5 80 ea 3f e8 59 09 bf ab 80 d7 be 45 e7 c3 be
       1.8320605 -0.5365281 -0.42090353 -0.38262382
0003d0 a9 3a 25 c0 74 f5 87 3e 95 73 eb 3e 0c a1 92 3e
       -2.5817053 0.26554453 0.4598662 0.28638494
0003e0 95 cb a3 3f 0b 8a ba 3f 6f 0f 2c bf 1a c3 03 bf
       1.2796503 1.4573377 -0.6721105 -0.51469576
0003f0 5e af 24 3f 05 96 8f be 74 ec de bb 32 dd d3 be
       0.6433009 -0.28044143 -0.0068030898 -0.41379696

feature.0.bias f4 [128]
000000 88 e8 27 3f 08 89 83 be b6 4d b4 be ce f4 d4 3f
       0.6558919 -0.25690484 -0.3521554 1.6637208
000010 84 42 a7 3f 8b 38 bc 3f 7b 14 09 bf d4 62 a0 3f
       1.3067174 1.4704756 -0.53546876 1.253016
000020 25 16 d0 3f bc 6c 12 bf f2 0a 04 be 4a 85 bb 3f
       1.6256758 -0.57197165 -0.128948 1.4650052
000030 ea 45 07 3e 18 03 30 3f 63 f9 30 3f 68 b6 15 c0
       0.13210264 0.6875472 0.69130534 -2.3392582
000040 66 7f a5 bf f5 95 53 40 e4 ce c7 3f 2c dd 9e 3e
       -1.2929504 3.3060277 1.5610013 0.31028116
000050 7b 4e 45 3f bc e0 f8 3f e3 16 9b 3f 17 1f 66 bd
       0.77072877 1.9443583 1.211636 -0.056181993
000060 81 da 28 bf 12 f8 91 3f a0 6d 74 bd 77 6e 88 bf
       -0.6595841 1.140383 -0.05967486 -1.0658711
000070 37 9e b7 3f 72 1c 3a bf 9f 92 7e 3f 8c d7 f1 be
       1.4345158 -0.72699654 0.99442476 -0.47234762
000080 6f 96 c4 be 6f c4 54 c0 93 63 9a bf 57 75 60 bd
       -0.38396022 -3.3244894 -1.2061638 -0.054799404
000090 af 63 b9 3e 8d 1b b8 3f 56 61 02 3f 40 1c 86 be
       0.36208865 1.4383408 0.5092977 -0.26193428
0000a0 8b d0 75 bf 16 c9 cd 3f d5 26 0b bf 1d 89 1e 40
       -0.96021336 1.6076992 -0.5435613 2.4771187
0000b0 fc e1 26 be 69 63 eb 3d ae 16 4a c0 c8 6f cb 3f
       -0.16297144 0.1149357 -3.1576343 1.5893488
0000c0 10 d3 a8 3f d6 68 14 c0 b2 ff 06 be f0 8d 21 bf
       1.3189411 -2.3188987 -0.13183478 -0.63107204
0000d0 fd 99 21 bf a3 a5 b2 be 48 94 4d 3f 04 ba 32 3f
       -0.6312559 -0.34891996 0.80304384 0.6981509
0000e0 d3 76 4b be b5 1f fa be 1e f1 fb 3d bf 80 e7 be
       -0.19869547 -0.48852316 0.12301849 -0.45215413
0000f0 7e ff 70 bf 60 4e 33 bc 11 c8 25 bd a3 04 0c 3f
       -0.9413985 -0.010943979 -0.040474 0.54694575
000100 9e 13 f3 bf 38 c5 24 c0 36 0d bb bf 22 88 dd bb
       -1.8990362 -2.5745373 -1.4613407 -0.006760613
000110 b1 30 ca 3e 21 ed b2 3f 2d d9 0d 3e 08 cb 3d 3f
       0.39490274 1.3978616 0.13852377 0.74137926
000120 e6 70 dd be a8 d4 f7 bf 66 e8 ce bf 78 e7 c8 bf
       -0.43250197 -1.9361773 -1.6164672 -1.5695639
000130 a0 58 42 3f 7e 3d d6 bf 8b c0 14 c0 f6 0e 13 3f
       0.7591648 -1.6737516 -2.324252 0.57444704
000140 2b 58 e7 be 00 6f db bf c7 bc 27 be a3 c2 d2 3d
       -0.45184454 -1.714325 -0.16380607 0.1029103
000150 bd 50 6a bf 2c ad 01 3e 43 6c 80 3d 5b e0 b5 be
       -0.91529447 0.12663716 0.06270649 -0.35522732
000160 f1 ce e7 3e 57 9e a4 bf 74 51 50 be d9 f7 60 bf
       0.4527507 -1.2860821 -0.20343572 -0.87878186
000170 54 19 9f bf 4a 9f b1 be 5c 49 8d be 1c df ca 3f
       -1.2429605 -0.3469184 -0.2759503 1.5849338
000180 d9 7b 88 be ad 08 76 bf dc 3a 27 be 07 da 3a bf
       -0.26656988 -0.9610699 -0.16331047 -0.72988933
000190 70 b7 3d 3f 22 6f 88 bf 92 d6 4a c0 59 41 7d bf
       0.7410803 -1.0658915 -3.1693463 -0.9892784
0001a0 0e 52 69 bf 25 f8 23 bf 54 44 02 3f 34 69 f7 3e
       -0.9114083 -0.64050514 0.5088551 0.4832245
0001b0 fe ac c6 bb f9 d6 e0 bd ab 9f 4f 3f a9 45 02 bf
       -0.0060631027 -0.10978503 0.8110301 -0.5088754
0001c0 e2 3b ae bf ab f8 6d 3f 4a a6 b0 3f 42 4b 52 40
       -1.3612025 0.9295756 1.3800747 3.2858434
0001d0 f8 a3 f9 3e 1e ae 2e 3f b0 65 15 bd 82 18 7e 3f
       0.4875791 0.6823443 -0.03647393 0.99256146
0001e0 27 86 c0 bf 40 64 ca 3f c0 da 80 bf cd 67 b1 bd
       -1.504094 1.5811844 -1.0066757 -0.086623766
0001f0 f5 32 90 3f 2d 84 d1 3e 0b bd 3a 3f 26 7a 35 bf
       1.1265551 0.40921155 0.72944707 -0.7088951

feature.2.weight f4 [128, 128]
000000 72 40 bf bd 16 08 3d bf 2d 49 b0 bd 8f f4 55 3d
       -0.09338464 -0.73840463 -0.08607707 0.052235182
000010 5c 1b a4 be 0f ae db 3d 9d 3d 50 bd ce 4f 86 bf
       -0.32052124 0.107265584 -0.05084001 -1.0493104
000020 f5 ef 6b 3c 2e 93 82 be 8f a7 09 be d9 9c 88 be
       0.014400472 -0.25502914 -0.13442825 -0.26682165
000030 26 79 07 3e 65 3b 85 bd a1 3b 0b 3c 77 c8 86 3c
       0.13229808 -0.06505469 0.008498103 0.016453011
000040 c6 36 a1 3d 96 c6 91 bd e3 76 28 3f 6b d3 64 be
       0.07871775 -0.071179554 0.65806407 -0.22346275
000050 b2 09 5e 3f 11 32 6c be 95 72 a5 bf ac 5e 70 3b
       0.86733544 -0.23065974 -1.2925593 0.0036677523
000060 0e f9 b2 be 9a 4d d3 bc 68 5a 58 3c c7 6a cc 3c
       -0.3495564 -0.02579384 0.013205148 0.02495326
000070 6c bd 01 3d 26 63 a8 bc da b2 15 bf f0 c6 91 3e
       0.031674787 -0.02055509 -0.5847603 0.2847209
000080 24 7c e1 3d f5 af 06 bf 55 4c 60 be 55 49 36 bd
       0.11010006 -0.5261224 -0.21904118 -0.04450353
000090 88 32 ad bd a7 6b a3 be c5 26 87 3d 2a 07 70 3d
       -0.08456904 -0.3191807 0.065991916 0.058600582
0000a0 cd bd fd bd ce 9c 35 be 62 2d 8a be 65 6a c3 bd
       -0.12389717 -0.17735597 -0.2698775 -0.095417775
0000b0 18 bf 2b bd 94 38 89 bd 5b 42 45 3d 07 86 2d be
       -0.041930288 -0.067002445 0.048158985 -0.16945659
0000c0 4a c1 78 be 35 68 c2 bb 9b 4f cc 3d 1e 96 c8 be
       -0.24292484 -0.0059328326 0.09976121 -0.3917703
0000d0 f4 b5 69 3d 4b 1e 18 3d af fb 05 be c0 5b 9d bd
       0.05705829 0.037138265 -0.13084291 -0.076835155
0000e0 5f a3 54 be 2c d0 1d bf 6f 14 0e 3e cc 4e 51 be
       -0.20765446 -0.6164577 0.13874982 -0.20440215
0000f0 02 14 07 3e 95 e4 46 bd e6 96 51 be ae 50 0b 3e
       0.13191226 -0.048557837 -0.2046772 0.13604996
000100 3c 82 37 be b5 40 aa be ea c0 e8 bd 3d 1a 38 3c
       -0.17920774 -0.33252493 -0.113649204 0.011236724
000110 c2 3d 8e be 98 a8 73 be 61 7d 80 be cd f5 53 bf
       -0.27781492 -0.23794782 -0.25095657 -0.8279694
000120 5c 23 cd 3d 6e a8 52 be ed 4f d9 3d f7 b7 03 bf
       0.1001651 -0.20572063 0.10610948 -0.51452583
000130 70 9e 2f bf 1a 3c 90 be 0f a3 b4 bd 2c 45 d6 3e
       -0.6860113 -0.28170854 -0.088201635 0.4184965
000140 0b 69 9e be 4e c7 34 be 3a f1 ce 3d db cb 13 3d
       -0.30939516 -0.17654154 0.10104604 0.036083084
000150 99 08 f2 3e 2d 57 cc be e1 04 85 bf 0c 10 33 bf
       0.47272184 -0.3991026 -1.0392114 -0.6994636
000160 2f 97 20 bb 9a 87 9a 3e 5b 2a 17 3e 80 c6 12 be
       -0.0024504175 0.3018158 0.14762251 -0.14333534
000170 7d a5 60 bf b7 67 a1 bd a7 0f 38 be e5 28 0a 3f
       -0.87752515 -0.0788111 -0.17974721 0.5396865
000180 eb 15 11 be 15 98 66 3e b8 c5 50 be bf c3 9e be
       -0.14168517 0.22518952 -0.20387924 -0.31008717
000190 5a e6 17 be b2 c3 27 3e c4 7e a0 3c 81 7f 1c be
       -0.14833966 0.16383246 0.019591697 -0.15283014
0001a0 77 08 17 bf 57 9d 07 be 9c bf 11 bf ed c0 31 3b
       -0.5899729 -0.13243614 -0.56933 0.002712305
0001b0 d0 b0 7d 3e fe df 93 3d e8 5b 49 3d ca b5 43 bf
       0.2477448 0.072204575 0.049159914 -0.76449263
0001c0 db d3 9b ba 2e eb 83 be 9b 92 85 bf 07 74 99 3c
       -0.0011888699 -0.25765365 -1.0435365 0.018732084
0001d0 4f c3 1b bf 7a 4c 6d be 3c 0a b4 bd 9b 88 39 3c
       -0.6084489 -0.23173705 -0.087910146 0.011324073
0001e0 95 58 89 be bd 6d f2 bf c6 a6 cd be 68 1b 4c 3e
       -0.26825395 -1.893974 -0.401663 0.1993233
0001f0 6b a0 37 3f 99 14 83 bd c0 67 09 3f a8 0c 30 bd
       0.71729153 -0.06400413 0.53673935 -0.04298082
000200 f5 2f 75 be 12 b3 0e 3d 46 90 26 3e 0a 7c d3 3e
       -0.23944075 0.034838744 0.16265973 0.41305572
000210 38 99 4a 3c 8d d8 39 be ec d8 fa bd 9d 97 63 3e
       0.012365632 -0.18149014 -0.12248406 0.22225805
000220 30 df 29 bf 2f 8a a2 bd df ca db be 72 df 3d 3e
       -0.6635618 -0.07936513 -0.42928216 0.18542269
000230 e4 a5 fd bd d4 39 58 3e 1b f9 82 3d 1f 6d 23 3d
       -0.12385157 0.2111581 0.06395169 0.039898988
000240 80 8a 96 ba 42 d3 2b be af c4 76 be 37 f9 00 3f
       -0.0011485368 -0.16779807 -0.24098466 0.5038027
000250 32 91 15 be 31 88 81 be 03 13 77 be 6d ab 38 be
       -0.14606169 -0.25299218 -0.24128346 -0.18034144
000260 72 89 98 be 68 46 f1 bd 56 c2 33 3d 4b b4 47 be
       -0.29792362 -0.11781007 0.043886505 -0.1950237
000270 db a3 4a be 35 56 13 bf 07 38 ad bd a6 29 94 bd
       -0.19789068 -0.57553416 -0.08457952 -0.07234506
000280 bd 1d 9d be cf e8 a0 be d8 a7 35 be 7b 80 62 3c
       -0.3068675 -0.3142762 -0.17739809 0.013824577
000290 29 f5 99 3e 6c df 99 3d 75 23 d1 be 40 d3 42 be
       0.30069855 0.075133175 -0.40847364 -0.19025898
0002a0 fa b4 1e be d5 9c 30 bf bb 19 ff bd 94 84 38 be
       -0.15498725 -0.68989307 -0.124560796 -0.18019325
0002b0 1a df 98 3d 65 e9 af bf a7 14 27 3e 51 07 90 be
       0.07464428 -1.3743101 0.16316472 -0.28130582
0002c0 ac e8 7e bd 44 b5 15 3d 18 0d 41 3e f3 2b b4 be
       -0.062233612 0.03654982 0.18852651 -0.3518978
0002d0 d7 5b 19 bd 25 53 a9 3c 85 0d 4f bd 45 17 99 bd
       -0.0374411 0.02066953 -0.050550003 -0.074751414
0002e0 fd 38 18 bd 4e 95 08 3d 72 27 50 3e 01 f3 ca bd
       -0.037163723 0.033345513 0.20327547 -0.099096306
0002f0 cc 2f c1 bd 90 26 0d bc 71 0d a2 bd 10 91 a4 bc
       -0.09432945 -0.008615151 -0.0791272 -0.020088702
000300 a4 98 fb 3d e4 56 cf 3e 0b 58 62 bd f8 3c 9e bd
       0.12284973 0.4049598 -0.055259746 -0.077264726
000310 67 c9 f1 3e 60 58 aa bc 10 ba a9 be d9 71 58 3d
       0.4722397 -0.020794094 -0.33149767 0.05284295
000320 82 12 0e bf 87 8e 2f bd 5b 24 bd bc ab ca 3d 3f
       -0.5549699 -0.042860534 -0.023088625 0.7413737
000330 55 63 cf 3c af 5a e6 bc 49 b8 bd 3d f7 0d b1 bd
       0.02531592 -0.028119413 0.09263665 -0.08645242
000340 ab 31 5b 3e ae 45 7d bf 2a cc 0e bf e9 6e 8c bc
       0.21405666 -0.9893445 -0.5578028 -0.01714273
000350 30 b3 a8 3e 7a b5 47 bf 7f e3 c2 be cc a8 7e bd
       0.3294921 -0.78011286 -0.3806419 -0.062172696
000360 2e d0 1e bd 0d b9 05 bd 37 b3 b5 3d 76 d6 04 bd
       -0.038772754 -0.03264718 0.08872073 -0.03243109
000370 60 1a 46 3f b3 04 32 be 4d 2c 86 3c 28 cb 3d be
       0.77383995 -0.17384605 0.016378546 -0.18534529
000380 dc a8 db be 89 59 02 bf 7f c1 d6 bd ff 83 06 bf
       -0.42902267 -0.5091787 -0.10486125 -0.5254516
000390 59 7b 31 be 64 68 58 bf d5 bf c4 3d 76 a8 ea 3d
       -0.1733221 -0.8453429 0.096069016 0.114579126
0003a0 81 db ea bc 54 0f 84 be 0b a0 89 bd 31 65 d4 be
       -0.02866912 -0.25792944 -0.06719979 -0.41483453
0003b0 36 e6 fa 3d bb 58 9d 3d 41 1d 4e be e9 f0 0d bd
       0.122509405 0.076829396 -0.20128347 -0.034653578
0003c0 1b 46 75 be f0 79 18 be 7a dc 3d be 5e 51 58 be
       -0.23952524 -0.14890265 -0.18541136 -0.21124789
0003d0 71 75 07 3e 7c e3 99 3d 30 4a a4 bb b1 c7 1e bf
       0.13228394 0.07514092 -0.0050137267 -0.62023455
0003e0 04 83 7a be c3 83 1a 3e 1a 2c 8b bd 57 d7 37 bf
       -0.24464041 0.15089326 -0.06795521 -0.7181296
0003f0 1f 4b 5c be 4a 59 63 bf 2a a5 57 be fe 61 03 bf
       -0.21513031 -0.8880812 -0.21059099 -0.513214

feature.2.bias f4 [128]
000000 26 f7 1c be 28 d2 02 be f9 7b 5f 3f 40 34 21 40
       -0.15328655 -0.12775481 0.8729854 2.518814
000010 87 3d 7d bc 2c 54 40 bd 53 5a 8e bd 0c a8 06 3f
       -0.015456564 -0.046955273 -0.06950822 0.5260017
000020 f8 a3 77 3e ac ba 72 be 35 73 00 3f e0 bf 25 3e
       0.24183643 -0.23704022 0.5017579 0.16186476
000030 00 7d 26 3e d2 2f d4 be 69 89 35 be 99 23 d1 3c
       0.16258621 -0.41442734 -0.17728199 0.02552967
000040 b5 f3 53 bd 3d f1 f5 be 6a d6 33 bd a8 45 92 3f
       -0.05174609 -0.48035613 -0.043905653 1.1427507
000050 3f 2f db bd 0d 61 11 be 4d 91 1a c0 41 3d 04 be
       -0.10702371 -0.14197178 -2.4151185 -0.12913992
000060 1f 67 2b be 4c 1a 01 be 78 9d 1d be 9d 59 ba be
       -0.16738556 -0.12607688 -0.15392101 -0.36396495
000070 3c 93 84 ba 9b 04 19 3f 11 2c 2a be 03 cf e8 3e
       -0.001011468 0.5977265 -0.16618372 0.45470437
000080 b9 3d 81 bc 13 cb c9 3e dc 3e 28 3e bf be 94 bd
       -0.015776502 0.39412746 0.16430229 -0.072629444
000090 8a 04 cf 3e 8d d9 26 3f 87 a8 5a be 7c c4 63 3e
       0.4043315 0.65175706 -0.2135335 0.22242922
0000a0 27 37 22 be b6 f6 30 3d 8a 09 17 be 88 88 dd bd
       -0.15841351 0.043204032 -0.14749733 -0.10817057
0000b0 d1 ca 10 3e 77 f6 2c be fd 36 02 be 15 05 0f 3d
       0.14139868 -0.16890894 -0.12716289 0.034916956
0000c0 ac 57 25 c0 1a a4 b0 be aa 1e e0 bf db 57 54 bf
       -2.583476 -0.345002 -1.7509358 -0.82946557
0000d0 88 8d 8d bd 86 9a cb 3e fa ea 9d 3d ee 4f bc 3e
       -0.069117606 0.3976633 0.07710834 0.36779732
0000e0 18 3d 49 bd 4d bc 17 bf 50 06 b5 3d 52 10 2b be
       -0.04913053 -0.592717 0.08839095 -0.16705444
0000f0 26 85 54 bd b7 1d 46 bd e9 af 2d bd 32 23 85 3f
       -0.051884793 -0.048368182 -0.04240409 1.0401366
000100 73 a2 66 3e 36 17 d8 bc d2 e6 40 be 2e db 97 bd
       0.22522907 -0.026378255 -0.18838051 -0.07414852
000110 64 c3 78 be 2e ca 29 bc b9 0d 17 be 69 e1 1f be
       -0.24293286 -0.010363145 -0.14751329 -0.15613331
000120 52 ba 69 3e 97 66 bd bd 9d 59 94 3e fd 8a 56 bd
       0.22824982 -0.09248083 0.2897462 -0.052378643
000130 e8 d0 0c be 59 2c b1 3c eb 87 9c 3e bd b9 32 be
       -0.13751566 0.021627592 0.30572447 -0.17453666
000140 2a 96 36 3f 1d 73 55 3e 78 d2 e3 be 7e 06 9d bd
       0.7132288 0.20844693 -0.44496512 -0.07667254
000150 a1 12 d7 bd 4c fe fc bd 49 59 ec 3e 60 32 81 3e
       -0.105016 -0.12353191 0.4616187 0.25233746
000160 46 4f 6e be 15 ab 13 bf 2a b5 23 bd bc 8b 1e 3f
       -0.23272428 -0.57682925 -0.039967693 0.6193197
000170 8f e0 25 bd 82 a5 28 3f 0b 54 71 bf 36 09 3b bd
       -0.04049736 0.65877545 -0.94268864 -0.04566308
000180 d4 54 1f be 3b 28 e7 bd cb 5e 8a 3e ce cc 20 3f
       -0.15559703 -0.1128697 0.27025446 0.6281251
000190 44 81 e8 bd 22 3f 0d bf cf 03 33 3f 67 1e 17 3f
       -0.113527805 -0.5517446 0.69927686 0.59030765
0001a0 ee 8a 86 3e 26 22 ef bd 39 99 c7 3e 53 bf 2a be
       0.2627787 -0.11676435 0.38984087 -0.16674547
0001b0 15 c8 0b 3f ad 68 90 3b 12 9b 68 bd c2 39 16 be
       0.54602176 0.0044070096 -0.05678851 -0.1467047
0001c0 2a 1e 0a 3f 03 1b f9 bd 77 97 e9 be 1a c8 c6 3c
       0.53952277 -0.12163355 -0.4562337 0.024265338
0001d0 6f 1d 80 3e 9f 49 0a 3e 17 ad 1b 3f 62 bd 8e bb
       0.25022456 0.13504647 0.6081099 -0.0043560723
0001e0 70 c9 38 bd d8 e0 e4 3e 61 28 a9 bd 46 5f c4 bd
       -0.04511398 0.44702792 -0.08259655 -0.095884845
0001f0 74 ca 45 3e cd 26 13 be 01 8c 22 bd 6e fd ac be
       0.19315511 -0.1437027 -0.0396843 -0.33787102

value.0.weight f4 [64, 128]
000000 dc 7c 20 3f a5 b1 14 bc eb c0 89 bf b9 b0 9b be
       0.6269052 -0.009075557 -1.0761999 -0.30408266
000010 72 fa a5 bc 51 fb b5 bd 6c 6f f4 bd f9 07 39 bf
       -0.020261023 -0.088858254 -0.119353145 -0.7227779
000020 23 96 3d bf 69 c6 34 3d 4c 0b 94 be d5 f9 35 3b
       -0.74057215 0.04413453 -0.2891487 0.002776732
000030 2a c6 2f bf 20 82 96 bd a2 c5 24 bf 38 96 38 bf
       -0.6866175 -0.07349038 -0.64364064 -0.72104216
000040 92 78 ff bb 05 ad 5f bf 6a 89 81 3c 4e a8 ac bf
       -0.0077963555 -0.8737338 0.015812594 -1.3488863
000050 8e 12 c8 be 13 13 a1 bd ba be 1c c0 00 79 95 bb
       -0.39076656 -0.07864966 -2.449141 -0.0045615435
000060 4b 80 bc 3e ba e0 84 bc ec f2 a8 3d e7 53 d0 be
       0.3681663 -0.01622044 0.08249459 -0.40689012
000070 a0 ab 8a bc f2 e3 86 bd 00 97 06 3c d5 58 a9 bf
       -0.01692754 -0.06586446 0.008214712 -1.3230234
000080 cc da 78 bd f5 c7 d5 bf 1e 27 e9 bd af 5b a0 bd
       -0.060755536 -1.6701647 -0.11384414 -0.07829987
000090 dd 0f 57 bc 27 65 3a bf 40 85 13 bf 12 e6 49 be
       -0.013126341 -0.72810596 -0.576252 -0.19716671
0000a0 f5 85 22 be 99 48 9e be b4 8d d9 be c2 4d 6e bd
       -0.15871413 -0.30914763 -0.42490923 -0.058179624
0000b0 44 2b 11 bf 4d 66 cd bd e7 b2 a8 bd 4a cf 84 3d
       -0.56706643 -0.10029278 -0.08237248 0.0648485
0000c0 20 25 67 3d e3 a4 e0 be 66 21 a1 bf ee 76 8c be
       0.05643189 -0.438758 -1.2588317 -0.27434486
0000d0 70 10 97 bc 72 23 af be d4 c5 b7 be 69 69 e0 bf
       -0.018440455 -0.3420673 -0.35893118 -1.7532169
0000e0 97 82 3c bf c3 55 89 3f 92 4b 06 bf 12 80 15 3d
       -0.73636764 1.0729297 -0.5245906 0.03649909
0000f0 f4 4c 14 3d 80 74 87 3a 52 09 52 3d 57 b8 8a bf
       0.0362062 0.0010334402 0.05127842 -1.0837506
000100 28 a5 61 be bd fc aa 3e 4a 2c 64 3d 54 49 8c 3c
       -0.22035658 0.3339595 0.0557063 0.01712481
000110 f6 d7 89 be 8b c6 13 3d a2 71 cb 3d 77 aa dc bd
       -0.26922578 0.036078017 0.09933783 -0.10774701
000120 4d de b1 be 5b c0 54 3f 49 05 4d bf 39 9d 00 bd
       -0.34739915 0.8310601 -0.8008619 -0.03139994
000130 d6 9a 47 be 36 ea 9d be 5c 4b b5 be 9a 79 86 3d
       -0.19492659 -0.3084275 -0.35409057 0.065661624
000140 0d 9f 99 bd 8e 31 19 bc f8 4b 59 3f fc ff 76 3d
       -0.0750104 -0.009350194 0.84881544 0.06030272
000150 1a 6a cf 3c b8 85 a5 bd 0b 66 af be f8 38 28 be
       0.025319148 -0.080821455 -0.3425754 -0.16427982
000160 45 1d 6e be 13 bc 4d 3e 0f 76 86 bc df 3e 16 3d
       -0.23253353 0.20091276 -0.016413717 0.036681052
000170 48 bc b6 be 1d 00 f6 bc 91 df a0 3e 8c 57 a7 be
       -0.35690522 -0.03002935 0.31420568 -0.3268398
000180 3f 96 68 3c 53 bc f4 3e 74 93 ac 3e 85 86 3a bd
       0.014195978 0.4779993 0.33706248 -0.045538444
000190 86 20 bf be c1 94 7e be 7e c1 00 c0 8f a8 5b bf
       -0.373295 -0.24861433 -2.0118098 -0.85804075
0001a0 62 a1 4d be 2c c1 cd 3c bd 48 e2 be fc 29 72 bf
       -0.20081094 0.025116526 -0.4419612 -0.94595313
0001b0 b1 9e b2 bf 03 6f 9e 3d 49 12 49 3d 93 d1 49 3d
       -1.3954679 0.077360176 0.049089704 0.04927213
0001c0 5b 71 9d be 72 fc cc bc d5 72 86 be ad 50 7e be
       -0.30750546 -0.025022719 -0.26259485 -0.24835463
0001d0 96 6c 8d be 03 ce 82 bf 76 24 5c 3e da 42 64 bd
       -0.27621907 -1.021912 0.21498284 -0.055727817
0001e0 bc 4c 41 3f 66 fe 3d 3e 4d 98 8e 3d fd ea 27 3d
       0.7550771 0.18554077 0.06962643 0.040995587
0001f0 5c c9 43 be 3a 47 94 bd 48 6e d7 3c 3c c2 e4 3d
       -0.19119781 -0.07240148 0.026297703 0.1116986
000200 27 ad ab bd 68 ae 0b bd e4 f5 0f be 4c b5 7b bf
       -0.083826356 -0.034101874 -0.14058644 -0.9832351
000210 e4 9f 9e bd ac 74 b3 bd 3d 8f 9a be b6 37 b5 bc
       -0.077453405 -0.08762488 -0.30187407 -0.022121292
000220 10 e5 87 3e de 4b 03 3a 23 8a 06 bf e7 0b a1 be
       0.26541948 0.00050085585 -0.5255453 -0.31454393
000230 50 4d b9 3d 34 ed a8 3c 01 23 fe bd c3 c6 87 bd
       0.09047949 0.02062092 -0.1240902 -0.06629708
000240 4e 31 90 bd 94 85 4a 3e 7f 78 57 3d a7 b7 c2 bd
       -0.07040654 0.19777519 0.05260515 -0.09507685
000250 cd 4e a5 bd b9 09 69 bd 66 2a 67 3f 00 58 c0 3a
       -0.08071671 -0.056894038 0.9029907 0.0014674664
000260 d5 58 59 bf dc 36 0e be 88 bf 0e bd 54 db d7 bd
       -0.8490117 -0.13888115 -0.034850627 -0.105398804
000270 e9 e3 1c 3b 3b 52 20 be 0e 5b 7e bd 2f ec 88 bd
       0.0023939556 -0.15656368 -0.062098555 -0.066856734
000280 9a 28 4a 3d 67 be 1b bb 21 de ba 3e d3 73 43 3d
       0.049355127 -0.0023764612 0.36497596 0.04771788
000290 fd 31 93 bd 78 d1 c2 be 48 77 e5 bd 67 89 27 bd
       -0.07187269 -0.38050437 -0.11204392 -0.04090252
0002a0 0d 01 0e be f9 02 35 be 38 53 1d bd 40 69 2a bd
       -0.13867588 -0.17676915 -0.03840944 -0.04160428
0002b0 af dc d7 bd 66 e5 3c 3d 22 0a bc 3d 53 64 f0 bd
       -0.10540139 0.04611721 0.0918162 -0.11737885
0002c0 0b 43 e7 bd 38 f6 96 3d b1 71 c8 ba ce 23 cf bd
       -0.11292084 0.07371181 -0.0015292672 -0.10114251
0002d0 c6 da 58 3d 06 06 87 be 23 ec 42 be ef 05 6d bd
       0.052943014 -0.26371783 -0.19035392 -0.057866987
0002e0 9c 79 01 be 9e 6b 1e 3f a5 85 2c 3d a5 81 a2 3d
       -0.12644047 0.6188296 0.04211964 0.07934884
0002f0 91 bc 0d bd d3 87 b1 bd 6f 26 5e bd 1c 1e 89 bf
       -0.03460366 -0.086684845 -0.054235872 -1.0712314
000300 8c 5c 63 bd c8 a4 62 3e 36 c4 7b 3d cf 1a 58 bd
       -0.05550818 0.22133172 0.06146642 -0.05275994
000310 d5 e3 d3 be be 83 1d 3d 90 fb f5 3b 78 e0 e7 3d
       -0.4138476 0.038455717 0.007506795 0.11322111
000320 8b 04 14 3d 99 97 f0 be 56 78 f9 be 2d 9a 64 3d
       0.036137145 -0.4699066 -0.48724622 0.055811096
000330 0d e7 99 bd 70 3d af be 46 81 75 bd 17 a9 c4 3d
       -0.075147726 -0.3422656 -0.059937738 0.09602564
000340 ba 71 f8 be f7 ff 12 3d 7e 47 1f 3e d3 d4 b3 3d
       -0.48524266 0.03588864 0.15554616 0.087808274
000350 a4 41 09 bd e8 d4 0e 3d a0 45 9b be 05 42 30 be
       -0.033509865 0.034871012 -0.30326557 -0.17212684
000360 a4 fa 98 bd 21 27 e7 3d 79 c6 1e bc aa f9 1b 3c
       -0.07469681 0.1128676 -0.009690874 0.009519974
000370 e4 0e 69 3d ee 93 82 be 7e 40 99 be 25 9b 7d 3d
       0.056898966 -0.25503486 -0.29932016 0.061915535
000380 27 7c ef 3c 3b 24 bb 3c 62 0b 9e 3e 4b 6e 17 be
       0.029234005 0.022844424 0.3086806 -0.14788167
000390 2c de 9e bc 67 63 4d be 06 c8 13 bc 30 33 90 be
       -0.01939305 -0.2005745 -0.009019857 -0.28164053
0003a0 19 83 93 be 00 a8 c9 39 81 c4 31 be f6 e4 30 be
       -0.28810957 0.00038462877 -0.17360117 -0.17274842
0003b0 ed a3 e8 bc 18 66 8a bd 68 d6 8f bc ce 70 7d 3d
       -0.028398478 -0.06757754 -0.017558292 0.061875157
0003c0 c2 2f a1 be 1d 59 9a bd 56 10 2c be 1d a6 99 bc
       -0.3148175 -0.07536528 -0.16803107 -0.018755967
0003d0 c7 cc cb bd 2d f2 59 be 17 50 1b bf e1 1d de ba
       -0.099511676 -0.21283789 -0.6066908 -0.001694616
0003e0 0d 7c 2f be 2f d7 38 bd 74 92 86 bd 7f 9b b1 3d
       -0.17137165 -0.04512709 -0.065709025 0.08672237
0003f0 56 7c c9 bd 5c ad cc bc 54 4b 87 bc f3 d0 9a be
       -0.09838168 -0.024985008 -0.016515411 -0.3023754

value.0.bias f4 [64]
000000 d0 c2 b2 bf a9 36 6f bf dd 93 84 3f 4c 8a a0 bf
       -1.3965702 -0.9344278 1.0357624 -1.2542205
000010 6b 8f 2c 40 fa 4c 28 3e 1e 65 5c be 6a 74 3b 3e
       2.6962535 0.16435614 -0.21522948 0.18306127
000020 0a 3c 25 3e e9 61 53 bf 2c cd f4 3e a3 4e 1a bf
       0.16136184 -0.82571274 0.47812784 -0.6027624
000030 21 b4 7b be 55 ad 42 3f a2 1b 3a 3f f2 12 d5 bd
       -0.24580432 0.76045734 0.72698414 -0.10404004
000040 3f d7 39 40 43 45 59 40 fc dc 16 40 f6 d5 58 bf
       2.9037626 3.3948524 2.3572378 -0.8470148
000050 73 ae b2 bf 74 63 e2 3f f2 a2 c6 3e 45 a2 e6 3e
       -1.3959488 1.7686601 0.38796192 0.45045677
000060 3a e3 1e 3f fa c6 00 40 40 02 be be ca dc 8f be
       0.6206547 2.0121446 -0.37111092 -0.28098136
000070 d5 f1 a7 be 53 a5 6f be b1 75 db 3d 27 dc 3a bf
       -0.3280169 -0.2340291 0.10715807 -0.72992176
000080 5e 80 c6 3f 66 01 06 bf d7 3a c4 3f 51 5d f1 3e
       1.5507925 -0.52345884 1.5330456 0.47141507
000090 3d 32 e4 bf a0 e6 72 3f f9 34 02 bf b0 72 ca be
       -1.7827832 0.94883156 -0.5086208 -0.39540625
0000a0 79 60 2b 3f 33 3c 16 c0 e5 82 aa 3e 80 7d a7 be
       0.6694408 -2.3474243 0.3330299 -0.32712936
0000b0 8a 2f 68 3f a6 db ab be 68 8c 77 3f b4 7f b0 be
       0.9069754 -0.33566016 0.9669862 -0.3447243
0000c0 42 30 01 bf d0 33 55 3d 0d 76 da bf fb 38 f6 3e
       -0.5046426 0.052051365 -1.7067276 0.48090348
0000d0 b5 24 a8 be fa 27 27 c0 91 a1 1b bf 1f 1e f5 be
       -0.32840505 -2.611815 -0.60793406 -0.47874543
0000e0 81 2d a7 be ec cd c2 bf 17 e6 e0 be f7 64 26 bf
       -0.32651904 -1.5219092 -0.43925545 -0.6499781
0000f0 c0 6a a1 bf 44 77 22 c0 55 10 74 3e c2 9c e9 bf
       -1.2610703 -2.5385294 0.23834355 -1.8250964

value.2.weight f4 [1, 64]
000000 62 6c f2 bf 9d 6f ad 3f 36 98 bc be ed ea e2 3f
       -1.8939326 1.3549687 -0.36834878 1.7727944
000010 64 ed e1 3f 12 9b 39 3f 17 58 0f bd 5a 65 ef be
       1.7650571 0.72502244 -0.03499612 -0.46757013
000020 93 1e 81 bf 08 30 6c be 54 9f eb 3e a3 86 d2 bd
       -1.0087456 -0.23065197 0.46019995 -0.10279586
000030 d5 76 38 3f c7 19 07 bf 81 36 68 3d 22 2d f8 3c
       0.72056323 -0.5277371 0.056692604 0.030294959
000040 22 e4 8b 3f 39 40 9b 3f f0 c4 1b 40 af 0b 3c 3f
       1.0928996 1.2128974 2.433895 0.7345533
000050 21 e7 ea bf d9 48 03 40 aa e4 d5 3e e2 81 96 bf
       -1.8351785 2.0513213 0.4177602 -1.1758387
000060 04 89 13 c0 b1 38 5f 3f 44 dc 53 be 2d b3 24 bf
       -2.3052378 0.8719588 -0.20689493 -0.643359
000070 e7 0f 77 3c 9d 79 ee bc da ee ef 3d d9 fd 92 bf
       0.015079475 -0.029110724 0.11715479 -1.1483718
000080 23 db 88 3f 87 5a c1 3e 90 e3 44 3f 01 36 de 3e
       1.0691875 0.3776438 0.7690973 0.43400577
000090 c2 08 cb be b0 2b 77 3f 0c bd 1a c0 09 25 94 bf
       -0.3965512 0.96551037 -2.4177885 -1.1573802
0000a0 d3 37 82 be b0 fb c8 bf b2 e3 a1 be 95 9e 93 3f
       -0.25433215 -1.5701809 -0.3161903 1.153277
0000b0 10 90 56 3f 9f 7d b7 bb f3 d4 62 3f 0a 68 9a 3c
       0.8381357 -0.005599692 0.88606185 0.018848438
0000c0 57 fb ba bc e8 96 43 3f 87 76 0d c0 4c ed a1 be
       -0.022824926 0.7640214 -2.2103593 -0.31626356
0000d0 03 aa 83 be 59 5e bb bf 63 a8 00 3e 70 fc 58 bf
       -0.25715646 -1.4638168 0.12564234 -0.8476019
0000e0 bb a4 15 bf 91 3c 52 3f 06 b8 96 be 23 d3 72 3f
       -0.58454484 0.82123667 -0.29437274 0.9485342
0000f0 0e d9 71 3f 65 af 03 c0 99 65 8f bf 0e 51 38 bf
       0.94471824 -2.0575802 -1.120288 -0.7199868

adv.0.weight f4 [64, 128]
000000 b2 67 46 be b2 63 82 3d 24 9a 23 3e da 72 21 3d
       -0.19375494 0.063666716 0.15976769 0.03941617
000010 ca b0 95 39 e9 67 4f 3b 26 07 ce be b4 81 c8 be
       0.00028551213 0.0031647629 -0.4023983 -0.39161456
000020 43 4d 50 3e 9f 29 64 3d 1f 0b 2d 3f dd 50 f0 bd
       0.20341973 0.055703755 0.67595094 -0.117341734
000030 2a 5f b8 be ee 52 47 bf d3 38 7c be 56 ab 7c bf
       -0.36010104 -0.77860916 -0.24631052 -0.9869894
000040 38 85 0f bd 6c ba aa be 1b bb 8e bd f1 5a 31 bd
       -0.035039157 -0.33345354 -0.06969281 -0.04329962
000050 17 5b c6 3c e9 d7 95 bd bb b6 45 bf bb 8a a2 3c
       0.024213357 -0.07316572 -0.7723195 0.019841542
000060 27 2e b3 be 1f 9f 2b 3a 8e 3d b3 bd 40 f9 4c be
       -0.3499615 0.0006546843 -0.08751975 -0.20016956
000070 f8 fb d5 3e b5 b8 5f be 0c 22 1c bc 48 01 14 bd
       0.417938 -0.21847804 -0.009529602 -0.036134034
000080 92 f4 ab 3c 9d f1 95 bf 6c 31 25 be 59 09 12 bf
       0.020990644 -1.171436 -0.16132134 -0.57045513
000090 1a 60 c4 bf 56 f4 33 bf bb be 69 bf 45 46 82 be
       -1.5341828 -0.702947 -0.91306657 -0.25444236
0000a0 9d 86 c1 bd 04 25 c6 bd e4 dc 9f be ee 66 54 bd
       -0.094495036 -0.09675029 -0.31223214 -0.051855974
0000b0 39 c8 f8 be 51 28 9c 3d 8e 83 12 bf 11 78 8c be
       -0.48590258 0.07624877 -0.57231987 -0.27435353
0000c0 ff fe a1 3c 4d 44 7a bf 97 39 95 be bb 1a 03 bf
       0.019774912 -0.9776047 -0.291455 -0.5121266
0000d0 f8 ad 8c 3d 30 66 a2 be a9 54 1f be 49 16 31 3e
       0.068691194 -0.31718588 -0.15559639 0.17293657
0000e0 e7 2a c2 3e 8e 89 4e 3f a6 84 06 bf 4c 3c 4d bd
       0.37923357 0.8067864 -0.52546155 -0.05010633
0000f0 9e 0a 90 bd 22 56 84 bd b7 0d 67 bd 22 0f 82 bf
       -0.07033275 -0.06461741 -0.056409564 -1.0160868
000100 2b 58 5d bf cc 40 01 3e 00 df 6b 3c 0d 49 5c 3d
       -0.8646266 0.12622374 0.014396429 0.053780604
000110 6f 87 2f bf 61 1f 95 bd 19 47 89 bd 64 bf 7d bd
       -0.6856603 -0.07281376 -0.06703014 -0.061950102
000120 4d 9b b3 bf e1 07 36 bf a4 64 6d bf 97 e4 c8 3c
       -1.4031769 -0.7110577 -0.9273169 0.024523063
000130 2b d6 a4 bc a1 16 26 bf 5a 07 9c 3e d2 e5 67 3e
       -0.020121654 -0.6487828 0.3047436 0.22646263
000140 95 00 ce 3d 5a f5 8a be 54 25 87 3f 91 ef 20 bd
       0.10058705 -0.27140313 1.0558267 -0.03929097
000150 e2 c2 65 3d 17 0c 89 bd 66 49 f1 be e2 a6 8d bf
       0.056094058 -0.06691759 -0.4712631 -1.1066554
000160 c8 a7 43 bf 80 d3 e2 be a2 df b5 3a a1 2b ca c0
       -0.7642789 -0.44301987 0.0013875852 -6.317826
000170 30 a4 67 be 51 6f d4 be e0 fc 26 3e fb e2 81 be
       -0.22621226 -0.41491178 0.16307402 -0.25368485
000180 5b f3 32 bd 4e 75 fc be e1 c8 6a bf 3e 60 5e bf
       -0.043689113 -0.49308246 -0.91712767 -0.86865604
000190 1b 2f 59 3f 8b 92 99 3f 7f bb 8e bd 44 34 53 bf
       0.848375 1.1997846 -0.06969356 -0.82501626
0001a0 b0 86 87 bf b4 6d 84 bd b3 c2 6e 3e 19 40 f0 3c
       -1.0587978 -0.06466237 0.2331646 0.02932744
0001b0 8d 15 0e be 94 35 9b 3d 68 c7 25 3c 34 51 60 bd
       -0.13875408 0.075785786 0.010118343 -0.05476494
0001c0 3a 0d 6f bf cc 87 9e bd fd a7 86 be d8 c4 d7 bd
       -0.9337956 -0.07740745 -0.2630004 -0.10535592
0001d0 76 46 ac bf da bf ec 3d e4 d9 81 bd b2 d9 cd bc
       -1.3459003 0.1156003 -0.063403875 -0.02512822
0001e0 0d d0 b5 be 00 94 a1 be 4b 9c 7e bb 65 a5 f7 3c
       -0.35510293 -0.31558228 -0.0038850482 0.030230233
0001f0 47 88 65 be 10 b6 e9 bb 6c a7 aa bd 38 b5 d9 be
       -0.22415267 -0.0071322992 -0.083327144 -0.4252107
000200 44 47 a0 bd a6 fc 21 3f fe 3b a9 be d2 ad aa bf
       -0.07826093 0.63276136 -0.33053583 -1.3334296
000210 81 bf 07 bd 2a a2 47 bd a4 9d fd bd 6c 62 bb be
       -0.033141617 -0.048738636 -0.12383583 -0.36598527
000220 fb 8d 6d bd 48 ae c1 bd 32 1d f0 be bd 92 92 be
       -0.05799673 -0.0945707 -0.46897274 -0.28627577
000230 68 46 04 be 6e d3 1c be cc e3 7b be 74 79 99 be
       -0.12917483 -0.15315029 -0.24598616 -0.29975474
000240 d2 ac 76 3d 4b 3a 60 bf fc 03 16 bd c4 17 22 bf
       0.060223408 -0.8758895 -0.036624894 -0.63317513
000250 89 53 c5 bd 3e d2 b0 bd 70 95 18 3f 08 1c 4a bc
       -0.09635074 -0.086338505 0.59603024 -0.012335785
000260 6b 04 2d bd 29 76 9c 3d 15 89 9a 3c 7f ec 9d be
       -0.04224054 0.07639725 0.018864194 -0.30844495
000270 38 0c c2 be d5 78 c5 bd 66 65 2c 3d 2e d7 d6 3d
       -0.37899947 -0.096421875 0.04208889 0.10490261
000280 88 19 07 bd f2 63 3c bf 2d 1e 43 bf 85 41 95 3c
       -0.032983333 -0.73590004 -0.7621792 0.018219719
000290 91 67 b5 bd 3d c4 57 bd 1f 11 69 bf 97 95 fd bd
       -0.08857644 -0.05267738 -0.9104175 -0.123820476
0002a0 4d 59 6a 3d eb c1 d0 bd d8 0c 33 be 2c 13 bc 3c
       0.05721407 -0.10193237 -0.17485368 0.02295836
0002b0 68 87 f5 bd 49 23 4a bd c1 be 96 bd 7c ff 22 be
       -0.11988717 -0.049350057 -0.07360602 -0.15917772
0002c0 05 d8 54 3e 1b 0e 3b 3b f6 56 49 3f b6 e8 dc be
       0.2078553 0.0028542343 0.78648317 -0.43146294
0002d0 73 0d 8a bc b8 d8 98 3e cd d2 9f 3d 07 7b 6c 3e
       -0.016852116 0.29852843 0.07803879 0.23093806
0002e0 fe 67 ad bd ed 06 42 3e 4b 7c f2 3e 39 f6 a6 bd
       -0.084671006 0.18947954 0.47360453 -0.08152432
0002f0 a6 e9 49 3d db e0 93 bd a0 ff a8 3b 5d b6 87 be
       0.04929509 -0.07220622 0.005157426 -0.2650632
000300 3a c2 b2 3d 00 e3 ae b9 57 af 7b 3d 28 9e 43 3c
       0.08728452 -0.00033356994 0.061446514 0.011939563
000310 bb 20 72 bf ec 3a 71 3d 7f f7 6a bd bf 76 76 3c
       -0.9458119 0.058894083 -0.057364937 0.01504296
000320 56 d9 64 be 5a d3 bc 3b f8 4b 41 be 42 85 39 3d
       -0.22348532 0.0057624998 -0.18876636 0.0452931
000330 03 2d 44 bd 46 2b d6 be ea ea bf 3e 26 18 9b 3e
       -0.04789449 -0.4182989 0.37483913 0.3029186
000340 e0 62 27 bc c8 87 47 be d1 5d 4f 3f 88 1f 8f bc
       -0.010216445 -0.1948539 0.8100253 -0.01747109
000350 c3 5d 9d 3d 6a 72 f9 bc 2f e8 32 bf 6b 7b 9e be
       0.07683899 -0.030450065 -0.69885534 -0.30953535
000360 69 9c 92 3d 01 af c0 be 0a 3e 4b 3d de 63 06 bf
       0.07158739 -0.37633517 0.049619712 -0.52496135
000370 1a 5e 02 be 1d e7 da be ec 3c 41 3e c4 f4 99 bc
       -0.1273121 -0.4275445 0.18870896 -0.018793471
000380 a3 d3 69 bd 99 96 f6 3d e8 4d d5 3e 2e 51 58 bf
       -0.057086598 0.12040443 0.41661 -0.8449887
000390 ec d8 70 3e 23 03 9d be 23 40 aa 3c c3 43 54 bf
       0.23520249 -0.30666456 0.020782536 -0.82915896
0003a0 2e 78 94 bf 8d 8d 7d bd 43 1f b2 be 85 fc f2 be
       -1.1599176 -0.06190257 -0.34789476 -0.47458282
0003b0 ea 93 38 bf 70 7a d2 bc 80 c2 e7 ba 6a 0f 68 3d
       -0.721007 -0.025693148 -0.0017681867 0.056655325
0003c0 38 c1 80 be 54 89 ab bd 9d 53 f1 bd 5d a5 ef bd
       -0.25147414 -0.08375803 -0.11783526 -0.117014624
0003d0 04 d0 9d 3e 6b 6f 47 3e 64 98 2b be 45 58 93 bd
       0.30822766 0.19476096 -0.16757351 -0.071945705
0003e0 6d c0 b5 3c 1e fa 65 bd de 80 66 bd 78 8d 06 bd
       0.022186482 -0.056146733 -0.05627524 -0.03284976
0003f0 15 6f 86 bd 3b 04 a4 3d f0 53 99 3b 0e 70 06 3e
       -0.06564156 0.080086194 0.0046791956 0.13128683

adv.0.bias f4 [64]
000000 24 1a d9 bf ed 9b d2 bf 0c 10 2e bf 95 b5 67 bf
       -1.6961102 -1.6453835 -0.67993236 -0.9051145
000010 1b 53 b5 bf 74 b5 62 bf 12 50 c4 bf d5 25 fd bf
       -1.4165987 -0.88558125 -1.5336936 -1.977717
000020 0c 55 21 bf 2b 53 46 bf a3 40 98 be ca 55 ab bf
       -0.63020396 -0.77470654 -0.29736814 -1.3385556
000030 c5 81 ea be 9b 9f 73 be 40 de 4d bf 66 99 b9 bf
       -0.4580213 -0.23791353 -0.8041725 -1.4499938
000040 ff cf c9 be a1 75 05 c0 a0 88 5f bf 29 f8 b6 bf
       -0.394165 -2.0853045 -0.8731785 -1.4294482
000050 be 7c 9f 3c 53 39 77 be f7 4b 30 bf c7 45 05 c0
       0.019468661 -0.24142961 -0.68865913 -2.0823839
000060 7b 3b e1 be 88 1e 28 bf cd b9 d3 be 61 6b 2b bf
       -0.43990692 -0.65671587 -0.41352692 -0.6696072
000070 5b 85 02 bf d2 63 36 bf f4 e5 41 c0 8b 93 22 bf
       -0.50984734 -0.71246064 -3.0296602 -0.6350638
000080 7e ea 89 3e ff 33 89 be 93 12 9e be 92 71 03 c0
       0.26936716 -0.26797482 -0.30873546 -2.0538068
000090 ee 0a c3 bf 2a 63 4c bf 67 b8 16 3d 1a b8 b7 be
       -1.523771 -0.7983881 0.036796954 -0.35882646
0000a0 91 5f 3b bf 7a c2 98 bd f7 0b 96 bf 4c 8e 1f be
       -0.731927 -0.074589685 -1.1722401 -0.15581626
0000b0 7b 16 0f bf f4 12 2f 3e 5e 2b ba bf 44 39 b5 bf
       -0.5589368 0.17097074 -1.4544485 -1.4158101
0000c0 e0 1f de bf 75 58 5d 3d 47 cd 71 3e 22 23 a0 be
       -1.7353477 0.054039437 0.23613463 -0.31276804
0000d0 1c dd 4b bf 01 cd d9 bf 46 7e 03 bf 4b f1 ab be
       -0.7963426 -1.7015687 -0.5136455 -0.3358253
0000e0 0a 29 39 bf a6 eb 06 c0 49 f0 12 bf 72 d7 c3 be
       -0.72328246 -2.1081328 -0.57397896 -0.3825031
0000f0 bc 8f 08 3e 6c d8 3d bd 74 a8 38 be 1f 0e 01 bf
       0.1333608 -0.046348974 -0.1803301 -0.5041217

adv.2.weight f4 [2, 64]
000000 10 38 05 c0 ec b9 86 3f bf c2 0b c0 a0 2d ae be
       -2.0815468 1.0525489 -2.1837614 -0.34019184
000010 17 fc 8d be c7 eb de 3b ae 36 94 3f 98 9c 04 c0
       -0.27731392 0.006803009 1.1579187 -2.0720577
000020 ed e9 a0 3e 28 32 85 3f b9 15 48 bd 67 fc b1 bf
       0.3142847 1.0405931 -0.04884884 -1.3905152
000030 94 c7 5f 3f 4e 7f e8 3e f1 ef 4d bf 6a e0 4a bf
       0.8741391 0.45409626 -0.80444247 -0.7924868
000040 5b 9f 7c be dc 05 60 bf e7 a5 0a bf a2 1a 42 3f
       -0.24670164 -0.8750894 -0.54159397 0.7582189
000050 4c 5b 7a bf ed 2a 4f 3f 9a 5e 20 3f 8c be 53 bf
       -0.9779556 0.80924875 0.6264435 -0.82712626
000060 a3 60 1a bf 30 f0 90 be dd dd 30 be 1e b9 fe 3e
       -0.60303706 -0.2830825 -0.17272134 0.49750608
000070 6f e7 39 3f f6 c8 79 bf 34 e6 6c bf 48 07 8e 3c
       0.72618765 -0.9757227 -0.9253876 0.017337456
000080 83 26 a0 bf b4 4e 04 3d 34 27 de be 88 e4 91 3f
       -1.2511753 0.03230162 -0.43389285 1.1397867
000090 b9 77 f8 bf 79 f0 f7 3f f4 df 3f 3f b1 22 31 3f
       -1.9411536 1.9370261 0.749511 0.6919356
0000a0 e4 b5 d5 3e 4e 62 56 be 65 e5 af bf 45 71 86 3d
       0.41740334 -0.20935938 -1.3741881 0.06564573
0000b0 dd 61 11 bf 53 c0 1d 3f 6f 84 27 bf 06 04 02 40
       -0.5678995 0.6162159 -0.6543645 2.0314956
0000c0 d8 11 4f c0 c2 69 be 3f 26 ba 5a 3f 27 a6 15 3d
       -3.235464 1.4876025 0.8544029 0.03653541
0000d0 81 32 cb be 2b 31 24 3f c4 cd b4 3e 60 0f da bd
       -0.3968697 0.64137524 0.35313237 -0.10647464
0000e0 e9 82 11 3f 4a 9a b2 3f 3b 1d 3b bf 62 15 28 3e
       0.5684038 1.3953335 -0.7309148 0.16414407
0000f0 eb 12 92 bf 03 2e 32 bd 5a e9 50 bd 05 7a 72 bf
       -1.1412023 -0.04350091 -0.05100379 -0.9471744
000100 c4 06 01 40 54 af 84 bf 9d d5 0f 40 34 47 88 3e
       2.016038 -1.0366006 2.247413 0.26616824
000110 87 57 b0 3e e2 4a 2d 3d 60 18 94 bf ea 89 09 40
       0.34441778 0.042307742 -1.1569939 2.1490426
000120 35 f6 02 be 92 63 81 bf ee d2 c1 bd 81 53 a3 3f
       -0.12789233 -1.0108511 -0.0946406 1.2759858
000130 98 4b 55 bf 6c 6e b9 be c5 e2 2d 3f 16 24 2e 3f
       -0.8331847 -0.36217058 0.6792415 0.6802381
000140 79 c4 2d 3e a4 d8 71 3f 88 f9 d1 3e 5f fb 54 bf
       0.1696948 0.9447119 0.4101069 -0.8319606
000150 57 b5 4d 3f 0b 6e 66 bf 78 ce 27 bf 04 38 4c 3f
       0.8035483 -0.9001166 -0.6554942 0.79772973
000160 ed d7 25 3f 6f f6 7a 3e 8e 46 26 bd 5d 7d 12 bf
       0.647826 0.2450807 -0.04059463 -0.5722254
000170 99 ce 2a bf 1a af 76 3f 11 fe 47 3f ed b9 33 be
       -0.66721493 0.96360934 0.7812205 -0.17551394
000180 81 fa 9c 3f a6 95 2b 3d 4e 45 b2 3e 4e 43 88 bf
       1.2263948 0.041890763 0.348185 -1.064554
000190 f4 8f eb 3f 85 e3 02 c0 4d 1c 5a bf 9b cf 20 bf
       1.8403306 -2.0451367 -0.85199434 -0.6281678
0001a0 5c 6e cc be 92 56 54 3e 3d 8f ac 3f df 70 aa 3c
       -0.39927948 0.20736149 1.3481213 0.020805774
0001b0 73 55 e1 3e 23 9c 15 bf 17 b5 3b 3f 91 86 01 c0
       0.44010505 -0.5844137 0.73323196 -2.0238383
0001c0 92 f9 50 40 5a 7d ae bf 18 50 65 bf c0 d0 13 bc
       3.2652326 -1.3632004 -0.8957534 -0.009021938
0001d0 22 ec d6 3e 3b 2e 45 bf 76 cd c8 be cb b6 c2 3d
       0.4197703 -0.7702367 -0.39219254 0.09507521
0001e0 31 a6 22 bf c6 34 b5 bf 7f 03 36 3f a0 f4 05 be
       -0.6353484 -1.415673 0.71099085 -0.13081598
0001f0 52 25 84 3f 13 3a e3 3d 88 9c 56 3d 3b 7a 82 3f
       1.0323889 0.11095061 0.052395374 1.0193552

adv.2.bias f4 [2]
000000 f6 2a df 3c e4 3c 34 be
       0.027242165 -0.17601353
