curriculum_run_600/checkpoints/ep_0100.pt (torch, 145855 bytes, 11 tensors)

feature.0.weight f4 [128, 16]
000000 35 cc ac 3e 3a fc 59 bf 42 10 1b bf a6 53 3f bf
       0.33749548 -0.8515049 -0.6057168 -0.7473701
000010 9e 1b 33 c0 af e8 38 3f 0c 7a 98 3f cf b8 4d 3f
       -2.7985606 0.72230047 1.1912246 0.8036012
000020 13 4d 1d 3f 1b 0f 0d 3f 63 ad f5 bd 70 66 8c be
       0.6144573 0.55101174 -0.119959615 -0.27421904
000030 81 62 fd bd 6b 75 ba 3e 84 c4 14 40 e7 4d ab bf
       -0.12372304 0.36417708 2.3244944 -1.3383149
000040 51 49 86 3e 74 fb bd bd fe ca e6 be 30 e6 7c be
       0.2622781 -0.092764765 -0.45076746 -0.24697185
000050 03 e2 ac 3e 88 3f 6c 3e 97 d5 22 3f ee d4 fb 3e
       0.33766183 0.2307111 0.6360716 0.4918589
000060 78 03 5a bf 57 90 fb be c9 40 6c be eb 07 1a bf
       -0.8516154 -0.4913356 -0.23071589 -0.6016833
000070 b5 87 b5 be 8a 24 ca be 52 0a 74 3e d8 51 03 bf
       -0.354551 -0.39481002 0.23832062 -0.5129676
000080 d5 3b ed be 27 35 a8 3e f7 e7 86 3e 1e 0c d3 3d
       -0.4633471 0.32853052 0.2634885 0.103050455
000090 0c ac 61 be fa b4 0e 3e 84 94 69 3e d6 53 bd 3e
       -0.22038287 0.13936225 0.2281056 0.36978024
0000a0 35 c8 0b 3e a5 61 15 3e e6 cd 6b 3f cd 95 57 3f
       0.13650592 0.1458803 0.9211105 0.8421295
0000b0 41 6f 31 3e 76 d6 e5 be 9c eb e0 be 85 21 11 bf
       0.17327596 -0.44890183 -0.43929756 -0.5669177
0000c0 0f 92 bf 3e 91 8c b7 3e 3d d1 ee 3e 15 f5 30 3f
       0.3741612 0.3584943 0.4664401 0.69123966
0000d0 3c a1 af 3f f5 0e 26 bf a5 87 6f be 63 43 80 be
       1.372108 -0.6486657 -0.23391588 -0.25051412
0000e0 a6 a8 67 3f 34 a1 7c 3f f3 86 b7 3e a6 d5 12 3e
       0.9049171 0.98683476 0.35845146 0.14339313
0000f0 15 aa db 3e e2 86 58 bf 98 6f 24 bd 05 72 48 bf
       0.429032 -0.84580815 -0.040145487 -0.7829898
000100 10 20 04 3f a2 9f fa bd c2 96 de bd ab 6b 34 3e
       0.51611423 -0.12237479 -0.108685985 0.17619197
000110 bb 1b ac 3f 92 92 3f bd b4 da 3d be 03 51 10 3e
       1.3445963 -0.04677064 -0.1854046 0.14093404
000120 83 0d 37 3f d1 20 09 3f 17 95 2c bd 57 63 26 bd
       0.7150499 0.535657 -0.04213437 -0.04062208
000130 6c bd da 3d 56 6b b9 c0 71 b2 ef 3e b8 be a9 3c
       0.106806606 -5.7943525 0.46815827 0.020720825
000140 86 41 02 3f 36 4b 01 3f da 65 7d 3e 11 b2 bf 3e
       0.5088123 0.5050539 0.24745885 0.3744054
000150 ac a4 0e c0 64 0a 56 3f 2c 0d 75 3f a9 84 8b 3f
       -2.2288008 0.83609605 0.95723224 1.089986
000160 02 d8 f4 be 46 b2 c5 be 25 cb 24 3c 00 5a fc 3d
       -0.4782105 -0.38612574 0.010058199 0.12321854
000170 75 6d db 3e 7d bb b5 3e 2d 8b a3 3f c3 5d fc be
       0.42856947 0.35494605 1.2776848 -0.49290285
000180 aa 14 f1 3e 1f 40 b5 be 83 1e 66 be 54 c3 0b be
       0.47086078 -0.35400483 -0.22472577 -0.1364873
000190 c3 22 9e be e1 85 fb bc 18 73 0d 3e 0a f2 17 3e
       -0.30885896 -0.030703487 0.13813436 0.14838424
0001a0 38 b7 3a 3e 70 a6 43 3e 11 11 a7 3e 75 8d fb 3d
       0.18233955 0.1910646 0.32630208 0.1228284
0001b0 85 00 40 3e 48 d0 0f bf 78 83 00 3e ff 72 25 bf
       0.18750198 -0.56177187 0.12550151 -0.64628595
0001c0 86 19 b6 3e 8a 6b 15 bd 98 b5 42 3d d0 db 12 3d
       0.35566348 -0.03647951 0.047536463 0.03585416
0001d0 eb 17 02 c0 84 05 14 bf 66 48 1d bf 62 4a 19 bf
       -2.0327098 -0.57820916 -0.61438596 -0.59879124
0001e0 52 57 71 3e 79 c3 08 3f 21 39 8f be 99 a6 ec be
       0.23568466 0.5342327 -0.27973273 -0.46220854
0001f0 77 bc 8a bf 67 c0 6b bf c4 c4 ee bf e2 a5 6f 3e
       -1.0838765 -0.9209046 -1.8653798 0.23403123
000200 cc 54 25 c0 9d fb 87 be 9c 48 5e be c3 8f c3 be
       -2.5833006 -0.26559153 -0.21707386 -0.3819562
000210 be a8 f4 3f b0 25 39 c0 42 82 4d c0 8a 4c 49 c0
       1.9113996 -2.8929253 -3.2110753 -3.1452966
000220 70 d2 73 3f 2c 8e 7a 3f 83 f1 8a 3e 5b bf ab 3e
       0.9524298 0.9787319 0.27137384 0.3354443
000230 d3 05 9b be 90 4b db 3e 7e 32 05 3f 90 83 6f 3d
       -0.3027788 0.42831087 0.5203017 0.058475077
000240 31 a9 f4 bf e0 0c 84 3f 6d 8e 5c 3f 03 04 75 3f
       -1.9114133 1.0316429 0.86154824 0.95709246
000250 16 d3 e3 3f 71 3d 65 be 83 d3 52 be 77 96 42 be
       1.7798793 -0.2238672 -0.20588498 -0.1900271
000260 6c 24 38 3f f1 66 09 3f bd 1f 89 bd dc 1c b7 be
       0.71930575 0.536727 -0.06695507 -0.35764205
000270 39 40 4b 3f 2f f7 c2 be c4 17 28 be 74 f7 2c be
       0.7939487 -0.3807921 -0.16415316 -0.16891271
000280 58 b6 8c 3f d9 1c 7d bf 5b ed 6a bf 67 ee 9f bf
       1.0993147 -0.98872143 -0.91768426 -1.249463
000290 33 b7 61 be 2b e0 dc be 9f fc bf be 33 16 8f be
       -0.22042541 -0.43139777 -0.37497422 -0.27946624
0002a0 74 2d a9 3e f0 5e 85 3e 35 92 e8 be 84 df 08 bf
       0.3304249 0.26048994 -0.45424047 -0.5346606
0002b0 7b d5 00 be 36 fc bb bf 41 11 7a bf 0d 4a 81 3d
       -0.12581436 -1.4686344 -0.9768258 0.06312952
0002c0 4f f7 fa be 11 07 d3 bc 31 ae 00 be 96 6f 0c bd
       -0.49016806 -0.025760205 -0.12566449 -0.034286104
0002d0 df 29 cf 3f 66 ed 64 3e 4a 37 fd 3d f8 a5 54 bd
       1.6184653 0.22356185 0.12364061 -0.051916093
0002e0 46 42 f8 be aa f0 26 bf ac 32 05 be d4 63 01 be
       -0.48488063 -0.65210974 -0.13007611 -0.12635738
0002f0 90 14 4e 3e 21 46 2a c0 53 5a 3c 3f 44 66 f8 bd
       0.20125031 -2.6605303 0.73575324 -0.121288806
000300 ac 29 19 bb 26 09 c3 3e a1 b9 82 3e b6 44 e3 3e
       -0.0023370786 0.38092917 0.2553225 0.4438836
000310 d8 20 3a c0 aa d4 0b 3e e2 2c 91 bd 73 d4 64 bd
       -2.9082546 0.13655344 -0.07088639 -0.05586667
000320 8b fd 4f 3f 6f 05 49 3f c7 15 75 3f 5d 78 41 3f
       0.8124625 0.78523916 0.95736355 0.75574285
000330 52 04 25 3f 30 e4 8a be 1f 5e 36 3f 30 32 73 bf
       0.6445972 -0.27127218 0.7123737 -0.94998455
000340 b6 82 44 bf c5 f6 9d 3f ea 19 82 3f c1 4a 43 3f
       -0.7676195 1.2340933 1.0164158 0.7628594
000350 89 c7 ab 3f f1 be bd be 95 f0 11 be ed ca a6 be
       1.3420268 -0.3705974 -0.14251931 -0.32576695
000360 8a 89 e1 3c 1d 76 5b 3e 06 c5 8f 3f 9e 9e ab 3f
       0.027531404 0.21431775 1.1232002 1.3407781
000370 32 1c 3a 3f a5 01 09 bf 4b 85 0d bf c6 4d 00 3e
       0.7269927 -0.53518134 -0.55281514 0.12529668
000380 98 f2 80 bf 46 19 4d 3f ca 0e 13 3f cc 9a 15 3f
       -1.0074034 0.8011669 0.5744444 0.58439326
000390 53 8b ca bf 04 9f b3 be 41 46 26 bf e2 6c fe be
       -1.5823768 -0.35082257 -0.6495095 -0.49692446
0003a0 57 e7 fd be 33 4a 16 bf a7 5e 21 3f 85 59 44 3f
       -0.4959056 -0.5870697 0.63035053 0.76699096
0003b0 92 a2 e8 3e b5 3f c4 be d5 ac b9 3e dd 64 30 be
       0.4543653 -0.38329855 0.36264673 -0.17225976
0003c0 c6 ae e6 3f 7c 74 44 be f0 1b 9c bd eb 6c 1b bd
       1.8022087 -0.1918506 -0.07622516 -0.03794567
0003d0 3a ca 22 c0 7f c8 12 3f 33 87 44 3f 3f 1e 18 3f
       -2.543593 0.5733718 0.767688 0.5942115
0003e0 78 ec 50 3f 86 69 7e 3f 43 1d a2 bf 28 f7 8d bf
       0.8161082 0.99379766 -1.266518 -1.1091051
0003f0 32 18 39 3f 6a b3 40 be 42 2b c3 3d e0 c6 23 be
       0.72302544 -0.18818441 0.09529735 -0.15993834

feature.0.bias f4 [128]
000000 10 5c 1e bf 08 89 83 be b6 4d b4 be ff 2e eb 3e
       -0.61859226 -0.25690484 -0.3521554 0.45934293
000010 a1 7e b8 3f 76 44 66 3f 7b 14 09 bf d2 e2 7b 3f
       1.4413644 0.89948213 -0.53546876 0.98392975
000020 40 a5 8c 3f ed 2b ce bd 4e 3d ed be c3 31 ac 3f
       1.098793 -0.10066972 -0.46335834 1.3452686
000030 21 41 d5 3e cb 9b 7e 3e 3f bd 19 3f b2 e6 13 c0
       0.41651252 0.24864118 0.6005439 -2.3109555
000040 66 7f a5 bf 2d 62 13 40 bb 09 e7 3f 15 56 a3 3e
       -1.2929504 2.3028672 1.8049845 0.31901613
000050 fe 77 4f 3f 40 a9 04 40 2b fb ba 3f 1f c8 ae be
       0.8104247 2.0728302 1.46079 -0.34137055
000060 b9 2f 38 be 78 ab 72 3f a0 6d 74 bd e4 da a0 bf
       -0.17986955 0.9479289 -0.05967486 -1.25668
000070 2e a2 57 3f e5 85 a1 be 77 35 7a 3f fa 9e 3d bf
       0.8423184 -0.31547466 0.9773783 -0.74070704
000080 6f 96 c4 be d5 2f 26 c0 8f 77 86 bf 57 75 60 bd
       -0.38396022 -2.5966694 -1.0505236 -0.054799404
000090 ca 20 0a 3f 51 74 c5 3f 4a d0 2c 3f 26 bb 9e bd
       0.5395628 1.5426122 0.67505324 -0.077505395
0000a0 79 39 6a bf 6d 63 ea 3f e2 50 fe be 80 a6 b2 3f
       -0.91493946 1.8311592 -0.49671084 1.3957062
0000b0 c7 49 1e be b8 ac 38 bf 25 83 26 c0 a8 5e 75 3f
       -0.15457831 -0.7213855 -2.6017544 0.9584756
0000c0 6f ca 8b 3f 89 2f 21 c0 53 67 e2 3e 1d c4 0b bf
       1.0921153 -2.5185263 0.44219455 -0.5459612
0000d0 fd 99 21 bf a3 a5 b2 be b1 b9 52 3f a1 a1 6a 3f
       -0.6312559 -0.34891996 0.8231459 0.91652876
0000e0 9e a1 dc bd c3 94 00 bf af 46 32 3e 5e 2d 16 bf
       -0.107730135 -0.5022699 0.17409776 -0.58662975
0000f0 7e ff 70 bf 60 4e 33 bc 04 ef e7 3e 8d 9d 93 3f
       -0.9413985 -0.010943979 0.45299542 1.1532456
000100 db 25 07 c0 88 37 0b c0 c6 ed a0 bf 22 88 dd bb
       -2.1116855 -2.1752644 -1.2572563 -0.006760613
000110 aa 14 09 3f 90 23 9e 3f d2 d8 42 be 27 43 88 3f
       0.53547156 1.2354603 -0.19028023 1.0645493
000120 e6 70 dd be ce bd 35 bf 0e 53 c8 bf 5e da ea bf
       -0.43250197 -0.70992744 -1.5650346 -1.834789
000130 77 d3 77 3f 7e 3d d6 bf b2 d9 0b c0 fd 43 24 3f
       0.96807045 -1.6737516 -2.185162 0.6416624
000140 9f 53 21 be d6 01 e3 bf 53 f4 3a 3e 4c a0 48 3e
       -0.15754555 -1.7734935 0.18257265 0.19592398
000150 57 4d f8 be 34 99 2f bf 3f 25 45 3e a4 b4 07 bf
       -0.48496506 -0.68593144 0.1925249 -0.5301001
000160 60 dd 33 3e 57 9e a4 bf 74 51 50 be d9 f7 60 bf
       0.17564917 -1.2860821 -0.20343572 -0.87878186
000170 3e 16 46 bf 15 22 2c bf 81 39 28 bf 0b 74 09 40
       -0.7737769 -0.67239505 -0.65712744 2.1477077
000180 2a 24 41 be 88 7a 83 bf 34 47 24 be 6c 52 76 be
       -0.18861452 -1.0271769 -0.16042787 -0.24054879
000190 e0 e3 82 3f 0d 57 2c bf 29 55 60 c0 3c 74 40 bf
       1.0225792 -0.6732033 -3.5051978 -0.7517736
0001a0 37 9f 86 bf 4e 03 4c bf fd db b8 3e 57 d7 00 3f
       -1.0517339 -0.7969254 0.36105338 0.5032858
0001b0 b4 55 ac 3c 67 70 94 bd f8 04 e7 3e 62 e7 b6 bf
       0.02103696 -0.072480015 0.45120978 -1.4289362
0001c0 fc 3b aa bf fa 86 40 3f ec 7f dc 3e c3 16 0c 40
       -1.3299556 0.7520596 0.43066347 2.1888893
0001d0 c3 d6 3d 3e ab 8b 76 3f b0 65 15 bd 2e f8 99 3f
       0.18538956 0.96306866 -0.03647393 1.2028863
0001e0 20 f5 0c c0 45 7e a1 3f c0 da 80 bf cd 67 b1 bd
       -2.2024612 1.2616659 -1.0066757 -0.086623766
0001f0 88 ff 8c 3f f1 03 22 bf ff 8c 57 3f 32 fe a6 bf
       1.1015482 -0.63287264 0.8419952 -1.3046324

feature.2.weight f4 [128, 128]
000000 72 40 bf bd 16 08 3d bf 2d 49 b0 bd 8f f4 55 3d
       -0.09338464 -0.73840463 -0.08607707 0.052235182
000010 5c 1b a4 be 0f ae db 3d 9d 3d 50 bd ce 4f 86 bf
       -0.32052124 0.107265584 -0.05084001 -1.0493104
000020 f5 ef 6b 3c 2e 93 82 be 8f a7 09 be d9 9c 88 be
       0.014400472 -0.25502914 -0.13442825 -0.26682165
000030 26 79 07 3e 65 3b 85 bd a1 3b 0b 3c 77 c8 86 3c
       0.13229808 -0.06505469 0.008498103 0.016453011
000040 c6 36 a1 3d 96 c6 91 bd e3 76 28 3f 6b d3 64 be
       0.07871775 -0.071179554 0.65806407 -0.22346275
000050 b2 09 5e 3f 11 32 6c be 95 72 a5 bf ac 5e 70 3b
       0.86733544 -0.23065974 -1.2925593 0.0036677523
000060 0e f9 b2 be 9a 4d d3 bc 68 5a 58 3c c7 6a cc 3c
       -0.3495564 -0.02579384 0.013205148 0.02495326
000070 6c bd 01 3d 26 63 a8 bc da b2 15 bf f0 c6 91 3e
       0.031674787 -0.02055509 -0.5847603 0.2847209
000080 24 7c e1 3d f5 af 06 bf 55 4c 60 be 55 49 36 bd
       0.11010006 -0.5261224 -0.21904118 -0.04450353
000090 88 32 ad bd a7 6b a3 be c5 26 87 3d 2a 07 70 3d
       -0.08456904 -0.3191807 0.065991916 0.058600582
0000a0 cd bd fd bd ce 9c 35 be 62 2d 8a be 65 6a c3 bd
       -0.12389717 -0.17735597 -0.2698775 -0.095417775
0000b0 18 bf 2b bd 94 38 89 bd 5b 42 45 3d 07 86 2d be
       -0.041930288 -0.067002445 0.048158985 -0.16945659
0000c0 4a c1 78 be 35 68 c2 bb 9b 4f cc 3d 1e 96 c8 be
       -0.24292484 -0.0059328326 0.09976121 -0.3917703
0000d0 f4 b5 69 3d 4b 1e 18 3d af fb 05 be c0 5b 9d bd
       0.05705829 0.037138265 -0.13084291 -0.076835155
0000e0 5f a3 54 be 2c d0 1d bf 6f 14 0e 3e cc 4e 51 be
       -0.20765446 -0.6164577 0.13874982 -0.20440215
0000f0 02 14 07 3e 95 e4 46 bd e6 96 51 be ae 50 0b 3e
       0.13191226 -0.048557837 -0.2046772 0.13604996
000100 3c 82 37 be b5 40 aa be ea c0 e8 bd 3d 1a 38 3c
       -0.17920774 -0.33252493 -0.113649204 0.011236724
000110 c2 3d 8e be 98 a8 73 be 61 7d 80 be cd f5 53 bf
       -0.27781492 -0.23794782 -0.25095657 -0.8279694
000120 5c 23 cd 3d 6e a8 52 be ed 4f d9 3d f7 b7 03 bf
       0.1001651 -0.20572063 0.10610948 -0.51452583
000130 70 9e 2f bf 1a 3c 90 be 0f a3 b4 bd 2c 45 d6 3e
       -0.6860113 -0.28170854 -0.088201635 0.4184965
000140 0b 69 9e be 4e c7 34 be 3a f1 ce 3d db cb 13 3d
       -0.30939516 -0.17654154 0.10104604 0.036083084
000150 99 08 f2 3e 2d 57 cc be e1 04 85 bf 0c 10 33 bf
       0.47272184 -0.3991026 -1.0392114 -0.6994636
000160 2f 97 20 bb 9a 87 9a 3e 5b 2a 17 3e 80 c6 12 be
       -0.0024504175 0.3018158 0.14762251 -0.14333534
000170 7d a5 60 bf b7 67 a1 bd a7 0f 38 be e5 28 0a 3f
       -0.87752515 -0.0788111 -0.17974721 0.5396865
000180 eb 15 11 be 15 98 66 3e b8 c5 50 be bf c3 9e be
       -0.14168517 0.22518952 -0.20387924 -0.31008717
000190 5a e6 17 be b2 c3 27 3e c4 7e a0 3c 81 7f 1c be
       -0.14833966 0.16383246 0.019591697 -0.15283014
0001a0 77 08 17 bf 57 9d 07 be 9c bf 11 bf ed c0 31 3b
       -0.5899729 -0.13243614 -0.56933 0.002712305
0001b0 d0 b0 7d 3e fe df 93 3d e8 5b 49 3d ca b5 43 bf
       0.2477448 0.072204575 0.049159914 -0.76449263
0001c0 db d3 9b ba 2e eb 83 be 9b 92 85 bf 07 74 99 3c
       -0.0011888699 -0.25765365 -1.0435365 0.018732084
0001d0 4f c3 1b bf 7a 4c 6d be 3c 0a b4 bd 9b 88 39 3c
       -0.6084489 -0.23173705 -0.087910146 0.011324073
0001e0 95 58 89 be bd 6d f2 bf c6 a6 cd be 68 1b 4c 3e
       -0.26825395 -1.893974 -0.401663 0.1993233
0001f0 6b a0 37 3f 99 14 83 bd c0 67 09 3f a8 0c 30 bd
       0.71729153 -0.06400413 0.53673935 -0.04298082
000200 f5 2f 75 be 12 b3 0e 3d 46 90 26 3e 0a 7c d3 3e
       -0.23944075 0.034838744 0.16265973 0.41305572
000210 38 99 4a 3c 8d d8 39 be ec d8 fa bd 9d 97 63 3e
       0.012365632 -0.18149014 -0.12248406 0.22225805
000220 30 df 29 bf 2f 8a a2 bd df ca db be 72 df 3d 3e
       -0.6635618 -0.07936513 -0.42928216 0.18542269
000230 e4 a5 fd bd d4 39 58 3e 1b f9 82 3d 1f 6d 23 3d
       -0.12385157 0.2111581 0.06395169 0.039898988
000240 80 8a 96 ba 42 d3 2b be af c4 76 be 37 f9 00 3f
       -0.0011485368 -0.16779807 -0.24098466 0.5038027
000250 32 91 15 be 31 88 81 be 03 13 77 be 6d ab 38 be
       -0.14606169 -0.25299218 -0.24128346 -0.18034144
000260 72 89 98 be 68 46 f1 bd 56 c2 33 3d 4b b4 47 be
       -0.29792362 -0.11781007 0.043886505 -0.1950237
000270 db a3 4a be 35 56 13 bf 07 38 ad bd a6 29 94 bd
       -0.19789068 -0.57553416 -0.08457952 -0.07234506
000280 bd 1d 9d be cf e8 a0 be d8 a7 35 be 7b 80 62 3c
       -0.3068675 -0.3142762 -0.17739809 0.013824577
000290 29 f5 99 3e 6c df 99 3d 75 23 d1 be 40 d3 42 be
       0.30069855 0.075133175 -0.40847364 -0.19025898
0002a0 fa b4 1e be d5 9c 30 bf bb 19 ff bd 94 84 38 be
       -0.15498725 -0.68989307 -0.124560796 -0.18019325
0002b0 1a df 98 3d 65 e9 af bf a7 14 27 3e 51 07 90 be
       0.07464428 -1.3743101 0.16316472 -0.28130582
0002c0 ac e8 7e bd 44 b5 15 3d 18 0d 41 3e f3 2b b4 be
       -0.062233612 0.03654982 0.18852651 -0.3518978
0002d0 d7 5b 19 bd 25 53 a9 3c 85 0d 4f bd 45 17 99 bd
       -0.0374411 0.02066953 -0.050550003 -0.074751414
0002e0 fd 38 18 bd 4e 95 08 3d 72 27 50 3e 01 f3 ca bd
       -0.037163723 0.033345513 0.20327547 -0.099096306
0002f0 cc 2f c1 bd 90 26 0d bc 71 0d a2 bd 10 91 a4 bc
       -0.09432945 -0.008615151 -0.0791272 -0.020088702
000300 a4 98 fb 3d e4 56 cf 3e 0b 58 62 bd f8 3c 9e bd
       0.12284973 0.4049598 -0.055259746 -0.077264726
000310 67 c9 f1 3e 60 58 aa bc 10 ba a9 be d9 71 58 3d
       0.4722397 -0.020794094 -0.33149767 0.05284295
000320 82 12 0e bf 87 8e 2f bd 5b 24 bd bc ab ca 3d 3f
       -0.5549699 -0.042860534 -0.023088625 0.7413737
000330 55 63 cf 3c af 5a e6 bc 49 b8 bd 3d f7 0d b1 bd
       0.02531592 -0.028119413 0.09263665 -0.08645242
000340 ab 31 5b 3e ae 45 7d bf 2a cc 0e bf e9 6e 8c bc
       0.21405666 -0.9893445 -0.5578028 -0.01714273
000350 30 b3 a8 3e 7a b5 47 bf 7f e3 c2 be cc a8 7e bd
       0.3294921 -0.78011286 -0.3806419 -0.062172696
000360 2e d0 1e bd 0d b9 05 bd 37 b3 b5 3d 76 d6 04 bd
       -0.038772754 -0.03264718 0.08872073 -0.03243109
000370 60 1a 46 3f b3 04 32 be 4d 2c 86 3c 28 cb 3d be
       0.77383995 -0.17384605 0.016378546 -0.18534529
000380 dc a8 db be 89 59 02 bf 7f c1 d6 bd ff 83 06 bf
       -0.42902267 -0.5091787 -0.10486125 -0.5254516
000390 59 7b 31 be 64 68 58 bf d5 bf c4 3d 76 a8 ea 3d
       -0.1733221 -0.8453429 0.096069016 0.114579126
0003a0 81 db ea bc 54 0f 84 be 0b a0 89 bd 31 65 d4 be
       -0.02866912 -0.25792944 -0.06719979 -0.41483453
0003b0 36 e6 fa 3d bb 58 9d 3d 41 1d 4e be e9 f0 0d bd
       0.122509405 0.076829396 -0.20128347 -0.034653578
0003c0 1b 46 75 be f0 79 18 be 7a dc 3d be 5e 51 58 be
       -0.23952524 -0.14890265 -0.18541136 -0.21124789
0003d0 71 75 07 3e 7c e3 99 3d 30 4a a4 bb b1 c7 1e bf
       0.13228394 0.07514092 -0.0050137267 -0.62023455
0003e0 04 83 7a be c3 83 1a 3e 1a 2c 8b bd 57 d7 37 bf
       -0.24464041 0.15089326 -0.06795521 -0.7181296
0003f0 1f 4b 5c be 4a 59 63 bf 2a a5 57 be fe 61 03 bf
       -0.21513031 -0.8880812 -0.21059099 -0.513214

feature.2.bias f4 [128]
000000 26 f7 1c be 28 d2 02 be f9 7b 5f 3f ff 99 c2 3f
       -0.15328655 -0.12775481 0.8729854 1.5203246
000010 68 17 88 bb 2c 54 40 bd 4e c5 c4 bc a1 9e 0f 3f
       -0.004153181 -0.046955273 -0.024019863 0.56101424
000020 f8 a3 77 3e c7 43 6e be cc 46 18 3f e0 bf 25 3e
       0.24183643 -0.23268043 0.5948303 0.16186476
000030 00 7d 26 3e d2 2f d4 be c4 27 52 be 99 23 d1 3c
       0.16258621 -0.41442734 -0.20522982 0.02552967
000040 4e bc a3 bc 3d f1 f5 be 6a d6 33 bd 22 c6 9c 3f
       -0.019987252 -0.48035613 -0.043905653 1.2247965
000050 ab f3 3b be 0d 61 11 be 9b 62 18 c0 41 3d 04 be
       -0.1835467 -0.14197178 -2.3810184 -0.12913992
000060 80 5d 40 3d 4c 1a 01 be 78 9d 1d be 05 d2 ce be
       0.04696417 -0.12607688 -0.15392101 -0.40394607
000070 3c 93 84 ba ae 83 3f 3f 11 2c 2a be 0b 09 8e 3e
       -0.001011468 0.748103 -0.16618372 0.27741274
000080 21 bd 22 bb 0e b7 e1 3e dc 3e 28 3e bf be 94 bd
       -0.0024831968 0.44084972 0.16430229 -0.072629444
000090 8a 04 cf 3e a3 a5 87 3e 64 c4 79 3e 7c c4 63 3e
       0.4043315 0.26493558 0.24391323 0.22242922
0000a0 38 b0 01 be a1 46 75 3d dd 8b 19 3e 88 88 dd bd
       -0.12664878 0.05988181 0.1499476 -0.10817057
0000b0 d1 ca 10 3e d4 a5 1a be 76 ad a7 be 15 05 0f 3d
       0.14139868 -0.15102321 -0.32749528 0.034916956
0000c0 d1 ca 13 c0 a5 d8 8e be 8a 22 c7 bf db 57 54 bf
       -2.309254 -0.27899662 -1.5557415 -0.82946557
0000d0 88 8d 8d bd b9 cd bf 3e fa ea 9d 3d ff bd b4 3e
       -0.069117606 0.3746164 0.07710834 0.35301206
0000e0 d4 08 8d 3d c9 f7 e6 be 37 24 03 3e 52 10 2b be
       0.068864495 -0.4511092 0.12806784 -0.16705444
0000f0 26 85 54 bd b7 1d 46 bd e9 af 2d bd 61 70 87 3f
       -0.051884793 -0.048368182 -0.04240409 1.058117
000100 f1 55 58 3e 39 2b f0 bd d2 e6 40 be 2e db 97 bd
       0.21126534 -0.11726994 -0.18838051 -0.07414852
000110 1e 06 e7 bd ab 15 eb bb b9 0d 17 be 69 e1 1f be
       -0.11280464 -0.007174214 -0.14751329 -0.15613331
000120 52 ba 69 3e 47 84 25 bf bd 01 81 3e fd 8a 56 bd
       0.22824982 -0.64654964 0.2519664 -0.052378643
000130 e8 d0 0c be 86 00 47 3d fa 6e cc 3e c4 32 12 be
       -0.13751566 0.048584484 0.39928418 -0.14277178
000140 b5 39 1d 3f 1d 73 55 3e 78 d2 e3 be 7e 06 9d bd
       0.6141618 0.20844693 -0.44496512 -0.07667254
000150 a1 12 d7 bd 9b d3 a6 bd 49 59 ec 3e 60 32 81 3e
       -0.105016 -0.08145829 0.4616187 0.25233746
000160 46 4f 6e be 15 ab 13 bf 2a b5 23 bd 16 d7 91 3e
       -0.23272428 -0.57682925 -0.039967693 0.2848441
000170 8f e0 25 bd b7 c5 7c 3f 0b 54 71 bf 53 85 f0 bc
       -0.04049736 0.9873919 -0.94268864 -0.029360449
000180 d4 54 1f be 83 eb 69 bd cb 5e 8a 3e ce cc 20 3f
       -0.15559703 -0.057109367 0.27025446 0.6281251
000190 41 2e 50 bd 22 3f 0d bf cf 03 33 3f 67 1e 17 3f
       -0.05082536 -0.5517446 0.69927686 0.59030765
0001a0 5c c5 9b 3f 26 22 ef bd 39 99 c7 3e 53 bf 2a be
       1.2169604 -0.11676435 0.38984087 -0.16674547
0001b0 f9 74 00 3f ad 68 90 3b 12 9b 68 bd c2 39 16 be
       0.50178486 0.0044070096 -0.05678851 -0.1467047
0001c0 d8 b4 45 3f 03 1b f9 bd 77 97 e9 be d0 63 16 3c
       0.7722907 -0.12163355 -0.4562337 0.009179071
0001d0 6f 1d 80 3e 4b e9 a4 3d df 8b 0e 3f 40 b6 a5 bc
       0.25022456 0.080523096 0.55682176 -0.020228505
0001e0 70 c9 38 bd a9 f1 02 3f 61 28 a9 bd 46 5f c4 bd
       -0.04511398 0.51149994 -0.08259655 -0.095884845
0001f0 74 ca 45 3e cd 26 13 be 4f d4 01 bc 69 d9 ee be
       0.19315511 -0.1437027 -0.0079241535 -0.46650246

value.0.weight f4 [64, 128]
000000 dc 7c 20 3f a5 b1 14 bc eb c0 89 bf 5c af 49 bf
       0.6269052 -0.009075557 -1.0761999 -0.787832
000010 72 fa a5 bc 51 fb b5 bd fc 8d 0d be c5 0e 32 bf
       -0.020261023 -0.088858254 -0.13823694 -0.69553787
000020 23 96 3d bf 69 c6 34 3d 48 52 52 be d5 f9 35 3b
       -0.74057215 0.04413453 -0.205392 0.002776732
000030 2a c6 2f bf 20 82 96 bd a2 c5 24 bf 38 96 38 bf
       -0.6866175 -0.07349038 -0.64364064 -0.72104216
000040 92 78 ff bb 05 ad 5f bf 6a 89 81 3c d3 fc ba bf
       -0.0077963555 -0.8737338 0.015812594 -1.4608406
000050 8e 12 c8 be 13 13 a1 bd 26 ee 1c c0 00 79 95 bb
       -0.39076656 -0.07864966 -2.4520354 -0.0045615435
000060 d9 5e 10 3e ba e0 84 bc ec f2 a8 3d b8 bf e3 bd
       0.14098682 -0.01622044 0.08249459 -0.11120552
000070 a0 ab 8a bc 29 85 15 3c 00 97 06 3c 1a a8 84 bf
       -0.01692754 0.009125986 0.008214712 -1.03638
000080 cc da 78 bd 70 8c 0d c0 1e 27 e9 bd af 5b a0 bd
       -0.060755536 -2.2116966 -0.11384414 -0.07829987
000090 dd 0f 57 bc dd 85 60 bf 57 24 60 bf 12 e6 49 be
       -0.013126341 -0.8770426 -0.8755545 -0.19716671
0000a0 f5 85 22 be 05 89 ae be af eb 99 be c2 4d 6e bd
       -0.15871413 -0.34088913 -0.30062625 -0.058179624
0000b0 44 2b 11 bf 4d 66 cd bd af b6 ae bc 4a cf 84 3d
       -0.56706643 -0.10029278 -0.021327345 0.0648485
0000c0 60 c2 72 3e 93 f6 aa be f8 49 5e bf ee 76 8c be
       0.2370696 -0.33391246 -0.8683162 -0.27434486
0000d0 70 10 97 bc 72 23 af be d4 c5 b7 be 69 69 e0 bf
       -0.018440455 -0.3420673 -0.35893118 -1.7532169
0000e0 97 82 3c bf 74 0e ad 3f 92 4b 06 bf 12 80 15 3d
       -0.73636764 1.3520036 -0.5245906 0.03649909
0000f0 f4 4c 14 3d 80 74 87 3a 52 09 52 3d 87 a7 05 c0
       0.0362062 0.0010334402 0.05127842 -2.08835
000100 28 a5 61 be 6b 07 92 3d 4a 2c 64 3d 54 49 8c 3c
       -0.22035658 0.07130321 0.0557063 0.01712481
000110 48 c1 80 be 8b c6 13 3d a2 71 cb 3d 77 aa dc bd
       -0.25147462 0.036078017 0.09933783 -0.10774701
000120 4d de b1 be 68 36 08 3f 49 05 4d bf 39 9d 00 bd
       -0.34739915 0.5320802 -0.8008619 -0.03139994
000130 d6 9a 47 be e0 23 ce be 3c c6 fc be 9a 79 86 3d
       -0.19492659 -0.40261745 -0.4936999 0.065661624
000140 57 35 c5 be 8e 31 19 bc f8 4b 59 3f fc ff 76 3d
       -0.38517258 -0.009350194 0.84881544 0.06030272
000150 1a 6a cf 3c d3 f0 48 bd 0b 66 af be f8 38 28 be
       0.025319148 -0.049057793 -0.3425754 -0.16427982
000160 45 1d 6e be 13 bc 4d 3e 0f 76 86 bc c0 e1 c7 3e
       -0.23253353 0.20091276 -0.016413717 0.3903942
000170 48 bc b6 be e5 1d 39 3c 91 df a0 3e 4a 37 d5 be
       -0.35690522 0.011298631 0.31420568 -0.41643745
000180 3f 96 68 3c 66 7a 95 3e 74 93 ac 3e 85 86 3a bd
       0.014195978 0.29194945 0.33706248 -0.045538444
000190 86 20 bf be c1 94 7e be 7e c1 00 c0 8f a8 5b bf
       -0.373295 -0.24861433 -2.0118098 -0.85804075
0001a0 ff 4f 4b be 2c c1 cd 3c bd 48 e2 be fc 29 72 bf
       -0.19854735 0.025116526 -0.4419612 -0.94595313
0001b0 b1 9e b2 bf 03 6f 9e 3d 49 12 49 3d 93 d1 49 3d
       -1.3954679 0.077360176 0.049089704 0.04927213
0001c0 29 18 d2 be 72 fc cc bc d5 72 86 be ad 50 7e be
       -0.41034058 -0.025022719 -0.26259485 -0.24835463
0001d0 96 6c 8d be 9b 83 7c bf 76 24 5c 3e da 42 64 bd
       -0.27621907 -0.98638314 0.21498284 -0.055727817
0001e0 bc 4c 41 3f 76 78 b1 3e 4d 98 8e 3d fd ea 27 3d
       0.7550771 0.34662217 0.06962643 0.040995587
0001f0 5c c9 43 be 3a 47 94 bd 48 6e d7 3c e0 de 00 3f
       -0.19119781 -0.07240148 0.026297703 0.5034008
000200 27 ad ab bd 68 ae 0b bd e4 f5 0f be 4e dd 6f bf
       -0.083826356 -0.034101874 -0.14058644 -0.9369706
000210 e4 9f 9e bd ac 74 b3 bd 3d 8f 9a be b6 37 b5 bc
       -0.077453405 -0.08762488 -0.30187407 -0.022121292
000220 10 e5 87 3e de 4b 03 3a 23 8a 06 bf e7 0b a1 be
       0.26541948 0.00050085585 -0.5255453 -0.31454393
000230 50 4d b9 3d 34 ed a8 3c 01 23 fe bd c3 c6 87 bd
       0.09047949 0.02062092 -0.1240902 -0.06629708
000240 4e 31 90 bd 94 85 4a 3e 7f 78 57 3d 9c a9 f3 bd
       -0.07040654 0.19777519 0.05260515 -0.11897585
000250 cd 4e a5 bd b9 09 69 bd 73 56 71 3f 00 58 c0 3a
       -0.08071671 -0.056894038 0.94272536 0.0014674664
000260 b1 a4 3f bf dc 36 0e be 88 bf 0e bd 54 db d7 bd
       -0.74860674 -0.13888115 -0.034850627 -0.105398804
000270 e9 e3 1c 3b 3b 52 20 be 0e 5b 7e bd 2f ec 88 bd
       0.0023939556 -0.15656368 -0.062098555 -0.066856734
000280 9a 28 4a 3d aa fa 40 3d 21 de ba 3e d3 73 43 3d
       0.049355127 0.047114052 0.36497596 0.04771788
000290 fd 31 93 bd 27 80 bf be 48 77 e5 bd 67 89 27 bd
       -0.07187269 -0.3740246 -0.11204392 -0.04090252
0002a0 0d 01 0e be f9 02 35 be 38 53 1d bd 40 69 2a bd
       -0.13867588 -0.17676915 -0.03840944 -0.04160428
0002b0 af dc d7 bd 66 e5 3c 3d f5 26 92 3d 53 64 f0 bd
       -0.10540139 0.04611721 0.07136337 -0.11737885
0002c0 62 f8 de be 1e d9 7c 3d b1 71 c8 ba ce 23 cf bd
       -0.43548876 0.061730497 -0.0015292672 -0.10114251
0002d0 c6 da 58 3d 06 06 87 be 23 ec 42 be ef 05 6d bd
       0.052943014 -0.26371783 -0.19035392 -0.057866987
0002e0 9c 79 01 be da 85 42 3f a5 85 2c 3d a5 81 a2 3d
       -0.12644047 0.7598549 0.04211964 0.07934884
0002f0 91 bc 0d bd d3 87 b1 bd 6f 26 5e bd 1c 1e 89 bf
       -0.03460366 -0.086684845 -0.054235872 -1.0712314
000300 8c 5c 63 bd b0 c2 af bb 36 c4 7b 3d cf 1a 58 bd
       -0.05550818 -0.0053637847 0.06146642 -0.05275994
000310 01 cd bb be be 83 1d 3d 90 fb f5 3b 78 e0 e7 3d
       -0.36679843 0.038455717 0.007506795 0.11322111
000320 8b 04 14 3d 58 1b 01 bf 56 78 f9 be 2d 9a 64 3d
       0.036137145 -0.5043235 -0.48724622 0.055811096
000330 0d e7 99 bd 70 3d af be 46 81 75 bd 17 a9 c4 3d
       -0.075147726 -0.3422656 -0.059937738 0.09602564
000340 ba 71 f8 be f7 ff 12 3d 7e 47 1f 3e d3 d4 b3 3d
       -0.48524266 0.03588864 0.15554616 0.087808274
000350 a4 41 09 bd e8 d4 0e 3d a0 45 9b be 05 42 30 be
       -0.033509865 0.034871012 -0.30326557 -0.17212684
000360 a4 fa 98 bd 21 27 e7 3d 79 c6 1e bc aa f9 1b 3c
       -0.07469681 0.1128676 -0.009690874 0.009519974
000370 e4 0e 69 3d 72 01 4a 3c 7e 40 99 be f5 2c c1 3e
       0.056898966 0.012329446 -0.29932016 0.37729612
000380 27 7c ef 3c 4c ed 73 3c 62 0b 9e 3e 4b 6e 17 be
       0.029234005 0.014888119 0.3086806 -0.14788167
000390 2c de 9e bc 67 63 4d be 06 c8 13 bc 30 33 90 be
       -0.01939305 -0.2005745 -0.009019857 -0.28164053
0003a0 a5 f8 ca be 00 a8 c9 39 81 c4 31 be f6 e4 30 be
       -0.39642826 0.00038462877 -0.17360117 -0.17274842
0003b0 ed a3 e8 bc 18 66 8a bd 68 d6 8f bc ce 70 7d 3d
       -0.028398478 -0.06757754 -0.017558292 0.061875157
0003c0 c2 2f a1 be 1d 59 9a bd 56 10 2c be 1d a6 99 bc
       -0.3148175 -0.07536528 -0.16803107 -0.018755967
0003d0 c7 cc cb bd 2d f2 59 be 17 50 1b bf e1 1d de ba
       -0.099511676 -0.21283789 -0.6066908 -0.001694616
0003e0 0d 7c 2f be 2f d7 38 bd 74 92 86 bd 7f 9b b1 3d
       -0.17137165 -0.04512709 -0.065709025 0.08672237
0003f0 56 7c c9 bd 5c ad cc bc 54 4b 87 bc af 01 8f be
       -0.09838168 -0.024985008 -0.016515411 -0.27930972

value.0.bias f4 [64]
000000 fd 97 4d 3d 60 60 24 bf d5 36 c3 3f e6 cd a0 bf
       0.050193775 -0.64209557 1.5251108 -1.2562835
000010 5f 03 b6 3f 78 51 41 3f 3c 59 76 be d0 7a 88 be
       1.4219779 0.75514936 -0.24057478 -0.26656199
000020 cd 6e 15 3f 27 c0 86 bf e9 7d a7 bf b7 a6 47 3f
       0.58372194 -1.052739 -1.30853 0.7798876
000030 b5 93 dc bf 82 b5 5e 3e 30 cb 0f 40 f2 12 d5 bd
       -1.7232577 0.21748927 2.2467766 -0.10404004
000040 95 a5 b4 3f 10 03 a8 3f ad 64 2f 3f f2 5b 12 c0
       1.4113032 1.3125935 0.68512994 -2.286862
000050 2c 14 6d 3d 89 c5 ad 3f 7a 06 9f bf 70 32 cd 3d
       0.057880566 1.3575908 -1.2423851 0.10019386
000060 76 8f 0c 3f 5c c5 7a be fa b5 8a 3f 8e c6 83 3e
       0.54906404 -0.24489349 1.0836785 0.25737423
000070 48 0b 62 3f b4 2f ba bd 7d 0b 78 3f 2b e6 56 be
       0.88298464 -0.0909113 0.9689253 -0.2098624
000080 f8 a5 0c 3f 1a f3 97 bd 47 47 63 3e 11 c8 04 3f
       0.5494075 -0.07419415 0.22195159 0.5186778
000090 5a 4e 63 3f 1a 3f ff 3d 20 13 e1 be 9f 0a fc be
       0.8879143 0.124632075 -0.43959904 -0.49226853
0000a0 16 fd 43 3f 84 ea 9a bf e7 56 9e 3e a0 be 1e bf
       0.76558053 -1.2102818 0.30925676 -0.6200962
0000b0 fb 8d 9b 3f 6b 48 4f be 08 b8 3b 3f ca 74 92 be
       1.2152704 -0.20242469 0.73327684 -0.28604728
0000c0 25 4a 72 3f 75 be ba bf b6 ad ac be 5c 21 85 3e
       0.94644386 -1.4589373 -0.3372628 0.26002014
0000d0 1d 1c 81 3f 66 a4 57 3f 48 8d ea be da 34 a2 be
       1.0086704 0.8423523 -0.45810914 -0.31680948
0000e0 99 5c 7d ba 2d cb ea bf 0f cf 65 3f 85 e4 bb bf
       -0.0009664982 -1.8343254 0.8976907 -1.4679114
0000f0 d7 5e 33 bf e8 6c f9 bf 17 0d 8b bf 86 28 14 bf
       -0.7006659 -1.948636 -1.086337 -0.57874334

value.2.weight f4 [1, 64]
000000 a3 44 da bf ed 78 da 3f 8e 16 10 bf 04 a3 03 40
       -1.7052196 1.7068154 -0.56284416 2.0568247
000010 d5 ad ab 3f 7e a6 65 3f 0b 67 b0 bc bd eb d2 be
       1.3412424 0.8970717 -0.02153351 -0.4119548
000020 7f c9 a1 bf 4f 7f 40 be 74 ea 97 3e 13 3a a8 be
       -1.2639617 -0.18798564 0.2967106 -0.32856807
000030 c9 5b 08 3f 8a b0 26 bf 64 fc d7 be 22 2d f8 3c
       0.53265053 -0.6511313 -0.42184746 0.030294959
000040 99 0c 02 be 11 b9 a4 bd d7 3d b4 3f c3 31 3d 3f
       -0.12700118 -0.08043111 1.4081372 0.73904055
000050 4e 65 df bf a3 d7 b6 3f 1c f2 2b 3f f3 5f b3 bf
       -1.7452791 1.4284557 0.67166305 -1.4013656
000060 2e 5d 17 c0 7b 9b 3b 3f 20 8a ea bd c0 5e 47 bf
       -2.3650622 0.7328412 -0.114521265 -0.7787895
000070 36 f4 39 be 1f 5b b1 bb 6e e9 2f be 06 26 bf 3a
       -0.18159565 -0.005412474 -0.1717889 0.0014583475
000080 65 ee 7a 3f 39 8a 1e be 58 de 22 3f 53 0c b2 3e
       0.9802001 -0.15482415 0.6362052 0.34775028
000090 e4 bb 30 be 13 ee 76 3f 12 e5 0d c0 ac e7 e8 be
       -0.17259175 0.9645702 -2.2171063 -0.45489252
0000a0 c8 41 f4 be 63 b8 92 bf 69 9a 66 bf 3f ab fa 3e
       -0.47706437 -1.146252 -0.9007936 0.48958775
0000b0 78 3d 56 3f 1d 1c 5d bc 11 17 33 3f e2 0f b3 3c
       0.83687544 -0.013495472 0.6995707 0.02185816
0000c0 11 0d 9d be 1c ab 19 3f b9 e8 1a c0 c1 a2 07 bf
       -0.3067403 0.6002672 -2.4204543 -0.5298272
0000d0 27 40 11 be 6d f2 22 be 35 06 a4 3e f9 0f 00 bd
       -0.14184628 -0.1591279 0.32035986 -0.031265233
0000e0 ed bc 4e bf b2 6b 38 3f 41 15 17 be ad 25 95 3f
       -0.8075703 0.7203933 -0.14754201 1.1652123
0000f0 aa a8 2f 3f 32 f3 54 c0 6b a0 8c bf 38 5e 4b bf
       0.68616736 -3.3273435 -1.0986456 -0.7944064

adv.0.weight f4 [64, 128]
000000 b2 67 46 be b2 63 82 3d 24 9a 23 3e 7b bd ff 3e
       -0.19375494 0.063666716 0.15976769 0.4994925
000010 ca b0 95 39 e9 67 4f 3b 26 07 ce be b4 81 c8 be
       0.00028551213 0.0031647629 -0.4023983 -0.39161456
000020 43 4d 50 3e 9f 29 64 3d db 9b 42 3f dd 50 f0 bd
       0.20341973 0.055703755 0.76019067 -0.117341734
000030 2a 5f b8 be ee 52 47 bf d3 38 7c be 56 ab 7c bf
       -0.36010104 -0.77860916 -0.24631052 -0.9869894
000040 38 85 0f bd 6c ba aa be 1b bb 8e bd 2a 02 6f bd
       -0.035039157 -0.33345354 -0.06969281 -0.058351673
000050 17 5b c6 3c e9 d7 95 bd bb b6 45 bf bb 8a a2 3c
       0.024213357 -0.07316572 -0.7723195 0.019841542
000060 3e 11 04 bf 1f 9f 2b 3a 8e 3d b3 bd 40 f9 4c be
       -0.5158881 0.0006546843 -0.08751975 -0.20016956
000070 f8 fb d5 3e e4 0c 54 be 0c 22 1c bc 94 5b de be
       0.417938 -0.20708042 -0.009529602 -0.43429244
000080 92 f4 ab 3c 5e d7 70 bf 6c 31 25 be 59 09 12 bf
       0.020990644 -0.94078624 -0.16132134 -0.57045513
000090 1a 60 c4 bf d1 75 41 bf 40 62 94 bf 45 46 82 be
       -1.5341828 -0.755704 -1.1592484 -0.25444236
0000a0 9d 86 c1 bd 04 25 c6 bd da dc 4a be ee 66 54 bd
       -0.094495036 -0.09675029 -0.1981081 -0.051855974
0000b0 39 c8 f8 be 51 28 9c 3d 0c f3 e7 bd 11 78 8c be
       -0.48590258 0.07624877 -0.113256544 -0.27435353
0000c0 ff fe a1 3c 4d 44 7a bf 88 f4 d3 be bb 1a 03 bf
       0.019774912 -0.9776047 -0.413975 -0.5121266
0000d0 f8 ad 8c 3d 30 66 a2 be a9 54 1f be 49 16 31 3e
       0.068691194 -0.31718588 -0.15559639 0.17293657
0000e0 e7 2a c2 3e 2e df 36 3f a6 84 06 bf 4c 3c 4d bd
       0.37923357 0.71434295 -0.52546155 -0.05010633
0000f0 9e 0a 90 bd 22 56 84 bd b7 0d 67 bd 1a 7d 87 bf
       -0.07033275 -0.06461741 -0.056409564 -1.0585053
000100 2b 58 5d bf 80 98 2a 3b 00 df 6b 3c 0d 49 5c 3d
       -0.8646266 0.0026030838 0.014396429 0.053780604
000110 85 3a 41 bf 61 1f 95 bd 19 47 89 bd 64 bf 7d bd
       -0.7547992 -0.07281376 -0.06703014 -0.061950102
000120 4d 9b b3 bf da 9c 62 be a4 64 6d bf 97 e4 c8 3c
       -1.4031769 -0.22130147 -0.9273169 0.024523063
000130 2b d6 a4 bc 76 ab 3a bf 5a 07 9c 3e d2 e5 67 3e
       -0.020121654 -0.7291788 0.3047436 0.22646263
000140 8b 26 29 be 5a f5 8a be 54 25 87 3f 91 ef 20 bd
       -0.16518609 -0.27140313 1.0558267 -0.03929097
000150 e2 c2 65 3d 17 0c 89 bd 66 49 f1 be e2 a6 8d bf
       0.056094058 -0.06691759 -0.4712631 -1.1066554
000160 c8 a7 43 bf 80 d3 e2 be a2 df b5 3a 8a 28 c4 c0
       -0.7642789 -0.44301987 0.0013875852 -6.1299486
000170 30 a4 67 be 2b 8f 95 be e0 fc 26 3e 47 f7 4e be
       -0.22621226 -0.2921079 0.16307402 -0.20211516
000180 5b f3 32 bd a4 fe ef be e1 c8 6a bf 3e 60 5e bf
       -0.043689113 -0.46873963 -0.91712767 -0.86865604
000190 2f c8 58 3f 8b 92 99 3f 7f bb 8e bd 44 34 53 bf
       0.84680456 1.1997846 -0.06969356 -0.82501626
0001a0 50 9b cf bf b4 6d 84 bd b3 c2 6e 3e 19 40 f0 3c
       -1.6219273 -0.06466237 0.2331646 0.02932744
0001b0 8d 15 0e be 94 35 9b 3d 68 c7 25 3c 34 51 60 bd
       -0.13875408 0.075785786 0.010118343 -0.05476494
0001c0 83 22 0a bf cc 87 9e bd fd a7 86 be d8 c4 d7 bd
       -0.5395891 -0.07740745 -0.2630004 -0.10535592
0001d0 76 46 ac bf da bf ec 3d e4 d9 81 bd b2 d9 cd bc
       -1.3459003 0.1156003 -0.063403875 -0.02512822
0001e0 0d d0 b5 be 00 94 a1 be 4b 9c 7e bb 65 a5 f7 3c
       -0.35510293 -0.31558228 -0.0038850482 0.030230233
0001f0 47 88 65 be 10 b6 e9 bb 6c a7 aa bd f7 db 39 be
       -0.22415267 -0.0071322992 -0.083327144 -0.18150316
000200 44 47 a0 bd a6 fc 21 3f fe 3b a9 be c7 59 4e bf
       -0.07826093 0.63276136 -0.33053583 -0.8060574
000210 81 bf 07 bd 2a a2 47 bd a4 9d fd bd 6c 62 bb be
       -0.033141617 -0.048738636 -0.12383583 -0.36598527
000220 fb 8d 6d bd 48 ae c1 bd 32 1d f0 be bd 92 92 be
       -0.05799673 -0.0945707 -0.46897274 -0.28627577
000230 68 46 04 be 6e d3 1c be cc e3 7b be 74 79 99 be
       -0.12917483 -0.15315029 -0.24598616 -0.29975474
000240 d2 ac 76 3d 4b 3a 60 bf fc 03 16 bd c4 17 22 bf
       0.060223408 -0.8758895 -0.036624894 -0.63317513
000250 89 53 c5 bd 3e d2 b0 bd 6c d8 16 3f 08 1c 4a bc
       -0.09635074 -0.086338505 0.58923984 -0.012335785
000260 6b 04 2d bd 29 76 9c 3d 15 89 9a 3c 7f ec 9d be
       -0.04224054 0.07639725 0.018864194 -0.30844495
000270 38 0c c2 be d5 78 c5 bd 66 65 2c 3d 94 18 af 3d
       -0.37899947 -0.096421875 0.04208889 0.0854961
000280 88 19 07 bd f2 63 3c bf 2d 1e 43 bf 85 41 95 3c
       -0.032983333 -0.73590004 -0.7621792 0.018219719
000290 91 67 b5 bd bb 50 ab bc 1f 11 69 bf 97 95 fd bd
       -0.08857644 -0.020912519 -0.9104175 -0.123820476
0002a0 4d 59 6a 3d eb c1 d0 bd d8 0c 33 be 2c 13 bc 3c
       0.05721407 -0.10193237 -0.17485368 0.02295836
0002b0 68 87 f5 bd 49 23 4a bd 67 9a fe bd 7c ff 22 be
       -0.11988717 -0.049350057 -0.12431794 -0.15917772
0002c0 e8 f1 cd 3e 1b 0e 3b 3b 81 ae 51 3f b6 e8 dc be
       0.40223622 0.0028542343 0.81906897 -0.43146294
0002d0 73 0d 8a bc b8 d8 98 3e cd d2 9f 3d 07 7b 6c 3e
       -0.016852116 0.29852843 0.07803879 0.23093806
0002e0 fe 67 ad bd ed 06 42 3e 4b 7c f2 3e 39 f6 a6 bd
       -0.084671006 0.18947954 0.47360453 -0.08152432
0002f0 a6 e9 49 3d db e0 93 bd a0 ff a8 3b 5d b6 87 be
       0.04929509 -0.07220622 0.005157426 -0.2650632
000300 3a c2 b2 3d 00 e3 ae b9 57 af 7b 3d 28 9e 43 3c
       0.08728452 -0.00033356994 0.061446514 0.011939563
000310 71 1e 6e bf ec 3a 71 3d 7f f7 6a bd bf 76 76 3c
       -0.930152 0.058894083 -0.057364937 0.01504296
000320 56 d9 64 be 75 6d 4e 3e f8 4b 41 be 42 85 39 3d
       -0.22348532 0.20158942 -0.18876636 0.0452931
000330 03 2d 44 bd 46 2b d6 be ea ea bf 3e 26 18 9b 3e
       -0.04789449 -0.4182989 0.37483913 0.3029186
000340 e0 62 27 bc c8 87 47 be d1 5d 4f 3f 88 1f 8f bc
       -0.010216445 -0.1948539 0.8100253 -0.01747109
000350 c3 5d 9d 3d 6a 72 f9 bc 2f e8 32 bf 6b 7b 9e be
       0.07683899 -0.030450065 -0.69885534 -0.30953535
000360 69 9c 92 3d 01 af c0 be 0a 3e 4b 3d ee 5b de be
       0.07158739 -0.37633517 0.049619712 -0.43429512
000370 1a 5e 02 be a8 2a eb be ec 3c 41 3e c4 f4 99 bc
       -0.1273121 -0.45930982 0.18870896 -0.018793471
000380 a3 d3 69 bd 99 96 f6 3d e8 4d d5 3e 2e 51 58 bf
       -0.057086598 0.12040443 0.41661 -0.8449887
000390 ec d8 70 3e 23 03 9d be 23 40 aa 3c c3 43 54 bf
       0.23520249 -0.30666456 0.020782536 -0.82915896
0003a0 d6 e9 7c bf 8d 8d 7d bd 43 1f b2 be 85 fc f2 be
       -0.98794305 -0.06190257 -0.34789476 -0.47458282
0003b0 ea 93 38 bf 70 7a d2 bc 80 c2 e7 ba 6a 0f 68 3d
       -0.721007 -0.025693148 -0.0017681867 0.056655325
0003c0 38 c1 80 be 54 89 ab bd 9d 53 f1 bd 5d a5 ef bd
       -0.25147414 -0.08375803 -0.11783526 -0.117014624
0003d0 04 d0 9d 3e 6b 6f 47 3e 64 98 2b be 45 58 93 bd
       0.30822766 0.19476096 -0.16757351 -0.071945705
0003e0 6d c0 b5 3c 1e fa 65 bd de 80 66 bd 78 8d 06 bd
       0.022186482 -0.056146733 -0.05627524 -0.03284976
0003f0 15 6f 86 bd 3b 04 a4 3d f0 53 99 3b df 58 94 3c
       -0.06564156 0.080086194 0.0046791956 0.018108783

adv.0.bias f4 [64]
000000 7b 97 e8 bf 9f 8e d3 bf 5c 71 a5 be 8e e9 26 bf
       -1.8171228 -1.65279 -0.3231305 -0.65200126
000010 8d 08 a0 bf 30 83 3d bf 67 4d a6 bf 15 6c fd bf
       -1.250261 -0.740283 -1.2992371 -1.9798609
000020 66 92 34 be a2 e1 5f bf 88 03 53 be 41 a1 a4 bf
       -0.17633972 -0.87453663 -0.20606816 -1.2861711
000030 72 fe c9 be d6 c5 1f be c7 79 a7 bf 7b 91 6d bf
       -0.3945194 -0.15602812 -1.3084038 -0.9280011
000040 c5 9d bb be 6d a5 10 c0 08 97 07 be e8 b3 a6 bf
       -0.36643806 -2.2600968 -0.13241208 -1.3023653
000050 9f c0 fb bd 03 22 16 be 61 c9 18 bf ce 5f c4 bf
       -0.12292599 -0.14661412 -0.5968228 -1.5341737
000060 2c c8 69 3e 88 1e 28 bf 41 2d b9 be 98 1d 56 bf
       0.22830266 -0.65671587 -0.36167338 -0.83638906
000070 5b 85 02 bf 0d cd 83 bf 16 ce 41 c0 84 bf 1d bf
       -0.50984734 -1.0296952 -3.0282035 -0.61620355
000080 64 67 7c 3e a8 d0 2f be ac 49 95 be 1c 66 e9 bf
       0.24648815 -0.1716944 -0.2915777 -1.8234286
000090 ed 98 99 bf 15 6c 0c bf e2 37 82 be af 3f 78 bd
       -1.1999794 -0.5485242 -0.2543326 -0.06060761
0000a0 86 41 37 bf 33 4d 09 be 7b 88 95 bf 4c 8e 1f be
       -0.71584356 -0.13408355 -1.1682276 -0.15581626
0000b0 90 da 11 bf 4d 2e 03 3e fc 6a b2 bf 41 e1 94 bf
       -0.56974125 0.12810631 -1.3938899 -1.1631242
0000c0 84 24 f2 bf d0 01 e3 3c 00 4b 4d 3e 3b da 20 be
       -1.8917394 0.027710825 0.20048141 -0.15708248
0000d0 a9 31 22 bf 6f d8 a9 bf fa f6 c2 be 60 26 9f be
       -0.63357025 -1.3269175 -0.38079053 -0.31083965
0000e0 0a 29 39 bf be f9 dc bf 8a 15 f6 be 11 de 50 be
       -0.72328246 -1.7263715 -0.48063308 -0.20397212
0000f0 31 fa b0 bd a5 28 e0 be 5f e9 2c be 1f 0e 01 bf
       -0.0864147 -0.4378101 -0.16885899 -0.5041217

adv.2.weight f4 [2, 64]
000000 af 0d 5f c0 1c f1 88 3f 87 a6 25 c0 d8 e1 18 bf
       -3.4852102 1.0698581 -2.588289 -0.5971961
000010 f0 c8 af be a2 84 75 bd 1b e5 8b 3f 2c 35 0f c0
       -0.3433299 -0.05994094 1.0929292 -2.2376204
000020 aa 9e b4 3d fa 20 bd 3f b1 0e 9c bd cb 3d f2 bf
       0.08819325 1.4775689 -0.0761999 -1.8925108
000030 47 fc 6f 3f 75 b7 4a 3d 0f 28 8e bf 04 57 00 c0
       0.9374432 0.049491365 -1.1105975 -2.005311
000040 54 c6 70 be 03 c3 88 bf 69 48 87 bf 90 48 67 3f
       -0.23513156 -1.0684513 -1.0568973 0.90345097
000050 c4 12 80 bf d5 d1 f0 3e 6b ae ae 3f 01 49 b6 bf
       -1.0005727 0.4703509 1.3646978 -1.4241029
000060 6d e3 df 3e 30 f0 90 be 17 e0 69 be cd 06 0b 3f
       0.437282 -0.2830825 -0.2283939 0.5430725
000070 6f e7 39 3f f9 b3 91 bf 90 fe a2 bf 81 70 a1 3d
       0.72618765 -1.1383048 -1.2733936 0.078827865
000080 cd 50 97 bf d7 f2 61 be a2 34 dc be 4e 51 93 3f
       -1.1821533 -0.22065292 -0.43008906 1.1509187
000090 ee fe 1b c0 3f 9d 0f 40 07 7d 1b 3f ad 5c 81 3f
       -2.4374347 2.2439725 0.6073765 1.0106407
0000a0 aa d7 32 3f 38 bb 37 bc e4 78 f2 bf 45 71 86 3d
       0.6986033 -0.01121407 -1.8943143 0.06564573
0000b0 67 61 1d bf e2 05 69 3f 86 f5 80 bf 7e ab ee 3f
       -0.6147675 0.910246 -1.0074928 1.8646085
0000c0 5c a4 54 c0 ec de 0f 40 70 ec 20 3f 74 8c fd 3c
       -3.3225317 2.247981 0.62860775 0.030950762
0000d0 13 a1 07 bf d2 a1 81 3f 25 5f c5 bc e2 d5 fa bd
       -0.52980155 1.0127509 -0.02409322 -0.12247826
0000e0 e9 82 11 3f b5 d7 06 40 01 5e 45 bf de c8 a4 3c
       0.5684038 2.1069157 -0.77096564 0.020115312
0000f0 2d 35 39 bf 73 77 ac 3e e4 57 f1 bb 05 7a 72 bf
       -0.72346765 0.33684883 -0.0073652137 -0.9471744
000100 63 dc 5a 40 7e e6 86 bf 65 b9 29 40 b4 ee 05 3f
       3.4197013 -1.0539091 2.6519406 0.5231736
000110 68 24 d2 3e 75 56 df 3d c5 c6 8b bf 7e 22 14 40
       0.410434 0.10905162 -1.0920035 2.3146052
000120 20 1d c9 3d 68 52 b9 bf 21 cf 89 bd d6 94 e3 3f
       0.09820008 -1.4478273 -0.0672896 1.7779796
000130 4b 80 65 bf 4c d0 2d 3d fd 42 7c 3f 30 50 f2 3f
       -0.89648885 0.042434976 0.98539716 1.8930721
000140 6e eb 21 3e 61 ac 91 3f 2b e8 6c 3f 50 29 7a bf
       0.15812466 1.1380731 0.9254176 -0.9771929
000150 74 7f 53 3f f7 ab 0f bf 4d 66 b2 bf d3 85 b2 3f
       0.82616353 -0.5612177 -1.393747 1.394709
000160 5d f4 c8 be 6f f6 7a 3e 5a 0a 77 3c 71 27 1e bf
       -0.39248934 0.2450807 0.015078152 -0.6177893
000170 99 ce 2a bf 11 27 90 3f 80 8a 90 3f d5 b0 72 be
       -0.66721493 1.1261922 1.1292267 -0.23700269
000180 cb 24 94 3f 1a f6 96 3e bb 52 b0 3e 14 b0 89 bf
       1.1573728 0.29484636 0.34438118 -1.075686
000190 20 8b 15 40 6b 88 16 c0 67 b9 35 bf 15 66 72 bf
       2.3366165 -2.3520763 -0.70986027 -0.94687015
0001a0 e4 33 2e bf b7 fe 16 3c c4 22 ef 3f df 70 aa 3c
       -0.6804793 0.009216002 1.8682485 0.020805774
0001b0 2a 54 f9 3e 86 e1 60 bf d5 0d 8b 3f 8c b0 ed bf
       0.48697025 -0.8784412 1.0863596 -1.8569503
0001c0 16 8c 56 40 dc e8 07 c0 9c 82 2b bf c2 43 61 bb
       3.3523002 -2.1235876 -0.6699617 -0.0034372662
0001d0 e3 7d 0d 3f aa 20 92 bf fd 39 75 bc 47 7d e3 3d
       0.5527021 -1.1416218 -0.014967439 0.11107879
0001e0 31 a6 22 bf ef 24 08 c0 45 44 40 3f bf 7a 58 3c
       -0.6353484 -2.1272542 0.7510417 0.013212859
0001f0 0d 5b 1d 3f 7d ee 89 be 46 78 0f 3c 3b 7a 82 3f
       0.6146706 -0.26939765 0.008756703 1.0193552

adv.2.bias f4 [2]
000000 e2 24 2e be db 65 ae 3c
       -0.17006257 0.021288803
