curriculum_run_600/checkpoints/ep_0050.pt (torch, 145855 bytes, 11 tensors)

feature.0.weight f4 [128, 16]
00000000: 14be 673e f840 5abf 0055 1bbf 6498 3fbf
00000010: fbe0 40c0 d45b 413f bfb3 9c3f f42b 563f
00000020: 354b ea3e 63cf c93e 0166 ca3d b80d 63bd
00000030: a964 d3bd 11c2 ba3e ff70 1840 af38 a8bf
00000040: 5149 863e 74fb bdbd feca e6be 30e6 7cbe
00000050: 03e2 ac3e 883f 6c3e 97d5 223f eed4 fb3e
00000060: 7803 5abf 5790 fbbe c940 6cbe eb07 1abf
00000070: b587 b5be 8a24 cabe 520a 743e d851 03bf
00000080: d53b edbe 2735 a83e f7e7 863e 1e0c d33d
00000090: 0cac 61be fab4 0e3e 8494 693e d653 bd3e
000000a0: 35c8 0b3e a561 153e e6cd 6b3f cd95 573f
000000b0: 416f 313e 76d6 e5be 9ceb e0be 8521 11bf
000000c0: 0577 d73e 590e d73e 8129 073f ebb5 403f
000000d0: 6ee8 ad3f f50e 26bf a587 6fbe 6343 80be
000000e0: ba69 4b3f 6462 603f f386 b73e a6d5 123e
000000f0: 8b96 df3e 1ae7 74bf e957 713d 338f 5bbf
00000100: 696e 213f a29f fabd c296 debd ab6b 343e
00000110: fe4f 983f 9292 3fbd b4da 3dbe 0351 103e
00000120: 3931 363f 8744 083f 1795 2cbd 5763 26bd
00000130: a77a 043e bf26 b6c0 f38b e13e dc59 083d
00000140: e3d1 b23e 5f7b dc3e 2e30 313e f196 993e
00000150: f23a 0fc0 16d9 583f dedb 773f 8deb 8c3f
00000160: 2eb3 fcbe 648d cdbe 33d9 183e a05c 863e
00000170: 16bb cb3e d8ab ae3e 6d15 a63f d2f2 fabe
00000180: aa14 f13e 1f40 b5be 831e 66be 54c3 0bbe
00000190: c322 9ebe e185 fbbc 1873 0d3e 0af2 173e
000001a0: 38b7 3a3e 70a6 433e 1111 a73e 758d fb3d
000001b0: 8500 403e 48d0 0fbf 7883 003e ff72 25bf
000001c0: fe94 0e3f bea4 eebe 98a0 c3be cc9b c9be
000001d0: f2d3 07c0 5fbd a1be df42 b4be eb46 acbe
000001e0: 5f6f cb3e 5a25 323f 8094 74bf 78a5 91bf
000001f0: 6630 72bf f462 72bf 7237 e7bf 1127 6a3e
00000200: 16b1 34c0 9af7 88be 5140 60be d48b c4be
00000210: caff ea3f db81 36c0 6dde 4ac0 b5a8 46c0
00000220: 3db3 643f f96e 6b3f e415 a33e bce3 c33e
00000230: 5405 a0be f9e4 e93e f558 fa3e 0260 aebc
00000240: 4175 06c0 e4d8 663f 904d 3b3f 26c3 533f
00000250: f49c 0040 b8c8 b1be c693 a8be 4875 a0be
00000260: b8f5 403f 4c38 123f 40fe 98bc 9164 9ebe
00000270: 8397 333f 9714 a7be d587 f8bd 900b 53be
00000280: 923d 9f3f d91c 7dbf 5bed 6abf 67ee 9fbf
00000290: 73d7 a4be be03 03bf e223 e9be 763d b8be
000002a0: aaff a33e 1031 803e 3592 e8be 84df 08bf
000002b0: 56c5 0abe f73f b0bf 9729 44bf db40 823c
000002c0: 0d5c c1be 1107 d3bc 31ae 00be 966f 0cbd
000002d0: e509 cf3f 66ed 643e 4a37 fd3d f8a5 54bd
000002e0: b144 02bf 3814 2dbf ac32 05be d463 01be
000002f0: 74bb 803e e01d 22c0 b0c2 2b3f 5bdc 02be
00000300: 710d e63d 520e c53e b8be 843e e249 e53e
00000310: d8ca 42c0 d40a 943e 7e55 a73d 2818 c63d
00000320: cb42 6c3f af4a 653f 056c 723f 9bce 3e3f
00000330: cc52 393f 6336 73be edce 1c3f aabc 7fbf
00000340: 7fbb 35bf 7193 953f 326d 733f 5084 323f
00000350: 82f8 8d3f 16e9 c9be c345 2abe 12f5 b2be
00000360: 9465 e6bd 1824 983d 1d46 c43f b51f e03f
00000370: bf9e 2b3f 640b 06bf 93a5 16bf d774 0d3e
00000380: 441c 8ebf a2ef 3b3f 25e5 013f 2771 043f
00000390: 863e a0bf 59fd 71be 18f6 08bf decc c3be
000003a0: 0ff2 62bf aa48 7abf 2c41 393f 0a3c 5c3f
000003b0: 9935 de3e 7029 e8be 5b16 c53e aa87 e9bd
000003c0: 079b f43f 3025 0fbe ebf5 c5bc 5640 673c
000003d0: 5ea7 21c0 f25d 083f a61c 3a3f b2b3 0d3f
000003e0: 5477 323f 2af4 5f3f 431d a2bf 28f7 8dbf
000003f0: 6079 363f 57c6 47be d81f 383e 6962 02be
0.22631103 -0.85255384 -0.60676575 -0.74841905 -3.0137317 0.75530744 1.2242354 0.8366082
0.45760503 0.39416036 0.09882737 -0.055433005 -0.10321934 0.36476186 2.3818967 -1.3142298
0.2622781 -0.092764765 -0.45076746 -0.24697185 0.33766183 0.2307111 0.6360716 0.4918589
-0.8516154 -0.4913356 -0.23071589 -0.6016833 -0.354551 -0.39481002 0.23832062 -0.5129676
-0.4633471 0.32853052 0.2634885 0.103050455 -0.22038287 0.13936225 0.2281056 0.36978024
0.13650592 0.1458803 0.9211105 0.8421295 0.17327596 -0.44890183 -0.43929756 -0.5669177
0.42082992 0.42003134 0.52797705 0.75277585 1.3586557 -0.6486657 -0.23391588 -0.25051412
0.794582 0.8765013 0.35845146 0.14339313 0.43669543 -0.95665133 0.05892173 -0.8576538
0.630591 -0.12237479 -0.108685985 0.17619197 1.1899412 -0.04677064 -0.1854046 0.14093404
0.7116886 0.53229564 -0.04213437 -0.04062208 0.12937413 -5.6922297 0.44052085 0.03328882
0.34925756 0.43062875 0.17303535 0.29997972 -2.2379727 0.84706247 0.96819866 1.1009384
-0.49355453 -0.40146935 0.14926605 0.26242542 0.39791173 0.3411548 1.2975289 -0.49013382
0.47086078 -0.35400483 -0.22472577 -0.1364873 -0.30885896 -0.030703487 0.13813436 0.14838424
0.18233955 0.1910646 0.32630208 0.1228284 0.18750198 -0.56177187 0.12550151 -0.64628595
0.55696094 -0.46610063 -0.3820846 -0.39376676 -2.122311 -0.3158979 -0.3520727 -0.33647856
0.39733407 0.69588244 -0.95539093 -1.1378622 -0.946051 -0.9468224 -1.8063796 0.22866465
-2.8233085 -0.26751405 -0.21899535 -0.3838793 1.8359311 -2.8516757 -3.1698258 -3.104047
0.89335996 0.91966206 0.3185264 0.38259685 -0.31254065 0.45682505 0.48895994 -0.021286014
-2.1009066 0.901747 0.73165226 0.8271965 2.0095797 -0.3472345 -0.32925242 -0.31339478
0.7537494 0.5711715 -0.018675923 -0.309361 0.70153064 -0.32632896 -0.12135283 -0.2060988
1.2440665 -0.98872143 -0.91768426 -1.249463 -0.32195625 -0.51177585 -0.4553519 -0.3598439
0.32030994 0.25037432 -0.45424047 -0.5346606 -0.1355184 -1.376952 -0.7662596 0.015900066
-0.37765542 -0.025760205 -0.12566449 -0.034286104 1.6174895 0.22356185 0.12364061 -0.051916093
-0.50886065 -0.67608976 -0.13007611 -0.12635738 0.25143015 -2.5330734 0.67093945 -0.12779371
0.112330325 0.38487488 0.25926757 0.4478293 -3.0436306 0.2891451 0.08170603 0.09672576
0.9228942 0.89567083 0.94696075 0.74534005 0.72391963 -0.23751216 0.61253244 -0.99897254
-0.7098922 1.168562 0.95088494 0.6973314 1.1091464 -0.39435643 -0.16628174 -0.349526
-0.11249843 0.07428759 1.5333897 1.7509676 0.670391 -0.5236113 -0.58846396 0.13814102
-1.1102376 0.73412526 0.5074027 0.51735157 -1.2519081 -0.236318 -0.5350051 -0.3824224
-0.886506 -0.97767127 0.7236507 0.8602911 0.43400267 -0.45344114 0.38493618 -0.11402829
1.910981 -0.1397903 -0.024165114 0.01411446 -2.5258403 0.5326835 0.72699964 0.5535232
0.6971333 0.8748194 -1.266518 -1.1091051 0.71278954 -0.19509254 0.17980897 -0.12732853

feature.0.bias f4 [128]
00000000: 05a3 eebe 0889 83be b64d b4be 8d00 f83e
00000010: 090f b33f 920d 763f 7b14 09bf 9bfa 843f
00000020: b004 8b3f 17c7 8dbd 3aa3 02bf d1a9 b13f
00000030: 66d5 b83e d2ca 813e 628b 1e3f 2611 10c0
00000040: 667f a5bf 2b77 1340 6858 eb3f e3e2 a03e
00000050: 6753 633f 2f3a 0040 c2cb ba3f 2e0b cdbe
00000060: 6e26 efbb af96 743f a06d 74bd 7887 9ebf
00000070: 3e0d 603f f37d 64be d9ec 803f 2dd5 28bf
00000080: 6f96 c4be d9a2 27c0 089a 8abf 5775 60bd
00000090: 4f99 063f 86ff d43f 7c42 363f be9c debc
000000a0: 027c 67bf cbcb e33f c040 ffbe 56c7 ad3f
000000b0: c749 1ebe f977 2fbf 2b16 28c0 37f0 753f
000000c0: 68bd 8a3f a1af 1dc0 4890 f83e 7c46 01bf
000000d0: fd99 21bf a3a5 b2be b1b9 523f 3ba6 6d3f
000000e0: 9ea1 dcbd 4d1b 14bf 43aa 2f3e 6510 dcbe
000000f0: 7eff 70bf 604e 33bc 306e c63e c278 873f
00000100: 7c6a 04c0 ccb3 08c0 1a3f adbf 2288 ddbb
00000110: 5d53 003f 9c41 a13f 9344 a4bd 07d0 843f
00000120: e670 ddbe 81c8 4ebf b8fe c7bf 42b0 e2bf
00000130: ae6f 593f 7e3d d6bf becd 09c0 2d1f 1c3f
00000140: 916a a5bd 5372 e2bf 7c76 253e 1f56 1a3e
00000150: 19e6 fdbe a991 1bbf 22f7 723e 90eb 0fbf
00000160: 593c f4bc 579e a4bf 7451 50be d9f7 60bf
00000170: 4ff8 40bf e32c 2bbf dbda 20bf 88ae 0840
00000180: 6d6a 78be e902 8dbf 120b b9bd 8d9a 9fbe
00000190: be3f 6a3f 4722 1cbf d0ee 59c0 31ec 28bf
000001a0: 93a2 91bf 40d3 56bf cc03 c83e 57d7 003f
000001b0: 009f 263d 6770 94bd 2d47 e73e 4d72 b2bf
000001c0: fc3b aabf dd0a 263f cc9e df3e 60f0 0c40
000001d0: e46b 423e fd42 6e3f b065 15bd 887e 923f
000001e0: 759c 0dc0 a4ca 9e3f c0da 80bf cd67 b1bd
000001f0: 88ff 8c3f 5b7f 1abf 3c25 5b3f 508d b5bf
-0.4660875 -0.25690484 -0.3521554 0.4843792 1.3988963 0.96114457 -0.53546876 1.0388979
1.0860806 -0.06922739 -0.51030314 1.3879949 0.3610031 0.25350052 0.6193143 -2.2510467
-1.2929504 2.3041484 1.8386354 0.314231 0.88799137 2.0035512 1.4593432 -0.40047592
-0.0072982823 0.95542425 -0.05967486 -1.2385092 0.87520206 -0.22313671 1.007228 -0.6595028
-0.38396022 -2.6193144 -1.0828257 -0.054799404 0.5257768 1.664048 0.711952 -0.02717435
-0.90423596 1.7796568 -0.49854088 1.3576458 -0.15457831 -0.6854244 -2.626353 0.96069664
1.0839052 -2.4638445 0.48547578 -0.50498176 -0.6312559 -0.34891996 0.8231459 0.9283177
-0.107730135 -0.5785416 0.17154793 -0.42981258 -0.9413985 -0.010943979 0.3875594 1.0583727
-2.0689993 -2.135974 -1.3534882 -0.006760613 0.501272 1.2598147 -0.08020892 1.0375985
-0.43250197 -0.80774695 -1.5624609 -1.771004 0.84936035 -1.6737516 -2.1531825 0.6098507
-0.080769666 -1.7691139 0.1615848 0.15071915 -0.49589613 -0.60769135 0.23727086 -0.56218815
-0.029813932 -1.2860821 -0.20343572 -0.87878186 -0.7537889 -0.66865367 -0.62833947 2.1356525
-0.24259348 -1.1016513 -0.090353146 -0.311726 0.9150351 -0.60989803 -3.405201 -0.659854
-1.1377739 -0.8391609 0.39065397 0.5032858 0.040678978 -0.072480015 0.4517149 -1.3941132
-1.3299556 0.64860326 0.4367584 2.2021713 0.1898647 0.93070966 -0.03647393 1.1444864
-2.2126744 1.2405591 -1.0066757 -0.086623766 1.1015482 -0.6035058 0.8560369 -1.418375

feature.2.weight f4 [128, 128]
00000000: 7240 bfbd 1608 3dbf 2d49 b0bd 8ff4 553d
00000010: 5c1b a4be 0fae db3d 9d3d 50bd ce4f 86bf
00000020: f5ef 6b3c 2e93 82be 8fa7 09be d99c 88be
00000030: 2679 073e 653b 85bd a13b 0b3c 77c8 863c
00000040: c636 a13d 96c6 91bd e376 283f 6bd3 64be
00000050: b209 5e3f 1132 6cbe 9572 a5bf ac5e 703b
00000060: 0ef9 b2be 9a4d d3bc 685a 583c c76a cc3c
00000070: 6cbd 013d 2663 a8bc dab2 15bf f0c6 913e
00000080: 247c e13d f5af 06bf 554c 60be 5549 36bd
00000090: 8832 adbd a76b a3be c526 873d 2a07 703d
000000a0: cdbd fdbd ce9c 35be 622d 8abe 656a c3bd
000000b0: 18bf 2bbd 9438 89bd 5b42 453d 0786 2dbe
000000c0: 4ac1 78be 3568 c2bb 9b4f cc3d 1e96 c8be
000000d0: f4b5 693d 4b1e 183d affb 05be c05b 9dbd
000000e0: 5fa3 54be 2cd0 1dbf 6f14 0e3e cc4e 51be
000000f0: 0214 073e 95e4 46bd e696 51be ae50 0b3e
00000100: 3c82 37be b540 aabe eac0 e8bd 3d1a 383c
00000110: c23d 8ebe 98a8 73be 617d 80be cdf5 53bf
00000120: 5c23 cd3d 6ea8 52be ed4f d93d f7b7 03bf
00000130: 709e 2fbf 1a3c 90be 0fa3 b4bd 2c45 d63e
00000140: 0b69 9ebe 4ec7 34be 3af1 ce3d dbcb 133d
00000150: 9908 f23e 2d57 ccbe e104 85bf 0c10 33bf
00000160: 2f97 20bb 9a87 9a3e 5b2a 173e 80c6 12be
00000170: 7da5 60bf b767 a1bd a70f 38be e528 0a3f
00000180: eb15 11be 1598 663e b8c5 50be bfc3 9ebe
00000190: 5ae6 17be b2c3 273e c47e a03c 817f 1cbe
000001a0: 7708 17bf 579d 07be 9cbf 11bf edc0 313b
000001b0: d0b0 7d3e fedf 933d e85b 493d cab5 43bf
000001c0: dbd3 9bba 2eeb 83be 9b92 85bf 0774 993c
000001d0: 4fc3 1bbf 7a4c 6dbe 3c0a b4bd 9b88 393c
000001e0: 9558 89be bd6d f2bf c6a6 cdbe 681b 4c3e
000001f0: 6ba0 373f 9914 83bd c067 093f a80c 30bd
00000200: f52f 75be 12b3 0e3d 4690 263e 0a7c d33e
00000210: 3899 4a3c 8dd8 39be ecd8 fabd 9d97 633e
00000220: 30df 29bf 2f8a a2bd dfca dbbe 72df 3d3e
00000230: e4a5 fdbd d439 583e 1bf9 823d 1f6d 233d
00000240: 808a 96ba 42d3 2bbe afc4 76be 37f9 003f
00000250: 3291 15be 3188 81be 0313 77be 6dab 38be
00000260: 7289 98be 6846 f1bd 56c2 333d 4bb4 47be
00000270: dba3 4abe 3556 13bf 0738 adbd a629 94bd
00000280: bd1d 9dbe cfe8 a0be d8a7 35be 7b80 623c
00000290: 29f5 993e 6cdf 993d 7523 d1be 40d3 42be
000002a0: fab4 1ebe d59c 30bf bb19 ffbd 9484 38be
000002b0: 1adf 983d 65e9 afbf a714 273e 5107 90be
000002c0: ace8 7ebd 44b5 153d 180d 413e f32b b4be
000002d0: d75b 19bd 2553 a93c 850d 4fbd 4517 99bd
000002e0: fd38 18bd 4e95 083d 7227 503e 01f3 cabd
000002f0: cc2f c1bd 9026 0dbc 710d a2bd 1091 a4bc
00000300: a498 fb3d e456 cf3e 0b58 62bd f83c 9ebd
00000310: 67c9 f13e 6058 aabc 10ba a9be d971 583d
00000320: 8212 0ebf 878e 2fbd 5b24 bdbc abca 3d3f
00000330: 5563 cf3c af5a e6bc 49b8 bd3d f70d b1bd
00000340: ab31 5b3e ae45 7dbf 2acc 0ebf e96e 8cbc
00000350: 30b3 a83e 7ab5 47bf 7fe3 c2be cca8 7ebd
00000360: 2ed0 1ebd 0db9 05bd 37b3 b53d 76d6 04bd
00000370: 601a 463f b304 32be 4d2c 863c 28cb 3dbe
00000380: dca8 dbbe 8959 02bf 7fc1 d6bd ff83 06bf
00000390: 597b 31be 6468 58bf d5bf c43d 76a8 ea3d
000003a0: 81db eabc 540f 84be 0ba0 89bd 3165 d4be
000003b0: 36e6 fa3d bb58 9d3d 411d 4ebe e9f0 0dbd
000003c0: 1b46 75be f079 18be 7adc 3dbe 5e51 58be
000003d0: 7175 073e 7ce3 993d 304a a4bb b1c7 1ebf
000003e0: 0483 7abe c383 1a3e 1a2c 8bbd 57d7 37bf
000003f0: 1f4b 5cbe 4a59 63bf 2aa5 57be fe61 03bf
-0.09338464 -0.73840463 -0.08607707 0.052235182 -0.32052124 0.107265584 -0.05084001 -1.0493104
0.014400472 -0.25502914 -0.13442825 -0.26682165 0.13229808 -0.06505469 0.008498103 0.016453011
0.07871775 -0.071179554 0.65806407 -0.22346275 0.86733544 -0.23065974 -1.2925593 0.0036677523
-0.3495564 -0.02579384 0.013205148 0.02495326 0.031674787 -0.02055509 -0.5847603 0.2847209
0.11010006 -0.5261224 -0.21904118 -0.04450353 -0.08456904 -0.3191807 0.065991916 0.058600582
-0.12389717 -0.17735597 -0.2698775 -0.095417775 -0.041930288 -0.067002445 0.048158985 -0.16945659
-0.24292484 -0.0059328326 0.09976121 -0.3917703 0.05705829 0.037138265 -0.13084291 -0.076835155
-0.20765446 -0.6164577 0.13874982 -0.20440215 0.13191226 -0.048557837 -0.2046772 0.13604996
-0.17920774 -0.33252493 -0.113649204 0.011236724 -0.27781492 -0.23794782 -0.25095657 -0.8279694
0.1001651 -0.20572063 0.10610948 -0.51452583 -0.6860113 -0.28170854 -0.088201635 0.4184965
-0.30939516 -0.17654154 0.10104604 0.036083084 0.47272184 -0.3991026 -1.0392114 -0.6994636
-0.0024504175 0.3018158 0.14762251 -0.14333534 -0.87752515 -0.0788111 -0.17974721 0.5396865
-0.14168517 0.22518952 -0.20387924 -0.31008717 -0.14833966 0.16383246 0.019591697 -0.15283014
-0.5899729 -0.13243614 -0.56933 0.002712305 0.2477448 0.072204575 0.049159914 -0.76449263
-0.0011888699 -0.25765365 -1.0435365 0.018732084 -0.6084489 -0.23173705 -0.087910146 0.011324073
-0.26825395 -1.893974 -0.401663 0.1993233 0.71729153 -0.06400413 0.53673935 -0.04298082
-0.23944075 0.034838744 0.16265973 0.41305572 0.012365632 -0.18149014 -0.12248406 0.22225805
-0.6635618 -0.07936513 -0.42928216 0.18542269 -0.12385157 0.2111581 0.06395169 0.039898988
-0.0011485368 -0.16779807 -0.24098466 0.5038027 -0.14606169 -0.25299218 -0.24128346 -0.18034144
-0.29792362 -0.11781007 0.043886505 -0.1950237 -0.19789068 -0.57553416 -0.08457952 -0.07234506
-0.3068675 -0.3142762 -0.17739809 0.013824577 0.30069855 0.075133175 -0.40847364 -0.19025898
-0.15498725 -0.68989307 -0.124560796 -0.18019325 0.07464428 -1.3743101 0.16316472 -0.28130582
-0.062233612 0.03654982 0.18852651 -0.3518978 -0.0374411 0.02066953 -0.050550003 -0.074751414
-0.037163723 0.033345513 0.20327547 -0.099096306 -0.09432945 -0.008615151 -0.0791272 -0.020088702
0.12284973 0.4049598 -0.055259746 -0.077264726 0.4722397 -0.020794094 -0.33149767 0.05284295
-0.5549699 -0.042860534 -0.023088625 0.7413737 0.02531592 -0.028119413 0.09263665 -0.08645242
0.21405666 -0.9893445 -0.5578028 -0.01714273 0.3294921 -0.78011286 -0.3806419 -0.062172696
-0.038772754 -0.03264718 0.08872073 -0.03243109 0.77383995 -0.17384605 0.016378546 -0.18534529
-0.42902267 -0.5091787 -0.10486125 -0.5254516 -0.1733221 -0.8453429 0.096069016 0.114579126
-0.02866912 -0.25792944 -0.06719979 -0.41483453 0.122509405 0.076829396 -0.20128347 -0.034653578
-0.23952524 -0.14890265 -0.18541136 -0.21124789 0.13228394 0.07514092 -0.0050137267 -0.62023455
-0.24464041 0.15089326 -0.06795521 -0.7181296 -0.21513031 -0.8880812 -0.21059099 -0.513214

feature.2.bias f4 [128]
00000000: 26f7 1cbe 28d2 02be f97b 5f3f e8b7 c73f
00000010: 6817 88bb 2c54 40bd 4ec5 c4bc 8873 103f
00000020: f8a3 773e c743 6ebe aaf0 263f e0bf 253e
00000030: 007d 263e d22f d4be 6989 35be 9923 d13c
00000040: 4ebc a3bc 3df1 f5be 6ad6 33bd 341b 9d3f
00000050: abf3 3bbe 0d61 11be 2bbc 15c0 413d 04be
00000060: 26d0 1f3d 4c1a 01be 789d 1dbe 6eef bbbe
00000070: 3c93 84ba d107 2e3f 112c 2abe 040a 843e
00000080: 21bd 22bb f7ff da3e dc3e 283e bfbe 94bd
00000090: 8a04 cf3e 661f a53e 97d0 633e 7cc4 633e
000000a0: 38b0 01be 5089 993d f5ac fe3c 8888 ddbd
000000b0: d1ca 103e d4a5 1abe 76ad a7be 1505 0f3d
000000c0: 5f75 11c0 8ece 8ebe 14c8 c6bf db57 54bf
000000d0: 888d 8dbd 6487 c73e faea 9d3d ee4f bc3e
000000e0: a7d2 213d bbd6 e0be caac a93d 5210 2bbe
000000f0: 2685 54bd b71d 46bd e9af 2dbd de57 8a3f
00000100: f155 583e 392b f0bd d2e6 40be 2edb 97bd
00000110: e1bd e5bd ab15 ebbb b90d 17be 69e1 1fbe
00000120: 52ba 693e ec6e 21bf de37 8c3e fd8a 56bd
00000130: e8d0 0cbe 86e9 193e 73d8 c03e c432 12be
00000140: c17c 103f 1d73 553e 78d2 e3be 7e06 9dbd
00000150: a112 d7bd 9bd3 a6bd 4959 ec3e 6032 813e
00000160: 464f 6ebe 15ab 13bf 2ab5 23bd 943d 843e
00000170: 8fe0 25bd 6cb6 833f 0b54 71bf 5385 f0bc
00000180: d454 1fbe aa1c 3ebd cb5e 8a3e cecc 203f
00000190: 412e 50bd 223f 0dbf cf03 333f 671e 173f
000001a0: 886a 9b3f 2622 efbd 3999 c73e 53bf 2abe
000001b0: de10 153f ad68 903b 129b 68bd c239 16be
000001c0: 5021 453f 031b f9bd 7797 e9be 1ac8 c63c
000001d0: 6f1d 803e 90b8 153e df8b 0e3f 40b6 a5bc
000001e0: 70c9 38bd d9fc eb3e 6128 a9bd 465f c4bd
000001f0: 74ca 453e cd26 13be 4fd4 01bc f065 cfbe
-0.15328655 -0.12775481 0.8729854 1.5602999 -0.004153181 -0.046955273 -0.024019863 0.56426287
0.24183643 -0.23268043 0.65210974 0.16186476 0.16258621 -0.41442734 -0.17728199 0.02552967
-0.019987252 -0.48035613 -0.043905653 1.2273927 -0.1835467 -0.14197178 -2.3396099 -0.12913992
0.039016865 -0.12607688 -0.15392101 -0.36706108 -0.001011468 0.67980677 -0.16618372 0.2578889
-0.0024831968 0.4277341 0.16430229 -0.072629444 0.4043315 0.32250518 0.2224754 0.22242922
-0.12664878 0.074968934 0.031088332 -0.10817057 0.14139868 -0.15102321 -0.32749528 0.034916956
-2.2727888 -0.27891964 -1.5529809 -0.82946557 -0.069117606 0.38970482 0.07710834 0.36779732
0.039507534 -0.43913826 0.0828491 -0.16705444 -0.051884793 -0.048368182 -0.04240409 1.0808065
0.21126534 -0.11726994 -0.18838051 -0.07414852 -0.11217857 -0.007174214 -0.14751329 -0.15613331
0.22824982 -0.6305988 0.27386373 -0.052378643 -0.13751566 0.15030488 0.37665138 -0.14277178
0.5644036 0.20844693 -0.44496512 -0.07667254 -0.105016 -0.08145829 0.4616187 0.25233746
-0.23272428 -0.57682925 -0.039967693 0.2582823 -0.04049736 1.0290046 -0.94268864 -0.029360449
-0.15559703 -0.046414055 0.27025446 0.6281251 -0.05082536 -0.5517446 0.69927686 0.59030765
1.2141886 -0.11676435 0.38984087 -0.16674547 0.5822886 0.0044070096 -0.05678851 -0.1467047
0.77003956 -0.12163355 -0.4562337 0.024265338 0.25022456 0.14621186 0.55682176 -0.020228505
-0.04511398 0.46091345 -0.08259655 -0.095884845 0.19315511 -0.1437027 -0.0079241535 -0.4050746

value.0.weight f4 [64, 128]
00000000: dc7c 203f a5b1 14bc ebc0 89bf 7292 4bbf
00000010: 72fa a5bc 51fb b5bd fc8d 0dbe 7f15 44bf
00000020: 2396 3dbf 69c6 343d 9833 99be d5f9 353b
00000030: 2ac6 2fbf 2082 96bd a2c5 24bf 3896 38bf
00000040: 9278 ffbb 05ad 5fbf 6a89 813c 035f a2bf
00000050: 8e12 c8be 1313 a1bd c8f7 18c0 0079 95bb
00000060: 42bd 913e bae0 84bc ecf2 a83d e753 d0be
00000070: a0ab 8abc 2985 153c 0097 063c cd10 21bf
00000080: ccda 78bd 0c83 07c0 1e27 e9bd af5b a0bd
00000090: dd0f 57bc 1a71 5abf f394 4fbf 12e6 49be
000000a0: f585 22be 0589 aebe 2673 d1be c24d 6ebd
000000b0: 442b 11bf 4d66 cdbd afb6 aebc 4acf 843d
000000c0: 4b07 853e e3a4 e0be 69e4 83bf ee76 8cbe
000000d0: 7010 97bc 7223 afbe d4c5 b7be 6969 e0bf
000000e0: 9782 3cbf 3ad6 ab3f 924b 06bf 1280 153d
000000f0: f44c 143d 8074 873a 5209 523d 9f49 d0bf
00000100: 28a5 61be 6b07 923d 4a2c 643d 5449 8c3c
00000110: 28a2 67be 8bc6 133d a271 cb3d 77aa dcbd
00000120: 4dde b1be f1bc 0a3f 4905 4dbf 399d 00bd
00000130: d69a 47be 2b04 24bf a983 c3be 9a79 863d
00000140: 6b4c 30be 8e31 19bc f84b 593f fcff 763d
00000150: 1a6a cf3c d3f0 48bd 0b66 afbe f838 28be
00000160: 451d 6ebe 13bc 4d3e 0f76 86bc 65a8 ec3e
00000170: 48bc b6be 097e 5f3c 91df a03e 4a37 d5be
00000180: 3f96 683c ef80 8e3e 7493 ac3e 8586 3abd
00000190: 8620 bfbe c194 7ebe 7ec1 00c0 8fa8 5bbf
000001a0: ee94 34be 2cc1 cd3c bd48 e2be fc29 72bf
000001b0: b19e b2bf 036f 9e3d 4912 493d 93d1 493d
000001c0: f3d0 d9be 72fc ccbc d572 86be ad50 7ebe
000001d0: 966c 8dbe 03ce 82bf 7624 5c3e da42 64bd
000001e0: bc4c 413f 66fe 3d3e 4d98 8e3d fdea 273d
000001f0: 5cc9 43be 3a47 94bd 486e d73c bf37 d13e
00000200: 27ad abbd 68ae 0bbd e4f5 0fbe 8329 73bf
00000210: e49f 9ebd ac74 b3bd 3d8f 9abe b637 b5bc
00000220: 10e5 873e de4b 033a 238a 06bf e70b a1be
00000230: 504d b93d 34ed a83c 0123 febd c3c6 87bd
00000240: 4e31 90bd 9485 4a3e 7f78 573d 55d0 3abe
00000250: cd4e a5bd b909 69bd 662a 673f 0058 c03a
00000260: fd2a 46bf dc36 0ebe 88bf 0ebd 54db d7bd
00000270: e9e3 1c3b 3b52 20be 0e5b 7ebd 2fec 88bd
00000280: 9a28 4a3d 949f 13bb 21de ba3e d373 433d
00000290: fd31 93bd 78d1 c2be 4877 e5bd 6789 27bd
000002a0: 0d01 0ebe f902 35be 3853 1dbd 4069 2abd
000002b0: afdc d7bd 66e5 3c3d f526 923d 5364 f0bd
000002c0: 4cef d0be 38f6 963d b171 c8ba ce23 cfbd
000002d0: c6da 583d 0606 87be 23ec 42be ef05 6dbd
000002e0: 9c79 01be 627f 3f3f a585 2c3d a581 a23d
000002f0: 91bc 0dbd d387 b1bd 6f26 5ebd 1c1e 89bf
00000300: 8c5c 63bd b0c2 afbb 36c4 7b3d cf1a 58bd
00000310: d0a0 bbbe be83 1d3d 90fb f53b 78e0 e73d
00000320: 8b04 143d 63f3 09bf 5678 f9be 2d9a 643d
00000330: 0de7 99bd 703d afbe 4681 75bd 17a9 c43d
00000340: ba71 f8be f7ff 123d 7e47 1f3e d3d4 b33d
00000350: a441 09bd e8d4 0e3d a045 9bbe 0542 30be
00000360: a4fa 98bd 2127 e73d 79c6 1ebc aaf9 1b3c
00000370: e40e 693d c869 113c 7e40 99be f52c c13e
00000380: 277c ef3c 592f b33c 620b 9e3e 4b6e 17be
00000390: 2cde 9ebc 6763 4dbe 06c8 13bc 3033 90be
000003a0: 9a77 eebe 00a8 c939 81c4 31be f6e4 30be
000003b0: eda3 e8bc 1866 8abd 68d6 8fbc ce70 7d3d
000003c0: c22f a1be 1d59 9abd 5610 2cbe 1da6 99bc
000003d0: c7cc cbbd 2df2 59be 1750 1bbf e11d deba
000003e0: 0d7c 2fbe 2fd7 38bd 7492 86bd 7f9b b13d
000003f0: 567c c9bd 5cad ccbc 544b 87bc 3248 87be
0.6269052 -0.009075557 -1.0761999 -0.7952033 -0.020261023 -0.088858254 -0.13823694 -0.765953
-0.74057215 0.04413453 -0.29922175 0.002776732 -0.6866175 -0.07349038 -0.64364064 -0.72104216
-0.0077963555 -0.8737338 0.015812594 -1.2685245 -0.39076656 -0.07864966 -2.3901234 -0.0045615435
0.28464705 -0.01622044 0.08249459 -0.40689012 -0.01692754 0.009125986 0.008214712 -0.6291626
-0.060755536 -2.1173735 -0.11384414 -0.07829987 -0.013126341 -0.8532883 -0.81086653 -0.19716671
-0.15871413 -0.34088913 -0.40908164 -0.058179624 -0.56706643 -0.10029278 -0.021327345 0.0648485
0.25982127 -0.438758 -1.030408 -0.27434486 -0.018440455 -0.3420673 -0.35893118 -1.7532169
-0.73636764 1.3424752 -0.5245906 0.03649909 0.0362062 0.0010334402 0.05127842 -1.6272467
-0.22035658 0.07130321 0.0557063 0.01712481 -0.22620451 0.036078017 0.09933783 -0.10774701
-0.34739915 0.5419455 -0.8008619 -0.03139994 -0.19492659 -0.6406886 -0.38186386 0.065661624
-0.17216651 -0.009350194 0.84881544 0.06030272 0.025319148 -0.049057793 -0.3425754 -0.16427982
-0.23253353 0.20091276 -0.016413717 0.46222225 -0.35690522 0.013640889 0.31420568 -0.41643745
0.014195978 0.27832744 0.33706248 -0.045538444 -0.373295 -0.24861433 -2.0118098 -0.85804075
-0.17634937 0.025116526 -0.4419612 -0.94595313 -1.3954679 0.077360176 0.049089704 0.04927213
-0.42542228 -0.025022719 -0.26259485 -0.24835463 -0.27621907 -1.021912 0.21498284 -0.055727817
0.7550771 0.18554077 0.06962643 0.040995587 -0.19119781 -0.07240148 0.026297703 0.40862843
-0.083826356 -0.034101874 -0.14058644 -0.94985217 -0.077453405 -0.08762488 -0.30187407 -0.022121292
0.26541948 0.00050085585 -0.5255453 -0.31454393 0.09047949 0.02062092 -0.1240902 -0.06629708
-0.07040654 0.19777519 0.05260515 -0.18243535 -0.08071671 -0.056894038 0.9029907 0.0014674664
-0.77409345 -0.13888115 -0.034850627 -0.105398804 0.0023939556 -0.15656368 -0.062098555 -0.066856734
0.049355127 -0.0022525536 0.36497596 0.04771788 -0.07187269 -0.38050437 -0.11204392 -0.04090252
-0.13867588 -0.17676915 -0.03840944 -0.04160428 -0.10540139 0.04611721 0.07136337 -0.11737885
-0.4080757 0.07371181 -0.0015292672 -0.10114251 0.052943014 -0.26371783 -0.19035392 -0.057866987
-0.12644047 0.74803746 0.04211964 0.07934884 -0.03460366 -0.086684845 -0.054235872 -1.0712314
-0.05550818 -0.0053637847 0.06146642 -0.05275994 -0.36646128 0.038455717 0.007506795 0.11322111
0.036137145 -0.53887004 -0.48724622 0.055811096 -0.075147726 -0.3422656 -0.059937738 0.09602564
-0.48524266 0.03588864 0.15554616 0.087808274 -0.033509865 0.034871012 -0.30326557 -0.17212684
-0.07469681 0.1128676 -0.009690874 0.009519974 0.056898966 0.008875318 -0.29932016 0.37729612
0.029234005 0.021873163 0.3086806 -0.14788167 -0.01939305 -0.2005745 -0.009019857 -0.28164053
-0.46575624 0.00038462877 -0.17360117 -0.17274842 -0.028398478 -0.06757754 -0.017558292 0.061875157
-0.3148175 -0.07536528 -0.16803107 -0.018755967 -0.099511676 -0.21283789 -0.6066908 -0.001694616
-0.17137165 -0.04512709 -0.065709025 0.08672237 -0.09838168 -0.024985008 -0.016515411 -0.26422268

value.0.bias f4 [64]
00000000: c69e 1e3d 48a7 1abf 6aff b83f 4982 81bf
00000010: 6408 af3f f32f 2e3f 3c59 76be c865 73be
00000020: e889 043f 95b0 5cbf 2b3d 8dbf 9543 5c3f
00000030: 35a7 e1bf 7c97 903e c905 1140 f212 d5bd
00000040: 0318 ba3f 80db ae3f 7703 273f b89c 15c0
00000050: 3c6b de3b 5f35 b33f 4f75 a8bf 8516 133e
00000060: a09f 073f 9bb5 26be 6c8d 893f 9324 903e
00000070: 2284 693f b42f babd 9901 813f bcad 4bbe
00000080: 321b 1b3f 07b7 31bd dd44 683e 8f54 ed3e
00000090: 9de5 663f af3d 8a3c 6cc9 d3be 0885 debe
000000a0: 1d64 323f 0044 93bf eee0 b73e e4b1 28bf
000000b0: 883c 983f 1434 40be ae72 3b3f ca74 92be
000000c0: 1fd5 753f c7ab b5bf bc2d 90be de77 8e3e
000000d0: 96a5 833f d948 623f 488d eabe c17c 9abe
000000e0: 30d4 a73c 5563 cebf 6e02 773f a8df bebf
000000f0: e435 6bbf aedc febf 66de 5fbf 0e2b 0abf
0.038725637 -0.604115 1.4452946 -1.0117885 1.3674436 0.68041915 -0.24057478 -0.23769295
0.5177293 -0.8620694 -1.1034292 0.8604062 -1.7629153 0.28240573 2.265978 -0.10404004
1.4538578 1.3660736 0.6523966 -2.3376904 0.0067876857 1.4000663 -1.31608 0.1436406
0.52977943 -0.16280214 1.0746284 0.28152904 0.91217244 -0.0909113 1.0078613 -0.19890493
0.6058837 -0.04338744 0.2268252 0.46353576 0.9019411 0.016875116 -0.4136461 -0.4346087
0.6968401 -1.1505127 0.35913795 -0.6589644 1.1893473 -0.18769866 0.7322186 -0.28604728
0.9602832 -1.4193047 -0.28159893 0.27825826 1.0284908 0.88392407 -0.45810914 -0.30173305
0.020486921 -1.6124064 0.9648808 -1.4912004 -0.91879106 -1.9911096 -0.8744873 -0.53971946

value.2.weight f4 [1, 64]
00000000: 9932 debf 12de e03f dc68 0ebf 5431 ed3f
00000010: 6ffa aa3f 05a8 703f 0b67 b0bc 479e bdbe
00000020: 8283 98bf fb65 18be a4e5 b23e 31b1 b0be
00000030: 5c92 1d3f e3a4 39bf 1d3d d5be 222d f83c
00000040: 7218 08be e835 afbd 3d87 aa3f 98fb 4d3f
00000050: bbc5 e0bf a316 c03f b12a 323f 547b abbf
00000060: 71e9 16c0 9e0a 493f c979 e2bd 198e 50bf
00000070: 6247 3cbe 1f5b b1bb c050 31be 6738 04bc
00000080: 8b93 803f b897 18be 4941 243f 8d1e b53e
00000090: 7ff6 2fbe 7666 713f 0180 0fc0 1415 f4be
000000a0: 0934 cfbe b928 9dbf aba8 67bf 7e0e 2d3f
000000b0: 9375 573f e74a cb3a c11c 353f e20f b33c
000000c0: 1b83 99be 275e 1e3f b4e1 1cc0 49e0 06bf
000000d0: eb68 14be 0dd3 24be 3506 a43e fed5 3dbd
000000e0: ad7a 40bf f2e2 163f 636e 16be 590e 963f
000000f0: 163b 1f3f 1327 44c0 a763 8bbf 6d15 54bf
-1.7359191 1.756777 -0.5562875 1.8530679 1.3357676 0.9400638 -0.02153351 -0.3703482
-1.1915133 -0.14882652 0.34940827 -0.34510186 0.6155145 -0.7251722 -0.41648188 0.030294959
-0.13290575 -0.08555204 1.3322521 0.80462027 -1.7560343 1.5006908 0.6959639 -1.3397012
-2.3579981 0.78531826 -0.11058385 -0.81466824 -0.18386605 -0.005412474 -0.1731596 -0.008070088
1.0045027 -0.14901626 0.6416212 0.3537487 -0.17183875 0.9429697 -2.2421877 -0.4767233
-0.40469387 -1.2278053 -0.9049174 0.6760024 0.8416378 0.0015509994 0.70747 0.02185816
-0.29982838 0.61862415 -2.4512758 -0.5268598 -0.14493148 -0.16096134 0.32035986 -0.046346657
-0.7518719 0.5894004 -0.14690547 1.1723129 0.62199533 -3.064885 -1.0889786 -0.82845193

adv.0.weight f4 [64, 128]
00000000: b267 46be b263 823d 249a 233e 3090 bf3e
00000010: cab0 9539 e967 4f3b 2607 cebe b481 c8be
00000020: 434d 503e 9f29 643d db9b 423f dd50 f0bd
00000030: 2a5f b8be ee52 47bf d338 7cbe 56ab 7cbf
00000040: 3885 0fbd 6cba aabe 1bbb 8ebd 3011 3e3e
00000050: 175b c63c e9d7 95bd bbb6 45bf bb8a a23c
00000060: 6534 00bf 1f9f 2b3a 8e3d b3bd 40f9 4cbe
00000070: f8fb d53e e40c 54be 0c22 1cbc 945b debe
00000080: 92f4 ab3c 5ed7 70bf 6c31 25be 5909 12bf
00000090: 1a60 c4bf d175 41bf bf77 89bf 4546 82be
000000a0: 9d86 c1bd 0425 c6bd f31e 8dbe ee66 54bd
000000b0: 39c8 f8be 5128 9c3d 0cf3 e7bd 1178 8cbe
000000c0: fffe a13c 4d44 7abf df79 adbe bb1a 03bf
000000d0: f8ad 8c3d 3066 a2be a954 1fbe 4916 313e
000000e0: e72a c23e 5e78 323f a684 06bf 4c3c 4dbd
000000f0: 9e0a 90bd 2256 84bd b70d 67bd 1a7d 87bf
00000100: 2b58 5dbf 8098 2a3b 00df 6b3c 0d49 5c3d
00000110: cebb 46bf 611f 95bd 1947 89bd 64bf 7dbd
00000120: 4d9b b3bf b6bb adbe a464 6dbf 97e4 c83c
00000130: 2bd6 a4bc af88 24bf 5a07 9c3e d2e5 673e
00000140: 8b26 29be 5af5 8abe 5425 873f 91ef 20bd
00000150: e2c2 653d 170c 89bd 6649 f1be e2a6 8dbf
00000160: c8a7 43bf 80d3 e2be a2df b53a c451 cec0
00000170: 30a4 67be 4494 9ebe e0fc 263e 47f7 4ebe
00000180: 5bf3 32bd 164f f3be e1c8 6abf 3e60 5ebf
00000190: 2fc8 583f 8b92 993f 7fbb 8ebd 4434 53bf
000001a0: 46a0 b8bf b46d 84bd b3c2 6e3e 1940 f03c
000001b0: 8d15 0ebe 9435 9b3d 68c7 253c 3451 60bd
000001c0: b329 0fbf cc87 9ebd fda7 86be d8c4 d7bd
000001d0: 7646 acbf dabf ec3d e4d9 81bd b2d9 cdbc
000001e0: 0dd0 b5be 0094 a1be 4b9c 7ebb 65a5 f73c
000001f0: 4788 65be 10b6 e9bb 6ca7 aabd 56f8 5fbe
00000200: 4447 a0bd a6fc 213f fe3b a9be 2ce4 77bf
00000210: 81bf 07bd 2aa2 47bd a49d fdbd 6c62 bbbe
00000220: fb8d 6dbd 48ae c1bd 321d f0be bd92 92be
00000230: 6846 04be 6ed3 1cbe cce3 7bbe 7479 99be
00000240: d2ac 763d 4b3a 60bf fc03 16bd c417 22bf
00000250: 8953 c5bd 3ed2 b0bd 7095 183f 081c 4abc
00000260: 6b04 2dbd 2976 9c3d 1589 9a3c 7fec 9dbe
00000270: 380c c2be d578 c5bd 6665 2c3d 9418 af3d
00000280: 8819 07bd f263 3cbf 2d1e 43bf 8541 953c
00000290: 9167 b5bd bb50 abbc 1f11 69bf 9795 fdbd
000002a0: 4d59 6a3d ebc1 d0bd d80c 33be 2c13 bc3c
000002b0: 6887 f5bd 4923 4abd 679a febd 7cff 22be
000002c0: b94d e13e 1b0e 3b3b 0648 273f b6e8 dcbe
000002d0: 730d 8abc b8d8 983e cdd2 9f3d 077b 6c3e
000002e0: fe67 adbd ed06 423e 4b7c f23e 39f6 a6bd
000002f0: a6e9 493d dbe0 93bd a0ff a83b 5db6 87be
00000300: 3ac2 b23d 00e3 aeb9 57af 7b3d 289e 433c
00000310: 711e 6ebf ec3a 713d 7ff7 6abd bf76 763c
00000320: 56d9 64be 0435 ae3d f84b 41be 4285 393d
00000330: 032d 44bd 462b d6be eaea bf3e 2618 9b3e
00000340: e062 27bc c887 47be d15d 4f3f 881f 8fbc
00000350: c35d 9d3d 6a72 f9bc 2fe8 32bf 6b7b 9ebe
00000360: 699c 923d 01af c0be 0a3e 4b3d b0b0 28bf
00000370: 1a5e 02be a82a ebbe ec3c 413e c4f4 99bc
00000380: a3d3 69bd 9996 f63d e84d d53e 2e51 58bf
00000390: ecd8 703e 2303 9dbe 2340 aa3c c343 54bf
000003a0: c190 98bf 8d8d 7dbd 431f b2be 85fc f2be
000003b0: ea93 38bf 707a d2bc 80c2 e7ba 6a0f 683d
000003c0: 38c1 80be 5489 abbd 9d53 f1bd 5da5 efbd
000003d0: 04d0 9d3e 6b6f 473e 6498 2bbe 4558 93bd
000003e0: 6dc0 b53c 1efa 65bd de80 66bd 788d 06bd
000003f0: 156f 86bd 3b04 a43d f053 993b b167 96bd
-0.19375494 0.063666716 0.15976769 0.37414694 0.00028551213 0.0031647629 -0.4023983 -0.39161456
0.20341973 0.055703755 0.76019067 -0.117341734 -0.36010104 -0.77860916 -0.24631052 -0.9869894
-0.035039157 -0.33345354 -0.06969281 0.18561244 0.024213357 -0.07316572 -0.7723195 0.019841542
-0.5007995 0.0006546843 -0.08751975 -0.20016956 0.417938 -0.20708042 -0.009529602 -0.43429244
0.020990644 -0.94078624 -0.16132134 -0.57045513 -1.5341828 -0.755704 -1.0739669 -0.25444236
-0.094495036 -0.09675029 -0.27562675 -0.051855974 -0.48590258 0.07624877 -0.113256544 -0.27435353
0.019774912 -0.9776047 -0.33882043 -0.5121266 0.068691194 -0.31718588 -0.15559639 0.17293657
0.37923357 0.69714916 -0.52546155 -0.05010633 -0.07033275 -0.06461741 -0.056409564 -1.0585053
-0.8646266 0.0026030838 0.014396429 0.053780604 -0.7763032 -0.07281376 -0.06703014 -0.061950102
-1.4031769 -0.33932275 -0.9273169 0.024523063 -0.020121654 -0.6427106 0.3047436 0.22646263
-0.16518609 -0.27140313 1.0558267 -0.03929097 0.056094058 -0.06691759 -0.4712631 -1.1066554
-0.7642789 -0.44301987 0.0013875852 -6.447481 -0.22621226 -0.30972493 0.16307402 -0.20211516
-0.043689113 -0.47521275 -0.91712767 -0.86865604 0.84680456 1.1997846 -0.06969356 -0.82501626
-1.4423912 -0.06466237 0.2331646 0.02932744 -0.13875408 0.075785786 0.010118343 -0.05476494
-0.55923 -0.07740745 -0.2630004 -0.10535592 -1.3459003 0.1156003 -0.063403875 -0.02512822
-0.35510293 -0.31558228 -0.0038850482 0.030230233 -0.22415267 -0.0071322992 -0.083327144 -0.21872076
-0.07826093 0.63276136 -0.33053583 -0.9683254 -0.033141617 -0.048738636 -0.12383583 -0.36598527
-0.05799673 -0.0945707 -0.46897274 -0.28627577 -0.12917483 -0.15315029 -0.24598616 -0.29975474
0.060223408 -0.8758895 -0.036624894 -0.63317513 -0.09635074 -0.086338505 0.59603024 -0.012335785
-0.04224054 0.07639725 0.018864194 -0.30844495 -0.37899947 -0.096421875 0.04208889 0.0854961
-0.032983333 -0.73590004 -0.7621792 0.018219719 -0.08857644 -0.020912519 -0.9104175 -0.123820476
0.05721407 -0.10193237 -0.17485368 0.02295836 -0.11988717 -0.049350057 -0.12431794 -0.15917772
0.4400461 0.0028542343 0.65344274 -0.43146294 -0.016852116 0.29852843 0.07803879 0.23093806
-0.084671006 0.18947954 0.47360453 -0.08152432 0.04929509 -0.07220622 0.005157426 -0.2650632
0.08728452 -0.00033356994 0.061446514 0.011939563 -0.930152 0.058894083 -0.057364937 0.01504296
-0.22348532 0.08506206 -0.18876636 0.0452931 -0.04789449 -0.4182989 0.37483913 0.3029186
-0.010216445 -0.1948539 0.8100253 -0.01747109 0.07683899 -0.030450065 -0.69885534 -0.30953535
0.07158739 -0.37633517 0.049619712 -0.65894604 -0.1273121 -0.45930982 0.18870896 -0.018793471
-0.057086598 0.12040443 0.41661 -0.8449887 0.23520249 -0.30666456 0.020782536 -0.82915896
-1.1919175 -0.06190257 -0.34789476 -0.47458282 -0.721007 -0.025693148 -0.0017681867 0.056655325
-0.25147414 -0.08375803 -0.11783526 -0.117014624 0.30822766 0.19476096 -0.16757351 -0.071945705
0.022186482 -0.056146733 -0.05627524 -0.03284976 -0.06564156 0.080086194 0.0046791956 -0.07343996

adv.0.bias f4 [64]
00000000: ea65 f5bf a409 d6bf 6b48 fabe 8ee9 26bf
00000010: c3f6 a1bf 3083 3dbf cdb0 82bf bf5b fabf
00000020: 6692 34be 0717 37bf 8803 53be b5d9 a0bf
00000030: 72fe c9be d6c5 1fbe 49fb a9bf 6857 70bf
00000040: c59d bbbe 95c9 0ac0 e644 d7be e8b3 a6bf
00000050: bbc1 74be 1e5c f1bb e31b e1be 9759 cdbf
00000060: a952 3b3e 881e 28bf ed21 a3be fdd9 30bf
00000070: 5b85 02bf a7de 81bf ae85 45c0 84da 21bf
00000080: 4b77 753e ee98 1fbe ac49 95be 1c66 e9bf
00000090: 840f adbf 7449 f1be 9f40 98be 0d80 9abd
000000a0: 0ac6 22bf 334d 09be 90e4 a1bf 4c8e 1fbe
000000b0: 90da 11bf 831b ea3d 4419 a4bf cc0d 88bf
000000c0: 4be2 e6bf cb8f ac3c d922 463e 3bda 20be
000000d0: a931 22bf 9a01 a8bf faf6 c2be 6026 9fbe
000000e0: 0a29 39bf c0c6 c6bf a6eb 3ebf 11de 50be
000000f0: c2a3 04be cb29 a0be 5fe9 2cbe 1f0e 01bf
-1.9171727 -1.6721692 -0.48883376 -0.65200126 -1.2653431 -0.740283 -1.0210205 -1.9559249
-0.17633972 -0.7151951 -0.20606816 -1.2566439 -0.3945194 -0.15602812 -1.3279811 -0.9388337
-0.36643806 -2.1685536 -0.42044753 -1.3023653 -0.23902027 -0.0073657176 -0.43966588 -1.6042966
0.18293251 -0.65671587 -0.3186182 -0.69082624 -0.50984734 -1.0146073 -3.0862842 -0.63224053
0.23971288 -0.15585682 -0.2915777 -1.8234286 -1.352036 -0.47126353 -0.29736802 -0.07543955
-0.63583434 -0.13408355 -1.2647877 -0.15581626 -0.56974125 0.11431029 -1.282021 -1.062921
-1.8037809 0.02106466 0.19349231 -0.15708248 -0.63357025 -1.3125489 -0.38079053 -0.31083965
-0.72328246 -1.5529404 -0.7457832 -0.20397212 -0.12953094 -0.31281886 -0.16885899 -0.5041217

adv.2.weight f4 [2, 64]
00000000: b6ee 52c0 2c23 6e3f defe 31c0 d8e1 18bf
00000010: 5813 a8be a284 75bd e451 823f bb59 14c0
00000020: aa9e b43d da97 b63f b10e 9cbd 05e0 fdbf
00000030: 47fc 6f3f 75b7 4a3d 2d2c 8abf 70cc d3bf
00000040: 54c6 70be eb08 8fbf 52d5 83bf 9048 673f
00000050: e16b 6ebf 9bc2 ca3e ba6d 8e3f a7fd bebf
00000060: ae62 0b3f 30f0 90be 05a0 88be ffea dc3e
00000070: 6fe7 393f bc9e 93bf 028f b9bf 4f71 833d
00000080: e005 93bf b589 51be a234 dcbe 4e51 933f
00000090: b4b6 28c0 84f2 0d40 81df 033f 4f69 5f3f
000000a0: 0426 083f 38bb 37bc 3c12 f5bf 4571 863d
000000b0: 6761 1dbf 5f0f 4d3f 0a8c 8ebf 4946 e93f
000000c0: 02f6 59c0 20be 1240 58d9 1f3f 748c fd3c
000000d0: 13a1 07bf f84f 5b3f 255f c5bc e2d5 fabd
000000e0: e982 113f 6171 0440 427e 3fbf dec8 a43c
000000f0: fa03 3bbf 3343 843e e457 f1bb 057a 72bf
00000100: 6abd 4e40 0b0e 6abf bc11 3640 b4ee 053f
00000110: d06e ca3e 7556 df3d 8f33 82bf 0d47 1940
00000120: 201d c93d 48c9 b2bf 21cf 89bd 1f37 ef3f
00000130: 4b80 65bf 4cd0 2d3d 5e4b 743f 596e c53f
00000140: 6eeb 213e 49f2 973f 9101 663f 5029 7abf
00000150: 13c6 413f f948 f9be 9c25 92bf 793a bb3f
00000160: 7ad6 ffbe 6ff6 7a3e 6442 5b3d 4396 01bf
00000170: 99ce 2abf d411 923f f21a a73f 3fb1 63be
00000180: ded9 8f3f 58c1 8e3e bb52 b03e 14b0 89bf
00000190: e642 2240 b0dd 14c0 e11b 1ebf 3916 4fbf
000001a0: 3e82 03bf b7fe 163c 1cbc f13f df70 aa3c
000001b0: 2a54 f93e 03eb 44bf 59a4 983f 564b e8bf
000001c0: bcdd 5b40 10c8 0ac0 846f 2abf c243 61bb
000001d0: e37d 0d3f 664d 7cbf fd39 75bc 477d e33d
000001e0: 31a6 22bf 9bbe 05c0 8664 3a3f bf7a 583c
000001f0: da29 1f3f b074 43be 4678 0f3c 3b7a 823f
-3.2958198 0.9302242 -2.7811809 -0.5971961 -0.32827258 -0.05994094 1.0181241 -2.3179767
0.08819325 1.4265091 -0.0761999 -1.983399 0.9374432 0.049491365 -1.0794731 -1.6546764
-0.23513156 -1.1174597 -1.0299475 0.90345097 -0.9313336 0.39601597 1.1127236 -1.4921159
0.5444745 -0.2830825 -0.26684585 0.43148038 0.72618765 -1.1532817 -1.4496768 0.06418096
-1.1486168 -0.20462687 -0.43008906 1.1509187 -2.6361513 2.217927 0.51512915 0.87270063
0.5318301 -0.01121407 -1.914619 0.06564573 -0.6147675 0.8010158 -1.1136487 1.8224574
-3.4056401 2.2928543 0.62441015 0.030950762 -0.52980155 0.856689 -0.02409322 -0.12247826
0.5684038 2.06942 -0.7480203 0.020115312 -0.7305294 0.2583252 -0.0073652137 -0.9471744
3.230311 -0.9142768 2.8448324 0.5231736 0.39537668 0.10905162 -1.0171984 2.3949616
0.09820008 -1.3967676 -0.0672896 1.8688697 -0.89648885 0.042434976 0.954275 1.54243
0.15812466 1.1870815 0.8984614 -0.9771929 0.7569286 -0.48688486 -1.1417727 1.462722
-0.4996832 0.2450807 0.053530112 -0.50619906 -0.66721493 1.1411691 1.3055098 -0.22235583
1.1238363 0.27881885 0.34438118 -1.075686 2.5353332 -2.3260307 -0.6176129 -0.80893284
-0.5137061 0.009216002 1.8885531 0.020805774 0.48697025 -0.769211 1.1925155 -1.8147991
3.4354086 -2.1684608 -0.6657641 -0.0034372662 0.5527021 -0.985556 -0.014967439 0.11107879
-0.6353484 -2.0897586 0.72809637 0.013212859 0.62173235 -0.19087481 0.008756703 1.0193552

adv.2.bias f4 [2]
00000000: 8af8 23be d908 3a3c
-0.16012779 0.0113546485
