curriculum_run_600/checkpoints/ep_0200.pt (torch, 145855 bytes, 11 tensors)

feature.0.weight f4 [128, 16]
0.86157435 -0.91286784 -0.66707975 -0.80873305 -2.1978426 0.90647507 1.3754011 0.9877733
0.3973201 0.33387488 -0.27977705 -0.4340337 0.0102620805 0.31586388 2.3636665 -1.3063676
0.2622781 -0.092764765 -0.45076746 -0.24697185 0.33766183 0.2307111 0.6360716 0.4918589
-0.8516154 -0.4913356 -0.23071589 -0.6016833 -0.354551 -0.39481002 0.23832062 -0.5129676
-0.4633471 0.32853052 0.2634885 0.103050455 -0.22038287 0.13936225 0.2281056 0.36978024
0.13650592 0.1458803 0.9211105 0.8421295 0.17327596 -0.44890183 -0.43929756 -0.5669177
0.32884386 0.2051302 0.31307504 0.5378773 1.7242266 -0.60408133 -0.18933056 -0.20592879
0.6468558 0.7287734 0.35771552 0.14265686 0.4100642 -0.8291804 -0.10013571 -0.6650527
0.39312506 -0.12237479 -0.108685985 0.17619197 1.3342857 -0.04677064 -0.1854046 0.14093404
0.676116 0.49671647 -0.04213437 -0.04062208 0.0872666 -5.9162498 0.42974415 0.023936624
0.7002205 0.63022405 0.37262896 0.49957374 -2.4771109 0.7269958 0.848132 0.9808896
-0.50992155 -0.41783693 0.0545677 0.16772784 0.42453232 0.31765026 1.4065008 -0.46256897
0.47086078 -0.35400483 -0.22472577 -0.1364873 -0.30885896 -0.030703487 0.13813436 0.14838424
0.18233955 0.1910646 0.32630208 0.1228284 0.18750198 -0.56177187 0.12550151 -0.64628595
0.676354 -0.43722853 -0.3532126 -0.36489475 -1.9146657 -0.74687606 -0.78305286 -0.76745814
0.17631714 0.47486043 -1.0851 -1.2675768 -1.3904831 -0.86387885 -1.8543236 0.191526
-2.706269 -0.30800313 -0.2594858 -0.42436802 2.0855231 -2.8199644 -3.1381145 -3.0723357
0.83475804 0.86106014 0.27058023 0.33464962 -0.30777323 0.502789 0.60425895 0.0044692014
-1.8757358 1.125869 0.9557712 1.051312 1.8355857 -0.41716847 -0.39918652 -0.38332853
0.5050521 0.3224703 -0.740094 -1.0307765 0.75162786 -0.27538082 -0.21573322 -0.20801622
0.98638874 -0.98872143 -0.91768426 -1.249463 0.07382106 -0.21288443 -0.15646097 -0.06095276
0.2868789 0.21694484 -0.5983168 -0.6787406 -0.039481595 -1.2910056 -1.5994209 0.13825737
-0.32325307 -0.025760205 -0.12566449 -0.034286104 1.6768568 0.22356185 0.12364061 -0.051916093
-0.45949405 -0.6267239 -0.16647385 -0.16275512 0.23222616 -2.7777467 0.75224346 -0.052613303
0.40289387 0.38795096 0.26234502 0.45090538 -2.703098 -0.00057552627 -0.20801648 -0.19299608
0.8552829 0.82805955 0.9649794 0.7633587 0.66216385 -0.25286672 0.81152505 -0.83813155
-0.8956594 1.0186982 0.8010302 0.54747504 1.3702272 -0.22760615 0.00047370602 -0.18277341
0.23070203 0.41748956 0.74714184 0.9647188 0.68365705 -0.7080864 -0.5951884 0.103680186
-0.56123734 0.7941784 0.56745595 0.5774048 -1.3413544 -0.49152315 -0.79020864 -0.63762397
-0.7226686 -0.81383485 0.67687327 0.8135137 0.44718727 -0.44435942 0.32732314 -0.17613153
1.8891102 -0.3441389 -0.22851384 -0.19023576 -2.5768108 0.5259578 0.720274 0.5467975
1.0096965 1.1873783 -1.105125 -0.9477093 0.6959755 -0.21183412 0.0102409115 -0.0736721
00000000: 2390 5c3f b5b1 69bf bdc5 2abf 2109 4fbf
00000010: 74a9 0cc0 c00e 683f 250d b03f b6de 7c3f
00000020: 8a6d cb3e a6f1 aa3e f03e 8fbe aa39 debe
00000030: 4922 283c e9b8 a13e 5046 1740 0e37 a7bf
00000040: 5149 863e 74fb bdbd feca e6be 30e6 7cbe
00000050: 03e2 ac3e 883f 6c3e 97d5 223f eed4 fb3e
00000060: 7803 5abf 5790 fbbe c940 6cbe eb07 1abf
00000070: b587 b5be 8a24 cabe 520a 743e d851 03bf
00000080: d53b edbe 2735 a83e f7e7 863e 1e0c d33d
00000090: 0cac 61be fab4 0e3e 8494 693e d653 bd3e
000000a0: 35c8 0b3e a561 153e e6cd 6b3f cd95 573f
000000b0: 416f 313e 76d6 e5be 9ceb e0be 8521 11bf
000000c0: 395e a83e a70d 523e 5f4b a03e 54b2 093f
000000d0: 75b3 dc3f 13a5 1abf dfdf 41be ffde 52be
000000e0: 5798 253f e590 3a3f 7d26 b73e a414 123e
000000f0: eff3 d13e 2b45 54bf f313 cdbd e540 2abf
00000100: b047 c93e a29f fabd c296 debd ab6b 343e
00000110: e0c9 aa3f 9292 3fbd b4da 3dbe 0351 103e
00000120: f015 2d3f 9f51 fe3e 1795 2cbd 5763 26bd
00000130: d5b8 b23d eb51 bdc0 6d07 dc3e bd16 c43c
00000140: a741 333f 5d56 213f 39c9 be3e 21c8 ff3e
00000150: fc88 1ec0 661c 3a3f 2e1f 593f 951b 7b3f
00000160: 388a 02bf b9ee d5be 6182 5f3d d9c0 2b3e
00000170: 4d5c d93e 0ea3 a23e 3808 b43f d7d5 ecbe
00000180: aa14 f13e 1f40 b5be 831e 66be 54c3 0bbe
00000190: c322 9ebe e185 fbbc 1873 0d3e 0af2 173e
000001a0: 38b7 3a3e 70a6 433e 1111 a73e 758d fb3d
000001b0: 8500 403e 48d0 0fbf 7883 003e ff72 25bf
000001c0: 8925 2d3f 6bdc dfbe 48d8 b4be 7cd3 babe
000001d0: c413 f5bf 4533 3fbf 2776 48bf 2378 44bf
000001e0: 7b8c 343e e820 f33e 8fe4 8abf f53f a2bf
000001f0: 5afb b1bf 2a27 5dbf 7a5a edbf 641f 443e
00000200: 8333 2dc0 96b2 9dbe 53db 84be c446 d9be
00000210: 3679 0540 4c7a 34c0 ded6 48c0 26a1 44c0
00000220: b4b2 553f 706e 5c3f 7e89 8a3e 3257 ab3e
00000230: 7494 9dbe c8b6 003f b7b0 1a3f 6172 923b
00000240: 1c18 f0bf 7a1c 903f 6cad 743f 6491 863f
00000250: 79f4 ea3f 1b97 d5be 2d62 ccbe a343 c4be
00000260: 184b 013f d41a a53e cd76 3dbf 7cf0 83bf
00000270: af6a 403f b7fe 8cbe 2be9 5cbe 3402 55be
00000280: f983 7c3f d91c 7dbf 5bed 6abf 67ee 9fbf
00000290: 7f2f 973d 60fe 59be 4e37 20be 9aa9 79bd
000002a0: cbe1 923e ca26 5e3e 4a2b 19bf f2c1 2dbf
000002b0: 74b7 21bd ac3f a5bf d3b9 ccbf 5793 0d3e
000002c0: 6d81 a5be 1107 d3bc 31ae 00be 966f 0cbd
000002d0: 3ea3 d63f 66ed 643e 4a37 fd3d f8a5 54bd
000002e0: ce42 ebbe fa70 20bf 1f78 2abe 47a9 26be
000002f0: b2cc 6d3e 9ac6 31c0 0793 403f 0c81 57bd
00000300: 1b48 ce3e 82a1 c63e 1652 863e 12dd e63e
00000310: 8fff 2cc0 eade 16ba 4602 55be c4a0 45be
00000320: d2f3 5a3f b6fb 533f e408 773f 7a6b 433f
00000330: 9283 293f bf77 81be 1bc0 4f3f ca8f 56bf
00000340: ef49 65bf b464 823f 5110 4d3f 5327 0c3f
00000350: 9b63 af3f 9611 69be bf5b f839 f428 3bbe
00000360: 273d 6c3e 31c1 d53e b044 3f3f d0f7 763f
00000370: 2604 2f3f 2645 35bf 445e 18bf 4756 d43d
00000380: 40ad 0fbf 474f 4b3f cb44 113f cdd0 133f
00000390: 80b1 abbf eca8 fbbe 1d4b 4abf 533b 23bf
000003a0: cf00 39bf 7b57 50bf 9147 2d3f 6f42 503f
000003b0: bbf5 e43e 1483 e3be e696 a73e d35b 34be
000003c0: 5dce f13f f932 b0be 88ff 69be 2acd 42be
000003d0: 78ea 24c0 2ca5 063f e063 383f ecfa 0b3f
000003e0: bc3d 813f 03fc 973f bc74 8dbf 149d 72bf
000003f0: 732b 323f 0beb 58be 7fc9 273c 66e1 96bd

feature.0.bias f4 [128]
-0.6353408 -0.25690484 -0.3521554 0.5390695 1.5298746 0.93613195 -0.53546876 1.0917156
1.1629176 -0.3201321 -0.3593214 1.3545941 0.48964626 0.22411373 0.6802214 -2.3717816
-1.2929504 2.346511 1.9061204 0.27906278 0.7116576 2.0986888 1.3662621 -0.33669668
-0.4124227 0.89970493 -0.05967486 -1.288924 0.6593927 -0.42394665 1.0381464 -0.4563259
-0.38396022 -2.6450934 -1.0519756 -0.054799404 0.48941386 1.6111277 0.73841906 -0.09640438
-0.9831672 1.9278288 -0.45889467 1.5150554 -0.15457831 -0.9342292 -2.537486 0.939105
0.99193084 -2.5279956 0.52624065 -0.66883653 -0.6312559 -0.34891996 0.85874796 1.0347968
-0.09000131 -0.30340174 0.2775626 -0.72303456 -0.9413985 -0.010943979 0.45157543 1.2045724
-1.9248775 -2.3226101 -1.1300857 -0.006760613 0.42169768 1.2565119 -0.14825298 1.0490091
-0.43250197 -0.771746 -1.6545681 -1.966693 0.96906334 -1.6737516 -2.1843626 0.8311927
-0.29382566 -1.7276083 0.11598234 0.23358063 -0.45222497 -0.8158126 0.22147846 -0.59966063
0.25570455 -1.0859748 -0.21776812 -0.87878186 -0.7721121 -0.73095524 -0.55751413 2.0572457
-0.29921582 -0.9823127 0.121156745 -0.29599854 1.0269186 -0.4783852 -3.6314664 -0.7336208
-1.1899327 -0.7649446 0.33138376 0.5388841 -0.05140763 -0.072480015 0.42015502 -1.5169196
-1.3339283 0.79619837 0.33661908 2.187159 0.26536444 1.1733714 -0.03647393 1.3609289
-2.2067378 1.2042241 -1.0066757 -0.086623766 1.0653813 -0.5280507 0.76873976 -1.3281069
00000000: b2a5 22bf 0889 83be b64d b4be 7500 0a3f
00000010: eed2 c33f 58a6 6f3f 7b14 09bf 56bd 8b3f
00000020: 7cda 943f 5be8 a3be f9f8 b7be 5763 ad3f
00000030: eab2 fa3e 127e 653e fd22 2e3f 45cb 17c0
00000040: 667f a5bf 3c2d 1640 c1fb f33f 51e1 8e3e
00000050: 312f 363f eb50 0640 ade1 ae3f 8263 acbe
00000060: 1129 d3be 1053 663f a06d 74bd 76fb a4bf
00000070: f6cd 283f 890f d9be fbe1 843f 8ca3 e9be
00000080: 6f96 c4be 3649 29c0 23a7 86bf 5775 60bd
00000090: 7494 fa3e 6f39 ce3f 0809 3d3f a96f c5bd
000000a0: d8b0 7bbf 18c3 f63f 3ef4 eabe 56ed c13f
000000b0: c749 1ebe a529 6fbf 2c66 22c0 2f69 703f
000000c0: 2eef 7d3f aeca 21c0 b5b7 063f df38 2bbf
000000d0: fd99 21bf a3a5 b2be e8d6 5b3f 3974 843f
000000e0: 9b52 b8bd 7957 9bbe af1c 8e3e cb18 39bf
000000f0: 7eff 70bf 604e 33bc e534 e73e 6e2f 9a3f
00000100: 6362 f6bf a5a5 14c0 a6a6 90bf 2288 ddbb
00000110: c2e8 d73e 62d5 a03f a1cf 17be ee45 863f
00000120: e670 ddbe 2591 45bf e3c8 d3bf 99bc fbbf
00000130: 8914 783f 7e3d d6bf 99cc 0bc0 0bc9 543f
00000140: 5170 96be 4522 ddbf 2688 ed3d c32f 6f3e
00000150: 088a e7be 18d9 50bf 40cb 623e 5c83 19bf
00000160: b5eb 823e 3901 8bbf 9bfe 5ebe d9f7 60bf
00000170: 23a9 45bf e21f 3bbf 3fb9 0ebf eaa9 0340
00000180: d132 99be d878 7bbf 0721 f83d 1f8d 97be
00000190: 1272 833f e8ee f4be f269 68c0 93ce 3bbf
000001a0: b74f 98bf 69d3 43bf 22ab a93e 4ff4 093f
000001b0: cf90 52bd 6770 94bd 8f1e d73e 6c2a c2bf
000001c0: 2abe aabf a8d3 4b3f 5659 ac3e 6afa 0b40
000001d0: d9dd 873e 0931 963f b065 15bd eb32 ae3f
000001e0: 313b 0dc0 0424 9a3f c0da 80bf cd67 b1bd
000001f0: 6a5e 883f 552e 07bf 21cc 443f 68ff a9bf

feature.2.weight f4 [128, 128]
-0.09338464 -0.73840463 -0.08607707 0.052235182 -0.32052124 0.107265584 -0.05084001 -1.0493104
0.014400472 -0.25502914 -0.13442825 -0.26682165 0.13229808 -0.06505469 0.008498103 0.016453011
0.07871775 -0.071179554 0.65806407 -0.22346275 0.86733544 -0.23065974 -1.2925593 0.0036677523
-0.3495564 -0.02579384 0.013205148 0.02495326 0.031674787 -0.02055509 -0.5847603 0.2847209
0.11010006 -0.5261224 -0.21904118 -0.04450353 -0.08456904 -0.3191807 0.065991916 0.058600582
-0.12389717 -0.17735597 -0.2698775 -0.095417775 -0.041930288 -0.067002445 0.048158985 -0.16945659
-0.24292484 -0.0059328326 0.09976121 -0.3917703 0.05705829 0.037138265 -0.13084291 -0.076835155
-0.20765446 -0.6164577 0.13874982 -0.20440215 0.13191226 -0.048557837 -0.2046772 0.13604996
-0.17920774 -0.33252493 -0.113649204 0.011236724 -0.27781492 -0.23794782 -0.25095657 -0.8279694
0.1001651 -0.20572063 0.10610948 -0.51452583 -0.6860113 -0.28170854 -0.088201635 0.4184965
-0.30939516 -0.17654154 0.10104604 0.036083084 0.47272184 -0.3991026 -1.0392114 -0.6994636
-0.0024504175 0.3018158 0.14762251 -0.14333534 -0.87752515 -0.0788111 -0.17974721 0.5396865
-0.14168517 0.22518952 -0.20387924 -0.31008717 -0.14833966 0.16383246 0.019591697 -0.15283014
-0.5899729 -0.13243614 -0.56933 0.002712305 0.2477448 0.072204575 0.049159914 -0.76449263
-0.0011888699 -0.25765365 -1.0435365 0.018732084 -0.6084489 -0.23173705 -0.087910146 0.011324073
-0.26825395 -1.893974 -0.401663 0.1993233 0.71729153 -0.06400413 0.53673935 -0.04298082
-0.23944075 0.034838744 0.16265973 0.41305572 0.012365632 -0.18149014 -0.12248406 0.22225805
-0.6635618 -0.07936513 -0.42928216 0.18542269 -0.12385157 0.2111581 0.06395169 0.039898988
-0.0011485368 -0.16779807 -0.24098466 0.5038027 -0.14606169 -0.25299218 -0.24128346 -0.18034144
-0.29792362 -0.11781007 0.043886505 -0.1950237 -0.19789068 -0.57553416 -0.08457952 -0.07234506
-0.3068675 -0.3142762 -0.17739809 0.013824577 0.30069855 0.075133175 -0.40847364 -0.19025898
-0.15498725 -0.68989307 -0.124560796 -0.18019325 0.07464428 -1.3743101 0.16316472 -0.28130582
-0.062233612 0.03654982 0.18852651 -0.3518978 -0.0374411 0.02066953 -0.050550003 -0.074751414
-0.037163723 0.033345513 0.20327547 -0.099096306 -0.09432945 -0.008615151 -0.0791272 -0.020088702
0.12284973 0.4049598 -0.055259746 -0.077264726 0.4722397 -0.020794094 -0.33149767 0.05284295
-0.5549699 -0.042860534 -0.023088625 0.7413737 0.02531592 -0.028119413 0.09263665 -0.08645242
0.21405666 -0.9893445 -0.5578028 -0.01714273 0.3294921 -0.78011286 -0.3806419 -0.062172696
-0.038772754 -0.03264718 0.08872073 -0.03243109 0.77383995 -0.17384605 0.016378546 -0.18534529
-0.42902267 -0.5091787 -0.10486125 -0.5254516 -0.1733221 -0.8453429 0.096069016 0.114579126
-0.02866912 -0.25792944 -0.06719979 -0.41483453 0.122509405 0.076829396 -0.20128347 -0.034653578
-0.23952524 -0.14890265 -0.18541136 -0.21124789 0.13228394 0.07514092 -0.0050137267 -0.62023455
-0.24464041 0.15089326 -0.06795521 -0.7181296 -0.21513031 -0.8880812 -0.21059099 -0.513214
00000000: 7240 bfbd 1608 3dbf 2d49 b0bd 8ff4 553d
00000010: 5c1b a4be 0fae db3d 9d3d 50bd ce4f 86bf
00000020: f5ef 6b3c 2e93 82be 8fa7 09be d99c 88be
00000030: 2679 073e 653b 85bd a13b 0b3c 77c8 863c
00000040: c636 a13d 96c6 91bd e376 283f 6bd3 64be
00000050: b209 5e3f 1132 6cbe 9572 a5bf ac5e 703b
00000060: 0ef9 b2be 9a4d d3bc 685a 583c c76a cc3c
00000070: 6cbd 013d 2663 a8bc dab2 15bf f0c6 913e
00000080: 247c e13d f5af 06bf 554c 60be 5549 36bd
00000090: 8832 adbd a76b a3be c526 873d 2a07 703d
000000a0: cdbd fdbd ce9c 35be 622d 8abe 656a c3bd
000000b0: 18bf 2bbd 9438 89bd 5b42 453d 0786 2dbe
000000c0: 4ac1 78be 3568 c2bb 9b4f cc3d 1e96 c8be
000000d0: f4b5 693d 4b1e 183d affb 05be c05b 9dbd
000000e0: 5fa3 54be 2cd0 1dbf 6f14 0e3e cc4e 51be
000000f0: 0214 073e 95e4 46bd e696 51be ae50 0b3e
00000100: 3c82 37be b540 aabe eac0 e8bd 3d1a 383c
00000110: c23d 8ebe 98a8 73be 617d 80be cdf5 53bf
00000120: 5c23 cd3d 6ea8 52be ed4f d93d f7b7 03bf
00000130: 709e 2fbf 1a3c 90be 0fa3 b4bd 2c45 d63e
00000140: 0b69 9ebe 4ec7 34be 3af1 ce3d dbcb 133d
00000150: 9908 f23e 2d57 ccbe e104 85bf 0c10 33bf
00000160: 2f97 20bb 9a87 9a3e 5b2a 173e 80c6 12be
00000170: 7da5 60bf b767 a1bd a70f 38be e528 0a3f
00000180: eb15 11be 1598 663e b8c5 50be bfc3 9ebe
00000190: 5ae6 17be b2c3 273e c47e a03c 817f 1cbe
000001a0: 7708 17bf 579d 07be 9cbf 11bf edc0 313b
000001b0: d0b0 7d3e fedf 933d e85b 493d cab5 43bf
000001c0: dbd3 9bba 2eeb 83be 9b92 85bf 0774 993c
000001d0: 4fc3 1bbf 7a4c 6dbe 3c0a b4bd 9b88 393c
000001e0: 9558 89be bd6d f2bf c6a6 cdbe 681b 4c3e
000001f0: 6ba0 373f 9914 83bd c067 093f a80c 30bd
00000200: f52f 75be 12b3 0e3d 4690 263e 0a7c d33e
00000210: 3899 4a3c 8dd8 39be ecd8 fabd 9d97 633e
00000220: 30df 29bf 2f8a a2bd dfca dbbe 72df 3d3e
00000230: e4a5 fdbd d439 583e 1bf9 823d 1f6d 233d
00000240: 808a 96ba 42d3 2bbe afc4 76be 37f9 003f
00000250: 3291 15be 3188 81be 0313 77be 6dab 38be
00000260: 7289 98be 6846 f1bd 56c2 333d 4bb4 47be
00000270: dba3 4abe 3556 13bf 0738 adbd a629 94bd
00000280: bd1d 9dbe cfe8 a0be d8a7 35be 7b80 623c
00000290: 29f5 993e 6cdf 993d 7523 d1be 40d3 42be
000002a0: fab4 1ebe d59c 30bf bb19 ffbd 9484 38be
000002b0: 1adf 983d 65e9 afbf a714 273e 5107 90be
000002c0: ace8 7ebd 44b5 153d 180d 413e f32b b4be
000002d0: d75b 19bd 2553 a93c 850d 4fbd 4517 99bd
000002e0: fd38 18bd 4e95 083d 7227 503e 01f3 cabd
000002f0: cc2f c1bd 9026 0dbc 710d a2bd 1091 a4bc
00000300: a498 fb3d e456 cf3e 0b58 62bd f83c 9ebd
00000310: 67c9 f13e 6058 aabc 10ba a9be d971 583d
00000320: 8212 0ebf 878e 2fbd 5b24 bdbc abca 3d3f
00000330: 5563 cf3c af5a e6bc 49b8 bd3d f70d b1bd
00000340: ab31 5b3e ae45 7dbf 2acc 0ebf e96e 8cbc
00000350: 30b3 a83e 7ab5 47bf 7fe3 c2be cca8 7ebd
00000360: 2ed0 1ebd 0db9 05bd 37b3 b53d 76d6 04bd
00000370: 601a 463f b304 32be 4d2c 863c 28cb 3dbe
00000380: dca8 dbbe 8959 02bf 7fc1 d6bd ff83 06bf
00000390: 597b 31be 6468 58bf d5bf c43d 76a8 ea3d
000003a0: 81db eabc 540f 84be 0ba0 89bd 3165 d4be
000003b0: 36e6 fa3d bb58 9d3d 411d 4ebe e9f0 0dbd
000003c0: 1b46 75be f079 18be 7adc 3dbe 5e51 58be
000003d0: 7175 073e 7ce3 993d 304a a4bb b1c7 1ebf
000003e0: 0483 7abe c383 1a3e 1a2c 8bbd 57d7 37bf
000003f0: 1f4b 5cbe 4a59 63bf 2aa5 57be fe61 03bf

feature.2.bias f4 [128]
-0.15328655 -0.12775481 0.8729854 1.5666304 -0.004153181 -0.046955273 -0.024019863 0.53236055
0.24183643 -0.23268043 0.59148514 0.16186476 0.16258621 -0.41442734 -0.20522982 0.02552967
-0.019987252 -0.4939723 -0.043905653 1.2628605 -0.1835467 -0.14197178 -2.3958335 -0.12913992
-0.04001034 -0.12607688 -0.15392101 -0.46649292 -0.001011468 0.76797044 -0.16618372 0.23704362
-0.0024831968 0.4387807 0.16430229 -0.072629444 0.4043315 0.23454303 0.25019538 0.22242922
-0.12664878 0.05988181 0.17952481 -0.10817057 0.14139868 -0.15102321 -0.32749528 0.034916956
-2.4542725 -0.20924263 -1.4752887 -0.82946557 -0.069117606 0.3746164 0.07710834 0.3331314
0.14850195 -0.4387523 0.13694957 -0.16705444 -0.051884793 -0.048368182 -0.04240409 1.0028749
0.21126534 -0.11726994 -0.18838051 -0.07414852 -0.08278695 -0.007174214 -0.14751329 -0.15613331
0.22824982 -0.68842757 0.2519664 -0.052378643 -0.13751566 0.19266438 0.37646383 -0.14277178
0.60166943 0.19482979 -0.44496512 -0.07667254 -0.105016 -0.08145829 0.4616187 0.25233746
-0.23272428 -0.57682925 -0.039967693 0.35806033 -0.04049736 1.0415497 -0.9321874 -0.029360449
-0.16919333 -0.0789913 0.27025446 0.6281251 -0.06444278 -0.5517446 0.69927686 0.59030765
1.1805059 -0.11676435 0.38984087 -0.16674547 0.4587663 0.0044070096 -0.05678851 -0.1467047
0.7425262 -0.12163355 -0.4562337 0.009179071 0.25022456 0.080523096 0.55682176 -0.020228505
-0.059447624 0.47507453 -0.08259655 -0.095884845 0.19315511 -0.1437027 -0.0079241535 -0.44498953
00000000: 26f7 1cbe 28d2 02be f97b 5f3f 5887 c83f
00000010: 6817 88bb 2c54 40bd 4ec5 c4bc c848 083f
00000020: f8a3 773e c743 6ebe 926b 173f e0bf 253e
00000030: 007d 263e d22f d4be c427 52be 9923 d13c
00000040: 4ebc a3bc f0e9 fcbe 6ad6 33bd 6aa5 a13f
00000050: abf3 3bbe 0d61 11be 5655 19c0 413d 04be
00000060: e2e1 23bd 4c1a 01be 789d 1dbe 29d8 eebe
00000070: 3c93 84ba b699 443f 112c 2abe 90bb 723e
00000080: 21bd 22bb dda7 e03e dc3e 283e bfbe 94bd
00000090: 8a04 cf3e 0c2c 703e 9c19 803e 7cc4 633e
000000a0: 38b0 01be a146 753d 5ad5 373e 8888 ddbd
000000b0: d1ca 103e d4a5 1abe 76ad a7be 1505 0f3d
000000c0: cd12 1dc0 b343 56be 43d6 bcbf db57 54bf
000000d0: 888d 8dbd b9cd bf3e faea 9d3d 3390 aa3e
000000e0: e510 183e 24a4 e0be 823c 0c3e 5210 2bbe
000000f0: 2685 54bd b71d 46bd e9af 2dbd 345e 803f
00000100: f155 583e 392b f0bd d2e6 40be 2edb 97bd
00000110: 348c a9bd ab15 ebbb b90d 17be 69e1 1fbe
00000120: 52ba 693e ca3c 30bf bd01 813e fd8a 56bd
00000130: e8d0 0cbe d049 453e debf c03e c432 12be
00000140: 0207 1a3f 7681 473e 78d2 e3be 7e06 9dbd
00000150: a112 d7bd 9bd3 a6bd 4959 ec3e 6032 813e
00000160: 464f 6ebe 15ab 13bf 2ab5 23bd af53 b73e
00000170: 8fe0 25bd 8051 853f d5a3 6ebf 5385 f0bc
00000180: 0441 2dbe 31c6 a1bd cb5e 8a3e cecc 203f
00000190: 94fa 83bd 223f 0dbf cf03 333f 671e 173f
000001a0: d11a 973f 2622 efbd 3999 c73e 53bf 2abe
000001b0: 6be3 ea3e ad68 903b 129b 68bd c239 16be
000001c0: 3216 3e3f 031b f9bd 7797 e9be d063 163c
000001d0: 6f1d 803e 4be9 a43d df8b 0e3f 40b6 a5bc
000001e0: 5a7f 73bd f83c f33e 6128 a9bd 465f c4bd
000001f0: 74ca 453e cd26 13be 4fd4 01bc abd5 e3be

value.0.weight f4 [64, 128]
0.6269052 -0.009075557 -1.0761999 -0.8175551 -0.020261023 -0.088858254 -0.13823694 -0.74206346
-0.74057215 0.04413453 -0.20449074 0.002776732 -0.6866175 -0.07349038 -0.64364064 -0.72104216
-0.0077963555 -0.8737338 0.015812594 -1.8039596 -0.39076656 -0.07864966 -2.7220674 -0.0045615435
0.04510842 -0.01622044 0.08249459 -0.21937239 -0.01692754 0.009125986 0.008214712 -1.3724676
-0.060755536 -2.2044551 -0.11384414 -0.07829987 -0.013126341 -0.77958626 -0.8997337 -0.19716671
-0.15871413 -0.34088913 -0.21956383 -0.058179624 -0.56706643 -0.10029278 -0.021327345 0.0648485
0.19114734 -0.7181263 -0.99875027 -0.27434486 -0.018440455 -0.3420673 -0.35893118 -1.7532169
-0.73636764 1.449274 -0.4403226 0.03649909 0.0362062 0.0010334402 0.05127842 -1.5919399
-0.22035658 0.07130321 0.0557063 0.01712481 -0.44230542 0.036078017 0.09933783 -0.10774701
-0.34739915 0.47250578 -0.8008619 -0.03139994 -0.19492659 -0.08050401 -0.50803185 0.065661624
-0.3502203 -0.009350194 0.84881544 0.06030272 0.025319148 -0.049057793 -0.3425754 -0.16427982
-0.23253353 0.20091276 -0.016413717 0.41837204 -0.35690522 0.06174137 0.32575372 -0.41643745
0.014195978 0.27944624 0.33706248 -0.045538444 -0.373295 -0.24861433 -2.0118098 -0.85804075
-0.18434861 0.025116526 -0.4419612 -0.94595313 -1.3954679 0.077360176 0.049089704 0.04927213
-0.5235513 -0.025022719 -0.26259485 -0.24835463 -0.27621907 -0.98638314 0.21498284 -0.055727817
0.7550771 0.41889948 0.06962643 0.040995587 -0.19119781 -0.07240148 0.026297703 0.5427903
-0.083826356 -0.034101874 -0.14058644 -0.9550841 -0.077453405 -0.08762488 -0.30187407 -0.022121292
0.26541948 0.00050085585 -0.5255453 -0.31454393 0.09047949 0.02062092 -0.1240902 -0.06629708
-0.07040654 0.19777519 0.05260515 -0.09730805 -0.08071671 -0.056894038 1.030055 0.0014674664
-0.7411322 -0.13888115 -0.034850627 -0.105398804 0.0023939556 -0.15656368 -0.062098555 -0.066856734
0.049355127 -0.03827796 0.36497596 0.04771788 -0.07187269 -0.3740246 -0.11204392 -0.04090252
-0.13867588 -0.17676915 -0.03840944 -0.04160428 -0.10540139 0.04611721 0.07136337 -0.11737885
-0.44398436 0.057407565 -0.0015292672 -0.10114251 0.052943014 -0.26371783 -0.19035392 -0.057866987
-0.12644047 0.7712931 0.04211964 0.07934884 -0.03460366 -0.086684845 -0.054235872 -1.0712314
-0.05550818 -0.0053637847 0.06146642 -0.05275994 -0.3343596 0.038455717 0.007506795 0.11322111
0.036137145 -0.48271322 -0.48724622 0.055811096 -0.075147726 -0.3422656 -0.059937738 0.09602564
-0.48524266 0.03588864 0.15554616 0.087808274 -0.033509865 0.034871012 -0.30326557 -0.17212684
-0.07469681 0.1128676 -0.009690874 0.009519974 0.056898966 -0.051099837 -0.29932016 0.37729612
0.029234005 0.111923195 0.3086806 -0.14788167 -0.01939305 -0.2005745 -0.009019857 -0.28164053
-0.35978487 0.00038462877 -0.17360117 -0.17274842 -0.028398478 -0.06757754 -0.017558292 0.061875157
-0.3148175 -0.07536528 -0.16803107 -0.018755967 -0.099511676 -0.21283789 -0.6066908 -0.001694616
-0.17137165 -0.04512709 -0.065709025 0.08672237 -0.09838168 -0.024985008 -0.016515411 -0.22219823
00000000: dc7c 203f a5b1 14bc ebc0 89bf 4b4b 51bf
00000010: 72fa a5bc 51fb b5bd fc8d 0dbe dff7 3dbf
00000020: 2396 3dbf 69c6 343d 0566 51be d5f9 353b
00000030: 2ac6 2fbf 2082 96bd a2c5 24bf 3896 38bf
00000040: 9278 ffbb 05ad 5fbf 6a89 813c 26e8 e6bf
00000050: 8e12 c8be 1313 a1bd 5a36 2ec0 0079 95bb
00000060: 9bc3 383d bae0 84bc ecf2 a83d 28a3 60be
00000070: a0ab 8abc 2985 153c 0097 063c 05ad afbf
00000080: ccda 78bd cb15 0dc0 1e27 e9bd af5b a0bd
00000090: dd0f 57bc f792 47bf f354 66bf 12e6 49be
000000a0: f585 22be 0589 aebe 57d5 60be c24d 6ebd
000000b0: 442b 11bf 4d66 cdbd afb6 aebc 4acf 843d
000000c0: 21bc 433e 20d7 37bf 19ae 7fbf ee76 8cbe
000000d0: 7010 97bc 7223 afbe d4c5 b7be 6969 e0bf
000000e0: 9782 3cbf cf81 b93f f771 e1be 1280 153d
000000f0: f44c 143d 8074 873a 5209 523d b0c4 cbbf
00000100: 28a5 61be 6b07 923d 4a2c 643d 5449 8c3c
00000110: db75 e2be 8bc6 133d a271 cb3d 77aa dcbd
00000120: 4dde b1be 47ec f13e 4905 4dbf 399d 00bd
00000130: d69a 47be 49df a4bd 600e 02bf 9a79 863d
00000140: 1350 b3be 8e31 19bc f84b 593f fcff 763d
00000150: 1a6a cf3c d3f0 48bd 0b66 afbe f838 28be
00000160: 451d 6ebe 13bc 4d3e 0f76 86bc dc34 d63e
00000170: 48bc b6be 85e4 7c3d 31c9 a63e 4a37 d5be
00000180: 3f96 683c 9413 8f3e 7493 ac3e 8586 3abd
00000190: 8620 bfbe c194 7ebe 7ec1 00c0 8fa8 5bbf
000001a0: e2c5 3cbe 2cc1 cd3c bd48 e2be fc29 72bf
000001b0: b19e b2bf 036f 9e3d 4912 493d 93d1 493d
000001c0: 7507 06bf 72fc ccbc d572 86be ad50 7ebe
000001d0: 966c 8dbe 9b83 7cbf 7624 5c3e da42 64bd
000001e0: bc4c 413f fe79 d63e 4d98 8e3d fdea 273d
000001f0: 5cc9 43be 3a47 94bd 486e d73c 4ef4 0a3f
00000200: 27ad abbd 68ae 0bbd e4f5 0fbe 6480 74bf
00000210: e49f 9ebd ac74 b3bd 3d8f 9abe b637 b5bc
00000220: 10e5 873e de4b 033a 238a 06bf e70b a1be
00000230: 504d b93d 34ed a83c 0123 febd c3c6 87bd
00000240: 4e31 90bd 9485 4a3e 7f78 573d 7149 c7bd
00000250: cd4e a5bd b909 69bd d8d8 833f 0058 c03a
00000260: d7ba 3dbf dc36 0ebe 88bf 0ebd 54db d7bd
00000270: e9e3 1c3b 3b52 20be 0e5b 7ebd 2fec 88bd
00000280: 9a28 4a3d 5ac9 1cbd 21de ba3e d373 433d
00000290: fd31 93bd 2780 bfbe 4877 e5bd 6789 27bd
000002a0: 0d01 0ebe f902 35be 3853 1dbd 4069 2abd
000002b0: afdc d7bd 66e5 3c3d f526 923d 5364 f0bd
000002c0: eb51 e3be 3224 6b3d b171 c8ba ce23 cfbd
000002d0: c6da 583d 0606 87be 23ec 42be ef05 6dbd
000002e0: 9c79 01be 7773 453f a585 2c3d a581 a23d
000002f0: 91bc 0dbd d387 b1bd 6f26 5ebd 1c1e 89bf
00000300: 8c5c 63bd b0c2 afbb 36c4 7b3d cf1a 58bd
00000310: 2e31 abbe be83 1d3d 90fb f53b 78e0 e73d
00000320: 8b04 143d 3026 f7be 5678 f9be 2d9a 643d
00000330: 0de7 99bd 703d afbe 4681 75bd 17a9 c43d
00000340: ba71 f8be f7ff 123d 7e47 1f3e d3d4 b33d
00000350: a441 09bd e8d4 0e3d a045 9bbe 0542 30be
00000360: a4fa 98bd 2127 e73d 79c6 1ebc aaf9 1b3c
00000370: e40e 693d 104e 51bd 7e40 99be f52c c13e
00000380: 277c ef3c fd37 e53d 620b 9e3e 4b6e 17be
00000390: 2cde 9ebc 6763 4dbe 06c8 13bc 3033 90be
000003a0: b935 b8be 00a8 c939 81c4 31be f6e4 30be
000003b0: eda3 e8bc 1866 8abd 68d6 8fbc ce70 7d3d
000003c0: c22f a1be 1d59 9abd 5610 2cbe 1da6 99bc
000003d0: c7cc cbbd 2df2 59be 1750 1bbf e11d deba
000003e0: 0d7c 2fbe 2fd7 38bd 7492 86bd 7f9b b13d
000003f0: 567c c9bd 5cad ccbc 544b 87bc ef87 63be

value.0.bias f4 [64]
-0.17719293 -0.6442297 1.5204436 -1.5299586 1.4647236 0.7762934 -0.24057478 -0.3175796
0.66196114 -1.7031301 -1.2009366 0.8002578 -1.6985046 0.10276992 2.2645907 -0.10404004
1.3562536 1.2477422 0.65538895 -2.24687 0.22735952 1.3833295 -1.2355806 0.093140446
0.5549668 -0.4503383 1.039658 0.34111786 0.8506649 -0.0909113 0.9363599 -0.223003
0.5880256 0.07041692 0.21901654 0.55634844 0.8861089 0.2940443 -0.43959904 -0.5725086
0.8625771 -1.2604104 0.262675 -0.3398784 1.247943 -0.20242469 0.77567744 -0.28604728
0.9266045 -1.589841 -0.38506535 0.27130222 1.008091 0.7959866 -0.4818125 -0.31680948
-0.069574565 -1.8069202 0.85188234 -1.483959 -0.61274725 -2.0516646 -1.0243634 -0.5687189
00000000: 1072 35be 3dec 24bf e59d c23f afd5 c3bf
00000010: 107c bb3f 2abb 463f 3c59 76be cb99 a2be
00000020: 4976 293f 2b00 dabf 4ab8 99bf b2dd 4c3f
00000030: 9968 d9bf 0979 d23d 0eef 1040 f212 d5bd
00000040: b899 ad3f 04b6 9f3f 92c7 273f b8cc 0fc0
00000050: efd0 683e f110 b13f 8127 9ebf 6bc0 be3d
00000060: 4e12 0e3f be92 e6be 8313 853f 00a7 ae3e
00000070: 2dc5 593f b42f babd 48b5 6f3f e65a 64be
00000080: d988 163f bf36 903d df45 603e da6c 0e3f
00000090: 08d8 623f f98c 963e 2013 e1be ec8f 12bf
000000a0: dad1 5c3f 2155 a1bf 567d 863e 8b04 aebe
000000b0: 99bc 9f3f 6b48 4fbe cc92 463f ca74 92be
000000c0: f435 6d3f e97f cbbf 4927 c5be 20e8 8a3e
000000d0: 2009 813f c7c5 4b3f 21b0 f6be da34 a2be
000000e0: 1c7d 8ebd 2949 e7bf f614 5a3f 5ef2 bdbf
000000f0: 01dd 1cbf 794e 03c0 571e 83bf 9097 11bf

value.2.weight f4 [1, 64]
-1.7342821 1.7574387 -0.5618736 2.4746013 1.3609377 0.86929375 -0.02153351 -0.392832
-1.3933636 -0.43802488 0.49853128 -0.38971457 0.6351972 -0.5994353 -0.41522363 0.030294959
-0.1123574 -0.061454445 1.3996397 0.75446147 -1.8129174 1.4901354 0.6369001 -1.3544965
-2.3556006 0.7408463 -0.13403597 -0.81787586 -0.17495884 -0.005412474 -0.15940966 -0.012120166
0.9926154 -0.21092339 0.55756307 0.42421293 -0.16767895 0.96281415 -2.2171063 -0.3789062
-0.52866673 -1.0967828 -1.0111619 0.56000787 0.79269445 -0.013495472 0.71560156 0.02185816
-0.30981925 0.6079069 -2.3813052 -0.6196261 -0.13259004 -0.14731333 0.30723444 -0.031265233
-1.0286282 0.8007926 -0.14129959 1.1175525 0.7549312 -3.419388 -1.0122967 -0.8011155
00000000: f5fc ddbf c0f3 e03f f3d6 0fbf de5f 1e40
00000010: 3533 ae3f 098a 5e3f 0b67 b0bc 4721 c9be
00000020: bd59 b2bf cc44 e0be 7e3f ff3e ab88 c7be
00000030: 499c 223f 9874 19bf 3198 d4be 222d f83c
00000040: a31b e6bd a8b7 7bbd 6527 b33f 6324 413f
00000050: ad0d e8bf c2bc be3f e30b 233f 2460 adbf
00000060: 29c2 16c0 1aa8 3d3f ba40 09be 5060 51bf
00000070: 6928 33be 1f5b b1bb 493c 23be a993 46bc
00000080: 0b1c 7e3f 4dfc 57be 74bc 0e3f 7032 d93e
00000090: 08b4 2bbe fd7a 763f 12e5 0dc0 feff c1be
000000a0: b456 07bf 6163 8cbf c16d 81bf ad5c 0f3f
000000b0: 06ee 4a3f 1d1c 5dbc aa31 373f e20f b33c
000000c0: a1a0 9ebe c99f 1b3f 4e67 18c0 d19f 1ebf
000000d0: afc5 07be 4ed9 16be d54d 9d3e f90f 00bd
000000e0: 17aa 83bf be00 4d3f d7b0 10be f60b 8f3f
000000f0: 2c43 413f 41d7 5ac0 f092 81bf e815 4dbf

adv.0.weight f4 [64, 128]
-0.19375494 0.063666716 0.15976769 0.45207477 0.00028551213 0.0031647629 -0.4023983 -0.39161456
0.20341973 0.055703755 0.76019067 -0.117341734 -0.36010104 -0.77860916 -0.24631052 -0.9869894
-0.035039157 -0.33345354 -0.06969281 -0.10303778 0.024213357 -0.07316572 -0.85271704 0.019841542
-0.5158881 0.0006546843 -0.08751975 -0.20016956 0.417938 -0.20708042 -0.009529602 -0.45974272
0.020990644 -0.94078624 -0.16132134 -0.57045513 -1.5341828 -0.755704 -1.2663337 -0.25444236
-0.094495036 -0.09675029 -0.290051 -0.051855974 -0.48590258 0.07624877 -0.113256544 -0.27435353
0.019774912 -0.9776047 0.0058798045 -0.5121266 0.068691194 -0.31718588 -0.15559639 0.17293657
0.37923357 0.71434295 -0.52546155 -0.05010633 -0.07033275 -0.06461741 -0.056409564 -1.0585053
-0.8646266 0.0026030838 0.014396429 0.053780604 -0.7547992 -0.07281376 -0.06703014 -0.061950102
-1.4031769 -0.2025185 -0.9273169 0.024523063 -0.020121654 -0.7799039 0.3047436 0.22646263
-0.16518609 -0.27140313 1.0558267 -0.03929097 0.056094058 -0.06691759 -0.4712631 -1.1066554
-0.7642789 -0.44301987 0.0013875852 -6.1877613 -0.22621226 -0.2921079 0.16307402 -0.20211516
-0.043689113 -0.46873963 -0.91712767 -0.86865604 0.84680456 1.1997846 -0.06969356 -0.82501626
-2.0109735 -0.06466237 0.2331646 0.02932744 -0.13875408 0.075785786 0.010118343 -0.05476494
-0.605 -0.07740745 -0.2630004 -0.10535592 -1.3459003 0.1156003 -0.063403875 -0.02512822
-0.35510293 -0.31558228 -0.0038850482 0.030230233 -0.22415267 -0.0071322992 -0.083327144 -0.2968082
-0.07826093 0.63276136 -0.33053583 -0.8992167 -0.033141617 -0.048738636 -0.12383583 -0.36598527
-0.05799673 -0.0945707 -0.46897274 -0.28627577 -0.12917483 -0.15315029 -0.24598616 -0.29975474
0.060223408 -0.8758895 -0.036624894 -0.63317513 -0.09635074 -0.086338505 0.8041716 -0.012335785
-0.04224054 0.07639725 0.018864194 -0.30844495 -0.37899947 -0.096421875 0.04208889 0.3434918
-0.032983333 -0.73590004 -0.7621792 0.018219719 -0.08857644 -0.020912519 -0.9104175 -0.123820476
0.05721407 -0.10193237 -0.35451493 0.02295836 -0.11988717 -0.049350057 -0.12431794 -0.15917772
0.3836342 0.0028542343 0.7903466 -0.43146294 -0.016852116 0.29852843 0.07803879 0.23093806
-0.084671006 0.18947954 0.47360453 -0.08152432 0.04929509 -0.07220622 0.005157426 -0.2650632
0.08728452 -0.00033356994 0.061446514 0.011939563 -0.90856457 0.058894083 -0.057364937 0.01504296
-0.22348532 0.27589265 -0.18876636 0.0452931 -0.04789449 -0.48284775 0.37483913 0.3029186
-0.010216445 -0.1948539 0.8100253 -0.01747109 0.07683899 -0.030450065 -0.69885534 -0.30953535
0.07158739 -0.37633517 0.049619712 -0.020478372 -0.1273121 -0.45930982 0.24829577 -0.018793471
-0.057086598 0.12040443 0.41661 -0.8449887 0.23520249 -0.30666456 0.020782536 -0.82915896
-1.222105 -0.06190257 -0.34789476 -0.47458282 -0.721007 -0.025693148 -0.0017681867 0.056655325
-0.6110734 -0.08375803 -0.11783526 -0.117014624 0.30822766 0.19476096 -0.16757351 -0.071945705
0.022186482 -0.056146733 -0.05627524 -0.03284976 -0.06564156 0.080086194 0.0046791956 0.19109698
00000000: b267 46be b263 823d 249a 233e 5876 e73e
00000010: cab0 9539 e967 4f3b 2607 cebe b481 c8be
00000020: 434d 503e 9f29 643d db9b 423f dd50 f0bd
00000030: 2a5f b8be ee52 47bf d338 7cbe 56ab 7cbf
00000040: 3885 0fbd 6cba aabe 1bbb 8ebd 7905 d3bd
00000050: 175b c63c e9d7 95bd aa4b 5abf bb8a a23c
00000060: 3e11 04bf 1f9f 2b3a 8e3d b3bd 40f9 4cbe
00000070: f8fb d53e e40c 54be 0c22 1cbc 6663 ebbe
00000080: 92f4 ab3c 5ed7 70bf 6c31 25be 5909 12bf
00000090: 1a60 c4bf d175 41bf 3917 a2bf 4546 82be
000000a0: 9d86 c1bd 0425 c6bd 9181 94be ee66 54bd
000000b0: 39c8 f8be 5128 9c3d 0cf3 e7bd 1178 8cbe
000000c0: fffe a13c 4d44 7abf 60ab c03b bb1a 03bf
000000d0: f8ad 8c3d 3066 a2be a954 1fbe 4916 313e
000000e0: e72a c23e 2edf 363f a684 06bf 4c3c 4dbd
000000f0: 9e0a 90bd 2256 84bd b70d 67bd 1a7d 87bf
00000100: 2b58 5dbf 8098 2a3b 00df 6b3c 0d49 5c3d
00000110: 853a 41bf 611f 95bd 1947 89bd 64bf 7dbd
00000120: 4d9b b3bf 0261 4fbe a464 6dbf 97e4 c83c
00000130: 2bd6 a4bc c8a7 47bf 5a07 9c3e d2e5 673e
00000140: 8b26 29be 5af5 8abe 5425 873f 91ef 20bd
00000150: e2c2 653d 170c 89bd 6649 f1be e2a6 8dbf
00000160: c8a7 43bf 80d3 e2be a2df b53a 2402 c6c0
00000170: 30a4 67be 2b8f 95be e0fc 263e 47f7 4ebe
00000180: 5bf3 32bd a4fe efbe e1c8 6abf 3e60 5ebf
00000190: 2fc8 583f 8b92 993f 7fbb 8ebd 4434 53bf
000001a0: cab3 00c0 b46d 84bd b3c2 6e3e 1940 f03c
000001b0: 8d15 0ebe 9435 9b3d 68c7 253c 3451 60bd
000001c0: 48e1 1abf cc87 9ebd fda7 86be d8c4 d7bd
000001d0: 7646 acbf dabf ec3d e4d9 81bd b2d9 cdbc
000001e0: 0dd0 b5be 0094 a1be 4b9c 7ebb 65a5 f73c
000001f0: 4788 65be 10b6 e9bb 6ca7 aabd 3ff7 97be
00000200: 4447 a0bd a6fc 213f fe3b a9be 1133 66bf
00000210: 81bf 07bd 2aa2 47bd a49d fdbd 6c62 bbbe
00000220: fb8d 6dbd 48ae c1bd 321d f0be bd92 92be
00000230: 6846 04be 6ed3 1cbe cce3 7bbe 7479 99be
00000240: d2ac 763d 4b3a 60bf fc03 16bd c417 22bf
00000250: 8953 c5bd 3ed2 b0bd 31de 4d3f 081c 4abc
00000260: 6b04 2dbd 2976 9c3d 1589 9a3c 7fec 9dbe
00000270: 380c c2be d578 c5bd 6665 2c3d 28de af3e
00000280: 8819 07bd f263 3cbf 2d1e 43bf 8541 953c
00000290: 9167 b5bd bb50 abbc 1f11 69bf 9795 fdbd
000002a0: 4d59 6a3d ebc1 d0bd fb82 b5be 2c13 bc3c
000002b0: 6887 f5bd 4923 4abd 679a febd 7cff 22be
000002c0: b46b c43e 1b0e 3b3b 2854 4a3f b6e8 dcbe
000002d0: 730d 8abc b8d8 983e cdd2 9f3d 077b 6c3e
000002e0: fe67 adbd ed06 423e 4b7c f23e 39f6 a6bd
000002f0: a6e9 493d dbe0 93bd a0ff a83b 5db6 87be
00000300: 3ac2 b23d 00e3 aeb9 57af 7b3d 289e 433c
00000310: b097 68bf ec3a 713d 7ff7 6abd bf76 763c
00000320: 56d9 64be cd41 8d3e f84b 41be 4285 393d
00000330: 032d 44bd d237 f7be eaea bf3e 2618 9b3e
00000340: e062 27bc c887 47be d15d 4f3f 881f 8fbc
00000350: c35d 9d3d 6a72 f9bc 2fe8 32bf 6b7b 9ebe
00000360: 699c 923d 01af c0be 0a3e 4b3d 42c2 a7bc
00000370: 1a5e 02be a82a ebbe 3f41 7e3e c4f4 99bc
00000380: a3d3 69bd 9996 f63d e84d d53e 2e51 58bf
00000390: ecd8 703e 2303 9dbe 2340 aa3c c343 54bf
000003a0: f06d 9cbf 8d8d 7dbd 431f b2be 85fc f2be
000003b0: ea93 38bf 707a d2bc 80c2 e7ba 6a0f 683d
000003c0: 4e6f 1cbf 5489 abbd 9d53 f1bd 5da5 efbd
000003d0: 04d0 9d3e 6b6f 473e 6498 2bbe 4558 93bd
000003e0: 6dc0 b53c 1efa 65bd de80 66bd 788d 06bd
000003f0: 156f 86bd 3b04 a43d f053 993b edae 433e

adv.0.bias f4 [64]
-1.7404684 -1.5977075 -0.21118334 -0.65200126 -1.263435 -0.74678534 -1.3175333 -2.1092792
-0.18985529 -0.8667364 -0.20606816 -1.3748761 -0.3945194 -0.15602812 -1.252876 -0.70685047
-0.39977297 -2.2600968 -0.005357601 -1.3023653 -0.1035866 -0.24299733 -0.46637112 -1.2354261
0.5253593 -0.65671587 -0.23224707 -0.7141951 -0.50984734 -1.0576433 -3.1008708 -0.51004356
0.22002058 -0.12192474 -0.2915777 -1.8234286 -1.3381811 -0.6280656 -0.2968248 -0.038566288
-0.7705244 -0.13408355 -1.3295698 -0.15581626 -0.5841839 0.13023585 -1.4082228 -1.2059648
-1.9795858 -0.07817899 0.19071007 -0.15708248 -0.41308582 -1.5110482 -0.38079053 -0.31083965
-0.63100445 -1.7705116 -0.5544587 -0.20397212 -0.22593975 -0.53382194 -0.16885899 -0.5041217
00000000: abc7 debf ae81 ccbf 7240 58be 8ee9 26bf
00000010: 3db8 a1bf 532d 3fbf eea4 a8bf 6efe 06c0
00000020: 6d69 42be 70e2 5dbf 8803 53be f1fb afbf
00000030: 72fe c9be d6c5 1fbe 3e5e a0bf 27f4 34bf
00000040: 0baf ccbe 6da5 10c0 d18e afbb e8b3 a6bf
00000050: 3625 d4bd 4bd4 78be 32c8 eebe 7122 9ebf
00000060: f27d 063f 881e 28bf 2dd2 6dbe 7dd5 36bf
00000070: 5b85 02bf db60 87bf ab74 46c0 3792 02bf
00000080: 134d 613e aeb3 f9bd ac49 95be 1c66 e9bf
00000090: 8549 abbf e8c8 20bf 6cf9 97be aff7 1dbd
000000a0: 1641 45bf 334d 09be 582f aabf 4c8e 1fbe
000000b0: 138d 15bf 8c5c 053e a540 b4bf 0e5d 9abf
000000c0: 1163 fdbf 4e1c a0bd 8049 433e 3bda 20be
000000d0: fc7f d3be 076a c1bf faf6 c2be 6026 9fbe
000000e0: 8289 21bf 20a0 e2bf 01f1 0dbf 11de 50be
000000f0: c05c 67be 8ea8 08bf 5fe9 2cbe 1f0e 01bf

adv.2.weight f4 [2, 64]
-3.2099931 1.2380605 -2.4501936 -0.5971961 -0.33706206 -0.059684724 1.1773531 -2.4067883
0.1017505 1.4183522 -0.0761999 -1.7650894 0.9374432 0.049491365 -1.1335043 -1.6529071
-0.23765919 -1.0684513 -1.0647827 0.90345097 -1.0049399 0.4404798 1.3385193 -1.3356798
0.39152697 -0.2830825 -0.39265358 0.40754604 0.72618765 -1.1103586 -1.456927 0.29450807
-1.0625609 -0.25284234 -0.43008906 1.1509187 -2.38878 2.2851193 0.70562714 1.2376356
0.8145965 -0.01121407 -1.9317188 0.06564573 -0.6213372 1.0070871 -0.9931703 2.0840952
-3.305911 2.2462003 0.60611916 0.030950762 -0.7059501 1.3977995 -0.02409322 -0.12247826
0.7303699 2.0522327 -0.8083494 0.020115312 -0.81020385 0.4047461 -0.0073652137 -0.9471744
3.1444843 -1.2221115 2.5138452 0.5231736 0.40416616 0.10879541 -1.1764274 2.4837732
0.084642835 -1.3886107 -0.0672896 1.6505582 -0.89648885 0.042434976 1.0082923 1.5406644
0.16065179 1.1380731 0.933292 -0.9771929 0.83053744 -0.5313506 -1.3675685 1.3062859
-0.34673432 0.2450807 0.17933802 -0.48226106 -0.66721493 1.098246 1.31276 -0.452685
1.0377804 0.32703623 0.34438118 -1.075686 2.287962 -2.393223 -0.8081109 -1.1738625
-0.7964725 0.009216002 1.905653 0.020805774 0.493538 -0.97528243 1.0720373 -2.0764332
3.3356795 -2.1218069 -0.6474731 -0.0034372662 0.72885054 -1.5266705 -0.014967439 0.11107879
-0.7973145 -2.0725713 0.78842545 0.013212859 0.7014068 -0.33729574 0.008756703 1.0193552
00000000: 8770 4dc0 c478 9e3f f9cf 1cc0 d8e1 18bf
00000010: 6693 acbe f877 74bd 82b3 963f d208 1ac0
00000020: 9162 d03d 918c b53f b10e 9cbd 73ee e1bf
00000030: 47fc 6f3f 75b7 4a3d ab16 91bf 7692 d3bf
00000040: ee5c 73be 03c3 88bf cd4a 88bf 9048 673f
00000050: dfa1 80bf 9186 e13e 9a54 ab3f 8ef7 aabf
00000060: 3976 c83e 30f0 90be e409 c9be e0a9 d03e
00000070: 6fe7 393f 3b20 8ebf 957c babf c3c9 963e
00000080: ff01 88bf 8d74 81be a234 dcbe 4e51 933f
00000090: c6e1 18c0 653f 1240 fba3 343f d86a 9e3f
000000a0: 6589 503f 38bb 37bc 9042 f7bf 4571 863d
000000b0: f40f 1fbf 3be8 803f 6940 7ebf d161 0540
000000c0: 0c94 53c0 bfc1 0f40 a02a 1b3f 748c fd3c
000000d0: 25b9 34bf 18eb b23f 255f c5bc e2d5 fabd
000000e0: 86f9 3a3f c857 0340 fcef 4ebf dec8 a43c
000000f0: 8569 4fbf e13a cf3e e457 f1bb 057a 72bf
00000100: 3b3f 4940 266e 9cbf d7e2 2040 b4ee 053f
00000110: deee ce3e 21d0 de3d 2c95 96bf 24f6 1e40
00000120: 3959 ad3d ffbd b1bf 21cf 89bd 7e45 d33f
00000130: 4b80 65bf 4cd0 2d3d b90f 813f 7e34 c53f
00000140: e781 243e 61ac 913f 39ec 6e3f 5029 7abf
00000150: 1a9e 543f 9806 08bf 7c0c afbf 6034 a73f
00000160: 2987 b1be 6ff6 7a3e 63a4 373e ecea f6be
00000170: 99ce 2abf 5393 8c3f 8508 a83f 54c6 e7be
00000180: fdd5 843f 4b71 a73e bb52 b03e 14b0 89bf
00000190: f86d 1240 912a 19c0 5be0 4ebf 2041 96bf
000001a0: 9fe5 4bbf b7fe 163c 70ec f33f df70 aa3c
000001b0: 03b1 fc3e 1cac 79bf 8538 893f 48e4 04c0
000001c0: c67b 5540 afcb 07c0 ccc0 25bf c243 61bb
000001d0: f395 3a3f f069 c3bf fd39 75bc 477d e33d
000001e0: ce1c 4cbf 02a5 04c0 40d6 493f bf7a 583c
000001f0: 658f 333f 07b2 acbe 4678 0f3c 3b7a 823f

adv.2.bias f4 [2]
-0.26256853 0.1137955
00000000: 626f 86be 9d0d e93d
