curriculum_run_600/checkpoints/ep_0550.pt (torch, 145855 bytes, 11 tensors)

feature.0.weight f4 [128, 16]
000000 18 8b f3 3d 4f 28 87 bf 9b 64 4f bf fd a7 73 bf
       0.118917644 -1.0559176 -0.81012887 -0.95178205
000010 3c c5 03 c0 06 f8 43 3f 09 01 9e 3f fc c7 58 3f
       -2.0589132 0.7655033 1.2344066 0.8468015
000020 70 95 c7 3d d4 49 0b 3d c2 aa cc be 96 d2 0d bf
       0.097453 0.034005955 -0.39974028 -0.55399454
000030 ec 5f 1a be 4d b1 c3 3e d3 6a 19 40 41 fb a1 bf
       -0.15075654 0.38221207 2.397145 -1.2654802
000040 51 49 86 3e 74 fb bd bd fe ca e6 be 30 e6 7c be
       0.2622781 -0.092764765 -0.45076746 -0.24697185
000050 03 e2 ac 3e 88 3f 6c 3e 97 d5 22 3f ee d4 fb 3e
       0.33766183 0.2307111 0.6360716 0.4918589
000060 78 03 5a bf 57 90 fb be c9 40 6c be eb 07 1a bf
       -0.8516154 -0.4913356 -0.23071589 -0.6016833
000070 b5 87 b5 be 8a 24 ca be 52 0a 74 3e d8 51 03 bf
       -0.354551 -0.39481002 0.23832062 -0.5129676
000080 d5 3b ed be 27 35 a8 3e f7 e7 86 3e 1e 0c d3 3d
       -0.4633471 0.32853052 0.2634885 0.103050455
000090 0c ac 61 be fa b4 0e 3e 84 94 69 3e d6 53 bd 3e
       -0.22038287 0.13936225 0.2281056 0.36978024
0000a0 35 c8 0b 3e a5 61 15 3e e6 cd 6b 3f cd 95 57 3f
       0.13650592 0.1458803 0.9211105 0.8421295
0000b0 41 6f 31 3e 76 d6 e5 be 9c eb e0 be 85 21 11 bf
       0.17327596 -0.44890183 -0.43929756 -0.5669177
0000c0 26 9c b5 be 45 23 d0 3e 69 b4 03 3f 26 41 3d 3f
       -0.35470694 0.4065191 0.5144716 0.73927534
0000d0 a1 12 e9 3f 95 0e 3e bf 7c c3 a7 be 10 43 b0 be
       1.820881 -0.74241 -0.3276633 -0.34426165
0000e0 bd a8 16 3f f3 a1 2b 3f a7 b7 fb 3e 55 9b 8d 3e
       0.58851224 0.6704399 0.49163553 0.2765757
0000f0 1a 84 f3 3e 97 d1 41 bf ad 6e cf 3e ca 73 cb be
       0.47561723 -0.75710434 0.40514126 -0.39736778
000100 46 80 0c 3f a2 9f fa bd c2 96 de bd ab 6b 34 3e
       0.5488323 -0.12237479 -0.108685985 0.17619197
000110 3a b2 e1 3f 92 92 3f bd b4 da 3d be 03 51 10 3e
       1.7632515 -0.04677064 -0.1854046 0.14093404
000120 9e 9b 5b 3f 6e ae 2d 3f 17 95 2c bd 57 63 26 bd
       0.8578433 0.67844284 -0.04213437 -0.04062208
000130 20 d5 f5 3e 63 00 bf c0 bb 78 16 3f b3 0d 84 3d
       0.48014164 -5.968797 0.5877797 0.064479254
000140 04 9e 14 3f f8 e1 27 3f 23 df cb 3e 4e 6f 06 3f
       0.5805361 0.65579176 0.39818677 0.5251359
000150 bb c8 0d c0 5a 18 52 3f 22 1b 71 3f a8 8c 89 3f
       -2.2153766 0.8206841 0.94182026 1.074605
000160 69 94 12 bf af 02 f6 be 3f fb bf 3e 03 eb f9 3e
       -0.57257706 -0.48048922 0.37496373 0.48812112
000170 93 2c 13 3f a1 3b 95 3e 79 b8 a0 3f bd e7 f8 be
       0.5748989 0.29147056 1.2556297 -0.48614302
000180 f1 a4 15 3f 1f 40 b5 be 83 1e 66 be 54 c3 0b be
       0.58454806 -0.35400483 -0.22472577 -0.1364873
000190 c3 22 9e be e1 85 fb bc 18 73 0d 3e 0a f2 17 3e
       -0.30885896 -0.030703487 0.13813436 0.14838424
0001a0 cb e2 98 3e 63 5a 9d 3e 11 11 a7 3e 75 8d fb 3d
       0.2986053 0.30733022 0.32630208 0.1228284
0001b0 1f 02 99 3e ec 45 15 bf 72 7c 66 3e 49 21 0d bf
       0.2988443 -0.5830982 0.2250841 -0.55128914
0001c0 84 3e 03 3e a5 e1 ac bf d5 20 a2 bf b3 9f a3 bf
       0.12816817 -1.3506361 -1.266627 -1.2783111
0001d0 51 24 1f c0 1c 74 12 bf fe b6 1b bf fa b8 17 bf
       -2.4865916 -0.5720842 -0.608261 -0.59266627
0001e0 ac 87 9c 3e 90 b1 1a 3f ed 20 cd be 3e 47 15 bf
       0.3057226 0.6042719 -0.40064183 -0.5831183
0001f0 3e 0c c0 bf 2d be 38 bf b8 25 ef bf 6b f4 68 3e
       -1.5003736 -0.72165185 -1.8683386 0.22749488
000200 2b ce 25 c0 b8 50 b5 be 54 7a 9c be b8 e4 f0 be
       -2.5907085 -0.35413146 -0.3056208 -0.470495
000210 e5 b6 d8 3f 33 91 2a c0 c5 ed 3e c0 0d b8 3a c0
       1.6930815 -2.6651123 -2.9832623 -2.9174836
000220 ae ed 1c 3f 6a a9 23 3f fa c5 4e 3e ee 30 88 3e
       0.6130017 0.6393038 0.2019271 0.2659983
000230 27 1c 8f be 2b e1 15 3f 7b d7 f6 3e a7 f6 12 bc
       -0.27951166 0.58546704 0.48211274 -0.008969939
000240 5f eb 12 c0 0f 9c 9e 3f 35 d6 88 3f f9 10 95 3f
       -2.295616 1.2391375 1.0690371 1.1645805
000250 ed f3 c7 3f f5 3a bc bd 31 67 97 bd a7 da 6d bd
       1.5621315 -0.09190933 -0.07392729 -0.05806985
000260 75 6a 25 3e 50 7e ac bc 71 c6 9f bf d3 fb c4 bf
       0.16153891 -0.021056324 -1.2482435 -1.5389351
000270 85 f3 47 3f 34 cd 4f be 1a 8d cf be 4c 8d 04 be
       0.78105956 -0.20293123 -0.4053734 -0.12944525
000280 0d 43 cc 3f 9d 64 d1 bf e9 4c c8 bf 77 c4 f2 bf
       1.5957962 -1.635883 -1.5648471 -1.8966206
000290 75 c2 6f 3d f1 af 93 3e bd 92 b0 3e f3 78 e1 3e
       0.058535058 0.2884517 0.34486952 0.4403759
0002a0 b5 5b f9 3e 42 8d d5 3e 94 c8 3a bf 70 5f 4f bf
       0.4870278 0.41709334 -0.7296231 -0.81005
0002b0 12 52 c7 3e df e6 c5 bf bf 01 76 bf 48 a4 3e 3e
       0.38929802 -1.5461081 -0.96096414 0.18617356
0002c0 bf 59 97 3d b2 cb 02 be 19 19 69 be a9 86 0b be
       0.073901646 -0.12773016 -0.2276348 -0.13625588
0002d0 41 62 a4 3f a2 cf c6 3e cc a6 93 3e a8 11 e7 3d
       1.2842485 0.38830286 0.28838193 0.112826645
0002e0 97 38 b5 3e fa 32 3f 3e 02 ee dd be 9e 06 dc be
       0.35394737 0.1867179 -0.43345648 -0.429738
0002f0 63 a6 ed 3e 04 8d 2a c0 58 e3 ad 3f 5e 52 5e 3d
       0.46416005 -2.664857 1.3585005 0.05427777
000300 39 39 d0 3e c2 48 66 3d 5b 1a 8e bd 13 11 f4 3d
       0.40668657 0.05622173 -0.06938621 0.11917319
000310 d5 38 0a c0 25 b6 dd bd 2c a3 a1 be 73 f2 99 be
       -2.1597188 -0.10825757 -0.31569803 -0.30067787
000320 85 ec 2d 3f 69 f4 26 3f 93 2c 93 3f 61 ba 72 3f
       0.67939025 0.6521669 1.1497978 0.9481564
000330 d2 ee f8 3e 7a 23 e4 be 12 a1 81 3f 0b d1 6e bf
       0.48619705 -0.44558316 1.012728 -0.93287724
000340 db ec 3d 3e 38 56 61 3f 1e 9e 29 3f bb 69 d1 3e
       0.18547384 0.88022184 0.6625689 0.40900978
000350 0e 04 05 40 da 85 ef bb 22 11 62 3e 80 b2 19 3d
       2.0783725 -0.0073096575 0.22076848 0.037523746
000360 0f d4 81 3e 13 77 e1 3e c3 22 04 be f7 50 b5 3d
       0.253571 0.4403616 -0.12903886 0.088533334
000370 d2 f2 4b 3f e0 f8 2e bf 6f 99 8c bf de 36 dc 3c
       0.7966739 -0.68348503 -1.0984324 0.026881631
000380 f2 09 5d 3e 97 35 3d 3f 25 2b 03 3f 15 b7 05 3f
       0.21585825 0.73909897 0.5123771 0.52232486
000390 5d 79 c5 bf 73 11 9b be bf ff 19 bf 46 df e5 be
       -1.5427662 -0.3028675 -0.6015586 -0.44896907
0003a0 3c 04 d0 be 65 b1 fe be 88 ab dc 3e 9c 50 11 3f
       -0.4062823 -0.49744716 0.43099618 0.56763625
0003b0 f2 12 ed 3e ed e4 e2 be 2f ea 02 3f ed 08 b3 be
       0.46303517 -0.44315282 0.51138586 -0.34967747
0003c0 c1 04 02 40 1d 96 b4 be 1a c5 72 be f4 92 4b be
       2.0315402 -0.35270777 -0.23708001 -0.19880277
0003d0 6b 23 e8 bf dd a4 e9 3e f8 90 26 3f 7b 50 f4 3e
       -1.8135809 0.45633593 0.65064955 0.47717652
0003e0 1d e4 b7 3f 9d a2 ce 3f f5 31 e9 bf df 0b d5 bf
       1.436649 1.6143376 -1.8218371 -1.6644248
0003f0 85 9c 3a 3f b9 9a 33 be 58 2d a4 3e 20 9c 73 be
       0.7289508 -0.17539491 0.32065845 -0.23790026

feature.0.bias f4 [128]
000000 26 5f 32 bf 08 89 83 be b6 4d b4 be 58 18 27 3f
       -0.69676435 -0.25690484 -0.3521554 0.6527152
000010 88 bf ed 3f c0 e8 8a 3f 6e 35 df be 4d 60 1c 3f
       1.8574076 1.085228 -0.4359545 0.61084443
000020 21 20 93 3f 6d 42 c2 be bd f0 a6 bd 39 20 8f 3f
       1.149418 -0.37941304 -0.08151386 1.1181709
000030 cd 2d 0a 3f bd d7 f5 3e 45 0a 3a 3f 53 af 08 c0
       0.53976136 0.48016158 0.7267192 -2.135701
000040 66 7f a5 bf ae 23 26 40 e3 55 09 40 bd 05 12 3e
       -1.2929504 2.5959277 2.145867 0.14260001
000050 45 39 12 3f 50 43 08 40 7d 64 b1 3f db db 66 be
       0.57118636 2.1291084 1.3858792 -0.22544806
000060 65 3f 36 bf 37 ac 2d 3f a0 6d 74 bd 9a 41 ae bf
       -0.7119048 0.67840904 -0.05967486 -1.361377
000070 51 21 16 3f de 86 23 bf 2f d3 78 3f de 5f 26 bf
       0.58644587 -0.63877666 0.9719724 -0.6499003
000080 40 9b 0d 3d dd 42 36 c0 6d 4f 2e bf 57 75 60 bd
       0.034571886 -2.847831 -0.68089944 -0.054799404
000090 8a 7d 15 3f b4 a9 ba 3f 8c 67 9c 3f 3f cf 24 be
       0.5839468 1.4583039 1.22191 -0.16094683
0000a0 45 98 5e bf 92 78 02 40 e8 a1 da be 11 cd cd 3f
       -0.86951095 2.038609 -0.4270165 1.6078206
0000b0 ca 67 1f be 93 d8 89 bf e8 1a 28 c0 05 c9 74 3f
       -0.15566936 -1.0769218 -2.6266422 0.9561923
0000c0 36 0d 4a 3f 17 77 20 c0 ae c4 27 3f c9 4d 11 bf
       0.7892641 -2.5072687 0.65534484 -0.56759316
0000d0 fd 99 21 bf a3 a5 b2 be 01 cd 60 3f 8c 0e a1 3f
       -0.6312559 -0.34891996 0.8781281 1.2582564
0000e0 68 4d a8 bc de bc 1b bf cf f8 50 be 47 4c 86 bf
       -0.020544723 -0.60835063 -0.20407413 -1.0492028
0000f0 7e ff 70 bf 60 4e 33 bc 94 39 c1 3e 1d 88 9d 3f
       -0.9413985 -0.010943979 0.3773924 1.2307163
000100 d9 a1 04 c0 d0 d5 25 c0 76 c9 c5 bf 22 88 dd bb
       -2.0723784 -2.591175 -1.5452106 -0.006760613
000110 fe a8 55 3f 81 60 bc 3f 2f e8 8b bd 11 76 81 3f
       0.83460987 1.4716951 -0.06831395 1.0114156
000120 e6 70 dd be e1 bf 33 bf 22 96 c3 bf d0 01 ef bf
       -0.43250197 -0.7021466 -1.5280192 -1.8672428
000130 22 4b 8a 3f 3e ab e3 bf 36 5a 03 c0 2e a1 8c 3f
       1.0804179 -1.7786634 -2.052381 1.0986688
000140 62 f6 1b bf 64 e5 dd bf 06 ff ba 3e 7f 55 85 3e
       -0.60922825 -1.733563 0.36522692 0.2604179
000150 d5 97 ac be 47 0f 79 bf f9 2f 01 3e 55 cd 5c bf
       -0.3370959 -0.97288936 0.12615956 -0.8625081
000160 14 fd 4b bd 69 78 76 bf 9b fe 5e be 7a ec 3b bf
       -0.0498019 -0.9627748 -0.21776812 -0.7340771
000170 b4 e5 20 bf a7 d2 66 bf 32 8f 12 bf 51 d8 0f 40
       -0.628505 -0.9016518 -0.5724975 2.247578
000180 9d 49 f6 be 4a 18 81 bf 49 04 82 3e 1e b5 a8 3d
       -0.48103037 -1.0085537 0.25393894 0.0823767
000190 08 77 85 3f 78 72 9a be 0b d5 74 c0 6e 38 2d bf
       1.042695 -0.30165458 -3.825503 -0.6766423
0001a0 ff c8 8a bf cf e5 25 bf d0 ae da 3e d0 40 23 3f
       -1.0842589 -0.64803785 0.42711496 0.6377077
0001b0 f1 98 c2 bd 82 f1 d8 bd 2c 9d 0b 3f 6e 31 e1 bf
       -0.095018275 -0.10592939 0.545367 -1.759321
0001c0 e3 c2 bc bf ea 2d 47 3f 59 7e a6 3e bd de 1a 40
       -1.4746975 0.77804434 0.3251827 2.4198449
0001d0 ce c5 36 3f dd 11 b5 3f b0 65 15 bd ba fc ab 3f
       0.71395576 1.4146076 -0.03647393 1.3436501
0001e0 ce 33 13 c0 86 fa a8 3f c0 da 80 bf cd 67 b1 bd
       -2.300037 1.3201454 -1.0066757 -0.086623766
0001f0 23 9a 83 3f 95 4f ec be 2e bc 32 3f 0a d5 a6 bf
       1.0281414 -0.46154466 0.6981839 -1.3033764

feature.2.weight f4 [128, 128]
000000 99 c0 d3 bd 16 08 3d bf 2d 49 b0 bd 8f f4 55 3d
       -0.103394695 -0.73840463 -0.08607707 0.052235182
000010 5c 1b a4 be df 2d c7 3d 9d 3d 50 bd ce 4f 86 bf
       -0.32052124 0.09725546 -0.05084001 -1.0493104
000020 2e dd 8f 3b 33 b3 87 be 8f a7 09 be d9 9c 88 be
       0.0043903803 -0.26503906 -0.13442825 -0.26682165
000030 23 72 fa 3d 65 3b 85 bd 2b 2d c6 ba 77 c8 86 3c
       0.12228801 -0.06505469 -0.0015119662 0.016453011
000040 c6 36 a1 3d c4 46 a6 bd e5 e6 25 3f 6b d3 64 be
       0.07871775 -0.08118966 0.6480544 -0.22346275
000050 b2 09 5e 3f 11 32 6c be 95 72 a5 bf ac 5e 70 3b
       0.86733544 -0.23065974 -1.2925593 0.0036677523
000060 19 19 b8 be 25 a7 12 bd 68 5a 58 3c c7 6a cc 3c
       -0.35956648 -0.035803933 0.013205148 0.02495326
000070 6c bd 01 3d 26 63 a8 bc da b2 15 bf f0 c6 91 3e
       0.031674787 -0.02055509 -0.5847603 0.2847209
000080 24 7c e1 3d f5 af 06 bf 6b 8c 6a be 55 49 36 bd
       0.11010006 -0.5261224 -0.22905128 -0.04450353
000090 b6 b2 c1 bd a7 6b a3 be c5 26 87 3d 97 07 47 3d
       -0.094579145 -0.3191807 0.065991916 0.048591223
0000a0 b7 1e 09 be c2 dc 3f be 6a 4d 8f be 65 6a c3 bd
       -0.13390623 -0.18736556 -0.2798875 -0.095417775
0000b0 18 bf 2b bd 94 38 89 bd 12 42 1c 3d 07 86 2d be
       -0.041930288 -0.067002445 0.038148947 -0.16945659
0000c0 4a c1 78 be 35 68 c2 bb 9b 4f cc 3d 29 b6 cd be
       -0.24292484 -0.0059328326 0.09976121 -0.4017804
0000d0 f4 b5 69 3d 4b 1e 18 3d af fb 05 be ee db b1 bd
       0.05705829 0.037138265 -0.13084291 -0.086845264
0000e0 52 e3 5e be 2c d0 1d bf 6f d4 03 3e cc 4e 51 be
       -0.21766403 -0.6164577 0.12874006 -0.20440215
0000f0 02 14 07 3e 95 e4 46 bd e6 96 51 be ae 50 0b 3e
       0.13191226 -0.048557837 -0.2046772 0.13604996
000100 3c 82 37 be b5 40 aa be ea c0 e8 bd 3d 1a 38 3c
       -0.17920774 -0.33252493 -0.113649204 0.011236724
000110 c2 3d 8e be aa e8 7d be 61 7d 80 be cd f5 53 bf
       -0.27781492 -0.24795786 -0.25095657 -0.8279694
000120 5c 23 cd 3d 6e a8 52 be ed 4f d9 3d f7 b7 03 bf
       0.1001651 -0.20572063 0.10610948 -0.51452583
000130 70 9e 2f bf 1a 3c 90 be 3a 23 c9 bd 1f 25 d1 3e
       -0.6860113 -0.28170854 -0.09821172 0.40848634
000140 0b 69 9e be 58 07 3f be 0c 71 ba 3d db cb 13 3d
       -0.30939516 -0.18655145 0.09103593 0.036083084
000150 99 08 f2 3e 2d 57 cc be e1 04 85 bf 0c 10 33 bf
       0.47272184 -0.3991026 -1.0392114 -0.6994636
000160 2f 97 20 bb 92 67 95 3e 5b 2a 17 3e 80 c6 12 be
       -0.0024504175 0.2918058 0.14762251 -0.14333534
000170 7d a5 60 bf b7 67 a1 bd a7 0f 38 be ea 98 07 3f
       -0.87752515 -0.0788111 -0.17974721 0.52967703
000180 eb 15 11 be 15 98 66 3e 91 05 5b be ca e3 a3 be
       -0.14168517 0.22518952 -0.21388842 -0.32009727
000190 5a e6 17 be b2 c3 27 3e c4 7e a0 3c 81 7f 1c be
       -0.14833966 0.16383246 0.019591697 -0.15283014
0001a0 77 08 17 bf 57 9d 07 be 99 4f 14 bf ed c0 31 3b
       -0.5899729 -0.13243614 -0.57933956 0.002712305
0001b0 b9 70 73 3e fe df 93 3d 90 5b 20 3d ca b5 43 bf
       0.23773469 0.072204575 0.03914982 -0.76449263
0001c0 db d3 9b ba 2e eb 83 be 9b 92 85 bf c6 e8 0e 3c
       -0.0011888699 -0.25765365 -1.0435365 0.00872249
0001d0 4f c3 1b bf a7 88 77 be 3c 0a b4 bd 9b 88 39 3c
       -0.6084489 -0.24173222 -0.087910146 0.011324073
0001e0 a0 78 8e be bd 6d f2 bf c6 a6 cd be 68 1b 4c 3e
       -0.27826405 -1.893974 -0.401663 0.1993233
0001f0 6b a0 37 3f 97 94 97 bd c3 d7 06 3f a8 0c 30 bd
       0.71729153 -0.07401388 0.52672976 -0.04298082
000200 f5 2f 75 be 12 b3 0e 3d 46 90 26 3e 0a 7c d3 3e
       -0.23944075 0.034838744 0.16265973 0.41305572
000210 38 99 4a 3c 8d d8 39 be ec d8 fa bd 9d 97 63 3e
       0.012365632 -0.18149014 -0.12248406 0.22225805
000220 30 df 29 bf 2f 8a a2 bd df ca db be 72 df 3d 3e
       -0.6635618 -0.07936513 -0.42928216 0.18542269
000230 e4 a5 fd bd d4 39 58 3e 1b f9 82 3d 1f 6d 23 3d
       -0.12385157 0.2111581 0.06395169 0.039898988
000240 80 8a 96 ba 42 d3 2b be af c4 76 be 37 f9 00 3f
       -0.0011485368 -0.16779807 -0.24098466 0.5038027
000250 32 91 15 be 31 88 81 be 03 13 77 be 6d ab 38 be
       -0.14606169 -0.25299218 -0.24128346 -0.18034144
000260 72 89 98 be 68 46 f1 bd 56 c2 33 3d 4b b4 47 be
       -0.29792362 -0.11781007 0.043886505 -0.1950237
000270 db a3 4a be 35 56 13 bf 07 38 ad bd a6 29 94 bd
       -0.19789068 -0.57553416 -0.08457952 -0.07234506
000280 bd 1d 9d be cf e8 a0 be d8 a7 35 be 7b 80 62 3c
       -0.3068675 -0.3142762 -0.17739809 0.013824577
000290 29 f5 99 3e 6c df 99 3d 75 23 d1 be 40 d3 42 be
       0.30069855 0.075133175 -0.40847364 -0.19025898
0002a0 fa b4 1e be d5 9c 30 bf bb 19 ff bd 94 84 38 be
       -0.15498725 -0.68989307 -0.124560796 -0.18019325
0002b0 1a df 98 3d 65 e9 af bf a7 14 27 3e 51 07 90 be
       0.07464428 -1.3743101 0.16316472 -0.28130582
0002c0 ac e8 7e bd 44 b5 15 3d 18 0d 41 3e f3 2b b4 be
       -0.062233612 0.03654982 0.18852651 -0.3518978
0002d0 d7 5b 19 bd 25 53 a9 3c 85 0d 4f bd 45 17 99 bd
       -0.0374411 0.02066953 -0.050550003 -0.074751414
0002e0 fd 38 18 bd 4e 95 08 3d 72 27 50 3e 01 f3 ca bd
       -0.037163723 0.033345513 0.20327547 -0.099096306
0002f0 cc 2f c1 bd 90 26 0d bc 71 0d a2 bd 10 91 a4 bc
       -0.09432945 -0.008615151 -0.0791272 -0.020088702
000300 a4 98 fb 3d e4 56 cf 3e 0b 58 62 bd f8 3c 9e bd
       0.12284973 0.4049598 -0.055259746 -0.077264726
000310 67 c9 f1 3e 60 58 aa bc 10 ba a9 be d9 71 58 3d
       0.4722397 -0.020794094 -0.33149767 0.05284295
000320 82 12 0e bf 87 8e 2f bd 5b 24 bd bc ab ca 3d 3f
       -0.5549699 -0.042860534 -0.023088625 0.7413737
000330 55 63 cf 3c af 5a e6 bc 49 b8 bd 3d f7 0d b1 bd
       0.02531592 -0.028119413 0.09263665 -0.08645242
000340 ab 31 5b 3e ae 45 7d bf 2a cc 0e bf e9 6e 8c bc
       0.21405666 -0.9893445 -0.5578028 -0.01714273
000350 30 b3 a8 3e 7a b5 47 bf 7f e3 c2 be cc a8 7e bd
       0.3294921 -0.78011286 -0.3806419 -0.062172696
000360 2e d0 1e bd 0d b9 05 bd 37 b3 b5 3d 76 d6 04 bd
       -0.038772754 -0.03264718 0.08872073 -0.03243109
000370 60 1a 46 3f b3 04 32 be 4d 2c 86 3c 28 cb 3d be
       0.77383995 -0.17384605 0.016378546 -0.18534529
000380 dc a8 db be 89 59 02 bf 7f c1 d6 bd ff 83 06 bf
       -0.42902267 -0.5091787 -0.10486125 -0.5254516
000390 59 7b 31 be 64 68 58 bf d5 bf c4 3d 76 a8 ea 3d
       -0.1733221 -0.8453429 0.096069016 0.114579126
0003a0 81 db ea bc 54 0f 84 be 0b a0 89 bd 31 65 d4 be
       -0.02866912 -0.25792944 -0.06719979 -0.41483453
0003b0 36 e6 fa 3d bb 58 9d 3d 41 1d 4e be e9 f0 0d bd
       0.122509405 0.076829396 -0.20128347 -0.034653578
0003c0 1b 46 75 be f0 79 18 be 7a dc 3d be 5e 51 58 be
       -0.23952524 -0.14890265 -0.18541136 -0.21124789
0003d0 71 75 07 3e 7c e3 99 3d 30 4a a4 bb b1 c7 1e bf
       0.13228394 0.07514092 -0.0050137267 -0.62023455
0003e0 04 83 7a be c3 83 1a 3e 1a 2c 8b bd 57 d7 37 bf
       -0.24464041 0.15089326 -0.06795521 -0.7181296
0003f0 1f 4b 5c be 4a 59 63 bf 2a a5 57 be fe 61 03 bf
       -0.21513031 -0.8880812 -0.21059099 -0.513214

feature.2.bias f4 [128]
000000 22 37 27 be 28 d2 02 be f9 7b 5f 3f e4 6e ef 3f
       -0.16329625 -0.12775481 0.8729854 1.8705716
000010 68 17 88 bb 2c 54 40 bd 37 48 7b 3d 8a 25 10 3f
       -0.004153181 -0.046955273 0.061348166 0.5630728
000020 f8 a3 77 3e c7 43 6e be 1b 35 1f 3f e0 bf 25 3e
       0.24183643 -0.23268043 0.6219041 0.16186476
000030 fa e3 13 3e 62 fe da be c4 27 52 be 99 23 d1 3c
       0.14442435 -0.42772204 -0.20522982 0.02552967
000040 bf a2 f5 bc 52 54 06 bf 6a d6 33 bd 78 22 89 3f
       -0.02998483 -0.5247241 -0.043905653 1.0713644
000050 26 2c 53 be 66 1c 18 be fb 59 26 c0 41 3d 04 be
       -0.2062231 -0.14854583 -2.599242 -0.12913992
000060 be 2b 9e be 4c 1a 01 be 78 9d 1d be 50 18 f9 be
       -0.30892748 -0.12607688 -0.15392101 -0.4865136
000070 3c 93 84 ba c3 eb 36 3f 11 2c 2a be 34 89 7f 3e
       -0.001011468 0.71453494 -0.16618372 0.24954683
000080 21 bd 22 bb e7 20 d1 3e dc 3e 28 3e bf be 94 bd
       -0.0024831968 0.40845415 0.16430229 -0.072629444
000090 91 c1 e7 3e cb 15 88 3e c4 05 c2 3d 7c c4 63 3e
       0.45264867 0.26579127 0.09473756 0.22242922
0000a0 38 b0 01 be a1 46 75 3d 75 0b c5 3a 88 88 dd bd
       -0.12664878 0.05988181 0.0015033322 -0.10817057
0000b0 d1 ca 10 3e d4 a5 1a be 76 ad a7 be 15 05 0f 3d
       0.14139868 -0.15102321 -0.32749528 0.034916956
0000c0 3d f9 23 c0 9d 78 7d be 27 47 c5 bf db 57 54 bf
       -2.5620873 -0.24753042 -1.5412339 -0.82946557
0000d0 88 8d 8d bd b9 cd bf 3e fa ea 9d 3d 6c 45 a4 3e
       -0.069117606 0.3746164 0.07710834 0.32084215
0000e0 74 a1 ff 3d 7e bd da be 3a 98 12 3e 52 10 2b be
       0.124819666 -0.42722696 0.14315882 -0.16705444
0000f0 26 85 54 bd b7 1d 46 bd e9 af 2d bd b1 72 85 3f
       -0.051884793 -0.048368182 -0.04240409 1.0425626
000100 f1 55 58 3e 39 2b f0 bd d2 e6 40 be 2e db 97 bd
       0.21126534 -0.11726994 -0.18838051 -0.07414852
000110 2c 8a 02 bc ab 15 eb bb b9 0d 17 be 69 e1 1f be
       -0.007967513 -0.007174214 -0.14751329 -0.15613331
000120 52 ba 69 3e 20 f7 1b bf bd 01 81 3e fd 8a 56 bd
       0.22824982 -0.6092396 0.2519664 -0.052378643
000130 e8 d0 0c be 78 06 da 3e 4d 1e ca 3e c4 32 12 be
       -0.13751566 0.4258306 0.39476243 -0.14277178
000140 53 44 02 3f c4 eb 3a 3e 78 d2 e3 be 7e 06 9d bd
       0.50885504 0.18254 -0.44496512 -0.07667254
000150 a1 12 d7 bd 9b d3 a6 bd 49 59 ec 3e 60 32 81 3e
       -0.105016 -0.08145829 0.4616187 0.25233746
000160 46 4f 6e be 15 ab 13 bf 2a b5 23 bd 43 a3 8f 3e
       -0.23272428 -0.57682925 -0.039967693 0.28054246
000170 8f e0 25 bd ea e3 89 3f 17 db 81 bf 53 85 f0 bc
       -0.04049736 1.0772679 -1.0144986 -0.029360449
000180 04 41 2d be 00 c4 3a 3d cb 5e 8a 3e ce cc 20 3f
       -0.16919333 0.045597076 0.27025446 0.6281251
000190 94 fa 83 bd 22 3f 0d bf cf 03 33 3f df dd 1c 3f
       -0.06444278 -0.5517446 0.69927686 0.6127605
0001a0 88 95 a5 3f 26 22 ef bd 39 99 c7 3e 53 bf 2a be
       1.2936258 -0.11676435 0.38984087 -0.16674547
0001b0 49 65 b3 3e ad 68 90 3b 12 9b 68 bd c2 39 16 be
       0.35038212 0.0044070096 -0.05678851 -0.1467047
0001c0 48 70 38 3f 03 1b f9 bd 77 97 e9 be d0 63 16 3c
       0.7204633 -0.12163355 -0.4562337 0.009179071
0001d0 3a 01 83 3e 4b e9 a4 3d df 8b 0e 3f 40 b6 a5 bc
       0.25586873 0.080523096 0.55682176 -0.020228505
0001e0 5a 7f 73 bd f7 85 d8 3e 61 28 a9 bd 46 5f c4 bd
       -0.059447624 0.42289707 -0.08259655 -0.095884845
0001f0 74 ca 45 3e cd 26 13 be 4f d4 01 bc 6a 3f eb be
       0.19315511 -0.1437027 -0.0079241535 -0.4594682

value.0.weight f4 [64, 128]
000000 dc 7c 20 3f a5 b1 14 bc eb c0 89 bf 5d 13 49 bf
       0.6269052 -0.009075557 -1.0761999 -0.7854517
000010 72 fa a5 bc 51 fb b5 bd 23 0f a1 be 27 2a 52 bf
       -0.020261023 -0.088858254 -0.3145686 -0.8209557
000020 23 96 3d bf 69 c6 34 3d 2d be 7e be d5 f9 35 3b
       -0.74057215 0.04413453 -0.24877234 0.002776732
000030 2a c6 2f bf 20 82 96 bd a2 c5 24 bf 38 96 38 bf
       -0.6866175 -0.07349038 -0.64364064 -0.72104216
000040 92 78 ff bb 05 ad 5f bf 6a 89 81 3c a9 8a c4 bf
       -0.0077963555 -0.8737338 0.015812594 -1.5354816
000050 8e 12 c8 be d6 b7 a8 bd 3a f6 29 c0 00 79 95 bb
       -0.39076656 -0.08238189 -2.6556535 -0.0045615435
000060 58 36 e6 bd ba e0 84 bc ec f2 a8 3d 90 6f 55 be
       -0.11240834 -0.01622044 0.08249459 -0.20843339
000070 a0 ab 8a bc 99 b8 dc bb 00 97 06 3c 2d bd 1f bf
       -0.01692754 -0.006735873 0.008214712 -0.62398034
000080 cc da 78 bd 3d 73 f0 bf 1e 27 e9 bd af 5b a0 bd
       -0.060755536 -1.8785168 -0.11384414 -0.07829987
000090 dd 0f 57 bc 9a 7d 35 bf fd 64 55 bf 12 e6 49 be
       -0.013126341 -0.7089478 -0.8335722 -0.19716671
0000a0 f5 85 22 be 05 89 ae be 85 ef 39 bd c2 4d 6e bd
       -0.15871413 -0.34088913 -0.04539444 -0.058179624
0000b0 44 2b 11 bf 4d 66 cd bd af b6 ae bc 4a cf 84 3d
       -0.56706643 -0.10029278 -0.021327345 0.0648485
0000c0 db 35 8b 3e b3 44 8d bf 00 ad 2e bf ee 76 8c be
       0.27189526 -1.103659 -0.6823273 -0.27434486
0000d0 70 10 97 bc 72 23 af be d4 c5 b7 be 69 69 e0 bf
       -0.018440455 -0.3420673 -0.35893118 -1.7532169
0000e0 85 19 2d bf 81 2d c0 3f 90 e7 b0 be 12 80 15 3d
       -0.67617065 1.5013887 -0.34551668 0.03649909
0000f0 f4 4c 14 3d 80 74 87 3a 52 09 52 3d 64 18 c8 bf
       0.0362062 0.0010334402 0.05127842 -1.5632443
000100 28 a5 61 be 6b 07 92 3d 4a 2c 64 3d 54 49 8c 3c
       -0.22035658 0.07130321 0.0557063 0.01712481
000110 e0 af b2 be 8b c6 13 3d a2 71 cb 3d 77 aa dc bd
       -0.34899807 0.036078017 0.09933783 -0.10774701
000120 4d de b1 be 6c 02 de 3e 49 05 4d bf 39 9d 00 bd
       -0.34739915 0.43361223 -0.8008619 -0.03139994
000130 d6 9a 47 be a5 a5 4e be d9 48 31 bf 9a 79 86 3d
       -0.19492659 -0.20180376 -0.6925178 0.065661624
000140 68 c4 1f bf 8e 31 19 bc f8 4b 59 3f fc ff 76 3d
       -0.6240907 -0.009350194 0.84881544 0.06030272
000150 1a 6a cf 3c d3 f0 48 bd 0b 66 af be f8 38 28 be
       0.025319148 -0.049057793 -0.3425754 -0.16427982
000160 45 1d 6e be 13 bc 4d 3e 0f 76 86 bc 14 8e 0f 3f
       -0.23253353 0.20091276 -0.016413717 0.5607617
000170 48 bc b6 be 63 5e 8c 3c dc ae 33 3e 4a 37 d5 be
       -0.35690522 0.01713485 0.17547172 -0.41643745
000180 3f 96 68 3c 15 6b b6 bd 74 93 ac 3e 85 86 3a bd
       0.014195978 -0.08907143 0.33706248 -0.045538444
000190 86 20 bf be c1 94 7e be 7e c1 00 c0 8f a8 5b bf
       -0.373295 -0.24861433 -2.0118098 -0.85804075
0001a0 4f ea 96 be 2c c1 cd 3c bd 48 e2 be fc 29 72 bf
       -0.29475638 0.025116526 -0.4419612 -0.94595313
0001b0 b1 9e b2 bf 03 6f 9e 3d 49 12 49 3d 93 d1 49 3d
       -1.3954679 0.077360176 0.049089704 0.04927213
0001c0 8e 61 ee bb 72 fc cc bc d5 72 86 be ad 50 7e be
       -0.007274813 -0.025022719 -0.26259485 -0.24835463
0001d0 96 6c 8d be 9b 83 7c bf 76 24 5c 3e da 42 64 bd
       -0.27621907 -0.98638314 0.21498284 -0.055727817
0001e0 bc 4c 41 3f 75 31 00 3f 4d 98 8e 3d fd ea 27 3d
       0.7550771 0.50075465 0.06962643 0.040995587
0001f0 5c c9 43 be 3a 47 94 bd 48 6e d7 3c 52 f2 37 3f
       -0.19119781 -0.07240148 0.026297703 0.71854126
000200 27 ad ab bd 68 ae 0b bd e4 f5 0f be bb 81 59 bf
       -0.083826356 -0.034101874 -0.14058644 -0.8496358
000210 e4 9f 9e bd ac 74 b3 bd 3d 8f 9a be b6 37 b5 bc
       -0.077453405 -0.08762488 -0.30187407 -0.022121292
000220 10 e5 87 3e de 4b 03 3a 23 8a 06 bf e7 0b a1 be
       0.26541948 0.00050085585 -0.5255453 -0.31454393
000230 50 4d b9 3d 34 ed a8 3c 01 23 fe bd c3 c6 87 bd
       0.09047949 0.02062092 -0.1240902 -0.06629708
000240 4e 31 90 bd 94 85 4a 3e 7f 78 57 3d 9a 45 8b be
       -0.07040654 0.19777519 0.05260515 -0.2720154
000250 cd 4e a5 bd b9 09 69 bd cf df 81 3f 00 58 c0 3a
       -0.08071671 -0.056894038 1.0146426 0.0014674664
000260 fa 52 25 bf dc 36 0e be 88 bf 0e bd 54 db d7 bd
       -0.6457974 -0.13888115 -0.034850627 -0.105398804
000270 e9 e3 1c 3b 3b 52 20 be 0e 5b 7e bd 2f ec 88 bd
       0.0023939556 -0.15656368 -0.062098555 -0.066856734
000280 9a 28 4a 3d 79 40 10 be 21 de ba 3e d3 73 43 3d
       0.049355127 -0.14087094 0.36497596 0.04771788
000290 fd 31 93 bd 2d 20 43 be 48 77 e5 bd 67 89 27 bd
       -0.07187269 -0.19055243 -0.11204392 -0.04090252
0002a0 0d 01 0e be f9 02 35 be b5 8b ab be 40 69 2a bd
       -0.13867588 -0.17676915 -0.33505026 -0.04160428
0002b0 af dc d7 bd 66 e5 3c 3d f5 26 92 3d 53 64 f0 bd
       -0.10540139 0.04611721 0.07136337 -0.11737885
0002c0 4c 15 05 be 58 5a 03 bc 58 db b9 be ce 23 cf bd
       -0.12996405 -0.008017145 -0.36300159 -0.10114251
0002d0 c6 da 58 3d 06 06 87 be 23 ec 42 be ef 05 6d bd
       0.052943014 -0.26371783 -0.19035392 -0.057866987
0002e0 9c 79 01 be 43 f1 80 3f a5 85 2c 3d a5 81 a2 3d
       -0.12644047 1.0073627 0.04211964 0.07934884
0002f0 91 bc 0d bd d3 87 b1 bd 6f 26 5e bd 11 ff 99 bf
       -0.03460366 -0.086684845 -0.054235872 -1.2030965
000300 8c 5c 63 bd b0 c2 af bb 36 c4 7b 3d cf 1a 58 bd
       -0.05550818 -0.0053637847 0.06146642 -0.05275994
000310 32 e5 9d be be 83 1d 3d 90 fb f5 3b 78 e0 e7 3d
       -0.30838925 0.038455717 0.007506795 0.11322111
000320 8b 04 14 3d 18 4d 19 be 56 78 f9 be 2d 9a 64 3d
       0.036137145 -0.14970815 -0.48724622 0.055811096
000330 0d e7 99 bd 70 3d af be 46 81 75 bd 17 a9 c4 3d
       -0.075147726 -0.3422656 -0.059937738 0.09602564
000340 3c 61 5b bf f7 ff 12 3d 7e 47 1f 3e d3 d4 b3 3d
       -0.8569524 0.03588864 0.15554616 0.087808274
000350 a4 41 09 bd e8 d4 0e 3d a0 45 9b be 05 42 30 be
       -0.033509865 0.034871012 -0.30326557 -0.17212684
000360 a4 fa 98 bd 21 27 e7 3d 79 c6 1e bc 5f fd 2f bd
       -0.07469681 0.1128676 -0.009690874 -0.042966243
000370 e4 0e 69 3d b2 0b 91 be 7e 40 99 be f5 2c c1 3e
       0.056898966 -0.28329235 -0.29932016 0.37729612
000380 27 7c ef 3c 23 38 c5 3c 62 0b 9e 3e 4b 6e 17 be
       0.029234005 0.02407462 0.3086806 -0.14788167
000390 2c de 9e bc 67 63 4d be 06 c8 13 bc 30 33 90 be
       -0.01939305 -0.2005745 -0.009019857 -0.28164053
0003a0 10 68 98 be 00 a8 c9 39 81 c4 31 be f6 e4 30 be
       -0.29766893 0.00038462877 -0.17360117 -0.17274842
0003b0 ed a3 e8 bc 18 66 8a bd 68 d6 8f bc ce 70 7d 3d
       -0.028398478 -0.06757754 -0.017558292 0.061875157
0003c0 c2 2f a1 be 1d 59 9a bd 56 10 2c be 1d a6 99 bc
       -0.3148175 -0.07536528 -0.16803107 -0.018755967
0003d0 c7 cc cb bd 2d f2 59 be 17 50 1b bf e1 1d de ba
       -0.099511676 -0.21283789 -0.6066908 -0.001694616
0003e0 0d 7c 2f be 2f d7 38 bd 74 92 86 bd 7f 9b b1 3d
       -0.17137165 -0.04512709 -0.065709025 0.08672237
0003f0 56 7c c9 bd 5c ad cc bc 54 4b 87 bc 5c e4 5e be
       -0.09838168 -0.024985008 -0.016515411 -0.217668

value.0.bias f4 [64]
000000 42 80 9e 3d 05 18 47 bf e5 6b bc 3f 59 16 dc bf
       0.07739307 -0.77771026 1.4720427 -1.719432
000010 70 14 ba 3f 65 70 52 3f 3c 59 76 be 90 c2 f4 bc
       1.4537487 0.8220275 -0.24057478 -0.02987793
000020 de 84 34 3f 04 8a cb bf d2 37 4e bf 06 e6 78 3f
       0.7051524 -1.5901494 -0.80553925 0.9722599
000030 bc f5 f4 bf 1a 29 38 3d 9a fb 09 40 f2 12 d5 bd
       -1.9137492 0.044961073 2.1559815 -0.10404004
000040 12 2b b7 3f cd b7 b3 3f 20 fd 07 3f a1 d7 2a c0
       1.4310019 1.4040467 0.53120613 -2.669411
000050 d2 1a ce 3e ea 86 bf 3f cc 4a 9e bf f6 70 41 3d
       0.40254837 1.4963048 -1.2366576 0.04722687
000060 e1 99 06 3f d5 28 4a be bc 72 7c 3f 52 b0 ab 3d
       0.5257855 -0.19742139 0.9861257 0.0838324
000070 13 e8 70 3f b4 2f ba bd 6b d3 85 3f 3f 3c 70 be
       0.9410412 -0.0909113 1.0455145 -0.23460482
000080 9e 1d 48 3f d1 66 2b 3e 83 42 9c 3e 58 1e 16 3f
       0.7817019 0.1673844 0.30519494 0.5864005
000090 67 1d 70 3f dd 9b ca 3e 33 aa 70 be b7 63 45 be
       0.93794864 0.3957204 -0.23502426 -0.1927632
0000a0 eb b3 33 3f 0c da 5a bf a1 1f 80 3e 82 47 8e be
       0.7019641 -0.85488963 0.2502413 -0.2778893
0000b0 04 3f ab 3f 6b 48 4f be 6d e0 6f 3f ff c9 95 be
       1.3378606 -0.20242469 0.9370182 -0.29255673
0000c0 c9 cb 84 3f 7d 16 da bf 83 68 1a bd 96 c4 fa 3e
       1.037469 -1.7038113 -0.037697326 0.48978108
0000d0 72 11 85 3f de 37 60 3f b7 14 02 bf 87 4e e4 bd
       1.0395949 0.87585247 -0.5081286 -0.111477904
0000e0 68 a5 99 3d 6f 5a cc bf 22 55 84 3f e8 39 f6 bf
       0.07502252 -1.5965098 1.033848 -1.9236422
0000f0 6a 87 2e bf 2c 47 13 c0 85 42 c0 bf 2e e8 02 bf
       -0.68175375 -2.301219 -1.50203 -0.5113553

value.2.weight f4 [1, 64]
000000 cb 00 e4 bf 19 30 f3 3f be 0c 1b bf 7e 88 1e 40
       -1.7812742 1.8999053 -0.6056632 2.4770808
000010 96 d5 a4 3f a8 fc 88 3f 0b 67 b0 bc 03 7d 54 bf
       1.2877681 1.0702105 -0.02153351 -0.8300325
000020 3e 46 b7 bf 61 cc 0a bf 76 71 06 3f f5 92 f5 be
       -1.4318311 -0.5421811 0.5251688 -0.47963682
000030 39 07 46 3f f6 da ee be 1d 31 ea be 22 2d f8 3c
       0.7735477 -0.4665143 -0.45740595 0.030294959
000040 63 46 33 be eb 2e 10 be 0e 09 c1 3f 5e 4c 65 3f
       -0.17507319 -0.14080398 1.5080888 0.8956965
000050 d7 c7 e3 bf c0 8f db 3f 06 5d 3b 3f 26 3d ac bf
       -1.7795361 1.7153244 0.7318882 -1.3456161
000060 cb af 12 c0 a6 eb 5c 3f 6e b5 2f be 42 89 98 bf
       -2.2919796 0.8629707 -0.17159054 -1.1916888
000070 e8 8a 42 be 1f 5b b1 bb 60 dc 2d be 37 54 fc b9
       -0.18998301 -0.005412474 -0.16978598 -0.0004812793
000080 fe 02 8f 3f d1 fd 78 bf 9e 78 08 3f 7c 8a 2b 3f
       1.1172788 -0.97262293 0.5330905 0.67008185
000090 06 a3 35 be 1c 9e 79 3f 23 2c 1c c0 58 f0 8b bf
       -0.1773797 0.9750688 -2.440194 -1.0932722
0000a0 16 61 3a bf f9 ac f5 bf 34 b7 89 bf a0 df 3f 3f
       -0.7280439 -1.9193412 -1.0759034 0.749506
0000b0 be a3 5b 3f 1d 1c 5d bc 50 cb 55 3f f8 d1 47 3c
       0.85796726 -0.013495472 0.83513355 0.012196057
0000c0 a8 95 a8 be 79 2d 27 3f a1 cf 1b c0 fb 4c 26 bf
       -0.3292668 0.6530376 -2.4345477 -0.6496121
0000d0 9a 1f 2d be 33 97 23 be ef af 90 3e a9 e5 17 bf
       -0.16906586 -0.15975647 0.28259227 -0.5933481
0000e0 62 cd c3 bf 5f 63 05 3f 40 a9 1b be 6d 58 95 3f
       -1.5297053 0.52104753 -0.15201283 1.166761
0000f0 5e f5 e9 3e 56 92 64 c0 ee ae 77 bf 3e 58 62 bf
       0.45695013 -3.5714316 -0.96751297 -0.88415897

adv.0.weight f4 [64, 128]
000000 b2 67 46 be b2 63 82 3d 24 9a 23 3e 25 53 fb 3e
       -0.19375494 0.063666716 0.15976769 0.49086872
000010 ca b0 95 39 e9 67 4f 3b 26 07 ce be b4 81 c8 be
       0.00028551213 0.0031647629 -0.4023983 -0.39161456
000020 43 4d 50 3e 9f 29 64 3d 77 4b 27 3f dd 50 f0 bd
       0.20341973 0.055703755 0.65349525 -0.117341734
000030 2a 5f b8 be ee 52 47 bf d3 38 7c be 56 ab 7c bf
       -0.36010104 -0.77860916 -0.24631052 -0.9869894
000040 38 85 0f bd 6c ba aa be 1b bb 8e bd ba 28 99 be
       -0.035039157 -0.33345354 -0.06969281 -0.29913884
000050 17 5b c6 3c e9 d7 95 bd aa 4b 5a bf bb 8a a2 3c
       0.024213357 -0.07316572 -0.85271704 0.019841542
000060 3e 11 04 bf 1f 9f 2b 3a 8e 3d b3 bd 40 f9 4c be
       -0.5158881 0.0006546843 -0.08751975 -0.20016956
000070 f8 fb d5 3e e4 0c 54 be 0c 22 1c bc e9 50 1f bf
       0.417938 -0.20708042 -0.009529602 -0.62232834
000080 92 f4 ab 3c 5e d7 70 bf 6c 31 25 be 59 09 12 bf
       0.020990644 -0.94078624 -0.16132134 -0.57045513
000090 1a 60 c4 bf d1 75 41 bf 8f af b0 bf 45 46 82 be
       -1.5341828 -0.755704 -1.3803576 -0.25444236
0000a0 9d 86 c1 bd 04 25 c6 bd 16 2c c2 be ee 66 54 bd
       -0.094495036 -0.09675029 -0.3792426 -0.051855974
0000b0 39 c8 f8 be 51 28 9c 3d 0c f3 e7 bd 11 78 8c be
       -0.48590258 0.07624877 -0.113256544 -0.27435353
0000c0 ff fe a1 3c 4d 44 7a bf 4a 1b 4d be bb 1a 03 bf
       0.019774912 -0.9776047 -0.20029941 -0.5121266
0000d0 f8 ad 8c 3d 30 66 a2 be a9 54 1f be 49 16 31 3e
       0.068691194 -0.31718588 -0.15559639 0.17293657
0000e0 e7 2a c2 3e 2e df 36 3f a6 84 06 bf 4c 3c 4d bd
       0.37923357 0.71434295 -0.52546155 -0.05010633
0000f0 9e 0a 90 bd 22 56 84 bd b7 0d 67 bd af 7e 76 bf
       -0.07033275 -0.06461741 -0.056409564 -0.96287054
000100 2b 58 5d bf 80 98 2a 3b 00 df 6b 3c 0d 49 5c 3d
       -0.8646266 0.0026030838 0.014396429 0.053780604
000110 a2 4c 5a bf 61 1f 95 bd 19 47 89 bd 64 bf 7d bd
       -0.8527318 -0.07281376 -0.06703014 -0.061950102
000120 4d 9b b3 bf 03 83 81 be a4 64 6d bf 97 e4 c8 3c
       -1.4031769 -0.25295267 -0.9273169 0.024523063
000130 2b d6 a4 bc f1 b7 8a bf 5f c8 84 3e d2 e5 67 3e
       -0.020121654 -1.0837384 0.2593412 0.22646263
000140 8b 26 29 be 5a f5 8a be 54 25 87 3f 91 ef 20 bd
       -0.16518609 -0.27140313 1.0558267 -0.03929097
000150 e2 c2 65 3d 17 0c 89 bd 66 49 f1 be e2 a6 8d bf
       0.056094058 -0.06691759 -0.4712631 -1.1066554
000160 c8 a7 43 bf 80 d3 e2 be a2 df b5 3a f0 b7 dd c0
       -0.7642789 -0.44301987 0.0013875852 -6.9287033
000170 30 a4 67 be 2b 8f 95 be f5 c6 1d 3e 47 f7 4e be
       -0.22621226 -0.2921079 0.15407927 -0.20211516
000180 5b f3 32 bd 08 fa 02 bf e1 c8 6a bf 3e 60 5e bf
       -0.043689113 -0.5116277 -0.91712767 -0.86865604
000190 2f c8 58 3f 8b 92 99 3f 7f bb 8e bd 44 34 53 bf
       0.84680456 1.1997846 -0.06969356 -0.82501626
0001a0 6c 6f 33 c0 b4 6d 84 bd b3 c2 6e 3e 19 40 f0 3c
       -2.8036757 -0.06466237 0.2331646 0.02932744
0001b0 8d 15 0e be 94 35 9b 3d 68 c7 25 3c 34 51 60 bd
       -0.13875408 0.075785786 0.010118343 -0.05476494
0001c0 7e e6 1a bf cc 87 9e bd fd a7 86 be d8 c4 d7 bd
       -0.60507953 -0.07740745 -0.2630004 -0.10535592
0001d0 76 46 ac bf da bf ec 3d e4 d9 81 bd b2 d9 cd bc
       -1.3459003 0.1156003 -0.063403875 -0.02512822
0001e0 0d d0 b5 be 00 94 a1 be 4b 9c 7e bb 65 a5 f7 3c
       -0.35510293 -0.31558228 -0.0038850482 0.030230233
0001f0 47 88 65 be 10 b6 e9 bb 6c a7 aa bd 3e 31 05 bf
       -0.22415267 -0.0071322992 -0.083327144 -0.5202826
000200 44 47 a0 bd a6 fc 21 3f fe 3b a9 be e0 b5 ba bf
       -0.07826093 0.63276136 -0.33053583 -1.4586754
000210 81 bf 07 bd 2a a2 47 bd a4 9d fd bd 6c 62 bb be
       -0.033141617 -0.048738636 -0.12383583 -0.36598527
000220 fb 8d 6d bd 48 ae c1 bd 32 1d f0 be bd 92 92 be
       -0.05799673 -0.0945707 -0.46897274 -0.28627577
000230 68 46 04 be 6e d3 1c be cc e3 7b be 74 79 99 be
       -0.12917483 -0.15315029 -0.24598616 -0.29975474
000240 d2 ac 76 3d 4b 3a 60 bf fc 03 16 bd 9a 31 20 bf
       0.060223408 -0.8758895 -0.036624894 -0.62575686
000250 89 53 c5 bd 3e d2 b0 bd 1b e4 60 3f 08 1c 4a bc
       -0.09635074 -0.086338505 0.8784806 -0.012335785
000260 a8 1a 10 bd 29 76 9c 3d 15 89 9a 3c 7f ec 9d be
       -0.03518167 0.07639725 0.018864194 -0.30844495
000270 38 0c c2 be d5 78 c5 bd 66 65 2c 3d 0d e4 b1 3e
       -0.37899947 -0.096421875 0.04208889 0.347443
000280 88 19 07 bd f2 63 3c bf 2d 1e 43 bf 85 41 95 3c
       -0.032983333 -0.73590004 -0.7621792 0.018219719
000290 91 67 b5 bd bb 50 ab bc 1f 11 69 bf 97 95 fd bd
       -0.08857644 -0.020912519 -0.9104175 -0.123820476
0002a0 4d 59 6a 3d eb c1 d0 bd 7d 1b 4e bf 2c 13 bc 3c
       0.05721407 -0.10193237 -0.80510694 0.02295836
0002b0 68 87 f5 bd 49 23 4a bd 67 9a fe bd 7c ff 22 be
       -0.11988717 -0.049350057 -0.12431794 -0.15917772
0002c0 6c 36 c8 3e 2b 26 25 bc f7 a5 57 3f b6 e8 dc be
       0.3910402 -0.010079901 0.8423762 -0.43146294
0002d0 73 0d 8a bc b8 d8 98 3e cd d2 9f 3d 07 7b 6c 3e
       -0.016852116 0.29852843 0.07803879 0.23093806
0002e0 fe 67 ad bd ed 06 42 3e 4b 7c f2 3e 39 f6 a6 bd
       -0.084671006 0.18947954 0.47360453 -0.08152432
0002f0 a6 e9 49 3d db e0 93 bd a0 ff a8 3b 5d b6 87 be
       0.04929509 -0.07220622 0.005157426 -0.2650632
000300 3a c2 b2 3d 00 e3 ae b9 57 af 7b 3d 28 9e 43 3c
       0.08728452 -0.00033356994 0.061446514 0.011939563
000310 43 eb 4f bf ec 3a 71 3d 7f f7 6a bd bf 76 76 3c
       -0.81218356 0.058894083 -0.057364937 0.01504296
000320 56 d9 64 be f2 0e 87 3d f8 4b 41 be 42 85 39 3d
       -0.22348532 0.065946475 -0.18876636 0.0452931
000330 03 2d 44 bd 0c ed bf be ea ea bf 3e 26 18 9b 3e
       -0.04789449 -0.3748554 0.37483913 0.3029186
000340 e0 62 27 bc c8 87 47 be d1 5d 4f 3f 88 1f 8f bc
       -0.010216445 -0.1948539 0.8100253 -0.01747109
000350 c3 5d 9d 3d 6a 72 f9 bc 2f e8 32 bf 6b 7b 9e be
       0.07683899 -0.030450065 -0.69885534 -0.30953535
000360 69 9c 92 3d 01 af c0 be 0a 3e 4b 3d 2a 77 04 be
       0.07158739 -0.37633517 0.049619712 -0.12936082
000370 1a 5e 02 be a8 2a eb be 7c 4c cb 3e c4 f4 99 bc
       -0.1273121 -0.45930982 0.3970679 -0.018793471
000380 a3 d3 69 bd 9a 52 5b be e8 4d d5 3e 2e 51 58 bf
       -0.057086598 -0.21418229 0.41661 -0.8449887
000390 ec d8 70 3e 23 03 9d be 23 40 aa 3c c3 43 54 bf
       0.23520249 -0.30666456 0.020782536 -0.82915896
0003a0 c7 cc 9a bf 8d 8d 7d bd 43 1f b2 be 85 fc f2 be
       -1.2093743 -0.06190257 -0.34789476 -0.47458282
0003b0 ea 93 38 bf 70 7a d2 bc 80 c2 e7 ba 6a 0f 68 3d
       -0.721007 -0.025693148 -0.0017681867 0.056655325
0003c0 4e 6f 1c bf 54 89 ab bd 9d 53 f1 bd 5d a5 ef bd
       -0.6110734 -0.08375803 -0.11783526 -0.117014624
0003d0 04 d0 9d 3e 6b 6f 47 3e 64 98 2b be 45 58 93 bd
       0.30822766 0.19476096 -0.16757351 -0.071945705
0003e0 6d c0 b5 3c 1e fa 65 bd de 80 66 bd 78 8d 06 bd
       0.022186482 -0.056146733 -0.05627524 -0.03284976
0003f0 15 6f 86 bd 3b 04 a4 3d f0 53 99 3b 41 02 9b bd
       -0.06564156 0.080086194 0.0046791956 -0.07568789

adv.0.bias f4 [64]
000000 03 f1 ec bf 87 7e 10 c0 71 cd ce be b7 9d 26 bf
       -1.8511051 -2.2577226 -0.40391114 -0.65084404
000010 3d b8 a1 bf 5b 26 31 bf 95 19 ea bf c9 87 e4 bf
       -1.263435 -0.6919915 -1.8289057 -1.7853938
000020 50 ca cf be 22 fd 95 bf 88 03 53 be 70 4c b5 bf
       -0.4058404 -1.1717875 -0.20606816 -1.4163952
000030 72 fe c9 be 76 4f e0 bc e0 56 99 bf fd 48 63 bf
       -0.3945194 -0.02738164 -1.1979637 -0.88783246
000040 29 dd 4e bd f1 37 10 c0 2d 73 48 3c e8 b3 a6 bf
       -0.050503884 -2.2534144 0.012234491 -1.3023653
000050 87 52 b6 be 27 e7 46 bf 28 3a 88 bf ad a5 6b bf
       -0.35609838 -0.7769646 -1.0642748 -0.92049676
000060 e0 5d 50 3e 88 1e 28 bf c4 6c 29 be 63 bc 2b be
       0.2034831 -0.65671587 -0.16545397 -0.16771083
000070 5b 85 02 bf 08 38 8e bf 25 49 25 c0 bf d4 07 bf
       -0.50984734 -1.1110849 -2.5825894 -0.53059
000080 37 78 81 3e 91 a5 14 3d ac 49 95 be d8 14 f0 bf
       0.2528703 0.03629071 -0.2915777 -1.8756361
000090 88 7a b7 bf 52 e2 8c bf 1b 9a b8 3c cf 4b 97 3d
       -1.4334269 -1.1006567 0.02253442 0.07387506
0000a0 4d 8d 94 bf f6 f3 84 bd 83 0f b9 bf 4c 8e 1f be
       -1.1605622 -0.06491844 -1.4457859 -0.15581626
0000b0 4d 38 03 bf 2b f5 e7 3d b3 73 b7 bf 45 59 c8 bf
       -0.51257783 0.11326059 -1.4332184 -1.5652243
0000c0 8c 12 f1 bf 22 dc 85 3c 0f 76 4a 3e 3b da 20 be
       -1.8833785 0.016340319 0.19771598 -0.15708248
0000d0 41 ac d9 be f7 2a aa bf 13 7c 39 be 60 26 9f be
       -0.42514232 -1.3294362 -0.18113737 -0.31083965
0000e0 3f 16 53 bf fe 95 27 c0 7c 18 5b ba 48 6a 68 be
       -0.8245582 -2.6185298 -0.00083578355 -0.22696793
0000f0 12 16 ff bb 88 1d 40 bf 5f e9 2c be 1f 0e 01 bf
       -0.0077846134 -0.7504506 -0.16885899 -0.5041217

adv.2.weight f4 [2, 64]
000000 63 b2 a0 c0 f6 42 c6 3f a2 e0 1d c0 da 6c 16 bf
       -5.0217757 1.5489185 -2.4668355 -0.58759844
000010 66 93 ac be 4a c1 e1 be d0 ec d1 3f c4 2c 13 c0
       -0.33706206 -0.4409278 1.6400394 -2.2996073
000020 f6 2a 95 3f a9 f7 9c 3f b1 0e 9c bd 4e 74 e7 bf
       1.1653736 1.226308 -0.0761999 -1.8082368
000030 47 fc 6f 3f 86 90 83 3e f9 35 ab bf 55 b0 db bf
       0.9374432 0.256962 -1.3375846 -1.7163187
000040 27 7f 31 bf ea 4b 8b bf 11 c6 ad bf 90 48 67 3f
       -0.69334644 -1.0882542 -1.357607 0.90345097
000050 39 b7 91 bf 6d 77 1f 3f b2 b2 ed 3f 08 20 8f bf
       -1.138404 0.62291604 1.8570158 -1.118165
000060 11 f2 5a 3f 30 f0 90 be d7 a8 c4 bf 1c fd ab 3e
       0.85525614 -0.2830825 -1.5364026 0.33591545
000070 6f e7 39 3f cb 4d 83 bf 7b bb d3 bf 1c 50 5b 3f
       0.72618765 -1.0258116 -1.654159 0.8566911
000080 bc 87 9b bf 4e b4 2a bf a2 34 dc be 1e 67 8d 3f
       -1.2150798 -0.66681373 -0.43008906 1.1047094
000090 56 a2 1e c0 1c 6d 06 40 76 c8 4a 3f 78 51 92 3f
       -2.4786582 2.1004095 0.7921213 1.1431112
0000a0 b4 82 b3 3f cf a3 82 be 5e 5b f2 bf 45 71 86 3d
       1.4024262 -0.255156 -1.8934133 0.06564573
0000b0 cf b8 4f bf c7 e9 87 3f 16 bd 77 bf ed 11 00 40
       -0.8114137 1.0618218 -0.967729 2.001094
0000c0 d7 26 59 c0 27 4f 0a 40 fc e1 2d 3f 74 8c fd 3c
       -3.3929956 2.161081 0.6792295 0.030950762
0000d0 4c 91 86 bf b4 d7 84 3f 15 f5 d6 be e2 d5 fa bd
       -1.0513091 1.0378327 -0.41983858 -0.12247826
0000e0 0a 31 5b 3f 1c 77 fb 3f 28 09 4e bf 98 0e ac 3c
       0.856217 1.9645724 -0.8048272 0.021003053
0000f0 f1 40 46 bf 26 10 6c 3f e4 57 f1 bb 05 7a 72 bf
       -0.7744284 0.9221214 -0.0073652137 -0.9471744
000100 c4 99 9e 40 58 38 c4 bf 80 f3 21 40 b6 79 03 3f
       4.95627 -1.5329695 2.530487 0.5135759
000110 de ee ce 3e 5c e6 fa 3e 7a ce d1 bf 16 1a 18 40
       0.40416616 0.49003875 -1.6391137 2.3765922
000120 a7 9e 7a bf 17 29 99 bf 21 cf 89 bd 58 cb d8 3f
       -0.97898334 -1.1965665 -0.0672896 1.6937056
000130 4b 80 65 bf 99 ff 28 be 07 2f 9b 3f 5d 52 cd 3f
       -0.89648885 -0.16503753 1.2123727 1.604076
000140 82 c8 1d 3f 48 35 94 3f dd f1 9c 3f 50 29 7a bf
       0.61634076 1.157876 1.2261311 -0.9771929
000150 94 c8 76 3f 1f ba 36 bf 94 6a f1 bf da 5c 8b 3f
       0.9639981 -0.7137775 -1.886065 1.0887711
000160 23 7a 4f bf 6f f6 7a 3e ed 5a a9 3f 28 3e d2 be
       -0.8104574 0.2450807 1.3230873 -0.41063046
000170 99 ce 2a bf e3 c0 81 3f 6b 47 c1 3f f8 e6 81 bf
       -0.66721493 1.0136989 1.509992 -1.0148611
000180 d6 5b 98 3f a6 b2 3d 3f bb 52 b0 3e e4 c5 83 bf
       1.1903026 0.7410072 0.34438118 -1.0294766
000190 88 2e 18 40 2c 58 0d c0 d6 04 65 bf c0 27 8a bf
       2.37784 -2.2085066 -0.89460504 -1.0793381
0001a0 d4 30 b1 bf ef 9d 81 3e c2 04 ef 3f df 70 aa 3c
       -1.3843026 0.25315806 1.8673327 0.020805774
0001b0 52 01 2f 3f 97 d7 83 bf db f6 85 3f c9 28 ff bf
       0.6836139 -1.0300168 1.0465959 -1.9934322
0001c0 91 0e 5b 40 a5 58 02 c0 28 78 38 bf c2 43 61 bb
       3.422764 -2.0366604 -0.72058344 -0.0034372662
0001d0 ad 7f 89 3f 8c 56 95 bf 93 f5 c2 3e 47 7d e3 3d
       1.0742089 -1.1667037 0.38077983 0.11107879
0001e0 f8 54 6c bf 96 12 fe bf 6c ef 48 3f 51 ef 49 3c
       -0.9231715 -1.9849422 0.7849033 0.012325124
0001f0 d1 66 2a 3f de cb 5a bf 46 78 0f 3c 3b 7a 82 3f
       0.66563135 -0.85467327 0.008756703 1.0193552

adv.2.bias f4 [2]
000000 bc 13 83 be 92 a2 db 3d
       -0.25600994 0.10724367
