curriculum_run_600/checkpoints/ep_0600.pt (torch, 145855 bytes, 11 tensors)

feature.0.weight f4 [128, 16]
0.16331048 -1.0647283 -0.81894666 -0.9605995 -1.8982738 0.7902652 1.2591738 0.87156343
0.20780116 0.14435464 -0.5997837 -0.75403583 -0.13525143 0.38619617 2.419185 -1.2349772
0.2622781 -0.092764765 -0.45076746 -0.24697185 0.33766183 0.2307111 0.6360716 0.4918589
-0.8516154 -0.4913356 -0.23071589 -0.6016833 -0.354551 -0.39481002 0.23832062 -0.5129676
-0.4633471 0.32853052 0.2634885 0.103050455 -0.22038287 0.13936225 0.2281056 0.36978024
0.13650592 0.1458803 0.9211105 0.8421295 0.17327596 -0.44890183 -0.43929756 -0.5669177
-0.25277206 0.30453932 0.41248995 0.637292 1.6724489 -0.6835246 -0.26877612 -0.28537446
0.5725712 0.6544989 0.5551598 0.34010395 0.41604772 -0.8654111 0.32039005 -0.3557354
0.40612614 -0.12237479 -0.108685985 0.17619197 1.9022187 -0.04677064 -0.1854046 0.14093404
0.9541727 0.7747722 -0.04213437 -0.04062208 0.5526883 -5.8835263 0.5157151 0.071653746
0.62868613 0.6808698 0.42325705 0.55021393 -2.1223702 0.8037968 0.924933 1.0577117
-0.54153615 -0.4494485 0.40822336 0.521383 0.6058595 0.29623717 1.2908816 -0.49084163
0.51251304 -0.35400483 -0.22472577 -0.1364873 -0.30885896 -0.039734866 0.12910299 0.13935287
0.32448927 0.3332142 0.32630208 0.1228284 0.27786872 -0.57739526 0.11878427 -0.57718134
0.08412063 -1.348018 -1.2640089 -1.275693 -2.1881483 -0.744324 -0.7805008 -0.7649061
0.32258046 0.6211294 -0.5664133 -0.7488886 -1.5568552 -0.71428794 -1.9916079 0.26257008
-2.5561519 -0.33735874 -0.28884807 -0.45372227 1.7820009 -2.6330516 -2.9512017 -2.885423
0.62135786 0.64765996 0.13669917 0.20077011 -0.24567288 0.5821346 0.44798452 -0.01720863
-2.3011973 1.2608329 1.0907325 1.1862758 1.6469296 -0.046719275 -0.028737359 -0.012880193
0.16624177 -0.016353618 -1.3570716 -1.6477633 0.8267806 -0.21617559 -0.36544827 -0.17268002
1.6623775 -1.467251 -1.3962151 -1.7279886 -0.016655145 0.3413798 0.3977976 0.4933041
0.4834202 0.41348752 -0.69631463 -0.77674156 0.43194124 -1.5524974 -0.8833394 0.17115314
0.09892591 -0.28769454 -0.38760024 -0.29622054 1.2654804 0.7652295 0.6653088 0.48975548
0.4044495 0.237222 -0.5179999 -0.51428187 0.50002265 -2.5853732 1.3614507 0.08396304
0.57637686 0.063903004 -0.06170474 0.12685391 -2.3410568 0.06545713 -0.1419867 -0.12696543
0.6189081 0.59168476 1.0340612 0.8324208 0.42732528 -0.44244733 1.039094 -0.96743596
0.055764996 0.88750863 0.6698557 0.41630515 2.1416168 -0.13106276 0.09701731 -0.0862282
0.33341172 0.52020174 0.06983777 0.28740874 0.77555656 -0.7509835 -1.0481995 0.051634923
0.20010221 0.8743445 0.64762264 0.6575704 -1.6749865 -0.20531802 -0.5040101 -0.3514204
-0.16538809 -0.2565545 0.22082107 0.35746077 0.47728226 -0.41828308 0.4929802 -0.411363
2.2062438 -0.37069914 -0.2550732 -0.21679634 -1.8082234 0.40985337 0.60416526 0.43069395
1.4686862 1.6463748 -1.6931652 -1.5357529 0.7080067 -0.18215138 0.3436465 -0.23098591
00000000: dd3a 273e 0449 88bf 7da6 51bf d9e9 75bf
00000010: a3fa f2bf d24e 4a3f 9b2c a13f c81e 5f3f
00000020: d4c9 543e b4d1 133e 6d8b 19bf 7e08 41bf
00000030: 5a7f 0abe 81bb c53e edd3 1a40 bc13 9ebf
00000040: 5149 863e 74fb bdbd feca e6be 30e6 7cbe
00000050: 03e2 ac3e 883f 6c3e 97d5 223f eed4 fb3e
00000060: 7803 5abf 5790 fbbe c940 6cbe eb07 1abf
00000070: b587 b5be 8a24 cabe 520a 743e d851 03bf
00000080: d53b edbe 2735 a83e f7e7 863e 1e0c d33d
00000090: 0cac 61be fab4 0e3e 8494 693e d653 bd3e
000000a0: 35c8 0b3e a561 153e e6cd 6b3f cd95 573f
000000b0: 416f 313e 76d6 e5be 9ceb e0be 8521 11bf
000000c0: 576b 81be 94ec 9b3e e231 d33e 9225 233f
000000d0: ce12 d63f 78fb 2ebf 069d 89be 9a1c 92be
000000e0: 0794 123f 3d8d 273f f41e 0e3f 1b22 ae3e
000000f0: 3504 d53e 958b 5dbf 2a0a a43e f322 b6be
00000100: c4ef cf3e a29f fabd c296 debd ab6b 343e
00000110: e77b f33f 9292 3fbd b4da 3dbe 0351 103e
00000120: a944 743f 7957 463f 1795 2cbd 5763 26bd
00000130: fb7c 0d3f d945 bcc0 e805 043f 33bf 923d
00000140: 93f1 203f 7c4d 2e3f 26b5 d83e d2da 0c3f
00000150: ead4 07c0 a1c5 4d3f 69c8 6c3f 1963 873f
00000160: 1da2 0abf 1d1e e6be a702 d13e 5b79 053f
00000170: 9c19 1b3f 66ac 973e 9c3b a53f 984f fbbe
00000180: 0e34 033f 1f40 b5be 831e 66be 54c3 0bbe
00000190: c322 9ebe 07c1 22bd 9333 043e 85b2 0e3e
000001a0: 7523 a63e 0d9b aa3e 1111 a73e 758d fb3d
000001b0: cf44 8e3e 2dd0 13bf 2b45 f33d 28c2 13bf
000001c0: 7047 ac3d db8b acbf 0bcb a1bf e949 a3bf
000001d0: 9f0a 0cc0 058c 3ebf e7ce 47bf e3d0 43bf
000001e0: 4429 a53e 5602 1f3f 7600 11bf 2ab7 3fbf
000001f0: 0847 c7bf 93db 36bf 02ed febf 966f 863e
00000200: fe97 23c0 49ba acbe e5e3 93be 494e e8be
00000210: 9b18 e43f eb83 28c0 7de0 3cc0 c5aa 38c0
00000220: 4f11 1f3f 0bcd 253f defa 0b3e ae96 4d3e
00000230: ac91 7bbe c606 153f 3a5e e53e 1df9 8cbc
00000240: d146 13c0 f962 a13f 1f9d 8b3f e3d7 973f
00000250: 97ce d23f b65c 3fbd 9c6a ebbc 7207 53bc
00000260: 483b 2a3e 06f8 85bc 86b4 adbf e8e9 d2bf
00000270: e5a7 533f 225d 5dbe 091c bbbe 08d3 30be
00000280: c9c8 d43f e1ce bbbf 2db7 b2bf bb2e ddbf
00000290: 5f70 88bc 55c9 ae3e 21ac cb3e 5b92 fc3e
000002a0: da82 f73e a3b4 d33e ad41 32bf 89d8 46bf
000002b0: 6727 dd3e 3cb8 c6bf 8822 62bf c542 2f3e
000002c0: ab99 ca3d b34c 93be 8a73 c6be 38aa 97be
000002d0: 43fb a13f 15e6 433f ad51 2a3f 3bc1 fa3e
000002e0: 0114 cf3e 53ea 723e a49b 04bf faa7 03bf
000002f0: 7c01 003f c176 25c0 0444 ae3f d0f4 ab3d
00000300: 6f8d 133f 94df 823d 1cbe 7cbd fee5 013e
00000310: e0d3 15c0 630e 863d f664 11be 3a03 02be
00000320: c370 1e3f a778 173f 1e5c 843f 8819 553f
00000330: 61ca da3e 7588 e2be 0801 853f e2a9 77bf
00000340: d669 643d c433 633f aa7b 2b3f f325 d53e
00000350: 4010 0940 5135 06be 03b1 c63d 6998 b0bd
00000360: f1b4 aa3e f12b 053f 1b07 8f3d 3d27 933e
00000370: e08a 463f 7440 40bf 672b 86bf 247f 533d
00000380: 98e7 4c3e 0bd5 5f3f 99ca 253f 8956 283f
00000390: f565 d6bf e33e 52be ce06 01bf 60ed b3be
000003a0: 7f5b 29be 1d5b 83be eb1e 623e 1905 b73e
000003b0: 575e f43e 3329 d6be e767 fc3e 2c9e d2be
000003c0: 1933 0d40 47cc bdbe f498 82be dcff 5dbe
000003d0: dd73 e7bf 4dd8 d13e 93aa 1a3f eb83 dc3e
000003e0: e9fd bb3f 69bc d23f a3b9 d8bf 8d93 c4bf
000003f0: ed3f 353f e485 3abe 6ff2 af3e 9287 6cbe

feature.0.bias f4 [128]
-0.7096748 -0.25690484 -0.3521554 0.62862396 1.9488122 1.1021892 -0.47372103 0.7841386
1.2181605 -0.2832135 -0.130557 1.1266198 0.53884685 0.51060575 0.6448131 -2.1585505
-1.3998157 2.610296 2.1912582 0.13673756 0.47848907 2.1183326 1.3106594 -0.2646662
-0.7055073 0.68931365 -0.05967486 -1.3277007 0.54503 -0.5520715 0.9518617 -0.7468164
0.10272096 -2.8414433 -0.6830395 -0.054799404 0.607365 1.369872 1.2551801 -0.18042144
-0.87350106 2.0578864 -0.40874416 1.6431811 -0.15566936 -1.0765128 -2.6943436 0.9783369
0.7460376 -2.5156116 0.6663367 -0.5928278 -0.6312559 -0.34891996 0.7521696 1.2968136
-0.022518698 -0.6383985 -0.25400668 -1.043233 -0.9413985 -0.010943979 0.33832237 1.3352195
-2.03413 -2.6329439 -1.5708941 -0.006760613 0.8266534 1.5248677 -0.012675754 1.0348814
-0.43250197 -0.6213558 -1.5506107 -1.9710672 1.0255233 -1.7786634 -2.02781 1.2141001
-0.6498701 -1.7660507 0.3505494 0.26396185 -0.3915975 -0.9037233 0.080428064 -0.8647104
-0.015834088 -0.9538455 -0.21776812 -0.6565325 -0.71675634 -0.9091117 -0.53341883 2.2337942
-0.44986585 -1.0135922 0.36592802 0.1697398 1.0614414 -0.23866434 -3.8860154 -0.7477423
-1.0020996 -0.68905544 0.44719875 0.66560465 -0.14189829 -0.10592939 0.5774898 -1.805455
-1.6194487 0.7954884 0.32975656 2.4518065 0.74833035 1.4762026 -0.03647393 1.3193805
-2.2732573 1.3581192 -1.0066757 -0.086623766 1.1391485 -0.45132372 0.8233418 -1.3191553
00000000: 3fad 35bf 0889 83be b64d b4be 80ed 203f
00000010: ae72 f93f 8914 8d3f 908b f2be 4fbd 483f
00000020: afec 9b3f 5c01 91be bcb0 05be 1435 903f
00000030: def1 093f 0fb7 023f 7912 253f b125 0ac0
00000040: 292d b3bf 170f 2740 933d 0c40 ee04 0c3e
00000050: 85fc f43e c392 0740 b0c3 a73f 5482 87be
00000060: 209c 34bf dc76 303f a06d 74bd 19f2 a9bf
00000070: 1687 0b3f 8f54 0dbf 35ad 733f 5c2f 3fbf
00000080: 5e5f d23d 35da 35c0 addb 2ebf 5775 60bd
00000090: 467c 1b3f f757 af3f bea9 a03f 66c0 38be
000000a0: c49d 5fbf 69b4 0340 ea46 d1be c253 d23f
000000b0: ca67 1fbe 2ccb 89bf 2070 2cc0 4974 7a3f
000000c0: 52fc 3e3f c8ff 20c0 0b95 2a3f 90c3 17bf
000000d0: fd99 21bf a3a5 b2be 308e 403f fdfd a53f
000000e0: 2279 b8bc 166e 23bf 2a0d 82be a988 85bf
000000f0: 7eff 70bf 604e 33bc 9738 ad3e 79e8 aa3f
00000100: 302f 02c0 2782 28c0 0f13 c9bf 2288 ddbb
00000110: 8f9f 533f dd2e c33f f7ad 4fbc fe76 843f
00000120: e670 ddbe 2c11 1fbf 697a c6bf ee4b fcbf
00000130: 5944 833f 3eab e3bf a4c7 01c0 a267 9b3f
00000140: e35d 26bf f30d e2bf 367b b33e 0226 873e
00000150: 787f c8be 695a 67bf 78b7 a43d a95d 5dbf
00000160: 7db6 81bc 382f 74bf 9bfe 5ebe 8412 28bf
00000170: 587d 37bf 8bbb 68bf 238e 08bf 7cf6 0e40
00000180: d154 e6be 64bd 81bf eb5a bb3e 45d0 2d3e
00000190: 50dd 873f 6d64 74be 7ab4 78c0 0a6c 3fbf
000001a0: cd44 80bf f065 30bf 3cf7 e43e 1165 2a3f
000001b0: c94d 11be 82f1 d8bd 5fd6 133f 2619 e7bf
000001c0: 184a cfbf 21a5 4b3f dad5 a83e 66ea 1c40
000001d0: 9492 3f3f 35f4 bc3f b065 15bd 76e1 a83f
000001e0: 0c7d 11c0 dad6 ad3f c0da 80bf cd67 b1bd
000001f0: 9ecf 913f e713 e7be 87c6 523f 15da a8bf

feature.2.weight f4 [128, 128]
-0.103394695 -0.73840463 -0.08607707 0.052235182 -0.32052124 0.09725546 -0.05084001 -1.0493104
0.0043903803 -0.26503906 -0.13442825 -0.26682165 0.12228801 -0.06505469 -0.0015119662 0.016453011
0.07871775 -0.08118966 0.6480544 -0.22346275 0.86733544 -0.23065974 -1.2925593 0.0036677523
-0.35956648 -0.035803933 0.013205148 0.02495326 0.031674787 -0.02055509 -0.5847603 0.2847209
0.11010006 -0.5261224 -0.22905128 -0.04450353 -0.094579145 -0.3191807 0.065991916 0.048591223
-0.13390623 -0.18736556 -0.2798875 -0.095417775 -0.041930288 -0.067002445 0.038148947 -0.16945659
-0.24292484 -0.0059328326 0.09976121 -0.4017804 0.05705829 0.037138265 -0.13084291 -0.086845264
-0.21766403 -0.6164577 0.12874006 -0.20440215 0.13191226 -0.048557837 -0.2046772 0.13604996
-0.17920774 -0.33252493 -0.113649204 0.011236724 -0.27781492 -0.24795786 -0.25095657 -0.8279694
0.1001651 -0.20572063 0.10610948 -0.51452583 -0.6860113 -0.28170854 -0.09821172 0.40848634
-0.30939516 -0.18655145 0.09103593 0.036083084 0.47272184 -0.3991026 -1.0392114 -0.6994636
-0.0024504175 0.2918058 0.14762251 -0.14333534 -0.87752515 -0.0788111 -0.17974721 0.52967703
-0.14168517 0.22518952 -0.21388842 -0.32009727 -0.14833966 0.16383246 0.019591697 -0.15283014
-0.5899729 -0.13243614 -0.57933956 0.002712305 0.23773469 0.072204575 0.03914982 -0.76449263
-0.0011888699 -0.25765365 -1.0435365 0.00872249 -0.6084489 -0.24173222 -0.087910146 0.011324073
-0.27826405 -1.893974 -0.401663 0.1993233 0.71729153 -0.07401388 0.52672976 -0.04298082
-0.23944075 0.034838744 0.16265973 0.41305572 0.012365632 -0.18149014 -0.12248406 0.22225805
-0.6635618 -0.07936513 -0.42928216 0.18542269 -0.12385157 0.2111581 0.06395169 0.039898988
-0.0011485368 -0.16779807 -0.24098466 0.5038027 -0.14606169 -0.25299218 -0.24128346 -0.18034144
-0.29792362 -0.11781007 0.043886505 -0.1950237 -0.19789068 -0.57553416 -0.08457952 -0.07234506
-0.3068675 -0.3142762 -0.17739809 0.013824577 0.30069855 0.075133175 -0.40847364 -0.19025898
-0.15498725 -0.68989307 -0.124560796 -0.18019325 0.07464428 -1.3743101 0.16316472 -0.28130582
-0.062233612 0.03654982 0.18852651 -0.3518978 -0.0374411 0.02066953 -0.050550003 -0.074751414
-0.037163723 0.033345513 0.20327547 -0.099096306 -0.09432945 -0.008615151 -0.0791272 -0.020088702
0.12284973 0.4049598 -0.055259746 -0.077264726 0.4722397 -0.020794094 -0.33149767 0.05284295
-0.5549699 -0.042860534 -0.023088625 0.7413737 0.02531592 -0.028119413 0.09263665 -0.08645242
0.21405666 -0.9893445 -0.5578028 -0.01714273 0.3294921 -0.78011286 -0.3806419 -0.062172696
-0.038772754 -0.03264718 0.08872073 -0.03243109 0.77383995 -0.17384605 0.016378546 -0.18534529
-0.42902267 -0.5091787 -0.10486125 -0.5254516 -0.1733221 -0.8453429 0.096069016 0.114579126
-0.02866912 -0.25792944 -0.06719979 -0.41483453 0.122509405 0.076829396 -0.20128347 -0.034653578
-0.23952524 -0.14890265 -0.18541136 -0.21124789 0.13228394 0.07514092 -0.0050137267 -0.62023455
-0.24464041 0.15089326 -0.06795521 -0.7181296 -0.21513031 -0.8880812 -0.21059099 -0.513214
00000000: 99c0 d3bd 1608 3dbf 2d49 b0bd 8ff4 553d
00000010: 5c1b a4be df2d c73d 9d3d 50bd ce4f 86bf
00000020: 2edd 8f3b 33b3 87be 8fa7 09be d99c 88be
00000030: 2372 fa3d 653b 85bd 2b2d c6ba 77c8 863c
00000040: c636 a13d c446 a6bd e5e6 253f 6bd3 64be
00000050: b209 5e3f 1132 6cbe 9572 a5bf ac5e 703b
00000060: 1919 b8be 25a7 12bd 685a 583c c76a cc3c
00000070: 6cbd 013d 2663 a8bc dab2 15bf f0c6 913e
00000080: 247c e13d f5af 06bf 6b8c 6abe 5549 36bd
00000090: b6b2 c1bd a76b a3be c526 873d 9707 473d
000000a0: b71e 09be c2dc 3fbe 6a4d 8fbe 656a c3bd
000000b0: 18bf 2bbd 9438 89bd 1242 1c3d 0786 2dbe
000000c0: 4ac1 78be 3568 c2bb 9b4f cc3d 29b6 cdbe
000000d0: f4b5 693d 4b1e 183d affb 05be eedb b1bd
000000e0: 52e3 5ebe 2cd0 1dbf 6fd4 033e cc4e 51be
000000f0: 0214 073e 95e4 46bd e696 51be ae50 0b3e
00000100: 3c82 37be b540 aabe eac0 e8bd 3d1a 383c
00000110: c23d 8ebe aae8 7dbe 617d 80be cdf5 53bf
00000120: 5c23 cd3d 6ea8 52be ed4f d93d f7b7 03bf
00000130: 709e 2fbf 1a3c 90be 3a23 c9bd 1f25 d13e
00000140: 0b69 9ebe 5807 3fbe 0c71 ba3d dbcb 133d
00000150: 9908 f23e 2d57 ccbe e104 85bf 0c10 33bf
00000160: 2f97 20bb 9267 953e 5b2a 173e 80c6 12be
00000170: 7da5 60bf b767 a1bd a70f 38be ea98 073f
00000180: eb15 11be 1598 663e 9105 5bbe cae3 a3be
00000190: 5ae6 17be b2c3 273e c47e a03c 817f 1cbe
000001a0: 7708 17bf 579d 07be 994f 14bf edc0 313b
000001b0: b970 733e fedf 933d 905b 203d cab5 43bf
000001c0: dbd3 9bba 2eeb 83be 9b92 85bf c6e8 0e3c
000001d0: 4fc3 1bbf a788 77be 3c0a b4bd 9b88 393c
000001e0: a078 8ebe bd6d f2bf c6a6 cdbe 681b 4c3e
000001f0: 6ba0 373f 9794 97bd c3d7 063f a80c 30bd
00000200: f52f 75be 12b3 0e3d 4690 263e 0a7c d33e
00000210: 3899 4a3c 8dd8 39be ecd8 fabd 9d97 633e
00000220: 30df 29bf 2f8a a2bd dfca dbbe 72df 3d3e
00000230: e4a5 fdbd d439 583e 1bf9 823d 1f6d 233d
00000240: 808a 96ba 42d3 2bbe afc4 76be 37f9 003f
00000250: 3291 15be 3188 81be 0313 77be 6dab 38be
00000260: 7289 98be 6846 f1bd 56c2 333d 4bb4 47be
00000270: dba3 4abe 3556 13bf 0738 adbd a629 94bd
00000280: bd1d 9dbe cfe8 a0be d8a7 35be 7b80 623c
00000290: 29f5 993e 6cdf 993d 7523 d1be 40d3 42be
000002a0: fab4 1ebe d59c 30bf bb19 ffbd 9484 38be
000002b0: 1adf 983d 65e9 afbf a714 273e 5107 90be
000002c0: ace8 7ebd 44b5 153d 180d 413e f32b b4be
000002d0: d75b 19bd 2553 a93c 850d 4fbd 4517 99bd
000002e0: fd38 18bd 4e95 083d 7227 503e 01f3 cabd
000002f0: cc2f c1bd 9026 0dbc 710d a2bd 1091 a4bc
00000300: a498 fb3d e456 cf3e 0b58 62bd f83c 9ebd
00000310: 67c9 f13e 6058 aabc 10ba a9be d971 583d
00000320: 8212 0ebf 878e 2fbd 5b24 bdbc abca 3d3f
00000330: 5563 cf3c af5a e6bc 49b8 bd3d f70d b1bd
00000340: ab31 5b3e ae45 7dbf 2acc 0ebf e96e 8cbc
00000350: 30b3 a83e 7ab5 47bf 7fe3 c2be cca8 7ebd
00000360: 2ed0 1ebd 0db9 05bd 37b3 b53d 76d6 04bd
00000370: 601a 463f b304 32be 4d2c 863c 28cb 3dbe
00000380: dca8 dbbe 8959 02bf 7fc1 d6bd ff83 06bf
00000390: 597b 31be 6468 58bf d5bf c43d 76a8 ea3d
000003a0: 81db eabc 540f 84be 0ba0 89bd 3165 d4be
000003b0: 36e6 fa3d bb58 9d3d 411d 4ebe e9f0 0dbd
000003c0: 1b46 75be f079 18be 7adc 3dbe 5e51 58be
000003d0: 7175 073e 7ce3 993d 304a a4bb b1c7 1ebf
000003e0: 0483 7abe c383 1a3e 1a2c 8bbd 57d7 37bf
000003f0: 1f4b 5cbe 4a59 63bf 2aa5 57be fe61 03bf

feature.2.bias f4 [128]
-0.16329625 -0.12775481 0.8729854 1.7969415 -0.004153181 -0.046955273 0.02407597 0.5310653
0.31787208 -0.23268043 0.67215663 0.16186476 0.14442435 -0.42772204 -0.20522982 0.02552967
-0.02998483 -0.5155242 -0.043905653 1.1087687 -0.2152555 -0.14854583 -2.6071343 -0.12913992
-0.3008269 -0.12607688 -0.15392101 -0.4865136 -0.001011468 0.71455926 -0.16618372 0.27384618
-0.0024831968 0.3800317 0.16430229 -0.072629444 0.45264867 0.28900334 0.13106892 0.22242922
-0.12664878 0.050849847 0.05968854 -0.10817057 0.14139868 -0.15102321 -0.32749528 0.034916956
-2.6205933 -0.2293265 -1.5556188 -0.82946557 -0.069117606 0.3746164 0.07710834 0.32084215
0.1743124 -0.40655047 0.15727809 -0.16705444 -0.051884793 -0.048368182 -0.04240409 0.9745809
0.21126534 -0.11726994 -0.18838051 -0.07414852 0.012619295 -0.007174214 -0.14751329 -0.15613331
0.22824982 -0.5941093 0.2519664 -0.052378643 -0.13751566 0.42908254 0.3570642 -0.14277178
0.56483364 0.18254 -0.44496512 -0.07667254 -0.105016 -0.08145829 0.4616187 0.25233746
-0.23272428 -0.57682925 -0.039967693 0.31820717 -0.04049736 1.1391764 -1.0188859 -0.029360449
-0.16919333 5.3955224e-05 0.27025446 0.6281251 -0.06444278 -0.5517446 0.69927686 0.6127605
1.3695331 -0.11676435 0.38984087 -0.16674547 0.31046396 0.0044070096 -0.05678851 -0.1467047
0.72301084 -0.12163355 -0.4562337 0.009179071 0.25586873 0.080523096 0.55682176 -0.020228505
-0.059447624 0.418451 -0.08259655 -0.095884845 0.19315511 -0.1437027 -0.0079241535 -0.41855428
00000000: 2237 27be 28d2 02be f97b 5f3f 2e02 e63f
00000010: 6817 88bb 2c54 40bd f83a c53c e5f3 073f
00000020: 21c0 a23e c743 6ebe 7512 2c3f e0bf 253e
00000030: fae3 133e 62fe dabe c427 52be 9923 d13c
00000040: bfa2 f5bc 65f9 03bf 6ad6 33bd 22ec 8d3f
00000050: f06b 5cbe 661c 18be 4adb 26c0 413d 04be
00000060: fc05 9abe 4c1a 01be 789d 1dbe 5018 f9be
00000070: 3c93 84ba 5bed 363f 112c 2abe 9135 8c3e
00000080: 21bd 22bb 8493 c23e dc3e 283e bfbe 94bd
00000090: 91c1 e73e 3ff8 933e ee36 063e 7cc4 633e
000000a0: 38b0 01be ee47 503d f87b 743d 8888 ddbd
000000b0: d1ca 103e d4a5 1abe 76ad a7be 1505 0f3d
000000c0: cdb7 27c0 91d4 6abe 841e c7bf db57 54bf
000000d0: 888d 8dbd b9cd bf3e faea 9d3d 6c45 a43e
000000e0: f37e 323e 6227 d0be 820d 213e 5210 2bbe
000000f0: 2685 54bd b71d 46bd e9af 2dbd 227e 793f
00000100: f155 583e 392b f0bd d2e6 40be 2edb 97bd
00000110: 29c1 4e3c ab15 ebbb b90d 17be 69e1 1fbe
00000120: 52ba 693e 8c17 18bf bd01 813e fd8a 56bd
00000130: e8d0 0cbe b5b0 db3e 1ed1 b63e c432 12be
00000140: f098 103f c4eb 3a3e 78d2 e3be 7e06 9dbd
00000150: a112 d7bd 9bd3 a6bd 4959 ec3e 6032 813e
00000160: 464f 6ebe 15ab 13bf 2ab5 23bd 0dec a23e
00000170: 8fe0 25bd 88d0 913f da6a 82bf 5385 f0bc
00000180: 0441 2dbe fb4d 6238 cb5e 8a3e cecc 203f
00000190: 94fa 83bd 223f 0dbf cf03 333f dfdd 1c3f
000001a0: dc4c af3f 2622 efbd 3999 c73e 53bf 2abe
000001b0: 22f5 9e3e ad68 903b 129b 68bd c239 16be
000001c0: 3d17 393f 031b f9bd 7797 e9be d063 163c
000001d0: 3a01 833e 4be9 a43d df8b 0e3f 40b6 a5bc
000001e0: 5a7f 73bd 363f d63e 6128 a9bd 465f c4bd
000001f0: 74ca 453e cd26 13be 4fd4 01bc bf4c d6be

value.0.weight f4 [64, 128]
0.6269052 -0.009075557 -1.0761999 -0.84472317 -0.020261023 -0.088858254 -0.27394232 -0.84637225
-0.74057215 0.04413453 -0.36021772 0.002776732 -0.6866175 -0.07349038 -0.64364064 -0.72104216
-0.0077963555 -0.8737338 0.015812594 -1.2263325 -0.39076656 -0.08238189 -2.61839 -0.0045615435
-0.12596282 -0.01622044 0.08249459 -0.20843339 -0.01692754 -0.031986997 0.008214712 -0.65207833
-0.060755536 -1.8785168 -0.11384414 -0.07829987 -0.013126341 -0.7571704 -0.6948757 -0.19716671
-0.15871413 -0.34088913 -0.18290183 -0.058179624 -0.56706643 -0.10029278 -0.021327345 0.0648485
0.2843532 -1.0618206 -0.9453104 -0.27434486 -0.018440455 -0.3420673 -0.35893118 -1.7532169
-0.67617065 1.5305011 -0.34551668 0.03649909 0.0362062 0.0010334402 0.05127842 -1.358593
-0.22035658 0.07130321 0.0557063 0.01712481 -0.22322819 0.036078017 0.09933783 -0.10774701
-0.34739915 0.4202905 -0.8008619 -0.03139994 -0.19492659 -0.19622792 -0.75967157 0.065661624
-0.6652881 -0.009350194 0.84881544 0.06030272 0.025319148 -0.049057793 -0.3425754 -0.16427982
-0.23253353 0.20091276 -0.016413717 0.60234773 -0.35690522 -0.03810008 0.18009003 -0.41643745
0.014195978 -0.13345374 0.33706248 -0.045538444 -0.373295 -0.24861433 -2.0118098 -0.85804075
-0.2802008 0.025116526 -0.4419612 -0.94595313 -1.3954679 0.077360176 0.049089704 0.04927213
0.05805557 -0.025022719 -0.26259485 -0.24835463 -0.27621907 -0.98638314 0.21498284 -0.055727817
0.7550771 0.4215968 0.06962643 0.040995587 -0.19119781 -0.07240148 0.026297703 0.713469
-0.083826356 -0.034101874 -0.14058644 -0.81333464 -0.077453405 -0.08762488 -0.30187407 -0.022121292
0.26541948 0.00050085585 -0.5255453 -0.31454393 0.09047949 0.02062092 -0.1240902 -0.06629708
-0.07040654 0.19777519 0.05260515 -0.21892425 -0.08071671 -0.056894038 1.0236242 0.0014674664
-0.580134 -0.13888115 -0.034850627 -0.105398804 0.0023939556 -0.15656368 -0.062098555 -0.066856734
0.049355127 -0.14087094 0.36497596 0.04771788 -0.07187269 -0.19689833 -0.11204392 -0.04090252
-0.13867588 -0.17676915 -0.33505026 -0.04160428 -0.10540139 0.04611721 0.07136337 -0.11737885
-0.15292765 0.09626146 -0.3979006 -0.10114251 0.052943014 -0.26371783 -0.19035392 -0.057866987
-0.12644047 1.0372663 0.04211964 0.07934884 -0.03460366 -0.086684845 -0.054235872 -1.2030965
-0.05550818 -0.0053637847 0.06146642 -0.05275994 -0.30060077 0.038455717 0.007506795 0.11322111
0.036137145 -0.09490397 -0.48724622 0.055811096 -0.075147726 -0.3422656 -0.059937738 0.09602564
-0.8569524 0.03588864 0.15554616 0.087808274 -0.033509865 0.034871012 -0.30326557 -0.17212684
-0.07469681 0.1128676 -0.009690874 -0.042966243 0.056898966 -0.26755244 -0.29932016 0.37729612
0.029234005 0.20448187 0.3086806 -0.14788167 -0.01939305 -0.2005745 -0.009019857 -0.28164053
-0.28834736 0.00038462877 -0.17360117 -0.17274842 -0.028398478 -0.06757754 -0.017558292 0.061875157
-0.3148175 -0.07536528 -0.16803107 -0.018755967 -0.099511676 -0.21283789 -0.6066908 -0.001694616
-0.17137165 -0.04512709 -0.065709025 0.08672237 -0.09838168 -0.024985008 -0.016515411 -0.117128745
00000000: dc7c 203f a5b1 14bc ebc0 89bf c73f 58bf
00000010: 72fa a5bc 51fb b5bd 2b42 8cbe daab 58bf
00000020: 2396 3dbf 69c6 343d 756e b8be d5f9 353b
00000030: 2ac6 2fbf 2082 96bd a2c5 24bf 3896 38bf
00000040: 9278 ffbb 05ad 5fbf 6a89 813c 77f8 9cbf
00000050: 8e12 c8be d6b7 a8bd b493 27c0 0079 95bb
00000060: 66fc 00be bae0 84bc ecf2 a83d 906f 55be
00000070: a0ab 8abc cc04 03bd 0097 063c 9bee 26bf
00000080: ccda 78bd 3d73 f0bf 1e27 e9bd af5b a0bd
00000090: dd0f 57bc ebd5 41bf 60e3 31bf 12e6 49be
000000a0: f585 22be 0589 aebe 9e4a 3bbe c24d 6ebd
000000b0: 442b 11bf 4d66 cdbd afb6 aebc 4acf 843d
000000c0: be96 913e bde9 87bf ddff 71bf ee76 8cbe
000000d0: 7010 97bc 7223 afbe d4c5 b7be 6969 e0bf
000000e0: 8519 2dbf 76e7 c33f 90e7 b0be 1280 153d
000000f0: f44c 143d 8074 873a 5209 523d 60e6 adbf
00000100: 28a5 61be 6b07 923d 4a2c 643d 5449 8c3c
00000110: ee95 64be 8bc6 133d a271 cb3d 77aa dcbd
00000120: 4dde b1be 5130 d73e 4905 4dbf 399d 00bd
00000130: d69a 47be f9ef 48be d679 42bf 9a79 863d
00000140: 5250 2abf 8e31 19bc f84b 593f fcff 763d
00000150: 1a6a cf3c d3f0 48bd 0b66 afbe f838 28be
00000160: 451d 6ebe 13bc 4d3e 0f76 86bc 7633 1a3f
00000170: 48bc b6be d40e 1cbd 8569 383e 4a37 d5be
00000180: 3f96 683c 19a8 08be 7493 ac3e 8586 3abd
00000190: 8620 bfbe c194 7ebe 7ec1 00c0 8fa8 5bbf
000001a0: 7b76 8fbe 2cc1 cd3c bd48 e2be fc29 72bf
000001b0: b19e b2bf 036f 9e3d 4912 493d 93d1 493d
000001c0: adcb 6d3d 72fc ccbc d572 86be ad50 7ebe
000001d0: 966c 8dbe 9b83 7cbf 7624 5c3e da42 64bd
000001e0: bc4c 413f 89db d73e 4d98 8e3d fdea 273d
000001f0: 5cc9 43be 3a47 94bd 486e d73c e8a5 363f
00000200: 27ad abbd 68ae 0bbd e4f5 0fbe b336 50bf
00000210: e49f 9ebd ac74 b3bd 3d8f 9abe b637 b5bc
00000220: 10e5 873e de4b 033a 238a 06bf e70b a1be
00000230: 504d b93d 34ed a83c 0123 febd c3c6 87bd
00000240: 4e31 90bd 9485 4a3e 7f78 573d ae2d 60be
00000250: cd4e a5bd b909 69bd 1e06 833f 0058 c03a
00000260: a983 14bf dc36 0ebe 88bf 0ebd 54db d7bd
00000270: e9e3 1c3b 3b52 20be 0e5b 7ebd 2fec 88bd
00000280: 9a28 4a3d 7940 10be 21de ba3e d373 433d
00000290: fd31 93bd b79f 49be 4877 e5bd 6789 27bd
000002a0: 0d01 0ebe f902 35be b58b abbe 4069 2abd
000002b0: afdc d7bd 66e5 3c3d f526 923d 5364 f0bd
000002c0: 1199 1cbe ba24 c53d a1b9 cbbe ce23 cfbd
000002d0: c6da 583d 0606 87be 23ec 42be ef05 6dbd
000002e0: 9c79 01be 24c5 843f a585 2c3d a581 a23d
000002f0: 91bc 0dbd d387 b1bd 6f26 5ebd 11ff 99bf
00000300: 8c5c 63bd b0c2 afbb 36c4 7b3d cf1a 58bd
00000310: 58e8 99be be83 1d3d 90fb f53b 78e0 e73d
00000320: 8b04 143d 035d c2bd 5678 f9be 2d9a 643d
00000330: 0de7 99bd 703d afbe 4681 75bd 17a9 c43d
00000340: 3c61 5bbf f7ff 123d 7e47 1f3e d3d4 b33d
00000350: a441 09bd e8d4 0e3d a045 9bbe 0542 30be
00000360: a4fa 98bd 2127 e73d 79c6 1ebc 5ffd 2fbd
00000370: e40e 693d a2fc 88be 7e40 99be f52c c13e
00000380: 277c ef3c b263 513e 620b 9e3e 4b6e 17be
00000390: 2cde 9ebc 6763 4dbe 06c8 13bc 3033 90be
000003a0: 44a2 93be 00a8 c939 81c4 31be f6e4 30be
000003b0: eda3 e8bc 1866 8abd 68d6 8fbc ce70 7d3d
000003c0: c22f a1be 1d59 9abd 5610 2cbe 1da6 99bc
000003d0: c7cc cbbd 2df2 59be 1750 1bbf e11d deba
000003e0: 0d7c 2fbe 2fd7 38bd 7492 86bd 7f9b b13d
000003f0: 567c c9bd 5cad ccbc 544b 87bc 32e1 efbd

value.0.bias f4 [64]
0.12255111 -0.81565773 1.4806857 -1.7662164 1.5038986 0.7892044 -0.24057478 -0.00034091558
0.700115 -1.6184334 -0.8084258 0.9329719 -1.9589478 0.06507967 2.1182458 -0.10404004
1.3912652 1.3898783 0.5453267 -2.6664844 0.44061583 1.4714928 -1.1713052 0.022426546
0.5447806 -0.19808455 0.9139488 0.14472298 0.9092538 -0.0909113 1.0118853 -0.23460482
0.85789853 0.1787285 0.30657652 0.5510032 0.90456986 0.4277418 -0.23093435 -0.29900813
0.68935424 -0.96332204 0.2927151 -0.34455895 1.3147107 -0.20242469 0.9710129 -0.29255673
1.0072217 -1.6036114 -0.117833 0.48720405 1.0337344 0.8550386 -0.4587859 -0.036411133
0.07193101 -1.6398193 0.9987181 -1.8679657 -0.6086467 -2.303324 -1.3485924 -0.5670188
00000000: 14fc fa3d f2ce 50bf 1c87 bd3f 6113 e2bf
00000010: c07f c03f 4d09 4a3f 3c59 76be eabc b2b9
00000020: bd3a 333f d328 cfbf fef4 4ebf 3fd7 6e3f
00000030: cdbe fabf 7d48 853d 5791 0740 f212 d5bd
00000040: fa14 b23f 88e7 b13f 889a 0b3f aea7 2ac0
00000050: 6698 e13e e059 bc3f 54ed 95bf e0b7 b73c
00000060: be76 0b3f add6 4abe 8cf8 693f 4332 143e
00000070: dbc4 683f b42f babd 7585 813f 3f3c 70be
00000080: 3d9f 5b3f 9b04 373e 99f7 9c3e 8c0e 0d3f
00000090: e491 673f f900 db3e 0e7a 6cbe 9817 99be
000000a0: 8579 303f 469c 76bf c1de 953e 086a b0be
000000b0: 7148 a83f 6b48 4fbe 4d94 783f ffc9 95be
000000c0: a4ec 803f 2343 cdbf 6e52 f1bd cf72 f93e
000000d0: 6951 843f cfe3 5a3f fce5 eabe d723 15bd
000000e0: 9150 933d 99e5 d1bf fdab 7f3f 8019 efbf
000000f0: 45d0 1bbf a969 13c0 ad9e acbf 2528 11bf

value.2.weight f4 [1, 64]
-1.8352394 1.9514034 -0.6200026 2.4328253 1.3203111 1.0500339 -0.02153351 -0.8461699
-1.4285694 -0.56141764 0.51921386 -0.46526983 0.78382 -0.39193654 -0.5004633 0.030294959
-0.15791447 -0.12419178 1.4812273 0.90427893 -1.7650721 1.7023962 0.7521505 -1.2991515
-2.3065228 0.9214208 -0.18989201 -1.0854777 -0.17778201 -0.005412474 -0.1593759 -0.0004812793
1.1367731 -0.97053146 0.5401591 0.7183071 -0.16432866 0.9898145 -2.4353867 -1.1058854
-0.68016165 -1.9084363 -1.0914536 0.9092459 0.83455014 -0.013495472 0.8213683 0.012196057
-0.3221617 0.6718647 -2.447245 -0.6600271 -0.16118442 -0.15175414 0.33448836 -0.643518
-1.515998 0.54473186 -0.14307643 1.1710759 0.6329469 -3.603697 -0.899535 -0.90396583
00000000: 20e9 eabf 96c7 f93f 7eb8 1ebf 69b3 1b40
00000010: f4ff a83f 8367 863f 0b67 b0bc 979e 58bf
00000020: 5ddb b6bf 11b9 0fbf 33eb 043f d937 eebe
00000030: 6da8 483f e8ab c8be 5d1e 00bf 222d f83c
00000040: 55b4 21be 4358 febd db98 bd3f d37e 673f
00000050: e2ed e1bf 1ee8 d93f ef8c 403f 994a a6bf
00000060: 129e 13c0 3ce2 6b3f 0d73 42be eff0 8abf
00000070: 7d0c 36be 1f5b b1bb 7033 23be 3754 fcb9
00000080: c881 913f c074 78bf de47 0a3f f9e2 373f
00000090: c645 28be 7c64 7d3f 60dd 1bc0 a78d 8dbf
000000a0: 131f 2ebf a447 f4bf c0b4 8bbf 57c4 683f
000000b0: 14a5 553f 1d1c 5dbc 3145 523f f8d1 473c
000000c0: 61f2 a4be 53ff 2b3f a99f 1cc0 89f7 28bf
000000d0: 870d 25be 7065 1bbe 0f42 ab3e 98bd 24bf
000000e0: 390c c2bf 8c73 0b3f a182 12be d1e5 953f
000000f0: cf08 223f f9a2 66c0 ed47 66bf 4e6a 67bf

adv.0.weight f4 [64, 128]
-0.19375494 0.063666716 0.15976769 0.5259894 0.00028551213 0.0031647629 -0.39336446 -0.39161456
0.20341973 0.055703755 0.60908055 -0.117341734 -0.36010104 -0.77860916 -0.24631052 -0.9869894
-0.035039157 -0.33345354 -0.06969281 -0.29913884 0.024213357 -0.07316572 -0.85271704 0.019841542
-0.5158881 0.0006546843 -0.08751975 -0.20016956 0.417938 -0.20708042 -0.009529602 -0.6689666
0.020990644 -0.94078624 -0.16132134 -0.57045513 -1.5341828 -0.755704 -1.388923 -0.25444236
-0.094495036 -0.09675029 -0.3792426 -0.051855974 -0.48590258 0.07624877 -0.113256544 -0.27435353
0.019774912 -0.9776047 -0.24238394 -0.5121266 0.068691194 -0.31718588 -0.15559639 0.17293657
0.37923357 0.71434295 -0.52546155 -0.05010633 -0.07033275 -0.06461741 -0.056409564 -0.98093754
-0.8646266 0.0026030838 0.014396429 0.053780604 -0.8527318 -0.07281376 -0.06703014 -0.061950102
-1.4031769 -0.18668677 -0.9273169 0.024523063 -0.020121654 -1.1268629 0.2593412 0.22646263
-0.16518609 -0.27140313 1.0558267 -0.03929097 0.056094058 -0.06691759 -0.4712631 -1.1066554
-0.7642789 -0.44301987 0.0013875852 -6.7279854 -0.22621226 -0.2921079 0.15407927 -0.20211516
-0.043689113 -0.5116277 -0.91712767 -0.86865604 0.84680456 1.1997846 -0.06969356 -0.82501626
-2.8543885 -0.06466237 0.2331646 0.02932744 -0.13875408 0.075785786 0.010118343 -0.05476494
-0.60507953 -0.07740745 -0.2630004 -0.10535592 -1.3459003 0.1156003 -0.063403875 -0.02512822
-0.35510293 -0.31558228 -0.0038850482 0.030230233 -0.22415267 -0.0071322992 -0.083327144 -0.5473908
-0.07826093 0.63276136 -0.33053583 -1.3124973 -0.033141617 -0.048738636 -0.12383583 -0.36598527
-0.05799673 -0.0945707 -0.46897274 -0.28627577 -0.12917483 -0.15315029 -0.24598616 -0.29975474
0.060223408 -0.8758895 -0.036624894 -0.62575686 -0.09635074 -0.086338505 0.8784806 -0.012335785
-0.03518167 0.07639725 0.018864194 -0.30844495 -0.37899947 -0.096421875 0.04208889 0.37059164
-0.032983333 -0.73590004 -0.7621792 0.018219719 -0.08857644 0.12612084 -0.9104175 -0.123820476
0.05721407 -0.10193237 -0.79608685 0.02295836 -0.11988717 -0.049350057 -0.12431794 -0.15917772
0.3910402 -0.010079901 0.8792015 -0.43146294 -0.016852116 0.29852843 0.07803879 0.23093806
-0.084671006 0.18947954 0.47360453 -0.08152432 0.04929509 -0.07220622 0.005157426 -0.2650632
0.08728452 -0.00033356994 0.061446514 0.011939563 -0.81218356 0.058894083 -0.057364937 0.01504296
-0.22348532 0.120293975 -0.18876636 0.0452931 -0.04789449 -0.3748554 0.37483913 0.3029186
-0.010216445 -0.1948539 0.8100253 -0.01747109 0.07683899 -0.030450065 -0.69885534 -0.30953535
0.07158739 -0.37633517 0.049619712 -0.1813467 -0.1273121 -0.45930982 0.41909823 -0.018793471
-0.057086598 -0.21418229 0.41661 -0.8449887 0.23520249 -0.30666456 0.020782536 -0.82915896
-1.1574566 -0.06190257 -0.34789476 -0.47458282 -0.721007 -0.025693148 -0.0017681867 0.056655325
-0.6110734 -0.08375803 -0.11783526 -0.117014624 0.30822766 0.19476096 -0.16757351 -0.071945705
0.022186482 -0.056146733 -0.05627524 -0.03284976 -0.06564156 0.080086194 0.0046791956 -0.059002362
00000000: b267 46be b263 823d 249a 233e 3ea7 063f
00000010: cab0 9539 e967 4f3b 1167 c9be b481 c8be
00000020: 434d 503e 9f29 643d b4ec 1b3f dd50 f0bd
00000030: 2a5f b8be ee52 47bf d338 7cbe 56ab 7cbf
00000040: 3885 0fbd 6cba aabe 1bbb 8ebd ba28 99be
00000050: 175b c63c e9d7 95bd aa4b 5abf bb8a a23c
00000060: 3e11 04bf 1f9f 2b3a 8e3d b3bd 40f9 4cbe
00000070: f8fb d53e e40c 54be 0c22 1cbc 6541 2bbf
00000080: 92f4 ab3c 5ed7 70bf 6c31 25be 5909 12bf
00000090: 1a60 c4bf d175 41bf 3bc8 b1bf 4546 82be
000000a0: 9d86 c1bd 0425 c6bd 162c c2be ee66 54bd
000000b0: 39c8 f8be 5128 9c3d 0cf3 e7bd 1178 8cbe
000000c0: fffe a13c 4d44 7abf 7f33 78be bb1a 03bf
000000d0: f8ad 8c3d 3066 a2be a954 1fbe 4916 313e
000000e0: e72a c23e 2edf 363f a684 06bf 4c3c 4dbd
000000f0: 9e0a 90bd 2256 84bd b70d 67bd b91e 7bbf
00000100: 2b58 5dbf 8098 2a3b 00df 6b3c 0d49 5c3d
00000110: a24c 5abf 611f 95bd 1947 89bd 64bf 7dbd
00000120: 4d9b b3bf d12a 3fbe a464 6dbf 97e4 c83c
00000130: 2bd6 a4bc 0b3d 90bf 5fc8 843e d2e5 673e
00000140: 8b26 29be 5af5 8abe 5425 873f 91ef 20bd
00000150: e2c2 653d 170c 89bd 6649 f1be e2a6 8dbf
00000160: c8a7 43bf 80d3 e2be a2df b53a a84b d7c0
00000170: 30a4 67be 2b8f 95be f5c6 1d3e 47f7 4ebe
00000180: 5bf3 32bd 08fa 02bf e1c8 6abf 3e60 5ebf
00000190: 2fc8 583f 8b92 993f 7fbb 8ebd 4434 53bf
000001a0: 4dae 36c0 b46d 84bd b3c2 6e3e 1940 f03c
000001b0: 8d15 0ebe 9435 9b3d 68c7 253c 3451 60bd
000001c0: 7ee6 1abf cc87 9ebd fda7 86be d8c4 d7bd
000001d0: 7646 acbf dabf ec3d e4d9 81bd b2d9 cdbc
000001e0: 0dd0 b5be 0094 a1be 4b9c 7ebb 65a5 f73c
000001f0: 4788 65be 10b6 e9bb 6ca7 aabd ce21 0cbf
00000200: 4447 a0bd a6fc 213f fe3b a9be e9ff a7bf
00000210: 81bf 07bd 2aa2 47bd a49d fdbd 6c62 bbbe
00000220: fb8d 6dbd 48ae c1bd 321d f0be bd92 92be
00000230: 6846 04be 6ed3 1cbe cce3 7bbe 7479 99be
00000240: d2ac 763d 4b3a 60bf fc03 16bd 9a31 20bf
00000250: 8953 c5bd 3ed2 b0bd 1be4 603f 081c 4abc
00000260: a81a 10bd 2976 9c3d 1589 9a3c 7fec 9dbe
00000270: 380c c2be d578 c5bd 6665 2c3d 30be bd3e
00000280: 8819 07bd f263 3cbf 2d1e 43bf 8541 953c
00000290: 9167 b5bd d225 013e 1f11 69bf 9795 fdbd
000002a0: 4d59 6a3d ebc1 d0bd 59cc 4bbf 2c13 bc3c
000002b0: 6887 f5bd 4923 4abd 679a febd 7cff 22be
000002c0: 6c36 c83e 2b26 25bc 5913 613f b6e8 dcbe
000002d0: 730d 8abc b8d8 983e cdd2 9f3d 077b 6c3e
000002e0: fe67 adbd ed06 423e 4b7c f23e 39f6 a6bd
000002f0: a6e9 493d dbe0 93bd a0ff a83b 5db6 87be
00000300: 3ac2 b23d 00e3 aeb9 57af 7b3d 289e 433c
00000310: 43eb 4fbf ec3a 713d 7ff7 6abd bf76 763c
00000320: 56d9 64be b05c f63d f84b 41be 4285 393d
00000330: 032d 44bd 0ced bfbe eaea bf3e 2618 9b3e
00000340: e062 27bc c887 47be d15d 4f3f 881f 8fbc
00000350: c35d 9d3d 6a72 f9bc 2fe8 32bf 6b7b 9ebe
00000360: 699c 923d 01af c0be 0a3e 4b3d f3b2 39be
00000370: 1a5e 02be a82a ebbe 0b94 d63e c4f4 99bc
00000380: a3d3 69bd 9a52 5bbe e84d d53e 2e51 58bf
00000390: ecd8 703e 2303 9dbe 2340 aa3c c343 54bf
000003a0: 8a27 94bf 8d8d 7dbd 431f b2be 85fc f2be
000003b0: ea93 38bf 707a d2bc 80c2 e7ba 6a0f 683d
000003c0: 4e6f 1cbf 5489 abbd 9d53 f1bd 5da5 efbd
000003d0: 04d0 9d3e 6b6f 473e 6498 2bbe 4558 93bd
000003e0: 6dc0 b53c 1efa 65bd de80 66bd 788d 06bd
000003f0: 156f 86bd 3b04 a43d f053 993b 76ac 71bd

adv.0.bias f4 [64]
-1.8608422 -2.1335359 -0.37826046 -0.7164901 -1.263435 -0.62771535 -1.735864 -1.8393899
-0.41339123 -1.2174541 -0.20606816 -1.4964956 -0.3945194 -0.06743303 -1.2111932 -0.9682132
-0.18350078 -2.2534144 0.044447813 -1.3113984 -0.4240921 -0.7047102 -1.0800039 -0.8670472
0.22925888 -0.65671587 -0.27021787 -0.23786399 -0.50984734 -1.1110849 -2.615565 -0.47466892
0.2611512 -0.026190953 -0.2915777 -1.8756361 -1.4222349 -1.0642612 0.02028929 0.060435314
-1.2011198 -0.12205023 -1.4580362 -0.15581626 -0.50450903 0.13195579 -1.4332184 -1.5136915
-1.9915802 -0.06774656 0.19021797 -0.16608283 -0.43043748 -1.1445025 -0.14927986 -0.31083965
-0.83630735 -2.5859334 -0.09938919 -0.22696793 -0.10133798 -0.8328014 -0.16885899 -0.5041217
00000000: 1430 eebf da8b 08c0 5bab c1be e56b 37bf
00000010: 3db8 a1bf f4b1 20bf cb30 debf 2171 ebbf
00000020: 04a8 d3be 89d5 9bbf 8803 53be 2b8d bfbf
00000030: 72fe c9be 541a 8abd 6108 9bbf d2dc 77bf
00000040: a1e7 3bbe f137 10c0 e90e 363d e7db a7bf
00000050: 9a22 d9be e367 34bf 913d 8abf cef6 5dbf
00000060: d7c2 6a3e 881e 28bf ff59 8abe 9e92 73be
00000070: 5b85 02bf 0838 8ebf 6b65 27c0 ce07 f3be
00000080: 9cb5 853e 698e d6bc ac49 95be d814 f0bf
00000090: cb0b b6bf b639 88bf ba35 a63c 058b 773d
000000a0: 4bbe 99bf 79f5 f9bd eea0 babf 4c8e 1fbe
000000b0: 8127 01bf 6b1f 073e b373 b7bf a5c0 c1bf
000000c0: 1aec febf b5be 8abd 80c8 423e 9e11 2abe
000000d0: 4d62 dcbe 0f7f 92bf d2dc 18be 6026 9fbe
000000e0: 3d18 56bf ef7f 25c0 8f8c cbbd 486a 68be
000000f0: 498a cfbd 7932 55bf 5fe9 2cbe 1f0e 01bf

adv.2.weight f4 [2, 64]
-5.3048697 1.5567847 -2.4065955 -0.5317687 -0.33706206 -0.59705824 1.6299956 -2.308581
1.2439895 1.2481966 -0.0761999 -1.9183986 0.9374432 0.26103842 -1.30291 -1.6111463
-0.7208493 -1.0882542 -1.3600035 0.8944195 -1.1909506 0.6112721 1.8425915 -1.1419717
0.9156254 -0.2830825 -1.4907521 0.338554 0.72618765 -1.0258116 -1.6413302 0.842323
-1.2143389 -0.6869627 -0.43008906 1.1047094 -2.5116942 2.160698 0.9000047 1.147999
1.344673 -0.45785144 -1.8335361 0.06564573 -0.82618797 1.018191 -0.967729 1.998656
-3.5531678 2.221937 0.6697321 0.02222347 -1.0676961 1.4133973 -0.57938313 -0.12247826
0.8328598 1.9729674 -0.9011437 0.021003053 -0.6838017 1.0337087 -0.0073652137 -0.9471744
5.2393637 -1.5408357 2.470247 0.45774463 0.40416616 0.64616936 -1.6290698 2.385566
-1.0575993 -1.2184551 -0.0672896 1.8038673 -0.89648885 -0.16911374 1.177698 1.4989036
0.64384365 1.157876 1.2285275 -0.9681614 1.0165424 -0.70213354 -1.8716407 1.1125778
-0.87082666 0.2450807 1.2774369 -0.413269 -0.66721493 1.0136989 1.4971633 -1.0004901
1.1895617 0.7611562 0.34438118 -1.0294766 2.410876 -2.268795 -1.0024881 -1.0842259
-1.3265494 0.4558535 1.8074555 0.020805774 0.69838816 -0.9863857 1.0465959 -1.9909952
3.5829363 -2.0975163 -0.71108603 0.005290032 1.0905958 -1.5422683 0.5403253 0.11107879
-0.8998143 -1.9933372 0.8812198 0.012325124 0.57500464 -0.9662572 0.008756703 1.0193552
00000000: 7ec1 a9c0 b944 c73f a905 1ac0 fe21 08bf
00000010: 6693 acbe cfd8 18bf b2a3 d03f cbbf 13c0
00000020: 0c3b 9f3f e8c4 9f3f b10e 9cbd 168e f5bf
00000030: 47fc 6f3f d4a6 853e c1c5 a6bf 0b3a cebf
00000040: 9489 38bf ea4b 8bbf 9814 aebf adf8 643f
00000050: 1271 98bf 547c 1c3f 0ada eb3f 212c 92bf
00000060: 6d66 6a3f 30f0 90be f7d0 bebf f356 ad3e
00000070: 6fe7 393f cb4d 83bf 1c17 d2bf 7ba2 573f
00000080: 756f 9bbf cadc 2fbf a234 dcbe 1e67 8d3f
00000090: 99bf 20c0 e048 0a40 b566 663f a2f1 923f
000000a0: 3f1e ac3f 816b eabe 50b1 eabf 4571 863d
000000b0: 0e81 53bf 1554 823f 16bd 77bf f6d3 ff3f
000000c0: 1a67 63c0 3734 0e40 9073 2b3f ff0d b63c
000000d0: 44aa 88bf 34ea b43f 7452 14bf e2d5 fabd
000000e0: 4d36 553f 328a fc3f 5bb1 66bf 980e ac3c
000000f0: a10d 2fbf 9150 843f e457 f1bb 057a 72bf
00000100: dea8 a740 1b3a c5bf 8718 1e40 815d ea3e
00000110: deee ce3e 5b6b 253f 5c85 d0bf 1dad 1840
00000120: 6a5f 87bf 56f6 9bbf 21cf 89bd 20e5 e63f
00000130: 4b80 65bf 272c 2dbe cfbe 963f 13dc bf3f
00000140: f0d2 243f 4835 943f 6440 9d3f 6dd9 77bf
00000150: 101e 823f 06bf 33bf ec91 efbf f368 8e3f
00000160: 7fee 5ebf 6ff6 7a3e 0d83 a33f ff97 d3be
00000170: 99ce 2abf e3c0 813f 0ca3 bf3f 0f10 80bf
00000180: 8f43 983f 22db 423f bb52 b03e e4c5 83bf
00000190: cb4b 1a40 f033 11c0 8851 80bf eac7 8abf
000001a0: 5fcc a9bf a165 e93e b45a e73f df70 aa3c
000001b0: 91c9 323f c683 7cbf dbf6 853f eed8 febf
000001c0: d44e 6540 b53d 06c0 bc09 36bf 0158 ad3b
000001d0: a598 8b3f 0c69 c5bf c252 0a3f 477d e33d
000001e0: 3b5a 66bf ac25 ffbf 9f97 613f 51ef 493c
000001f0: 8133 133f a25c 77bf 4678 0f3c 3b7a 823f

adv.2.bias f4 [2]
-0.23534478 0.086578615
00000000: 39fe 70be 2150 b13d
