curriculum_run_600/checkpoints/ep_0150.pt (torch, 145855 bytes, 11 tensors)

feature.0.weight f4 [128, 16]
000000 64 0f 33 3f 64 62 6e bf 6c 76 2f bf d0 b9 53 bf
       0.6994536 -0.9311888 -0.6854007 -0.827054
000010 11 27 2a c0 4d bd 5e 3f 71 64 ab 3f 6d 8d 73 3f
       -2.6586344 0.870076 1.3390027 0.95137674
000020 ea 8c e7 3e 06 11 c7 3e e1 da 3c be 2f 68 ad be
       0.45224696 0.38880175 -0.1844287 -0.33868548
000030 d9 5c 04 bd c2 43 a0 3e 04 eb 14 40 b6 91 a6 bf
       -0.03231511 0.31301695 2.3268442 -1.3013217
000040 51 49 86 3e 74 fb bd bd fe ca e6 be 30 e6 7c be
       0.2622781 -0.092764765 -0.45076746 -0.24697185
000050 03 e2 ac 3e 88 3f 6c 3e 97 d5 22 3f ee d4 fb 3e
       0.33766183 0.2307111 0.6360716 0.4918589
000060 78 03 5a bf 57 90 fb be c9 40 6c be eb 07 1a bf
       -0.8516154 -0.4913356 -0.23071589 -0.6016833
000070 b5 87 b5 be 8a 24 ca be 52 0a 74 3e d8 51 03 bf
       -0.354551 -0.39481002 0.23832062 -0.5129676
000080 d5 3b ed be 27 35 a8 3e f7 e7 86 3e 1e 0c d3 3d
       -0.4633471 0.32853052 0.2634885 0.103050455
000090 0c ac 61 be fa b4 0e 3e 84 94 69 3e d6 53 bd 3e
       -0.22038287 0.13936225 0.2281056 0.36978024
0000a0 35 c8 0b 3e a5 61 15 3e e6 cd 6b 3f cd 95 57 3f
       0.13650592 0.1458803 0.9211105 0.8421295
0000b0 41 6f 31 3e 76 d6 e5 be 9c eb e0 be 85 21 11 bf
       0.17327596 -0.44890183 -0.43929756 -0.5669177
0000c0 f5 2b aa 3e d0 d2 7c 3e 17 ae b5 3e 97 63 14 3f
       0.33236662 0.24689794 0.35484383 0.5796446
0000d0 c0 43 db 3f f5 0e 26 bf a5 87 6f be 63 43 80 be
       1.7130051 -0.6486657 -0.23391588 -0.25051412
0000e0 3d e8 3e 3f cb e0 53 3f e3 b9 e3 3e a3 3b 6b 3e
       0.7457312 0.8276488 0.44477758 0.22971968
0000f0 0b 6e f5 3e 8f ae 33 bf 7e a3 02 bd da 83 2c bf
       0.4793552 -0.7018823 -0.0318942 -0.6738869
000100 37 1c ec 3e a2 9f fa bd c2 96 de bd ab 6b 34 3e
       0.46115276 -0.12237479 -0.108685985 0.17619197
000110 53 68 b4 3f 92 92 3f bd b4 da 3d be 03 51 10 3e
       1.4094337 -0.04677064 -0.1854046 0.14093404
000120 eb 55 1b 3f 15 d2 da 3e 17 95 2c bd 57 63 26 bd
       0.60677975 0.42738405 -0.04213437 -0.04062208
000130 fd 8d dc 3d bd 07 bb c0 2e 8c 05 3f e3 51 ed 3c
       0.107692696 -5.8446946 0.5216702 0.02896971
000140 1d 13 3e 3f 56 e1 1a 3f 7a df b1 3e 84 de f2 3e
       0.74247915 0.60500085 0.34740812 0.4743539
000150 52 1d 15 c0 2d 5a 4a 3f f5 5c 69 3f 90 ac 85 3f
       -2.3299146 0.7904385 0.91157466 1.0443287
000160 ff 9a 1a bf 55 08 03 bf e2 79 1a 3d aa 7e 1a 3e
       -0.60392755 -0.5118459 0.037713893 0.15087381
000170 30 fe e0 3e bf ef b0 3e d1 35 a9 3f d7 bf ea be
       0.4394393 0.34557912 1.3219548 -0.45849487
000180 aa 14 f1 3e 1f 40 b5 be 83 1e 66 be 54 c3 0b be
       0.47086078 -0.35400483 -0.22472577 -0.1364873
000190 c3 22 9e be e1 85 fb bc 18 73 0d 3e 0a f2 17 3e
       -0.30885896 -0.030703487 0.13813436 0.14838424
0001a0 38 b7 3a 3e 70 a6 43 3e 11 11 a7 3e 75 8d fb 3d
       0.18233955 0.1910646 0.32630208 0.1228284
0001b0 85 00 40 3e 48 d0 0f bf 78 83 00 3e ff 72 25 bf
       0.18750198 -0.56177187 0.12550151 -0.64628595
0001c0 e6 a2 b2 3e 87 df 9d bd 67 10 e3 3b 80 bc 9b bb
       0.34889907 -0.0770865 0.0069294455 -0.0047526956
0001d0 11 e4 e6 bf 4e 8f 51 bf 30 d2 5a bf 2c d4 56 bf
       -1.803835 -0.8185929 -0.8547697 -0.839175
0001e0 33 84 85 3e 96 2f 0f 3f 4b c0 34 bf 03 77 63 bf
       0.26077422 0.55931985 -0.70605916 -0.8885347
0001f0 54 f5 9e bf d1 41 5e bf ec 0b f0 bf f4 ff 6f 3e
       -1.2418618 -0.8681918 -1.8753638 0.23437482
000200 86 36 27 c0 02 bc 9b be a6 e4 82 be 30 50 d7 be
       -2.6127028 -0.30416876 -0.2556507 -0.42053366
000210 80 76 f9 3f 79 da 35 c0 0b 37 4a c0 53 01 46 c0
       1.9489288 -2.8414595 -3.1596096 -3.0938308
000220 09 3d 69 3f c5 f8 6f 3f ca 74 7a 3e 38 08 9e 3e
       0.9110876 0.9373897 0.24458614 0.30865645
000230 f1 54 a0 be 71 9d ee 3e 54 c0 06 3f 80 77 91 3d
       -0.31314805 0.46604493 0.5263722 0.07102871
000240 ea a8 f3 bf 1f b6 8e 3f 0c e1 71 3f 09 2b 85 3f
       -1.9035923 1.1149329 0.9448402 1.0403758
000250 5f 51 e6 3f 6b ed f4 be 7d b8 eb be f3 99 e3 be
       1.7993582 -0.47837386 -0.4603919 -0.4445339
000260 c1 c7 11 3f 34 14 c6 3e 0c 27 d2 be c9 7d 33 bf
       0.56945425 0.3868729 -0.41045415 -0.7011381
000270 36 1c 42 3f fd 37 b7 be 0f 25 8a bd a9 2b 46 be
       0.75824296 -0.35784903 -0.067453496 -0.19352593
000280 8e c2 60 3f d9 1c 7d bf 5b ed 6a bf 67 ee 9f bf
       0.87796867 -0.98872143 -0.91768426 -1.249463
000290 dd 1d d4 bc aa 20 04 bf a6 5d eb be 3d 77 ba be
       -0.025893146 -0.5161234 -0.45969886 -0.36419097
0002a0 db 74 e5 3e 51 a6 c1 3e e2 3b e1 be 60 34 05 bf
       0.44815716 0.37822202 -0.43991 -0.5203304
0002b0 fe 08 56 be d4 02 af bf 2d 58 a7 bf cf 7e ca 3d
       -0.20901868 -1.3672738 -1.3073784 0.09887468
0002c0 bd 3b 91 be 11 07 d3 bc 31 ae 00 be 96 6f 0c bd
       -0.2836589 -0.025760205 -0.12566449 -0.034286104
0002d0 2d f6 d5 3f 66 ed 64 3e 4a 37 fd 3d f8 a5 54 bd
       1.6715752 0.22356185 0.12364061 -0.051916093
0002e0 44 b9 35 bf da 88 60 bf 03 3a 3b be 2b 6b 37 be
       -0.7098582 -0.8770882 -0.18283848 -0.17911975
0002f0 bd c0 80 3e c1 06 29 c0 03 6d 45 3f c2 f6 06 bd
       0.25147048 -2.6410372 0.77119464 -0.03295017
000300 39 e9 8d 3e b7 41 c6 3e 19 f2 85 3e 47 7d e6 3e
       0.27716997 0.3872201 0.26161268 0.45017454
000310 fb 62 32 c0 1c dc 10 bb b1 ae 56 be 43 4d 47 be
       -2.7872913 -0.0022103852 -0.20965077 -0.19463067
000320 85 94 66 3f 69 9c 5f 3f fc 71 60 3f 92 d4 2c 3f
       0.9007037 0.8734804 0.87673926 0.67511857
000330 cc e6 25 3f 38 48 85 be ae 9c 4b 3f e1 ef 55 bf
       0.64805293 -0.2603166 0.7953595 -0.8356915
000340 9b 28 67 bf bc 29 96 3f 9c 99 74 3f 9f b0 33 3f
       -0.90296334 1.1731486 0.9554689 0.7019138
000350 ec a8 bd 3f c3 74 98 be f2 b7 8e bd bf 80 81 be
       1.4817176 -0.29776582 -0.069686785 -0.25293538
000360 f7 ce ef 3d 69 96 9b 3e 83 c1 33 3f af 74 6b 3f
       0.11709397 0.3038819 0.7021715 0.9197492
000370 f6 ec 33 3f d2 49 12 bf f1 fa 1d bf 85 3e fd 3d
       0.7028345 -0.5714389 -0.6171103 0.1236544
000380 6c 53 4e bf a6 ad 48 3f 2a a3 0e 3f 2c 2f 11 3f
       -0.8059604 0.78389966 0.5571772 0.56712604
000390 90 37 b3 bf 66 b8 9d be e1 52 1b bf 3f 86 e8 be
       -1.4001331 -0.30804747 -0.6067334 -0.45414922
0003a0 50 6d 2e bf fc c3 45 bf ba 0c 2a 3f 98 07 4d 3f
       -0.6813555 -0.77252173 0.6642567 0.8008971
0003b0 d6 85 e4 3e 02 d0 dc be 53 22 a2 3e de 14 28 be
       0.4463336 -0.43127447 0.31666812 -0.1641421
0003c0 9b 2a e9 3f 70 37 65 be af a1 dd bd db 3c 8f bd
       1.8216127 -0.22384429 -0.10821854 -0.06994029
0003d0 3c 1e 28 c0 f8 75 04 3f ac 34 36 3f b8 cb 09 3f
       -2.6268454 0.51742506 0.7117412 0.53826475
0003e0 d0 a4 75 3f a3 90 91 3f 43 1d a2 bf 28 f7 8d bf
       0.9595461 1.1372265 -1.266518 -1.1091051
0003f0 7f 23 33 3f b5 1e 46 be ce 1a 03 3e 09 ea 01 be
       0.6997604 -0.19347651 0.12803194 -0.12686934

feature.0.bias f4 [128]
000000 69 69 16 bf 08 89 83 be b6 4d b4 be 3c 64 0d 3f
       -0.58754593 -0.25690484 -0.3521554 0.5523107
000010 eb 60 c1 3f 1e 60 61 3f 7b 14 09 bf a2 72 8b 3f
       1.5107702 0.8803729 -0.53546876 1.0894358
000020 d7 dc 8c 3f 6b ae 62 be 04 7d dd be 07 46 b4 3f
       1.1004895 -0.22136848 -0.43259442 1.4083871
000030 28 9a f9 3e af d9 62 3e 3d af 24 3f 1f 97 15 c0
       0.48750424 0.22153352 0.6432989 -2.3373487
000040 66 7f a5 bf 0b c8 15 40 3b 04 ea 3f ed 59 90 3e
       -1.2929504 2.3403347 1.8282541 0.28193608
000050 6c 2c 4c 3f 3b 2a 09 40 dd 82 b6 3f 48 9c a6 be
       0.7975528 2.1432025 1.4258686 -0.32541108
000060 b8 42 b4 be 96 3a 72 3f a0 6d 74 bd 0a 4f a4 bf
       -0.35207152 0.94620645 -0.05967486 -1.2836621
000070 4e 23 40 3f ae 42 c4 be 7a 9e 81 3f 67 74 27 bf
       0.7505387 -0.38332123 1.0126488 -0.6541199
000080 6f 96 c4 be 65 a9 26 c0 86 0d 85 bf 57 75 60 bd
       -0.38396022 -2.604089 -1.0394752 -0.054799404
000090 6f 7e 01 3f bc 56 c7 3f 7f 4b 17 3f ae a2 e3 bd
       0.5058355 1.5573344 0.5909957 -0.11115013
0000a0 5a 8e 73 bf 85 40 e9 3f b7 eb f0 be b3 06 bd 3f
       -0.95139086 1.8222815 -0.47054836 1.476767
0000b0 c7 49 1e be ff e6 5b bf 21 45 20 c0 d3 dc 74 3f
       -0.15457831 -0.8589935 -2.5042193 0.9564945
0000c0 63 f2 86 3f ab 4e 24 c0 6c 13 fe 3e 7a 31 19 bf
       1.054272 -2.5673015 0.49624193 -0.5984112
0000d0 fd 99 21 bf a3 a5 b2 be e8 d6 5b 3f ec 8c 79 3f
       -0.6312559 -0.34891996 0.85874796 0.97480655
0000e0 9e a1 dc bd 58 02 e3 be 68 10 4b 3e 64 88 f8 be
       -0.107730135 -0.44337726 0.19830477 -0.48541558
0000f0 7e ff 70 bf 60 4e 33 bc 03 68 04 3f 40 24 97 3f
       -0.9413985 -0.010943979 0.5172121 1.1807938
000100 76 e8 fc bf d3 7a 0f c0 1d 81 9a bf 22 88 dd bb
       -1.9758441 -2.2418716 -1.2070652 -0.006760613
000110 c9 1e bd 3e 4c 27 9d 3f 58 d1 e9 bd d9 e9 88 3f
       0.3693755 1.2277617 -0.11416882 1.0696365
000120 e6 70 dd be 78 3a 46 bf d9 5c d3 bf f3 b3 fa bf
       -0.43250197 -0.77432966 -1.651271 -1.9586166
000130 06 40 80 3f 7e 3d d6 bf a9 9e 0c c0 2e f2 36 3f
       1.0019538 -1.6737516 -2.1971838 0.71463287
000140 44 30 72 be b1 23 e1 bf 6c 5f 2d 3e 55 a6 12 3e
       -0.23651224 -1.7589017 0.16930932 0.14321263
000150 f0 ff e9 be b2 45 3b bf 90 d1 65 3e c2 2f 11 bf
       -0.45703077 -0.7315322 0.22443223 -0.567135
000160 8d 55 a8 3e 57 9e a4 bf 9b fe 5e be d9 f7 60 bf
       0.3287777 -1.2860821 -0.21776812 -0.87878186
000170 78 a3 54 bf b4 80 39 bf d8 f4 30 bf 19 35 0b 40
       -0.83061934 -0.7246201 -0.691236 2.1751158
000180 7a e7 8a be 95 fd 7d bf ab 5a 96 bd af 62 69 be
       -0.27129728 -0.9921506 -0.07341512 -0.22791551
000190 91 b1 80 3f cc 9c 1f bf 34 89 64 c0 9e f8 2a bf
       1.0054189 -0.6234863 -3.5708742 -0.6678561
0001a0 56 be 92 bf 20 29 34 bf 57 54 c6 3e 4f f4 09 3f
       -1.1464336 -0.7037525 0.3873622 0.5388841
0001b0 9d 47 d4 ba 67 70 94 bd 12 17 d7 3e e3 7f c2 bf
       -0.0016195659 -0.072480015 0.4200979 -1.5195278
0001c0 81 3b aa bf 38 9e 4a 3f 9f 28 db 3e b9 22 0a 40
       -1.3299409 0.7914767 0.4280443 2.1583693
0001d0 d3 90 66 3e e4 88 8a 3f b0 65 15 bd 59 d3 a8 3f
       0.22516184 1.0823026 -0.03647393 1.3189498
0001e0 de d6 0b c0 02 84 9c 3f c0 da 80 bf cd 67 b1 bd
       -2.1849895 1.2227786 -1.0066757 -0.086623766
0001f0 6a 5e 88 3f 9b 13 0d bf c4 68 44 3f f5 a6 9f bf
       1.0653813 -0.5510804 0.7672236 -1.2472826

feature.2.weight f4 [128, 128]
000000 72 40 bf bd 16 08 3d bf 2d 49 b0 bd 8f f4 55 3d
       -0.09338464 -0.73840463 -0.08607707 0.052235182
000010 5c 1b a4 be 0f ae db 3d 9d 3d 50 bd ce 4f 86 bf
       -0.32052124 0.107265584 -0.05084001 -1.0493104
000020 f5 ef 6b 3c 2e 93 82 be 8f a7 09 be d9 9c 88 be
       0.014400472 -0.25502914 -0.13442825 -0.26682165
000030 26 79 07 3e 65 3b 85 bd a1 3b 0b 3c 77 c8 86 3c
       0.13229808 -0.06505469 0.008498103 0.016453011
000040 c6 36 a1 3d 96 c6 91 bd e3 76 28 3f 6b d3 64 be
       0.07871775 -0.071179554 0.65806407 -0.22346275
000050 b2 09 5e 3f 11 32 6c be 95 72 a5 bf ac 5e 70 3b
       0.86733544 -0.23065974 -1.2925593 0.0036677523
000060 0e f9 b2 be 9a 4d d3 bc 68 5a 58 3c c7 6a cc 3c
       -0.3495564 -0.02579384 0.013205148 0.02495326
000070 6c bd 01 3d 26 63 a8 bc da b2 15 bf f0 c6 91 3e
       0.031674787 -0.02055509 -0.5847603 0.2847209
000080 24 7c e1 3d f5 af 06 bf 55 4c 60 be 55 49 36 bd
       0.11010006 -0.5261224 -0.21904118 -0.04450353
000090 88 32 ad bd a7 6b a3 be c5 26 87 3d 2a 07 70 3d
       -0.08456904 -0.3191807 0.065991916 0.058600582
0000a0 cd bd fd bd ce 9c 35 be 62 2d 8a be 65 6a c3 bd
       -0.12389717 -0.17735597 -0.2698775 -0.095417775
0000b0 18 bf 2b bd 94 38 89 bd 5b 42 45 3d 07 86 2d be
       -0.041930288 -0.067002445 0.048158985 -0.16945659
0000c0 4a c1 78 be 35 68 c2 bb 9b 4f cc 3d 1e 96 c8 be
       -0.24292484 -0.0059328326 0.09976121 -0.3917703
0000d0 f4 b5 69 3d 4b 1e 18 3d af fb 05 be c0 5b 9d bd
       0.05705829 0.037138265 -0.13084291 -0.076835155
0000e0 5f a3 54 be 2c d0 1d bf 6f 14 0e 3e cc 4e 51 be
       -0.20765446 -0.6164577 0.13874982 -0.20440215
0000f0 02 14 07 3e 95 e4 46 bd e6 96 51 be ae 50 0b 3e
       0.13191226 -0.048557837 -0.2046772 0.13604996
000100 3c 82 37 be b5 40 aa be ea c0 e8 bd 3d 1a 38 3c
       -0.17920774 -0.33252493 -0.113649204 0.011236724
000110 c2 3d 8e be 98 a8 73 be 61 7d 80 be cd f5 53 bf
       -0.27781492 -0.23794782 -0.25095657 -0.8279694
000120 5c 23 cd 3d 6e a8 52 be ed 4f d9 3d f7 b7 03 bf
       0.1001651 -0.20572063 0.10610948 -0.51452583
000130 70 9e 2f bf 1a 3c 90 be 0f a3 b4 bd 2c 45 d6 3e
       -0.6860113 -0.28170854 -0.088201635 0.4184965
000140 0b 69 9e be 4e c7 34 be 3a f1 ce 3d db cb 13 3d
       -0.30939516 -0.17654154 0.10104604 0.036083084
000150 99 08 f2 3e 2d 57 cc be e1 04 85 bf 0c 10 33 bf
       0.47272184 -0.3991026 -1.0392114 -0.6994636
000160 2f 97 20 bb 9a 87 9a 3e 5b 2a 17 3e 80 c6 12 be
       -0.0024504175 0.3018158 0.14762251 -0.14333534
000170 7d a5 60 bf b7 67 a1 bd a7 0f 38 be e5 28 0a 3f
       -0.87752515 -0.0788111 -0.17974721 0.5396865
000180 eb 15 11 be 15 98 66 3e b8 c5 50 be bf c3 9e be
       -0.14168517 0.22518952 -0.20387924 -0.31008717
000190 5a e6 17 be b2 c3 27 3e c4 7e a0 3c 81 7f 1c be
       -0.14833966 0.16383246 0.019591697 -0.15283014
0001a0 77 08 17 bf 57 9d 07 be 9c bf 11 bf ed c0 31 3b
       -0.5899729 -0.13243614 -0.56933 0.002712305
0001b0 d0 b0 7d 3e fe df 93 3d e8 5b 49 3d ca b5 43 bf
       0.2477448 0.072204575 0.049159914 -0.76449263
0001c0 db d3 9b ba 2e eb 83 be 9b 92 85 bf 07 74 99 3c
       -0.0011888699 -0.25765365 -1.0435365 0.018732084
0001d0 4f c3 1b bf 7a 4c 6d be 3c 0a b4 bd 9b 88 39 3c
       -0.6084489 -0.23173705 -0.087910146 0.011324073
0001e0 95 58 89 be bd 6d f2 bf c6 a6 cd be 68 1b 4c 3e
       -0.26825395 -1.893974 -0.401663 0.1993233
0001f0 6b a0 37 3f 99 14 83 bd c0 67 09 3f a8 0c 30 bd
       0.71729153 -0.06400413 0.53673935 -0.04298082
000200 f5 2f 75 be 12 b3 0e 3d 46 90 26 3e 0a 7c d3 3e
       -0.23944075 0.034838744 0.16265973 0.41305572
000210 38 99 4a 3c 8d d8 39 be ec d8 fa bd 9d 97 63 3e
       0.012365632 -0.18149014 -0.12248406 0.22225805
000220 30 df 29 bf 2f 8a a2 bd df ca db be 72 df 3d 3e
       -0.6635618 -0.07936513 -0.42928216 0.18542269
000230 e4 a5 fd bd d4 39 58 3e 1b f9 82 3d 1f 6d 23 3d
       -0.12385157 0.2111581 0.06395169 0.039898988
000240 80 8a 96 ba 42 d3 2b be af c4 76 be 37 f9 00 3f
       -0.0011485368 -0.16779807 -0.24098466 0.5038027
000250 32 91 15 be 31 88 81 be 03 13 77 be 6d ab 38 be
       -0.14606169 -0.25299218 -0.24128346 -0.18034144
000260 72 89 98 be 68 46 f1 bd 56 c2 33 3d 4b b4 47 be
       -0.29792362 -0.11781007 0.043886505 -0.1950237
000270 db a3 4a be 35 56 13 bf 07 38 ad bd a6 29 94 bd
       -0.19789068 -0.57553416 -0.08457952 -0.07234506
000280 bd 1d 9d be cf e8 a0 be d8 a7 35 be 7b 80 62 3c
       -0.3068675 -0.3142762 -0.17739809 0.013824577
000290 29 f5 99 3e 6c df 99 3d 75 23 d1 be 40 d3 42 be
       0.30069855 0.075133175 -0.40847364 -0.19025898
0002a0 fa b4 1e be d5 9c 30 bf bb 19 ff bd 94 84 38 be
       -0.15498725 -0.68989307 -0.124560796 -0.18019325
0002b0 1a df 98 3d 65 e9 af bf a7 14 27 3e 51 07 90 be
       0.07464428 -1.3743101 0.16316472 -0.28130582
0002c0 ac e8 7e bd 44 b5 15 3d 18 0d 41 3e f3 2b b4 be
       -0.062233612 0.03654982 0.18852651 -0.3518978
0002d0 d7 5b 19 bd 25 53 a9 3c 85 0d 4f bd 45 17 99 bd
       -0.0374411 0.02066953 -0.050550003 -0.074751414
0002e0 fd 38 18 bd 4e 95 08 3d 72 27 50 3e 01 f3 ca bd
       -0.037163723 0.033345513 0.20327547 -0.099096306
0002f0 cc 2f c1 bd 90 26 0d bc 71 0d a2 bd 10 91 a4 bc
       -0.09432945 -0.008615151 -0.0791272 -0.020088702
000300 a4 98 fb 3d e4 56 cf 3e 0b 58 62 bd f8 3c 9e bd
       0.12284973 0.4049598 -0.055259746 -0.077264726
000310 67 c9 f1 3e 60 58 aa bc 10 ba a9 be d9 71 58 3d
       0.4722397 -0.020794094 -0.33149767 0.05284295
000320 82 12 0e bf 87 8e 2f bd 5b 24 bd bc ab ca 3d 3f
       -0.5549699 -0.042860534 -0.023088625 0.7413737
000330 55 63 cf 3c af 5a e6 bc 49 b8 bd 3d f7 0d b1 bd
       0.02531592 -0.028119413 0.09263665 -0.08645242
000340 ab 31 5b 3e ae 45 7d bf 2a cc 0e bf e9 6e 8c bc
       0.21405666 -0.9893445 -0.5578028 -0.01714273
000350 30 b3 a8 3e 7a b5 47 bf 7f e3 c2 be cc a8 7e bd
       0.3294921 -0.78011286 -0.3806419 -0.062172696
000360 2e d0 1e bd 0d b9 05 bd 37 b3 b5 3d 76 d6 04 bd
       -0.038772754 -0.03264718 0.08872073 -0.03243109
000370 60 1a 46 3f b3 04 32 be 4d 2c 86 3c 28 cb 3d be
       0.77383995 -0.17384605 0.016378546 -0.18534529
000380 dc a8 db be 89 59 02 bf 7f c1 d6 bd ff 83 06 bf
       -0.42902267 -0.5091787 -0.10486125 -0.5254516
000390 59 7b 31 be 64 68 58 bf d5 bf c4 3d 76 a8 ea 3d
       -0.1733221 -0.8453429 0.096069016 0.114579126
0003a0 81 db ea bc 54 0f 84 be 0b a0 89 bd 31 65 d4 be
       -0.02866912 -0.25792944 -0.06719979 -0.41483453
0003b0 36 e6 fa 3d bb 58 9d 3d 41 1d 4e be e9 f0 0d bd
       0.122509405 0.076829396 -0.20128347 -0.034653578
0003c0 1b 46 75 be f0 79 18 be 7a dc 3d be 5e 51 58 be
       -0.23952524 -0.14890265 -0.18541136 -0.21124789
0003d0 71 75 07 3e 7c e3 99 3d 30 4a a4 bb b1 c7 1e bf
       0.13228394 0.07514092 -0.0050137267 -0.62023455
0003e0 04 83 7a be c3 83 1a 3e 1a 2c 8b bd 57 d7 37 bf
       -0.24464041 0.15089326 -0.06795521 -0.7181296
0003f0 1f 4b 5c be 4a 59 63 bf 2a a5 57 be fe 61 03 bf
       -0.21513031 -0.8880812 -0.21059099 -0.513214

feature.2.bias f4 [128]
000000 26 f7 1c be 28 d2 02 be f9 7b 5f 3f 44 f5 c2 3f
       -0.15328655 -0.12775481 0.8729854 1.5231099
000010 68 17 88 bb 2c 54 40 bd 4e c5 c4 bc 7f 1f 09 3f
       -0.004153181 -0.046955273 -0.024019863 0.53563684
000020 f8 a3 77 3e c7 43 6e be 81 44 11 3f e0 bf 25 3e
       0.24183643 -0.23268043 0.56745154 0.16186476
000030 00 7d 26 3e d2 2f d4 be c4 27 52 be 99 23 d1 3c
       0.16258621 -0.41442734 -0.20522982 0.02552967
000040 4e bc a3 bc 3d f1 f5 be 6a d6 33 bd ed 73 a1 3f
       -0.019987252 -0.48035613 -0.043905653 1.2613503
000050 ab f3 3b be 0d 61 11 be 52 9c 1a c0 41 3d 04 be
       -0.1835467 -0.14197178 -2.415791 -0.12913992
000060 40 1c 23 bc 4c 1a 01 be 78 9d 1d be 00 e9 d8 be
       -0.009955466 -0.12607688 -0.15392101 -0.42365265
000070 3c 93 84 ba 6f 64 40 3f 11 2c 2a be ea bd 74 3e
       -0.001011468 0.7515325 -0.16618372 0.23900571
000080 21 bd 22 bb fb 3a e5 3e dc 3e 28 3e bf be 94 bd
       -0.0024831968 0.4477156 0.16430229 -0.072629444
000090 8a 04 cf 3e 6d 54 49 3e 3d 55 57 3e 7c c4 63 3e
       0.4043315 0.19661112 0.2102861 0.22242922
0000a0 38 b0 01 be a1 46 75 3d 4f 4f 13 3e 88 88 dd bd
       -0.12664878 0.05988181 0.14385723 -0.10817057
0000b0 d1 ca 10 3e d4 a5 1a be 76 ad a7 be 15 05 0f 3d
       0.14139868 -0.15102321 -0.32749528 0.034916956
0000c0 26 03 1a c0 48 98 63 be b1 45 c1 bf db 57 54 bf
       -2.4064422 -0.2222606 -1.5099393 -0.82946557
0000d0 88 8d 8d bd b9 cd bf 3e fa ea 9d 3d cc 88 b1 3e
       -0.069117606 0.3746164 0.07710834 0.3467468
0000e0 c2 b5 c2 3d 1b 32 ed be b8 6e eb 3d 52 10 2b be
       0.09507324 -0.4632729 0.11495727 -0.16705444
0000f0 26 85 54 bd b7 1d 46 bd e9 af 2d bd 80 40 7c 3f
       -0.051884793 -0.048368182 -0.04240409 0.9853592
000100 f1 55 58 3e 39 2b f0 bd d2 e6 40 be 2e db 97 bd
       0.21126534 -0.11726994 -0.18838051 -0.07414852
000110 e2 ff e1 bd ab 15 eb bb b9 0d 17 be 69 e1 1f be
       -0.11035134 -0.007174214 -0.14751329 -0.15613331
000120 52 ba 69 3e a9 77 2a bf bd 01 81 3e fd 8a 56 bd
       0.22824982 -0.66588837 0.2519664 -0.052378643
000130 e8 d0 0c be 65 58 17 3e 74 e9 bb 3e c4 32 12 be
       -0.13751566 0.14779814 0.36701548 -0.14277178
000140 5d ac 19 3f 1d 73 55 3e 78 d2 e3 be 7e 06 9d bd
       0.6002863 0.20844693 -0.44496512 -0.07667254
000150 a1 12 d7 bd 9b d3 a6 bd 49 59 ec 3e 60 32 81 3e
       -0.105016 -0.08145829 0.4616187 0.25233746
000160 46 4f 6e be 15 ab 13 bf 2a b5 23 bd ae 20 ab 3e
       -0.23272428 -0.57682925 -0.039967693 0.3342337
000170 8f e0 25 bd 62 23 7e 3f 6b ff 74 bf 53 85 f0 bc
       -0.04049736 0.9927274 -0.95702237 -0.029360449
000180 d4 54 1f be 56 7c 74 bd cb 5e 8a 3e ce cc 20 3f
       -0.15559703 -0.05968889 0.27025446 0.6281251
000190 41 2e 50 bd 22 3f 0d bf cf 03 33 3f 67 1e 17 3f
       -0.05082536 -0.5517446 0.69927686 0.59030765
0001a0 07 52 97 3f 26 22 ef bd 39 99 c7 3e 53 bf 2a be
       1.1821908 -0.11676435 0.38984087 -0.16674547
0001b0 6b e3 ea 3e ad 68 90 3b 12 9b 68 bd c2 39 16 be
       0.4587663 0.0044070096 -0.05678851 -0.1467047
0001c0 a8 30 4f 3f 03 1b f9 bd 77 97 e9 be d0 63 16 3c
       0.8093362 -0.12163355 -0.4562337 0.009179071
0001d0 6f 1d 80 3e 4b e9 a4 3d df 8b 0e 3f 40 b6 a5 bc
       0.25022456 0.080523096 0.55682176 -0.020228505
0001e0 5a 7f 73 bd 35 e8 02 3f 61 28 a9 bd 46 5f c4 bd
       -0.059447624 0.5113557 -0.08259655 -0.095884845
0001f0 74 ca 45 3e cd 26 13 be 4f d4 01 bc 3b d2 de be
       0.19315511 -0.1437027 -0.0079241535 -0.43519768

value.0.weight f4 [64, 128]
000000 dc 7c 20 3f a5 b1 14 bc eb c0 89 bf d4 5b 4b bf
       0.6269052 -0.009075557 -1.0761999 -0.79436994
000010 72 fa a5 bc 51 fb b5 bd fc 8d 0d be 6f 5d 37 bf
       -0.020261023 -0.088858254 -0.13823694 -0.71626943
000020 23 96 3d bf 69 c6 34 3d 05 66 51 be d5 f9 35 3b
       -0.74057215 0.04413453 -0.20449074 0.002776732
000030 2a c6 2f bf 20 82 96 bd a2 c5 24 bf 38 96 38 bf
       -0.6866175 -0.07349038 -0.64364064 -0.72104216
000040 92 78 ff bb 05 ad 5f bf 6a 89 81 3c 6e df d4 bf
       -0.0077963555 -0.8737338 0.015812594 -1.6630685
000050 8e 12 c8 be 13 13 a1 bd 1f 9e 29 c0 00 79 95 bb
       -0.39076656 -0.07864966 -2.650276 -0.0045615435
000060 6d c7 e8 3d ba e0 84 bc ec f2 a8 3d 70 92 91 be
       0.113661624 -0.01622044 0.08249459 -0.28432035
000070 a0 ab 8a bc 29 85 15 3c 00 97 06 3c a4 25 70 bf
       -0.01692754 0.009125986 0.008214712 -0.93807435
000080 cc da 78 bd a6 31 0c c0 1e 27 e9 bd af 5b a0 bd
       -0.060755536 -2.1905303 -0.11384414 -0.07829987
000090 dd 0f 57 bc 5d 0f 4b bf f3 54 66 bf 12 e6 49 be
       -0.013126341 -0.7932032 -0.8997337 -0.19716671
0000a0 f5 85 22 be 05 89 ae be c4 fc 87 be c2 4d 6e bd
       -0.15871413 -0.34088913 -0.26560032 -0.058179624
0000b0 44 2b 11 bf 4d 66 cd bd af b6 ae bc 4a cf 84 3d
       -0.56706643 -0.10029278 -0.021327345 0.0648485
0000c0 58 a5 2c 3e df ec 41 bf 7d 47 59 bf ee 76 8c be
       0.16859949 -0.7575206 -0.8487471 -0.27434486
0000d0 70 10 97 bc 72 23 af be d4 c5 b7 be 69 69 e0 bf
       -0.018440455 -0.3420673 -0.35893118 -1.7532169
0000e0 97 82 3c bf 1e 3c b2 3f 1f c0 02 bf 12 80 15 3d
       -0.73636764 1.3924596 -0.51074404 0.03649909
0000f0 f4 4c 14 3d 80 74 87 3a 52 09 52 3d 10 76 ff bf
       0.0362062 0.0010334402 0.05127842 -1.9957905
000100 28 a5 61 be 6b 07 92 3d 4a 2c 64 3d 54 49 8c 3c
       -0.22035658 0.07130321 0.0557063 0.01712481
000110 03 d9 d0 be 8b c6 13 3d a2 71 cb 3d 77 aa dc bd
       -0.40790567 0.036078017 0.09933783 -0.10774701
000120 4d de b1 be 29 f4 01 3f 49 05 4d bf 39 9d 00 bd
       -0.34739915 0.50763184 -0.8008619 -0.03139994
000130 d6 9a 47 be 6f e7 17 bd 60 0e 02 bf 9a 79 86 3d
       -0.19492659 -0.037085947 -0.50803185 0.065661624
000140 8d 7b 86 be 8e 31 19 bc f8 4b 59 3f fc ff 76 3d
       -0.26266137 -0.009350194 0.84881544 0.06030272
000150 1a 6a cf 3c d3 f0 48 bd 0b 66 af be f8 38 28 be
       0.025319148 -0.049057793 -0.3425754 -0.16427982
000160 45 1d 6e be 13 bc 4d 3e 0f 76 86 bc 72 cb c7 3e
       -0.23253353 0.20091276 -0.016413717 0.39022404
000170 48 bc b6 be 78 8e df 3c 91 df a0 3e 4a 37 d5 be
       -0.35690522 0.027289614 0.31420568 -0.41643745
000180 3f 96 68 3c 20 09 b7 3e 74 93 ac 3e 85 86 3a bd
       0.014195978 0.3574915 0.33706248 -0.045538444
000190 86 20 bf be c1 94 7e be 7e c1 00 c0 8f a8 5b bf
       -0.373295 -0.24861433 -2.0118098 -0.85804075
0001a0 58 40 0b be 2c c1 cd 3c bd 48 e2 be fc 29 72 bf
       -0.13598764 0.025116526 -0.4419612 -0.94595313
0001b0 b1 9e b2 bf 03 6f 9e 3d 49 12 49 3d 93 d1 49 3d
       -1.3954679 0.077360176 0.049089704 0.04927213
0001c0 92 e7 ff be 72 fc cc bc d5 72 86 be ad 50 7e be
       -0.49981362 -0.025022719 -0.26259485 -0.24835463
0001d0 96 6c 8d be 9b 83 7c bf 76 24 5c 3e da 42 64 bd
       -0.27621907 -0.98638314 0.21498284 -0.055727817
0001e0 bc 4c 41 3f 9d 81 94 3e 4d 98 8e 3d fd ea 27 3d
       0.7550771 0.29005137 0.06962643 0.040995587
0001f0 5c c9 43 be 3a 47 94 bd 48 6e d7 3c 16 5b 13 3f
       -0.19119781 -0.07240148 0.026297703 0.5756086
000200 27 ad ab bd 68 ae 0b bd e4 f5 0f be 29 b1 68 bf
       -0.083826356 -0.034101874 -0.14058644 -0.90895325
000210 e4 9f 9e bd ac 74 b3 bd 3d 8f 9a be b6 37 b5 bc
       -0.077453405 -0.08762488 -0.30187407 -0.022121292
000220 10 e5 87 3e de 4b 03 3a 23 8a 06 bf e7 0b a1 be
       0.26541948 0.00050085585 -0.5255453 -0.31454393
000230 50 4d b9 3d 34 ed a8 3c 01 23 fe bd c3 c6 87 bd
       0.09047949 0.02062092 -0.1240902 -0.06629708
000240 4e 31 90 bd 94 85 4a 3e 7f 78 57 3d 8c 18 e5 bd
       -0.07040654 0.19777519 0.05260515 -0.111863226
000250 cd 4e a5 bd b9 09 69 bd f2 ca 72 3f 00 58 c0 3a
       -0.08071671 -0.056894038 0.9484092 0.0014674664
000260 d7 ba 3d bf dc 36 0e be 88 bf 0e bd 54 db d7 bd
       -0.7411322 -0.13888115 -0.034850627 -0.105398804
000270 e9 e3 1c 3b 3b 52 20 be 0e 5b 7e bd 2f ec 88 bd
       0.0023939556 -0.15656368 -0.062098555 -0.066856734
000280 9a 28 4a 3d 7d 27 dc 3c 21 de ba 3e d3 73 43 3d
       0.049355127 0.026874298 0.36497596 0.04771788
000290 fd 31 93 bd 27 80 bf be 48 77 e5 bd 67 89 27 bd
       -0.07187269 -0.3740246 -0.11204392 -0.04090252
0002a0 0d 01 0e be f9 02 35 be 38 53 1d bd 40 69 2a bd
       -0.13867588 -0.17676915 -0.03840944 -0.04160428
0002b0 af dc d7 bd 66 e5 3c 3d f5 26 92 3d 53 64 f0 bd
       -0.10540139 0.04611721 0.07136337 -0.11737885
0002c0 bc ad f3 be 32 24 6b 3d b1 71 c8 ba ce 23 cf bd
       -0.47593486 0.057407565 -0.0015292672 -0.10114251
0002d0 c6 da 58 3d 06 06 87 be 23 ec 42 be ef 05 6d bd
       0.052943014 -0.26371783 -0.19035392 -0.057866987
0002e0 9c 79 01 be d2 76 37 3f a5 85 2c 3d a5 81 a2 3d
       -0.12644047 0.7166568 0.04211964 0.07934884
0002f0 91 bc 0d bd d3 87 b1 bd 6f 26 5e bd 1c 1e 89 bf
       -0.03460366 -0.086684845 -0.054235872 -1.0712314
000300 8c 5c 63 bd b0 c2 af bb 36 c4 7b 3d cf 1a 58 bd
       -0.05550818 -0.0053637847 0.06146642 -0.05275994
000310 21 4d c4 be be 83 1d 3d 90 fb f5 3b 78 e0 e7 3d
       -0.38340095 0.038455717 0.007506795 0.11322111
000320 8b 04 14 3d 30 26 f7 be 56 78 f9 be 2d 9a 64 3d
       0.036137145 -0.48271322 -0.48724622 0.055811096
000330 0d e7 99 bd 70 3d af be 46 81 75 bd 17 a9 c4 3d
       -0.075147726 -0.3422656 -0.059937738 0.09602564
000340 ba 71 f8 be f7 ff 12 3d 7e 47 1f 3e d3 d4 b3 3d
       -0.48524266 0.03588864 0.15554616 0.087808274
000350 a4 41 09 bd e8 d4 0e 3d a0 45 9b be 05 42 30 be
       -0.033509865 0.034871012 -0.30326557 -0.17212684
000360 a4 fa 98 bd 21 27 e7 3d 79 c6 1e bc aa f9 1b 3c
       -0.07469681 0.1128676 -0.009690874 0.009519974
000370 e4 0e 69 3d b1 ea b6 bc 7e 40 99 be f5 2c c1 3e
       0.056898966 -0.022328706 -0.29932016 0.37729612
000380 27 7c ef 3c b4 ff 09 bd 62 0b 9e 3e 4b 6e 17 be
       0.029234005 -0.033691123 0.3086806 -0.14788167
000390 2c de 9e bc 67 63 4d be 06 c8 13 bc 30 33 90 be
       -0.01939305 -0.2005745 -0.009019857 -0.28164053
0003a0 2a 90 df be 00 a8 c9 39 81 c4 31 be f6 e4 30 be
       -0.43664676 0.00038462877 -0.17360117 -0.17274842
0003b0 ed a3 e8 bc 18 66 8a bd 68 d6 8f bc ce 70 7d 3d
       -0.028398478 -0.06757754 -0.017558292 0.061875157
0003c0 c2 2f a1 be 1d 59 9a bd 56 10 2c be 1d a6 99 bc
       -0.3148175 -0.07536528 -0.16803107 -0.018755967
0003d0 c7 cc cb bd 2d f2 59 be 17 50 1b bf e1 1d de ba
       -0.099511676 -0.21283789 -0.6066908 -0.001694616
0003e0 0d 7c 2f be 2f d7 38 bd 74 92 86 bd 7f 9b b1 3d
       -0.17137165 -0.04512709 -0.065709025 0.08672237
0003f0 56 7c c9 bd 5c ad cc bc 54 4b 87 bc af 01 8f be
       -0.09838168 -0.024985008 -0.016515411 -0.27930972

value.0.bias f4 [64]
000000 ff 6f b2 bd 12 51 30 bf 2a 1c c9 3f 44 77 a9 bf
       -0.08712768 -0.68873703 1.571172 -1.3239522
000010 8a e7 b8 3f 9e c4 45 3f 3c 59 76 be 0f 76 b8 be
       1.444566 0.7725314 -0.24057478 -0.36027572
000020 61 f5 20 3f 11 ff a1 bf 69 80 af bf 8a 31 40 3f
       0.6287442 -1.2655965 -1.3711063 0.7507559
000030 87 42 da bf f5 b6 1b 3e 6c b9 10 40 f2 12 d5 bd
       -1.7051553 0.15206511 2.2613173 -0.10404004
000040 4b 8a af 3f 3f 1d a1 3f 6e 44 2f 3f 97 54 10 c0
       1.3714079 1.258705 0.6846379 -2.255163
000050 80 a3 20 3e 78 93 b2 3f 42 4c aa bf e9 ac e2 3d
       0.1568737 1.3951254 -1.3304522 0.11068136
000060 17 b4 03 3f 37 6c b2 be e9 1f 86 3f e7 f9 86 3e
       0.5144667 -0.34848186 1.0478488 0.26362535
000070 45 14 60 3f b4 2f ba bd f5 7c 73 3f 2b e6 56 be
       0.8753093 -0.0909113 0.95112544 -0.2098624
000080 96 57 10 3f 04 ca 94 3c fe 6b 48 3e a0 90 04 3f
       0.56383646 0.018162735 0.19572446 0.5178318
000090 b7 b5 62 3f 01 2d 4f 3e 20 13 e1 be 83 b0 01 bf
       0.88558525 0.20232011 -0.43959904 -0.5065996
0000a0 40 f5 59 3f 21 55 a1 bf 0a e4 9d 3e c5 a8 ec be
       0.85139847 -1.2604104 0.30838042 -0.4622251
0000b0 e4 62 9a 3f 6b 48 4f be c1 9a 3c 3f ca 74 92 be
       1.2061429 -0.20242469 0.73673636 -0.28604728
0000c0 a9 53 72 3f 83 44 c6 bf 19 80 cc be b5 bf 82 3e
       0.94658905 -1.5489658 -0.3994148 0.25536886
0000d0 8d 78 80 3f 06 95 52 3f 48 8d ea be da 34 a2 be
       1.0036789 0.8225864 -0.45810914 -0.31680948
0000e0 5a af f5 bd bd 09 e9 bf e1 6a 5e 3f 17 54 ba bf
       -0.11996336 -1.8206097 0.86881834 -1.4556912
0000f0 b4 b0 2c bf 01 3c 00 c0 e4 9a 89 bf 32 72 14 bf
       -0.6745713 -2.0036623 -1.0750394 -0.5798675

value.2.weight f4 [1, 64]
000000 64 ec d8 bf 1b 78 d6 3f ec 36 10 bf e9 53 10 40
       -1.6947141 1.6755403 -0.56333804 2.2551215
000010 3c a4 aa 3f 4d 76 63 3f 0b 67 b0 bc 1d 09 9a be
       1.333137 0.8885239 -0.02153351 -0.30085078
000020 e0 2a ab bf 07 02 6e be a8 16 bf 3e bf 05 af be
       -1.337246 -0.23242961 0.37321973 -0.3418407
000030 9c a7 1a 3f a8 6b 27 bf 15 52 d6 be 22 2d f8 3c
       0.60412 -0.65398645 -0.418595 0.030294959
000040 6d e5 ec bd 32 ff 8b bd 4f cb af 3f 12 7c 3b 3f
       -0.11567197 -0.06835784 1.373392 0.7323619
000050 c7 9f e3 bf d8 4a ba 3f 5a 68 30 3f c6 8b b1 bf
       -1.7783135 1.455409 0.6890923 -1.387078
000060 9d 02 15 c0 72 b7 3d 3f 34 f3 fc bd e1 4f 44 bf
       -2.3282845 0.7410804 -0.12351075 -0.76684386
000070 ed 59 31 be 1f 5b b1 bb 15 37 27 be 06 26 bf 3a
       -0.1731946 -0.005412474 -0.16329606 0.0014583475
000080 95 19 6f 3f 9a c0 28 be 5b 05 22 3f 5d 74 b0 3e
       0.9339841 -0.16479722 0.6328942 0.34463778
000090 1e 51 27 be a9 70 77 3f 12 e5 0d c0 27 92 e1 be
       -0.16339538 0.9665628 -2.2171063 -0.44056818
0000a0 e1 1c 03 bf 61 63 8c bf 30 5f 77 bf a4 81 08 3f
       -0.5121594 -1.0967828 -0.9662962 0.53322816
0000b0 9b 81 52 3f 1d 1c 5d bc ae d8 34 3f e2 0f b3 3c
       0.8222901 -0.013495472 0.70643127 0.02185816
0000c0 2f 6f 9d be b1 4f 1a 3f ef e4 18 c0 a5 d8 0a bf
       -0.3074889 0.6027785 -2.388973 -0.54236823
0000d0 8e b1 09 be 38 5e 1b be 35 06 a4 3e f9 0f 00 bd
       -0.13446638 -0.1517266 0.32035986 -0.031265233
0000e0 fe 32 82 bf b7 7c 2f 3f 16 7c 13 be db 39 8c 3f
       -1.0171812 0.68549675 -0.14402804 1.0955156
0000f0 61 de 38 3f fc ee 5a c0 56 f1 88 bf 28 65 42 bf
       0.72214323 -3.4208364 -1.069865 -0.759356

adv.0.weight f4 [64, 128]
000000 b2 67 46 be b2 63 82 3d 24 9a 23 3e 87 4f ee 3e
       -0.19375494 0.063666716 0.15976769 0.4654505
000010 ca b0 95 39 e9 67 4f 3b 26 07 ce be b4 81 c8 be
       0.00028551213 0.0031647629 -0.4023983 -0.39161456
000020 43 4d 50 3e 9f 29 64 3d db 9b 42 3f dd 50 f0 bd
       0.20341973 0.055703755 0.76019067 -0.117341734
000030 2a 5f b8 be ee 52 47 bf d3 38 7c be 56 ab 7c bf
       -0.36010104 -0.77860916 -0.24631052 -0.9869894
000040 38 85 0f bd 6c ba aa be 1b bb 8e bd ee eb 98 bd
       -0.035039157 -0.33345354 -0.06969281 -0.07466875
000050 17 5b c6 3c e9 d7 95 bd 32 65 4c bf bb 8a a2 3c
       0.024213357 -0.07316572 -0.7984191 0.019841542
000060 3e 11 04 bf 1f 9f 2b 3a 8e 3d b3 bd 40 f9 4c be
       -0.5158881 0.0006546843 -0.08751975 -0.20016956
000070 f8 fb d5 3e e4 0c 54 be 0c 22 1c bc 66 63 eb be
       0.417938 -0.20708042 -0.009529602 -0.45974272
000080 92 f4 ab 3c 5e d7 70 bf 6c 31 25 be 59 09 12 bf
       0.020990644 -0.94078624 -0.16132134 -0.57045513
000090 1a 60 c4 bf d1 75 41 bf 39 17 a2 bf 45 46 82 be
       -1.5341828 -0.755704 -1.2663337 -0.25444236
0000a0 9d 86 c1 bd 04 25 c6 bd 11 b7 06 be ee 66 54 bd
       -0.094495036 -0.09675029 -0.13155772 -0.051855974
0000b0 39 c8 f8 be 51 28 9c 3d 0c f3 e7 bd 11 78 8c be
       -0.48590258 0.07624877 -0.113256544 -0.27435353
0000c0 ff fe a1 3c 4d 44 7a bf 03 b2 8c be bb 1a 03 bf
       0.019774912 -0.9776047 -0.27479562 -0.5121266
0000d0 f8 ad 8c 3d 30 66 a2 be a9 54 1f be 49 16 31 3e
       0.068691194 -0.31718588 -0.15559639 0.17293657
0000e0 e7 2a c2 3e 2e df 36 3f a6 84 06 bf 4c 3c 4d bd
       0.37923357 0.71434295 -0.52546155 -0.05010633
0000f0 9e 0a 90 bd 22 56 84 bd b7 0d 67 bd 1a 7d 87 bf
       -0.07033275 -0.06461741 -0.056409564 -1.0585053
000100 2b 58 5d bf 80 98 2a 3b 00 df 6b 3c 0d 49 5c 3d
       -0.8646266 0.0026030838 0.014396429 0.053780604
000110 85 3a 41 bf 61 1f 95 bd 19 47 89 bd 64 bf 7d bd
       -0.7547992 -0.07281376 -0.06703014 -0.061950102
000120 4d 9b b3 bf ae c8 a4 be a4 64 6d bf 97 e4 c8 3c
       -1.4031769 -0.32184356 -0.9273169 0.024523063
000130 2b d6 a4 bc c8 a7 47 bf 5a 07 9c 3e d2 e5 67 3e
       -0.020121654 -0.7799039 0.3047436 0.22646263
000140 8b 26 29 be 5a f5 8a be 54 25 87 3f 91 ef 20 bd
       -0.16518609 -0.27140313 1.0558267 -0.03929097
000150 e2 c2 65 3d 17 0c 89 bd 66 49 f1 be e2 a6 8d bf
       0.056094058 -0.06691759 -0.4712631 -1.1066554
000160 c8 a7 43 bf 80 d3 e2 be a2 df b5 3a f6 46 c5 c0
       -0.7642789 -0.44301987 0.0013875852 -6.164912
000170 30 a4 67 be 2b 8f 95 be e0 fc 26 3e 47 f7 4e be
       -0.22621226 -0.2921079 0.16307402 -0.20211516
000180 5b f3 32 bd a4 fe ef be e1 c8 6a bf 3e 60 5e bf
       -0.043689113 -0.46873963 -0.91712767 -0.86865604
000190 2f c8 58 3f 8b 92 99 3f 7f bb 8e bd 44 34 53 bf
       0.84680456 1.1997846 -0.06969356 -0.82501626
0001a0 d3 eb f4 bf b4 6d 84 bd b3 c2 6e 3e 19 40 f0 3c
       -1.9134468 -0.06466237 0.2331646 0.02932744
0001b0 8d 15 0e be 94 35 9b 3d 68 c7 25 3c 34 51 60 bd
       -0.13875408 0.075785786 0.010118343 -0.05476494
0001c0 ca 02 15 bf cc 87 9e bd fd a7 86 be d8 c4 d7 bd
       -0.5820738 -0.07740745 -0.2630004 -0.10535592
0001d0 76 46 ac bf da bf ec 3d e4 d9 81 bd b2 d9 cd bc
       -1.3459003 0.1156003 -0.063403875 -0.02512822
0001e0 0d d0 b5 be 00 94 a1 be 4b 9c 7e bb 65 a5 f7 3c
       -0.35510293 -0.31558228 -0.0038850482 0.030230233
0001f0 47 88 65 be 10 b6 e9 bb 6c a7 aa bd 4f b8 2e be
       -0.22415267 -0.0071322992 -0.083327144 -0.17062496
000200 44 47 a0 bd a6 fc 21 3f fe 3b a9 be dd 2a 33 bf
       -0.07826093 0.63276136 -0.33053583 -0.6998728
000210 81 bf 07 bd 2a a2 47 bd a4 9d fd bd 6c 62 bb be
       -0.033141617 -0.048738636 -0.12383583 -0.36598527
000220 fb 8d 6d bd 48 ae c1 bd 32 1d f0 be bd 92 92 be
       -0.05799673 -0.0945707 -0.46897274 -0.28627577
000230 68 46 04 be 6e d3 1c be cc e3 7b be 74 79 99 be
       -0.12917483 -0.15315029 -0.24598616 -0.29975474
000240 d2 ac 76 3d 4b 3a 60 bf fc 03 16 bd c4 17 22 bf
       0.060223408 -0.8758895 -0.036624894 -0.63317513
000250 89 53 c5 bd 3e d2 b0 bd 1e 36 12 3f 08 1c 4a bc
       -0.09635074 -0.086338505 0.57113826 -0.012335785
000260 6b 04 2d bd 29 76 9c 3d 15 89 9a 3c 7f ec 9d be
       -0.04224054 0.07639725 0.018864194 -0.30844495
000270 38 0c c2 be d5 78 c5 bd 66 65 2c 3d df 73 cc 3d
       -0.37899947 -0.096421875 0.04208889 0.09983038
000280 88 19 07 bd f2 63 3c bf 2d 1e 43 bf 85 41 95 3c
       -0.032983333 -0.73590004 -0.7621792 0.018219719
000290 91 67 b5 bd bb 50 ab bc 1f 11 69 bf 97 95 fd bd
       -0.08857644 -0.020912519 -0.9104175 -0.123820476
0002a0 4d 59 6a 3d eb c1 d0 bd d8 0c 33 be 2c 13 bc 3c
       0.05721407 -0.10193237 -0.17485368 0.02295836
0002b0 68 87 f5 bd 49 23 4a bd 67 9a fe bd 7c ff 22 be
       -0.11988717 -0.049350057 -0.12431794 -0.15917772
0002c0 b4 6b c4 3e 1b 0e 3b 3b ef 4a 5c 3f b6 e8 dc be
       0.3836342 0.0028542343 0.8605184 -0.43146294
0002d0 73 0d 8a bc b8 d8 98 3e cd d2 9f 3d 07 7b 6c 3e
       -0.016852116 0.29852843 0.07803879 0.23093806
0002e0 fe 67 ad bd ed 06 42 3e 4b 7c f2 3e 39 f6 a6 bd
       -0.084671006 0.18947954 0.47360453 -0.08152432
0002f0 a6 e9 49 3d db e0 93 bd a0 ff a8 3b 5d b6 87 be
       0.04929509 -0.07220622 0.005157426 -0.2650632
000300 3a c2 b2 3d 00 e3 ae b9 57 af 7b 3d 28 9e 43 3c
       0.08728452 -0.00033356994 0.061446514 0.011939563
000310 71 1e 6e bf ec 3a 71 3d 7f f7 6a bd bf 76 76 3c
       -0.930152 0.058894083 -0.057364937 0.01504296
000320 56 d9 64 be ea b7 9e 3e f8 4b 41 be 42 85 39 3d
       -0.22348532 0.3099969 -0.18876636 0.0452931
000330 03 2d 44 bd 36 c5 cd be ea ea bf 3e 26 18 9b 3e
       -0.04789449 -0.40189523 0.37483913 0.3029186
000340 e0 62 27 bc c8 87 47 be d1 5d 4f 3f 88 1f 8f bc
       -0.010216445 -0.1948539 0.8100253 -0.01747109
000350 c3 5d 9d 3d 6a 72 f9 bc 2f e8 32 bf 6b 7b 9e be
       0.07683899 -0.030450065 -0.69885534 -0.30953535
000360 69 9c 92 3d 01 af c0 be 0a 3e 4b 3d 19 68 b2 bd
       0.07158739 -0.37633517 0.049619712 -0.08711261
000370 1a 5e 02 be a8 2a eb be ec e8 4f 3e c4 f4 99 bc
       -0.1273121 -0.45930982 0.20303696 -0.018793471
000380 a3 d3 69 bd 99 96 f6 3d e8 4d d5 3e 2e 51 58 bf
       -0.057086598 0.12040443 0.41661 -0.8449887
000390 ec d8 70 3e 23 03 9d be 23 40 aa 3c c3 43 54 bf
       0.23520249 -0.30666456 0.020782536 -0.82915896
0003a0 e3 f8 91 bf 8d 8d 7d bd 43 1f b2 be 85 fc f2 be
       -1.1404079 -0.06190257 -0.34789476 -0.47458282
0003b0 ea 93 38 bf 70 7a d2 bc 80 c2 e7 ba 6a 0f 68 3d
       -0.721007 -0.025693148 -0.0017681867 0.056655325
0003c0 e8 9a c6 be 54 89 ab bd 9d 53 f1 bd 5d a5 ef bd
       -0.3879006 -0.08375803 -0.11783526 -0.117014624
0003d0 04 d0 9d 3e 6b 6f 47 3e 64 98 2b be 45 58 93 bd
       0.30822766 0.19476096 -0.16757351 -0.071945705
0003e0 6d c0 b5 3c 1e fa 65 bd de 80 66 bd 78 8d 06 bd
       0.022186482 -0.056146733 -0.05627524 -0.03284976
0003f0 15 6f 86 bd 3b 04 a4 3d f0 53 99 3b d1 b9 03 3e
       -0.06564156 0.080086194 0.0046791956 0.12863852

adv.0.bias f4 [64]
000000 0f 6b e3 bf b1 30 c1 bf 7d da 96 be 8e e9 26 bf
       -1.7767047 -1.5092984 -0.29463568 -0.65200126
000010 3d b8 a1 bf 53 2d 3f bf 6a 70 a3 bf 5d 2b 05 c0
       -1.263435 -0.74678534 -1.2768681 -2.0807717
000020 66 92 34 be 87 ac 40 bf 88 03 53 be cc d0 ad bf
       -0.17633972 -0.75263256 -0.20606816 -1.3579345
000030 72 fe c9 be d6 c5 1f be a5 79 a2 bf 25 09 57 bf
       -0.3945194 -0.15602812 -1.2693373 -0.8399833
000040 0b af cc be 6d a5 10 c0 66 34 1e bc e8 b3 a6 bf
       -0.39977297 -2.2600968 -0.009656047 -1.3023653
000050 65 14 a2 bd 00 42 4e be 6e 3b 10 bf e9 27 ab bf
       -0.07914046 -0.20142365 -0.5634068 -1.3371555
000060 c4 f5 d4 3e 88 1e 28 bf 34 66 9b be 8f b5 35 bf
       0.41593754 -0.65671587 -0.30351412 -0.7098016
000070 5b 85 02 bf ba a2 85 bf 0c 49 4d c0 84 bf 1d bf
       -0.50984734 -1.0440285 -3.2075834 -0.61620355
000080 04 6a 83 3e a8 d0 2f be ac 49 95 be 1c 66 e9 bf
       0.2566682 -0.1716944 -0.2915777 -1.8234286
000090 3a e5 9c bf a8 fc 36 bf 2b 96 85 be 93 be bd bc
       -1.2257454 -0.7147927 -0.26091132 -0.023162162
0000a0 88 2c 43 bf 33 4d 09 be 1e 09 9d bf 4c 8e 1f be
       -0.76239824 -0.13408355 -1.2268407 -0.15581626
0000b0 90 da 11 bf d2 f5 07 3e a5 40 b4 bf 72 5f 92 bf
       -0.56974125 0.13277367 -1.4082228 -1.1435378
0000c0 2b 9a f7 bf e5 59 a3 3c 72 2f 4e 3e 3b da 20 be
       -1.9343923 0.019940326 0.20135286 -0.15708248
0000d0 a9 31 22 bf 3f 14 a5 bf fa f6 c2 be 60 26 9f be
       -0.63357025 -1.2896804 -0.38079053 -0.31083965
0000e0 0a 29 39 bf f8 5b de bf f2 96 cf be 11 de 50 be
       -0.72328246 -1.7371817 -0.4054485 -0.20397212
0000f0 08 32 66 bd 67 07 21 bf 5f e9 2c be 1f 0e 01 bf
       -0.056200057 -0.6290192 -0.16885899 -0.5041217

adv.2.weight f4 [2, 64]
000000 ab ba 59 c0 d0 c3 93 3f 64 1f 20 c0 d8 e1 18 bf
       -3.4020183 1.1544132 -2.501916 -0.5971961
000010 66 93 ac be f8 77 74 bd 8e 57 86 3f 9d 59 15 c0
       -0.33706206 -0.059684724 1.049547 -2.3335946
000020 aa 9e b4 3d 2c ad b4 3f b1 0e 9c bd aa 75 ee bf
       0.08819325 1.4115348 -0.0761999 -1.8629658
000030 47 fc 6f 3f 75 b7 4a 3d 1c 74 8c bf b3 7f e6 bf
       0.9374432 0.049491365 -1.0972934 -1.8007721
000040 ee 5c 73 be 03 c3 88 bf 46 99 87 bf 90 48 67 3f
       -0.23765919 -1.0684513 -1.059365 0.90345097
000050 2a 38 80 bf aa 90 e1 3e 1b 84 b6 3f f2 be aa bf
       -1.001714 0.44055682 1.4259065 -1.3339522
000060 0f cd bd 3e 30 f0 90 be 3e d5 97 be 4f 40 0b 3f
       0.3707051 -0.2830825 -0.29654878 0.54395
000070 6f e7 39 3f 50 de 8f bf de ad a6 bf 81 70 a1 3d
       0.72618765 -1.1239719 -1.302181 0.078827865
000080 9b 82 91 bf d7 f2 61 be a2 34 dc be 4e 51 93 3f
       -1.1367983 -0.22065292 -0.43008906 1.1509187
000090 2c 02 1c c0 a2 23 0e 40 b6 ee 12 3f dc 12 82 3f
       -2.4376326 2.2209249 0.57395494 1.0162005
0000a0 cc 95 2d 3f 38 bb 37 bc 8b 50 ed bf 45 71 86 3d
       0.67806697 -0.01121407 -1.8540205 0.06564573
0000b0 67 61 1d bf 38 90 64 3f 69 40 7e bf 21 9a fb 3f
       -0.6147675 0.8928256 -0.9931703 1.9656411
0000c0 4a 18 51 c0 79 50 0b 40 a1 90 22 3f 74 8c fd 3c
       -3.2671075 2.1767867 0.63501936 0.030950762
0000d0 13 a1 07 bf 88 10 98 3f 25 5f c5 bc e2 d5 fa bd
       -0.52980155 1.1880045 -0.02409322 -0.12247826
0000e0 e9 82 11 3f be 89 07 40 de e1 4a bf de c8 a4 3c
       0.5684038 2.117782 -0.79250896 0.020115312
0000f0 ae af 40 bf 3a a2 ff 3e e4 57 f1 bb 05 7a 72 bf
       -0.75268066 0.49928457 -0.0073652137 -0.9471744
000100 5f 89 55 40 32 b9 91 bf 42 32 24 40 b4 ee 05 3f
       3.3365095 -1.1384642 2.5655675 0.5231736
000110 de ee ce 3e 21 d0 de 3d 38 39 86 bf ef 46 1a 40
       0.40416616 0.10879541 -1.0486212 2.4105794
000120 20 1d c9 3d 9a de b0 bf 21 cf 89 bd b5 cc df 3f
       0.09820008 -1.3817933 -0.0672896 1.7484347
000130 4b 80 65 bf 4c d0 2d 3d 74 da 78 3f bb 21 d8 3f
       -0.89648885 0.042434976 0.97208333 1.6885294
000140 e7 81 24 3e 61 ac 91 3f af 89 6d 3f 50 29 7a bf
       0.16065179 1.1380731 0.92788213 -0.9771929
000150 38 ca 53 3f d9 0b 08 bf fd 3b ba bf c4 fb a6 3f
       0.82730436 -0.5314308 -1.4549557 1.3045583
000160 ff dd a6 be 6f f6 7a 3e 78 76 aa 3d f3 60 1e bf
       -0.32591245 0.2450807 0.08323377 -0.6186668
000170 99 ce 2a bf 68 51 8e 3f ce 39 94 3f d5 b0 72 be
       -0.66721493 1.1118593 1.158014 -0.23700269
000180 99 56 8e 3f 1a f6 96 3e bb 52 b0 3e 14 b0 89 bf
       1.1120178 0.29484636 0.34438118 -1.075686
000190 5e 8e 15 40 ce 0e 15 c0 16 2b 2d bf 29 d2 73 bf
       2.3368144 -2.3290286 -0.6764387 -0.95242554
0001a0 06 f2 28 bf b7 fe 16 3c 6b fa e9 3f df 70 aa 3c
       -0.659943 0.009216002 1.8279546 0.020805774
0001b0 2a 54 f9 3e dc 6b 5c bf 85 38 89 3f 2f 9f fa bf
       0.48697025 -0.8610208 1.0720373 -1.9579829
0001c0 04 00 53 40 69 5a 03 c0 cd 26 2d bf c2 43 61 bb
       3.296876 -2.0523932 -0.6763733 -0.0034372662
0001d0 e3 7d 0d 3f 60 8f a8 bf fd 39 75 bc 47 7d e3 3d
       0.5527021 -1.3168755 -0.014967439 0.11107879
0001e0 31 a6 22 bf f8 d6 08 c0 22 c8 45 3f bf 7a 58 3c
       -0.6353484 -2.1381207 0.77258503 0.013212859
0001f0 8e d5 24 3f 9c 19 dd be 46 78 0f 3c 3b 7a 82 3f
       0.6438836 -0.431836 0.008756703 1.0193552

adv.2.bias f4 [2]
000000 96 14 5f be 8b 79 8d 3d
       -0.21785197 0.06907948
