curriculum_run_600/checkpoints/ep_0400.pt (torch, 145855 bytes, 11 tensors)

feature.0.weight f4 [128, 16]
00000000: 5700 5cbe b028 78bf ba3c 39bf 1e80 5dbf
00000010: f35c d8bf 8304 413f 1788 9c3f 79d4 553f
00000020: 67c3 ccbd b859 27be 43dc 75be 6ae8 c9be
00000030: a656 1cbe 771b bd3e b0b0 1840 a09f a4bf
00000040: 5149 863e 74fb bdbd feca e6be 30e6 7cbe
00000050: 03e2 ac3e 883f 6c3e 97d5 223f eed4 fb3e
00000060: 7803 5abf 5790 fbbe c940 6cbe eb07 1abf
00000070: b587 b5be 8a24 cabe 520a 743e d851 03bf
00000080: d53b edbe 2735 a83e f7e7 863e 1e0c d33d
00000090: 0cac 61be fab4 0e3e 8494 693e d653 bd3e
000000a0: 35c8 0b3e a561 153e e6cd 6b3f cd95 573f
000000b0: 416f 313e 76d6 e5be 9ceb e0be 8521 11bf
000000c0: fbbc a2be 2f22 203f 6bc4 3b3f 6751 753f
000000d0: 5514 ee3f 13a5 1abf dfdf 41be ffde 52be
000000e0: 4e3b c63e 892d f03e 10db cb3e 1a7e 3b3e
000000f0: 101e e23e d454 45bf ae7e 433e c31e fdbe
00000100: 544e 1c3f a29f fabd c296 debd ab6b 343e
00000110: a387 c83f 9292 3fbd b4da 3dbe 0351 103e
00000120: 0c4c 493f dc5e 1b3f 1795 2cbd 5763 26bd
00000130: a97c 963e 8a80 bec0 61ae ee3e 2191 0e3d
00000140: bb22 083f 584c 163f ebb4 a83e 2fb4 e93e
00000150: 7a17 2ac0 6aac 4b3f 32af 6a3f 5d56 863f
00000160: d75f e9be 513a babe 2f17 5d3e b07b a83e
00000170: 3d1c f43e 36b1 943e 2b61 a63f 743c f4be
00000180: aa14 f13e 1f40 b5be 831e 66be 54c3 0bbe
00000190: c322 9ebe e185 fbbc 1873 0d3e 0af2 173e
000001a0: 38b7 3a3e 70a6 433e 1111 a73e 758d fb3d
000001b0: 8500 403e 48d0 0fbf 7883 003e ff72 25bf
000001c0: d42b 123f 363f 8abf 9bfc 7ebf 26fd 80bf
000001d0: 6e86 0dc0 71ff 26bf 5342 30bf 4f44 2cbf
000001e0: 915d ab3e 321c 223f 6f77 1abf 3d2e 49bf
000001f0: a044 b0bf d2dc 3fbf 275d e0bf a01e 5f3e
00000200: 0252 15c0 0d2c 9fbe 5355 86be 0dc0 dabe
00000210: 4531 e43f 4501 2fc0 d75d 43c0 1f28 3fc0
00000220: 5f90 263f 1b4c 2d3f d314 503e 5ad8 883e
00000230: 8eeb 92be 6b22 0a3f 1ac7 173f 3c32 a9bd
00000240: 2d6d 09c0 834f 9b3f a989 853f 6dc4 913f
00000250: 37fe a73f 5328 38be 61be 25be 7781 15be
00000260: 5854 b93e b2ae 373e 9269 a0bf f49e c5bf
00000270: a485 3c3f 906e 23be 1626 a9be 0da4 52be
00000280: d864 a73f 39ff d3bf 85e7 cabf 1f5f f5bf
00000290: 65eb 8d3d 628a 923d 0d0c 033e e6d8 643e
000002a0: 865e cc3e 0090 a83e f41d 07bf cfb4 1bbf
000002b0: 4b92 1d3e 3b75 c2bf 509d 83bf b0d6 463e
000002c0: 27ca 5bbe 1107 d3bc 31ae 00be 966f 0cbd
000002d0: c34c d53f 66ed 643e 4a37 fd3d f8a5 54bd
000002e0: 0114 893e 3ed5 cd3d f8e7 d4be 8c00 d3be
000002f0: c7ba f33e c2e4 24c0 c942 933f 3265 723b
00000300: 504b c93e 38e3 053d bb4c bebd 01df c33d
00000310: 4c1c 04c0 f401 77bd 1316 89be 4565 81be
00000320: 3931 3d3f 1d39 363f b3a2 a23f c1d3 883f
00000330: 9096 133f 72ff bebe f34e 633f ed8d 64bf
00000340: 39e2 00bf 0057 8b3f 26f5 5e3f 280c 1e3f
00000350: ad33 d33f 4dc2 84be deb7 ffbc b99b 5bbe
00000360: 10b6 863e fc58 e63e 4f8f 113f 1342 493f
00000370: 09eb 3c3f 12d1 36bf 34ac 52bf dfa0 e93c
00000380: bf0c a5bd 1f59 473f a34e 0d3f a1da 0f3f
00000390: 6855 c3bf c599 8dbe b243 13bf 9b67 d8be
000003a0: 1e90 16bf aae6 2dbf 339f 243f 119a 473f
000003b0: 21fb 013f 0303 c5be 3ac1 e43e c725 86be
000003c0: c37a 1140 81dc 9ebe 8852 47be 5d20 20be
000003d0: 83f4 efbf 5865 043f fc23 363f 1cbb 093f
000003e0: b7d7 8a3f 3796 a13f c493 babf ae6d a6bf
000003f0: d651 383f a46f 37be b4bb b43d 703b 1dbe
-0.21484505 -0.96937084 -0.72358286 -0.86523616 -1.6903366 0.7539751 1.2229031 0.8352733
-0.099982075 -0.16342819 -0.24009804 -0.3943513 -0.15267429 0.36935017 2.3857841 -1.2861214
0.2622781 -0.092764765 -0.45076746 -0.24697185 0.33766183 0.2307111 0.6360716 0.4918589
-0.8516154 -0.4913356 -0.23071589 -0.6016833 -0.354551 -0.39481002 0.23832062 -0.5129676
-0.4633471 0.32853052 0.2634885 0.103050455 -0.22038287 0.13936225 0.2281056 0.36978024
0.13650592 0.1458803 0.9211105 0.8421295 0.17327596 -0.44890183 -0.43929756 -0.5669177
-0.31784806 0.6255216 0.73346585 0.95827335 1.8599955 -0.60408133 -0.18933056 -0.20592879
0.3871712 0.4690974 0.3981557 0.18309823 0.4416356 -0.7708256 0.19091293 -0.49437532
0.6105702 -0.12237479 -0.108685985 0.17619197 1.5666393 -0.04677064 -0.1854046 0.14093404
0.78631663 0.6069162 -0.04213437 -0.04062208 0.29391983 -5.953191 0.46617416 0.034806374
0.53177994 0.5871024 0.3295053 0.45645282 -2.657683 0.7955996 0.91673577 1.0495106
-0.45580932 -0.36372617 0.21590875 0.32906866 0.47677794 0.2904145 1.2998403 -0.47702372
0.47086078 -0.35400483 -0.22472577 -0.1364873 -0.30885896 -0.030703487 0.13813436 0.14838424
0.18233955 0.1910646 0.32630208 0.1228284 0.18750198 -0.56177187 0.12550151 -0.64628595
0.57098126 -1.080054 -0.99604195 -1.0077255 -2.21133 -0.6523352 -0.688512 -0.6729173
0.33469823 0.6332427 -0.6033849 -0.7858618 -1.3770943 -0.7494632 -1.7528428 0.21789026
-2.3331304 -0.31088296 -0.26236972 -0.42724648 1.7827536 -2.7344525 -3.0526025 -2.9868238
0.6506404 0.6769425 0.20320444 0.26727563 -0.2869534 0.5395877 0.5928818 -0.082615346
-2.1472886 1.213364 1.0432636 1.1388069 1.3124455 -0.17984132 -0.16185905 -0.14600168
0.36197162 0.17937735 -1.2532218 -1.5439134 0.7364142 -0.15960145 -0.3303687 -0.20570393
1.307765 -1.6562263 -1.5851904 -1.9169654 0.069296636 0.07155301 0.12797566 0.22348365
0.39915866 0.32922363 -0.5278008 -0.60822767 0.15387838 -1.5192026 -1.0282383 0.19417834
-0.21463834 -0.025760205 -0.12566449 -0.034286104 1.6664051 0.22356185 0.12364061 -0.051916093
0.26773074 0.10050438 -0.41583228 -0.41211355 0.47603437 -2.5764623 1.1504756 0.0036986587
0.3931527 0.032687396 -0.09291979 0.09564019 -2.064227 -0.060304597 -0.26774654 -0.25272575
0.7390323 0.711809 1.2705902 1.0689622 0.57651615 -0.37304264 0.8879234 -0.8927906
-0.5034519 1.0885925 0.87092817 0.617373 1.6500145 -0.2592949 -0.031215604 -0.21446122
0.26310778 0.44989765 0.56859297 0.78616446 0.73796135 -0.71412766 -0.8229401 0.028519092
-0.08059072 0.77870363 0.55198115 0.56192976 -1.5260439 -0.2765638 -0.5752517 -0.42266545
-0.58813655 -0.6793009 0.6430542 0.7796946 0.5077382 -0.3847886 0.4467867 -0.26200697
2.2731178 -0.31027606 -0.19465077 -0.15637346 -1.8746494 0.5171714 0.7114866 0.5380113
1.0847081 1.2623967 -1.4576344 -1.3002222 0.7199987 -0.17913681 0.08824864 -0.15354705

feature.0.bias f4 [128]
00000000: 1bab 2ebf 0889 83be b64d b4be 9029 143f
00000010: 8552 d63f 3b5c 823f 7b14 09bf 3a76 5e3f
00000020: 232a 903f 6f16 06bf 6f80 2bbe 663c b53f
00000030: a26a 033f 4a2c 9c3e 1a4a 203f 43f6 0ec0
00000040: 667f a5bf 0caf 2140 26fc 0040 6ac1 d83d
00000050: dd10 203f 1d1f 0640 3af5 c13f 78a4 68be
00000060: 0859 07bf c134 363f a06d 74bd a8cc b3bf
00000070: e0f1 003f 08c7 30bf 604c 7c3f 7606 38bf
00000080: 495d f9bd a847 31c0 26dd 40bf 5775 60bd
00000090: dcab 213f d982 d43f cce2 7b3f c665 0fbe
000000a0: ce22 84bf 2831 f83f e26b dabe 676f ca3f
000000b0: ca67 1fbe 4f9c 86bf 548e 24c0 f278 743f
000000c0: edec 543f f41c 23c0 a64f 143f 544a 33bf
000000d0: fd99 21bf a3a5 b2be 297b 623f c1dd 9a3f
000000e0: ef70 5fbc 8349 e3be 2347 173c c185 48bf
000000f0: 7eff 70bf 604e 33bc 1138 bd3e f2d3 8c3f
00000100: fca8 05c0 ba20 24c0 6936 b2bf 2288 ddbb
00000110: f5e1 543f a7c8 a93f 24a4 cdbd c55c 803f
00000120: e670 ddbe e4ca 43bf bc13 cbbf 231c d7bf
00000130: d0bc 883f cbff e0bf 3ead 07c0 ca94 873f
00000140: 464e f7be 6cac dbbf 5f92 863e 2ca9 853e
00000150: c700 c4be 8ad7 77bf 7e13 783e 2ec3 1ebf
00000160: 1536 633d a51b 4fbf 9bfe 5ebe 3754 4bbf
00000170: 93c3 07bf a15d 78bf 5b78 20bf 04a8 1240
00000180: 00e8 f8be 4d2c 81bf c252 953e 096c 43bd
00000190: 36d5 8b3f 8234 d9be dfa3 75c0 7092 2bbf
000001a0: 76fc 8cbf ccef 2dbf bd6f d73e 13af 103f
000001b0: 47c4 18bd 82f1 d8bd e893 193f ab1c cebf
000001c0: 2abe aabf 22c3 443f ce12 cc3e 191d 1640
000001d0: 4e76 003f 13bf 993f b065 15bd 034d af3f
000001e0: 79ff 0ec0 f69e a43f c0da 80bf cd67 b1bd
000001f0: d9cc 843f 11f0 f7be 3945 1b3f b614 9dbf
-0.68229836 -0.25690484 -0.3521554 0.5787592 1.6743933 1.0184397 -0.53546876 0.8689915
1.1262859 -0.5237798 -0.16748212 1.4159057 0.51334584 0.3050254 0.6261307 -2.2337806
-1.2929504 2.526309 2.01539 0.10583766 0.6252573 2.095649 1.5152962 -0.2271899
-0.52870226 0.71174246 -0.05967486 -1.4046831 0.5036907 -0.690537 0.9855404 -0.7188486
-0.12175996 -2.7699986 -0.75337446 -0.054799404 0.6315286 1.6602432 0.9839294 -0.14003667
-1.0323122 1.9390001 -0.42660433 1.5815247 -0.15566936 -1.0516452 -2.571187 0.9549705
0.8317402 -2.5486422 0.57934034 -0.7003529 -0.6312559 -0.34891996 0.8846918 1.2098924
-0.013637765 -0.44392022 0.009233269 -0.7832909 -0.9413985 -0.010943979 0.36956838 1.100218
-2.088439 -2.5644975 -1.3922855 -0.006760613 0.83157283 1.3264359 -0.10041073 1.0028311
-0.43250197 -0.7648146 -1.5865397 -1.6805462 1.0682621 -1.7578062 -2.1199489 1.0592282
-0.48301905 -1.7161994 0.26283547 0.2610563 -0.38281843 -0.9681326 0.24226186 -0.6201657
0.0554715 -0.8090156 -0.21776812 -0.79425377 -0.530328 -0.97017866 -0.6268365 2.2915049
-0.48614502 -1.0091645 0.29164702 -0.047710452 1.0924442 -0.42422873 -3.838127 -0.6702032
-1.1014545 -0.67944026 0.42077437 0.5651714 -0.03729656 -0.10592939 0.5999131 -1.6102499
-1.3339283 0.7686025 0.39858097 2.345526 0.5018052 1.2011436 -0.03647393 1.3695377
-2.2343428 1.2861011 -1.0066757 -0.086623766 1.0375015 -0.48425344 0.606525 -1.2271945

feature.2.weight f4 [128, 128]
00000000: 7240 bfbd 1608 3dbf 2d49 b0bd 8ff4 553d
00000010: 5c1b a4be 0fae db3d 9d3d 50bd ce4f 86bf
00000020: f5ef 6b3c 2e93 82be 8fa7 09be d99c 88be
00000030: 2679 073e 653b 85bd a13b 0b3c 77c8 863c
00000040: c636 a13d 96c6 91bd e376 283f 6bd3 64be
00000050: b209 5e3f 1132 6cbe 9572 a5bf ac5e 703b
00000060: 0ef9 b2be 9a4d d3bc 685a 583c c76a cc3c
00000070: 6cbd 013d 2663 a8bc dab2 15bf f0c6 913e
00000080: 247c e13d f5af 06bf 554c 60be 5549 36bd
00000090: 8832 adbd a76b a3be c526 873d 2a07 703d
000000a0: cdbd fdbd ce9c 35be 622d 8abe 656a c3bd
000000b0: 18bf 2bbd 9438 89bd 5b42 453d 0786 2dbe
000000c0: 4ac1 78be 3568 c2bb 9b4f cc3d 1e96 c8be
000000d0: f4b5 693d 4b1e 183d affb 05be c05b 9dbd
000000e0: 5fa3 54be 2cd0 1dbf 6f14 0e3e cc4e 51be
000000f0: 0214 073e 95e4 46bd e696 51be ae50 0b3e
00000100: 3c82 37be b540 aabe eac0 e8bd 3d1a 383c
00000110: c23d 8ebe 98a8 73be 617d 80be cdf5 53bf
00000120: 5c23 cd3d 6ea8 52be ed4f d93d f7b7 03bf
00000130: 709e 2fbf 1a3c 90be 0fa3 b4bd 2c45 d63e
00000140: 0b69 9ebe 4ec7 34be 3af1 ce3d dbcb 133d
00000150: 9908 f23e 2d57 ccbe e104 85bf 0c10 33bf
00000160: 2f97 20bb 9a87 9a3e 5b2a 173e 80c6 12be
00000170: 7da5 60bf b767 a1bd a70f 38be e528 0a3f
00000180: eb15 11be 1598 663e b8c5 50be bfc3 9ebe
00000190: 5ae6 17be b2c3 273e c47e a03c 817f 1cbe
000001a0: 7708 17bf 579d 07be 9cbf 11bf edc0 313b
000001b0: d0b0 7d3e fedf 933d e85b 493d cab5 43bf
000001c0: dbd3 9bba 2eeb 83be 9b92 85bf 0774 993c
000001d0: 4fc3 1bbf 7a4c 6dbe 3c0a b4bd 9b88 393c
000001e0: 9558 89be bd6d f2bf c6a6 cdbe 681b 4c3e
000001f0: 6ba0 373f 9914 83bd c067 093f a80c 30bd
00000200: f52f 75be 12b3 0e3d 4690 263e 0a7c d33e
00000210: 3899 4a3c 8dd8 39be ecd8 fabd 9d97 633e
00000220: 30df 29bf 2f8a a2bd dfca dbbe 72df 3d3e
00000230: e4a5 fdbd d439 583e 1bf9 823d 1f6d 233d
00000240: 808a 96ba 42d3 2bbe afc4 76be 37f9 003f
00000250: 3291 15be 3188 81be 0313 77be 6dab 38be
00000260: 7289 98be 6846 f1bd 56c2 333d 4bb4 47be
00000270: dba3 4abe 3556 13bf 0738 adbd a629 94bd
00000280: bd1d 9dbe cfe8 a0be d8a7 35be 7b80 623c
00000290: 29f5 993e 6cdf 993d 7523 d1be 40d3 42be
000002a0: fab4 1ebe d59c 30bf bb19 ffbd 9484 38be
000002b0: 1adf 983d 65e9 afbf a714 273e 5107 90be
000002c0: ace8 7ebd 44b5 153d 180d 413e f32b b4be
000002d0: d75b 19bd 2553 a93c 850d 4fbd 4517 99bd
000002e0: fd38 18bd 4e95 083d 7227 503e 01f3 cabd
000002f0: cc2f c1bd 9026 0dbc 710d a2bd 1091 a4bc
00000300: a498 fb3d e456 cf3e 0b58 62bd f83c 9ebd
00000310: 67c9 f13e 6058 aabc 10ba a9be d971 583d
00000320: 8212 0ebf 878e 2fbd 5b24 bdbc abca 3d3f
00000330: 5563 cf3c af5a e6bc 49b8 bd3d f70d b1bd
00000340: ab31 5b3e ae45 7dbf 2acc 0ebf e96e 8cbc
00000350: 30b3 a83e 7ab5 47bf 7fe3 c2be cca8 7ebd
00000360: 2ed0 1ebd 0db9 05bd 37b3 b53d 76d6 04bd
00000370: 601a 463f b304 32be 4d2c 863c 28cb 3dbe
00000380: dca8 dbbe 8959 02bf 7fc1 d6bd ff83 06bf
00000390: 597b 31be 6468 58bf d5bf c43d 76a8 ea3d
000003a0: 81db eabc 540f 84be 0ba0 89bd 3165 d4be
000003b0: 36e6 fa3d bb58 9d3d 411d 4ebe e9f0 0dbd
000003c0: 1b46 75be f079 18be 7adc 3dbe 5e51 58be
000003d0: 7175 073e 7ce3 993d 304a a4bb b1c7 1ebf
000003e0: 0483 7abe c383 1a3e 1a2c 8bbd 57d7 37bf
000003f0: 1f4b 5cbe 4a59 63bf 2aa5 57be fe61 03bf
-0.09338464 -0.73840463 -0.08607707 0.052235182 -0.32052124 0.107265584 -0.05084001 -1.0493104
0.014400472 -0.25502914 -0.13442825 -0.26682165 0.13229808 -0.06505469 0.008498103 0.016453011
0.07871775 -0.071179554 0.65806407 -0.22346275 0.86733544 -0.23065974 -1.2925593 0.0036677523
-0.3495564 -0.02579384 0.013205148 0.02495326 0.031674787 -0.02055509 -0.5847603 0.2847209
0.11010006 -0.5261224 -0.21904118 -0.04450353 -0.08456904 -0.3191807 0.065991916 0.058600582
-0.12389717 -0.17735597 -0.2698775 -0.095417775 -0.041930288 -0.067002445 0.048158985 -0.16945659
-0.24292484 -0.0059328326 0.09976121 -0.3917703 0.05705829 0.037138265 -0.13084291 -0.076835155
-0.20765446 -0.6164577 0.13874982 -0.20440215 0.13191226 -0.048557837 -0.2046772 0.13604996
-0.17920774 -0.33252493 -0.113649204 0.011236724 -0.27781492 -0.23794782 -0.25095657 -0.8279694
0.1001651 -0.20572063 0.10610948 -0.51452583 -0.6860113 -0.28170854 -0.088201635 0.4184965
-0.30939516 -0.17654154 0.10104604 0.036083084 0.47272184 -0.3991026 -1.0392114 -0.6994636
-0.0024504175 0.3018158 0.14762251 -0.14333534 -0.87752515 -0.0788111 -0.17974721 0.5396865
-0.14168517 0.22518952 -0.20387924 -0.31008717 -0.14833966 0.16383246 0.019591697 -0.15283014
-0.5899729 -0.13243614 -0.56933 0.002712305 0.2477448 0.072204575 0.049159914 -0.76449263
-0.0011888699 -0.25765365 -1.0435365 0.018732084 -0.6084489 -0.23173705 -0.087910146 0.011324073
-0.26825395 -1.893974 -0.401663 0.1993233 0.71729153 -0.06400413 0.53673935 -0.04298082
-0.23944075 0.034838744 0.16265973 0.41305572 0.012365632 -0.18149014 -0.12248406 0.22225805
-0.6635618 -0.07936513 -0.42928216 0.18542269 -0.12385157 0.2111581 0.06395169 0.039898988
-0.0011485368 -0.16779807 -0.24098466 0.5038027 -0.14606169 -0.25299218 -0.24128346 -0.18034144
-0.29792362 -0.11781007 0.043886505 -0.1950237 -0.19789068 -0.57553416 -0.08457952 -0.07234506
-0.3068675 -0.3142762 -0.17739809 0.013824577 0.30069855 0.075133175 -0.40847364 -0.19025898
-0.15498725 -0.68989307 -0.124560796 -0.18019325 0.07464428 -1.3743101 0.16316472 -0.28130582
-0.062233612 0.03654982 0.18852651 -0.3518978 -0.0374411 0.02066953 -0.050550003 -0.074751414
-0.037163723 0.033345513 0.20327547 -0.099096306 -0.09432945 -0.008615151 -0.0791272 -0.020088702
0.12284973 0.4049598 -0.055259746 -0.077264726 0.4722397 -0.020794094 -0.33149767 0.05284295
-0.5549699 -0.042860534 -0.023088625 0.7413737 0.02531592 -0.028119413 0.09263665 -0.08645242
0.21405666 -0.9893445 -0.5578028 -0.01714273 0.3294921 -0.78011286 -0.3806419 -0.062172696
-0.038772754 -0.03264718 0.08872073 -0.03243109 0.77383995 -0.17384605 0.016378546 -0.18534529
-0.42902267 -0.5091787 -0.10486125 -0.5254516 -0.1733221 -0.8453429 0.096069016 0.114579126
-0.02866912 -0.25792944 -0.06719979 -0.41483453 0.122509405 0.076829396 -0.20128347 -0.034653578
-0.23952524 -0.14890265 -0.18541136 -0.21124789 0.13228394 0.07514092 -0.0050137267 -0.62023455
-0.24464041 0.15089326 -0.06795521 -0.7181296 -0.21513031 -0.8880812 -0.21059099 -0.513214

feature.2.bias f4 [128]
00000000: 26f7 1cbe 28d2 02be f97b 5f3f 0cb3 e33f
00000010: 6817 88bb 2c54 40bd 4ec5 c4bc c862 163f
00000020: f8a3 773e c743 6ebe 29b4 193f e0bf 253e
00000030: fae3 133e 62fe dabe c427 52be 9923 d13c
00000040: 4ebc a3bc f931 ffbe 6ad6 33bd 9a5c 903f
00000050: c547 2cbe 661c 18be c1f3 20c0 413d 04be
00000060: fa65 64be 4c1a 01be 789d 1dbe 5018 f9be
00000070: 3c93 84ba 2130 3e3f 112c 2abe aacf 8f3e
00000080: 21bd 22bb aff6 d53e dc3e 283e bfbe 94bd
00000090: 0a65 c83e 200e 8b3e 568a 2a3e 7cc4 633e
000000a0: 38b0 01be a146 753d 7bc5 0f3e 8888 ddbd
000000b0: d1ca 103e d4a5 1abe 76ad a7be 1505 0f3d
000000c0: d685 25c0 ad93 7cbe e850 bebf db57 54bf
000000d0: 888d 8dbd b9cd bf3e faea 9d3d 6c45 a43e
000000e0: df4f 8d3d 24ad e1be 4f67 0a3e 5210 2bbe
000000f0: 2685 54bd b71d 46bd e9af 2dbd 2c98 7f3f
00000100: f155 583e 392b f0bd d2e6 40be 2edb 97bd
00000110: 8fcb c3bd ab15 ebbb b90d 17be 69e1 1fbe
00000120: 52ba 693e fe03 2abf bd01 813e fd8a 56bd
00000130: e8d0 0cbe 3c79 fe3d 636d d43e c432 12be
00000140: a63b fa3e c4eb 3a3e 78d2 e3be 7e06 9dbd
00000150: a112 d7bd 9bd3 a6bd 4959 ec3e 6032 813e
00000160: 464f 6ebe 15ab 13bf 2ab5 23bd ba2b 973e
00000170: 8fe0 25bd 5915 8c3f 40ea 88bf 5385 f0bc
00000180: 0441 2dbe 7b1b 16bd cb5e 8a3e cecc 203f
00000190: 94fa 83bd 223f 0dbf cf03 333f 00d6 1b3f
000001a0: c347 993f 2622 efbd 3999 c73e 53bf 2abe
000001b0: 228a a53e ad68 903b 129b 68bd c239 16be
000001c0: 89d2 3c3f 031b f9bd 7797 e9be d063 163c
000001d0: e03a 8b3e 4be9 a43d df8b 0e3f 40b6 a5bc
000001e0: 5a7f 73bd 79d8 c43e 6128 a9bd 465f c4bd
000001f0: 74ca 453e cd26 13be 4fd4 01bc 1f97 09bf
-0.15328655 -0.12775481 0.8729854 1.7789016 -0.004153181 -0.046955273 -0.024019863 0.5874448
0.24183643 -0.23268043 0.6004053 0.16186476 0.14442435 -0.42772204 -0.20522982 0.02552967
-0.019987252 -0.49842814 -0.043905653 1.127826 -0.16824253 -0.14854583 -2.5148776 -0.12913992
-0.22304526 -0.12607688 -0.15392101 -0.4865136 -0.001011468 0.7429219 -0.16618372 0.28088123
-0.0024831968 0.41789767 0.16430229 -0.072629444 0.39139587 0.27159214 0.16654333 0.22242922
-0.12664878 0.05988181 0.14040177 -0.10817057 0.14139868 -0.15102321 -0.32749528 0.034916956
-2.5862937 -0.24665709 -1.4868441 -0.82946557 -0.069117606 0.3746164 0.07710834 0.32084215
0.069 -0.44077408 0.13515972 -0.16705444 -0.051884793 -0.048368182 -0.04240409 0.9984157
0.21126534 -0.11726994 -0.18838051 -0.07414852 -0.0956031 -0.007174214 -0.14751329 -0.15613331
0.22824982 -0.6641234 0.2519664 -0.052378643 -0.13751566 0.12425467 0.41489705 -0.14277178
0.48873633 0.18254 -0.44496512 -0.07667254 -0.105016 -0.08145829 0.4616187 0.25233746
-0.23272428 -0.57682925 -0.039967693 0.29525548 -0.04049736 1.0944015 -1.0696487 -0.029360449
-0.16919333 -0.0366473 0.27025446 0.6281251 -0.06444278 -0.5517446 0.69927686 0.60873413
1.1975025 -0.11676435 0.38984087 -0.16674547 0.3233195 0.0044070096 -0.05678851 -0.1467047
0.7375875 -0.12163355 -0.4562337 0.009179071 0.27193356 0.080523096 0.55682176 -0.020228505
-0.059447624 0.38446406 -0.08259655 -0.095884845 0.19315511 -0.1437027 -0.0079241535 -0.5374622

value.0.weight f4 [64, 128]
00000000: dc7c 203f a5b1 14bc ebc0 89bf d2e6 69bf
00000010: 72fa a5bc 51fb b5bd fc8d 0dbe c5ac 61bf
00000020: 2396 3dbf 69c6 343d 0566 51be d5f9 353b
00000030: 2ac6 2fbf 2082 96bd a2c5 24bf 3896 38bf
00000040: 9278 ffbb 05ad 5fbf 6a89 813c b2b0 c0bf
00000050: 8e12 c8be d6b7 a8bd d1e4 37c0 0079 95bb
00000060: f546 93be bae0 84bc ecf2 a83d 906f 55be
00000070: a0ab 8abc 99b8 dcbb 0097 063c f364 8bbf
00000080: ccda 78bd 711c f8bf 1e27 e9bd af5b a0bd
00000090: dd0f 57bc 8d2e 28bf b76f 46bf 12e6 49be
000000a0: f585 22be 0589 aebe 9b07 27bd c24d 6ebd
000000b0: 442b 11bf 4d66 cdbd afb6 aebc 4acf 843d
000000c0: 44ba f33b 7530 82bf fd4f 2bbf ee76 8cbe
000000d0: 7010 97bc 7223 afbe d4c5 b7be 6969 e0bf
000000e0: 8586 39bf 47a3 c53f b4ab bcbe 1280 153d
000000f0: f44c 143d 8074 873a 5209 523d 0178 cebf
00000100: 28a5 61be 6b07 923d 4a2c 643d 5449 8c3c
00000110: e016 a0be 8bc6 133d a271 cb3d 77aa dcbd
00000120: 4dde b1be 8925 0b3f 4905 4dbf 399d 00bd
00000130: d69a 47be 1ee4 e6bd 3593 ffbe 9a79 863d
00000140: 00f1 11bf 8e31 19bc f84b 593f fcff 763d
00000150: 1a6a cf3c d3f0 48bd 0b66 afbe f838 28be
00000160: 451d 6ebe 13bc 4d3e 0f76 86bc 4fc6 f33e
00000170: 48bc b6be 643f 3a3d 93c5 60bd 4a37 d5be
00000180: 3f96 683c 11db 873e 7493 ac3e 8586 3abd
00000190: 8620 bfbe c194 7ebe 7ec1 00c0 8fa8 5bbf
000001a0: 6d9e 7dbe 2cc1 cd3c bd48 e2be fc29 72bf
000001b0: b19e b2bf 036f 9e3d 4912 493d 93d1 493d
000001c0: 6125 a9be 72fc ccbc d572 86be ad50 7ebe
000001d0: 966c 8dbe 9b83 7cbf 7624 5c3e da42 64bd
000001e0: bc4c 413f 583c 843e 4d98 8e3d fdea 273d
000001f0: 5cc9 43be 3a47 94bd 486e d73c f8bd 203f
00000200: 27ad abbd 68ae 0bbd e4f5 0fbe 6446 30bf
00000210: e49f 9ebd ac74 b3bd 3d8f 9abe b637 b5bc
00000220: 10e5 873e de4b 033a 238a 06bf e70b a1be
00000230: 504d b93d 34ed a83c 0123 febd c3c6 87bd
00000240: 4e31 90bd 9485 4a3e 7f78 573d f838 df3c
00000250: cd4e a5bd b909 69bd feaf 9a3f 0058 c03a
00000260: 2345 03bf dc36 0ebe 88bf 0ebd 54db d7bd
00000270: e9e3 1c3b 3b52 20be 0e5b 7ebd 2fec 88bd
00000280: 9a28 4a3d 7940 10be 21de ba3e d373 433d
00000290: fd31 93bd 0122 90be 4877 e5bd 6789 27bd
000002a0: 0d01 0ebe f902 35be 3591 64be 4069 2abd
000002b0: afdc d7bd 66e5 3c3d f526 923d 5364 f0bd
000002c0: 6c26 3abe 96f2 8c3d 2a18 7dbe ce23 cfbd
000002d0: c6da 583d 0606 87be 23ec 42be ef05 6dbd
000002e0: 9c79 01be 8828 5e3f a585 2c3d a581 a23d
000002f0: 91bc 0dbd d387 b1bd 6f26 5ebd a389 85bf
00000300: 8c5c 63bd b0c2 afbb 36c4 7b3d cf1a 58bd
00000310: f643 7fbe be83 1d3d 90fb f53b 78e0 e73d
00000320: 8b04 143d bcd4 fabb 5678 f9be 2d9a 643d
00000330: 0de7 99bd 703d afbe 4681 75bd 17a9 c43d
00000340: b850 1fbf f7ff 123d 7e47 1f3e d3d4 b33d
00000350: a441 09bd e8d4 0e3d a045 9bbe 0542 30be
00000360: a4fa 98bd 2127 e73d 79c6 1ebc 5ffd 2fbd
00000370: e40e 693d d471 cdbe 7e40 99be f52c c13e
00000380: 277c ef3c e7cc 5d3c 620b 9e3e 4b6e 17be
00000390: 2cde 9ebc 6763 4dbe 06c8 13bc 3033 90be
000003a0: dd94 5ebe 00a8 c939 81c4 31be f6e4 30be
000003b0: eda3 e8bc 1866 8abd 68d6 8fbc ce70 7d3d
000003c0: c22f a1be 1d59 9abd 5610 2cbe 1da6 99bc
000003d0: c7cc cbbd 2df2 59be 1750 1bbf e11d deba
000003e0: 0d7c 2fbe 2fd7 38bd 7492 86bd 7f9b b13d
000003f0: 567c c9bd 5cad ccbc 544b 87bc f641 fcbb
0.6269052 -0.009075557 -1.0761999 -0.9136783 -0.020261023 -0.088858254 -0.13823694 -0.8815425
-0.74057215 0.04413453 -0.20449074 0.002776732 -0.6866175 -0.07349038 -0.64364064 -0.72104216
-0.0077963555 -0.8737338 0.015812594 -1.5053923 -0.39076656 -0.08238189 -2.8733408 -0.0045615435
-0.28765073 -0.01622044 0.08249459 -0.20843339 -0.01692754 -0.006735873 0.008214712 -1.0890182
-0.060755536 -1.938368 -0.11384414 -0.07829987 -0.013126341 -0.6569603 -0.77514213 -0.19716671
-0.15871413 -0.34088913 -0.040778738 -0.058179624 -0.56706643 -0.10029278 -0.021327345 0.0648485
0.007437976 -1.0171038 -0.6691893 -0.27434486 -0.018440455 -0.3420673 -0.35893118 -1.7532169
-0.72470886 1.5440453 -0.3684975 0.03649909 0.0362062 0.0010334402 0.05127842 -1.6130372
-0.22035658 0.07130321 0.0557063 0.01712481 -0.31267452 0.036078017 0.09933783 -0.10774701
-0.34739915 0.5435415 -0.8008619 -0.03139994 -0.19492659 -0.11273979 -0.49916998 0.065661624
-0.5700836 -0.009350194 0.84881544 0.06030272 0.025319148 -0.049057793 -0.3425754 -0.16427982
-0.23253353 0.20091276 -0.016413717 0.47612235 -0.35690522 0.04547061 -0.05487592 -0.41643745
0.014195978 0.26534322 0.33706248 -0.045538444 -0.373295 -0.24861433 -2.0118098 -0.85804075
-0.24767466 0.025116526 -0.4419612 -0.94595313 -1.3954679 0.077360176 0.049089704 0.04927213
-0.3303633 -0.025022719 -0.26259485 -0.24835463 -0.27621907 -0.98638314 0.21498284 -0.055727817
0.7550771 0.2582729 0.06962643 0.040995587 -0.19119781 -0.07240148 0.026297703 0.6278987
-0.083826356 -0.034101874 -0.14058644 -0.6885741 -0.077453405 -0.08762488 -0.30187407 -0.022121292
0.26541948 0.00050085585 -0.5255453 -0.31454393 0.09047949 0.02062092 -0.1240902 -0.06629708
-0.07040654 0.19777519 0.05260515 0.027248845 -0.08071671 -0.056894038 1.2084959 0.0014674664
-0.5127737 -0.13888115 -0.034850627 -0.105398804 0.0023939556 -0.15656368 -0.062098555 -0.066856734
0.049355127 -0.14087094 0.36497596 0.04771788 -0.07187269 -0.28150943 -0.11204392 -0.04090252
-0.13867588 -0.17676915 -0.22321017 -0.04160428 -0.10540139 0.04611721 0.07136337 -0.11737885
-0.1817872 0.06882207 -0.24716249 -0.10114251 0.052943014 -0.26371783 -0.19035392 -0.057866987
-0.12644047 0.86780596 0.04211964 0.07934884 -0.03460366 -0.086684845 -0.054235872 -1.0432628
-0.05550818 -0.0053637847 0.06146642 -0.05275994 -0.24928269 0.038455717 0.007506795 0.11322111
0.036137145 -0.0076547544 -0.48724622 0.055811096 -0.075147726 -0.3422656 -0.059937738 0.09602564
-0.6223254 0.03588864 0.15554616 0.087808274 -0.033509865 0.034871012 -0.30326557 -0.17212684
-0.07469681 0.1128676 -0.009690874 -0.042966243 0.056898966 -0.40125906 -0.29932016 0.37729612
0.029234005 0.013537622 0.3086806 -0.14788167 -0.01939305 -0.2005745 -0.009019857 -0.28164053
-0.21736474 0.00038462877 -0.17360117 -0.17274842 -0.028398478 -0.06757754 -0.017558292 0.061875157
-0.3148175 -0.07536528 -0.16803107 -0.018755967 -0.099511676 -0.21283789 -0.6066908 -0.001694616
-0.17137165 -0.04512709 -0.065709025 0.08672237 -0.09838168 -0.024985008 -0.016515411 -0.007698293

value.0.bias f4 [64]
00000000: 3870 2c3c 3071 3dbf b76d c93f 5916 dcbf
00000010: b609 c43f dcb0 4c3f 3c59 76be 338e dabb
00000020: 2c29 1b3f 789a c6bf 1f5b 47bf 89d5 743f
00000030: c684 f0bf d088 603d 88ee 1340 f212 d5bd
00000040: 22a6 b53f 32be ad3f 95b5 083f 1982 25c0
00000050: f310 b33e 3fa5 bb3f 6b31 b9bf 59e0 623d
00000060: b811 093f 0a41 3ebe ae73 833f 9e46 573e
00000070: 43d5 6f3f b42f babd 4ce7 823f 3f3c 70be
00000080: 7d05 203f b599 873d 059b 753e e004 0a3f
00000090: 34a6 793f 4995 893e cf09 f4be b282 d5be
000000a0: a1c1 403f a591 6bbf ad64 7d3e 016f 40be
000000b0: 91ad a53f 6b48 4fbe 81c2 593f ca74 92be
000000c0: 91ac 833f 477f ddbf 1315 d1bd d382 e13e
000000d0: 29b4 8a3f 7c75 5e3f 3e26 fbbe da34 a2be
000000e0: 4690 d8bd a725 ecbf 40fc 7a3f a5ff e4bf
000000f0: ca23 0abf 1fe4 07c0 8dbd b5bf cfc3 09bf
0.010524802 -0.74000835 1.5736607 -1.719432 1.5315464 0.79957366 -0.24057478 -0.0066697835
0.606097 -1.551589 -0.77873415 0.9563833 -1.8790519 0.054817975 2.3114338 -0.10404004
1.4191325 1.3573668 0.5340207 -2.5860655 0.3497387 1.4659804 -1.4468206 0.055389736
0.5354266 -0.18579498 1.0269678 0.21023032 0.93684787 -0.0909113 1.0226836 -0.23460482
0.62508374 0.06621114 0.23984917 0.5391369 0.9751923 0.26871708 -0.47663733 -0.41701275
0.75295454 -0.9201911 0.24745436 -0.18792345 1.2943593 -0.20242469 0.85062414 -0.28604728
1.0287038 -1.7304467 -0.10209098 0.44045123 1.083623 0.86898017 -0.49052614 -0.31680948
-0.10574393 -1.844899 0.9804115 -1.7890517 -0.5396086 -2.1232984 -1.4198471 -0.53814405

value.2.weight f4 [1, 64]
00000000: a811 ecbf b5a7 d73f 0ebd 0dbf 7e88 1e40
00000010: 7594 ac3f 629d 6e3f 0b67 b0bc 9e1c 70bf
00000020: 1c2a b7bf 09a7 02bf 2b74 063f be98 d9be
00000030: 6d4e 483f e19e 16bf 9015 d7be 222d f83c
00000040: 2f22 11be cc88 e7bd a537 b33f b2d1 4e3f
00000050: b8c2 e7bf e5cd cb3f 82fc 1a3f 4289 adbf
00000060: d093 13c0 b7bc 603f 9f4d 0bbe b06b 8cbf
00000070: ce88 38be 1f5b b1bb 3d85 1dbe 3754 fcb9
00000080: 4b00 803f 0208 31bf c2e4 ed3e 875d 2b3f
00000090: 1392 2dbe 2ab1 783f 3d8c 0bc0 0ae2 51bf
000000a0: c57e 25bf 53c4 cabf fae8 80bf e043 253f
000000b0: 71ca 603f 1d1c 5dbc a944 4c3f e20f b33c
000000c0: a932 a4be c2d8 1e3f 18d9 19c0 ce5f 0fbf
000000d0: 126b 12be 9b89 13be 77be 993e f90f 00bd
000000e0: e4ff 99bf 3ec5 303f 093a 0fbe 26f8 963f
000000f0: c217 0d3f 42a2 57c0 9307 6bbf 124b 5bbf
-1.8442888 1.6848055 -0.553666 2.4770808 1.3482805 0.932089 -0.02153351 -0.93793666
-1.4309726 -0.51036125 0.5252101 -0.42499346 0.7824467 -0.5883618 -0.42008638 0.030294959
-0.14173196 -0.11305389 1.4001356 0.8078872 -1.8106298 1.5922209 0.60541546 -1.3557513
-2.3058968 0.87787956 -0.13603829 -1.0970364 -0.18020937 -0.005412474 -0.15382858 -0.0004812793
1.000009 -0.69152844 0.4646359 0.66939586 -0.16950254 0.9714533 -2.1804345 -0.81985533
-0.6464656 -1.5841163 -1.0071099 0.64556694 0.878089 -0.013495472 0.7979227 0.02185816
-0.320699 0.62049496 -2.4038754 -0.5600556 -0.14298657 -0.14407961 0.30028126 -0.031265233
-1.2031217 0.6905097 -0.13986982 1.1794479 0.55114377 -3.3692784 -0.9180843 -0.85661423

adv.0.weight f4 [64, 128]
00000000: b267 46be b263 823d 249a 233e 93df 013f
00000010: cab0 9539 e967 4f3b 2607 cebe b481 c8be
00000020: 434d 503e 9f29 643d 70d2 323f dd50 f0bd
00000030: 2a5f b8be ee52 47bf d338 7cbe 56ab 7cbf
00000040: 3885 0fbd 6cba aabe 1bbb 8ebd d3cb 93be
00000050: 175b c63c e9d7 95bd aa4b 5abf bb8a a23c
00000060: 3e11 04bf 1f9f 2b3a 8e3d b3bd 40f9 4cbe
00000070: f8fb d53e e40c 54be 0c22 1cbc c597 f8be
00000080: 92f4 ab3c 5ed7 70bf 6c31 25be 5909 12bf
00000090: 1a60 c4bf d175 41bf 93bb acbf 4546 82be
000000a0: 9d86 c1bd 0425 c6bd 7438 8ebe ee66 54bd
000000b0: 39c8 f8be 5128 9c3d 0cf3 e7bd 1178 8cbe
000000c0: fffe a13c 4d44 7abf 614c 84be bb1a 03bf
000000d0: f8ad 8c3d 3066 a2be a954 1fbe 4916 313e
000000e0: e72a c23e 2edf 363f a684 06bf 4c3c 4dbd
000000f0: 9e0a 90bd 2256 84bd b70d 67bd a7cd 73bf
00000100: 2b58 5dbf 8098 2a3b 00df 6b3c 0d49 5c3d
00000110: 853a 41bf 611f 95bd 1947 89bd 64bf 7dbd
00000120: 4d9b b3bf 8d8e 63be a464 6dbf 97e4 c83c
00000130: 2bd6 a4bc ce4f 6fbf d85c d13e d2e5 673e
00000140: 8b26 29be 5af5 8abe 5425 873f 91ef 20bd
00000150: e2c2 653d 170c 89bd 6649 f1be e2a6 8dbf
00000160: c8a7 43bf 80d3 e2be a2df b53a 5899 e3c0
00000170: 30a4 67be 2b8f 95be e0fc 263e 47f7 4ebe
00000180: 5bf3 32bd a4fe efbe e1c8 6abf 3e60 5ebf
00000190: 2fc8 583f 8b92 993f 7fbb 8ebd 4434 53bf
000001a0: 51d2 18c0 b46d 84bd b3c2 6e3e 1940 f03c
000001b0: 8d15 0ebe 9435 9b3d 68c7 253c 3451 60bd
000001c0: 7ee6 1abf cc87 9ebd fda7 86be d8c4 d7bd
000001d0: 7646 acbf dabf ec3d e4d9 81bd b2d9 cdbc
000001e0: 0dd0 b5be 0094 a1be 4b9c 7ebb 65a5 f73c
000001f0: 4788 65be 10b6 e9bb 6ca7 aabd fe01 e8be
00000200: 4447 a0bd a6fc 213f fe3b a9be 2c65 a2bf
00000210: 81bf 07bd 2aa2 47bd a49d fdbd 6c62 bbbe
00000220: fb8d 6dbd 48ae c1bd 321d f0be bd92 92be
00000230: 6846 04be 6ed3 1cbe cce3 7bbe 7479 99be
00000240: d2ac 763d 4b3a 60bf fc03 16bd 9a31 20bf
00000250: 8953 c5bd 3ed2 b0bd 1be4 603f 081c 4abc
00000260: a81a 10bd 2976 9c3d 1589 9a3c 7fec 9dbe
00000270: 380c c2be d578 c5bd 6665 2c3d f9da 063f
00000280: 8819 07bd f263 3cbf 2d1e 43bf 8541 953c
00000290: 9167 b5bd bb50 abbc 1f11 69bf 9795 fdbd
000002a0: 4d59 6a3d ebc1 d0bd 2f51 0ebf 2c13 bc3c
000002b0: 6887 f5bd 4923 4abd 679a febd 7cff 22be
000002c0: 6c36 c83e 2b26 25bc 9a18 5e3f b6e8 dcbe
000002d0: 730d 8abc b8d8 983e cdd2 9f3d 077b 6c3e
000002e0: fe67 adbd ed06 423e 4b7c f23e 39f6 a6bd
000002f0: a6e9 493d dbe0 93bd a0ff a83b 5db6 87be
00000300: 3ac2 b23d 00e3 aeb9 57af 7b3d 289e 433c
00000310: dcee 80bf ec3a 713d 7ff7 6abd bf76 763c
00000320: 56d9 64be 12cc 393e f84b 41be 4285 393d
00000330: 032d 44bd 0ced bfbe eaea bf3e 2618 9b3e
00000340: e062 27bc c887 47be d15d 4f3f 881f 8fbc
00000350: c35d 9d3d 6a72 f9bc 2fe8 32bf 6b7b 9ebe
00000360: 699c 923d 01af c0be 0a3e 4b3d 373c 8dbd
00000370: 1a5e 02be a82a ebbe 40ee 843e c4f4 99bc
00000380: a3d3 69bd 0c17 26bd e84d d53e 2e51 58bf
00000390: ecd8 703e 2303 9dbe 2340 aa3c c343 54bf
000003a0: fe52 86bf 8d8d 7dbd 431f b2be 85fc f2be
000003b0: ea93 38bf 707a d2bc 80c2 e7ba 6a0f 683d
000003c0: 4e6f 1cbf 5489 abbd 9d53 f1bd 5da5 efbd
000003d0: 04d0 9d3e 6b6f 473e 6498 2bbe 4558 93bd
000003e0: 6dc0 b53c 1efa 65bd de80 66bd 788d 06bd
000003f0: 156f 86bd 3b04 a43d f053 993b 63e5 353e
-0.19375494 0.063666716 0.15976769 0.5073177 0.00028551213 0.0031647629 -0.4023983 -0.39161456
0.20341973 0.055703755 0.6985235 -0.117341734 -0.36010104 -0.77860916 -0.24631052 -0.9869894
-0.035039157 -0.33345354 -0.06969281 -0.28866443 0.024213357 -0.07316572 -0.85271704 0.019841542
-0.5158881 0.0006546843 -0.08751975 -0.20016956 0.417938 -0.20708042 -0.009529602 -0.4855329
0.020990644 -0.94078624 -0.16132134 -0.57045513 -1.5341828 -0.755704 -1.3494743 -0.25444236
-0.094495036 -0.09675029 -0.27777445 -0.051855974 -0.48590258 0.07624877 -0.113256544 -0.27435353
0.019774912 -0.9776047 -0.25839522 -0.5121266 0.068691194 -0.31718588 -0.15559639 0.17293657
0.37923357 0.71434295 -0.52546155 -0.05010633 -0.07033275 -0.06461741 -0.056409564 -0.95235676
-0.8646266 0.0026030838 0.014396429 0.053780604 -0.7547992 -0.07281376 -0.06703014 -0.061950102
-1.4031769 -0.22222348 -0.9273169 0.024523063 -0.020121654 -0.9348115 0.40891147 0.22646263
-0.16518609 -0.27140313 1.0558267 -0.03929097 0.056094058 -0.06691759 -0.4712631 -1.1066554
-0.7642789 -0.44301987 0.0013875852 -7.1124687 -0.22621226 -0.2921079 0.16307402 -0.20211516
-0.043689113 -0.46873963 -0.91712767 -0.86865604 0.84680456 1.1997846 -0.06969356 -0.82501626
-2.3878367 -0.06466237 0.2331646 0.02932744 -0.13875408 0.075785786 0.010118343 -0.05476494
-0.60507953 -0.07740745 -0.2630004 -0.10535592 -1.3459003 0.1156003 -0.063403875 -0.02512822
-0.35510293 -0.31558228 -0.0038850482 0.030230233 -0.22415267 -0.0071322992 -0.083327144 -0.4531402
-0.07826093 0.63276136 -0.33053583 -1.2687125 -0.033141617 -0.048738636 -0.12383583 -0.36598527
-0.05799673 -0.0945707 -0.46897274 -0.28627577 -0.12917483 -0.15315029 -0.24598616 -0.29975474
0.060223408 -0.8758895 -0.036624894 -0.62575686 -0.09635074 -0.086338505 0.8784806 -0.012335785
-0.03518167 0.07639725 0.018864194 -0.30844495 -0.37899947 -0.096421875 0.04208889 0.52677876
-0.032983333 -0.73590004 -0.7621792 0.018219719 -0.08857644 -0.020912519 -0.9104175 -0.123820476
0.05721407 -0.10193237 -0.55592626 0.02295836 -0.11988717 -0.049350057 -0.12431794 -0.15917772
0.3910402 -0.010079901 0.8675629 -0.43146294 -0.016852116 0.29852843 0.07803879 0.23093806
-0.084671006 0.18947954 0.47360453 -0.08152432 0.04929509 -0.07220622 0.005157426 -0.2650632
0.08728452 -0.00033356994 0.061446514 0.011939563 -1.0072894 0.058894083 -0.057364937 0.01504296
-0.22348532 0.18144253 -0.18876636 0.0452931 -0.04789449 -0.3748554 0.37483913 0.3029186
-0.010216445 -0.1948539 0.8100253 -0.01747109 0.07683899 -0.030450065 -0.69885534 -0.30953535
0.07158739 -0.37633517 0.049619712 -0.06896251 -0.1273121 -0.45930982 0.2596302 -0.018793471
-0.057086598 -0.040549323 0.41661 -0.8449887 0.23520249 -0.30666456 0.020782536 -0.82915896
-1.0494077 -0.06190257 -0.34789476 -0.47458282 -0.721007 -0.025693148 -0.0017681867 0.056655325
-0.6110734 -0.08375803 -0.11783526 -0.117014624 0.30822766 0.19476096 -0.16757351 -0.071945705
0.022186482 -0.056146733 -0.05627524 -0.03284976 -0.06564156 0.080086194 0.0046791956 0.17763285

adv.0.bias f4 [64]
00000000: 05c8 e9bf 7a73 ecbf edfe 9abd 9be6 29bf
00000010: 3db8 a1bf 9888 34bf 4b69 c4bf be40 03c0
00000020: 07f8 56be 8a9f 6ebf 8803 53be dc1c b4bf
00000030: 72fe c9be edf2 1dbe 6fc4 9fbf 1711 7fbf
00000040: 0baf ccbe 1f89 0dc0 4fb5 7cbd e8b3 a6bf
00000050: a771 7bbb f1ad 0fbf c569 52bf 4f56 78bf
00000060: 4e3b 8e3e 881e 28bf 372e a4be 2f4c 04bf
00000070: 5b85 02bf 7200 8dbf 8221 2dc0 480f babe
00000080: a11e 753e 4962 a73d ac49 95be 1c66 e9bf
00000090: be31 b5bf e9e4 7fbf 2425 cdbe 8fbc 743d
000000a0: 03d9 79bf 334d 09be 5855 bcbf 4c8e 1fbe
000000b0: e717 e3be f1e3 163e b373 b7bf 0005 b2bf
000000c0: 5dd9 04c0 8bf1 0ebe fc53 513e 3bda 20be
000000d0: 40da 24be 2900 a8bf b4c4 b0be 6026 9fbe
000000e0: d864 27bf 6f44 1ac0 b008 a4bd 486a 68be
000000f0: b404 59bd 7d65 28bf 5fe9 2cbe 1f0e 01bf
-1.8264166 -1.8472741 -0.075681545 -0.663675 -1.263435 -0.70520926 -1.5344633 -2.0508265
-0.20993052 -0.9321219 -0.20606816 -1.4071307 -0.3945194 -0.154247 -1.2481822 -0.9963545
-0.39977297 -2.2114942 -0.061696347 -1.3023653 -0.0038367303 -0.5612479 -0.8219264 -0.97006696
0.2777962 -0.65671587 -0.3206651 -0.51678747 -0.50984734 -1.1015761 -2.7051702 -0.36339784
0.23937465 0.08173043 -0.2915777 -1.8234286 -1.4155805 -0.99958664 -0.400674 0.059750136
-0.9759676 -0.13408355 -1.4713545 -0.15581626 -0.44354174 0.1473539 -1.4332184 -1.3907776
-2.0757668 -0.13959329 0.20442194 -0.15708248 -0.16098881 -1.3125049 -0.34525073 -0.31083965
-0.6538825 -2.4104269 -0.080094695 -0.22696793 -0.052983 -0.6577986 -0.16885899 -0.5041217

adv.2.weight f4 [2, 64]
00000000: 1175 92c0 63c7 b13f e221 11c0 8fe6 15bf
00000010: 6693 acbe d14f 6fbe 33b1 c43f 656e 19c0
00000020: eae6 3a3f 98dd 9e3f b10e 9cbd 9358 ebbf
00000030: 47fc 6f3f b46b 323e aaba bbbf 31d1 cfbf
00000040: ee5c 73be 2ce6 8fbf e8a4 95bf 9048 673f
00000050: 5f63 95bf 071a da3e cb6c d93f fc1c 94bf
00000060: 9d7b 2f3f 30f0 90be 6ea9 8bbf 080e ca3e
00000070: 6fe7 393f 5f85 84bf c093 dabf ba41 233f
00000080: a243 91bf 2d94 f7be a234 dcbe 4e51 933f
00000090: b3a5 23c0 76ca 0240 1190 403f f5da 923f
000000a0: 22af 943f 38bb 37bc 2922 fdbf 4571 863d
000000b0: 95ce 38bf 51f2 623f 16bd 77bf 84b8 0040
000000c0: e0b8 59c0 fc48 0740 e6fa 253f 748c fd3c
000000d0: 4337 71bf 4be9 993f 7df4 75be e2d5 fabd
000000e0: 4658 593f 1c8d f73f 2601 1fbf 980e ac3c
000000f0: 6e49 3dbf 16ef 423f e457 f1bb 057a 72bf
00000100: 725c 9040 c5bc afbf c034 1540 6bf3 023f
00000110: deee ce3e ddcc 903e dd92 c4bf b75b 1e40
00000120: b02f 0bbf 060f 9bbf 21cf 89bd 9daf dc3f
00000130: 4b80 65bf 7c94 a8bd b8b3 ab3f 3973 c13f
00000140: e781 243e 8acf 983f b4d0 843f 5029 7abf
00000150: 9220 7e3f 0950 04bf ad24 ddbf ce59 903f
00000160: af03 24bf 6ff6 7a3e 0cb7 603f 144f f0be
00000170: 99ce 2abf 77f8 823f b01f c83f a4bf 4bbf
00000180: bc17 8e3f 5ac8 0e3f bb52 b03e 14b0 89bf
00000190: e531 1d40 a2b5 09c0 71cc 5abf 3db1 8abf
000001a0: 425d 92bf b7fe 163c cdcb f93f df70 aa3c
000001b0: 1817 183f fdcd 5abf dbf6 853f 023b 00c0
000001c0: 9aa0 5b40 92a5 febf 1291 30bf c243 61bb
000001d0: 1114 773f 2368 aabf 30f5 4d3e 477d e33d
000001e0: 357c 6abf 2427 fabf 6ae7 193f 51ef 493c
000001f0: 4e6f 213f ceaa 31bf 4678 0f3c 3b7a 823f
-4.5767903 1.3888973 -2.267693 -0.5855493 -0.33706206 -0.23370291 1.5366577 -2.397363
0.73008597 1.2411375 -0.0761999 -1.8386406 0.9374432 0.17423898 -1.466634 -1.6235715
-0.23765919 -1.1242118 -1.169095 0.90345097 -1.1670951 0.42597982 1.6986326 -1.1571345
0.68547994 -0.2830825 -1.0911081 0.3946383 0.72618765 -1.0353202 -1.707634 0.63772166
-1.1348765 -0.48355237 -0.43008906 1.1509187 -2.5569885 2.0436072 0.7521983 1.147307
1.1615946 -0.01121407 -1.977605 0.06564573 -0.7219022 0.88650995 -0.967729 2.011262
-3.4019089 2.1138296 0.64835966 0.030950762 -0.9422495 1.202432 -0.24019046 -0.12247826
0.8490032 1.9339938 -0.6211113 0.021003053 -0.7394017 0.76146066 -0.0073652137 -0.9471744
4.511285 -1.3729483 2.3313446 0.51152676 0.40416616 0.28281298 -1.5357319 2.4743478
-0.5436964 -1.211396 -0.0672896 1.7241093 -0.89648885 -0.08231446 1.3414221 1.5113288
0.16065179 1.1938336 1.0376191 -0.9771929 0.9926845 -0.51684624 -1.7276818 1.1277406
-0.6406812 0.2450807 0.8777931 -0.46935332 -0.66721493 1.0232075 1.563467 -0.79589295
1.1100993 0.5577446 0.34438118 -1.075686 2.4561703 -2.151711 -0.854682 -1.0835339
-1.143471 0.009216002 1.951532 0.020805774 0.5941024 -0.85470563 1.0465959 -2.0036016
3.4316773 -1.9894278 -0.6897136 -0.0034372662 0.96514994 -1.331303 0.20113063 0.11107879
-0.91595775 -1.9543195 0.60118735 0.012325124 0.6306046 -0.6940125 0.008756703 1.0193552

adv.2.bias f4 [2]
00000000: 9ec3 72be 49da b43d
-0.23707435 0.08830697
