curriculum_run_600/checkpoints/ep_0350.pt (torch, 145855 bytes, 11 tensors)

feature.0.weight f4 [128, 16]
0	0x3dc29856	0.09501712
1	0xbf7db51e	-0.9910449
2	0xbf3ec91c	-0.7452562
3	0xbf630c80	-0.8869095
4	0xc005b80e	-2.0893588
5	0x3f3fc565	0.74910575
6	0x3f9be831	1.2180234
7	0x3f54955b	0.830404
8	0xbda9b813	-0.082870625
9	0xbe15d3ba	-0.14631549
10	0xbe92028e	-0.28517574
11	0xbee0fd1a	-0.439431
12	0xbe236003	-0.15954594
13	0x3ebc33c4	0.36758244
14	0x401c4caf	2.4421804
15	0xbfa4fbaa	-1.2889302
16	0x3e864951	0.2622781
17	0xbdbdfb74	-0.092764765
18	0xbee6cafe	-0.45076746
19	0xbe7ce630	-0.24697185
20	0x3eace203	0.33766183
21	0x3e6c3f88	0.2307111
22	0x3f22d597	0.6360716
23	0x3efbd4ee	0.4918589
24	0xbf5a0378	-0.8516154
25	0xbefb9057	-0.4913356
26	0xbe6c40c9	-0.23071589
27	0xbf1a07eb	-0.6016833
28	0xbeb587b5	-0.354551
29	0xbeca248a	-0.39481002
30	0x3e740a52	0.23832062
31	0xbf0351d8	-0.5129676
32	0xbeed3bd5	-0.4633471
33	0x3ea83527	0.32853052
34	0x3e86e7f7	0.2634885
35	0x3dd30c1e	0.103050455
36	0xbe61ac0c	-0.22038287
37	0x3e0eb4fa	0.13936225
38	0x3e699484	0.2281056
39	0x3ebd53d6	0.36978024
40	0x3e0bc835	0.13650592
41	0x3e1561a5	0.1458803
42	0x3f6bcde6	0.9211105
43	0x3f5795cd	0.8421295
44	0x3e316f41	0.17327596
45	0xbee5d676	-0.44890183
46	0xbee0eb9c	-0.43929756
47	0xbf112185	-0.5669177
48	0xbc206c90	-0.009791508
49	0x3f12257b	0.5708844
50	0x3f2dc7b7	0.67882866
51	0x3f67547d	0.90363294
52	0x3fe5b23c	1.7945018
53	0xbf1aa513	-0.60408133
54	0xbe41dfdf	-0.18933056
55	0xbe52deff	-0.20592879
56	0x3ee56b39	0.44808367
57	0x3f07ae7d	0.53000623
58	0x3eae7ed5	0.3408114
59	0x3e00c567	0.12575303
60	0x3eda8c3b	0.42685112
61	0xbf381115	-0.71901065
62	0x3c3bd5d6	0.011464557
63	0xbf1ad353	-0.60478705
64	0x3efcabd0	0.49349833
65	0xbdfa9fa2	-0.12237479
66	0xbdde96c2	-0.108685985
67	0x3e346bab	0.17619197
68	0x3fbb84e1	1.4649926
69	0xbd3f9292	-0.04677064
70	0xbe3ddab4	-0.1854046
71	0x3e105103	0.14093404
72	0x3f549324	0.8303702
73	0x3f26a5f4	0.65096974
74	0xbd2c9517	-0.04213437
75	0xbd266357	-0.04062208
76	0x3e4d7f96	0.20068201
77	0xc0c014dc	-6.0025463
78	0x3ef9f7de	0.4882192
79	0x3d0d6b18	0.03452596
80	0x3f1084bc	0.56452537
81	0x3f1b1852	0.60583985
82	0x3eb24c1d	0.34823695
83	0x3ef34b61	0.47518447
84	0xc02b26bf	-2.6742399
85	0x3f481183	0.7815172
86	0x3f67144b	0.9026534
87	0x3f848886	1.0354164
88	0xbee6e7a7	-0.45098612
89	0xbeb7c221	-0.35890296
90	0x3e1a6db1	0.15080906
91	0x3e8726ef	0.2639689
92	0x3eebb3fb	0.46035752
93	0x3e971ac7	0.29512617
94	0x3fa5bfd3	1.2949165
95	0xbef1b6dc	-0.47209823
96	0x3ef114aa	0.47086078
97	0xbeb5401f	-0.35400483
98	0xbe661e83	-0.22472577
99	0xbe0bc354	-0.1364873
100	0xbe9e22c3	-0.30885896
101	0xbcfb85e1	-0.030703487
102	0x3e0d7318	0.13813436
103	0x3e17f20a	0.14838424
104	0x3e3ab738	0.18233955
105	0x3e43a670	0.1910646
106	0x3ea71111	0.32630208
107	0x3dfb8d75	0.1228284
108	0x3e400085	0.18750198
109	0xbf0fd048	-0.56177187
110	0x3e008378	0.12550151
111	0xbf2572ff	-0.64628595
112	0x3f5376d8	0.82603216
113	0xbf8be03c	-1.0927806
114	0xbf811f60	-1.00877
115	0xbf829e30	-1.0204525
116	0xc0067cd5	-2.1013691
117	0xbf4ab99a	-0.79189456
118	0xbf53fc7c	-0.82807136
119	0xbf4ffe78	-0.81247663
120	0xbe3bba78	-0.18332851
121	0x3debf593	0.11521449
122	0xbf229a83	-0.63517016
123	0xbf515151	-0.81764704
124	0xbfc1ff22	-1.5155985
125	0xbf3bcf28	-0.7336297
126	0xbfe6a42b	-1.801885
127	0x3e625105	0.22101219
128	0xc012a17d	-2.2911065
129	0xbe8e2989	-0.27766064
130	0xbe6aa547	-0.22914611
131	0xbec9bd89	-0.39402416
132	0x3fd79e9f	1.6845282
133	0xc0306217	-2.755987
134	0xc044bea9	-3.074137
135	0xc04088f1	-3.0083582
136	0x3f32e825	0.69885474
137	0x3f39a3e1	0.72515684
138	0x3e8b6351	0.2722421
139	0x3eac3123	0.33631238
140	0xbe8db861	-0.27679732
141	0x3f0a6a28	0.5406823
142	0x3f1d271f	0.6138782
143	0xbd21006f	-0.039307054
144	0xc009ac88	-2.1511555
145	0x3f986772	1.1906569
146	0x3f82a198	1.0205564
147	0x3f8edc5c	1.1160998
148	0x3fb95aa8	1.4480791
149	0xbe113764	-0.14181286
150	0xbdfd9b04	-0.123830825
151	0xbddd20f6	-0.107973024
152	0x3ee24f9d	0.44201365
153	0x3e84d2ab	0.25941977
154	0xbf78b7f4	-0.9715569
155	0xbfa19168	-1.26225
156	0x3f486661	0.7828122
157	0xbe67ad6b	-0.22624747
158	0xbec22e68	-0.3792603
159	0xbe4edb21	-0.20200779
160	0x3f9bc6a3	1.2169994
161	0xbfc3720d	-1.526918
162	0xbfba5a59	-1.4558822
163	0xbfe4d1f3	-1.7876571
164	0x3dd7b435	0.10532419
165	0xbdc208bd	-0.09474323
166	0xbd1cf5e0	-0.038320422
167	0x3d6a3d99	0.05718765
168	0x3f396639	0.72421604
169	0x3f277f05	0.6542819
170	0xbf1d66fd	-0.6148527
171	0xbf31fda3	-0.69527644
172	0x3e19bd58	0.15013635
173	0xbfba7255	-1.4566141
174	0xbf77ff2c	-0.96873736
175	0x3e3124a3	0.17299132
176	0xbe89d7cd	-0.26922455
177	0xbcd30711	-0.025760205
178	0xbe00ae31	-0.12566449
179	0xbd0c6f96	-0.034286104
180	0x3fe0bfbd	1.7558514
181	0x3e64ed66	0.22356185
182	0x3dfd374a	0.12364061
183	0xbd54a5f8	-0.051916093
184	0xbe9699d4	-0.29414237
185	0xbeec3880	-0.46136856
186	0xbe2a781f	-0.16647385
187	0xbe26a947	-0.16275512
188	0x3eb210ff	0.34778592
189	0xc0297073	-2.6474884
190	0x3f656e9f	0.8962192
191	0xbd16812b	-0.036744278
192	0x3ecc69a4	0.39924347
193	0x3e15b5a7	0.14620076
194	0x3ca8b4f0	0.02059409
195	0x3e562cae	0.20915481
196	0xbfff569f	-1.994831
197	0xbe3037bc	-0.17208761
198	0xbec251b5	-0.37952963
199	0xbebaa0e9	-0.3645089
200	0x3f350c43	0.70721835
201	0x3f2e1427	0.679995
202	0x3fa27983	1.2693332
203	0x3f88aa91	1.0677053
204	0x3f1b3292	0.6062404
205	0xbeaddd3b	-0.33957848
206	0x3f5eee7d	0.87082654
207	0xbf651288	-0.894814
208	0xbf13df6a	-0.5776278
209	0x3f8b0438	1.0860662
210	0x3f5e4fa9	0.868403
211	0x3f1d66ab	0.61484784
212	0x3fe0bb3e	1.7557142
213	0xbe56ed42	-0.20988944
214	0x3c950227	0.018189503
215	0xbe29048a	-0.16505638
216	0x3e6f3ee2	0.23363832
217	0x3ed74277	0.42042896
218	0x3f00a2d4	0.50248456
219	0x3f3855ac	0.72005725
220	0x3f3fb25b	0.74881524
221	0xbf1cec7f	-0.61298364
222	0xbf59281a	-0.84826815
223	0x3c386d66	0.011256551
224	0xbe05d3ad	-0.13069029
225	0x3f4ba942	0.7955514
226	0x3f119ec6	0.56882894
227	0x3f142ac4	0.57877755
228	0xbfd5ef8f	-1.6713732
229	0xbec284eb	-0.37992033
230	0xbf2db940	-0.67860794
231	0xbf06a95c	-0.5260217
232	0xbf08de16	-0.53463876
233	0xbf2034c2	-0.625805
234	0x3f116e97	0.5680937
235	0x3f346975	0.70473415
236	0x3eef0fe6	0.46691817
237	0xbed6b054	-0.41931403
238	0x3ebc0f09	0.3673022
239	0xbe6d8949	-0.23196901
240	0x400edf0b	2.2323635
241	0xbe4f0f9a	-0.20220795
242	0xbdb15110	-0.086580396
243	0xbd45d936	-0.04830285
244	0xc00fddf1	-2.2479212
245	0x3ef41e9a	0.47679597
246	0x3f2bce17	0.67111343
247	0x3efeca54	0.4976374
248	0x3f84274a	1.032449
249	0x3f9ae5ca	1.2101376
250	0xbfb514fa	-1.4147027
251	0xbfa0eee4	-1.2572904
252	0x3f2eae3b	0.68234605
253	0xbe30fa75	-0.17283042
254	0x3dddf675	0.108380236
255	0xbe20dea7	-0.15709935

feature.0.bias f4 [128]
0	0xbf2ef096	-0.68335855
1	0xbe838908	-0.25690484
2	0xbeb44db6	-0.3521554
3	0x3f09a6e0	0.53770256
4	0x3fd1cf60	1.6391411
5	0x3f782858	0.9693656
6	0xbf09147b	-0.53546876
7	0x3f74234b	0.9536635
8	0x3f92dbd1	1.1473333
9	0xbef3d5b0	-0.47623968
10	0xbe7888ab	-0.24270885
11	0x3fbd2d64	1.4779477
12	0x3f002499	0.50055844
13	0x3e9750c4	0.29553807
14	0x3f1f02d9	0.6211372
15	0xc0121040	-2.2822418
16	0xbfa57f66	-1.2929504
17	0x401f580c	2.489749
18	0x40001ccc	2.0017576
19	0x3e3def3d	0.18548293
20	0x3f1655ba	0.5872456
21	0x4004c892	2.0747418
22	0x3fc783b0	1.5587063
23	0xbe51f45b	-0.2050337
24	0xbf0f88ed	-0.5606831
25	0x3f4989ef	0.78726095
26	0xbd746da0	-0.05967486
27	0xbfaf31fd	-1.368713
28	0x3ec687f3	0.38775596
29	0xbf342a04	-0.7037661
30	0x3f831da9	1.0243427
31	0xbf2b37ec	-0.66882205
32	0xbdfaec38	-0.122520864
33	0xc02e6f71	-2.7255518
34	0xbf5c6dd7	-0.861051
35	0xbd607557	-0.054799404
36	0x3f12ebb1	0.57390887
37	0x3fd35138	1.6509161
38	0x3f6eb16a	0.9323946
39	0xbe35548e	-0.17708036
40	0xbf838aa7	-1.0276688
41	0x3ff655ec	1.9244971
42	0xbeda475f	-0.42632577
43	0x3fcabbe4	1.583859
44	0xbe1f67ca	-0.15566936
45	0xbf8057e9	-1.0026828
46	0xc01f1529	-2.4856665
47	0x3f7da558	0.9908042
48	0x3f6a096b	0.9142062
49	0xc02076bd	-2.5072472
50	0x3f2367cd	0.6383026
51	0xbf347e45	-0.7050517
52	0xbf2199fd	-0.6312559
53	0xbeb2a5a3	-0.34891996
54	0x3f5f0ce1	0.87129027
55	0x3f947c52	1.160044
56	0xbd15e116	-0.03659161
57	0xbef9bbcc	-0.4877609
58	0x3e1f88de	0.15579554
59	0xbf363949	-0.7118116
60	0xbf70ff7e	-0.9413985
61	0xbc334e60	-0.010943979
62	0x3ed488ec	0.41510713
63	0x3f924c89	1.1429607
64	0xbffe6a35	-1.9876162
65	0xc0211d27	-2.5174043
66	0xbfa96128	-1.3232775
67	0xbbdd8822	-0.006760613
68	0x3f23289e	0.6373385
69	0x3fab13c5	1.3365408
70	0xbdd5f1b7	-0.10446494
71	0x3f883c0d	1.0643326
72	0xbedd70e6	-0.43250197
73	0xbf4c9382	-0.7991258
74	0xbfcc9557	-1.5983075
75	0xbfe92861	-1.8215448
76	0x3f801aac	1.000814
77	0xbfe0ffcb	-1.7578062
78	0xc009fc53	-2.1560256
79	0x3f80c288	1.0059366
80	0xbeea735b	-0.45791134
81	0xbfd75067	-1.6821412
82	0x3e866ef8	0.26256537
83	0x3e93140a	0.28726226
84	0xbee50f1f	-0.447381
85	0xbf6cbaef	-0.9247274
86	0x3e9be568	0.3044846
87	0xbf238599	-0.6387573
88	0x3baf5caa	0.0053516226
89	0xbf70b08b	-0.94019383
90	0xbe5efe9b	-0.21776812
91	0xbf4b5437	-0.79425377
92	0xbf304225	-0.6885093
93	0xbf602375	-0.87554103
94	0xbf0fdf75	-0.56200343
95	0x40140827	2.3129976
96	0xbed9aba2	-0.42513758
97	0xbf722fcd	-0.9460419
98	0x3e674ec2	0.22588637
99	0xbdea4ed8	-0.114408195
100	0x3f8854c0	1.0650864
101	0xbefdb115	-0.49549165
102	0xc0738ac2	-3.805344
103	0xbf44b6d8	-0.768415
104	0xbf8ec3e2	-1.1153529
105	0xbf2152ec	-0.63017154
106	0x3ebccc00	0.3687439
107	0x3f0d4402	0.55181897
108	0xbd821050	-0.063507676
109	0xbdd8f182	-0.10592939
110	0x3f0d44db	0.5518319
111	0xbfcd7ca4	-1.6053662
112	0xbfaabe2a	-1.3339283
113	0x3f312923	0.69203395
114	0x3ed01b21	0.40645698
115	0x40152dfa	2.3309312
116	0x3ee0d13d	0.43909636
117	0x3f999662	1.1999018
118	0xbd1565b0	-0.03647393
119	0x3fabb4cc	1.341455
120	0xc01363f0	-2.3029747
121	0x3fa4654a	1.2843411
122	0xbf80dac0	-1.0066757
123	0xbdb167cd	-0.086623766
124	0x3f86b695	1.052447
125	0xbf0835ba	-0.5320698
126	0x3f25181d	0.6448992
127	0xbfa159a2	-1.2605479

feature.2.weight f4 [128, 128]
0	0xbdbf4072	-0.09338464
1	0xbf3d0816	-0.73840463
2	0xbdb0492d	-0.08607707
3	0x3d55f48f	0.052235182
4	0xbea41b5c	-0.32052124
5	0x3ddbae0f	0.107265584
6	0xbd503d9d	-0.05084001
7	0xbf864fce	-1.0493104
8	0x3c6beff5	0.014400472
9	0xbe82932e	-0.25502914
10	0xbe09a78f	-0.13442825
11	0xbe889cd9	-0.26682165
12	0x3e077926	0.13229808
13	0xbd853b65	-0.06505469
14	0x3c0b3ba1	0.008498103
15	0x3c86c877	0.016453011
16	0x3da136c6	0.07871775
17	0xbd91c696	-0.071179554
18	0x3f2876e3	0.65806407
19	0xbe64d36b	-0.22346275
20	0x3f5e09b2	0.86733544
21	0xbe6c3211	-0.23065974
22	0xbfa57295	-1.2925593
23	0x3b705eac	0.0036677523
24	0xbeb2f90e	-0.3495564
25	0xbcd34d9a	-0.02579384
26	0x3c585a68	0.013205148
27	0x3ccc6ac7	0.02495326
28	0x3d01bd6c	0.031674787
29	0xbca86326	-0.02055509
30	0xbf15b2da	-0.5847603
31	0x3e91c6f0	0.2847209
32	0x3de17c24	0.11010006
33	0xbf06aff5	-0.5261224
34	0xbe604c55	-0.21904118
35	0xbd364955	-0.04450353
36	0xbdad3288	-0.08456904
37	0xbea36ba7	-0.3191807
38	0x3d8726c5	0.065991916
39	0x3d70072a	0.058600582
40	0xbdfdbdcd	-0.12389717
41	0xbe359cce	-0.17735597
42	0xbe8a2d62	-0.2698775
43	0xbdc36a65	-0.095417775
44	0xbd2bbf18	-0.041930288
45	0xbd893894	-0.067002445
46	0x3d45425b	0.048158985
47	0xbe2d8607	-0.16945659
48	0xbe78c14a	-0.24292484
49	0xbbc26835	-0.0059328326
50	0x3dcc4f9b	0.09976121
51	0xbec8961e	-0.3917703
52	0x3d69b5f4	0.05705829
53	0x3d181e4b	0.037138265
54	0xbe05fbaf	-0.13084291
55	0xbd9d5bc0	-0.076835155
56	0xbe54a35f	-0.20765446
57	0xbf1dd02c	-0.6164577
58	0x3e0e146f	0.13874982
59	0xbe514ecc	-0.20440215
60	0x3e071402	0.13191226
61	0xbd46e495	-0.048557837
62	0xbe5196e6	-0.2046772
63	0x3e0b50ae	0.13604996
64	0xbe37823c	-0.17920774
65	0xbeaa40b5	-0.33252493
66	0xbde8c0ea	-0.113649204
67	0x3c381a3d	0.011236724
68	0xbe8e3dc2	-0.27781492
69	0xbe73a898	-0.23794782
70	0xbe807d61	-0.25095657
71	0xbf53f5cd	-0.8279694
72	0x3dcd235c	0.1001651
73	0xbe52a86e	-0.20572063
74	0x3dd94fed	0.10610948
75	0xbf03b7f7	-0.51452583
76	0xbf2f9e70	-0.6860113
77	0xbe903c1a	-0.28170854
78	0xbdb4a30f	-0.088201635
79	0x3ed6452c	0.4184965
80	0xbe9e690b	-0.30939516
81	0xbe34c74e	-0.17654154
82	0x3dcef13a	0.10104604
83	0x3d13cbdb	0.036083084
84	0x3ef20899	0.47272184
85	0xbecc572d	-0.3991026
86	0xbf8504e1	-1.0392114
87	0xbf33100c	-0.6994636
88	0xbb20972f	-0.0024504175
89	0x3e9a879a	0.3018158
90	0x3e172a5b	0.14762251
91	0xbe12c680	-0.14333534
92	0xbf60a57d	-0.87752515
93	0xbda167b7	-0.0788111
94	0xbe380fa7	-0.17974721
95	0x3f0a28e5	0.5396865
96	0xbe1115eb	-0.14168517
97	0x3e669815	0.22518952
98	0xbe50c5b8	-0.20387924
99	0xbe9ec3bf	-0.31008717
100	0xbe17e65a	-0.14833966
101	0x3e27c3b2	0.16383246
102	0x3ca07ec4	0.019591697
103	0xbe1c7f81	-0.15283014
104	0xbf170877	-0.5899729
105	0xbe079d57	-0.13243614
106	0xbf11bf9c	-0.56933
107	0x3b31c0ed	0.002712305
108	0x3e7db0d0	0.2477448
109	0x3d93dffe	0.072204575
110	0x3d495be8	0.049159914
111	0xbf43b5ca	-0.76449263
112	0xba9bd3db	-0.0011888699
113	0xbe83eb2e	-0.25765365
114	0xbf85929b	-1.0435365
115	0x3c997407	0.018732084
116	0xbf1bc34f	-0.6084489
117	0xbe6d4c7a	-0.23173705
118	0xbdb40a3c	-0.087910146
119	0x3c39889b	0.011324073
120	0xbe895895	-0.26825395
121	0xbff26dbd	-1.893974
122	0xbecda6c6	-0.401663
123	0x3e4c1b68	0.1993233
124	0x3f37a06b	0.71729153
125	0xbd831499	-0.06400413
126	0x3f0967c0	0.53673935
127	0xbd300ca8	-0.04298082
128	0xbe752ff5	-0.23944075
129	0x3d0eb312	0.034838744
130	0x3e269046	0.16265973
131	0x3ed37c0a	0.41305572
132	0x3c4a9938	0.012365632
133	0xbe39d88d	-0.18149014
134	0xbdfad8ec	-0.12248406
135	0x3e63979d	0.22225805
136	0xbf29df30	-0.6635618
137	0xbda28a2f	-0.07936513
138	0xbedbcadf	-0.42928216
139	0x3e3ddf72	0.18542269
140	0xbdfda5e4	-0.12385157
141	0x3e5839d4	0.2111581
142	0x3d82f91b	0.06395169
143	0x3d236d1f	0.039898988
144	0xba968a80	-0.0011485368
145	0xbe2bd342	-0.16779807
146	0xbe76c4af	-0.24098466
147	0x3f00f937	0.5038027
148	0xbe159132	-0.14606169
149	0xbe818831	-0.25299218
150	0xbe771303	-0.24128346
151	0xbe38ab6d	-0.18034144
152	0xbe988972	-0.29792362
153	0xbdf14668	-0.11781007
154	0x3d33c256	0.043886505
155	0xbe47b44b	-0.1950237
156	0xbe4aa3db	-0.19789068
157	0xbf135635	-0.57553416
158	0xbdad3807	-0.08457952
159	0xbd9429a6	-0.07234506
160	0xbe9d1dbd	-0.3068675
161	0xbea0e8cf	-0.3142762
162	0xbe35a7d8	-0.17739809
163	0x3c62807b	0.013824577
164	0x3e99f529	0.30069855
165	0x3d99df6c	0.075133175
166	0xbed12375	-0.40847364
167	0xbe42d340	-0.19025898
168	0xbe1eb4fa	-0.15498725
169	0xbf309cd5	-0.68989307
170	0xbdff19bb	-0.124560796
171	0xbe388494	-0.18019325
172	0x3d98df1a	0.07464428
173	0xbfafe965	-1.3743101
174	0x3e2714a7	0.16316472
175	0xbe900751	-0.28130582
176	0xbd7ee8ac	-0.062233612
177	0x3d15b544	0.03654982
178	0x3e410d18	0.18852651
179	0xbeb42bf3	-0.3518978
180	0xbd195bd7	-0.0374411
181	0x3ca95325	0.02066953
182	0xbd4f0d85	-0.050550003
183	0xbd991745	-0.074751414
184	0xbd1838fd	-0.037163723
185	0x3d08954e	0.033345513
186	0x3e502772	0.20327547
187	0xbdcaf301	-0.099096306
188	0xbdc12fcc	-0.09432945
189	0xbc0d2690	-0.008615151
190	0xbda20d71	-0.0791272
191	0xbca49110	-0.020088702
192	0x3dfb98a4	0.12284973
193	0x3ecf56e4	0.4049598
194	0xbd62580b	-0.055259746
195	0xbd9e3cf8	-0.077264726
196	0x3ef1c967	0.4722397
197	0xbcaa5860	-0.020794094
198	0xbea9ba10	-0.33149767
199	0x3d5871d9	0.05284295
200	0xbf0e1282	-0.5549699
201	0xbd2f8e87	-0.042860534
202	0xbcbd245b	-0.023088625
203	0x3f3dcaab	0.7413737
204	0x3ccf6355	0.02531592
205	0xbce65aaf	-0.028119413
206	0x3dbdb849	0.09263665
207	0xbdb10df7	-0.08645242
208	0x3e5b31ab	0.21405666
209	0xbf7d45ae	-0.9893445
210	0xbf0ecc2a	-0.5578028
211	0xbc8c6ee9	-0.01714273
212	0x3ea8b330	0.3294921
213	0xbf47b57a	-0.78011286
214	0xbec2e37f	-0.3806419
215	0xbd7ea8cc	-0.062172696
216	0xbd1ed02e	-0.038772754
217	0xbd05b90d	-0.03264718
218	0x3db5b337	0.08872073
219	0xbd04d676	-0.03243109
220	0x3f461a60	0.77383995
221	0xbe3204b3	-0.17384605
222	0x3c862c4d	0.016378546
223	0xbe3dcb28	-0.18534529
224	0xbedba8dc	-0.42902267
225	0xbf025989	-0.5091787
226	0xbdd6c17f	-0.10486125
227	0xbf0683ff	-0.5254516
228	0xbe317b59	-0.1733221
229	0xbf586864	-0.8453429
230	0x3dc4bfd5	0.096069016
231	0x3deaa876	0.114579126
232	0xbceadb81	-0.02866912
233	0xbe840f54	-0.25792944
234	0xbd89a00b	-0.06719979
235	0xbed46531	-0.41483453
236	0x3dfae636	0.122509405
237	0x3d9d58bb	0.076829396
238	0xbe4e1d41	-0.20128347
239	0xbd0df0e9	-0.034653578
240	0xbe75461b	-0.23952524
241	0xbe1879f0	-0.14890265
242	0xbe3ddc7a	-0.18541136
243	0xbe58515e	-0.21124789
244	0x3e077571	0.13228394
245	0x3d99e37c	0.07514092
246	0xbba44a30	-0.0050137267
247	0xbf1ec7b1	-0.62023455
248	0xbe7a8304	-0.24464041
249	0x3e1a83c3	0.15089326
250	0xbd8b2c1a	-0.06795521
251	0xbf37d757	-0.7181296
252	0xbe5c4b1f	-0.21513031
253	0xbf63594a	-0.8880812
254	0xbe57a52a	-0.21059099
255	0xbf0361fe	-0.513214

feature.2.bias f4 [128]
0	0xbe1cf726	-0.15328655
1	0xbe02d228	-0.12775481
2	0x3f5f7bf9	0.8729854
3	0x3fdb3a57	1.7127179
4	0xbb881768	-0.004153181
5	0xbd40542c	-0.046955273
6	0xbcc4c54e	-0.024019863
7	0x3f0f124a	0.5588728
8	0x3e77a3f8	0.24183643
9	0xbe6e43c7	-0.23268043
10	0x3f0d2112	0.55128586
11	0x3e25bfe0	0.16186476
12	0x3e13e3fa	0.14442435
13	0xbed42fd2	-0.41442734
14	0xbe5227c4	-0.20522982
15	0x3cd12399	0.02552967
16	0xbca3bc4e	-0.019987252
17	0xbf00191d	-0.5003832
18	0xbd33d66a	-0.043905653
19	0x3f94ede2	1.1635096
20	0xbe2c47c5	-0.16824253
21	0xbe13a3e7	-0.14417993
22	0xc01f849b	-2.4924686
23	0xbe043d41	-0.12913992
24	0xbe138583	-0.144064
25	0xbe011a4c	-0.12607688
26	0xbe1d9d78	-0.15392101
27	0xbef91850	-0.4865136
28	0xba84933c	-0.001011468
29	0x3f490839	0.7852817
30	0xbe2a2c11	-0.16618372
31	0x3e9c6a5d	0.305499
32	0xbb22bd21	-0.0024831968
33	0x3ecf66f6	0.4050824
34	0x3e283edc	0.16430229
35	0xbd94bebf	-0.072629444
36	0x3ec8650a	0.39139587
37	0x3e9c32c0	0.3050747
38	0x3de2fdba	0.11083551
39	0x3e63c47c	0.22242922
40	0xbe01b038	-0.12664878
41	0x3d7546a1	0.05988181
42	0x3e3fadf0	0.18718696
43	0xbddd8888	-0.10817057
44	0x3e10cad1	0.14139868
45	0xbe1aa5d4	-0.15102321
46	0xbea7ad76	-0.32749528
47	0x3d0f0515	0.034916956
48	0xc025bace	-2.5895267
49	0xbe76dfaf	-0.24108766
50	0xbfbf487f	-1.4943999
51	0xbf5457db	-0.82946557
52	0xbd8d8d88	-0.069117606
53	0x3ebfcdb9	0.3746164
54	0x3d9deafa	0.07710834
55	0x3ea4456c	0.32084215
56	0x3d9820ad	0.074281074
57	0xbee2e59c	-0.44315803
58	0x3e049cbb	0.12950413
59	0xbe2b1052	-0.16705444
60	0xbd548526	-0.051884793
61	0xbd461db7	-0.048368182
62	0xbd2dafe9	-0.04240409
63	0x3f7f9791	0.99840647
64	0x3e5855f1	0.21126534
65	0xbdf02b39	-0.11726994
66	0xbe40e6d2	-0.18838051
67	0xbd97db2e	-0.07414852
68	0xbd4395ea	-0.04775039
69	0xbbeb15ab	-0.007174214
70	0xbe170db9	-0.14751329
71	0xbe1fe169	-0.15613331
72	0x3e69ba52	0.22824982
73	0xbf2b016e	-0.66799057
74	0x3e8101bd	0.2519664
75	0xbd568afd	-0.052378643
76	0xbe0cd0e8	-0.13751566
77	0x3e226da1	0.15862133
78	0x3ecbae95	0.39781633
79	0xbe1232c4	-0.14277178
80	0x3ef6e580	0.4822197
81	0x3e3aebc4	0.18254
82	0xbee3d278	-0.44496512
83	0xbd9d067e	-0.07667254
84	0xbdd712a1	-0.105016
85	0xbda6d39b	-0.08145829
86	0x3eec5949	0.4616187
87	0x3e813260	0.25233746
88	0xbe6e4f46	-0.23272428
89	0xbf13ab15	-0.57682925
90	0xbd23b52a	-0.039967693
91	0x3e98a385	0.29812256
92	0xbd25e08f	-0.04049736
93	0x3f868c97	1.0511655
94	0xbf8729e6	-1.0559661
95	0xbcf08553	-0.029360449
96	0xbe2d4104	-0.16919333
97	0xbd8bdcf7	-0.06829255
98	0x3e8a5ecb	0.27025446
99	0x3f20ccce	0.6281251
100	0xbd83fa94	-0.06444278
101	0xbf0d3f22	-0.5517446
102	0x3f3303cf	0.69927686
103	0x3f171e67	0.59030765
104	0x3f9ac0dd	1.2090107
105	0xbdef2226	-0.11676435
106	0x3ec79939	0.38984087
107	0xbe2abf53	-0.16674547
108	0x3ea58a22	0.3233195
109	0x3b9068ad	0.0044070096
110	0xbd689b12	-0.05678851
111	0xbe1639c2	-0.1467047
112	0x3f3d6b51	0.73991877
113	0xbdf91b03	-0.12163355
114	0xbee99777	-0.4562337
115	0x3c1663d0	0.009179071
116	0x3e89356f	0.2679858
117	0x3da4e94b	0.080523096
118	0x3f0e8bdf	0.55682176
119	0xbca5b640	-0.020228505
120	0xbd737f5a	-0.059447624
121	0x3ebaa4e3	0.36453924
122	0xbda92861	-0.08259655
123	0xbdc45f46	-0.095884845
124	0x3e45ca74	0.19315511
125	0xbe1326cd	-0.1437027
126	0xbc01d44f	-0.0079241535
127	0xbef25b3e	-0.47335237

value.0.weight f4 [64, 128]
0	0x3f207cdc	0.6269052
1	0xbc14b1a5	-0.009075557
2	0xbf89c0eb	-1.0761999
3	0xbf5f1362	-0.8713895
4	0xbca5fa72	-0.020261023
5	0xbdb5fb51	-0.088858254
6	0xbe0d8dfc	-0.13823694
7	0xbf61acc5	-0.8815425
8	0xbf3d9623	-0.74057215
9	0x3d34c669	0.04413453
10	0xbe516605	-0.20449074
11	0x3b35f9d5	0.002776732
12	0xbf2fc62a	-0.6866175
13	0xbd968220	-0.07349038
14	0xbf24c5a2	-0.64364064
15	0xbf389638	-0.72104216
16	0xbbff7892	-0.0077963555
17	0xbf5fad05	-0.8737338
18	0x3c81896a	0.015812594
19	0xbfe40c8d	-1.781633
20	0xbec8128e	-0.39076656
21	0xbda11313	-0.07864966
22	0xc03f107b	-2.985381
23	0xbb957900	-0.0045615435
24	0xbef537eb	-0.47894225
25	0xbc84e0ba	-0.01622044
26	0x3da8f2ec	0.08249459
27	0xbe556f90	-0.20843339
28	0xbc8aaba0	-0.01692754
29	0xbbdcb899	-0.006735873
30	0x3c069700	0.008214712
31	0xbf9562c9	-1.1670772
32	0xbd78dacc	-0.060755536
33	0xc002f448	-2.0461597
34	0xbde9271e	-0.11384414
35	0xbda05baf	-0.07829987
36	0xbc570fdd	-0.013126341
37	0xbf2a1b2b	-0.66447705
38	0xbf58b5f2	-0.84652627
39	0xbe49e612	-0.19716671
40	0xbe2285f5	-0.15871413
41	0xbeae8905	-0.34088913
42	0xbdba9b68	-0.09111673
43	0xbd6e4dc2	-0.058179624
44	0xbf112b44	-0.56706643
45	0xbdcd664d	-0.10029278
46	0xbcaeb6af	-0.021327345
47	0x3d84cf4a	0.0648485
48	0x3e188aff	0.14896773
49	0xbf7be07a	-0.983894
50	0xbf748981	-0.95522314
51	0xbe8c76ee	-0.27434486
52	0xbc971070	-0.018440455
53	0xbeaf2372	-0.3420673
54	0xbeb7c5d4	-0.35893118
55	0xbfe06969	-1.7532169
56	0xbf398685	-0.72470886
57	0x3fc333dc	1.5250201
58	0xbebf7615	-0.37394777
59	0x3d158012	0.03649909
60	0x3d144cf4	0.0362062
61	0x3a877480	0.0010334402
62	0x3d520952	0.05127842
63	0xbfb700af	-1.4297084
64	0xbe61a528	-0.22035658
65	0x3d92076b	0.07130321
66	0x3d642c4a	0.0557063
67	0x3c8c4954	0.01712481
68	0xbea54708	-0.32280755
69	0x3d13c68b	0.036078017
70	0x3dcb71a2	0.09933783
71	0xbddcaa77	-0.10774701
72	0xbeb1de4d	-0.34739915
73	0x3f09b99a	0.5379883
74	0xbf4d0549	-0.8008619
75	0xbd009d39	-0.03139994
76	0xbe479ad6	-0.19492659
77	0xbe1a0329	-0.15040268
78	0xbef65dc4	-0.48118412
79	0x3d86799a	0.065661624
80	0xbf410b2a	-0.7540766
81	0xbc19318e	-0.009350194
82	0x3f594bf8	0.84881544
83	0x3d76fffc	0.06030272
84	0x3ccf6a1a	0.025319148
85	0xbd48f0d3	-0.049057793
86	0xbeaf660b	-0.3425754
87	0xbe2838f8	-0.16427982
88	0xbe6e1d45	-0.23253353
89	0x3e4dbc13	0.20091276
90	0xbc86760f	-0.016413717
91	0x3eb7bcc8	0.35886216
92	0xbeb6bc48	-0.35690522
93	0x3d48d0b6	0.049027167
94	0xbd1f78ff	-0.03893375
95	0xbed5374a	-0.41643745
96	0x3c68963f	0.014195978
97	0x3e7e4661	0.24831535
98	0x3eac9374	0.33706248
99	0xbd3a8685	-0.045538444
100	0xbebf2086	-0.373295
101	0xbe7e94c1	-0.24861433
102	0xc000c17e	-2.0118098
103	0xbf5ba88f	-0.85804075
104	0xbe4a3b70	-0.19749236
105	0x3ccdc12c	0.025116526
106	0xbee248bd	-0.4419612
107	0xbf7229fc	-0.94595313
108	0xbfb29eb1	-1.3954679
109	0x3d9e6f03	0.077360176
110	0x3d491249	0.049089704
111	0x3d49d193	0.04927213
112	0xbe89e764	-0.2693435
113	0xbcccfc72	-0.025022719
114	0xbe8672d5	-0.26259485
115	0xbe7e50ad	-0.24835463
116	0xbe8d6c96	-0.27621907
117	0xbf7c839b	-0.98638314
118	0x3e5c2476	0.21498284
119	0xbd6442da	-0.055727817
120	0x3f414cbc	0.7550771
121	0x3edcc36c	0.43117845
122	0x3d8e984d	0.06962643
123	0x3d27eafd	0.040995587
124	0xbe43c95c	-0.19119781
125	0xbd94473a	-0.07240148
126	0x3cd76e48	0.026297703
127	0x3f24ed32	0.6442443
128	0xbdabad27	-0.083826356
129	0xbd0bae68	-0.034101874
130	0xbe0ff5e4	-0.14058644
131	0xbf45b48d	-0.77228624
132	0xbd9e9fe4	-0.077453405
133	0xbdb374ac	-0.08762488
134	0xbe9a8f3d	-0.30187407
135	0xbcb537b6	-0.022121292
136	0x3e87e510	0.26541948
137	0x3a034bde	0.00050085585
138	0xbf068a23	-0.5255453
139	0xbea10be7	-0.31454393
140	0x3db94d50	0.09047949
141	0x3ca8ed34	0.02062092
142	0xbdfe2301	-0.1240902
143	0xbd87c6c3	-0.06629708
144	0xbd90314e	-0.07040654
145	0x3e4a8594	0.19777519
146	0x3d57787f	0.05260515
147	0xbb0cca49	-0.0021482876
148	0xbda54ecd	-0.08071671
149	0xbd6909b9	-0.056894038
150	0x3f938c06	1.1527107
151	0x3ac05800	0.0014674664
152	0xbef0f82c	-0.4706434
153	0xbe0e36dc	-0.13888115
154	0xbd0ebf88	-0.034850627
155	0xbdd7db54	-0.105398804
156	0x3b1ce3e9	0.0023939556
157	0xbe20523b	-0.15656368
158	0xbd7e5b0e	-0.062098555
159	0xbd88ec2f	-0.066856734
160	0x3d4a289a	0.049355127
161	0xbe104079	-0.14087094
162	0x3ebade21	0.36497596
163	0x3d4373d3	0.04771788
164	0xbd9331fd	-0.07187269
165	0xbe825a47	-0.254595
166	0xbde57748	-0.11204392
167	0xbd278967	-0.04090252
168	0xbe0e010d	-0.13867588
169	0xbe3502f9	-0.17676915
170	0xbd1d5338	-0.03840944
171	0xbd2a6940	-0.04160428
172	0xbdd7dcaf	-0.10540139
173	0x3d3ce566	0.04611721
174	0x3d9226f5	0.07136337
175	0xbdf06453	-0.11737885
176	0xbe28b3dc	-0.16474861
177	0x3d31b66e	0.04338687
178	0xbac871b1	-0.0015292672
179	0xbdcf23ce	-0.10114251
180	0x3d58dac6	0.052943014
181	0xbe870606	-0.26371783
182	0xbe42ec23	-0.19035392
183	0xbd6d05ef	-0.057866987
184	0xbe01799c	-0.12644047
185	0x3f5ec4d9	0.87019116
186	0x3d2c85a5	0.04211964
187	0x3da281a5	0.07934884
188	0xbd0dbc91	-0.03460366
189	0xbdb187d3	-0.086684845
190	0xbd5e266f	-0.054235872
191	0xbf904143	-1.1269916
192	0xbd635c8c	-0.05550818
193	0xbbafc2b0	-0.0053637847
194	0x3d7bc436	0.06146642
195	0xbd581acf	-0.05275994
196	0xbe3e3d17	-0.18577991
197	0x3d1d83be	0.038455717
198	0x3bf5fb90	0.007506795
199	0x3de7e078	0.11322111
200	0x3d14048b	0.036137145
201	0x3daa349c	0.08310816
202	0xbef97856	-0.48724622
203	0x3d649a2d	0.055811096
204	0xbd99e70d	-0.075147726
205	0xbeaf3d70	-0.3422656
206	0xbd758146	-0.059937738
207	0x3dc4a917	0.09602564
208	0xbee1d31a	-0.4410637
209	0x3d12fff7	0.03588864
210	0x3e1f477e	0.15554616
211	0x3db3d4d3	0.087808274
212	0xbd0941a4	-0.033509865
213	0x3d0ed4e8	0.034871012
214	0xbe9b45a0	-0.30326557
215	0xbe304205	-0.17212684
216	0xbd98faa4	-0.07469681
217	0x3de72721	0.1128676
218	0xbc1ec679	-0.009690874
219	0xbd471d8a	-0.048612155
220	0x3d690ee4	0.056898966
221	0xbee871da	-0.45399362
222	0xbe99407e	-0.29932016
223	0x3ec12cf5	0.37729612
224	0x3cef7c27	0.029234005
225	0x3c5dcce7	0.013537622
226	0x3e9e0b62	0.3086806
227	0xbe176e4b	-0.14788167
228	0xbc9ede2c	-0.01939305
229	0xbe4d6367	-0.2005745
230	0xbc13c806	-0.009019857
231	0xbe903330	-0.28164053
232	0xbe7007cd	-0.23440476
233	0x39c9a800	0.00038462877
234	0xbe31c481	-0.17360117
235	0xbe30e4f6	-0.17274842
236	0xbce8a3ed	-0.028398478
237	0xbd8a6618	-0.06757754
238	0xbc8fd668	-0.017558292
239	0x3d7d70ce	0.061875157
240	0xbea12fc2	-0.3148175
241	0xbd9a591d	-0.07536528
242	0xbe2c1056	-0.16803107
243	0xbc99a61d	-0.018755967
244	0xbdcbccc7	-0.099511676
245	0xbe59f22d	-0.21283789
246	0xbf1b5017	-0.6066908
247	0xbade1de1	-0.001694616
248	0xbe2f7c0d	-0.17137165
249	0xbd38d72f	-0.04512709
250	0xbd869274	-0.065709025
251	0x3db19b7f	0.08672237
252	0xbdc97c56	-0.09838168
253	0xbcccad5c	-0.024985008
254	0xbc874b54	-0.016515411
255	0xbe16f3fe	-0.14741513

value.0.bias f4 [64]
0	0x3ce032f8	0.027368054
1	0xbf2f6565	-0.6851409
2	0x3fc71549	1.5553371
3	0xbfdc1659	-1.719432
4	0x3fbe8c9e	1.4886663
5	0x3f56d040	0.83911514
6	0xbe76593c	-0.24057478
7	0xbe06cd0a	-0.13164154
8	0x3f2b6812	0.66955674
9	0xbfd06185	-1.6279761
10	0xbf63d9c2	-0.8900415
11	0x3f6ba7d4	0.9205296
12	0xbfead956	-1.8347576
13	0x3d587600	0.05284691
14	0x40157c91	2.335728
15	0xbdd512f2	-0.10404004
16	0x3fb2f066	1.3979614
17	0x3fa8871a	1.316623
18	0x3f11cee8	0.5695634
19	0xc01bf396	-2.4367423
20	0x3e89cb32	0.26912838
21	0x3fb8326b	1.4390386
22	0xbfb1349f	-1.3844184
23	0x3d1938ea	0.037407793
24	0x3f0e8e30	0.5568571
25	0xbe81c3f6	-0.2534482
26	0x3f87242c	1.0557914
27	0x3e928d49	0.28623417
28	0x3f66cdd4	0.9015782
29	0xbdba2fb4	-0.0909113
30	0x3f7ae84f	0.98010725
31	0xbe703c3f	-0.23460482
32	0x3f120efb	0.5705411
33	0x3da3e2c2	0.08002235
34	0x3e815aee	0.25264686
35	0x3f132783	0.57482165
36	0x3f771f07	0.9653172
37	0x3e6ed5c3	0.23323731
38	0xbef409cf	-0.47663733
39	0xbef4b900	-0.47797394
40	0x3f46c895	0.77649814
41	0xbf4e292c	-0.80531573
42	0x3e60e165	0.21960981
43	0xbe14a8d7	-0.14517532
44	0x3fa92384	1.3213964
45	0xbe4f486b	-0.20242469
46	0x3f5911fb	0.8479306
47	0xbe9274ca	-0.28604728
48	0x3f7cf7f6	0.9881586
49	0xbfd077bf	-1.6286544
50	0xbe0ff4a9	-0.14058174
51	0x3ea90d0a	0.3301776
52	0x3f89fb82	1.0779879
53	0x3f57209a	0.8403412
54	0xbef6b021	-0.4818125
55	0xbea234da	-0.31680948
56	0xbd98dd88	-0.07464129
57	0xbfef8803	-1.8713382
58	0x3f6b9e71	0.9203864
59	0xbfd70c33	-1.6800598
60	0xbeef6bd1	-0.46761945
61	0xc0077ca3	-2.1169822
62	0xbfb2b248	-1.3960657
63	0xbf0cc75d	-0.54991704

value.2.weight f4 [1, 64]
0	0xbfea8547	-1.8321923
1	0x3fd05e0c	1.6278701
2	0xbf0e5f85	-0.556145
3	0x401e887e	2.4770808
4	0x3fabf526	1.3434188
5	0x3f6ad375	0.9172891
6	0xbcb0670b	-0.02153351
7	0xbf12f5a8	-0.5740609
8	0xbfb204bb	-1.3907694
9	0xbeff8389	-0.4990504
10	0x3f0dd220	0.5539875
11	0xbed546a8	-0.4165547
12	0x3f377e3c	0.71676993
13	0xbf0d9398	-0.55303335
14	0xbed295ba	-0.41129857
15	0x3cf82d22	0.030294959
16	0xbe0c339d	-0.13691564
17	0xbdda0eea	-0.10647376
18	0x3fb32b7f	1.3997649
19	0x3f4261cf	0.75930494
20	0xbfe60b00	-1.7972107
21	0x3fc759e4	1.5574307
22	0x3f1d9329	0.61552674
23	0xbfaece71	-1.3656751
24	0xc015a9b6	-2.3384833
25	0x3f683ee1	0.90720946
26	0xbdfc5591	-0.12321008
27	0xbf830118	-1.0234709
28	0xbe3cd819	-0.1844181
29	0xbbb15b1f	-0.005412474
30	0xbe247ae5	-0.16062506
31	0xb9fc5437	-0.0004812793
32	0x3f7dd16a	0.99147666
33	0xbf097c3f	-0.5370521
34	0x3f034ae3	0.51286143
35	0x3f21dd15	0.6322797
36	0xbe350424	-0.17677361
37	0x3f7b306e	0.9812077
38	0xc00b8c3d	-2.1804345
39	0xbf1a9938	-0.60390043
40	0xbf1cd3af	-0.61260504
41	0xbfd56423	-1.6671184
42	0xbf8400ef	-1.0312785
43	0x3f139e82	0.5766374
44	0x3f59f451	0.8513842
45	0xbc5d1c1d	-0.013495472
46	0x3f51729e	0.81815517
47	0x3cb30fe2	0.02185816
48	0xbea4c625	-0.32182422
49	0x3f19afff	0.60034174
50	0xc0196911	-2.3970377
51	0xbf0932fa	-0.5359341
52	0xbe166626	-0.14687404
53	0xbe16a0d7	-0.14709793
54	0x3e9d4dd5	0.30723444
55	0xbd000ff9	-0.031265233
56	0xbf928917	-1.1448087
57	0x3f4bf906	0.79676855
58	0xbe12892f	-0.14310144
59	0x3f999d8d	1.2001206
60	0x3f1a8462	0.6035825
61	0xc05bc41e	-3.433845
62	0xbf581512	-0.8440715
63	0xbf4fd7f9	-0.81188923

adv.0.weight f4 [64, 128]
0	0xbe4667b2	-0.19375494
1	0x3d8263b2	0.063666716
2	0x3e239a24	0.15976769
3	0x3f06fea8	0.52732325
4	0x3995b0ca	0.00028551213
5	0x3b4f67e9	0.0031647629
6	0xbece0726	-0.4023983
7	0xbec881b4	-0.39161456
8	0x3e504d43	0.20341973
9	0x3d64299f	0.055703755
10	0x3f3abe5b	0.7294671
11	0xbdf050dd	-0.117341734
12	0xbeb85f2a	-0.36010104
13	0xbf4752ee	-0.77860916
14	0xbe7c38d3	-0.24631052
15	0xbf7cab56	-0.9869894
16	0xbd0f8538	-0.035039157
17	0xbeaaba6c	-0.33345354
18	0xbd8ebb1b	-0.06969281
19	0xbe2ae191	-0.1668761
20	0x3cc65b17	0.024213357
21	0xbd95d7e9	-0.07316572
22	0xbf5a4baa	-0.85271704
23	0x3ca28abb	0.019841542
24	0xbf04113e	-0.5158881
25	0x3a2b9f1f	0.0006546843
26	0xbdb33d8e	-0.08751975
27	0xbe4cf940	-0.20016956
28	0x3ed5fbf8	0.417938
29	0xbe540ce4	-0.20708042
30	0xbc1c220c	-0.009529602
31	0xbef32293	-0.47487316
32	0x3cabf492	0.020990644
33	0xbf70d75e	-0.94078624
34	0xbe25316c	-0.16132134
35	0xbf120959	-0.57045513
36	0xbfc4601a	-1.5341828
37	0xbf4175d1	-0.755704
38	0xbfaa7b79	-1.3318931
39	0xbe824645	-0.25444236
40	0xbdc1869d	-0.094495036
41	0xbdc62504	-0.09675029
42	0xbe8e3874	-0.27777445
43	0xbd5466ee	-0.051855974
44	0xbef8c839	-0.48590258
45	0x3d9c2851	0.07624877
46	0xbde7f30c	-0.113256544
47	0xbe8c7811	-0.27435353
48	0x3ca1feff	0.019774912
49	0xbf7a444d	-0.9776047
50	0xbed0845d	-0.40725985
51	0xbf031abb	-0.5121266
52	0x3d8cadf8	0.068691194
53	0xbea26630	-0.31718588
54	0xbe1f54a9	-0.15559639
55	0x3e311649	0.17293657
56	0x3ec22ae7	0.37923357
57	0x3f36df2e	0.71434295
58	0xbf0684a6	-0.52546155
59	0xbd4d3c4c	-0.05010633
60	0xbd900a9e	-0.07033275
61	0xbd845622	-0.06461741
62	0xbd670db7	-0.056409564
63	0xbf823562	-1.0172541
64	0xbf5d582b	-0.8646266
65	0x3b2a9880	0.0026030838
66	0x3c6bdf00	0.014396429
67	0x3d5c490d	0.053780604
68	0xbf413a85	-0.7547992
69	0xbd951f61	-0.07281376
70	0xbd894719	-0.06703014
71	0xbd7dbf64	-0.061950102
72	0xbfb39b4d	-1.4031769
73	0xbea86bfc	-0.32894886
74	0xbf6d64a4	-0.9273169
75	0x3cc8e497	0.024523063
76	0xbca4d62b	-0.020121654
77	0xbf532b90	-0.82488346
78	0x3eabec6d	0.33578816
79	0x3e67e5d2	0.22646263
80	0xbe29268b	-0.16518609
81	0xbe8af55a	-0.27140313
82	0x3f872554	1.0558267
83	0xbd20ef91	-0.03929097
84	0x3d65c2e2	0.056094058
85	0xbd890c17	-0.06691759
86	0xbef14966	-0.4712631
87	0xbf8da6e2	-1.1066554
88	0xbf43a7c8	-0.7642789
89	0xbee2d380	-0.44301987
90	0x3ab5dfa2	0.0013875852
91	0xc0da3c51	-6.819863
92	0xbe67a430	-0.22621226
93	0xbe958f2b	-0.2921079
94	0x3e26fce0	0.16307402
95	0xbe4ef747	-0.20211516
96	0xbd32f35b	-0.043689113
97	0xbeeffea4	-0.46873963
98	0xbf6ac8e1	-0.91712767
99	0xbf5e603e	-0.86865604
100	0x3f58c82f	0.84680456
101	0x3f99928b	1.1997846
102	0xbd8ebb7f	-0.06969356
103	0xbf533444	-0.82501626
104	0xc00150b2	-2.0205503
105	0xbd846db4	-0.06466237
106	0x3e6ec2b3	0.2331646
107	0x3cf04019	0.02932744
108	0xbe0e158d	-0.13875408
109	0x3d9b3594	0.075785786
110	0x3c25c768	0.010118343
111	0xbd605134	-0.05476494
112	0xbf1ae67e	-0.60507953
113	0xbd9e87cc	-0.07740745
114	0xbe86a7fd	-0.2630004
115	0xbdd7c4d8	-0.10535592
116	0xbfac4676	-1.3459003
117	0x3decbfda	0.1156003
118	0xbd81d9e4	-0.063403875
119	0xbccdd9b2	-0.02512822
120	0xbeb5d00d	-0.35510293
121	0xbea19400	-0.31558228
122	0xbb7e9c4b	-0.0038850482
123	0x3cf7a565	0.030230233
124	0xbe658847	-0.22415267
125	0xbbe9b610	-0.0071322992
126	0xbdaaa76c	-0.083327144
127	0xbeafecac	-0.34360254
128	0xbda04744	-0.07826093
129	0x3f21fca6	0.63276136
130	0xbea93bfe	-0.33053583
131	0xbf9df8c4	-1.2341542
132	0xbd07bf81	-0.033141617
133	0xbd47a22a	-0.048738636
134	0xbdfd9da4	-0.12383583
135	0xbebb626c	-0.36598527
136	0xbd6d8dfb	-0.05799673
137	0xbdc1ae48	-0.0945707
138	0xbef01d32	-0.46897274
139	0xbe9292bd	-0.28627577
140	0xbe044668	-0.12917483
141	0xbe1cd36e	-0.15315029
142	0xbe7be3cc	-0.24598616
143	0xbe997974	-0.29975474
144	0x3d76acd2	0.060223408
145	0xbf603a4b	-0.8758895
146	0xbd1603fc	-0.036624894
147	0xbf2217c4	-0.63317513
148	0xbdc55389	-0.09635074
149	0xbdb0d23e	-0.086338505
150	0x3f5ef9fe	0.8710021
151	0xbc4a1c08	-0.012335785
152	0xbd2d046b	-0.04224054
153	0x3d9c7629	0.07639725
154	0x3c9a8915	0.018864194
155	0xbe9dec7f	-0.30844495
156	0xbec20c38	-0.37899947
157	0xbdc578d5	-0.096421875
158	0x3d2c6566	0.04208889
159	0x3efc68bf	0.49298665
160	0xbd071988	-0.032983333
161	0xbf3c63f2	-0.73590004
162	0xbf431e2d	-0.7621792
163	0x3c954185	0.018219719
164	0xbdb56791	-0.08857644
165	0xbcab50bb	-0.020912519
166	0xbf69111f	-0.9104175
167	0xbdfd9597	-0.123820476
168	0x3d6a594d	0.05721407
169	0xbdd0c1eb	-0.10193237
170	0xbf0b7a5e	-0.5448359
171	0x3cbc132c	0.02295836
172	0xbdf58768	-0.11988717
173	0xbd4a2349	-0.049350057
174	0xbdfe9a67	-0.12431794
175	0xbe22ff7c	-0.15917772
176	0x3ec46bb4	0.3836342
177	0xbc25262b	-0.010079901
178	0x3f68c484	0.9092486
179	0xbedce8b6	-0.43146294
180	0xbc8a0d73	-0.016852116
181	0x3e98d8b8	0.29852843
182	0x3d9fd2cd	0.07803879
183	0x3e6c7b07	0.23093806
184	0xbdad67fe	-0.084671006
185	0x3e4206ed	0.18947954
186	0x3ef27c4b	0.47360453
187	0xbda6f639	-0.08152432
188	0x3d49e9a6	0.04929509
189	0xbd93e0db	-0.07220622
190	0x3ba8ffa0	0.005157426
191	0xbe87b65d	-0.2650632
192	0x3db2c23a	0.08728452
193	0xb9aee300	-0.00033356994
194	0x3d7baf57	0.061446514
195	0x3c439e28	0.011939563
196	0xbf82b7f8	-1.0212393
197	0x3d713aec	0.058894083
198	0xbd6af77f	-0.057364937
199	0x3c7676bf	0.01504296
200	0xbe64d956	-0.22348532
201	0x3e3b0433	0.1826332
202	0xbe414bf8	-0.18876636
203	0x3d398542	0.0452931
204	0xbd442d03	-0.04789449
205	0xbe8bac15	-0.27279726
206	0x3ebfeaea	0.37483913
207	0x3e9b1826	0.3029186
208	0xbc2762e0	-0.010216445
209	0xbe4787c8	-0.1948539
210	0x3f4f5dd1	0.8100253
211	0xbc8f1f88	-0.01747109
212	0x3d9d5dc3	0.07683899
213	0xbcf9726a	-0.030450065
214	0xbf32e82f	-0.69885534
215	0xbe9e7b6b	-0.30953535
216	0x3d929c69	0.07158739
217	0xbec0af01	-0.37633517
218	0x3d4b3e0a	0.049619712
219	0x3ce1f0a2	0.027580563
220	0xbe025e1a	-0.1273121
221	0xbeeb2aa8	-0.45930982
222	0x3e9a610d	0.3015217
223	0xbc99f4c4	-0.018793471
224	0xbd69d3a3	-0.057086598
225	0xbd0299bb	-0.03188489
226	0x3ed54de8	0.41661
227	0xbf58512e	-0.8449887
228	0x3e70d8ec	0.23520249
229	0xbe9d0323	-0.30666456
230	0x3caa4023	0.020782536
231	0xbf5443c3	-0.82915896
232	0xbf86bfb2	-1.0527251
233	0xbd7d8d8d	-0.06190257
234	0xbeb21f43	-0.34789476
235	0xbef2fc85	-0.47458282
236	0xbf3893ea	-0.721007
237	0xbcd27a70	-0.025693148
238	0xbae7c280	-0.0017681867
239	0x3d680f6a	0.056655325
240	0xbf1c6f4e	-0.6110734
241	0xbdab8954	-0.08375803
242	0xbdf1539d	-0.11783526
243	0xbdefa55d	-0.117014624
244	0x3e9dd004	0.30822766
245	0x3e476f6b	0.19476096
246	0xbe2b9864	-0.16757351
247	0xbd935845	-0.071945705
248	0x3cb5c06d	0.022186482
249	0xbd65fa1e	-0.056146733
250	0xbd6680de	-0.05627524
251	0xbd068d78	-0.03284976
252	0xbd866f15	-0.06564156
253	0x3da4043b	0.080086194
254	0x3b9953f0	0.0046791956
255	0x3e4664ef	0.1937444

adv.0.bias f4 [64]
0	0xbfe552fb	-1.7915949
1	0xbfef062d	-1.867376
2	0xbe51ed9d	-0.20500799
3	0xbf29e69b	-0.663675
4	0xbfa1b83d	-1.263435
5	0xbf2e8d57	-0.6818442
6	0xbfcbc33a	-1.5918953
7	0xbfffbe96	-1.9980037
8	0xbe2750df	-0.16339444
9	0xbf731aa0	-0.949625
10	0xbe530388	-0.20606816
11	0xbfb07bd0	-1.3787785
12	0xbec9fe72	-0.3945194
13	0xbdce9bb1	-0.100882895
14	0xbfa5da43	-1.2957233
15	0xbf4b4f80	-0.7941818
16	0xbeccaf0b	-0.39977297
17	0xc00fb023	-2.2451255
18	0xbd983fc7	-0.074340396
19	0xbfa6b3e8	-1.3023653
20	0xbdd4adce	-0.10384713
21	0xbef3cfbc	-0.47619426
22	0xbf49ca6a	-0.78824484
23	0xbf8024f2	-1.0011275
24	0x3ec6541a	0.3873604
25	0xbf281e88	-0.65671587
26	0xbe42651f	-0.18983887
27	0xbf06a2ee	-0.5259236
28	0xbf02855b	-0.50984734
29	0xbf8d0072	-1.1015761
30	0xc03086a5	-2.758218
31	0xbea20f52	-0.31652313
32	0x3e70842e	0.23487923
33	0x3d5253ae	0.051349334
34	0xbe9549ac	-0.2915777
35	0xbfe9661c	-1.8234286
36	0xbfabaa54	-1.3411355
37	0xbf782dfc	-0.96945167
38	0xbedae849	-0.42755345
39	0xbb161de0	-0.002290599
40	0xbf5e94d9	-0.86945873
41	0xbe094d33	-0.13408355
42	0xbfb31291	-1.3990041
43	0xbe1f8e4c	-0.15581626
44	0xbf00020f	-0.5000314
45	0x3df25e5d	0.118344046
46	0xbfb773b3	-1.4332184
47	0xbfa7e389	-1.3116313
48	0xc005c800	-2.090332
49	0xbda5bf8c	-0.08093175
50	0x3e374b93	0.17899923
51	0xbe20da3b	-0.15708248
52	0xbe90aacd	-0.2825531
53	0xbfb7b689	-1.435258
54	0xbebb1afb	-0.36544022
55	0xbe9f2660	-0.31083965
56	0xbf0eb4e3	-0.5574476
57	0xc0193256	-2.3936973
58	0xbd38d0ce	-0.045121007
59	0xbe686a48	-0.22696793
60	0xbad3f8a8	-0.0016172128
61	0xbeface17	-0.4898536
62	0xbe2ce95f	-0.16885899
63	0xbf010e1f	-0.5041217

adv.2.weight f4 [2, 64]
0	0xc08a7317	-4.326549
1	0x3fb76c04	1.4329839
2	0xc016d8e8	-2.356989
3	0xbf15e68f	-0.5855493
4	0xbeac9366	-0.33706206
5	0xbe22327c	-0.15839571
6	0x3fbe2dd0	1.4857731
7	0xc0169910	-2.3530922
8	0x3ec71f91	0.3889127
9	0x3fb6a5e3	1.4269375
10	0xbd9c0eb1	-0.0761999
11	0xbff6c838	-1.9279852
12	0x3f6ffc47	0.9374432
13	0x3e6c82b8	0.2309674
14	0xbfadf43a	-1.3590157
15	0xbfce4a07	-1.6116341
16	0xbe735cee	-0.23765919
17	0xbf88d183	-1.0688938
18	0xbf8c2b28	-1.095067
19	0x3f674890	0.90345097
20	0xbf8838e4	-1.0642362
21	0x3f10a7c7	0.5650601
22	0x3fd0ac1a	1.6302521
23	0xbf9c8723	-1.222874
24	0x3f12bbc6	0.5731777
25	0xbe90f030	-0.2830825
26	0xbf81166b	-1.0084966
27	0x3eb16e41	0.3465443
28	0x3f39e76f	0.72618765
29	0xbf84855f	-1.0353202
30	0xbfd63012	-1.673342
31	0x3f1d233c	0.6138189
32	0xbf7e5445	-0.99347335
33	0xbee86b2e	-0.45394272
34	0xbedc34a2	-0.43008906
35	0x3f93514e	1.1509187
36	0xc01c54ad	-2.4426682
37	0x400b0c06	2.1726089
38	0x3f3ab1a5	0.72927314
39	0x3fa205ee	1.265806
40	0x3f8ee3b1	1.1163236
41	0xbc37bb38	-0.01121407
42	0xc0077397	-2.11643
43	0x3d867145	0.06564573
44	0xbf294a9c	-0.6612947
45	0x3f655046	0.8957561
46	0xbf77bd16	-0.967729
47	0x40068779	2.1020186
48	0xc059b020	-3.4013748
49	0x3ffc028b	1.9688276
50	0x3f162e7a	0.5866467
51	0x3cfd8c74	0.030950762
52	0xbf58ff67	-0.84764713
53	0x3f99cc90	1.2015553
54	0xbddc621a	-0.10760899
55	0xbdfad5e2	-0.12247826
56	0x3f797fdf	0.9746074
57	0x3ff5ac11	1.9193135
58	0xbf3724d2	-0.7154056
59	0x3cac0e98	0.021003053
60	0xbf53b3ea	-0.826964
61	0x3f29d364	0.6633818
62	0xbbf157e4	-0.0073652137
63	0xbf727a05	-0.9471744
64	0x40885a78	4.2610435
65	0xbfb56166	-1.4170349
66	0x401aebc6	2.4206405
67	0x3f02f36b	0.51152676
68	0x3eceeede	0.40416616
69	0x3e547c8e	0.20750639
70	0xbfbe0f7a	-1.4848473
71	0x401b8662	2.430077
72	0xbe4f6148	-0.20251954
73	0xbfb2d751	-1.3971959
74	0xbd89cf21	-0.0672896
75	0x3fe81f42	1.8134539
76	0xbf65804b	-0.89648885
77	0xbe0e60cb	-0.13904111
78	0x3f9ded48	1.2338037
79	0x3fbfec0f	1.4993914
80	0x3e2481e7	0.16065179
81	0x3f91bae1	1.1385156
82	0x3f76adbe	0.9635886
83	0xbf7a2950	-0.9771929
84	0x3f63cb94	0.8898251
85	0xbf27eacf	-0.65592664
86	0xbfd463fc	-1.6593013
87	0x3f98c3f5	1.1934801
88	0xbf0743d8	-0.52837896
89	0x3e7af66f	0.2450807
90	0x3f4b90ba	0.7951771
91	0xbed7af4d	-0.4212593
92	0xbf2ace99	-0.66721493
93	0x3f82f877	1.0232075
94	0x3fc3bc02	1.529175
95	0xbf45a126	-0.7719902
96	0x3f77fc35	0.9686921
97	0x3f073403	0.5281374
98	0x3eb052bb	0.34438118
99	0xbf89b014	-1.075686
100	0x4015e0df	2.34185
101	0xc011f732	-2.2807126
102	0xbf54ee05	-0.8317569
103	0xbf99dc36	-1.2020328
104	0xbf8c91d1	-1.0982
105	0x3c16feb7	0.009216002
106	0x4005c86b	2.0903575
107	0x3caa70df	0.020805774
108	0x3f08931f	0.5334949
109	0xbf5d2bf2	-0.8639518
110	0x3f85f6db	1.0465959
111	0xc00609ef	-2.0943563
112	0x405b97da	3.4311433
113	0xbfec1653	-1.8444313
114	0xbf20c4a6	-0.6280006
115	0xbb6143c2	-0.0034372662
116	0x3f5edc35	0.8705476
117	0xbfaa4b68	-1.3304262
118	0x3d8c6334	0.06854859
119	0x3de37d47	0.11107879
120	0xbf8551e3	-1.0415615
121	0xbff84619	-1.9396392
122	0x3f320b16	0.69548166
123	0x3c49ef51	0.012325124
124	0x3f37d9ca	0.71816695
125	0xbf188f1c	-0.5959337
126	0x3c0f7846	0.008756703
127	0x3f827a3b	1.0193552

adv.2.bias f4 [2]
0	0xbe6a3b3e	-0.22874162
1	0x3da3c8a7	0.07997256
