positive_long/checkpoints/ep_0025.pt (torch, 145855 bytes, 11 tensors)

feature.0.weight f4 [128, 16]
0	0x3fafc50e	1.3732011
1	0xbf342814	-0.70373654
2	0xbeea77ce	-0.4579453
3	0xbf197f6a	-0.59960043
4	0xc04c1a77	-3.1891153
5	0x3f320c0a	0.6954962
6	0x3f950b3b	1.1644052
7	0x3f46dc2a	0.77679694
8	0x3f57ce18	0.8429885
9	0x3f47901a	0.77954257
10	0xbf3db9fa	-0.741119
11	0xbf6537a6	-0.8953804
12	0x3de3c57e	0.11121653
13	0x3ee9909f	0.4561815
14	0x40171548	2.360674
15	0xbf8d4828	-1.1037645
16	0x3e864951	0.2622781
17	0xbdbdfb74	-0.092764765
18	0xbee6cafe	-0.45076746
19	0xbe7ce630	-0.24697185
20	0x3eace203	0.33766183
21	0x3e6c3f88	0.2307111
22	0x3f22d597	0.6360716
23	0x3efbd4ee	0.4918589
24	0xbf5a0378	-0.8516154
25	0xbefb9057	-0.4913356
26	0xbe6c40c9	-0.23071589
27	0xbf1a07eb	-0.6016833
28	0xbeb587b5	-0.354551
29	0xbeca248a	-0.39481002
30	0x3e740a52	0.23832062
31	0xbf0351d8	-0.5129676
32	0xbeed3bd5	-0.4633471
33	0x3ea83527	0.32853052
34	0x3e86e7f7	0.2634885
35	0x3dd30c1e	0.103050455
36	0xbe61ac0c	-0.22038287
37	0x3e0eb4fa	0.13936225
38	0x3e699484	0.2281056
39	0x3ebd53d6	0.36978024
40	0x3e0bc835	0.13650592
41	0x3e1561a5	0.1458803
42	0x3f6bcde6	0.9211105
43	0x3f5795cd	0.8421295
44	0x3e316f41	0.17327596
45	0xbee5d676	-0.44890183
46	0xbee0eb9c	-0.43929756
47	0xbf112185	-0.5669177
48	0x3f612524	0.879473
49	0x3f1d1b26	0.6136955
50	0x3f38bd76	0.72164094
51	0x3f7249db	0.94643945
52	0x3fbc6e75	1.4721209
53	0xbf295586	-0.66146123
54	0xbe7ca1b8	-0.24671066
55	0xbe86d06c	-0.26330888
56	0x3f8148c2	1.0100329
57	0x3f8bc512	1.0919516
58	0x3ebeb4ad	0.3724722
59	0x3e213109	0.15741362
60	0x3f31f28c	0.6951072
61	0xbf5fc90b	-0.8741614
62	0x3ee9fc31	0.4570022
63	0xbf55b104	-0.8347323
64	0x3f940a48	1.1565638
65	0xbdfa9fa2	-0.12237479
66	0xbdde96c2	-0.108685985
67	0x3e346bab	0.17619197
68	0x3fa8a403	1.3175052
69	0xbd3f9292	-0.04677064
70	0xbe3ddab4	-0.1854046
71	0x3e105103	0.14093404
72	0x3f70b617	0.9402785
73	0x3f42c97d	0.76088697
74	0xbd2c9517	-0.04213437
75	0xbd266357	-0.04062208
76	0x3f06c396	0.5264219
77	0xc0bce408	-5.902836
78	0x3f27fbf6	0.65618837
79	0x3d407778	0.046988934
80	0x3eb75483	0.35806665
81	0x3e816d68	0.25278783
82	0xbb9d9862	-0.004809425
83	0x3dfa23c2	0.122138515
84	0xc009977a	-2.1498704
85	0x3f546f93	0.8298275
86	0x3f73724c	0.9509628
87	0x3f8ab681	1.0836946
88	0xbeafbaf5	-0.34322324
89	0xbe809580	-0.2511406
90	0x3eac68c5	0.33673683
91	0x3ee658ba	0.44989568
92	0x3ea38b7b	0.31942353
93	0x3eb88e67	0.36046144
94	0x3f8c994f	1.0984286
95	0xbf087db1	-0.5331679
96	0x3ef114aa	0.47086078
97	0xbeb5401f	-0.35400483
98	0xbe661e83	-0.22472577
99	0xbe0bc354	-0.1364873
100	0xbe9e22c3	-0.30885896
101	0xbcfb85e1	-0.030703487
102	0x3e0d7318	0.13813436
103	0x3e17f20a	0.14838424
104	0x3e3ab738	0.18233955
105	0x3e43a670	0.1910646
106	0x3ea71111	0.32630208
107	0x3dfb8d75	0.1228284
108	0x3e400085	0.18750198
109	0xbf0fd048	-0.56177187
110	0x3e008378	0.12550151
111	0xbf2572ff	-0.64628595
112	0x3e0f57bc	0.13998312
113	0xbe91eba9	-0.28500107
114	0xbe4dcf7d	-0.20098682
115	0xbe59c5db	-0.21266882
116	0xc014ea8f	-2.3268163
117	0xbe14b814	-0.14523345
118	0xbe39c29e	-0.18140647
119	0xbe29caa0	-0.16581202
120	0x3f22376d	0.63365823
121	0x3f6ea53b	0.9322087
122	0xbf7458ee	-0.95448196
123	0xbf9187b3	-1.1369537
124	0xbf847891	-1.0349294
125	0xbf852a1c	-1.0403476
126	0xbf9eaa95	-1.2395808
127	0x3e0460da	0.12927571
128	0xc03037c1	-2.753403
129	0xbeb2d37f	-0.34926984
130	0xbe99fbf3	-0.30075034
131	0xbeee67b9	-0.4656351
132	0x3ff7e82e	1.9367731
133	0xc030ca91	-2.7623637
134	0xc0452723	-3.0805137
135	0xc040f16b	-3.014735
136	0x3f00f91f	0.5038013
137	0x3f07b4e2	0.5301038
138	0x3ef634fd	0.48087302
139	0x3f0b817c	0.5449445
140	0xbeb57896	-0.35443562
141	0x3eb0991a	0.34491807
142	0x3e85734d	0.2606453
143	0x3a1313eb	0.0005610573
144	0xbff6e2b0	-1.928793
145	0x3f8016a6	1.0006912
146	0x3f54a1eb	0.8305957
147	0x3f6d1787	0.92614025
148	0x3fc00764	1.5002255
149	0xbd9610ed	-0.07327447
150	0xbd627af0	-0.055293024
151	0xbd218696	-0.03943499
152	0x3e658085	0.22412308
153	0x3d2a2ece	0.041548543
154	0x3ead1c65	0.33810726
155	0x3d423a3b	0.047418814
156	0x3f2c087a	0.67200434
157	0xbe9043d3	-0.28176746
158	0xbbc84484	-0.0061116833
159	0xbe82e66a	-0.25566417
160	0x3fac5cfb	1.3465875
161	0xbf7d1cd9	-0.98872143
162	0xbf6aed5b	-0.91768426
163	0xbf9fee67	-1.249463
164	0xbeac63a0	-0.33669758
165	0xbf0303be	-0.51177585
166	0xbee923e2	-0.4553519
167	0xbeb83d76	-0.3598439
168	0x3e21cb98	0.15800321
169	0x3db45cc5	0.08806757
170	0xbee89235	-0.45424047
171	0xbf08df84	-0.5346606
172	0xbe03ca7d	-0.12870212
173	0xbfb03ff7	-1.376952
174	0xbf442997	-0.7662596
175	0xbe1dc1cd	-0.1540596
176	0x3e12a8ed	0.14322253
177	0x3ba84156	0.005134742
178	0xbdc21688	-0.09476954
179	0xbb5e3dea	-0.0033911415
180	0x3fe04611	1.7521383
181	0x3e64ed66	0.22356185
182	0x3dfd374a	0.12364061
183	0xbd54a5f8	-0.051916093
184	0xbebb0644	-0.36528218
185	0xbf08526e	-0.5325078
186	0xbe0532ac	-0.13007611
187	0xbe0163d4	-0.12635738
188	0x3f0c0051	0.5468798
189	0xc02a5491	-2.6614115
190	0x3f400192	0.75002396
191	0xbe10d6b6	-0.14144406
192	0xbe41f6ee	-0.18941852
193	0x3f2067af	0.6265821
194	0x3f003fff	0.5009765
195	0x3f308579	0.68953663
196	0xc04c8413	-3.1955612
197	0xbf09f6a6	-0.5389198
198	0xbf3f1190	-0.74636173
199	0xbf3b393e	-0.7313422
200	0x3c8ab318	0.016931102
201	0xbc289f93	-0.010291952
202	0x3f1c26b5	0.6099656
203	0x3ed11260	0.40834332
204	0x3f401839	0.7503696
205	0xbc39345b	-0.011303986
206	0x3f0a4ecb	0.5402648
207	0xbf4c3cdc	-0.79780364
208	0x3cae7d4f	0.021299986
209	0x3f5a95fd	0.85385114
210	0x3f22dd63	0.6361906
211	0x3ec3e90a	0.38263732
212	0x3fd32b5a	1.6497605
213	0xbe9705d9	-0.2949665
214	0xbd88fdd9	-0.066890426
215	0xbe801187	-0.25013372
216	0xbda28e1e	-0.07937263
217	0x3ddbfb20	0.10741258
218	0x3fe1c58f	1.7638415
219	0x3ffd9f27	1.9814194
220	0x3f3ae73f	0.73009104
221	0xbef0dfb3	-0.4704567
222	0xbf37b5ed	-0.7176197
223	0x3e38cb6b	0.18046348
224	0xbf35c711	-0.71006876
225	0x3ee4b8e7	0.4467232
226	0x3e6147f8	0.2200011
227	0x3e6b77e6	0.22994956
228	0xbf38c05c	-0.7216852
229	0xbed1f64f	-0.4100823
230	0xbf3571be	-0.7087668
231	0xbf0e622b	-0.5561854
232	0xbfa2a083	-1.2705234
233	0xbfae4c1d	-1.3616978
234	0x3f819102	1.0122378
235	0x3f930e83	1.1488804
236	0x3ed5bc88	0.417454
237	0xbf120bd6	-0.5704931
238	0x3efb5151	0.49085477
239	0xbe0c0536	-0.13673863
240	0x3fe09645	1.7545859
241	0xbd0ba374	-0.034091428
242	0x3da6fabd	0.08153293
243	0x3df5603f	0.11981248
244	0xc0255335	-2.5832036
245	0x3ef19a41	0.47188
246	0x3f2a8c16	0.66620004
247	0x3efc45c1	0.49271968
248	0x3f9413ad	1.1568505
249	0x3faad223	1.3345379
250	0xbf235859	-0.6380668
251	0xbef61802	-0.48065192
252	0x3f3e4b72	0.7433387
253	0xbe55cfc1	-0.20880033
254	0x3e3f95b1	0.18709446
255	0xbe620f2e	-0.22076103

feature.0.bias f4 [128]
0	0xbea493fc	-0.32144153
1	0xbe838908	-0.25690484
2	0xbeb44db6	-0.3521554
3	0x3f8840e7	1.0644807
4	0x3fb92b8e	1.4466417
5	0x3f328ec8	0.69749117
6	0xbf09147b	-0.53546876
7	0x3f84d15e	1.0376394
8	0x3f79e441	0.9761391
9	0xbe78eeaf	-0.243098
10	0xbef04050	-0.46924067
11	0x3fae97d9	1.364009
12	0x3e674d83	0.22588162
13	0x3edf081d	0.43560877
14	0x3f1e4876	0.61829317
15	0xc0117e35	-2.273328
16	0xbfa57f66	-1.2929504
17	0x401f22b0	2.4864922
18	0x3ff8ebab	1.944692
19	0x3e8264f0	0.25467634
20	0x3f454e7b	0.77072877
21	0x3ff4c9b0	1.912405
22	0x3f9e13e6	1.2349823
23	0xbe84833f	-0.25881383
24	0xbe72e673	-0.23720722
25	0x3f7154d6	0.94270074
26	0xbd746da0	-0.05967486
27	0xbf8dddc3	-1.1083301
28	0x3fad970a	1.3561718
29	0xbf0886ae	-0.53330505
30	0x3f655303	0.8957979
31	0xbef1d78c	-0.47234762
32	0xbec4966f	-0.38396022
33	0xc025f6e1	-2.5931933
34	0xbf91f5e9	-1.1403171
35	0xbd607557	-0.054799404
36	0x3eb328e9	0.3499215
37	0x3fcf5e0f	1.620058
38	0x3f143a8d	0.5790184
39	0x3e279f85	0.16369446
40	0xbf991c2a	-1.196172
41	0x3fbad344	1.4595723
42	0xbf0f12b3	-0.5588791
43	0x3fe1403c	1.7597728
44	0xbe26e1fc	-0.16297144
45	0xbedb2136	-0.42798775
46	0xc03ba888	-2.9321613
47	0x3f9e121e	1.2349279
48	0x3f9a153b	1.2037729
49	0xc024d9d1	-2.5757945
50	0x3dabe5a3	0.08393409
51	0xbf1d94b1	-0.6155501
52	0xbf2199fd	-0.6312559
53	0xbeb2a5a3	-0.34891996
54	0x3f4d9448	0.80304384
55	0x3f4db1f9	0.8034969
56	0xbe2c26ff	-0.16811751
57	0xbf100006	-0.56250036
58	0x3e2e3948	0.17014039
59	0xbead2971	-0.3382068
60	0xbf70ff7e	-0.9413985
61	0xbc334e60	-0.010943979
62	0x3e5d9729	0.21639694
63	0x3f0f9770	0.5609045
64	0xbfaaaf51	-1.3334752
65	0xc009dd2b	-2.154124
66	0xbfaf85ca	-1.3712704
67	0xbbdd8822	-0.006760613
68	0x3f2603a0	0.6484928
69	0x3f8391b9	1.0278846
70	0x3e4533c6	0.19258031
71	0x3fa6cff5	1.3032213
72	0xbedd70e6	-0.43250197
73	0xbfa9cef0	-1.3266277
74	0xbfb9949b	-1.4498476
75	0xbfdd080f	-1.7268084
76	0x3f68f2e1	0.90995604
77	0xbfd63d7e	-1.6737516
78	0xc00d06f4	-2.2035494
79	0x3f3d4eff	0.73948663
80	0xbe21a604	-0.15785986
81	0xbfe44630	-1.783392
82	0x3d4774dc	0.04869543
83	0xbdc4e1c1	-0.09613372
84	0xbea441c1	-0.32081416
85	0xbea59d25	-0.32346454
86	0x3e1205a6	0.14259967
87	0xbebe2f23	-0.37145337
88	0xbc020aa5	-0.007937108
89	0xbfa49e57	-1.2860821
90	0xbe505174	-0.20343572
91	0xbf60f7d9	-0.87878186
92	0xbf9f1954	-1.2429605
93	0xbefb3b9d	-0.4906892
94	0xbf04e410	-0.51910496
95	0x3feee1fe	1.8662717
96	0xbe198922	-0.14993718
97	0xbf742768	-0.9537263
98	0x3e37d3ec	0.17951936
99	0xbf2d4af1	-0.67692477
100	0x3f71b875	0.94422084
101	0xbf33f373	-0.7029335
102	0xc0534939	-3.3013442
103	0xbf7d4159	-0.9892784
104	0xbf807f7b	-1.0038904
105	0xbf7913cb	-0.97295827
106	0x3edd8819	0.43267897
107	0x3ef76934	0.4832245
108	0x3d3cef46	0.046126626
109	0xbde0d6f9	-0.10978503
110	0x3f0cc809	0.5499273
111	0xbf8e78a0	-1.1130562
112	0xbfaa3bfc	-1.3299556
113	0x3f35e49f	0.71051973
114	0x3f1fd2ed	0.6243122
115	0x401187f7	2.2739236
116	0x3e3cc5cd	0.1843483
117	0x3f439813	0.7640392
118	0xbd1565b0	-0.03647393
119	0x3f66a6dc	0.9009836
120	0xc0105890	-2.2554054
121	0x3f4967ba	0.786739
122	0xbf80dac0	-1.0066757
123	0xbdb167cd	-0.086623766
124	0x3f9032f5	1.1265551
125	0xbf15c897	-0.585092
126	0x3f4a14f1	0.78938204
127	0xbfa7fe08	-1.3124399

feature.2.weight f4 [128, 128]
0	0xbdbf4072	-0.09338464
1	0xbf3d0816	-0.73840463
2	0xbdb0492d	-0.08607707
3	0x3d55f48f	0.052235182
4	0xbea41b5c	-0.32052124
5	0x3ddbae0f	0.107265584
6	0xbd503d9d	-0.05084001
7	0xbf864fce	-1.0493104
8	0x3c6beff5	0.014400472
9	0xbe82932e	-0.25502914
10	0xbe09a78f	-0.13442825
11	0xbe889cd9	-0.26682165
12	0x3e077926	0.13229808
13	0xbd853b65	-0.06505469
14	0x3c0b3ba1	0.008498103
15	0x3c86c877	0.016453011
16	0x3da136c6	0.07871775
17	0xbd91c696	-0.071179554
18	0x3f2876e3	0.65806407
19	0xbe64d36b	-0.22346275
20	0x3f5e09b2	0.86733544
21	0xbe6c3211	-0.23065974
22	0xbfa57295	-1.2925593
23	0x3b705eac	0.0036677523
24	0xbeb2f90e	-0.3495564
25	0xbcd34d9a	-0.02579384
26	0x3c585a68	0.013205148
27	0x3ccc6ac7	0.02495326
28	0x3d01bd6c	0.031674787
29	0xbca86326	-0.02055509
30	0xbf15b2da	-0.5847603
31	0x3e91c6f0	0.2847209
32	0x3de17c24	0.11010006
33	0xbf06aff5	-0.5261224
34	0xbe604c55	-0.21904118
35	0xbd364955	-0.04450353
36	0xbdad3288	-0.08456904
37	0xbea36ba7	-0.3191807
38	0x3d8726c5	0.065991916
39	0x3d70072a	0.058600582
40	0xbdfdbdcd	-0.12389717
41	0xbe359cce	-0.17735597
42	0xbe8a2d62	-0.2698775
43	0xbdc36a65	-0.095417775
44	0xbd2bbf18	-0.041930288
45	0xbd893894	-0.067002445
46	0x3d45425b	0.048158985
47	0xbe2d8607	-0.16945659
48	0xbe78c14a	-0.24292484
49	0xbbc26835	-0.0059328326
50	0x3dcc4f9b	0.09976121
51	0xbec8961e	-0.3917703
52	0x3d69b5f4	0.05705829
53	0x3d181e4b	0.037138265
54	0xbe05fbaf	-0.13084291
55	0xbd9d5bc0	-0.076835155
56	0xbe54a35f	-0.20765446
57	0xbf1dd02c	-0.6164577
58	0x3e0e146f	0.13874982
59	0xbe514ecc	-0.20440215
60	0x3e071402	0.13191226
61	0xbd46e495	-0.048557837
62	0xbe5196e6	-0.2046772
63	0x3e0b50ae	0.13604996
64	0xbe37823c	-0.17920774
65	0xbeaa40b5	-0.33252493
66	0xbde8c0ea	-0.113649204
67	0x3c381a3d	0.011236724
68	0xbe8e3dc2	-0.27781492
69	0xbe73a898	-0.23794782
70	0xbe807d61	-0.25095657
71	0xbf53f5cd	-0.8279694
72	0x3dcd235c	0.1001651
73	0xbe52a86e	-0.20572063
74	0x3dd94fed	0.10610948
75	0xbf03b7f7	-0.51452583
76	0xbf2f9e70	-0.6860113
77	0xbe903c1a	-0.28170854
78	0xbdb4a30f	-0.088201635
79	0x3ed6452c	0.4184965
80	0xbe9e690b	-0.30939516
81	0xbe34c74e	-0.17654154
82	0x3dcef13a	0.10104604
83	0x3d13cbdb	0.036083084
84	0x3ef20899	0.47272184
85	0xbecc572d	-0.3991026
86	0xbf8504e1	-1.0392114
87	0xbf33100c	-0.6994636
88	0xbb20972f	-0.0024504175
89	0x3e9a879a	0.3018158
90	0x3e172a5b	0.14762251
91	0xbe12c680	-0.14333534
92	0xbf60a57d	-0.87752515
93	0xbda167b7	-0.0788111
94	0xbe380fa7	-0.17974721
95	0x3f0a28e5	0.5396865
96	0xbe1115eb	-0.14168517
97	0x3e669815	0.22518952
98	0xbe50c5b8	-0.20387924
99	0xbe9ec3bf	-0.31008717
100	0xbe17e65a	-0.14833966
101	0x3e27c3b2	0.16383246
102	0x3ca07ec4	0.019591697
103	0xbe1c7f81	-0.15283014
104	0xbf170877	-0.5899729
105	0xbe079d57	-0.13243614
106	0xbf11bf9c	-0.56933
107	0x3b31c0ed	0.002712305
108	0x3e7db0d0	0.2477448
109	0x3d93dffe	0.072204575
110	0x3d495be8	0.049159914
111	0xbf43b5ca	-0.76449263
112	0xba9bd3db	-0.0011888699
113	0xbe83eb2e	-0.25765365
114	0xbf85929b	-1.0435365
115	0x3c997407	0.018732084
116	0xbf1bc34f	-0.6084489
117	0xbe6d4c7a	-0.23173705
118	0xbdb40a3c	-0.087910146
119	0x3c39889b	0.011324073
120	0xbe895895	-0.26825395
121	0xbff26dbd	-1.893974
122	0xbecda6c6	-0.401663
123	0x3e4c1b68	0.1993233
124	0x3f37a06b	0.71729153
125	0xbd831499	-0.06400413
126	0x3f0967c0	0.53673935
127	0xbd300ca8	-0.04298082
128	0xbe752ff5	-0.23944075
129	0x3d0eb312	0.034838744
130	0x3e269046	0.16265973
131	0x3ed37c0a	0.41305572
132	0x3c4a9938	0.012365632
133	0xbe39d88d	-0.18149014
134	0xbdfad8ec	-0.12248406
135	0x3e63979d	0.22225805
136	0xbf29df30	-0.6635618
137	0xbda28a2f	-0.07936513
138	0xbedbcadf	-0.42928216
139	0x3e3ddf72	0.18542269
140	0xbdfda5e4	-0.12385157
141	0x3e5839d4	0.2111581
142	0x3d82f91b	0.06395169
143	0x3d236d1f	0.039898988
144	0xba968a80	-0.0011485368
145	0xbe2bd342	-0.16779807
146	0xbe76c4af	-0.24098466
147	0x3f00f937	0.5038027
148	0xbe159132	-0.14606169
149	0xbe818831	-0.25299218
150	0xbe771303	-0.24128346
151	0xbe38ab6d	-0.18034144
152	0xbe988972	-0.29792362
153	0xbdf14668	-0.11781007
154	0x3d33c256	0.043886505
155	0xbe47b44b	-0.1950237
156	0xbe4aa3db	-0.19789068
157	0xbf135635	-0.57553416
158	0xbdad3807	-0.08457952
159	0xbd9429a6	-0.07234506
160	0xbe9d1dbd	-0.3068675
161	0xbea0e8cf	-0.3142762
162	0xbe35a7d8	-0.17739809
163	0x3c62807b	0.013824577
164	0x3e99f529	0.30069855
165	0x3d99df6c	0.075133175
166	0xbed12375	-0.40847364
167	0xbe42d340	-0.19025898
168	0xbe1eb4fa	-0.15498725
169	0xbf309cd5	-0.68989307
170	0xbdff19bb	-0.124560796
171	0xbe388494	-0.18019325
172	0x3d98df1a	0.07464428
173	0xbfafe965	-1.3743101
174	0x3e2714a7	0.16316472
175	0xbe900751	-0.28130582
176	0xbd7ee8ac	-0.062233612
177	0x3d15b544	0.03654982
178	0x3e410d18	0.18852651
179	0xbeb42bf3	-0.3518978
180	0xbd195bd7	-0.0374411
181	0x3ca95325	0.02066953
182	0xbd4f0d85	-0.050550003
183	0xbd991745	-0.074751414
184	0xbd1838fd	-0.037163723
185	0x3d08954e	0.033345513
186	0x3e502772	0.20327547
187	0xbdcaf301	-0.099096306
188	0xbdc12fcc	-0.09432945
189	0xbc0d2690	-0.008615151
190	0xbda20d71	-0.0791272
191	0xbca49110	-0.020088702
192	0x3dfb98a4	0.12284973
193	0x3ecf56e4	0.4049598
194	0xbd62580b	-0.055259746
195	0xbd9e3cf8	-0.077264726
196	0x3ef1c967	0.4722397
197	0xbcaa5860	-0.020794094
198	0xbea9ba10	-0.33149767
199	0x3d5871d9	0.05284295
200	0xbf0e1282	-0.5549699
201	0xbd2f8e87	-0.042860534
202	0xbcbd245b	-0.023088625
203	0x3f3dcaab	0.7413737
204	0x3ccf6355	0.02531592
205	0xbce65aaf	-0.028119413
206	0x3dbdb849	0.09263665
207	0xbdb10df7	-0.08645242
208	0x3e5b31ab	0.21405666
209	0xbf7d45ae	-0.9893445
210	0xbf0ecc2a	-0.5578028
211	0xbc8c6ee9	-0.01714273
212	0x3ea8b330	0.3294921
213	0xbf47b57a	-0.78011286
214	0xbec2e37f	-0.3806419
215	0xbd7ea8cc	-0.062172696
216	0xbd1ed02e	-0.038772754
217	0xbd05b90d	-0.03264718
218	0x3db5b337	0.08872073
219	0xbd04d676	-0.03243109
220	0x3f461a60	0.77383995
221	0xbe3204b3	-0.17384605
222	0x3c862c4d	0.016378546
223	0xbe3dcb28	-0.18534529
224	0xbedba8dc	-0.42902267
225	0xbf025989	-0.5091787
226	0xbdd6c17f	-0.10486125
227	0xbf0683ff	-0.5254516
228	0xbe317b59	-0.1733221
229	0xbf586864	-0.8453429
230	0x3dc4bfd5	0.096069016
231	0x3deaa876	0.114579126
232	0xbceadb81	-0.02866912
233	0xbe840f54	-0.25792944
234	0xbd89a00b	-0.06719979
235	0xbed46531	-0.41483453
236	0x3dfae636	0.122509405
237	0x3d9d58bb	0.076829396
238	0xbe4e1d41	-0.20128347
239	0xbd0df0e9	-0.034653578
240	0xbe75461b	-0.23952524
241	0xbe1879f0	-0.14890265
242	0xbe3ddc7a	-0.18541136
243	0xbe58515e	-0.21124789
244	0x3e077571	0.13228394
245	0x3d99e37c	0.07514092
246	0xbba44a30	-0.0050137267
247	0xbf1ec7b1	-0.62023455
248	0xbe7a8304	-0.24464041
249	0x3e1a83c3	0.15089326
250	0xbd8b2c1a	-0.06795521
251	0xbf37d757	-0.7181296
252	0xbe5c4b1f	-0.21513031
253	0xbf63594a	-0.8880812
254	0xbe57a52a	-0.21059099
255	0xbf0361fe	-0.513214

feature.2.bias f4 [128]
0	0xbe1cf726	-0.15328655
1	0xbe02d228	-0.12775481
2	0x3f5f7bf9	0.8729854
3	0x3fc67a18	1.550601
4	0xbb881768	-0.004153181
5	0xbd40542c	-0.046955273
6	0xbcc4c54e	-0.024019863
7	0x3f214a26	0.63003767
8	0x3e77a3f8	0.24183643
9	0xbe6e43c7	-0.23268043
10	0x3f007335	0.5017579
11	0x3e25bfe0	0.16186476
12	0x3e267d00	0.16258621
13	0xbed42fd2	-0.41442734
14	0xbe358969	-0.17728199
15	0x3cd12399	0.02552967
16	0xbd53f3b5	-0.05174609
17	0xbef5f13d	-0.48035613
18	0xbd33d66a	-0.043905653
19	0x3f8065fd	1.0031124
20	0xbdfb00df	-0.122560255
21	0xbe11610d	-0.14197178
22	0xc01a914d	-2.4151185
23	0xbe043d41	-0.12913992
24	0xbd83d2b9	-0.064366765
25	0xbe011a4c	-0.12607688
26	0xbe1d9d78	-0.15392101
27	0xbeba599d	-0.36396495
28	0xba84933c	-0.001011468
29	0x3f19049b	0.5977265
30	0xbe2a2c11	-0.16618372
31	0x3ee1d440	0.44107246
32	0xbb22bd21	-0.0024831968
33	0x3ee46888	0.44611
34	0x3e283edc	0.16430229
35	0xbd94bebf	-0.072629444
36	0x3ecf048a	0.4043315
37	0x3ed9ec8f	0.42563292
38	0x3dc30e7e	0.095242485
39	0x3e63c47c	0.22242922
40	0xbe01b038	-0.12664878
41	0x3d30f6b6	0.043204032
42	0xbdac4f87	-0.08413606
43	0xbddd8888	-0.10817057
44	0x3e10cad1	0.14139868
45	0xbe1aa5d4	-0.15102321
46	0xbe716956	-0.23575339
47	0x3d0f0515	0.034916956
48	0xc0164212	-2.3477826
49	0xbea15933	-0.31513366
50	0xbfd3345d	-1.6500355
51	0xbf5457db	-0.82946557
52	0xbd8d8d88	-0.069117606
53	0x3ebf605f	0.37378213
54	0x3d9deafa	0.07710834
55	0x3ebc4fee	0.36779732
56	0xbd493d18	-0.04913053
57	0xbee8fed9	-0.45506933
58	0x3db50650	0.08839095
59	0xbe2b1052	-0.16705444
60	0xbd548526	-0.051884793
61	0xbd461db7	-0.048368182
62	0xbd2dafe9	-0.04240409
63	0x3f881258	1.0630598
64	0x3e66a273	0.22522907
65	0xbdf02b39	-0.11726994
66	0xbe40e6d2	-0.18838051
67	0xbd97db2e	-0.07414852
68	0xbe9e8881	-0.3096352
69	0xbbeb15ab	-0.007174214
70	0xbe170db9	-0.14751329
71	0xbe1fe169	-0.15613331
72	0x3e69ba52	0.22824982
73	0xbebc9fbf	-0.36840627
74	0x3e94599d	0.2897462
75	0xbd568afd	-0.052378643
76	0xbe0cd0e8	-0.13751566
77	0x3cb12c59	0.021627592
78	0x3e9c87eb	0.30572447
79	0xbe1232c4	-0.14277178
80	0x3f1c260e	0.60995567
81	0x3e55731d	0.20844693
82	0xbee3d278	-0.44496512
83	0xbd9d067e	-0.07667254
84	0xbdd712a1	-0.105016
85	0xbda6d39b	-0.08145829
86	0x3eec5949	0.4616187
87	0x3e813260	0.25233746
88	0xbe6e4f46	-0.23272428
89	0xbf13ab15	-0.57682925
90	0xbd23b52a	-0.039967693
91	0x3f087fb4	0.5331986
92	0xbd25e08f	-0.04049736
93	0x3f54d7b8	0.8314166
94	0xbf71540b	-0.94268864
95	0xbcf08553	-0.029360449
96	0xbe1f54d4	-0.15559703
97	0xbde7283b	-0.1128697
98	0x3e8a5ecb	0.27025446
99	0x3f20ccce	0.6281251
100	0xbd502e41	-0.05082536
101	0xbf0d3f22	-0.5517446
102	0x3f3303cf	0.69927686
103	0x3f171e67	0.59030765
104	0x3f32cfbe	0.6984824
105	0xbdef2226	-0.11676435
106	0x3ec79939	0.38984087
107	0xbe2abf53	-0.16674547
108	0x3f0bc815	0.54602176
109	0x3b9068ad	0.0044070096
110	0xbd689b12	-0.05678851
111	0xbe1639c2	-0.1467047
112	0x3f1e4b6b	0.6183383
113	0xbdf91b03	-0.12163355
114	0xbee99777	-0.4562337
115	0x3cc6c81a	0.024265338
116	0x3e801d6f	0.25022456
117	0x3e0a499f	0.13504647
118	0x3f1a98be	0.60389316
119	0xbb8ebd62	-0.0043560723
120	0xbd38c970	-0.04511398
121	0x3ee4e0d8	0.44702792
122	0xbda92861	-0.08259655
123	0xbdc45f46	-0.095884845
124	0x3e45ca74	0.19315511
125	0xbe1326cd	-0.1437027
126	0xbc01d44f	-0.0079241535
127	0xbecef3dc	-0.40420425

value.0.weight f4 [64, 128]
0	0x3f207cdc	0.6269052
1	0xbc14b1a5	-0.009075557
2	0xbf89c0eb	-1.0761999
3	0xbf11d8de	-0.5697154
4	0xbca5fa72	-0.020261023
5	0xbdb5fb51	-0.088858254
6	0xbe0d8dfc	-0.13823694
7	0xbf3907f9	-0.7227779
8	0xbf3d9623	-0.74057215
9	0x3d34c669	0.04413453
10	0xbe940b4c	-0.2891487
11	0x3b35f9d5	0.002776732
12	0xbf2fc62a	-0.6866175
13	0xbd968220	-0.07349038
14	0xbf24c5a2	-0.64364064
15	0xbf389638	-0.72104216
16	0xbbff7892	-0.0077963555
17	0xbf5fad05	-0.8737338
18	0x3c81896a	0.015812594
19	0xbfa06359	-1.2530318
20	0xbec8128e	-0.39076656
21	0xbda11313	-0.07864966
22	0xc01cbeba	-2.449141
23	0xbb957900	-0.0045615435
24	0xbda2fb3c	-0.079580754
25	0xbc84e0ba	-0.01622044
26	0x3da8f2ec	0.08249459
27	0xbed053e7	-0.40689012
28	0xbc8aaba0	-0.01692754
29	0xbd86e3f2	-0.06586446
30	0x3c069700	0.008214712
31	0xbfb8e80c	-1.4445815
32	0xbd78dacc	-0.060755536
33	0xbfc4bef1	-1.5370771
34	0xbde9271e	-0.11384414
35	0xbda05baf	-0.07829987
36	0xbc570fdd	-0.013126341
37	0xbf474685	-0.7784198
38	0xbf3b8d06	-0.7326206
39	0xbe49e612	-0.19716671
40	0xbe2285f5	-0.15871413
41	0xbe9e4899	-0.30914763
42	0xbed98db4	-0.42490923
43	0xbd6e4dc2	-0.058179624
44	0xbf112b44	-0.56706643
45	0xbdcd664d	-0.10029278
46	0xba0047ae	-0.00048934936
47	0x3d84cf4a	0.0648485
48	0x3db164e1	0.08661819
49	0xbee0a4e3	-0.438758
50	0xbf9a4bdb	-1.2054399
51	0xbe8c76ee	-0.27434486
52	0xbc971070	-0.018440455
53	0xbeaf2372	-0.3420673
54	0xbeb7c5d4	-0.35893118
55	0xbfe06969	-1.7532169
56	0xbf3c8297	-0.73636764
57	0x3f8abb0c	1.0838332
58	0xbf064b92	-0.5245906
59	0x3d158012	0.03649909
60	0x3d144cf4	0.0362062
61	0x3a877480	0.0010334402
62	0x3d520952	0.05127842
63	0xbfaa576f	-1.3307933
64	0xbe61a528	-0.22035658
65	0x3d92076b	0.07130321
66	0x3d642c4a	0.0557063
67	0x3c8c4954	0.01712481
68	0xbe56578a	-0.20931831
69	0x3d13c68b	0.036078017
70	0x3dcb71a2	0.09933783
71	0xbddcaa77	-0.10774701
72	0xbeb1de4d	-0.34739915
73	0x3f3718f2	0.7152244
74	0xbf4d0549	-0.8008619
75	0xbd009d39	-0.03139994
76	0xbe479ad6	-0.19492659
77	0xbe9dea36	-0.3084275
78	0xbeb54b5c	-0.35409057
79	0x3d86799a	0.065661624
80	0xbd82d35d	-0.063879706
81	0xbc19318e	-0.009350194
82	0x3f594bf8	0.84881544
83	0x3d76fffc	0.06030272
84	0x3ccf6a1a	0.025319148
85	0xbd48f0d3	-0.049057793
86	0xbeaf660b	-0.3425754
87	0xbe2838f8	-0.16427982
88	0xbe6e1d45	-0.23253353
89	0x3e4dbc13	0.20091276
90	0xbc86760f	-0.016413717
91	0x3f18b0a5	0.5964454
92	0xbeb6bc48	-0.35690522
93	0xbc93adb9	-0.018027173
94	0x3ea0df91	0.31420568
95	0xbed5374a	-0.41643745
96	0x3c68963f	0.014195978
97	0x3ef4bc53	0.4779993
98	0x3eac9374	0.33706248
99	0xbd3a8685	-0.045538444
100	0xbebf2086	-0.373295
101	0xbe7e94c1	-0.24861433
102	0xc000c17e	-2.0118098
103	0xbf5ba88f	-0.85804075
104	0xbe02877a	-0.12746993
105	0x3ccdc12c	0.025116526
106	0xbee248bd	-0.4419612
107	0xbf7229fc	-0.94595313
108	0xbfb29eb1	-1.3954679
109	0x3d9e6f03	0.077360176
110	0x3d491249	0.049089704
111	0x3d49d193	0.04927213
112	0xbefed370	-0.4977069
113	0xbcccfc72	-0.025022719
114	0xbe8672d5	-0.26259485
115	0xbe7e50ad	-0.24835463
116	0xbe8d6c96	-0.27621907
117	0xbf82ce03	-1.021912
118	0x3e5c2476	0.21498284
119	0xbd6442da	-0.055727817
120	0x3f414cbc	0.7550771
121	0x3e3dfe66	0.18554077
122	0x3d8e984d	0.06962643
123	0x3d27eafd	0.040995587
124	0xbe43c95c	-0.19119781
125	0xbd94473a	-0.07240148
126	0x3cd76e48	0.026297703
127	0x3edeb494	0.43497145
128	0xbdabad27	-0.083826356
129	0xbd0bae68	-0.034101874
130	0xbe0ff5e4	-0.14058644
131	0xbf7b4b21	-0.9816151
132	0xbd9e9fe4	-0.077453405
133	0xbdb374ac	-0.08762488
134	0xbe9a8f3d	-0.30187407
135	0xbcb537b6	-0.022121292
136	0x3e87e510	0.26541948
137	0x3a034bde	0.00050085585
138	0xbf068a23	-0.5255453
139	0xbea10be7	-0.31454393
140	0x3db94d50	0.09047949
141	0x3ca8ed34	0.02062092
142	0xbdfe2301	-0.1240902
143	0xbd87c6c3	-0.06629708
144	0xbd90314e	-0.07040654
145	0x3e4a8594	0.19777519
146	0x3d57787f	0.05260515
147	0xbe3ad055	-0.18243535
148	0xbda54ecd	-0.08071671
149	0xbd6909b9	-0.056894038
150	0x3f672a66	0.9029907
151	0x3ac05800	0.0014674664
152	0xbf5958d5	-0.8490117
153	0xbe0e36dc	-0.13888115
154	0xbd0ebf88	-0.034850627
155	0xbdd7db54	-0.105398804
156	0x3b1ce3e9	0.0023939556
157	0xbe20523b	-0.15656368
158	0xbd7e5b0e	-0.062098555
159	0xbd88ec2f	-0.066856734
160	0x3d4a289a	0.049355127
161	0x3cefd07d	0.02927422
162	0x3ebade21	0.36497596
163	0x3d4373d3	0.04771788
164	0xbd9331fd	-0.07187269
165	0xbec2d178	-0.38050437
166	0xbde57748	-0.11204392
167	0xbd278967	-0.04090252
168	0xbe0e010d	-0.13867588
169	0xbe3502f9	-0.17676915
170	0xbd1d5338	-0.03840944
171	0xbd2a6940	-0.04160428
172	0xbdd7dcaf	-0.10540139
173	0x3d3ce566	0.04611721
174	0x3d9226f5	0.07136337
175	0xbdf06453	-0.11737885
176	0xbde7430b	-0.11292084
177	0x3d96f638	0.07371181
178	0xbac871b1	-0.0015292672
179	0xbdcf23ce	-0.10114251
180	0x3d58dac6	0.052943014
181	0xbe870606	-0.26371783
182	0xbe42ec23	-0.19035392
183	0xbd6d05ef	-0.057866987
184	0xbe01799c	-0.12644047
185	0x3f1e6b9e	0.6188296
186	0x3d2c85a5	0.04211964
187	0x3da281a5	0.07934884
188	0xbd0dbc91	-0.03460366
189	0xbdb187d3	-0.086684845
190	0xbd5e266f	-0.054235872
191	0xbf891e1c	-1.0712314
192	0xbd635c8c	-0.05550818
193	0xbbafc2b0	-0.0053637847
194	0x3d7bc436	0.06146642
195	0xbd581acf	-0.05275994
196	0xbed3e3d5	-0.4138476
197	0x3d1d83be	0.038455717
198	0x3bf5fb90	0.007506795
199	0x3de7e078	0.11322111
200	0x3d14048b	0.036137145
201	0xbf09f363	-0.53887004
202	0xbef97856	-0.48724622
203	0x3d649a2d	0.055811096
204	0xbd99e70d	-0.075147726
205	0xbeaf3d70	-0.3422656
206	0xbd758146	-0.059937738
207	0x3dc4a917	0.09602564
208	0xbef871ba	-0.48524266
209	0x3d12fff7	0.03588864
210	0x3e1f477e	0.15554616
211	0x3db3d4d3	0.087808274
212	0xbd0941a4	-0.033509865
213	0x3d0ed4e8	0.034871012
214	0xbe9b45a0	-0.30326557
215	0xbe304205	-0.17212684
216	0xbd98faa4	-0.07469681
217	0x3de72721	0.1128676
218	0xbc1ec679	-0.009690874
219	0x3c1bf9aa	0.009519974
220	0x3d690ee4	0.056898966
221	0xbe8293ee	-0.25503486
222	0xbe99407e	-0.29932016
223	0x3ec12cf5	0.37729612
224	0x3cef7c27	0.029234005
225	0x3cbb243b	0.022844424
226	0x3e9e0b62	0.3086806
227	0xbe176e4b	-0.14788167
228	0xbc9ede2c	-0.01939305
229	0xbe4d6367	-0.2005745
230	0xbc13c806	-0.009019857
231	0xbe903330	-0.28164053
232	0xbec5fa4a	-0.38667518
233	0x39c9a800	0.00038462877
234	0xbe31c481	-0.17360117
235	0xbe30e4f6	-0.17274842
236	0xbce8a3ed	-0.028398478
237	0xbd8a6618	-0.06757754
238	0xbc8fd668	-0.017558292
239	0x3d7d70ce	0.061875157
240	0xbea12fc2	-0.3148175
241	0xbd9a591d	-0.07536528
242	0xbe2c1056	-0.16803107
243	0xbc99a61d	-0.018755967
244	0xbdcbccc7	-0.099511676
245	0xbe59f22d	-0.21283789
246	0xbf1b5017	-0.6066908
247	0xbade1de1	-0.001694616
248	0xbe2f7c0d	-0.17137165
249	0xbd38d72f	-0.04512709
250	0xbd869274	-0.065709025
251	0x3db19b7f	0.08672237
252	0xbdc97c56	-0.09838168
253	0xbcccad5c	-0.024985008
254	0xbc874b54	-0.016515411
255	0xbe874832	-0.26422268

value.0.bias f4 [64]
0	0xbebf5c1d	-0.37374964
1	0xbf3f7ed4	-0.748029
2	0x3fb59bbf	1.4188155
3	0xbf9ca982	-1.223923
4	0x3ffc49b7	1.9709996
5	0x3f065461	0.524725
6	0xbe76593c	-0.24057478
7	0xbe86c10a	-0.26319152
8	0x3efde467	0.4958832
9	0xbf47a44f	-0.7798509
10	0xbf0d4ed4	-0.5519841
11	0x3f61bf1f	0.8818225
12	0xbf90871b	-1.1291231
13	0x3f25477f	0.6456222
14	0x3fdedb84	1.7410741
15	0xbdd512f2	-0.10404004
16	0x3fa644c4	1.2989736
17	0x3fd8f84a	1.6950772
18	0x3f9203ac	1.140737
19	0xbfde477a	-1.7365563
20	0xbeffae3d	-0.4993762
21	0x3f9b6548	1.2140284
22	0xbf3f984d	-0.7484177
23	0x3d80ecc2	0.06295158
24	0x3f0ac4dd	0.5420664
25	0x3f3dc222	0.7412435
26	0x3eab6849	0.33478
27	0x3e9f641b	0.31131062
28	0x3f1b1b85	0.60588866
29	0xbdfa1e63	-0.12212827
30	0x3f2038e4	0.6258681
31	0xbf2c2941	-0.6725045
32	0x3f1e5ef9	0.61863667
33	0xbe845955	-0.25849405
34	0x3efcbca4	0.4936267
35	0x3ef9df02	0.48802954
36	0x3e669c47	0.22520553
37	0x3d272730	0.040808856
38	0xbec61261	-0.38685897
39	0xbedb41f6	-0.42823762
40	0x3f2e0f37	0.67991966
41	0xbfa723a2	-1.3057749
42	0x3eb9418d	0.36182824
43	0xbf43e2e7	-0.765181
44	0x3f6ec7a5	0.93273383
45	0xbe7cd72f	-0.24691461
46	0x3f23c77f	0.6397628
47	0xbe9274ca	-0.28604728
48	0x3f3258dd	0.69666845
49	0xbf8dd861	-1.1081659
50	0xbf4fe570	-0.8120947
51	0x3efe4257	0.49659988
52	0x3eb90617	0.3613746
53	0x3f102107	0.56300396
54	0xbf1ba191	-0.60793406
55	0xbe88ff88	-0.26757455
56	0xbe72ef7e	-0.23724172
57	0xbedb0f2a	-0.42785007
58	0x3f23a877	0.6392893
59	0xbf644bfa	-0.8917843
60	0xbf4026d3	-0.7505924
61	0xc01f46a4	-2.4886866
62	0xbf6858b5	-0.90760356
63	0xbf8fb759	-1.1227828

value.2.weight f4 [1, 64]
0	0xbff48871	-1.9104139
1	0x3fb326c6	1.3996208
2	0xbf10c66c	-0.5655277
3	0x3fe4ef8e	1.7885606
4	0x3fbfe6d0	1.4992313
5	0x3f73cc6f	0.95233816
6	0xbcb0670b	-0.02153351
7	0xbe577d32	-0.21043852
8	0xbfa6776f	-1.3005198
9	0xbe6b9f1e	-0.23009917
10	0x3ef042ea	0.4692605
11	0xbe8a4628	-0.2700665
12	0x3f27f560	0.6560879
13	0xbea65459	-0.32486227
14	0xbea1b53d	-0.31583586
15	0x3cf82d22	0.030294959
16	0x3d6cb9aa	0.05779425
17	0x3e184497	0.14869915
18	0x3fad91b3	1.3560089
19	0x3f4d55fc	0.80209327
20	0xbfd655bf	-1.6744918
21	0x3fcf48d0	1.6194096
22	0x3f0c5b24	0.5482657
23	0xbfae0880	-1.3596344
24	0xc017ff8d	-2.3749726
25	0x3f2d1255	0.676061
26	0x3b3759e7	0.002797717
27	0xbf33ad84	-0.7018664
28	0xbdd7d1b4	-0.105380446
29	0x3cd762d0	0.026292235
30	0xbdb03e5b	-0.08605643
31	0xbeed42f1	-0.46340135
32	0x3f60920e	0.8772286
33	0x3e23e1d4	0.16004115
34	0x3f14b7ce	0.58092964
35	0x3ec0cd9c	0.37656868
36	0xbd83d1f9	-0.064365335
37	0x3f59e2c5	0.8511165
38	0xc0116e26	-2.272348
39	0xbf26586e	-0.64978683
40	0xbeada322	-0.33913523
41	0xbf903bc3	-1.1268238
42	0xbf3cbe81	-0.73728186
43	0x3f153fc6	0.58300436
44	0x3f599267	0.8498902
45	0xbbd856a5	-0.0066021257
46	0x3f0e22c8	0.5552182
47	0x3cb30fe2	0.02185816
48	0xbe6a636a	-0.22889486
49	0x3f3dc964	0.7413542
50	0xc003566c	-2.0521498
51	0xbee74d05	-0.4517595
52	0xbcf38289	-0.02972533
53	0xbdae432b	-0.08508905
54	0x3e00a863	0.12564234
55	0xbe568fd8	-0.2095331
56	0xbdd01d5e	-0.10161851
57	0x3f08cfff	0.53442377
58	0xbd66cab1	-0.056345645
59	0x3f9078d2	1.1286871
60	0x3f23c535	0.6397279
61	0xc009b73d	-2.151809
62	0xbf8e8e2e	-1.113714
63	0xbf49314f	-0.78590864

adv.0.weight f4 [64, 128]
0	0xbe4667b2	-0.19375494
1	0x3d8263b2	0.063666716
2	0x3e239a24	0.15976769
3	0x3ea5269c	0.3225602
4	0x3995b0ca	0.00028551213
5	0x3b4f67e9	0.0031647629
6	0xbece0726	-0.4023983
7	0xbec881b4	-0.39161456
8	0x3e504d43	0.20341973
9	0x3d64299f	0.055703755
10	0x3f2d0b1f	0.67595094
11	0xbdf050dd	-0.117341734
12	0xbeb85f2a	-0.36010104
13	0xbf4752ee	-0.77860916
14	0xbe7c38d3	-0.24631052
15	0xbf7cab56	-0.9869894
16	0xbd0f8538	-0.035039157
17	0xbeaaba6c	-0.33345354
18	0xbd8ebb1b	-0.06969281
19	0xbc82ae3c	-0.015952222
20	0x3cc65b17	0.024213357
21	0xbd95d7e9	-0.07316572
22	0xbf45b6bb	-0.7723195
23	0x3ca28abb	0.019841542
24	0xbf1124d4	-0.5669682
25	0x3a2b9f1f	0.0006546843
26	0xbdb33d8e	-0.08751975
27	0xbe4cf940	-0.20016956
28	0x3ed5fbf8	0.417938
29	0xbe5fb8b5	-0.21847804
30	0xbc1c220c	-0.009529602
31	0xbece19c8	-0.40254045
32	0x3cabf492	0.020990644
33	0xbf78f924	-0.9725516
34	0xbe25316c	-0.16132134
35	0xbf120959	-0.57045513
36	0xbfc4601a	-1.5341828
37	0xbf4175d1	-0.755704
38	0xbf8d5fd9	-1.1044875
39	0xbe824645	-0.25444236
40	0xbdc1869d	-0.094495036
41	0xbdc62504	-0.09675029
42	0xbe8d1ef3	-0.27562675
43	0xbd5466ee	-0.051855974
44	0xbef8c839	-0.48590258
45	0x3d9c2851	0.07624877
46	0xbe1021c2	-0.14075378
47	0xbe8c7811	-0.27435353
48	0x3ca1feff	0.019774912
49	0xbf7a444d	-0.9776047
50	0xbe953997	-0.291455
51	0xbf031abb	-0.5121266
52	0x3d8cadf8	0.068691194
53	0xbea26630	-0.31718588
54	0xbe1f54a9	-0.15559639
55	0x3e311649	0.17293657
56	0x3ec22ae7	0.37923357
57	0x3f4e898e	0.8067864
58	0xbf0684a6	-0.52546155
59	0xbd4d3c4c	-0.05010633
60	0xbd900a9e	-0.07033275
61	0xbd845622	-0.06461741
62	0xbd670db7	-0.056409564
63	0xbf861c59	-1.0477401
64	0xbf5d582b	-0.8646266
65	0x3b2a9880	0.0026030838
66	0x3c6bdf00	0.014396429
67	0x3d5c490d	0.053780604
68	0xbf2d289e	-0.676401
69	0xbd951f61	-0.07281376
70	0xbd894719	-0.06703014
71	0xbd7dbf64	-0.061950102
72	0xbfb39b4d	-1.4031769
73	0xbee5793f	-0.44819066
74	0xbf6d64a4	-0.9273169
75	0x3cc8e497	0.024523063
76	0xbca4d62b	-0.020121654
77	0xbf2616a1	-0.6487828
78	0x3e9c075a	0.3047436
79	0x3e67e5d2	0.22646263
80	0xbcdcb6a9	-0.026942568
81	0xbe8af55a	-0.27140313
82	0x3f872554	1.0558267
83	0xbd20ef91	-0.03929097
84	0x3d65c2e2	0.056094058
85	0xbd890c17	-0.06691759
86	0xbef14966	-0.4712631
87	0xbf8da6e2	-1.1066554
88	0xbf43a7c8	-0.7642789
89	0xbee2d380	-0.44301987
90	0x3ab5dfa2	0.0013875852
91	0xc0c86982	-6.2628794
92	0xbe67a430	-0.22621226
93	0xbea06f44	-0.3133489
94	0x3e26fce0	0.16307402
95	0xbe4ef747	-0.20211516
96	0xbd32f35b	-0.043689113
97	0xbefc754e	-0.49308246
98	0xbf6ac8e1	-0.91712767
99	0xbf5e603e	-0.86865604
100	0x3f58c82f	0.84680456
101	0x3f99928b	1.1997846
102	0xbd8ebb7f	-0.06969356
103	0xbf533444	-0.82501626
104	0xbfb067e6	-1.3781707
105	0xbd846db4	-0.06466237
106	0x3e6ec2b3	0.2331646
107	0x3cf04019	0.02932744
108	0xbe0e158d	-0.13875408
109	0x3d9b3594	0.075785786
110	0x3c25c768	0.010118343
111	0xbd605134	-0.05476494
112	0xbf171276	-0.59012544
113	0xbd9e87cc	-0.07740745
114	0xbe86a7fd	-0.2630004
115	0xbdd7c4d8	-0.10535592
116	0xbfac4676	-1.3459003
117	0x3decbfda	0.1156003
118	0xbd81d9e4	-0.063403875
119	0xbccdd9b2	-0.02512822
120	0xbeb5d00d	-0.35510293
121	0xbea19400	-0.31558228
122	0xbb7e9c4b	-0.0038850482
123	0x3cf7a565	0.030230233
124	0xbe658847	-0.22415267
125	0xbbe9b610	-0.0071322992
126	0xbdaaa76c	-0.083327144
127	0xbda4da56	-0.08049457
128	0xbda04744	-0.07826093
129	0x3f21fca6	0.63276136
130	0xbea93bfe	-0.33053583
131	0xbf9e77c5	-1.2380301
132	0xbd07bf81	-0.033141617
133	0xbd47a22a	-0.048738636
134	0xbdfd9da4	-0.12383583
135	0xbebb626c	-0.36598527
136	0xbd6d8dfb	-0.05799673
137	0xbdc1ae48	-0.0945707
138	0xbef01d32	-0.46897274
139	0xbe9292bd	-0.28627577
140	0xbe044668	-0.12917483
141	0xbe1cd36e	-0.15315029
142	0xbe7be3cc	-0.24598616
143	0xbe997974	-0.29975474
144	0x3d76acd2	0.060223408
145	0xbf603a4b	-0.8758895
146	0xbd1603fc	-0.036624894
147	0xbf2217c4	-0.63317513
148	0xbdc55389	-0.09635074
149	0xbdb0d23e	-0.086338505
150	0x3f189570	0.59603024
151	0xbc4a1c08	-0.012335785
152	0xbd2d046b	-0.04224054
153	0x3d9c7629	0.07639725
154	0x3c9a8915	0.018864194
155	0xbe9dec7f	-0.30844495
156	0xbec20c38	-0.37899947
157	0xbdc578d5	-0.096421875
158	0x3d2c6566	0.04208889
159	0x3daf1894	0.0854961
160	0xbd071988	-0.032983333
161	0xbf3c63f2	-0.73590004
162	0xbf431e2d	-0.7621792
163	0x3c954185	0.018219719
164	0xbdb56791	-0.08857644
165	0xbd57c43d	-0.05267738
166	0xbf69111f	-0.9104175
167	0xbdfd9597	-0.123820476
168	0x3d6a594d	0.05721407
169	0xbdd0c1eb	-0.10193237
170	0xbe330cd8	-0.17485368
171	0x3cbc132c	0.02295836
172	0xbdf58768	-0.11988717
173	0xbd4a2349	-0.049350057
174	0xbdf24f7c	-0.11831567
175	0xbe22ff7c	-0.15917772
176	0x3e447a82	0.19187358
177	0x3b3b0e1b	0.0028542343
178	0x3f424d62	0.75899327
179	0xbedce8b6	-0.43146294
180	0xbc8a0d73	-0.016852116
181	0x3e98d8b8	0.29852843
182	0x3d9fd2cd	0.07803879
183	0x3e6c7b07	0.23093806
184	0xbdad67fe	-0.084671006
185	0x3e4206ed	0.18947954
186	0x3ef27c4b	0.47360453
187	0xbda6f639	-0.08152432
188	0x3d49e9a6	0.04929509
189	0xbd93e0db	-0.07220622
190	0x3ba8ffa0	0.005157426
191	0xbe87b65d	-0.2650632
192	0x3db2c23a	0.08728452
193	0xb9aee300	-0.00033356994
194	0x3d7baf57	0.061446514
195	0x3c439e28	0.011939563
196	0xbf69ff27	-0.91404957
197	0x3d713aec	0.058894083
198	0xbd6af77f	-0.057364937
199	0x3c7676bf	0.01504296
200	0xbe64d956	-0.22348532
201	0x3e516c01	0.20451356
202	0xbe414bf8	-0.18876636
203	0x3d398542	0.0452931
204	0xbd442d03	-0.04789449
205	0xbed62b46	-0.4182989
206	0x3ebfeaea	0.37483913
207	0x3e9b1826	0.3029186
208	0xbc2762e0	-0.010216445
209	0xbe4787c8	-0.1948539
210	0x3f4f5dd1	0.8100253
211	0xbc8f1f88	-0.01747109
212	0x3d9d5dc3	0.07683899
213	0xbcf9726a	-0.030450065
214	0xbf32e82f	-0.69885534
215	0xbe9e7b6b	-0.30953535
216	0x3d929c69	0.07158739
217	0xbec0af01	-0.37633517
218	0x3d4b3e0a	0.049619712
219	0xbf0f2d23	-0.5592825
220	0xbe025e1a	-0.1273121
221	0xbedae71d	-0.4275445
222	0x3e413cec	0.18870896
223	0xbc99f4c4	-0.018793471
224	0xbd69d3a3	-0.057086598
225	0x3df69699	0.12040443
226	0x3ed54de8	0.41661
227	0xbf58512e	-0.8449887
228	0x3e70d8ec	0.23520249
229	0xbe9d0323	-0.30666456
230	0x3caa4023	0.020782536
231	0xbf5443c3	-0.82915896
232	0xbf97ba55	-1.1853739
233	0xbd7d8d8d	-0.06190257
234	0xbeb21f43	-0.34789476
235	0xbef2fc85	-0.47458282
236	0xbf3893ea	-0.721007
237	0xbcd27a70	-0.025693148
238	0xbae7c280	-0.0017681867
239	0x3d680f6a	0.056655325
240	0xbe80c138	-0.25147414
241	0xbdab8954	-0.08375803
242	0xbdf1539d	-0.11783526
243	0xbdefa55d	-0.117014624
244	0x3e9dd004	0.30822766
245	0x3e476f6b	0.19476096
246	0xbe2b9864	-0.16757351
247	0xbd935845	-0.071945705
248	0x3cb5c06d	0.022186482
249	0xbd65fa1e	-0.056146733
250	0xbd6680de	-0.05627524
251	0xbd068d78	-0.03284976
252	0xbd866f15	-0.06564156
253	0x3da4043b	0.080086194
254	0x3b9953f0	0.0046791956
255	0x3e2b3da2	0.1672273

adv.0.bias f4 [64]
0	0xbfe2bcee	-1.7713907
1	0xbfbc507c	-1.4712062
2	0xbf3d9ba4	-0.74065614
3	0xbf29edae	-0.66378295
4	0xbfab4f78	-1.3383627
5	0xbf5d358d	-0.86409837
6	0xbf8b4b5f	-1.0882376
7	0xbfdec73c	-1.7404552
8	0xbe516109	-0.20447172
9	0xbf1a1790	-0.60192204
10	0xbe6fcbd0	-0.23417592
11	0xbf97368d	-1.1813523
12	0xbec9fe72	-0.3945194
13	0xbe1fc5d6	-0.15602812
14	0xbf06f9b6	-0.5272478
15	0xbf8f7a41	-1.1209184
16	0xbec469aa	-0.38361865
17	0xc003b26b	-2.0577648
18	0xbf277e88	-0.65427446
19	0xbfa6b3e8	-1.3023653
20	0xbe88f058	-0.26745868
21	0xbecc3ea8	-0.39891553
22	0xbf167683	-0.58774585
23	0xbfd04700	-1.6271667
24	0xbdde4ceb	-0.10854515
25	0xbf281e88	-0.65671587
26	0xbea321ed	-0.3186182
27	0xbf06d871	-0.52674013
28	0xbf02855b	-0.50984734
29	0xbf758b9d	-0.9591616
30	0xc03b516d	-2.9268448
31	0xbf0c157f	-0.547203
32	0x3e862e7d	0.26207343
33	0xbe75e1bc	-0.24011892
34	0xbe8d283b	-0.27569756
35	0xbfcaa73b	-1.5832285
36	0xbf96f113	-1.179232
37	0xbf17ea4d	-0.5934189
38	0x3d4bcdd1	0.04975683
39	0xbe149538	-0.14510047
40	0xbf333dde	-0.70016277
41	0xbc1f4a5a	-0.009722317
42	0xbf9e6ac1	-1.2376329
43	0xbe1f8e4c	-0.15581626
44	0xbf0f167b	-0.5589368
45	0x3e2a973a	0.16659251
46	0xbfb3d0b4	-1.4048066
47	0xbfb8db22	-1.4441874
48	0xbfd5d386	-1.6705177
49	0x3d395b72	0.045253225
50	0x3e92c527	0.2866604
51	0xbe413398	-0.18867338
52	0xbf2475a7	-0.64242023
53	0xbfa946fc	-1.3224788
54	0xbed2fafa	-0.41207105
55	0xbeabf14b	-0.3358253
56	0xbf39290a	-0.72328246
57	0xc004e2c6	-2.0763412
58	0xbf0c5df5	-0.5483087
59	0xbe9f736c	-0.31142747
60	0x3da8c60e	0.08240901
61	0x3e816ccb	0.25278315
62	0xbe8cdf56	-0.27514142
63	0xbf010e1f	-0.5041217

adv.2.weight f4 [2, 64]
0	0xc030f8e2	-2.7651906
1	0x3f9b7f68	1.2148256
2	0xc0240ba7	-2.5632112
3	0xbf16bff8	-0.5888667
4	0xbeb8030d	-0.35939828
5	0xbc8ae8d6	-0.016956728
6	0x3f9044ab	1.1270956
7	0xc015e64e	-2.3421817
8	0x3dee9431	0.11649359
9	0x3fa23519	1.2672454
10	0xbd447737	-0.047965255
11	0xbfce7039	-1.6127998
12	0x3f6ffc47	0.9374432
13	0x3d4ab775	0.049491365
14	0xbfa0c63d	-1.2560498
15	0xbf8d8f80	-1.1059418
16	0xbe83d5da	-0.25749093
17	0xbf63eb27	-0.8903069
18	0xbf2ba3ae	-0.6704663
19	0x3f674890	0.90345097
20	0xbf40f80c	-0.7537849
21	0x3e6d5744	0.2317782
22	0x3f2dde49	0.67917305
23	0xbf8ef7f3	-1.1169418
24	0xbf00f311	-0.5037089
25	0xbe90f030	-0.2830825
26	0xbe88a005	-0.26684585
27	0x3f027e53	0.50974005
28	0x3f39e76f	0.72618765
29	0xbf8635cf	-1.0485171
30	0xbf850f87	-1.0395364
31	0x3dc7cf07	0.09756284
32	0xbfaecce4	-1.3656278
33	0x3d75abee	0.059978418
34	0xbee4525a	-0.4459408
35	0x3fbb5fc4	1.46386
36	0xc00d5892	-2.208531
37	0x400ad954	2.1695147
38	0x3ed80ee3	0.42198858
39	0x3f59ec14	0.8512585
40	0x3ee5daa1	0.44893363
41	0xbe14ccea	-0.14531294
42	0xbff657ac	-1.9245505
43	0x3d867145	0.06564573
44	0xbf1161dd	-0.5678995
45	0x3f5e8dc9	0.86935097
46	0xbf393d32	-0.72359
47	0x3ffdd1e1	1.9829675
48	0xc052568a	-3.286532
49	0x400015da	2.0013337
50	0x3f2cf997	0.67568344
51	0xba3d407b	-0.0007219386
52	0xbf07d3d4	-0.530576
53	0x3f4cbfe0	0.7998028
54	0x3bea149f	0.0071435715
55	0xbdda0f60	-0.10647464
56	0x3f1182e9	0.5684038
57	0x3fdd4615	1.7287012
58	0xbf3d856f	-0.7403173
59	0x3e46beef	0.19408773
60	0xbf8408a6	-1.0315139
61	0x3e222559	0.1583456
62	0x3b2b12d5	0.0026103754
63	0xbf727a05	-0.9471744
64	0x402cc796	2.6996818
65	0xbf9974d4	-1.1988778
66	0x40281e85	2.6268628
67	0x3f03ccd4	0.5148442
68	0x3eda5e7d	0.42650214
69	0x3d874e57	0.06606739
70	0xbf90265d	-1.1261708
71	0x401ad3a0	2.4191666
72	0x3d8f2799	0.069899745
73	0xbf9e6687	-1.2375039
74	0xbdc3a239	-0.09552426
75	0x3fbfc753	1.4982704
76	0xbf65804b	-0.89648885
77	0x3d2dd04c	0.042434976
78	0x3f90bfab	1.1308492
79	0x3f7e62bc	0.99369407
80	0x3e38d0ce	0.18048403
81	0x3f75bdef	0.9599294
82	0x3f09fa98	0.53898
83	0xbf7a2950	-0.9771929
84	0x3f145230	0.5793791
85	0xbea5321b	-0.3226479
86	0xbf354e27	-0.70822376
87	0x3f8b34c5	1.0875479
88	0x3f0c6a6d	0.5484989
89	0x3e7af66f	0.2450807
90	0x3d5b4264	0.053530112
91	0xbf159f16	-0.5844587
92	0xbf2ace99	-0.66721493
93	0x3f84a8e7	1.0364045
94	0x3f6536aa	0.89536536
95	0xbe82f033	-0.25573882
96	0x3faba0e2	1.3408473
97	0x3c68e1b6	0.01421397
98	0x3eb87073	0.36023292
99	0xbfb1be8a	-1.3886273
100	0x4006e4c4	2.1077127
101	0xc011c480	-2.2776184
102	0xbf0643df	-0.52447313
103	0xbf4998fe	-0.7874907
104	0xbedc9319	-0.43080977
105	0x3e12c123	0.14331488
106	0x3ff30184	1.8984838
107	0x3caa70df	0.020805774
108	0x3ee15573	0.44010505
109	0xbf56697b	-0.837547
110	0x3f4d6dda	0.80245745
111	0xbffcd6fb	-1.9753107
112	0x40543e44	3.3163004
113	0xbff03f80	-1.8769379
114	0xbf378fc3	-0.7170374
115	0x3ce74df9	0.028235422
116	0x3f0db0a4	0.5534766
117	0xbf6dbcfe	-0.92866504
118	0xbd3d40a6	-0.04620423
119	0x3dc2b6cb	0.09507521
120	0xbf22a631	-0.6353484
121	0xbfdfe091	-1.7490407
122	0x3f386bb3	0.72039336
123	0xbe249e1d	-0.1607594
124	0x3f6c371c	0.9227159
125	0xbdba26ae	-0.09089409
126	0xba9fc120	-0.0012188293
127	0x3f827a3b	1.0193552

adv.2.bias f4 [2]
0	0xbe12c6f9	-0.14333715
1	0xbbb221ed	-0.005436173
