curriculum_run_600/best_model.pt (torch, 146421 bytes, 11 tensors)

feature.0.weight f4 [128, 16]
000000 6b d2 9a 3e a1 ae 52 bf a9 c2 13 bf 0d 06 38 bf
       0.3023866 -0.8229771 -0.577189 -0.7188423
000010 39 65 3c c0 e3 30 41 3f 46 9e 9c 3f 03 01 56 3f
       -2.9436781 0.7546522 1.2235801 0.83595294
000020 8e b7 1a 3f 96 79 0a 3f 68 71 28 be cc 33 a3 be
       0.6043633 0.54091775 -0.16449511 -0.31875455
000030 20 ee d0 bd cb f8 b6 3e 99 9f 15 40 8a e5 ab bf
       -0.10201669 0.3573669 2.337866 -1.3429425
000040 51 49 86 3e 74 fb bd bd fe ca e6 be 30 e6 7c be
       0.2622781 -0.092764765 -0.45076746 -0.24697185
000050 03 e2 ac 3e 88 3f 6c 3e 97 d5 22 3f ee d4 fb 3e
       0.33766183 0.2307111 0.6360716 0.4918589
000060 78 03 5a bf 57 90 fb be c9 40 6c be eb 07 1a bf
       -0.8516154 -0.4913356 -0.23071589 -0.6016833
000070 b5 87 b5 be 8a 24 ca be 52 0a 74 3e d8 51 03 bf
       -0.354551 -0.39481002 0.23832062 -0.5129676
000080 d5 3b ed be 27 35 a8 3e f7 e7 86 3e 1e 0c d3 3d
       -0.4633471 0.32853052 0.2634885 0.103050455
000090 0c ac 61 be fa b4 0e 3e 84 94 69 3e d6 53 bd 3e
       -0.22038287 0.13936225 0.2281056 0.36978024
0000a0 35 c8 0b 3e a5 61 15 3e e6 cd 6b 3f cd 95 57 3f
       0.13650592 0.1458803 0.9211105 0.8421295
0000b0 41 6f 31 3e 76 d6 e5 be 9c eb e0 be 85 21 11 bf
       0.17327596 -0.44890183 -0.43929756 -0.5669177
0000c0 7c 65 c0 3e 18 9b c7 3e c4 df fe 3e 50 fc 38 3f
       0.37577426 0.38985515 0.49780095 0.7226
0000d0 5e 76 ae 3f f5 0e 26 bf a5 87 6f be 63 43 80 be
       1.3629873 -0.6486657 -0.23391588 -0.25051412
0000e0 a4 47 5c 3f 4e 40 71 3f f3 86 b7 3e a6 d5 12 3e
       0.86046815 0.94238746 0.35845146 0.14339313
0000f0 41 2d d7 3e 62 e4 60 bf 5d bb 88 bd 9c 31 50 bf
       0.42026713 -0.87848485 -0.06676362 -0.813257
000100 90 0d 13 3f a2 9f fa bd c2 96 de bd ab 6b 34 3e
       0.5744257 -0.12237479 -0.108685985 0.17619197
000110 bd 88 9b 3f 92 92 3f bd b4 da 3d be 03 51 10 3e
       1.2151104 -0.04677064 -0.1854046 0.14093404
000120 75 ad 3b 3f c3 c0 0d 3f 17 95 2c bd 57 63 26 bd
       0.7331155 0.55372256 -0.04213437 -0.04062208
000130 78 64 00 3e 6e ab b8 c0 2d d3 f5 3e 1e 3b f5 3c
       0.12538326 -5.7709265 0.48012677 0.029935416
000140 52 4f ef 3e 4d 8e f8 3e 51 55 69 3e df a9 b5 3e
       0.46740204 0.48546067 0.22786452 0.35481164
000150 80 6b 10 c0 79 88 54 3f 41 8b 73 3f ac c3 8a 3f
       -2.2565613 0.8302074 0.9513436 1.0840964
000160 e8 19 02 bf f9 0d d5 be 0a a9 4c 3d 33 0a 27 3e
       -0.5082078 -0.41612223 0.049965896 0.16312484
000170 69 91 d0 3e 49 ce b1 3e db 56 a8 3f ba e2 f9 be
       0.4073594 0.34727696 1.3151506 -0.4880579
000180 aa 14 f1 3e 1f 40 b5 be 83 1e 66 be 54 c3 0b be
       0.47086078 -0.35400483 -0.22472577 -0.1364873
000190 c3 22 9e be e1 85 fb bc 18 73 0d 3e 0a f2 17 3e
       -0.30885896 -0.030703487 0.13813436 0.14838424
0001a0 38 b7 3a 3e 70 a6 43 3e 11 11 a7 3e 75 8d fb 3d
       0.18233955 0.1910646 0.32630208 0.1228284
0001b0 85 00 40 3e 48 d0 0f bf 78 83 00 3e ff 72 25 bf
       0.18750198 -0.56177187 0.12550151 -0.64628595
0001c0 14 58 e6 3e 92 46 1e be 87 7c 90 bd 63 69 a8 bd
       0.44989073 -0.15456608 -0.07055002 -0.08223226
0001d0 73 6a 02 c0 a4 28 f4 be 26 57 03 bf 4d b2 fe be
       -2.0377471 -0.47687256 -0.5130485 -0.49745408
0001e0 af 28 93 3e f1 01 16 3f 54 79 0c bf f6 2f 3b bf
       0.28741977 0.5859671 -0.5487263 -0.7312006
0001f0 9f 8e 83 bf 6d 04 7b bf f3 ee e8 bf e5 82 67 3e
       -1.02779 -0.9805363 -1.8197922 0.22608526
000200 44 ad 29 c0 3e 38 6f be 7c 89 3d be 43 30 b3 be
       -2.6512003 -0.23361298 -0.18509477 -0.34997758
000210 7d 0c f3 3f 80 e5 38 c0 12 42 4d c0 5a 0c 49 c0
       1.8988186 -2.8890076 -3.2071576 -3.1413789
000220 b6 2c 6e 3f 72 e8 74 3f 76 99 86 3e 4e 67 a7 3e
       0.93036973 0.95667183 0.26288956 0.32696003
000230 e5 f7 95 be 79 0a e1 3e 70 54 0d 3f ef f5 23 3d
       -0.2929069 0.43953303 0.55206966 0.040029462
000240 4e 20 ec bf fa 5d 77 3f a6 d2 4b 3f 3c 48 64 3f
       -1.8447359 0.9662777 0.796183 0.8917272
000250 5d de f3 3f b1 02 6f be c5 98 5c be b9 5b 4c be
       1.9052235 -0.2334087 -0.21542652 -0.19956864
000260 7f 3e 28 3f 49 02 f3 3e 10 5e 7d 3d 28 52 6a be
       0.6572036 0.4746268 0.061857283 -0.22882903
000270 8d 73 43 3f 0d 7e aa be 37 bb 81 be a4 99 4b be
       0.7634819 -0.33299294 -0.25338146 -0.19882828
000280 8d 21 a0 3f d9 1c 7d bf 5b ed 6a bf 67 ee 9f bf
       1.2510239 -0.98872143 -0.91768426 -1.249463
000290 aa 0b b4 be be 03 03 bf e2 23 e9 be 76 3d b8 be
       -0.3516515 -0.51177585 -0.4553519 -0.3598439
0002a0 b0 55 be 3e 24 87 9a 3e 35 92 e8 be 84 df 08 bf
       0.3717475 0.3018123 -0.45424047 -0.5346606
0002b0 33 95 e0 bd 49 ba b7 bf 32 64 58 bf d2 95 af 3c
       -0.109659575 -1.4353725 -0.84527886 0.021433745
0002c0 dd 72 eb be 11 07 d3 bc 31 ae 00 be 96 6f 0c bd
       -0.4598607 -0.025760205 -0.12566449 -0.034286104
0002d0 c0 05 cd 3f 66 ed 64 3e 4a 37 fd 3d f8 a5 54 bd
       1.601738 0.22356185 0.12364061 -0.051916093
0002e0 2d f5 f9 be 49 ca 27 bf ac 32 05 be d4 63 01 be
       -0.48819867 -0.6554304 -0.13007611 -0.12635738
0002f0 08 75 4e 3e e1 a8 2a c0 70 d1 2c 3f fa e0 02 be
       0.20161831 -2.6665576 0.67507076 -0.12781134
000300 83 03 5f 3c c0 92 b7 3e 75 86 6e 3e 50 ce d7 3e
       0.013611677 0.3585415 0.23293479 0.4214959
000310 d8 ca 42 c0 ee 92 5d 3e 3e 80 12 3c f1 4a c4 3c
       -3.0436306 0.2163808 0.008941708 0.023961516
000320 62 c7 4c 3f 46 cf 45 3f 82 24 79 3f 18 87 45 3f
       0.79991734 0.772694 0.9732133 0.7715926
000330 76 d3 29 3f ce 11 89 be 97 e4 2a 3f 40 2a 75 bf
       0.6633829 -0.26771396 0.6675505 -0.95767593
000340 59 85 2b bf bf 33 96 3f c3 ad 74 3f e1 c4 33 3f
       -0.6700035 1.1734542 0.9557764 0.7022229
000350 f6 12 a3 3f 3f 5e bd be a3 2f 11 be 3b 6a a6 be
       1.2740161 -0.36985967 -0.14178328 -0.32502922
000360 89 c3 1e be 6d 05 02 3d 14 5b b2 3f ac 34 ce 3f
       -0.15504278 0.031743456 1.3934045 1.6109824
000370 de c1 2d 3f 47 bd 08 bf 1a 04 18 bf 6a 68 05 3e
       0.6787394 -0.53413814 -0.5938126 0.13028112
000380 5a e5 81 bf df d1 49 3f 63 c7 0f 3f 65 53 12 3f
       -1.0148118 0.7883586 0.56163615 0.571585
000390 13 22 a5 bf b2 d4 95 be 36 61 17 bf c6 a2 e0 be
       -1.2901024 -0.29263836 -0.5913271 -0.43874186
0003a0 b8 65 e9 be 61 09 0c bf a4 c6 1c 3f 82 c1 3f 3f
       -0.45585418 -0.5470181 0.612406 0.74904644
0003b0 fd 01 ec 3e 43 c0 d2 be d2 1d b3 3e b9 fd 1c be
       0.46095267 -0.4116231 0.3498369 -0.15331163
0003c0 d1 ea eb 3f 1f 84 67 be e6 3a e2 bd 68 d5 93 bd
       1.8431035 -0.22608994 -0.1104639 -0.072184384
0003d0 fc a4 1b c0 fe 6d 13 3f b2 2c 45 3f be c3 18 3f
       -2.4319448 0.5758971 0.77021325 0.5967368
0003e0 00 11 48 3f e7 8d 75 3f 43 1d a2 bf 28 f7 8d bf
       0.7815094 0.9591965 -1.266518 -1.1091051
0003f0 52 95 39 3f 35 50 3e be c9 05 02 3e ed c3 0f be
       0.7249347 -0.18585284 0.1269752 -0.14039584

feature.0.bias f4 [128]
000000 4f c1 15 bf 08 89 83 be b6 4d b4 be d6 6d dd 3e
       -0.5849809 -0.25690484 -0.3521554 0.4324786
000010 99 54 b9 3f 30 89 71 3f 7b 14 09 bf 72 ad 82 3f
       1.4478942 0.94349957 -0.53546876 1.0209181
000020 94 7e 8e 3f 34 21 cc bd 8f d3 ed be 6f 51 ac 3f
       1.1132379 -0.099672705 -0.4645047 1.3462352
000030 b3 55 ce 3e 03 64 5d 3e 7b 7b 1c 3f 80 a1 11 c0
       0.40299758 0.21620183 0.61125916 -2.2754822
000040 66 7f a5 bf 56 35 13 40 08 41 ea 3f 8c 7c 9b 3e
       -1.2929504 2.3001304 1.8301096 0.3036846
000050 0f d3 56 3f cd cc 02 40 60 ce b8 3f ac e9 c0 be
       0.839158 2.04375 1.4437981 -0.37678277
000060 82 0c cd bd 50 04 7a 3f a0 6d 74 bd 9e 1f a5 bf
       -0.10012151 0.9766283 -0.05967486 -1.2900274
000070 3c 21 53 3f b5 45 94 be 9b 77 80 3f 55 3f 3d bf
       0.82472587 -0.28959432 1.0036501 -0.7392476
000080 6f 96 c4 be e3 b7 26 c0 95 3a 86 bf 57 75 60 bd
       -0.38396022 -2.6049736 -1.0486628 -0.054799404
000090 2c c0 06 3f db 32 c6 3f d2 f0 31 3f 49 2b 71 bd
       0.5263698 1.548427 0.6950809 -0.05887917
0000a0 f4 1d 68 bf 89 f5 ea 3f 0e 9b e5 be 7f e0 b1 3f
       -0.90670705 1.8356181 -0.4484486 1.3896636
0000b0 c7 49 1e be ef 33 2d bf 91 9e 28 c0 4a 40 76 3f
       -0.15457831 -0.6765737 -2.6346781 0.9619185
0000c0 e0 e6 89 3f 8f 79 20 c0 48 c9 f3 3e 76 43 06 bf
       1.0773582 -2.5074193 0.47614503 -0.5244669
0000d0 fd 99 21 bf a3 a5 b2 be b1 b9 52 3f 75 ac 70 3f
       -0.6312559 -0.34891996 0.8231459 0.9401315
0000e0 9e a1 dc bd 83 08 0e bf 57 90 38 3e 68 12 0a bf
       -0.107730135 -0.5548174 0.18023811 -0.53934336
0000f0 7e ff 70 bf 60 4e 33 bc 25 92 e3 3e ea 70 90 3f
       -0.9413985 -0.010943979 0.44447437 1.1284459
000100 14 f5 03 c0 2d 2b 0b c0 23 ed a5 bf 22 88 dd bb
       -2.0618334 -2.1745102 -1.2962993 -0.006760613
000110 90 ca 08 3f 6e 75 a1 3f e4 85 27 be 1d d0 87 3f
       0.53434086 1.2613962 -0.16359669 1.0610386
000120 e6 70 dd be 86 fb 45 bf 1e ae c2 bf 26 7d ed bf
       -0.43250197 -0.7733692 -1.5209386 -1.8553817
000130 df 24 6e 3f 7e 3d d6 bf 5a 37 0a c0 f0 2f 24 3f
       0.9302501 -1.6737516 -2.1596284 0.64135647
000140 e2 b8 e3 bd 8b 3f e3 bf 3f 28 4f 3e 3c 6b 6a 3e
       -0.11119248 -1.7753767 0.20230196 0.22892469
000150 93 c4 f5 be 6d f4 1b bf 2d 9c 4d 3e 32 89 03 bf
       -0.48001537 -0.6091984 0.20079108 -0.5138122
000160 01 55 18 bb 57 9e a4 bf 74 51 50 be d9 f7 60 bf
       -0.0023244026 -1.2860821 -0.20343572 -0.87878186
000170 0c b8 46 bf f8 44 26 bf 37 88 1e bf 92 53 09 40
       -0.77624583 -0.6494899 -0.619266 2.1457257
000180 54 6a 45 be 97 00 82 bf 02 46 16 be b3 a3 8f be
       -0.19278842 -1.015643 -0.14675143 -0.2805458
000190 fa 03 7e 3f ae 3e 2c bf 31 c9 5e c0 59 1a 41 bf
       0.9922482 -0.6728314 -3.4810297 -0.7543083
0001a0 38 82 81 bf c2 47 55 bf b0 d8 ba 3e 57 d7 00 3f
       -1.0117865 -0.8331262 0.36493444 0.5032858
0001b0 1d 93 fc 3c 67 70 94 bd 3d 21 e9 3e ab 1d b4 bf
       0.030831868 -0.072480015 0.4553317 -1.4071554
0001c0 fc 3b aa bf 7e ed 39 3f db a6 d6 3e d3 c0 0b 40
       -1.3299556 0.7262801 0.41924176 2.183644
0001d0 0c 4c 48 3e 8e c9 7b 3f b0 65 15 bd 9c ba 94 3f
       0.1956026 0.98354423 -0.03647393 1.1619449
0001e0 cf 27 0d c0 d1 fd a0 3f c0 da 80 bf cd 67 b1 bd
       -2.2055547 1.2577459 -1.0066757 -0.086623766
0001f0 88 ff 8c 3f 45 e3 20 bf 3c b9 53 3f 98 a5 af bf
       1.1015482 -0.62846786 0.8270452 -1.372241

feature.2.weight f4 [128, 128]
000000 72 40 bf bd 16 08 3d bf 2d 49 b0 bd 8f f4 55 3d
       -0.09338464 -0.73840463 -0.08607707 0.052235182
000010 5c 1b a4 be 0f ae db 3d 9d 3d 50 bd ce 4f 86 bf
       -0.32052124 0.107265584 -0.05084001 -1.0493104
000020 f5 ef 6b 3c 2e 93 82 be 8f a7 09 be d9 9c 88 be
       0.014400472 -0.25502914 -0.13442825 -0.26682165
000030 26 79 07 3e 65 3b 85 bd a1 3b 0b 3c 77 c8 86 3c
       0.13229808 -0.06505469 0.008498103 0.016453011
000040 c6 36 a1 3d 96 c6 91 bd e3 76 28 3f 6b d3 64 be
       0.07871775 -0.071179554 0.65806407 -0.22346275
000050 b2 09 5e 3f 11 32 6c be 95 72 a5 bf ac 5e 70 3b
       0.86733544 -0.23065974 -1.2925593 0.0036677523
000060 0e f9 b2 be 9a 4d d3 bc 68 5a 58 3c c7 6a cc 3c
       -0.3495564 -0.02579384 0.013205148 0.02495326
000070 6c bd 01 3d 26 63 a8 bc da b2 15 bf f0 c6 91 3e
       0.031674787 -0.02055509 -0.5847603 0.2847209
000080 24 7c e1 3d f5 af 06 bf 55 4c 60 be 55 49 36 bd
       0.11010006 -0.5261224 -0.21904118 -0.04450353
000090 88 32 ad bd a7 6b a3 be c5 26 87 3d 2a 07 70 3d
       -0.08456904 -0.3191807 0.065991916 0.058600582
0000a0 cd bd fd bd ce 9c 35 be 62 2d 8a be 65 6a c3 bd
       -0.12389717 -0.17735597 -0.2698775 -0.095417775
0000b0 18 bf 2b bd 94 38 89 bd 5b 42 45 3d 07 86 2d be
       -0.041930288 -0.067002445 0.048158985 -0.16945659
0000c0 4a c1 78 be 35 68 c2 bb 9b 4f cc 3d 1e 96 c8 be
       -0.24292484 -0.0059328326 0.09976121 -0.3917703
0000d0 f4 b5 69 3d 4b 1e 18 3d af fb 05 be c0 5b 9d bd
       0.05705829 0.037138265 -0.13084291 -0.076835155
0000e0 5f a3 54 be 2c d0 1d bf 6f 14 0e 3e cc 4e 51 be
       -0.20765446 -0.6164577 0.13874982 -0.20440215
0000f0 02 14 07 3e 95 e4 46 bd e6 96 51 be ae 50 0b 3e
       0.13191226 -0.048557837 -0.2046772 0.13604996
000100 3c 82 37 be b5 40 aa be ea c0 e8 bd 3d 1a 38 3c
       -0.17920774 -0.33252493 -0.113649204 0.011236724
000110 c2 3d 8e be 98 a8 73 be 61 7d 80 be cd f5 53 bf
       -0.27781492 -0.23794782 -0.25095657 -0.8279694
000120 5c 23 cd 3d 6e a8 52 be ed 4f d9 3d f7 b7 03 bf
       0.1001651 -0.20572063 0.10610948 -0.51452583
000130 70 9e 2f bf 1a 3c 90 be 0f a3 b4 bd 2c 45 d6 3e
       -0.6860113 -0.28170854 -0.088201635 0.4184965
000140 0b 69 9e be 4e c7 34 be 3a f1 ce 3d db cb 13 3d
       -0.30939516 -0.17654154 0.10104604 0.036083084
000150 99 08 f2 3e 2d 57 cc be e1 04 85 bf 0c 10 33 bf
       0.47272184 -0.3991026 -1.0392114 -0.6994636
000160 2f 97 20 bb 9a 87 9a 3e 5b 2a 17 3e 80 c6 12 be
       -0.0024504175 0.3018158 0.14762251 -0.14333534
000170 7d a5 60 bf b7 67 a1 bd a7 0f 38 be e5 28 0a 3f
       -0.87752515 -0.0788111 -0.17974721 0.5396865
000180 eb 15 11 be 15 98 66 3e b8 c5 50 be bf c3 9e be
       -0.14168517 0.22518952 -0.20387924 -0.31008717
000190 5a e6 17 be b2 c3 27 3e c4 7e a0 3c 81 7f 1c be
       -0.14833966 0.16383246 0.019591697 -0.15283014
0001a0 77 08 17 bf 57 9d 07 be 9c bf 11 bf ed c0 31 3b
       -0.5899729 -0.13243614 -0.56933 0.002712305
0001b0 d0 b0 7d 3e fe df 93 3d e8 5b 49 3d ca b5 43 bf
       0.2477448 0.072204575 0.049159914 -0.76449263
0001c0 db d3 9b ba 2e eb 83 be 9b 92 85 bf 07 74 99 3c
       -0.0011888699 -0.25765365 -1.0435365 0.018732084
0001d0 4f c3 1b bf 7a 4c 6d be 3c 0a b4 bd 9b 88 39 3c
       -0.6084489 -0.23173705 -0.087910146 0.011324073
0001e0 95 58 89 be bd 6d f2 bf c6 a6 cd be 68 1b 4c 3e
       -0.26825395 -1.893974 -0.401663 0.1993233
0001f0 6b a0 37 3f 99 14 83 bd c0 67 09 3f a8 0c 30 bd
       0.71729153 -0.06400413 0.53673935 -0.04298082
000200 f5 2f 75 be 12 b3 0e 3d 46 90 26 3e 0a 7c d3 3e
       -0.23944075 0.034838744 0.16265973 0.41305572
000210 38 99 4a 3c 8d d8 39 be ec d8 fa bd 9d 97 63 3e
       0.012365632 -0.18149014 -0.12248406 0.22225805
000220 30 df 29 bf 2f 8a a2 bd df ca db be 72 df 3d 3e
       -0.6635618 -0.07936513 -0.42928216 0.18542269
000230 e4 a5 fd bd d4 39 58 3e 1b f9 82 3d 1f 6d 23 3d
       -0.12385157 0.2111581 0.06395169 0.039898988
000240 80 8a 96 ba 42 d3 2b be af c4 76 be 37 f9 00 3f
       -0.0011485368 -0.16779807 -0.24098466 0.5038027
000250 32 91 15 be 31 88 81 be 03 13 77 be 6d ab 38 be
       -0.14606169 -0.25299218 -0.24128346 -0.18034144
000260 72 89 98 be 68 46 f1 bd 56 c2 33 3d 4b b4 47 be
       -0.29792362 -0.11781007 0.043886505 -0.1950237
000270 db a3 4a be 35 56 13 bf 07 38 ad bd a6 29 94 bd
       -0.19789068 -0.57553416 -0.08457952 -0.07234506
000280 bd 1d 9d be cf e8 a0 be d8 a7 35 be 7b 80 62 3c
       -0.3068675 -0.3142762 -0.17739809 0.013824577
000290 29 f5 99 3e 6c df 99 3d 75 23 d1 be 40 d3 42 be
       0.30069855 0.075133175 -0.40847364 -0.19025898
0002a0 fa b4 1e be d5 9c 30 bf bb 19 ff bd 94 84 38 be
       -0.15498725 -0.68989307 -0.124560796 -0.18019325
0002b0 1a df 98 3d 65 e9 af bf a7 14 27 3e 51 07 90 be
       0.07464428 -1.3743101 0.16316472 -0.28130582
0002c0 ac e8 7e bd 44 b5 15 3d 18 0d 41 3e f3 2b b4 be
       -0.062233612 0.03654982 0.18852651 -0.3518978
0002d0 d7 5b 19 bd 25 53 a9 3c 85 0d 4f bd 45 17 99 bd
       -0.0374411 0.02066953 -0.050550003 -0.074751414
0002e0 fd 38 18 bd 4e 95 08 3d 72 27 50 3e 01 f3 ca bd
       -0.037163723 0.033345513 0.20327547 -0.099096306
0002f0 cc 2f c1 bd 90 26 0d bc 71 0d a2 bd 10 91 a4 bc
       -0.09432945 -0.008615151 -0.0791272 -0.020088702
000300 a4 98 fb 3d e4 56 cf 3e 0b 58 62 bd f8 3c 9e bd
       0.12284973 0.4049598 -0.055259746 -0.077264726
000310 67 c9 f1 3e 60 58 aa bc 10 ba a9 be d9 71 58 3d
       0.4722397 -0.020794094 -0.33149767 0.05284295
000320 82 12 0e bf 87 8e 2f bd 5b 24 bd bc ab ca 3d 3f
       -0.5549699 -0.042860534 -0.023088625 0.7413737
000330 55 63 cf 3c af 5a e6 bc 49 b8 bd 3d f7 0d b1 bd
       0.02531592 -0.028119413 0.09263665 -0.08645242
000340 ab 31 5b 3e ae 45 7d bf 2a cc 0e bf e9 6e 8c bc
       0.21405666 -0.9893445 -0.5578028 -0.01714273
000350 30 b3 a8 3e 7a b5 47 bf 7f e3 c2 be cc a8 7e bd
       0.3294921 -0.78011286 -0.3806419 -0.062172696
000360 2e d0 1e bd 0d b9 05 bd 37 b3 b5 3d 76 d6 04 bd
       -0.038772754 -0.03264718 0.08872073 -0.03243109
000370 60 1a 46 3f b3 04 32 be 4d 2c 86 3c 28 cb 3d be
       0.77383995 -0.17384605 0.016378546 -0.18534529
000380 dc a8 db be 89 59 02 bf 7f c1 d6 bd ff 83 06 bf
       -0.42902267 -0.5091787 -0.10486125 -0.5254516
000390 59 7b 31 be 64 68 58 bf d5 bf c4 3d 76 a8 ea 3d
       -0.1733221 -0.8453429 0.096069016 0.114579126
0003a0 81 db ea bc 54 0f 84 be 0b a0 89 bd 31 65 d4 be
       -0.02866912 -0.25792944 -0.06719979 -0.41483453
0003b0 36 e6 fa 3d bb 58 9d 3d 41 1d 4e be e9 f0 0d bd
       0.122509405 0.076829396 -0.20128347 -0.034653578
0003c0 1b 46 75 be f0 79 18 be 7a dc 3d be 5e 51 58 be
       -0.23952524 -0.14890265 -0.18541136 -0.21124789
0003d0 71 75 07 3e 7c e3 99 3d 30 4a a4 bb b1 c7 1e bf
       0.13228394 0.07514092 -0.0050137267 -0.62023455
0003e0 04 83 7a be c3 83 1a 3e 1a 2c 8b bd 57 d7 37 bf
       -0.24464041 0.15089326 -0.06795521 -0.7181296
0003f0 1f 4b 5c be 4a 59 63 bf 2a a5 57 be fe 61 03 bf
       -0.21513031 -0.8880812 -0.21059099 -0.513214

feature.2.bias f4 [128]
000000 26 f7 1c be 28 d2 02 be f9 7b 5f 3f 33 0a c5 3f
       -0.15328655 -0.12775481 0.8729854 1.5393738
000010 68 17 88 bb 2c 54 40 bd 4e c5 c4 bc cb 81 0d 3f
       -0.004153181 -0.046955273 -0.024019863 0.55276173
000020 f8 a3 77 3e c7 43 6e be 0a d7 1a 3f e0 bf 25 3e
       0.24183643 -0.23268043 0.60484374 0.16186476
000030 00 7d 26 3e d2 2f d4 be c4 27 52 be 99 23 d1 3c
       0.16258621 -0.41442734 -0.20522982 0.02552967
000040 4e bc a3 bc 3d f1 f5 be 6a d6 33 bd 9c 34 9c 3f
       -0.019987252 -0.48035613 -0.043905653 1.2203555
000050 ab f3 3b be 0d 61 11 be 37 57 16 c0 41 3d 04 be
       -0.1835467 -0.14197178 -2.3490732 -0.12913992
000060 3d b7 1c 3d 4c 1a 01 be 78 9d 1d be 07 08 bc be
       0.038260687 -0.12607688 -0.15392101 -0.36724874
000070 3c 93 84 ba a5 40 37 3f 11 2c 2a be 1b 83 8d 3e
       -0.001011468 0.71583015 -0.16618372 0.27639088
000080 21 bd 22 bb a6 ea d8 3e dc 3e 28 3e bf be 94 bd
       -0.0024831968 0.42366523 0.16430229 -0.072629444
000090 8a 04 cf 3e ae 32 8d 3e d6 bf 7e 3e 7c c4 63 3e
       0.4043315 0.27577728 0.24877867 0.22242922
0000a0 38 b0 01 be a1 46 75 3d a5 ff ee 3d 88 88 dd bd
       -0.12664878 0.05988181 0.11669854 -0.10817057
0000b0 d1 ca 10 3e d4 a5 1a be 76 ad a7 be 15 05 0f 3d
       0.14139868 -0.15102321 -0.32749528 0.034916956
0000c0 b6 11 15 c0 c0 51 93 be d8 96 c3 bf db 57 54 bf
       -2.329206 -0.28773308 -1.5280409 -0.82946557
0000d0 88 8d 8d bd b9 cd bf 3e fa ea 9d 3d e6 c5 b4 3e
       -0.069117606 0.3746164 0.07710834 0.35307235
0000e0 69 48 86 3d bb 1f dd be 19 0a 04 3e 52 10 2b be
       0.0655678 -0.4318827 0.12894477 -0.16705444
0000f0 26 85 54 bd b7 1d 46 bd e9 af 2d bd 5c df 89 3f
       -0.051884793 -0.048368182 -0.04240409 1.0771289
000100 f1 55 58 3e 39 2b f0 bd d2 e6 40 be 2e db 97 bd
       0.21126534 -0.11726994 -0.18838051 -0.07414852
000110 c8 83 02 be ab 15 eb bb b9 0d 17 be 69 e1 1f be
       -0.12745583 -0.007174214 -0.14751329 -0.15613331
000120 52 ba 69 3e 41 89 24 bf 65 bb 88 3e fd 8a 56 bd
       0.22824982 -0.6427193 0.2670547 -0.052378643
000130 e8 d0 0c be e6 03 92 3d 83 c7 bf 3e c4 32 12 be
       -0.13751566 0.0712965 0.37456903 -0.14277178
000140 b7 19 19 3f 1d 73 55 3e 78 d2 e3 be 7e 06 9d bd
       0.5980486 0.20844693 -0.44496512 -0.07667254
000150 a1 12 d7 bd 9b d3 a6 bd 49 59 ec 3e 60 32 81 3e
       -0.105016 -0.08145829 0.4616187 0.25233746
000160 46 4f 6e be 15 ab 13 bf 2a b5 23 bd 25 9e 96 3e
       -0.23272428 -0.57682925 -0.039967693 0.2941753
000170 8f e0 25 bd ea 55 83 3f 0b 54 71 bf 53 85 f0 bc
       -0.04049736 1.0260594 -0.94268864 -0.029360449
000180 d4 54 1f be 30 af a7 bc cb 5e 8a 3e ce cc 20 3f
       -0.15559703 -0.020469278 0.27025446 0.6281251
000190 41 2e 50 bd 22 3f 0d bf cf 03 33 3f 67 1e 17 3f
       -0.05082536 -0.5517446 0.69927686 0.59030765
0001a0 f5 44 9e 3f 26 22 ef bd 39 99 c7 3e 53 bf 2a be
       1.2364794 -0.11676435 0.38984087 -0.16674547
0001b0 54 c9 07 3f ad 68 90 3b 12 9b 68 bd c2 39 16 be
       0.5304158 0.0044070096 -0.05678851 -0.1467047
0001c0 cf 24 43 3f 03 1b f9 bd 77 97 e9 be d0 63 16 3c
       0.7622804 -0.12163355 -0.4562337 0.009179071
0001d0 6f 1d 80 3e f0 3f be 3d df 8b 0e 3f 40 b6 a5 bc
       0.25022456 0.09289539 0.55682176 -0.020228505
0001e0 70 c9 38 bd ec 6f f0 3e 61 28 a9 bd 46 5f c4 bd
       -0.04511398 0.4696039 -0.08259655 -0.095884845
0001f0 74 ca 45 3e cd 26 13 be 4f d4 01 bc 1b 2e f2 be
       0.19315511 -0.1437027 -0.0079241535 -0.473008

value.0.weight f4 [64, 128]
000000 dc 7c 20 3f a5 b1 14 bc eb c0 89 bf b4 74 48 bf
       0.6269052 -0.009075557 -1.0761999 -0.78303075
000010 72 fa a5 bc 51 fb b5 bd fc 8d 0d be 54 0e 33 bf
       -0.020261023 -0.088858254 -0.13823694 -0.6994374
000020 23 96 3d bf 69 c6 34 3d f8 d0 a9 be d5 f9 35 3b
       -0.74057215 0.04413453 -0.33167243 0.002776732
000030 2a c6 2f bf 20 82 96 bd a2 c5 24 bf 38 96 38 bf
       -0.6866175 -0.07349038 -0.64364064 -0.72104216
000040 92 78 ff bb 05 ad 5f bf 6a 89 81 3c 1a 2d c8 bf
       -0.0077963555 -0.8737338 0.015812594 -1.5638764
000050 8e 12 c8 be 13 13 a1 bd fe ba 22 c0 00 79 95 bb
       -0.39076656 -0.07864966 -2.542663 -0.0045615435
000060 bc 51 3b 3e ba e0 84 bc ec f2 a8 3d 0a 3a 43 be
       0.18292898 -0.01622044 0.08249459 -0.19065109
000070 a0 ab 8a bc 29 85 15 3c 00 97 06 3c bc 8b 42 bf
       -0.01692754 0.009125986 0.008214712 -0.7599447
000080 cc da 78 bd 44 a9 07 c0 1e 27 e9 bd af 5b a0 bd
       -0.060755536 -2.1197062 -0.11384414 -0.07829987
000090 dd 0f 57 bc 1a 71 5a bf 63 d4 54 bf 12 e6 49 be
       -0.013126341 -0.8532883 -0.83136576 -0.19716671
0000a0 f5 85 22 be 05 89 ae be c8 38 b5 be c2 4d 6e bd
       -0.15871413 -0.34088913 -0.35394883 -0.058179624
0000b0 44 2b 11 bf 4d 66 cd bd af b6 ae bc 4a cf 84 3d
       -0.56706643 -0.10029278 -0.021327345 0.0648485
0000c0 29 da 83 3e 5e cf cf be 7b 8f 85 bf ee 76 8c be
       0.2575238 -0.40587896 -1.0434412 -0.27434486
0000d0 70 10 97 bc 72 23 af be d4 c5 b7 be 69 69 e0 bf
       -0.018440455 -0.3420673 -0.35893118 -1.7532169
0000e0 97 82 3c bf 86 b7 ab 3f 92 4b 06 bf 12 80 15 3d
       -0.73636764 1.3415382 -0.5245906 0.03649909
0000f0 f4 4c 14 3d 80 74 87 3a 52 09 52 3d 8d a3 f5 bf
       0.0362062 0.0010334402 0.05127842 -1.9190537
000100 28 a5 61 be 6b 07 92 3d 4a 2c 64 3d 54 49 8c 3c
       -0.22035658 0.07130321 0.0557063 0.01712481
000110 7c d5 57 be 8b c6 13 3d a2 71 cb 3d 77 aa dc bd
       -0.21077532 0.036078017 0.09933783 -0.10774701
000120 4d de b1 be 56 20 09 3f 49 05 4d bf 39 9d 00 bd
       -0.34739915 0.53564966 -0.8008619 -0.03139994
000130 d6 9a 47 be 7a 9b d8 be 0d 0e f5 be 9a 79 86 3d
       -0.19492659 -0.4230612 -0.47862282 0.065661624
000140 54 6f 5e be 8e 31 19 bc f8 4b 59 3f fc ff 76 3d
       -0.21722156 -0.009350194 0.84881544 0.06030272
000150 1a 6a cf 3c d3 f0 48 bd 0b 66 af be f8 38 28 be
       0.025319148 -0.049057793 -0.3425754 -0.16427982
000160 45 1d 6e be 13 bc 4d 3e 0f 76 86 bc c1 67 d0 3e
       -0.23253353 0.20091276 -0.016413717 0.40704158
000170 48 bc b6 be 6f 58 01 3c 91 df a0 3e 4a 37 d5 be
       -0.35690522 0.007894619 0.31420568 -0.41643745
000180 3f 96 68 3c 22 e9 a6 3e 74 93 ac 3e 85 86 3a bd
       0.014195978 0.3259974 0.33706248 -0.045538444
000190 86 20 bf be c1 94 7e be 7e c1 00 c0 8f a8 5b bf
       -0.373295 -0.24861433 -2.0118098 -0.85804075
0001a0 7e 74 5a be 2c c1 cd 3c bd 48 e2 be fc 29 72 bf
       -0.213335 0.025116526 -0.4419612 -0.94595313
0001b0 b1 9e b2 bf 03 6f 9e 3d 49 12 49 3d 93 d1 49 3d
       -1.3954679 0.077360176 0.049089704 0.04927213
0001c0 f3 d0 d9 be 72 fc cc bc d5 72 86 be ad 50 7e be
       -0.42542228 -0.025022719 -0.26259485 -0.24835463
0001d0 96 6c 8d be 17 e3 7c bf 76 24 5c 3e da 42 64 bd
       -0.27621907 -0.9878401 0.21498284 -0.055727817
0001e0 bc 4c 41 3f 83 ab 91 3e 4d 98 8e 3d fd ea 27 3d
       0.7550771 0.28451166 0.06962643 0.040995587
0001f0 5c c9 43 be 3a 47 94 bd 48 6e d7 3c 97 17 e2 3e
       -0.19119781 -0.07240148 0.026297703 0.44158623
000200 27 ad ab bd 68 ae 0b bd e4 f5 0f be 9b f1 7b bf
       -0.083826356 -0.034101874 -0.14058644 -0.98415536
000210 e4 9f 9e bd ac 74 b3 bd 3d 8f 9a be b6 37 b5 bc
       -0.077453405 -0.08762488 -0.30187407 -0.022121292
000220 10 e5 87 3e de 4b 03 3a 23 8a 06 bf e7 0b a1 be
       0.26541948 0.00050085585 -0.5255453 -0.31454393
000230 50 4d b9 3d 34 ed a8 3c 01 23 fe bd c3 c6 87 bd
       0.09047949 0.02062092 -0.1240902 -0.06629708
000240 4e 31 90 bd 94 85 4a 3e 7f 78 57 3d ba b7 23 be
       -0.07040654 0.19777519 0.05260515 -0.15988055
000250 cd 4e a5 bd b9 09 69 bd 26 29 6b 3f 00 58 c0 3a
       -0.08071671 -0.056894038 0.9185966 0.0014674664
000260 fd f7 41 bf dc 36 0e be 88 bf 0e bd 54 db d7 bd
       -0.75769025 -0.13888115 -0.034850627 -0.105398804
000270 e9 e3 1c 3b 3b 52 20 be 0e 5b 7e bd 2f ec 88 bd
       0.0023939556 -0.15656368 -0.062098555 -0.066856734
000280 9a 28 4a 3d f5 9c 0c bc 21 de ba 3e d3 73 43 3d
       0.049355127 -0.008582343 0.36497596 0.04771788
000290 fd 31 93 bd 78 d1 c2 be 48 77 e5 bd 67 89 27 bd
       -0.07187269 -0.38050437 -0.11204392 -0.04090252
0002a0 0d 01 0e be f9 02 35 be 38 53 1d bd 40 69 2a bd
       -0.13867588 -0.17676915 -0.03840944 -0.04160428
0002b0 af dc d7 bd 66 e5 3c 3d f5 26 92 3d 53 64 f0 bd
       -0.10540139 0.04611721 0.07136337 -0.11737885
0002c0 17 d3 e6 be 38 f6 96 3d b1 71 c8 ba ce 23 cf bd
       -0.45082924 0.07371181 -0.0015292672 -0.10114251
0002d0 c6 da 58 3d 06 06 87 be 23 ec 42 be ef 05 6d bd
       0.052943014 -0.26371783 -0.19035392 -0.057866987
0002e0 9c 79 01 be f7 48 43 3f a5 85 2c 3d a5 81 a2 3d
       -0.12644047 0.7628321 0.04211964 0.07934884
0002f0 91 bc 0d bd d3 87 b1 bd 6f 26 5e bd 1c 1e 89 bf
       -0.03460366 -0.086684845 -0.054235872 -1.0712314
000300 8c 5c 63 bd b0 c2 af bb 36 c4 7b 3d cf 1a 58 bd
       -0.05550818 -0.0053637847 0.06146642 -0.05275994
000310 54 0c af be be 83 1d 3d 90 fb f5 3b 78 e0 e7 3d
       -0.34189093 0.038455717 0.007506795 0.11322111
000320 8b 04 14 3d 63 f3 09 bf 56 78 f9 be 2d 9a 64 3d
       0.036137145 -0.53887004 -0.48724622 0.055811096
000330 0d e7 99 bd 70 3d af be 46 81 75 bd 17 a9 c4 3d
       -0.075147726 -0.3422656 -0.059937738 0.09602564
000340 ba 71 f8 be f7 ff 12 3d 7e 47 1f 3e d3 d4 b3 3d
       -0.48524266 0.03588864 0.15554616 0.087808274
000350 a4 41 09 bd e8 d4 0e 3d a0 45 9b be 05 42 30 be
       -0.033509865 0.034871012 -0.30326557 -0.17212684
000360 a4 fa 98 bd 21 27 e7 3d 79 c6 1e bc aa f9 1b 3c
       -0.07469681 0.1128676 -0.009690874 0.009519974
000370 e4 0e 69 3d cc 2f 61 bc 7e 40 99 be f5 2c c1 3e
       0.056898966 -0.013744306 -0.29932016 0.37729612
000380 27 7c ef 3c a1 aa 33 3c 62 0b 9e 3e 4b 6e 17 be
       0.029234005 0.010965974 0.3086806 -0.14788167
000390 2c de 9e bc 67 63 4d be 06 c8 13 bc 30 33 90 be
       -0.01939305 -0.2005745 -0.009019857 -0.28164053
0003a0 77 58 d9 be 00 a8 c9 39 81 c4 31 be f6 e4 30 be
       -0.42450306 0.00038462877 -0.17360117 -0.17274842
0003b0 ed a3 e8 bc 18 66 8a bd 68 d6 8f bc ce 70 7d 3d
       -0.028398478 -0.06757754 -0.017558292 0.061875157
0003c0 c2 2f a1 be 1d 59 9a bd 56 10 2c be 1d a6 99 bc
       -0.3148175 -0.07536528 -0.16803107 -0.018755967
0003d0 c7 cc cb bd 2d f2 59 be 17 50 1b bf e1 1d de ba
       -0.099511676 -0.21283789 -0.6066908 -0.001694616
0003e0 0d 7c 2f be 2f d7 38 bd 74 92 86 bd 7f 9b b1 3d
       -0.17137165 -0.04512709 -0.065709025 0.08672237
0003f0 56 7c c9 bd 5c ad cc bc 54 4b 87 bc 32 48 87 be
       -0.09838168 -0.024985008 -0.016515411 -0.26422268

value.0.bias f4 [64]
000000 3b d8 dc 3c 02 29 23 bf 38 eb be 3f 73 d2 95 bf
       0.026958575 -0.6373445 1.4915533 -1.1704849
000010 f8 a5 b1 3f ce 2b 36 3f 3c 59 76 be 8b 13 82 be
       1.3878775 0.7116059 -0.24057478 -0.25405535
000020 8a 2c 10 3f 68 2e 82 bf 08 0a 9d bf 72 0a 4d 3f
       0.5631796 -1.0170412 -1.2268686 0.80094063
000030 24 0a dc bf f3 3b 86 3e d1 40 0e 40 f2 12 d5 bd
       -1.7190595 0.26217613 2.222706 -0.10404004
000040 ca af b4 3f 18 87 a9 3f 94 4d 2b 3f 0d 1f 12 c0
       1.4116147 1.3244352 0.6691525 -2.2831452
000050 29 d7 c7 3c a9 c2 ad 3f a5 9f 9e bf e2 e3 eb 3d
       0.024394589 1.357503 -1.239247 0.115180746
000060 55 eb 10 3f c6 63 47 be d6 4a 89 3f fd 87 83 3e
       0.5660909 -0.19471654 1.0725963 0.25689688
000070 db 48 61 3f b4 2f ba bd e7 74 79 3f bc ad 4b be
       0.88001794 -0.0909113 0.97444004 -0.19890493
000080 13 d7 0f 3f 15 8d 99 bd 0f 21 7d 3e 35 7f fa 3e
       0.5618755 -0.074976124 0.24719642 0.48925176
000090 e8 28 61 3f 93 cd b6 3d 20 13 e1 be 9f 0a fc be
       0.87953043 0.08925929 -0.43959904 -0.49226853
0000a0 dc 89 3c 3f 01 59 8e bf 3f 9c ab 3e 18 21 20 bf
       0.73647857 -1.1120912 0.33517644 -0.625505
0000b0 62 d5 9a 3f 6b 48 4f be 76 28 3a 3f ca 74 92 be
       1.2096369 -0.20242469 0.7271799 -0.28604728
0000c0 7f c0 70 3f 6a 5d b2 bf 98 02 a6 be 6a ac 93 3e
       0.94043726 -1.3934758 -0.32423854 0.2884248
0000d0 a3 74 80 3f 6d 37 58 3f 48 8d ea be da 34 a2 be
       1.0035595 0.84459573 -0.45810914 -0.31680948
0000e0 9a 91 9b bb a5 3d d8 bf 3b 38 6a 3f ff 0a bb bf
       -0.0047475817 -1.6893812 0.9149205 -1.4612731
0000f0 3b d9 40 bf 5a 63 fa bf b3 9d 79 bf 2d 17 1b bf
       -0.7533147 -1.956157 -0.97506255 -0.6058224

value.2.weight f4 [1, 64]
000000 12 61 d8 bf 69 fb dd 3f c3 2a 11 bf 99 1c e9 3f
       -1.6904624 1.7342349 -0.56705874 1.8211852
000010 c8 55 ac 3f 15 62 6d 3f 0b 67 b0 bc ca a5 d1 be
       1.3463678 0.92727786 -0.02153351 -0.409468
000020 0c 6c 9e bf ab 47 26 be 7e 65 8b 3e 79 59 af be
       -1.2376723 -0.16238277 0.2722587 -0.3424795
000030 64 38 0a 3f 2f 7d 2b bf b1 12 d3 be 22 2d f8 3c
       0.53992295 -0.6698789 -0.41225198 0.030294959
000040 f9 f5 02 be 1e 00 aa bd 9d 37 b1 3f a0 95 43 3f
       -0.12789144 -0.083008036 1.3845097 0.76400185
000050 77 4a e0 bf 87 41 b8 3f 45 2f 2f 3f e6 e0 ad bf
       -1.7522725 1.4394997 0.684315 -1.3584259
000060 e6 8e 18 c0 4d a5 41 3f a3 f2 de bd 9f 5b 45 bf
       -2.3837218 0.75642854 -0.10886123 -0.7709293
000070 8e 23 3b be 1f 5b b1 bb 9a 47 30 be 67 38 04 bc
       -0.18275282 -0.005412474 -0.17214814 -0.008070088
000080 dd e3 80 3f b9 15 28 be 8d 25 21 3f 14 82 b6 3e
       1.0069538 -0.16414537 0.6294792 0.35646117
000090 1e 0e 30 be 6d 18 76 3f 12 e5 0d c0 ac e7 e8 be
       -0.17192885 0.9613102 -2.2171063 -0.45489252
0000a0 0d 7e ec be 7a 45 a0 bf f6 d6 67 bf 59 0d 13 3f
       -0.4618992 -1.2521203 -0.9056238 0.5744224
0000b0 c0 58 5d 3f 1d 1c 5d bc a2 b8 33 3f e2 0f b3 3c
       0.86463547 -0.013495472 0.702036 0.02185816
0000c0 bc c0 9b be 8b 52 1b 3f 22 7f 1d c0 05 74 04 bf
       -0.30420482 0.60672826 -2.4608846 -0.5173953
0000d0 d6 be 12 be 1a e8 23 be 35 06 a4 3e f9 0f 00 bd
       -0.1433061 -0.16006508 0.32035986 -0.031265233
0000e0 ba 19 52 bf f4 c2 1f 3f 95 6c 18 be d8 36 96 3f
       -0.82070506 0.6240685 -0.14885171 1.1735487
0000f0 42 03 2e 3f 8b 4a 51 c0 a7 ef 8f bf d9 a1 4d bf
       0.6797372 -3.2701747 -1.1245011 -0.80325085

adv.0.weight f4 [64, 128]
000000 b2 67 46 be b2 63 82 3d 24 9a 23 3e 0a 99 ed 3e
       -0.19375494 0.063666716 0.15976769 0.46405822
000010 ca b0 95 39 e9 67 4f 3b 26 07 ce be b4 81 c8 be
       0.00028551213 0.0031647629 -0.4023983 -0.39161456
000020 43 4d 50 3e 9f 29 64 3d db 9b 42 3f dd 50 f0 bd
       0.20341973 0.055703755 0.76019067 -0.117341734
000030 2a 5f b8 be ee 52 47 bf d3 38 7c be 56 ab 7c bf
       -0.36010104 -0.77860916 -0.24631052 -0.9869894
000040 38 85 0f bd 6c ba aa be 1b bb 8e bd 0f 90 e0 3d
       -0.035039157 -0.33345354 -0.06969281 0.10964977
000050 17 5b c6 3c e9 d7 95 bd bb b6 45 bf bb 8a a2 3c
       0.024213357 -0.07316572 -0.7723195 0.019841542
000060 65 34 00 bf 1f 9f 2b 3a 8e 3d b3 bd 40 f9 4c be
       -0.5007995 0.0006546843 -0.08751975 -0.20016956
000070 f8 fb d5 3e e4 0c 54 be 0c 22 1c bc 94 5b de be
       0.417938 -0.20708042 -0.009529602 -0.43429244
000080 92 f4 ab 3c 5e d7 70 bf 6c 31 25 be 59 09 12 bf
       0.020990644 -0.94078624 -0.16132134 -0.57045513
000090 1a 60 c4 bf d1 75 41 bf 1d 66 8b bf 45 46 82 be
       -1.5341828 -0.755704 -1.0890538 -0.25444236
0000a0 9d 86 c1 bd 04 25 c6 bd f3 1e 8d be ee 66 54 bd
       -0.094495036 -0.09675029 -0.27562675 -0.051855974
0000b0 39 c8 f8 be 51 28 9c 3d 0c f3 e7 bd 11 78 8c be
       -0.48590258 0.07624877 -0.113256544 -0.27435353
0000c0 ff fe a1 3c 4d 44 7a bf 02 e4 97 be bb 1a 03 bf
       0.019774912 -0.9776047 -0.29666144 -0.5121266
0000d0 f8 ad 8c 3d 30 66 a2 be a9 54 1f be 49 16 31 3e
       0.068691194 -0.31718588 -0.15559639 0.17293657
0000e0 e7 2a c2 3e 07 bc 3a 3f a6 84 06 bf 4c 3c 4d bd
       0.37923357 0.72943157 -0.52546155 -0.05010633
0000f0 9e 0a 90 bd 22 56 84 bd b7 0d 67 bd 1a 7d 87 bf
       -0.07033275 -0.06461741 -0.056409564 -1.0585053
000100 2b 58 5d bf 80 98 2a 3b 00 df 6b 3c 0d 49 5c 3d
       -0.8646266 0.0026030838 0.014396429 0.053780604
000110 85 3a 41 bf 61 1f 95 bd 19 47 89 bd 64 bf 7d bd
       -0.7547992 -0.07281376 -0.06703014 -0.061950102
000120 4d 9b b3 bf c8 01 87 be a4 64 6d bf 97 e4 c8 3c
       -1.4031769 -0.26368546 -0.9273169 0.024523063
000130 2b d6 a4 bc 88 65 28 bf 5a 07 9c 3e d2 e5 67 3e
       -0.020121654 -0.65779924 0.3047436 0.22646263
000140 8b 26 29 be 5a f5 8a be 54 25 87 3f 91 ef 20 bd
       -0.16518609 -0.27140313 1.0558267 -0.03929097
000150 e2 c2 65 3d 17 0c 89 bd 66 49 f1 be e2 a6 8d bf
       0.056094058 -0.06691759 -0.4712631 -1.1066554
000160 c8 a7 43 bf 80 d3 e2 be a2 df b5 3a cd 73 c5 c0
       -0.7642789 -0.44301987 0.0013875852 -6.170386
000170 30 a4 67 be 79 d5 8d be e0 fc 26 3e 47 f7 4e be
       -0.22621226 -0.2770193 0.16307402 -0.20211516
000180 5b f3 32 bd a4 fe ef be e1 c8 6a bf 3e 60 5e bf
       -0.043689113 -0.46873963 -0.91712767 -0.86865604
000190 2f c8 58 3f 8b 92 99 3f 7f bb 8e bd 44 34 53 bf
       0.84680456 1.1997846 -0.06969356 -0.82501626
0001a0 17 72 bf bf b4 6d 84 bd b3 c2 6e 3e 19 40 f0 3c
       -1.4956692 -0.06466237 0.2331646 0.02932744
0001b0 8d 15 0e be 94 35 9b 3d 68 c7 25 3c 34 51 60 bd
       -0.13875408 0.075785786 0.010118343 -0.05476494
0001c0 b3 29 0f bf cc 87 9e bd fd a7 86 be d8 c4 d7 bd
       -0.55923 -0.07740745 -0.2630004 -0.10535592
0001d0 76 46 ac bf da bf ec 3d e4 d9 81 bd b2 d9 cd bc
       -1.3459003 0.1156003 -0.063403875 -0.02512822
0001e0 0d d0 b5 be 00 94 a1 be 4b 9c 7e bb 65 a5 f7 3c
       -0.35510293 -0.31558228 -0.0038850482 0.030230233
0001f0 47 88 65 be 10 b6 e9 bb 6c a7 aa bd 26 d6 87 be
       -0.22415267 -0.0071322992 -0.083327144 -0.2653057
000200 44 47 a0 bd a6 fc 21 3f fe 3b a9 be a1 82 65 bf
       -0.07826093 0.63276136 -0.33053583 -0.8965245
000210 81 bf 07 bd 2a a2 47 bd a4 9d fd bd 6c 62 bb be
       -0.033141617 -0.048738636 -0.12383583 -0.36598527
000220 fb 8d 6d bd 48 ae c1 bd 32 1d f0 be bd 92 92 be
       -0.05799673 -0.0945707 -0.46897274 -0.28627577
000230 68 46 04 be 6e d3 1c be cc e3 7b be 74 79 99 be
       -0.12917483 -0.15315029 -0.24598616 -0.29975474
000240 d2 ac 76 3d 4b 3a 60 bf fc 03 16 bd c4 17 22 bf
       0.060223408 -0.8758895 -0.036624894 -0.63317513
000250 89 53 c5 bd 3e d2 b0 bd c9 44 20 3f 08 1c 4a bc
       -0.09635074 -0.086338505 0.6260496 -0.012335785
000260 6b 04 2d bd 29 76 9c 3d 15 89 9a 3c 7f ec 9d be
       -0.04224054 0.07639725 0.018864194 -0.30844495
000270 38 0c c2 be d5 78 c5 bd 66 65 2c 3d 94 18 af 3d
       -0.37899947 -0.096421875 0.04208889 0.0854961
000280 88 19 07 bd f2 63 3c bf 2d 1e 43 bf 85 41 95 3c
       -0.032983333 -0.73590004 -0.7621792 0.018219719
000290 91 67 b5 bd bb 50 ab bc 1f 11 69 bf 97 95 fd bd
       -0.08857644 -0.020912519 -0.9104175 -0.123820476
0002a0 4d 59 6a 3d eb c1 d0 bd d8 0c 33 be 2c 13 bc 3c
       0.05721407 -0.10193237 -0.17485368 0.02295836
0002b0 68 87 f5 bd 49 23 4a bd 67 9a fe bd 7c ff 22 be
       -0.11988717 -0.049350057 -0.12431794 -0.15917772
0002c0 b9 4d e1 3e 1b 0e 3b 3b 97 fb 41 3f b6 e8 dc be
       0.4400461 0.0028542343 0.7577452 -0.43146294
0002d0 73 0d 8a bc b8 d8 98 3e cd d2 9f 3d 07 7b 6c 3e
       -0.016852116 0.29852843 0.07803879 0.23093806
0002e0 fe 67 ad bd ed 06 42 3e 4b 7c f2 3e 39 f6 a6 bd
       -0.084671006 0.18947954 0.47360453 -0.08152432
0002f0 a6 e9 49 3d db e0 93 bd a0 ff a8 3b 5d b6 87 be
       0.04929509 -0.07220622 0.005157426 -0.2650632
000300 3a c2 b2 3d 00 e3 ae b9 57 af 7b 3d 28 9e 43 3c
       0.08728452 -0.00033356994 0.061446514 0.011939563
000310 71 1e 6e bf ec 3a 71 3d 7f f7 6a bd bf 76 76 3c
       -0.930152 0.058894083 -0.057364937 0.01504296
000320 56 d9 64 be b9 e4 2a 3e f8 4b 41 be 42 85 39 3d
       -0.22348532 0.16688813 -0.18876636 0.0452931
000330 03 2d 44 bd 46 2b d6 be ea ea bf 3e 26 18 9b 3e
       -0.04789449 -0.4182989 0.37483913 0.3029186
000340 e0 62 27 bc c8 87 47 be d1 5d 4f 3f 88 1f 8f bc
       -0.010216445 -0.1948539 0.8100253 -0.01747109
000350 c3 5d 9d 3d 6a 72 f9 bc 2f e8 32 bf 6b 7b 9e be
       0.07683899 -0.030450065 -0.69885534 -0.30953535
000360 69 9c 92 3d 01 af c0 be 0a 3e 4b 3d b0 b0 28 bf
       0.07158739 -0.37633517 0.049619712 -0.65894604
000370 1a 5e 02 be a8 2a eb be ec 3c 41 3e c4 f4 99 bc
       -0.1273121 -0.45930982 0.18870896 -0.018793471
000380 a3 d3 69 bd 99 96 f6 3d e8 4d d5 3e 2e 51 58 bf
       -0.057086598 0.12040443 0.41661 -0.8449887
000390 ec d8 70 3e 23 03 9d be 23 40 aa 3c c3 43 54 bf
       0.23520249 -0.30666456 0.020782536 -0.82915896
0003a0 cc 5c 8c bf 8d 8d 7d bd 43 1f b2 be 85 fc f2 be
       -1.0965819 -0.06190257 -0.34789476 -0.47458282
0003b0 ea 93 38 bf 70 7a d2 bc 80 c2 e7 ba 6a 0f 68 3d
       -0.721007 -0.025693148 -0.0017681867 0.056655325
0003c0 38 c1 80 be 54 89 ab bd 9d 53 f1 bd 5d a5 ef bd
       -0.25147414 -0.08375803 -0.11783526 -0.117014624
0003d0 04 d0 9d 3e 6b 6f 47 3e 64 98 2b be 45 58 93 bd
       0.30822766 0.19476096 -0.16757351 -0.071945705
0003e0 6d c0 b5 3c 1e fa 65 bd de 80 66 bd 78 8d 06 bd
       0.022186482 -0.056146733 -0.05627524 -0.03284976
0003f0 15 6f 86 bd 3b 04 a4 3d f0 53 99 3b 6e 03 7b 3c
       -0.06564156 0.080086194 0.0046791956 0.015320642

adv.0.bias f4 [64]
000000 3f 71 ee bf ba fe d2 bf b8 d2 c1 be 8e e9 26 bf
       -1.862831 -1.6483986 -0.37856078 -0.65200126
000010 c3 f6 a1 bf 30 83 3d bf 22 1a 98 bf fb 5b fe bf
       -1.2653431 -0.740283 -1.1882975 -1.987182
000020 66 92 34 be cd c6 51 bf 88 03 53 be 58 0e a4 bf
       -0.17633972 -0.8194397 -0.20606816 -1.2816877
000030 72 fe c9 be d6 c5 1f be dc 2b b1 bf dd 74 6a bf
       -0.3945194 -0.15602812 -1.384151 -0.9158457
000040 c5 9d bb be 8c ae 0f c0 62 98 87 be e8 b3 a6 bf
       -0.36643806 -2.2450285 -0.26483446 -1.3023653
000050 59 ad 59 be c7 5f 73 bb 67 40 ec be 85 86 d3 bf
       -0.21257533 -0.0037135945 -0.46142885 -1.6525427
000060 37 c5 4f 3e 88 1e 28 bf 41 2d b9 be 0d d9 3c bf
       0.20290075 -0.65671587 -0.36167338 -0.73768693
000070 5b 85 02 bf 0d cd 83 bf 94 30 42 c0 84 bf 1d bf
       -0.50984734 -1.0296952 -3.034215 -0.61620355
000080 38 b1 6b 3e df 63 3d be ac 49 95 be 1c 66 e9 bf
       0.23016822 -0.18495129 -0.2915777 -1.8234286
000090 74 26 a6 bf 01 4f eb be 3c 88 6e be db 52 a9 bd
       -1.2980485 -0.45958713 -0.23294157 -0.082677566
0000a0 15 4c 23 bf 33 4d 09 be 35 3f 9f bf 4c 8e 1f be
       -0.63787967 -0.13408355 -1.2441164 -0.15581626
0000b0 90 da 11 bf 51 4d f9 3d 91 c4 ac bf 44 1e 8c bf
       -0.56974125 0.1217295 -1.3497487 -1.0946736
0000c0 26 1d ef bf 52 85 bd 3c 24 ac 48 3e 3b da 20 be
       -1.868077 0.023134861 0.19596916 -0.15708248
0000d0 a9 31 22 bf f6 cd a7 bf fa f6 c2 be 60 26 9f be
       -0.63357025 -1.3109729 -0.38079053 -0.31083965
0000e0 0a 29 39 bf 7a 83 cb bf 40 aa 16 bf 11 de 50 be
       -0.72328246 -1.5899498 -0.5885353 -0.20397212
0000f0 a4 32 2e be 59 83 b6 be 5f e9 2c be 1f 0e 01 bf
       -0.17011505 -0.35647085 -0.16885899 -0.5041217

adv.2.weight f4 [2, 64]
000000 19 27 5d c0 fb b7 85 3f d3 f8 2a c0 d8 e1 18 bf
       -3.4555113 1.0446771 -2.671437 -0.5971961
000010 58 13 a8 be a2 84 75 bd 7d 04 8f 3f 97 28 11 c0
       -0.32827258 -0.05994094 1.1173245 -2.2681024
000020 aa 9e b4 3d fc 13 bd 3f b1 0e 9c bd 1f 54 fe bf
       0.08819325 1.4771724 -0.0761999 -1.9869422
000030 47 fc 6f 3f 75 b7 4a 3d f2 b1 90 bf bd 0c 02 c0
       0.9374432 0.049491365 -1.1304305 -2.0320275
000040 54 c6 70 be 95 af 8a bf cf 59 83 bf 90 48 67 3f
       -0.23513156 -1.0834833 -1.0261782 0.90345097
000050 a3 c1 78 bf 42 ba f2 3e 01 1a 9d 3f ca 76 b9 bf
       -0.97170466 0.47407728 1.2273561 -1.4489377
000060 8f e2 d3 3e 30 f0 90 be 17 e0 69 be 9b 53 04 3f
       0.41383788 -0.2830825 -0.2283939 0.5169007
000070 6f e7 39 3f f9 b3 91 bf 3b ec aa bf 81 70 a1 3d
       0.72618765 -1.1383048 -1.3353342 0.078827865
000080 c0 1c 97 bf cb f0 54 be a2 34 dc be 4e 51 93 3f
       -1.1805649 -0.2079498 -0.43008906 1.1509187
000090 73 51 20 c0 e9 6e 0e 40 46 3e 20 3f 7e 62 82 3f
       -2.5049713 2.2255194 0.6259502 1.0186307
0000a0 d6 7c 3a 3f 38 bb 37 bc d7 22 ed bf 45 71 86 3d
       0.72846735 -0.01121407 -1.8526257 0.06564573
0000b0 67 61 1d bf 2b aa 55 3f b6 0f 85 bf 43 f0 e9 3f
       -0.6147675 0.8346278 -1.039542 1.8276447
0000c0 04 97 59 c0 0e fd 12 40 c7 2c 20 3f 74 8c fd 3c
       -3.3998423 2.2966952 0.62568325 0.030950762
0000d0 13 a1 07 bf 0b af 77 3f 25 5f c5 bc e2 d5 fa bd
       -0.52980155 0.9675147 -0.02409322 -0.12247826
0000e0 e9 82 11 3f e7 8f 05 40 82 9c 47 bf de c8 a4 3c
       0.5684038 2.086908 -0.77973187 0.020115312
0000f0 0f c7 34 bf 57 dc a7 3e e4 57 f1 bb 05 7a 72 bf
       -0.7061624 0.32785293 -0.0073652137 -0.9471744
000100 cd f5 58 40 5d ad 83 bf b1 0b 2f 40 b4 ee 05 3f
       3.3900025 -1.0287281 2.7350886 0.5231736
000110 d0 6e ca 3e 75 56 df 3d 28 e6 8e bf e9 15 16 40
       0.39537668 0.10905162 -1.1163988 2.3450873
000120 20 1d c9 3d 6a 45 b9 bf 21 cf 89 bd 2a ab ef 3f
       0.09820008 -1.4474308 -0.0672896 1.872411
000130 4b 80 65 bf 4c d0 2d 3d 60 ab 80 3f 85 bb f5 3f
       -0.89648885 0.042434976 1.00523 1.9197851
000140 6e eb 21 3e f3 98 93 3f fd 0a 65 3f 50 29 7a bf
       0.15812466 1.1531051 0.8946989 -0.9771929
000150 d5 1b 4c 3f 23 a0 10 bf e3 d1 a0 bf 9c b3 b5 3f
       0.7972997 -0.5649435 -1.2564052 1.4195437
000160 7f f3 bc be 6f f6 7a 3e 5a 0a 77 3c 3f 74 17 bf
       -0.36904523 0.2450807 0.015078152 -0.5916175
000170 99 ce 2a bf 11 27 90 3f 2b 78 98 3f d5 b0 72 be
       -0.66721493 1.1261922 1.1911672 -0.23700269
000180 be f0 93 3f 0c 75 90 3e bb 52 b0 3e 14 b0 89 bf
       1.1557844 0.282143 0.34438118 -1.075686
000190 a5 dd 19 40 15 5a 15 c0 a6 7a 3a bf cd 71 74 bf
       2.404153 -2.3336232 -0.72843397 -0.95486146
0001a0 10 d9 35 bf b7 fe 16 3c b7 cc e9 3f df 70 aa 3c
       -0.71034336 0.009216002 1.8265599 0.020805774
0001b0 2a 54 f9 3e cf 85 4d bf 05 28 8f 3f 51 f5 e8 bf
       0.48697025 -0.802823 1.1184088 -1.8199865
0001c0 be 7e 5b 40 fe 06 0b c0 f3 c2 2a bf c2 43 61 bb
       3.4296107 -2.1723018 -0.6670372 -0.0034372662
0001d0 e3 7d 0d 3f 4e 56 8c bf fd 39 75 bc 47 7d e3 3d
       0.5527021 -1.0963838 -0.014967439 0.11107879
0001e0 31 a6 22 bf 21 dd 06 c0 c6 82 42 3f bf 7a 58 3c
       -0.6353484 -2.1072466 0.75980794 0.013212859
0001f0 ef ec 18 3f 5e 53 85 be 46 78 0f 3c 3b 7a 82 3f
       0.5973653 -0.26040167 0.008756703 1.0193552

adv.2.bias f4 [2]
000000 d0 27 08 be 7c 82 81 bc
       -0.13296437 -0.01580929
