positive_long/best_model.pt (torch, 146421 bytes, 11 tensors)

feature.0.weight f4 [128, 16]
000000 83 ae b1 3f e4 47 2f bf 71 b7 e0 be 3a 9f 14 bf
       1.3881382 -0.6846907 -0.43889955 -0.5805546
000010 dc 31 46 c0 5f 77 43 3f ee c0 9d 3f 7f 47 58 3f
       -3.0967932 0.7635402 1.2324502 0.84484094
000020 97 0e 3e 3f 99 d0 2d 3f 33 e0 47 bf df 5d 6f bf
       0.7424101 0.6789642 -0.78076476 -0.9350261
000030 9f 6d 12 3e 97 cc ed 3e 2b 5d 16 40 20 7d 89 bf
       0.1429963 0.46445152 2.3494365 -1.074131
000040 51 49 86 3e 74 fb bd bd fe ca e6 be 30 e6 7c be
       0.2622781 -0.092764765 -0.45076746 -0.24697185
000050 03 e2 ac 3e 88 3f 6c 3e 97 d5 22 3f ee d4 fb 3e
       0.33766183 0.2307111 0.6360716 0.4918589
000060 78 03 5a bf 57 90 fb be c9 40 6c be eb 07 1a bf
       -0.8516154 -0.4913356 -0.23071589 -0.6016833
000070 b5 87 b5 be 8a 24 ca be 52 0a 74 3e d8 51 03 bf
       -0.354551 -0.39481002 0.23832062 -0.5129676
000080 d5 3b ed be 27 35 a8 3e f7 e7 86 3e 1e 0c d3 3d
       -0.4633471 0.32853052 0.2634885 0.103050455
000090 0c ac 61 be fa b4 0e 3e 84 94 69 3e d6 53 bd 3e
       -0.22038287 0.13936225 0.2281056 0.36978024
0000a0 35 c8 0b 3e a5 61 15 3e e6 cd 6b 3f cd 95 57 3f
       0.13650592 0.1458803 0.9211105 0.8421295
0000b0 41 6f 31 3e 76 d6 e5 be 9c eb e0 be 85 21 11 bf
       0.17327596 -0.44890183 -0.43929756 -0.5669177
0000c0 cf ef 6c 3f b8 7e 21 3f 08 21 3d 3f 6d ad 76 3f
       0.9255342 0.6308398 0.73878527 0.96358377
0000d0 b7 42 bf 3f 86 55 29 bf b8 a1 7c be 6c d0 86 be
       1.4942235 -0.66146123 -0.24671066 -0.26330888
0000e0 4e d6 7b 3f 76 67 88 3f 8c 76 c9 3e b0 b4 36 3e
       0.9837388 1.0656574 0.39348257 0.17842364
0000f0 20 ff 34 3f 23 08 5d bf 19 ac f2 3e ad 2c 53 bf
       0.7070179 -0.8634054 0.47396925 -0.82490045
000100 0e d8 93 3f a2 9f fa bd c2 96 de bd ab 6b 34 3e
       1.155031 -0.12237479 -0.108685985 0.17619197
000110 6f a2 a6 3f 92 92 3f bd b4 da 3d be 03 51 10 3e
       1.3018321 -0.04677064 -0.1854046 0.14093404
000120 a7 d7 74 3f 0d eb 46 3f 17 95 2c bd 57 63 26 bd
       0.9564156 0.7770241 -0.04213437 -0.04062208
000130 1f bc 05 3f ae dc be c0 d6 d7 25 3f 30 33 43 3d
       0.52240175 -5.9644384 0.64782465 0.047656238
000140 1b 58 c1 3e e5 2c 85 3e e4 88 24 3b c2 90 04 3e
       0.37762532 0.26010814 0.0025106007 0.12945846
000150 e1 3e 09 c0 82 a8 55 3f 3b ab 74 3f fb 52 8b 3f
       -2.1444628 0.8346025 0.95573777 1.0884699
000160 09 48 a5 be 12 45 6c be c7 a1 a3 3e bc 91 dd 3e
       -0.3228152 -0.23073223 0.31959364 0.4327525
000170 04 ae a8 3e 70 aa be 3e 47 97 8c 3f 9e 2e 07 bf
       0.32945263 0.37239408 1.0983666 -0.5280551
000180 aa 14 f1 3e 1f 40 b5 be 83 1e 66 be 54 c3 0b be
       0.47086078 -0.35400483 -0.22472577 -0.1364873
000190 c3 22 9e be e1 85 fb bc 18 73 0d 3e 0a f2 17 3e
       -0.30885896 -0.030703487 0.13813436 0.14838424
0001a0 38 b7 3a 3e 70 a6 43 3e 11 11 a7 3e 75 8d fb 3d
       0.18233955 0.1910646 0.32630208 0.1228284
0001b0 85 00 40 3e 48 d0 0f bf 78 83 00 3e ff 72 25 bf
       0.18750198 -0.56177187 0.12550151 -0.64628595
0001c0 c2 60 f6 3d 1e c1 a3 be 86 7a 71 be e4 70 7d be
       0.12030174 -0.31983274 -0.23581895 -0.24750096
0001d0 eb 88 14 c0 36 73 ab bd 4d 88 f5 bd 4c 98 d5 bd
       -2.3208568 -0.08371584 -0.11988888 -0.10429439
0001e0 20 74 11 3f ee e1 5d 3f 20 24 85 bf 61 7f 9c bf
       0.5681782 0.86672866 -1.040165 -1.2226373
0001f0 7f 87 82 bf e2 fa 83 bf b4 32 a0 bf 2f a0 cd 3d
       -1.01976 -1.0310938 -1.2515473 0.10040318
000200 23 1f 2e c0 4e b1 c7 be c2 d9 ae be be a2 01 bf
       -2.7206504 -0.3900246 -0.3415051 -0.5063895
000210 b0 0e fd 3f 26 3b 2e c0 b8 97 42 c0 00 62 3e c0
       1.9770107 -2.7223601 -3.0405102 -2.9747314
000220 b0 af 05 3f 73 6b 0c 3f aa e0 fc 3e 51 d7 0e 3f
       0.522212 0.54851454 0.49390155 0.55797297
000230 73 3e b3 be 52 48 b5 3e 1a b5 67 3e 98 1c 8a 3c
       -0.35008582 0.3540674 0.22627679 0.016859338
000240 0b 27 ea bf 88 b0 81 3f be d5 57 3f 5a 4b 70 3f
       -1.8293165 1.0131998 0.8431052 0.9386498
000250 f0 1f c1 3f 2b 5e 99 bd 57 15 69 bd ef 20 28 bd
       1.5087872 -0.07488664 -0.056905117 -0.041047033
000260 86 b1 2b 3e 9c 33 74 bc 3f 58 ce 3e 7c 0c e6 3d
       0.16766939 -0.014904883 0.403017 0.1123285
000270 a4 32 2f 3f 94 46 8f be 11 65 3f 3c a1 ae 64 be
       0.68436646 -0.27983534 0.011681811 -0.2233224
000280 fb 5c ac 3f d9 1c 7d bf 5b ed 6a bf 67 ee 9f bf
       1.3465875 -0.98872143 -0.91768426 -1.249463
000290 a0 63 ac be be 03 03 bf e2 23 e9 be 76 3d b8 be
       -0.33669758 -0.51177585 -0.4553519 -0.3598439
0002a0 98 cb 21 3e c5 5c b4 3d 35 92 e8 be 84 df 08 bf
       0.15800321 0.08806757 -0.45424047 -0.5346606
0002b0 7d ca 03 be f7 3f b0 bf 97 29 44 bf cd c1 1d be
       -0.12870212 -1.376952 -0.7662596 -0.1540596
0002c0 ac 28 ee 3d 56 41 a8 3b 88 16 c2 bd ea 3d 5e bb
       0.11628851 0.005134742 -0.09476954 -0.0033911415
0002d0 38 63 de 3f 66 ed 64 3e 4a 37 fd 3d f8 a5 54 bd
       1.7374029 0.22356185 0.12364061 -0.051916093
0002e0 c0 9c b3 be bb 9d 04 bf ac 32 05 be d4 63 01 be
       -0.35080528 -0.5180318 -0.13007611 -0.12635738
0002f0 0b 02 0b 3f 70 1c 2f c0 52 f6 3f 3f ec 0a 0b be
       0.5429999 -2.7361107 0.7498523 -0.13578385
000300 04 87 4c be b8 8d 1b 3f 28 cc f6 3e 82 ab 2b 3f
       -0.1997338 0.6076312 0.48202634 0.67058575
000310 d2 29 4c c0 94 f4 12 bf 7e 0f 48 bf 2c 37 44 bf
       -3.1900525 -0.57404447 -0.7814864 -0.76646686
000320 26 7f c4 3c b4 1d 54 bb 24 9c 17 3f 64 fd c7 3e
       0.02398641 -0.0032366337 0.59222627 0.3906051
000330 ed 99 39 3f 09 76 e4 bc 64 61 0b 3f 47 dd 4d bf
       0.725005 -0.027888315 0.5444548 -0.8041577
000340 e4 50 a7 3d 75 e5 45 3f db 2c 0e 3f cd 87 9a 3e
       0.081697255 0.7730325 0.55537194 0.30181733
000350 72 48 d8 3f 30 9e 8c be 7d be 3e bd c2 53 6b be
       1.6897109 -0.27464437 -0.046568383 -0.2298117
000360 a4 39 20 bd 38 36 17 3e e7 ac e3 3f 81 86 ff 3f
       -0.03911747 0.14766777 1.7787141 1.9962922
000370 f4 67 37 3f 07 5e f0 be 1d 8b 4c bf 82 5d 34 3e
       0.71642995 -0.46946737 -0.7989977 0.17613795
000380 b7 21 31 bf f1 f4 e3 3e 16 c0 5f 3e f8 ef 69 3e
       -0.6919207 0.44522813 0.21850619 0.22845447
000390 2b 80 43 bf 4f f6 d1 be be 71 35 bf 2b 62 0e bf
       -0.76367444 -0.4100823 -0.7087668 -0.5561854
0003a0 f6 f3 a9 bf 90 9f b5 bf 42 cd 80 3f c2 4a 92 3f
       -1.3277576 -1.418932 1.006264 1.1429064
0003b0 a6 fc d1 3e 22 52 17 bf e4 72 ff 3e 39 7b 23 be
       0.41013068 -0.591097 0.49892342 -0.15964974
0003c0 19 db e0 3f f7 a6 3c bc a2 37 d5 3d 7a ce 11 3e
       1.7566863 -0.011514417 0.10411002 0.14238921
0003d0 fc 55 25 c0 4d a1 f9 3e 97 8f 2e 3f 64 26 02 3f
       -2.583373 0.48755875 0.6818785 0.5083983
0003e0 82 66 94 3f f8 24 ab 3f 59 58 23 bf 02 18 f6 be
       1.1593783 1.3370657 -0.6380668 -0.48065192
0003f0 7c 38 43 3f 4a 21 45 be 4f 14 72 3e 8b a8 56 be
       0.76258063 -0.1925098 0.2364056 -0.20962732

feature.0.bias f4 [128]
000000 6a ef 95 be 08 89 83 be b6 4d b4 be a8 7f 8c 3f
       -0.2928422 -0.25690484 -0.3521554 1.0976458
000010 70 c2 b9 3f 1d 55 2d 3f 7b 14 09 bf a5 bc 85 3f
       1.4512463 0.67708 -0.53546876 1.0448195
000020 82 f0 7b 3f 7a 83 4b be 50 40 f0 be 1a 60 ae 3f
       0.9841386 -0.19874373 -0.46924067 1.3623078
000030 94 53 63 3e fb 9a e0 3e 52 84 1c 3f c1 fe 0f c0
       0.22199851 0.4386824 0.61139405 -2.249924
000040 66 7f a5 bf 3d b5 21 40 7a 7d f7 3f c2 84 84 3e
       -1.2929504 2.526687 1.9335167 0.25882536
000050 7b 4e 45 3f d1 36 f5 3f 16 f5 9d 3f d0 fc 82 be
       0.77072877 1.9157354 1.2340419 -0.25583506
000060 51 bd 73 be 19 73 6d 3f a0 6d 74 bd 3e 2b 91 bf
       -0.23802687 0.9275375 -0.05967486 -1.1341321
000070 d6 73 ad 3f fe ac 05 bf df b6 65 3f 8c d7 f1 be
       1.3550975 -0.5221709 0.89732164 -0.47234762
000080 6f 96 c4 be 53 6d 25 c0 ea 17 92 bf 57 75 60 bd
       -0.38396022 -2.5847976 -1.1413548 -0.054799404
000090 f2 cc be 3e 21 5a cf 3f d8 bf 04 3f 9f ae 2f 3e
       0.37265736 1.619938 0.5185523 0.17156456
0000a0 72 a8 9b bf 06 f4 b9 3f 7d 0a 0c bf 2f a3 e4 3f
       -1.216078 1.4527595 -0.54703504 1.78623
0000b0 fc e1 26 be 91 33 db be 22 26 3c c0 ea 0c a4 3f
       -0.16297144 -0.4281278 -2.9398274 1.2816441
0000c0 4d 6a 9a 3f 40 f9 25 c0 8f f1 4c 3d 92 17 19 bf
       1.206369 -2.593338 0.050035056 -0.5980159
0000d0 fd 99 21 bf a3 a5 b2 be 48 94 4d 3f 39 3c 45 3f
       -0.6312559 -0.34891996 0.80304384 0.7704502
0000e0 ff 26 2c be 8e 9f 0c bf 04 39 24 3e 91 a4 a8 be
       -0.16811751 -0.5493096 0.16037375 -0.32938054
0000f0 7e ff 70 bf 60 4e 33 bc 2d b2 65 3e 30 87 0c 3f
       -0.9413985 -0.010943979 0.2243125 0.5489378
000100 6c d8 a5 bf e4 0b 0b c0 ea 8c aa bf 22 88 dd bb
       -1.2956672 -2.1726007 -1.3324254 -0.006760613
000110 3d c1 1c 3f e7 d7 81 3f e3 e7 43 3e 8f e8 a2 3f
       0.6123236 1.0144013 0.19131427 1.2727221
000120 e6 70 dd be 9f 90 ab bf 15 37 bc bf d6 dd dd bf
       -0.43250197 -1.340351 -1.470431 -1.7333324
000130 51 d0 5f 3f 7e 3d d6 bf ed 59 09 c0 bd af 3a 3f
       0.8742724 -1.6737516 -2.1461136 0.72924405
000140 ac 2d 03 be 87 49 e3 bf 7e 09 00 3c c1 e1 c4 bd
       -0.12810391 -1.7756814 0.007814763 -0.09613372
000150 ce 42 a9 be 89 66 a7 be 45 2a 12 3e 6c 9e c0 be
       -0.3305878 -0.32695416 0.14273937 -0.37620866
000160 29 eb bc 3b 57 9e a4 bf 74 51 50 be d9 f7 60 bf
       0.005765338 -1.2860821 -0.20343572 -0.87878186
000170 54 19 9f bf ed 43 fc be 05 85 03 bf 32 89 ef 3f
       -1.2429605 -0.49270573 -0.51374847 1.8713744
000180 63 0a 23 be 5e c7 73 bf df b1 fd 3d d0 66 30 bf
       -0.15921931 -0.95226085 0.12387442 -0.6890688
000190 89 99 72 3f 07 80 40 bf 93 9b 54 c0 59 41 7d bf
       0.94765526 -0.75195354 -3.3219955 -0.9892784
0001a0 0e 24 81 bf d0 3d 7a bf 44 3e d4 3e 34 69 f7 3e
       -1.0089128 -0.9775057 0.41453755 0.4832245
0001b0 20 4e f1 3b f9 d6 e0 bd a4 1d 0d 3f a0 4e 8b bf
       0.0073640496 -0.10978503 0.55123353 -1.088337
0001c0 fc 3b aa bf ac d8 34 3f 99 84 21 3f e2 e1 15 40
       -1.3299556 0.70643115 0.6309295 2.3419118
0001d0 f2 b4 35 3e c7 9a 42 3f b0 65 15 bd cf 95 6d 3f
       0.17744806 0.7601742 -0.03647393 0.92806715
0001e0 4a 83 12 c0 e8 8c 4c 3f c0 da 80 bf cd 67 b1 bd
       -2.2892632 0.79902506 -1.0066757 -0.086623766
0001f0 f5 32 90 3f 4a 02 14 bf 8a a6 4e 3f f5 b4 a7 bf
       1.1265551 -0.5781599 0.8072287 -1.3102099

feature.2.weight f4 [128, 128]
000000 72 40 bf bd 16 08 3d bf 2d 49 b0 bd 8f f4 55 3d
       -0.09338464 -0.73840463 -0.08607707 0.052235182
000010 5c 1b a4 be 0f ae db 3d 9d 3d 50 bd ce 4f 86 bf
       -0.32052124 0.107265584 -0.05084001 -1.0493104
000020 f5 ef 6b 3c 2e 93 82 be 8f a7 09 be d9 9c 88 be
       0.014400472 -0.25502914 -0.13442825 -0.26682165
000030 26 79 07 3e 65 3b 85 bd a1 3b 0b 3c 77 c8 86 3c
       0.13229808 -0.06505469 0.008498103 0.016453011
000040 c6 36 a1 3d 96 c6 91 bd e3 76 28 3f 6b d3 64 be
       0.07871775 -0.071179554 0.65806407 -0.22346275
000050 b2 09 5e 3f 11 32 6c be 95 72 a5 bf ac 5e 70 3b
       0.86733544 -0.23065974 -1.2925593 0.0036677523
000060 0e f9 b2 be 9a 4d d3 bc 68 5a 58 3c c7 6a cc 3c
       -0.3495564 -0.02579384 0.013205148 0.02495326
000070 6c bd 01 3d 26 63 a8 bc da b2 15 bf f0 c6 91 3e
       0.031674787 -0.02055509 -0.5847603 0.2847209
000080 24 7c e1 3d f5 af 06 bf 55 4c 60 be 55 49 36 bd
       0.11010006 -0.5261224 -0.21904118 -0.04450353
000090 88 32 ad bd a7 6b a3 be c5 26 87 3d 2a 07 70 3d
       -0.08456904 -0.3191807 0.065991916 0.058600582
0000a0 cd bd fd bd ce 9c 35 be 62 2d 8a be 65 6a c3 bd
       -0.12389717 -0.17735597 -0.2698775 -0.095417775
0000b0 18 bf 2b bd 94 38 89 bd 5b 42 45 3d 07 86 2d be
       -0.041930288 -0.067002445 0.048158985 -0.16945659
0000c0 4a c1 78 be 35 68 c2 bb 9b 4f cc 3d 1e 96 c8 be
       -0.24292484 -0.0059328326 0.09976121 -0.3917703
0000d0 f4 b5 69 3d 4b 1e 18 3d af fb 05 be c0 5b 9d bd
       0.05705829 0.037138265 -0.13084291 -0.076835155
0000e0 5f a3 54 be 2c d0 1d bf 6f 14 0e 3e cc 4e 51 be
       -0.20765446 -0.6164577 0.13874982 -0.20440215
0000f0 02 14 07 3e 95 e4 46 bd e6 96 51 be ae 50 0b 3e
       0.13191226 -0.048557837 -0.2046772 0.13604996
000100 3c 82 37 be b5 40 aa be ea c0 e8 bd 3d 1a 38 3c
       -0.17920774 -0.33252493 -0.113649204 0.011236724
000110 c2 3d 8e be 98 a8 73 be 61 7d 80 be cd f5 53 bf
       -0.27781492 -0.23794782 -0.25095657 -0.8279694
000120 5c 23 cd 3d 6e a8 52 be ed 4f d9 3d f7 b7 03 bf
       0.1001651 -0.20572063 0.10610948 -0.51452583
000130 70 9e 2f bf 1a 3c 90 be 0f a3 b4 bd 2c 45 d6 3e
       -0.6860113 -0.28170854 -0.088201635 0.4184965
000140 0b 69 9e be 4e c7 34 be 3a f1 ce 3d db cb 13 3d
       -0.30939516 -0.17654154 0.10104604 0.036083084
000150 99 08 f2 3e 2d 57 cc be e1 04 85 bf 0c 10 33 bf
       0.47272184 -0.3991026 -1.0392114 -0.6994636
000160 2f 97 20 bb 9a 87 9a 3e 5b 2a 17 3e 80 c6 12 be
       -0.0024504175 0.3018158 0.14762251 -0.14333534
000170 7d a5 60 bf b7 67 a1 bd a7 0f 38 be e5 28 0a 3f
       -0.87752515 -0.0788111 -0.17974721 0.5396865
000180 eb 15 11 be 15 98 66 3e b8 c5 50 be bf c3 9e be
       -0.14168517 0.22518952 -0.20387924 -0.31008717
000190 5a e6 17 be b2 c3 27 3e c4 7e a0 3c 81 7f 1c be
       -0.14833966 0.16383246 0.019591697 -0.15283014
0001a0 77 08 17 bf 57 9d 07 be 9c bf 11 bf ed c0 31 3b
       -0.5899729 -0.13243614 -0.56933 0.002712305
0001b0 d0 b0 7d 3e fe df 93 3d e8 5b 49 3d ca b5 43 bf
       0.2477448 0.072204575 0.049159914 -0.76449263
0001c0 db d3 9b ba 2e eb 83 be 9b 92 85 bf 07 74 99 3c
       -0.0011888699 -0.25765365 -1.0435365 0.018732084
0001d0 4f c3 1b bf 7a 4c 6d be 3c 0a b4 bd 9b 88 39 3c
       -0.6084489 -0.23173705 -0.087910146 0.011324073
0001e0 95 58 89 be bd 6d f2 bf c6 a6 cd be 68 1b 4c 3e
       -0.26825395 -1.893974 -0.401663 0.1993233
0001f0 6b a0 37 3f 99 14 83 bd c0 67 09 3f a8 0c 30 bd
       0.71729153 -0.06400413 0.53673935 -0.04298082
000200 f5 2f 75 be 12 b3 0e 3d 46 90 26 3e 0a 7c d3 3e
       -0.23944075 0.034838744 0.16265973 0.41305572
000210 38 99 4a 3c 8d d8 39 be ec d8 fa bd 9d 97 63 3e
       0.012365632 -0.18149014 -0.12248406 0.22225805
000220 30 df 29 bf 2f 8a a2 bd df ca db be 72 df 3d 3e
       -0.6635618 -0.07936513 -0.42928216 0.18542269
000230 e4 a5 fd bd d4 39 58 3e 1b f9 82 3d 1f 6d 23 3d
       -0.12385157 0.2111581 0.06395169 0.039898988
000240 80 8a 96 ba 42 d3 2b be af c4 76 be 37 f9 00 3f
       -0.0011485368 -0.16779807 -0.24098466 0.5038027
000250 32 91 15 be 31 88 81 be 03 13 77 be 6d ab 38 be
       -0.14606169 -0.25299218 -0.24128346 -0.18034144
000260 72 89 98 be 68 46 f1 bd 56 c2 33 3d 4b b4 47 be
       -0.29792362 -0.11781007 0.043886505 -0.1950237
000270 db a3 4a be 35 56 13 bf 07 38 ad bd a6 29 94 bd
       -0.19789068 -0.57553416 -0.08457952 -0.07234506
000280 bd 1d 9d be cf e8 a0 be d8 a7 35 be 7b 80 62 3c
       -0.3068675 -0.3142762 -0.17739809 0.013824577
000290 29 f5 99 3e 6c df 99 3d 75 23 d1 be 40 d3 42 be
       0.30069855 0.075133175 -0.40847364 -0.19025898
0002a0 fa b4 1e be d5 9c 30 bf bb 19 ff bd 94 84 38 be
       -0.15498725 -0.68989307 -0.124560796 -0.18019325
0002b0 1a df 98 3d 65 e9 af bf a7 14 27 3e 51 07 90 be
       0.07464428 -1.3743101 0.16316472 -0.28130582
0002c0 ac e8 7e bd 44 b5 15 3d 18 0d 41 3e f3 2b b4 be
       -0.062233612 0.03654982 0.18852651 -0.3518978
0002d0 d7 5b 19 bd 25 53 a9 3c 85 0d 4f bd 45 17 99 bd
       -0.0374411 0.02066953 -0.050550003 -0.074751414
0002e0 fd 38 18 bd 4e 95 08 3d 72 27 50 3e 01 f3 ca bd
       -0.037163723 0.033345513 0.20327547 -0.099096306
0002f0 cc 2f c1 bd 90 26 0d bc 71 0d a2 bd 10 91 a4 bc
       -0.09432945 -0.008615151 -0.0791272 -0.020088702
000300 a4 98 fb 3d e4 56 cf 3e 0b 58 62 bd f8 3c 9e bd
       0.12284973 0.4049598 -0.055259746 -0.077264726
000310 67 c9 f1 3e 60 58 aa bc 10 ba a9 be d9 71 58 3d
       0.4722397 -0.020794094 -0.33149767 0.05284295
000320 82 12 0e bf 87 8e 2f bd 5b 24 bd bc ab ca 3d 3f
       -0.5549699 -0.042860534 -0.023088625 0.7413737
000330 55 63 cf 3c af 5a e6 bc 49 b8 bd 3d f7 0d b1 bd
       0.02531592 -0.028119413 0.09263665 -0.08645242
000340 ab 31 5b 3e ae 45 7d bf 2a cc 0e bf e9 6e 8c bc
       0.21405666 -0.9893445 -0.5578028 -0.01714273
000350 30 b3 a8 3e 7a b5 47 bf 7f e3 c2 be cc a8 7e bd
       0.3294921 -0.78011286 -0.3806419 -0.062172696
000360 2e d0 1e bd 0d b9 05 bd 37 b3 b5 3d 76 d6 04 bd
       -0.038772754 -0.03264718 0.08872073 -0.03243109
000370 60 1a 46 3f b3 04 32 be 4d 2c 86 3c 28 cb 3d be
       0.77383995 -0.17384605 0.016378546 -0.18534529
000380 dc a8 db be 89 59 02 bf 7f c1 d6 bd ff 83 06 bf
       -0.42902267 -0.5091787 -0.10486125 -0.5254516
000390 59 7b 31 be 64 68 58 bf d5 bf c4 3d 76 a8 ea 3d
       -0.1733221 -0.8453429 0.096069016 0.114579126
0003a0 81 db ea bc 54 0f 84 be 0b a0 89 bd 31 65 d4 be
       -0.02866912 -0.25792944 -0.06719979 -0.41483453
0003b0 36 e6 fa 3d bb 58 9d 3d 41 1d 4e be e9 f0 0d bd
       0.122509405 0.076829396 -0.20128347 -0.034653578
0003c0 1b 46 75 be f0 79 18 be 7a dc 3d be 5e 51 58 be
       -0.23952524 -0.14890265 -0.18541136 -0.21124789
0003d0 71 75 07 3e 7c e3 99 3d 30 4a a4 bb b1 c7 1e bf
       0.13228394 0.07514092 -0.0050137267 -0.62023455
0003e0 04 83 7a be c3 83 1a 3e 1a 2c 8b bd 57 d7 37 bf
       -0.24464041 0.15089326 -0.06795521 -0.7181296
0003f0 1f 4b 5c be 4a 59 63 bf 2a a5 57 be fe 61 03 bf
       -0.21513031 -0.8880812 -0.21059099 -0.513214

feature.2.bias f4 [128]
000000 26 f7 1c be 28 d2 02 be f9 7b 5f 3f 31 ad c9 3f
       -0.15328655 -0.12775481 0.8729854 1.5755979
000010 68 17 88 bb 2c 54 40 bd 4e c5 c4 bc 10 43 1d 3f
       -0.004153181 -0.046955273 -0.024019863 0.61430454
000020 f8 a3 77 3e c7 43 6e be 35 73 00 3f e0 bf 25 3e
       0.24183643 -0.23268043 0.5017579 0.16186476
000030 00 7d 26 3e d2 2f d4 be 69 89 35 be 99 23 d1 3c
       0.16258621 -0.41442734 -0.17728199 0.02552967
000040 b5 f3 53 bd 3d f1 f5 be 6a d6 33 bd 70 3c 7b 3f
       -0.05174609 -0.48035613 -0.043905653 0.98139095
000050 a1 02 f9 bd 0d 61 11 be 4d 91 1a c0 41 3d 04 be
       -0.121587045 -0.14197178 -2.4151185 -0.12913992
000060 71 f9 83 bd 4c 1a 01 be 78 9d 1d be 9d 59 ba be
       -0.064440615 -0.12607688 -0.15392101 -0.36396495
000070 3c 93 84 ba 9b 04 19 3f 11 2c 2a be d4 f3 e3 3e
       -0.001011468 0.5977265 -0.16618372 0.44521964
000080 21 bd 22 bb 29 39 df 3e dc 3e 28 3e bf be 94 bd
       -0.0024831968 0.43598297 0.16430229 -0.072629444
000090 8a 04 cf 3e 6a 47 e9 3e bd 15 bc 3d 7c c4 63 3e
       0.4043315 0.45562297 0.09183834 0.22242922
0000a0 38 b0 01 be b6 f6 30 3d 87 4f ac bd 88 88 dd bd
       -0.12664878 0.043204032 -0.08413606 -0.10817057
0000b0 d1 ca 10 3e d4 a5 1a be 09 a7 59 be 15 05 0f 3d
       0.14139868 -0.15102321 -0.21255125 0.034916956
0000c0 d4 df 16 c0 33 59 a1 be 0c b2 d1 bf db 57 54 bf
       -2.3574114 -0.31513366 -1.638246 -0.82946557
0000d0 88 8d 8d bd 5f 60 bf 3e fa ea 9d 3d ee 4f bc 3e
       -0.069117606 0.37378213 0.07710834 0.36779732
0000e0 18 3d 49 bd 7d 2e f1 be 50 06 b5 3d 52 10 2b be
       -0.04913053 -0.4710578 0.08839095 -0.16705444
0000f0 26 85 54 bd b7 1d 46 bd e9 af 2d bd 76 fb 89 3f
       -0.051884793 -0.048368182 -0.04240409 1.0779865
000100 73 a2 66 3e 39 2b f0 bd d2 e6 40 be 2e db 97 bd
       0.22522907 -0.11726994 -0.18838051 -0.07414852
000110 31 95 7b be ab 15 eb bb b9 0d 17 be 69 e1 1f be
       -0.24568631 -0.007174214 -0.14751329 -0.15613331
000120 52 ba 69 3e 28 f5 ae be 9d 59 94 3e fd 8a 56 bd
       0.22824982 -0.34171414 0.2897462 -0.052378643
000130 e8 d0 0c be 59 2c b1 3c eb 87 9c 3e c4 32 12 be
       -0.13751566 0.021627592 0.30572447 -0.14277178
000140 1d e7 27 3f 1d 73 55 3e 78 d2 e3 be 7e 06 9d bd
       0.65587026 0.20844693 -0.44496512 -0.07667254
000150 a1 12 d7 bd 9b d3 a6 bd 49 59 ec 3e 60 32 81 3e
       -0.105016 -0.08145829 0.4616187 0.25233746
000160 46 4f 6e be 15 ab 13 bf 2a b5 23 bd 64 4c 0d 3f
       -0.23272428 -0.57682925 -0.039967693 0.5519469
000170 8f e0 25 bd 51 a8 5c 3f 0b 54 71 bf 53 85 f0 bc
       -0.04049736 0.8619433 -0.94268864 -0.029360449
000180 d4 54 1f be 3b 28 e7 bd cb 5e 8a 3e ce cc 20 3f
       -0.15559703 -0.1128697 0.27025446 0.6281251
000190 41 2e 50 bd 22 3f 0d bf cf 03 33 3f 67 1e 17 3f
       -0.05082536 -0.5517446 0.69927686 0.59030765
0001a0 74 71 22 3f 26 22 ef bd 39 99 c7 3e 53 bf 2a be
       0.63454366 -0.11676435 0.38984087 -0.16674547
0001b0 15 c8 0b 3f ad 68 90 3b 12 9b 68 bd c2 39 16 be
       0.54602176 0.0044070096 -0.05678851 -0.1467047
0001c0 18 4d 13 3f 03 1b f9 bd 77 97 e9 be 1a c8 c6 3c
       0.5753951 -0.12163355 -0.4562337 0.024265338
0001d0 6f 1d 80 3e 9f 49 0a 3e b2 79 18 3f 62 bd 8e bb
       0.25022456 0.13504647 0.5956069 -0.0043560723
0001e0 70 c9 38 bd d8 e0 e4 3e 61 28 a9 bd 46 5f c4 bd
       -0.04511398 0.44702792 -0.08259655 -0.095884845
0001f0 74 ca 45 3e cd 26 13 be 4f d4 01 bc 2e 5c e0 be
       0.19315511 -0.1437027 -0.0079241535 -0.43820328

value.0.weight f4 [64, 128]
000000 dc 7c 20 3f a5 b1 14 bc eb c0 89 bf b7 69 0e bf
       0.6269052 -0.009075557 -1.0761999 -0.5563006
000010 72 fa a5 bc 51 fb b5 bd fc 8d 0d be f9 07 39 bf
       -0.020261023 -0.088858254 -0.13823694 -0.7227779
000020 23 96 3d bf 69 c6 34 3d 4c 0b 94 be d5 f9 35 3b
       -0.74057215 0.04413453 -0.2891487 0.002776732
000030 2a c6 2f bf 20 82 96 bd a2 c5 24 bf 38 96 38 bf
       -0.6866175 -0.07349038 -0.64364064 -0.72104216
000040 92 78 ff bb 05 ad 5f bf 6a 89 81 3c 59 63 a0 bf
       -0.0077963555 -0.8737338 0.015812594 -1.2530318
000050 8e 12 c8 be 13 13 a1 bd ba be 1c c0 00 79 95 bb
       -0.39076656 -0.07864966 -2.449141 -0.0045615435
000060 43 a6 6e bd ba e0 84 bc ec f2 a8 3d e7 53 d0 be
       -0.05826403 -0.01622044 0.08249459 -0.40689012
000070 a0 ab 8a bc f2 e3 86 bd 00 97 06 3c d6 3b b0 bf
       -0.01692754 -0.06586446 0.008214712 -1.376826
000080 cc da 78 bd f1 be c4 bf 1e 27 e9 bd af 5b a0 bd
       -0.060755536 -1.5370771 -0.11384414 -0.07829987
000090 dd 0f 57 bc 90 ba 43 bf c4 6f 36 bf 12 e6 49 be
       -0.013126341 -0.76456547 -0.7126429 -0.19716671
0000a0 f5 85 22 be 99 48 9e be b4 8d d9 be c2 4d 6e bd
       -0.15871413 -0.30914763 -0.42490923 -0.058179624
0000b0 44 2b 11 bf 4d 66 cd bd 1e 85 75 bb 4a cf 84 3d
       -0.56706643 -0.10029278 -0.0037463377 0.0648485
0000c0 6a 36 9b 3d e3 a4 e0 be 6a 92 9c bf ee 76 8c be
       0.07578738 -0.438758 -1.2232182 -0.27434486
0000d0 70 10 97 bc 72 23 af be d4 c5 b7 be 69 69 e0 bf
       -0.018440455 -0.3420673 -0.35893118 -1.7532169
0000e0 97 82 3c bf 82 7e 8a 3f 92 4b 06 bf 12 80 15 3d
       -0.73636764 1.0819857 -0.5245906 0.03649909
0000f0 f4 4c 14 3d 80 74 87 3a 52 09 52 3d 79 f2 a6 bf
       0.0362062 0.0010334402 0.05127842 -1.3042747
000100 28 a5 61 be 6b 07 92 3d 4a 2c 64 3d 54 49 8c 3c
       -0.22035658 0.07130321 0.0557063 0.01712481
000110 01 3f 4e be 8b c6 13 3d a2 71 cb 3d 77 aa dc bd
       -0.20141222 0.036078017 0.09933783 -0.10774701
000120 4d de b1 be 24 a7 37 3f 49 05 4d bf 39 9d 00 bd
       -0.34739915 0.7173941 -0.8008619 -0.03139994
000130 d6 9a 47 be 36 ea 9d be 5c 4b b5 be 9a 79 86 3d
       -0.19492659 -0.3084275 -0.35409057 0.065661624
000140 2c fb 80 bd 8e 31 19 bc f8 4b 59 3f fc ff 76 3d
       -0.06297907 -0.009350194 0.84881544 0.06030272
000150 1a 6a cf 3c d3 f0 48 bd 0b 66 af be f8 38 28 be
       0.025319148 -0.049057793 -0.3425754 -0.16427982
000160 45 1d 6e be 13 bc 4d 3e 0f 76 86 bc ca 12 19 3f
       -0.23253353 0.20091276 -0.016413717 0.59794295
000170 48 bc b6 be 1d 00 f6 bc 91 df a0 3e 4a 37 d5 be
       -0.35690522 -0.03002935 0.31420568 -0.41643745
000180 3f 96 68 3c 53 bc f4 3e 74 93 ac 3e 85 86 3a bd
       0.014195978 0.4779993 0.33706248 -0.045538444
000190 86 20 bf be c1 94 7e be 7e c1 00 c0 8f a8 5b bf
       -0.373295 -0.24861433 -2.0118098 -0.85804075
0001a0 a0 55 e4 bd 2c c1 cd 3c bd 48 e2 be fc 29 72 bf
       -0.11149144 0.025116526 -0.4419612 -0.94595313
0001b0 b1 9e b2 bf 03 6f 9e 3d 49 12 49 3d 93 d1 49 3d
       -1.3954679 0.077360176 0.049089704 0.04927213
0001c0 c4 6c ec be 72 fc cc bc d5 72 86 be ad 50 7e be
       -0.46176732 -0.025022719 -0.26259485 -0.24835463
0001d0 96 6c 8d be 03 ce 82 bf 76 24 5c 3e da 42 64 bd
       -0.27621907 -1.021912 0.21498284 -0.055727817
0001e0 bc 4c 41 3f 66 fe 3d 3e 4d 98 8e 3d fd ea 27 3d
       0.7550771 0.18554077 0.06962643 0.040995587
0001f0 5c c9 43 be 3a 47 94 bd 48 6e d7 3c 16 e3 df 3e
       -0.19119781 -0.07240148 0.026297703 0.4372794
000200 27 ad ab bd 68 ae 0b bd e4 f5 0f be 21 4b 7b bf
       -0.083826356 -0.034101874 -0.14058644 -0.9816151
000210 e4 9f 9e bd ac 74 b3 bd 3d 8f 9a be b6 37 b5 bc
       -0.077453405 -0.08762488 -0.30187407 -0.022121292
000220 10 e5 87 3e de 4b 03 3a 23 8a 06 bf e7 0b a1 be
       0.26541948 0.00050085585 -0.5255453 -0.31454393
000230 50 4d b9 3d 34 ed a8 3c 01 23 fe bd c3 c6 87 bd
       0.09047949 0.02062092 -0.1240902 -0.06629708
000240 4e 31 90 bd 94 85 4a 3e 7f 78 57 3d 55 d0 3a be
       -0.07040654 0.19777519 0.05260515 -0.18243535
000250 cd 4e a5 bd b9 09 69 bd 66 2a 67 3f 00 58 c0 3a
       -0.08071671 -0.056894038 0.9029907 0.0014674664
000260 d5 58 59 bf dc 36 0e be 88 bf 0e bd 54 db d7 bd
       -0.8490117 -0.13888115 -0.034850627 -0.105398804
000270 e9 e3 1c 3b 3b 52 20 be 0e 5b 7e bd 2f ec 88 bd
       0.0023939556 -0.15656368 -0.062098555 -0.066856734
000280 9a 28 4a 3d 7d d0 ef 3c 21 de ba 3e d3 73 43 3d
       0.049355127 0.02927422 0.36497596 0.04771788
000290 fd 31 93 bd 78 d1 c2 be 48 77 e5 bd 67 89 27 bd
       -0.07187269 -0.38050437 -0.11204392 -0.04090252
0002a0 0d 01 0e be f9 02 35 be 38 53 1d bd 40 69 2a bd
       -0.13867588 -0.17676915 -0.03840944 -0.04160428
0002b0 af dc d7 bd 66 e5 3c 3d f5 26 92 3d 53 64 f0 bd
       -0.10540139 0.04611721 0.07136337 -0.11737885
0002c0 0b 43 e7 bd 38 f6 96 3d b1 71 c8 ba ce 23 cf bd
       -0.11292084 0.07371181 -0.0015292672 -0.10114251
0002d0 c6 da 58 3d 06 06 87 be 23 ec 42 be ef 05 6d bd
       0.052943014 -0.26371783 -0.19035392 -0.057866987
0002e0 9c 79 01 be 9e 6b 1e 3f a5 85 2c 3d a5 81 a2 3d
       -0.12644047 0.6188296 0.04211964 0.07934884
0002f0 91 bc 0d bd d3 87 b1 bd 6f 26 5e bd 1c 1e 89 bf
       -0.03460366 -0.086684845 -0.054235872 -1.0712314
000300 8c 5c 63 bd b0 c2 af bb 36 c4 7b 3d cf 1a 58 bd
       -0.05550818 -0.0053637847 0.06146642 -0.05275994
000310 d5 e3 d3 be be 83 1d 3d 90 fb f5 3b 78 e0 e7 3d
       -0.4138476 0.038455717 0.007506795 0.11322111
000320 8b 04 14 3d 63 f3 09 bf 56 78 f9 be 2d 9a 64 3d
       0.036137145 -0.53887004 -0.48724622 0.055811096
000330 0d e7 99 bd 70 3d af be 46 81 75 bd 17 a9 c4 3d
       -0.075147726 -0.3422656 -0.059937738 0.09602564
000340 ba 71 f8 be f7 ff 12 3d 7e 47 1f 3e d3 d4 b3 3d
       -0.48524266 0.03588864 0.15554616 0.087808274
000350 a4 41 09 bd e8 d4 0e 3d a0 45 9b be 05 42 30 be
       -0.033509865 0.034871012 -0.30326557 -0.17212684
000360 a4 fa 98 bd 21 27 e7 3d 79 c6 1e bc aa f9 1b 3c
       -0.07469681 0.1128676 -0.009690874 0.009519974
000370 e4 0e 69 3d ee 93 82 be 7e 40 99 be f5 2c c1 3e
       0.056898966 -0.25503486 -0.29932016 0.37729612
000380 27 7c ef 3c 3b 24 bb 3c 62 0b 9e 3e 4b 6e 17 be
       0.029234005 0.022844424 0.3086806 -0.14788167
000390 2c de 9e bc 67 63 4d be 06 c8 13 bc 30 33 90 be
       -0.01939305 -0.2005745 -0.009019857 -0.28164053
0003a0 4a fa c5 be 00 a8 c9 39 81 c4 31 be f6 e4 30 be
       -0.38667518 0.00038462877 -0.17360117 -0.17274842
0003b0 ed a3 e8 bc 18 66 8a bd 68 d6 8f bc ce 70 7d 3d
       -0.028398478 -0.06757754 -0.017558292 0.061875157
0003c0 c2 2f a1 be 1d 59 9a bd 56 10 2c be 1d a6 99 bc
       -0.3148175 -0.07536528 -0.16803107 -0.018755967
0003d0 c7 cc cb bd 2d f2 59 be 17 50 1b bf e1 1d de ba
       -0.099511676 -0.21283789 -0.6066908 -0.001694616
0003e0 0d 7c 2f be 2f d7 38 bd 74 92 86 bd 7f 9b b1 3d
       -0.17137165 -0.04512709 -0.065709025 0.08672237
0003f0 56 7c c9 bd 5c ad cc bc 54 4b 87 bc 32 48 87 be
       -0.09838168 -0.024985008 -0.016515411 -0.26422268

value.0.bias f4 [64]
000000 ac f4 e9 be d4 7e 3f bf f7 8d b5 3f ef a9 9c bf
       -0.45694482 -0.748029 1.4183949 -1.223936
000010 3f ac fe 3f 25 42 04 3f 3c 59 76 be 1a 30 71 be
       1.9896315 0.5166343 -0.24057478 -0.23553506
000020 a3 1f ed 3e fa a9 43 bf 44 76 ec be 7b 5d 5d 3f
       0.463132 -0.7643124 -0.4618398 0.86470765
000030 8a d3 8e bf 7e 41 28 3f 4a 40 d8 3f f2 12 d5 bd
       -1.1158307 0.65724933 1.689462 -0.10404004
000040 7d 52 b3 3f 32 0d e5 3f 17 7b 95 3f 74 d2 d2 bf
       1.4009548 1.7894652 1.1678189 -1.6470475
000050 38 30 0c bf 67 19 9e 3f c4 38 34 bf e9 4a 8d 3d
       -0.54761076 1.2351502 -0.7039912 0.068990536
000060 9c ea 06 3f 00 67 4e 3f 43 e2 93 3e 90 03 97 3e
       0.52701735 0.80625916 0.28883561 0.29494905
000070 66 09 0f 3f 63 1e fa bd d7 57 15 3f 60 90 1f bf
       0.55873716 -0.12212827 0.5833716 -0.62329674
000080 67 cd 21 3f 55 59 84 be e9 53 09 3f 13 b8 fb 3e
       0.63204044 -0.25849405 0.5364366 0.49163875
000090 a3 66 18 3e 8b 09 c6 3d 61 12 c6 be f6 41 db be
       0.14882903 0.09669789 -0.38685897 -0.42823762
0000a0 71 ed 30 3f 8f 79 b0 bf ba 19 c2 3e e7 e2 43 bf
       0.69112307 -1.3787097 0.37910253 -0.765181
0000b0 2b 97 6a 3f 2f d7 7c be 69 80 1f 3f ca 74 92 be
       0.91636914 -0.24691461 0.62305313 -0.28604728
0000c0 29 53 26 3f 8a ed 82 bf 65 6b 61 bf cc 4f 05 3f
       0.6497064 -1.0228741 -0.88054496 0.52074885
0000d0 75 4e 97 3e a7 15 04 3f 91 a1 1b bf 88 ff 88 be
       0.29552045 0.5159554 -0.60793406 -0.26757455
0000e0 7e ef 72 be 45 02 97 be 5e 6e 18 3f ac 93 50 bf
       -0.23724172 -0.2949392 0.59543407 -0.8147533
0000f0 9d 0b 33 bf 59 01 20 c0 48 f9 56 bf c6 4c 9b bf
       -0.69939595 -2.5000823 -0.83974123 -1.2132804

value.2.weight f4 [1, 64]
000000 1d c6 f3 bf c6 26 b3 3f cc bd 0e bf 21 ef e4 3f
       -1.9044834 1.3996208 -0.5575836 1.7885476
000010 52 cc c0 3f 3f b7 71 3f 0b 67 b0 bc 2f d7 5c be
       1.5062354 0.94420236 -0.02153351 -0.21566461
000020 75 58 a6 bf fb 44 72 be 8f 26 f1 3e 99 cd 8c be
       -1.2995745 -0.23659126 0.4709973 -0.2750061
000030 dc c9 2a 3f d9 54 a1 be c9 d9 9b be 22 2d f8 3c
       0.6671426 -0.31510046 -0.30439594 0.030294959
000040 81 57 a6 3d 93 0a 3f 3e 12 24 af 3f 56 65 4b 3f
       0.08122159 0.18656377 1.3682883 0.794515
000050 7f 41 d5 bf 14 28 d2 3f 45 11 0b 3f b8 58 ae bf
       -1.6660613 1.6418481 0.54323226 -1.3620825
000060 b9 93 16 c0 eb 14 2a 3f 26 ea 3e bb d0 5b 2f bf
       -2.3527663 0.6643817 -0.0029131263 -0.6849947
000070 f0 35 c9 bd d0 62 d7 3c 3d 4d a0 bd 2d d0 e4 be
       -0.09824741 0.026292235 -0.07827232 -0.44690076
000080 26 7a 5e 3f d4 e1 23 3e 98 e1 13 3f c2 5c c3 3e
       0.86905134 0.16004115 0.57766104 0.38156706
000090 6f b1 73 bd 75 b8 59 3f 26 6e 11 c0 6e 58 26 bf
       -0.059495386 0.85047084 -2.272348 -0.64978683
0000a0 99 55 b3 be 0f 0e 8c bf 63 9f 3d bf c6 3f 15 3f
       -0.35026243 -1.094179 -0.7407133 0.58300436
0000b0 a8 19 56 3f a5 56 d8 bb 74 e6 08 3f e2 0f b3 3c
       0.836329 -0.0066021257 0.53476644 0.02185816
0000c0 40 af 63 be 3c ed 3b 3f 3c 6f 03 c0 fc ed e9 be
       -0.22234821 0.73408866 -2.0536642 -0.4568938
0000d0 96 bc bd bc 32 08 9e bd 63 a8 00 3e d8 8f 56 be
       -0.023161214 -0.07716407 0.12564234 -0.2095331
0000e0 5e 1d d0 bd 4f 74 06 3f 6e 21 47 bd 4c a7 8f 3f
       -0.10161851 0.5252122 -0.048615865 1.122293
0000f0 0c c2 14 3f f4 f4 09 c0 43 de 8d bf 09 fa 48 bf
       0.5810859 -2.1555758 -1.1083454 -0.78506523

adv.0.weight f4 [64, 128]
000000 b2 67 46 be b2 63 82 3d 24 9a 23 3e 21 5c b0 3e
       -0.19375494 0.063666716 0.15976769 0.3444529
000010 ca b0 95 39 e9 67 4f 3b 26 07 ce be b4 81 c8 be
       0.00028551213 0.0031647629 -0.4023983 -0.39161456
000020 43 4d 50 3e 9f 29 64 3d 1f 0b 2d 3f dd 50 f0 bd
       0.20341973 0.055703755 0.67595094 -0.117341734
000030 2a 5f b8 be ee 52 47 bf d3 38 7c be 56 ab 7c bf
       -0.36010104 -0.77860916 -0.24631052 -0.9869894
000040 38 85 0f bd 6c ba aa be 1b bb 8e bd 3c ae 82 bc
       -0.035039157 -0.33345354 -0.06969281 -0.015952222
000050 17 5b c6 3c e9 d7 95 bd bb b6 45 bf bb 8a a2 3c
       0.024213357 -0.07316572 -0.7723195 0.019841542
000060 d4 24 11 bf 1f 9f 2b 3a 8e 3d b3 bd 40 f9 4c be
       -0.5669682 0.0006546843 -0.08751975 -0.20016956
000070 f8 fb d5 3e b5 b8 5f be 0c 22 1c bc f2 e3 bd be
       0.417938 -0.21847804 -0.009529602 -0.3708797
000080 92 f4 ab 3c f1 75 7a bf 6c 31 25 be 59 09 12 bf
       0.020990644 -0.97836214 -0.16132134 -0.57045513
000090 1a 60 c4 bf d1 75 41 bf d9 5f 8d bf 45 46 82 be
       -1.5341828 -0.755704 -1.1044875 -0.25444236
0000a0 9d 86 c1 bd 04 25 c6 bd f3 1e 8d be ee 66 54 bd
       -0.094495036 -0.09675029 -0.27562675 -0.051855974
0000b0 39 c8 f8 be 51 28 9c 3d c2 21 10 be 11 78 8c be
       -0.48590258 0.07624877 -0.14075378 -0.27435353
0000c0 ff fe a1 3c 4d 44 7a bf 97 39 95 be bb 1a 03 bf
       0.019774912 -0.9776047 -0.291455 -0.5121266
0000d0 f8 ad 8c 3d 30 66 a2 be a9 54 1f be 49 16 31 3e
       0.068691194 -0.31718588 -0.15559639 0.17293657
0000e0 e7 2a c2 3e 8e 89 4e 3f a6 84 06 bf 4c 3c 4d bd
       0.37923357 0.8067864 -0.52546155 -0.05010633
0000f0 9e 0a 90 bd 22 56 84 bd b7 0d 67 bd 59 1c 86 bf
       -0.07033275 -0.06461741 -0.056409564 -1.0477401
000100 2b 58 5d bf 80 98 2a 3b 00 df 6b 3c 0d 49 5c 3d
       -0.8646266 0.0026030838 0.014396429 0.053780604
000110 9e 28 2d bf 61 1f 95 bd 19 47 89 bd 64 bf 7d bd
       -0.676401 -0.07281376 -0.06703014 -0.061950102
000120 4d 9b b3 bf 3f 79 e5 be a4 64 6d bf 97 e4 c8 3c
       -1.4031769 -0.44819066 -0.9273169 0.024523063
000130 2b d6 a4 bc a1 16 26 bf 5a 07 9c 3e d2 e5 67 3e
       -0.020121654 -0.6487828 0.3047436 0.22646263
000140 a9 b6 dc bc 5a f5 8a be 54 25 87 3f 91 ef 20 bd
       -0.026942568 -0.27140313 1.0558267 -0.03929097
000150 e2 c2 65 3d 17 0c 89 bd 66 49 f1 be e2 a6 8d bf
       0.056094058 -0.06691759 -0.4712631 -1.1066554
000160 c8 a7 43 bf 80 d3 e2 be a2 df b5 3a 82 69 c8 c0
       -0.7642789 -0.44301987 0.0013875852 -6.2628794
000170 30 a4 67 be 44 6f a0 be e0 fc 26 3e 47 f7 4e be
       -0.22621226 -0.3133489 0.16307402 -0.20211516
000180 5b f3 32 bd 4e 75 fc be e1 c8 6a bf 3e 60 5e bf
       -0.043689113 -0.49308246 -0.91712767 -0.86865604
000190 2f c8 58 3f 8b 92 99 3f 7f bb 8e bd 44 34 53 bf
       0.84680456 1.1997846 -0.06969356 -0.82501626
0001a0 6e c1 ac bf b4 6d 84 bd b3 c2 6e 3e 19 40 f0 3c
       -1.349653 -0.06466237 0.2331646 0.02932744
0001b0 8d 15 0e be 94 35 9b 3d 68 c7 25 3c 34 51 60 bd
       -0.13875408 0.075785786 0.010118343 -0.05476494
0001c0 76 12 17 bf cc 87 9e bd fd a7 86 be d8 c4 d7 bd
       -0.59012544 -0.07740745 -0.2630004 -0.10535592
0001d0 76 46 ac bf da bf ec 3d e4 d9 81 bd b2 d9 cd bc
       -1.3459003 0.1156003 -0.063403875 -0.02512822
0001e0 0d d0 b5 be 00 94 a1 be 4b 9c 7e bb 65 a5 f7 3c
       -0.35510293 -0.31558228 -0.0038850482 0.030230233
0001f0 47 88 65 be 10 b6 e9 bb 6c a7 aa bd 56 da a4 bd
       -0.22415267 -0.0071322992 -0.083327144 -0.08049457
000200 44 47 a0 bd a6 fc 21 3f fe 3b a9 be 06 1f 9d bf
       -0.07826093 0.63276136 -0.33053583 -1.2275093
000210 81 bf 07 bd 2a a2 47 bd a4 9d fd bd 6c 62 bb be
       -0.033141617 -0.048738636 -0.12383583 -0.36598527
000220 fb 8d 6d bd 48 ae c1 bd 32 1d f0 be bd 92 92 be
       -0.05799673 -0.0945707 -0.46897274 -0.28627577
000230 68 46 04 be 6e d3 1c be cc e3 7b be 74 79 99 be
       -0.12917483 -0.15315029 -0.24598616 -0.29975474
000240 d2 ac 76 3d 4b 3a 60 bf fc 03 16 bd c4 17 22 bf
       0.060223408 -0.8758895 -0.036624894 -0.63317513
000250 89 53 c5 bd 3e d2 b0 bd 70 95 18 3f 08 1c 4a bc
       -0.09635074 -0.086338505 0.59603024 -0.012335785
000260 6b 04 2d bd 29 76 9c 3d 15 89 9a 3c 7f ec 9d be
       -0.04224054 0.07639725 0.018864194 -0.30844495
000270 38 0c c2 be d5 78 c5 bd 66 65 2c 3d 94 18 af 3d
       -0.37899947 -0.096421875 0.04208889 0.0854961
000280 88 19 07 bd f2 63 3c bf 2d 1e 43 bf 85 41 95 3c
       -0.032983333 -0.73590004 -0.7621792 0.018219719
000290 91 67 b5 bd 3d c4 57 bd 1f 11 69 bf 97 95 fd bd
       -0.08857644 -0.05267738 -0.9104175 -0.123820476
0002a0 4d 59 6a 3d eb c1 d0 bd d8 0c 33 be 2c 13 bc 3c
       0.05721407 -0.10193237 -0.17485368 0.02295836
0002b0 68 87 f5 bd 49 23 4a bd c8 a3 e6 bd 7c ff 22 be
       -0.11988717 -0.049350057 -0.112617075 -0.15917772
0002c0 20 77 46 3e 1b 0e 3b 3b 6b 15 45 3f b6 e8 dc be
       0.1938138 0.0028542343 0.76985806 -0.43146294
0002d0 73 0d 8a bc b8 d8 98 3e cd d2 9f 3d 07 7b 6c 3e
       -0.016852116 0.29852843 0.07803879 0.23093806
0002e0 fe 67 ad bd ed 06 42 3e 4b 7c f2 3e 39 f6 a6 bd
       -0.084671006 0.18947954 0.47360453 -0.08152432
0002f0 a6 e9 49 3d db e0 93 bd a0 ff a8 3b 5d b6 87 be
       0.04929509 -0.07220622 0.005157426 -0.2650632
000300 3a c2 b2 3d 00 e3 ae b9 57 af 7b 3d 28 9e 43 3c
       0.08728452 -0.00033356994 0.061446514 0.011939563
000310 27 ff 69 bf ec 3a 71 3d 7f f7 6a bd bf 76 76 3c
       -0.91404957 0.058894083 -0.057364937 0.01504296
000320 56 d9 64 be 1b ad 4f 3e f8 4b 41 be 42 85 39 3d
       -0.22348532 0.20280878 -0.18876636 0.0452931
000330 03 2d 44 bd 46 2b d6 be ea ea bf 3e 26 18 9b 3e
       -0.04789449 -0.4182989 0.37483913 0.3029186
000340 e0 62 27 bc c8 87 47 be d1 5d 4f 3f 88 1f 8f bc
       -0.010216445 -0.1948539 0.8100253 -0.01747109
000350 c3 5d 9d 3d 6a 72 f9 bc 2f e8 32 bf 6b 7b 9e be
       0.07683899 -0.030450065 -0.69885534 -0.30953535
000360 69 9c 92 3d 01 af c0 be 0a 3e 4b 3d a4 8a f6 be
       0.07158739 -0.37633517 0.049619712 -0.4815265
000370 1a 5e 02 be 1d e7 da be ec 3c 41 3e c4 f4 99 bc
       -0.1273121 -0.4275445 0.18870896 -0.018793471
000380 a3 d3 69 bd 99 96 f6 3d e8 4d d5 3e 2e 51 58 bf
       -0.057086598 0.12040443 0.41661 -0.8449887
000390 ec d8 70 3e 23 03 9d be 23 40 aa 3c c3 43 54 bf
       0.23520249 -0.30666456 0.020782536 -0.82915896
0003a0 e5 db 90 bf 8d 8d 7d bd 43 1f b2 be 85 fc f2 be
       -1.1317106 -0.06190257 -0.34789476 -0.47458282
0003b0 ea 93 38 bf 70 7a d2 bc 80 c2 e7 ba 6a 0f 68 3d
       -0.721007 -0.025693148 -0.0017681867 0.056655325
0003c0 38 c1 80 be 54 89 ab bd 9d 53 f1 bd 5d a5 ef bd
       -0.25147414 -0.08375803 -0.11783526 -0.117014624
0003d0 04 d0 9d 3e 6b 6f 47 3e 64 98 2b be 45 58 93 bd
       0.30822766 0.19476096 -0.16757351 -0.071945705
0003e0 6d c0 b5 3c 1e fa 65 bd de 80 66 bd 78 8d 06 bd
       0.022186482 -0.056146733 -0.05627524 -0.03284976
0003f0 15 6f 86 bd 3b 04 a4 3d f0 53 99 3b 18 4a 25 3e
       -0.06564156 0.080086194 0.0046791956 0.16141546

adv.0.bias f4 [64]
000000 02 ab de bf 37 1e bc bf 79 c7 3c bf 66 77 33 bf
       -1.7395937 -1.4696721 -0.7374187 -0.7010406
000010 c1 04 ae bf 07 9b 60 bf 1c 04 8b bf c3 6c df bf
       -1.3595201 -0.8773655 -1.0860629 -1.7455066
000020 09 61 51 be 10 49 1e bf d0 cb 6f be 15 04 98 bf
       -0.20447172 -0.61830235 -0.23417592 -1.1876246
000030 72 fe c9 be d6 c5 1f be 10 a9 ef be 28 65 92 bf
       -0.3945194 -0.15602812 -0.46808672 -1.143712
000040 ff cf c9 be 1e ca 03 c0 19 bb 28 bf e8 b3 a6 bf
       -0.394165 -2.0592113 -0.6591049 -1.3023653
000050 a3 9e 86 be a7 eb da be 83 76 16 bf bd ac d0 bf
       -0.26292905 -0.42757913 -0.58774585 -1.6302716
000060 1e 2d 0f be 88 1e 28 bf ed 21 a3 be f4 e9 0b bf
       -0.13982055 -0.65671587 -0.3186182 -0.5465386
000070 5b 85 02 bf 1e 1f 7a bf 87 0e 3a c0 7f 15 0c bf
       -0.50984734 -0.9770373 -2.9071367 -0.547203
000080 87 52 86 3e bc e1 75 be 3b 28 8d be f7 dc cb bf
       0.26234838 -0.24011892 -0.27569756 -1.5926808
000090 ee 99 96 bf 4d ea 17 bf dc 50 8a 3d 38 95 14 be
       -1.1765726 -0.5934189 0.06753704 -0.14510047
0000a0 de 3d 33 bf db 5e a8 bc ac b2 9e bf 4c 8e 1f be
       -0.70016277 -0.020553043 -1.2398276 -0.15581626
0000b0 7b 16 0f bf 82 a7 2e 3e b4 d0 b3 bf 7e 19 c4 bf
       -0.5589368 0.17056087 -1.4048066 -1.532028
0000c0 55 12 d8 bf ed b6 5a 3d d8 e6 97 3e 98 33 41 be
       -1.6880594 0.053397108 0.29668307 -0.18867338
0000d0 bb 00 1e bf 92 2d a8 bf fa fa d2 be 4b f1 ab be
       -0.61719865 -1.3138907 -0.41207105 -0.3358253
0000e0 0a 29 39 bf d1 9b 04 c0 96 cb 15 bf 6c 73 9f be
       -0.72328246 -2.0720103 -0.5851377 -0.31142747
0000f0 0a 83 be 3d 9d 71 93 3e 7d 2a 88 be 1f 0e 01 bf
       0.093023375 0.28797618 -0.26594916 -0.5041217

adv.2.weight f4 [2, 64]
000000 28 87 31 c0 ab 81 90 3f 4b 34 22 c0 40 c9 0e bf
       -2.7738743 1.1289572 -2.5344417 -0.55775833
000010 cd 32 a9 be ca 88 15 bc b0 49 90 3f c6 59 14 c0
       -0.3304657 -0.009126851 1.1272488 -2.3179793
000020 31 94 ee 3d 25 37 a0 3f 37 77 44 bd 45 0f cc bf
       0.11649359 1.2516829 -0.047965255 -1.594216
000030 47 fc 6f 3f 75 b7 4a 3d 9c 6a a0 bf 2a 15 88 bf
       0.9374432 0.049491365 -1.2532535 -1.0631459
000040 5b 9f 7c be aa 4c 63 bf 7c 07 26 bf 90 48 67 3f
       -0.24670164 -0.88788855 -0.6485517 0.90345097
000050 09 01 39 bf 83 92 84 3e 49 de 2d 3f 99 5f 8a bf
       -0.72267205 0.2589303 0.67917305 -1.0810424
000060 48 31 03 bf 30 f0 90 be 05 a0 88 be 38 cb ff 3e
       -0.5124707 -0.2830825 -0.26684585 0.4995973
000070 6f e7 39 3f 62 b0 85 bf c4 3b 85 bf 07 cf c7 3d
       0.72618765 -1.0444453 -1.0408864 0.09756284
000080 36 e1 ac bf ee ab 75 3d 5a 52 e4 be cb 91 b8 3f
       -1.3506229 0.059978418 -0.4459408 1.4419492
000090 d1 69 0b c0 54 d9 0a 40 df 2b e9 3e 14 ec 59 3f
       -2.1783335 2.1695147 0.45541283 0.8512585
0000a0 a1 da e5 3e 3f 22 04 be 6b 43 f2 bf 45 71 86 3d
       0.44893363 -0.12903689 -1.8926824 0.06564573
0000b0 dd 61 11 bf 30 68 5b 3f 32 3d 39 bf ed 25 f7 3f
       -0.5678995 0.8570585 -0.72359 1.9308449
0000c0 f2 24 52 c0 18 08 00 40 99 d9 2d 3f 7b 40 3d ba
       -3.283505 2.000494 0.6791015 -0.0007219386
0000d0 c7 58 0c bf 2f 2f 55 3f 9f 14 ea 3b 60 0f da bd
       -0.54822963 0.8327512 0.0071435715 -0.10647464
0000e0 e9 82 11 3f 4a 17 de 3f 69 a8 3b bf ef be 46 3e
       0.5684038 1.7350857 -0.7330385 0.19408773
0000f0 7c aa 84 bf ee 5a 25 3e f8 17 29 bc 05 7a 72 bf
       -1.0364528 0.16147968 -0.010320656 -0.9471744
000100 dc 55 2d 40 17 77 8e bf 29 47 26 40 27 ac f7 3e
       2.7083654 -1.1130093 2.5980933 0.4837353
000110 3d 8e cb 3e 79 8a 6e 3d 62 2b 90 bf 18 47 19 40
       0.39756957 0.058237527 -1.1263239 2.3949642
000120 99 27 8f 3d 93 68 9c bf 39 a2 c3 bd 5f 66 bd 3f
       0.069899745 -1.2219414 -0.09552426 1.4796866
000130 4b 80 65 bf 4c d0 2d 3d 0a 64 90 3f 0b 6e 73 3f
       -0.89648885 0.042434976 1.128053 0.9508979
000140 79 c4 2d 3e 72 1f 75 3f 66 5e 04 3f 50 29 7a bf
       0.1696948 0.95751107 0.5170654 -0.9771929
000150 2d 5b 0c 3f f8 18 b3 be 27 4e 35 bf 6b 9c 86 3f
       0.54826623 -0.34979987 -0.70822376 1.0516485
000160 a4 a8 0e 3f 6f f6 7a 3e 64 42 5b 3d 5f 06 13 bf
       0.55726075 0.2450807 0.053530112 -0.57431597
000170 99 ce 2a bf 7a 23 84 3f 37 8f 65 3f 33 f0 82 be
       -0.66721493 1.0323327 0.89671654 -0.25573882
000180 34 b5 a9 3f b6 e1 68 3c 73 70 b8 3e 91 f0 ae bf
       1.3258424 0.01421397 0.36023292 -1.3667165
000190 03 f6 04 40 80 c4 11 c0 45 d2 0e bf fe 98 49 bf
       2.0775154 -2.2776184 -0.55789596 -0.7874907
0001a0 19 93 dc be 7a 16 02 3e 43 ed ee 3f df 70 aa 3c
       -0.43080977 0.12703887 1.8666157 0.020805774
0001b0 73 55 e1 3e e2 43 53 bf da 6d 4d 3f 07 2b f6 bf
       0.44010505 -0.82525456 0.80245745 -1.9231881
0001c0 ac 0c 54 40 e0 23 f0 bf c5 6f 38 bf f9 4d e7 3c
       3.3132734 -1.8760948 -0.72045547 0.028235422
0001d0 97 35 12 3f 4d 2c 76 bf a6 40 3d bd cb b6 c2 3d
       0.5711302 -0.9616135 -0.04620423 0.09507521
0001e0 31 a6 22 bf c6 b1 e0 bf ad 8e 36 3f 1d 9e 24 be
       -0.6353484 -1.7554252 0.71311456 -0.1607594
0001f0 e0 7a 6d 3f d6 91 c0 bd 8d e4 3f 3c 3b 7a 82 3f
       0.9276562 -0.09402816 0.011712206 1.0193552

adv.2.bias f4 [2]
000000 27 34 12 be 87 7c c4 bb
       -0.14277707 -0.00599629
