positive_per_warmup/checkpoints/ep_0005.pt (torch, 145855 bytes, 11 tensors)

feature.0.weight f4 [128, 16]
000000 40 64 de 3f e9 09 1b bf 95 3b b8 be 3a 61 00 bf
       1.7374344 -0.60561997 -0.35982957 -0.50148356
000010 71 09 3c c0 8c 48 35 3f 93 a9 96 3f ac 18 4a 3f
       -2.9380763 0.7081382 1.17705 0.78943896
000020 f6 59 f6 3e 09 de d5 3e ea 5e ad be 12 5a fc be
       0.4811551 0.41770962 -0.33861476 -0.49287468
000030 d2 80 1a 3e b8 92 00 3f ce bf 14 40 7f 32 8a bf
       0.15088204 0.50223875 2.3242068 -1.079666
000040 51 49 86 3e 74 fb bd bd fe ca e6 be 30 e6 7c be
       0.2622781 -0.092764765 -0.45076746 -0.24697185
000050 03 e2 ac 3e 88 3f 6c 3e 97 d5 22 3f ee d4 fb 3e
       0.33766183 0.2307111 0.6360716 0.4918589
000060 78 03 5a bf 57 90 fb be c9 40 6c be eb 07 1a bf
       -0.8516154 -0.4913356 -0.23071589 -0.6016833
000070 b5 87 b5 be 8a 24 ca be 52 0a 74 3e d8 51 03 bf
       -0.354551 -0.39481002 0.23832062 -0.5129676
000080 d5 3b ed be 27 35 a8 3e f7 e7 86 3e 1e 0c d3 3d
       -0.4633471 0.32853052 0.2634885 0.103050455
000090 0c ac 61 be fa b4 0e 3e 84 94 69 3e d6 53 bd 3e
       -0.22038287 0.13936225 0.2281056 0.36978024
0000a0 35 c8 0b 3e a5 61 15 3e e6 cd 6b 3f cd 95 57 3f
       0.13650592 0.1458803 0.9211105 0.8421295
0000b0 41 6f 31 3e 76 d6 e5 be 9c eb e0 be 85 21 11 bf
       0.17327596 -0.44890183 -0.43929756 -0.5669177
0000c0 4d 12 9f 3f 3b 94 26 3f 8b 36 42 3f 1e c3 7b 3f
       1.242746 0.6506993 0.75864476 0.983446
0000d0 b4 f5 c5 3f d0 ec 11 bf 38 ff 1e be 58 fe 2f be
       1.5465608 -0.5700197 -0.15527046 -0.17186868
0000e0 45 83 86 3f 7b ff 90 3f 65 1c b6 3e 68 00 10 3e
       1.050881 1.1327966 0.35568538 0.14062655
0000f0 3b 84 4f 3f 42 01 5d bf b1 e8 0b 3f f0 b4 30 bf
       0.8106114 -0.86330044 0.54651934 -0.6902609
000100 25 a0 95 3f a2 9f fa bd c2 96 de bd ab 6b 34 3e
       1.1689497 -0.12237479 -0.108685985 0.17619197
000110 6e 65 9f 3f 92 92 3f bd b4 da 3d be 03 51 10 3e
       1.2452829 -0.04677064 -0.1854046 0.14093404
000120 7c ff 73 3f d4 12 46 3f 17 95 2c bd 57 63 26 bd
       0.95311713 0.7737248 -0.04213437 -0.04062208
000130 11 fb 09 3f d9 11 c4 c0 87 fd 0e 3f 70 3f ac 3c
       0.5389872 -6.1271787 0.558556 0.021026343
000140 41 d1 9d 3e 17 04 42 3e 09 87 8b bd b8 ec 70 3d
       0.3082371 0.18946873 -0.06812865 0.058819503
000150 4a bf 07 c0 4a 9a 4c 3f 03 9d 6b 3f d9 cb 86 3f
       -2.1210504 0.79922926 0.92036456 1.0530959
000160 98 6b ea bd 51 55 b7 bc 94 e6 13 3e 51 e3 83 3e
       -0.11446303 -0.02237955 0.14443427 0.25759366
000170 12 2c a1 3e d0 ca c8 3e 6e b2 88 3f 8d 34 01 bf
       0.31478935 0.39217234 1.0679452 -0.5047081
000180 aa 14 f1 3e 1f 40 b5 be 83 1e 66 be 54 c3 0b be
       0.47086078 -0.35400483 -0.22472577 -0.1364873
000190 c3 22 9e be e1 85 fb bc 18 73 0d 3e 0a f2 17 3e
       -0.30885896 -0.030703487 0.13813436 0.14838424
0001a0 38 b7 3a 3e 70 a6 43 3e 11 11 a7 3e 75 8d fb 3d
       0.18233955 0.1910646 0.32630208 0.1228284
0001b0 85 00 40 3e 48 d0 0f bf 78 83 00 3e ff 72 25 bf
       0.18750198 -0.56177187 0.12550151 -0.64628595
0001c0 80 56 b4 3e 93 47 57 be bb 3f 01 be 19 36 0d be
       0.35222244 -0.21023397 -0.12621967 -0.13790168
0001d0 de e9 10 c0 d0 c1 0f be 58 cc 34 be 58 d4 24 be
       -2.2642741 -0.14038777 -0.17656076 -0.16096628
0001e0 60 97 de 3e 73 b9 3b 3f 9c cb 88 bf dd 26 a0 bf
       0.43474865 0.7332985 -1.0687137 -1.251186
0001f0 63 44 85 bf f5 41 8e bf 43 e8 96 bf 85 10 eb 3d
       -1.0411495 -1.1113878 -1.1789631 0.1147776
000200 65 ef 21 c0 2c 98 da be a0 c0 c1 be 2d 16 0b bf
       -2.5302365 -0.42694223 -0.37842274 -0.5433071
000210 5f 20 00 40 ad ef 25 c0 3f 4c 3a c0 87 16 36 c0
       2.0019758 -2.5927536 -2.9109037 -2.845125
000220 2e d2 38 3f f0 8d 3f 3f d3 fc c7 3e d9 ca e8 3e
       0.7219571 0.74825954 0.39060077 0.4546726
000230 d9 b6 83 be 07 71 c0 3e aa bd 60 3e 85 75 44 3c
       -0.2572544 0.37586233 0.21947351 0.011990909
000240 9f a3 de bf 72 3a 80 3f a3 e9 54 3f 3f 5f 6d 3f
       -1.7393683 1.0017836 0.83169 0.9272346
000250 13 b1 cb 3f fb e6 92 be 17 b2 89 be 88 93 81 be
       1.5913414 -0.2869185 -0.26893684 -0.2530787
000260 24 42 37 3e 51 aa 6c bb 92 f0 d8 3e 02 37 08 3e
       0.17896324 -0.0036112259 0.4237104 0.13302234
000270 ae 37 2c 3f ba 54 8f be 79 a1 07 3d 5a 34 94 be
       0.6727246 -0.2799433 0.033112977 -0.2894619
000280 63 f0 b7 3f d9 1c 7d bf 5b ed 6a bf 67 ee 9f bf
       1.4370235 -0.98872143 -0.91768426 -1.249463
000290 a0 63 ac be be 03 03 bf e2 23 e9 be 76 3d b8 be
       -0.33669758 -0.51177585 -0.4553519 -0.3598439
0002a0 98 cb 21 3e c5 5c b4 3d 35 92 e8 be 84 df 08 bf
       0.15800321 0.08806757 -0.45424047 -0.5346606
0002b0 04 bd 1c bd f7 3f b0 bf 97 29 44 bf 02 98 19 be
       -0.038266197 -1.376952 -0.7662596 -0.14999393
0002c0 e5 97 ed 3b 56 41 a8 3b 88 16 c2 bd ea 3d 5e bb
       0.0072507733 0.005134742 -0.09476954 -0.0033911415
0002d0 8e 8b d5 3f 66 ed 64 3e 4a 37 fd 3d f8 a5 54 bd
       1.6683214 0.22356185 0.12364061 -0.051916093
0002e0 01 79 18 bf 52 48 43 bf ac 32 05 be d4 63 01 be
       -0.5955964 -0.7628223 -0.13007611 -0.12635738
0002f0 5a 35 e2 3e 13 6e 34 c0 88 35 35 3f 5e 96 79 be
       0.4418133 -2.8192184 0.7078481 -0.24373767
000300 80 1c 22 be d1 4a 0c 3f 31 46 d8 3e 9b 68 1c 3f
       -0.15831184 0.5480166 0.42241052 0.61097115
000310 86 cc 4c c0 19 23 1c bf 03 3e 51 bf b1 65 4d bf
       -3.1999831 -0.60991055 -0.8173525 -0.80233294
000320 1a 53 29 bc 32 d6 19 bd 51 6d 33 3f ef 9f ff 3e
       -0.010334754 -0.03755779 0.7008868 0.49926707
000330 d3 9f 2c 3f eb 0a 4c bd 8d db ef 3e 61 0d 69 bf
       0.6743137 -0.0498151 0.4684719 -0.9103604
000340 f0 96 6d 3e 5e e2 2e 3f 9c 53 ee 3e 7d 03 59 3e
       0.2320211 0.6831416 0.46548164 0.21192737
000350 68 59 ec 3f cd d7 a0 be 35 46 b0 bd a6 e3 89 be
       1.8464785 -0.31414643 -0.08607141 -0.26931494
000360 25 54 a5 be 76 63 0b be 2c c6 cf 3f ba 9f eb 3f
       -0.3229076 -0.1361216 1.6232352 1.840812
000370 2d 30 22 3f 46 fe 14 bf a0 2c 80 bf 22 04 12 3e
       0.6335476 -0.5820049 -1.0013618 0.14259389
000380 77 14 53 bf c1 be d7 3e c4 53 47 3e a2 83 51 3e
       -0.824531 0.4213772 0.19465548 0.2046037
000390 8b 16 f0 be 4f f6 d1 be be 71 35 bf 2b 62 0e bf
       -0.468922 -0.4100823 -0.7087668 -0.5561854
0003a0 f6 f3 a9 bf 90 9f b5 bf 31 ac 81 3f a3 29 93 3f
       -1.3277576 -1.418932 1.0130674 1.1497082
0003b0 9c 1f db 3e f2 50 06 bf d1 bc 09 3f 2e de 53 be
       0.42797554 -0.5246726 0.53803736 -0.20690224
0003c0 a3 18 ee 3f a4 cc f6 bb b6 5f dd 3d a5 e2 15 3e
       1.8601269 -0.0075317193 0.10809271 0.1463724
0003d0 9b bd 23 c0 a8 4e c0 3e 50 e6 11 3f 49 fa ca 3e
       -2.5584476 0.3756001 0.56992054 0.39644077
0003e0 b5 5e 94 3f 2b 1d ab 3f d0 bf 2e bf 74 73 06 bf
       1.1591402 1.3368276 -0.6826143 -0.5251992
0003f0 39 02 49 3f 9d da 9c be 5e 00 bd 3e e7 8d 82 be
       0.78519017 -0.3063554 0.36914343 -0.25498888

feature.0.bias f4 [128]
000000 17 7d a6 be 08 89 83 be b6 4d b4 be d1 e1 a3 3f
       -0.3251731 -0.25690484 -0.3521554 1.2803289
000010 7f 83 b1 3f c0 ba 2a 3f 7b 14 09 bf 85 5d 8d 3f
       1.3868254 0.6669121 -0.53546876 1.1044165
000020 22 28 88 3f e9 e9 2e be a7 f2 c1 be ee 0b a6 3f
       1.0637248 -0.17081417 -0.37880442 1.2972391
000030 59 ae 0e 3e 0a ea be 3e 0b 48 23 3f c4 f9 09 c0
       0.13933696 0.37287933 0.63781804 -2.1558695
000040 66 7f a5 bf e7 aa 23 40 1d 03 ef 3f 18 89 79 3e
       -1.2929504 2.557306 1.8672825 0.24368703
000050 7b 4e 45 3f 15 23 ef 3f 26 64 99 3f f3 0a 77 be
       0.77072877 1.8682581 1.1983688 -0.2412527
000060 93 88 84 be 62 4e 79 3f a0 6d 74 bd bf a4 88 bf
       -0.25885448 0.9738523 -0.05967486 -1.0675277
000070 2a 52 a3 3f 04 22 0d bf f0 0b 3d 3f 8c d7 f1 be
       1.275945 -0.5513003 0.7384634 -0.47234762
000080 6f 96 c4 be 81 94 25 c0 c8 54 94 bf 57 75 60 bd
       -0.38396022 -2.587189 -1.1588373 -0.054799404
000090 63 1f 84 3e c5 d8 c7 3f 56 61 02 3f 72 70 2c 3e
       0.25805196 1.5613028 0.5092977 0.1683977
0000a0 3d ef 98 bf c3 99 b9 3f c2 b3 d9 be ac 19 ea 3f
       -1.194801 1.4500049 -0.42519957 1.8289084
0000b0 fc e1 26 be ac c1 ad be fa a7 3a c0 2f 58 a2 3f
       -0.16297144 -0.33936822 -2.9165025 1.2683161
0000c0 b8 bb 92 3f 4f 01 26 c0 b5 17 56 bd 08 79 15 bf
       1.1463537 -2.5938299 -0.052268703 -0.58387804
0000d0 fd 99 21 bf a3 a5 b2 be 48 94 4d 3f 8a 47 3d 3f
       -0.6312559 -0.34891996 0.80304384 0.73937285
0000e0 d3 76 4b be a1 10 11 bf cb 28 06 3e 01 ce dc be
       -0.19869547 -0.56666 0.13101499 -0.43125919
0000f0 7e ff 70 bf 60 4e 33 bc ce 3d 91 3e ca 81 20 3f
       -0.9413985 -0.010943979 0.28367466 0.6269804
000100 e5 47 a0 bf cf de 0d c0 1e c2 9f bf 22 88 dd bb
       -1.252194 -2.2167242 -1.2481115 -0.006760613
000110 bf 0b 15 3f 2b 37 7d 3f 95 ca 82 3e 9e 9d 9f 3f
       0.5822105 0.98912305 0.25545183 1.2469976
000120 e6 70 dd be ad 17 c3 bf 24 20 ca bf 83 25 d9 bf
       -0.43250197 -1.52416 -1.5791059 -1.6964573
000130 1b 30 5f 3f 7e 3d d6 bf a0 92 12 c0 e9 7d 3e 3f
       0.8718278 -1.6737516 -2.2901993 0.74410874
000140 db fb 37 bd b2 b2 e5 bf 84 ed b7 3d 22 c8 bc bd
       -0.044917922 -1.7945158 0.089808494 -0.0921786
000150 b8 29 b9 be c8 dd 98 be c5 22 f9 3d 0e 44 a7 be
       -0.3616464 -0.29856706 0.12164835 -0.3266911
000160 14 ad 27 3d 57 9e a4 bf 74 51 50 be d9 f7 60 bf
       0.040936545 -1.2860821 -0.20343572 -0.87878186
000170 54 19 9f bf fa 29 0b bf a8 96 fd be cf a3 ed 3f
       -1.2429605 -0.54360926 -0.49529004 1.8565615
000180 9b a3 5b be 8f 57 76 bf c4 b7 e9 bc 24 10 43 bf
       -0.2144913 -0.96227354 -0.02853001 -0.76196504
000190 cd 8d 57 3f b2 e3 39 bf ef 10 55 c0 59 41 7d bf
       0.84200746 -0.7261306 -3.3291585 -0.9892784
0001a0 f6 2a 7d bf 70 9c 80 bf f8 4d c5 3e 34 69 f7 3e
       -0.9889368 -1.0047741 0.38536048 0.4832245
0001b0 d5 cd f5 bd f9 d6 e0 bd a2 4d 1e 3f 98 2c 87 bf
       -0.1200215 -0.10978503 0.6183721 -1.0560484
0001c0 fc 3b aa bf 25 f0 37 3f a1 c0 21 3f 70 3f 19 40
       -1.3299556 0.71850806 0.63184553 2.394497
0001d0 e2 e1 64 3e ed a0 40 3f b0 65 15 bd ed 29 4d 3f
       0.22351792 0.75245553 -0.03647393 0.801421
0001e0 3d 4a 11 c0 36 d7 39 3f c0 da 80 bf cd 67 b1 bd
       -2.2701561 0.7259401 -1.0066757 -0.086623766
0001f0 f5 32 90 3f b0 9c 07 bf 46 ad 37 3f 41 34 a0 bf
       1.1265551 -0.5297346 0.7174877 -1.2515947

feature.2.weight f4 [128, 128]
000000 72 40 bf bd 16 08 3d bf 2d 49 b0 bd 8f f4 55 3d
       -0.09338464 -0.73840463 -0.08607707 0.052235182
000010 5c 1b a4 be 0f ae db 3d 9d 3d 50 bd ce 4f 86 bf
       -0.32052124 0.107265584 -0.05084001 -1.0493104
000020 f5 ef 6b 3c 2e 93 82 be 8f a7 09 be d9 9c 88 be
       0.014400472 -0.25502914 -0.13442825 -0.26682165
000030 26 79 07 3e 65 3b 85 bd a1 3b 0b 3c 77 c8 86 3c
       0.13229808 -0.06505469 0.008498103 0.016453011
000040 c6 36 a1 3d 96 c6 91 bd e3 76 28 3f 6b d3 64 be
       0.07871775 -0.071179554 0.65806407 -0.22346275
000050 b2 09 5e 3f 11 32 6c be 95 72 a5 bf ac 5e 70 3b
       0.86733544 -0.23065974 -1.2925593 0.0036677523
000060 0e f9 b2 be 9a 4d d3 bc 68 5a 58 3c c7 6a cc 3c
       -0.3495564 -0.02579384 0.013205148 0.02495326
000070 6c bd 01 3d 26 63 a8 bc da b2 15 bf f0 c6 91 3e
       0.031674787 -0.02055509 -0.5847603 0.2847209
000080 24 7c e1 3d f5 af 06 bf 55 4c 60 be 55 49 36 bd
       0.11010006 -0.5261224 -0.21904118 -0.04450353
000090 88 32 ad bd a7 6b a3 be c5 26 87 3d 2a 07 70 3d
       -0.08456904 -0.3191807 0.065991916 0.058600582
0000a0 cd bd fd bd ce 9c 35 be 62 2d 8a be 65 6a c3 bd
       -0.12389717 -0.17735597 -0.2698775 -0.095417775
0000b0 18 bf 2b bd 94 38 89 bd 5b 42 45 3d 07 86 2d be
       -0.041930288 -0.067002445 0.048158985 -0.16945659
0000c0 4a c1 78 be 35 68 c2 bb 9b 4f cc 3d 1e 96 c8 be
       -0.24292484 -0.0059328326 0.09976121 -0.3917703
0000d0 f4 b5 69 3d 4b 1e 18 3d af fb 05 be c0 5b 9d bd
       0.05705829 0.037138265 -0.13084291 -0.076835155
0000e0 5f a3 54 be 2c d0 1d bf 6f 14 0e 3e cc 4e 51 be
       -0.20765446 -0.6164577 0.13874982 -0.20440215
0000f0 02 14 07 3e 95 e4 46 bd e6 96 51 be ae 50 0b 3e
       0.13191226 -0.048557837 -0.2046772 0.13604996
000100 3c 82 37 be b5 40 aa be ea c0 e8 bd 3d 1a 38 3c
       -0.17920774 -0.33252493 -0.113649204 0.011236724
000110 c2 3d 8e be 98 a8 73 be 61 7d 80 be cd f5 53 bf
       -0.27781492 -0.23794782 -0.25095657 -0.8279694
000120 5c 23 cd 3d 6e a8 52 be ed 4f d9 3d f7 b7 03 bf
       0.1001651 -0.20572063 0.10610948 -0.51452583
000130 70 9e 2f bf 1a 3c 90 be 0f a3 b4 bd 2c 45 d6 3e
       -0.6860113 -0.28170854 -0.088201635 0.4184965
000140 0b 69 9e be 4e c7 34 be 3a f1 ce 3d db cb 13 3d
       -0.30939516 -0.17654154 0.10104604 0.036083084
000150 99 08 f2 3e 2d 57 cc be e1 04 85 bf 0c 10 33 bf
       0.47272184 -0.3991026 -1.0392114 -0.6994636
000160 2f 97 20 bb 9a 87 9a 3e 5b 2a 17 3e 80 c6 12 be
       -0.0024504175 0.3018158 0.14762251 -0.14333534
000170 7d a5 60 bf b7 67 a1 bd a7 0f 38 be e5 28 0a 3f
       -0.87752515 -0.0788111 -0.17974721 0.5396865
000180 eb 15 11 be 15 98 66 3e b8 c5 50 be bf c3 9e be
       -0.14168517 0.22518952 -0.20387924 -0.31008717
000190 5a e6 17 be b2 c3 27 3e c4 7e a0 3c 81 7f 1c be
       -0.14833966 0.16383246 0.019591697 -0.15283014
0001a0 77 08 17 bf 57 9d 07 be 9c bf 11 bf ed c0 31 3b
       -0.5899729 -0.13243614 -0.56933 0.002712305
0001b0 d0 b0 7d 3e fe df 93 3d e8 5b 49 3d ca b5 43 bf
       0.2477448 0.072204575 0.049159914 -0.76449263
0001c0 db d3 9b ba 2e eb 83 be 9b 92 85 bf 07 74 99 3c
       -0.0011888699 -0.25765365 -1.0435365 0.018732084
0001d0 4f c3 1b bf 7a 4c 6d be 3c 0a b4 bd 9b 88 39 3c
       -0.6084489 -0.23173705 -0.087910146 0.011324073
0001e0 95 58 89 be bd 6d f2 bf c6 a6 cd be 68 1b 4c 3e
       -0.26825395 -1.893974 -0.401663 0.1993233
0001f0 6b a0 37 3f 99 14 83 bd c0 67 09 3f a8 0c 30 bd
       0.71729153 -0.06400413 0.53673935 -0.04298082
000200 f5 2f 75 be 12 b3 0e 3d 46 90 26 3e 0a 7c d3 3e
       -0.23944075 0.034838744 0.16265973 0.41305572
000210 38 99 4a 3c 8d d8 39 be ec d8 fa bd 9d 97 63 3e
       0.012365632 -0.18149014 -0.12248406 0.22225805
000220 30 df 29 bf 2f 8a a2 bd df ca db be 72 df 3d 3e
       -0.6635618 -0.07936513 -0.42928216 0.18542269
000230 e4 a5 fd bd d4 39 58 3e 1b f9 82 3d 1f 6d 23 3d
       -0.12385157 0.2111581 0.06395169 0.039898988
000240 80 8a 96 ba 42 d3 2b be af c4 76 be 37 f9 00 3f
       -0.0011485368 -0.16779807 -0.24098466 0.5038027
000250 32 91 15 be 31 88 81 be 03 13 77 be 6d ab 38 be
       -0.14606169 -0.25299218 -0.24128346 -0.18034144
000260 72 89 98 be 68 46 f1 bd 56 c2 33 3d 4b b4 47 be
       -0.29792362 -0.11781007 0.043886505 -0.1950237
000270 db a3 4a be 35 56 13 bf 07 38 ad bd a6 29 94 bd
       -0.19789068 -0.57553416 -0.08457952 -0.07234506
000280 bd 1d 9d be cf e8 a0 be d8 a7 35 be 7b 80 62 3c
       -0.3068675 -0.3142762 -0.17739809 0.013824577
000290 29 f5 99 3e 6c df 99 3d 75 23 d1 be 40 d3 42 be
       0.30069855 0.075133175 -0.40847364 -0.19025898
0002a0 fa b4 1e be d5 9c 30 bf bb 19 ff bd 94 84 38 be
       -0.15498725 -0.68989307 -0.124560796 -0.18019325
0002b0 1a df 98 3d 65 e9 af bf a7 14 27 3e 51 07 90 be
       0.07464428 -1.3743101 0.16316472 -0.28130582
0002c0 ac e8 7e bd 44 b5 15 3d 18 0d 41 3e f3 2b b4 be
       -0.062233612 0.03654982 0.18852651 -0.3518978
0002d0 d7 5b 19 bd 25 53 a9 3c 85 0d 4f bd 45 17 99 bd
       -0.0374411 0.02066953 -0.050550003 -0.074751414
0002e0 fd 38 18 bd 4e 95 08 3d 72 27 50 3e 01 f3 ca bd
       -0.037163723 0.033345513 0.20327547 -0.099096306
0002f0 cc 2f c1 bd 90 26 0d bc 71 0d a2 bd 10 91 a4 bc
       -0.09432945 -0.008615151 -0.0791272 -0.020088702
000300 a4 98 fb 3d e4 56 cf 3e 0b 58 62 bd f8 3c 9e bd
       0.12284973 0.4049598 -0.055259746 -0.077264726
000310 67 c9 f1 3e 60 58 aa bc 10 ba a9 be d9 71 58 3d
       0.4722397 -0.020794094 -0.33149767 0.05284295
000320 82 12 0e bf 87 8e 2f bd 5b 24 bd bc ab ca 3d 3f
       -0.5549699 -0.042860534 -0.023088625 0.7413737
000330 55 63 cf 3c af 5a e6 bc 49 b8 bd 3d f7 0d b1 bd
       0.02531592 -0.028119413 0.09263665 -0.08645242
000340 ab 31 5b 3e ae 45 7d bf 2a cc 0e bf e9 6e 8c bc
       0.21405666 -0.9893445 -0.5578028 -0.01714273
000350 30 b3 a8 3e 7a b5 47 bf 7f e3 c2 be cc a8 7e bd
       0.3294921 -0.78011286 -0.3806419 -0.062172696
000360 2e d0 1e bd 0d b9 05 bd 37 b3 b5 3d 76 d6 04 bd
       -0.038772754 -0.03264718 0.08872073 -0.03243109
000370 60 1a 46 3f b3 04 32 be 4d 2c 86 3c 28 cb 3d be
       0.77383995 -0.17384605 0.016378546 -0.18534529
000380 dc a8 db be 89 59 02 bf 7f c1 d6 bd ff 83 06 bf
       -0.42902267 -0.5091787 -0.10486125 -0.5254516
000390 59 7b 31 be 64 68 58 bf d5 bf c4 3d 76 a8 ea 3d
       -0.1733221 -0.8453429 0.096069016 0.114579126
0003a0 81 db ea bc 54 0f 84 be 0b a0 89 bd 31 65 d4 be
       -0.02866912 -0.25792944 -0.06719979 -0.41483453
0003b0 36 e6 fa 3d bb 58 9d 3d 41 1d 4e be e9 f0 0d bd
       0.122509405 0.076829396 -0.20128347 -0.034653578
0003c0 1b 46 75 be f0 79 18 be 7a dc 3d be 5e 51 58 be
       -0.23952524 -0.14890265 -0.18541136 -0.21124789
0003d0 71 75 07 3e 7c e3 99 3d 30 4a a4 bb b1 c7 1e bf
       0.13228394 0.07514092 -0.0050137267 -0.62023455
0003e0 04 83 7a be c3 83 1a 3e 1a 2c 8b bd 57 d7 37 bf
       -0.24464041 0.15089326 -0.06795521 -0.7181296
0003f0 1f 4b 5c be 4a 59 63 bf 2a a5 57 be fe 61 03 bf
       -0.21513031 -0.8880812 -0.21059099 -0.513214

feature.2.bias f4 [128]
000000 26 f7 1c be 28 d2 02 be f9 7b 5f 3f 08 19 cf 3f
       -0.15328655 -0.12775481 0.8729854 1.6179514
000010 68 17 88 bb 2c 54 40 bd 40 7d 64 bd 64 96 16 3f
       -0.004153181 -0.046955273 -0.05578351 0.5882323
000020 f8 a3 77 3e c7 43 6e be 35 73 00 3f e0 bf 25 3e
       0.24183643 -0.23268043 0.5017579 0.16186476
000030 00 7d 26 3e d2 2f d4 be 69 89 35 be 99 23 d1 3c
       0.16258621 -0.41442734 -0.17728199 0.02552967
000040 b5 f3 53 bd 3d f1 f5 be 6a d6 33 bd ea 12 79 3f
       -0.05174609 -0.48035613 -0.043905653 0.97294486
000050 80 07 fe bd 0d 61 11 be 4d 91 1a c0 41 3d 04 be
       -0.12403774 -0.14197178 -2.4151185 -0.12913992
000060 24 73 bb bd 4c 1a 01 be 78 9d 1d be 9d 59 ba be
       -0.09152821 -0.12607688 -0.15392101 -0.36396495
000070 3c 93 84 ba 9b 04 19 3f 11 2c 2a be 6d 6c cd 3e
       -0.001011468 0.5977265 -0.16618372 0.40121785
000080 21 bd 22 bb 95 5c f2 3e dc 3e 28 3e bf be 94 bd
       -0.0024831968 0.4733626 0.16430229 -0.072629444
000090 8a 04 cf 3e 0f 70 02 3f 3f 92 4d 3d 7c c4 63 3e
       0.4043315 0.5095224 0.0501883 0.22242922
0000a0 38 b0 01 be b6 f6 30 3d 87 4f ac bd 88 88 dd bd
       -0.12664878 0.043204032 -0.08413606 -0.10817057
0000b0 d1 ca 10 3e d4 a5 1a be 61 49 04 be 15 05 0f 3d
       0.14139868 -0.15102321 -0.12918617 0.034916956
0000c0 ab a7 12 c0 1a a4 b0 be ed 0d d2 bf db 57 54 bf
       -2.2914836 -0.345002 -1.64105 -0.82946557
0000d0 88 8d 8d bd 5f 60 bf 3e fa ea 9d 3d ee 4f bc 3e
       -0.069117606 0.37378213 0.07710834 0.36779732
0000e0 18 3d 49 bd cc 83 03 bf 50 06 b5 3d 52 10 2b be
       -0.04913053 -0.5137298 0.08839095 -0.16705444
0000f0 26 85 54 bd b7 1d 46 bd e9 af 2d bd 0d f9 8e 3f
       -0.051884793 -0.048368182 -0.04240409 1.1169754
000100 73 a2 66 3e db a4 88 bc d2 e6 40 be 2e db 97 bd
       0.22522907 -0.016680172 -0.18838051 -0.07414852
000110 20 f9 75 be ab 15 eb bb b9 0d 17 be 69 e1 1f be
       -0.24020815 -0.007174214 -0.14751329 -0.15613331
000120 52 ba 69 3e 0b 87 83 be 9d 59 94 3e fd 8a 56 bd
       0.22824982 -0.25688967 0.2897462 -0.052378643
000130 e8 d0 0c be 59 2c b1 3c eb 87 9c 3e c4 32 12 be
       -0.13751566 0.021627592 0.30572447 -0.14277178
000140 98 d6 29 3f 1d 73 55 3e 78 d2 e3 be 7e 06 9d bd
       0.6634307 0.20844693 -0.44496512 -0.07667254
000150 a1 12 d7 bd 9b d3 a6 bd 49 59 ec 3e 60 32 81 3e
       -0.105016 -0.08145829 0.4616187 0.25233746
000160 46 4f 6e be 15 ab 13 bf 2a b5 23 bd c0 51 0e 3f
       -0.23272428 -0.57682925 -0.039967693 0.5559349
000170 8f e0 25 bd 65 e7 53 3f 0b 54 71 bf 53 85 f0 bc
       -0.04049736 0.82774955 -0.94268864 -0.029360449
000180 d4 54 1f be 3b 28 e7 bd cb 5e 8a 3e ce cc 20 3f
       -0.15559703 -0.1128697 0.27025446 0.6281251
000190 41 2e 50 bd 22 3f 0d bf cf 03 33 3f 67 1e 17 3f
       -0.05082536 -0.5517446 0.69927686 0.59030765
0001a0 2b 5f 13 3f 26 22 ef bd 39 99 c7 3e 53 bf 2a be
       0.5756709 -0.11676435 0.38984087 -0.16674547
0001b0 15 c8 0b 3f ad 68 90 3b 12 9b 68 bd c2 39 16 be
       0.54602176 0.0044070096 -0.05678851 -0.1467047
0001c0 b6 ea 12 3f 03 1b f9 bd 77 97 e9 be 1a c8 c6 3c
       0.5738939 -0.12163355 -0.4562337 0.024265338
0001d0 6f 1d 80 3e 9f 49 0a 3e 17 ad 1b 3f 62 bd 8e bb
       0.25022456 0.13504647 0.6081099 -0.0043560723
0001e0 70 c9 38 bd d8 e0 e4 3e 61 28 a9 bd 46 5f c4 bd
       -0.04511398 0.44702792 -0.08259655 -0.095884845
0001f0 74 ca 45 3e cd 26 13 be 01 8c 22 bd e5 de fd be
       0.19315511 -0.1437027 -0.0396843 -0.49584118

value.0.weight f4 [64, 128]
000000 dc 7c 20 3f a5 b1 14 bc eb c0 89 bf 9a 4d 0c bf
       0.6269052 -0.009075557 -1.0761999 -0.5480591
000010 72 fa a5 bc 51 fb b5 bd 08 12 2e be f9 07 39 bf
       -0.020261023 -0.088858254 -0.16999066 -0.7227779
000020 23 96 3d bf 69 c6 34 3d 4c 0b 94 be d5 f9 35 3b
       -0.74057215 0.04413453 -0.2891487 0.002776732
000030 2a c6 2f bf 20 82 96 bd a2 c5 24 bf 38 96 38 bf
       -0.6866175 -0.07349038 -0.64364064 -0.72104216
000040 92 78 ff bb 05 ad 5f bf 6a 89 81 3c 59 63 a0 bf
       -0.0077963555 -0.8737338 0.015812594 -1.2530318
000050 8e 12 c8 be 13 13 a1 bd ba be 1c c0 00 79 95 bb
       -0.39076656 -0.07864966 -2.449141 -0.0045615435
000060 2c b4 a4 bc ba e0 84 bc ec f2 a8 3d e7 53 d0 be
       -0.020105444 -0.01622044 0.08249459 -0.40689012
000070 a0 ab 8a bc f2 e3 86 bd 00 97 06 3c 5c 5a b1 bf
       -0.01692754 -0.06586446 0.008214712 -1.38557
000080 cc da 78 bd c3 24 c5 bf 1e 27 e9 bd af 5b a0 bd
       -0.060755536 -1.5401844 -0.11384414 -0.07829987
000090 dd 0f 57 bc a6 b5 33 bf 95 28 1c bf 12 e6 49 be
       -0.013126341 -0.7019905 -0.60999423 -0.19716671
0000a0 f5 85 22 be 99 48 9e be b4 8d d9 be c2 4d 6e bd
       -0.15871413 -0.30914763 -0.42490923 -0.058179624
0000b0 44 2b 11 bf 4d 66 cd bd 27 04 96 3d 4a cf 84 3d
       -0.56706643 -0.10029278 0.07325011 0.0648485
0000c0 6a 1c ca 3c e3 a4 e0 be 29 d3 a0 bf ee 76 8c be
       0.024671752 -0.438758 -1.2564441 -0.27434486
0000d0 70 10 97 bc 72 23 af be d4 c5 b7 be 69 69 e0 bf
       -0.018440455 -0.3420673 -0.35893118 -1.7532169
0000e0 97 82 3c bf 73 56 8a 3f 92 4b 06 bf 12 80 15 3d
       -0.73636764 1.0807632 -0.5245906 0.03649909
0000f0 f4 4c 14 3d 80 74 87 3a 52 09 52 3d 1a 75 98 bf
       0.0362062 0.0010334402 0.05127842 -1.1910737
000100 28 a5 61 be 74 47 30 3e 4a 2c 64 3d 54 49 8c 3c
       -0.22035658 0.17214757 0.0557063 0.01712481
000110 3f 8c 75 be 8b c6 13 3d a2 71 cb 3d 77 aa dc bd
       -0.23979281 0.036078017 0.09933783 -0.10774701
000120 4d de b1 be be 1a 3a 3f 49 05 4d bf 39 9d 00 bd
       -0.34739915 0.72697055 -0.8008619 -0.03139994
000130 d6 9a 47 be 36 ea 9d be 5c 4b b5 be 9a 79 86 3d
       -0.19492659 -0.3084275 -0.35409057 0.065661624
000140 59 88 0c bd 8e 31 19 bc f8 4b 59 3f fc ff 76 3d
       -0.03430972 -0.009350194 0.84881544 0.06030272
000150 1a 6a cf 3c d3 f0 48 bd 0b 66 af be f8 38 28 be
       0.025319148 -0.049057793 -0.3425754 -0.16427982
000160 45 1d 6e be 13 bc 4d 3e 0f 76 86 bc 5b 55 1a 3f
       -0.23253353 0.20091276 -0.016413717 0.6028649
000170 48 bc b6 be 1d 00 f6 bc 91 df a0 3e 4a 37 d5 be
       -0.35690522 -0.03002935 0.31420568 -0.41643745
000180 3f 96 68 3c 53 bc f4 3e 74 93 ac 3e 85 86 3a bd
       0.014195978 0.4779993 0.33706248 -0.045538444
000190 86 20 bf be c1 94 7e be 7e c1 00 c0 8f a8 5b bf
       -0.373295 -0.24861433 -2.0118098 -0.85804075
0001a0 af ca 8d bd 2c c1 cd 3c bd 48 e2 be fc 29 72 bf
       -0.069234245 0.025116526 -0.4419612 -0.94595313
0001b0 b1 9e b2 bf 03 6f 9e 3d 49 12 49 3d 93 d1 49 3d
       -1.3954679 0.077360176 0.049089704 0.04927213
0001c0 db 34 01 bf 72 fc cc bc d5 72 86 be ad 50 7e be
       -0.50471276 -0.025022719 -0.26259485 -0.24835463
0001d0 96 6c 8d be 03 ce 82 bf 76 24 5c 3e da 42 64 bd
       -0.27621907 -1.021912 0.21498284 -0.055727817
0001e0 bc 4c 41 3f 66 fe 3d 3e 4d 98 8e 3d fd ea 27 3d
       0.7550771 0.18554077 0.06962643 0.040995587
0001f0 5c c9 43 be 3a 47 94 bd 48 6e d7 3c 3c f7 e5 3e
       -0.19119781 -0.07240148 0.026297703 0.44915187
000200 27 ad ab bd 68 ae 0b bd e4 f5 0f be 21 4b 7b bf
       -0.083826356 -0.034101874 -0.14058644 -0.9816151
000210 e4 9f 9e bd ac 74 b3 bd 3d 8f 9a be b6 37 b5 bc
       -0.077453405 -0.08762488 -0.30187407 -0.022121292
000220 10 e5 87 3e de 4b 03 3a 23 8a 06 bf e7 0b a1 be
       0.26541948 0.00050085585 -0.5255453 -0.31454393
000230 50 4d b9 3d 34 ed a8 3c 01 23 fe bd c3 c6 87 bd
       0.09047949 0.02062092 -0.1240902 -0.06629708
000240 4e 31 90 bd 94 85 4a 3e 7f 78 57 3d 55 d0 3a be
       -0.07040654 0.19777519 0.05260515 -0.18243535
000250 cd 4e a5 bd b9 09 69 bd 66 2a 67 3f 00 58 c0 3a
       -0.08071671 -0.056894038 0.9029907 0.0014674664
000260 d5 58 59 bf dc 36 0e be 88 bf 0e bd 54 db d7 bd
       -0.8490117 -0.13888115 -0.034850627 -0.105398804
000270 e9 e3 1c 3b 3b 52 20 be 0e 5b 7e bd 2f ec 88 bd
       0.0023939556 -0.15656368 -0.062098555 -0.066856734
000280 9a 28 4a 3d 7d d0 ef 3c 21 de ba 3e d3 73 43 3d
       0.049355127 0.02927422 0.36497596 0.04771788
000290 fd 31 93 bd 78 d1 c2 be 48 77 e5 bd 67 89 27 bd
       -0.07187269 -0.38050437 -0.11204392 -0.04090252
0002a0 0d 01 0e be f9 02 35 be 38 53 1d bd 40 69 2a bd
       -0.13867588 -0.17676915 -0.03840944 -0.04160428
0002b0 af dc d7 bd 66 e5 3c 3d f5 26 92 3d 53 64 f0 bd
       -0.10540139 0.04611721 0.07136337 -0.11737885
0002c0 0b 43 e7 bd 38 f6 96 3d b1 71 c8 ba ce 23 cf bd
       -0.11292084 0.07371181 -0.0015292672 -0.10114251
0002d0 c6 da 58 3d 06 06 87 be 23 ec 42 be ef 05 6d bd
       0.052943014 -0.26371783 -0.19035392 -0.057866987
0002e0 9c 79 01 be 9e 6b 1e 3f a5 85 2c 3d a5 81 a2 3d
       -0.12644047 0.6188296 0.04211964 0.07934884
0002f0 91 bc 0d bd d3 87 b1 bd 6f 26 5e bd 1c 1e 89 bf
       -0.03460366 -0.086684845 -0.054235872 -1.0712314
000300 8c 5c 63 bd b0 c2 af bb 36 c4 7b 3d cf 1a 58 bd
       -0.05550818 -0.0053637847 0.06146642 -0.05275994
000310 d5 e3 d3 be be 83 1d 3d 90 fb f5 3b 78 e0 e7 3d
       -0.4138476 0.038455717 0.007506795 0.11322111
000320 8b 04 14 3d 63 f3 09 bf 56 78 f9 be 2d 9a 64 3d
       0.036137145 -0.53887004 -0.48724622 0.055811096
000330 0d e7 99 bd 70 3d af be 46 81 75 bd 17 a9 c4 3d
       -0.075147726 -0.3422656 -0.059937738 0.09602564
000340 ba 71 f8 be f7 ff 12 3d 7e 47 1f 3e d3 d4 b3 3d
       -0.48524266 0.03588864 0.15554616 0.087808274
000350 a4 41 09 bd e8 d4 0e 3d a0 45 9b be 05 42 30 be
       -0.033509865 0.034871012 -0.30326557 -0.17212684
000360 a4 fa 98 bd 21 27 e7 3d 79 c6 1e bc aa f9 1b 3c
       -0.07469681 0.1128676 -0.009690874 0.009519974
000370 e4 0e 69 3d ee 93 82 be 7e 40 99 be f5 2c c1 3e
       0.056898966 -0.25503486 -0.29932016 0.37729612
000380 27 7c ef 3c 3b 24 bb 3c 62 0b 9e 3e 4b 6e 17 be
       0.029234005 0.022844424 0.3086806 -0.14788167
000390 2c de 9e bc 67 63 4d be 06 c8 13 bc 30 33 90 be
       -0.01939305 -0.2005745 -0.009019857 -0.28164053
0003a0 4a fa c5 be 00 a8 c9 39 81 c4 31 be f6 e4 30 be
       -0.38667518 0.00038462877 -0.17360117 -0.17274842
0003b0 ed a3 e8 bc 18 66 8a bd 68 d6 8f bc ce 70 7d 3d
       -0.028398478 -0.06757754 -0.017558292 0.061875157
0003c0 c2 2f a1 be 1d 59 9a bd 56 10 2c be 1d a6 99 bc
       -0.3148175 -0.07536528 -0.16803107 -0.018755967
0003d0 c7 cc cb bd 2d f2 59 be 17 50 1b bf e1 1d de ba
       -0.099511676 -0.21283789 -0.6066908 -0.001694616
0003e0 0d 7c 2f be 2f d7 38 bd 74 92 86 bd 7f 9b b1 3d
       -0.17137165 -0.04512709 -0.065709025 0.08672237
0003f0 56 7c c9 bd 5c ad cc bc 54 4b 87 bc 32 48 87 be
       -0.09838168 -0.024985008 -0.016515411 -0.26422268

value.0.bias f4 [64]
000000 c7 20 12 bf d4 7e 3f bf f5 d7 a6 3f 4c 8a a0 bf
       -0.57081264 -0.748029 1.3034655 -1.2542205
000010 fc 45 0a 40 f4 26 c7 3e 3c 59 76 be a1 09 39 be
       2.1605215 0.38896906 -0.24057478 -0.1807008
000020 6f 4f d4 3e 41 17 3a bf 80 4e b8 be a3 f4 52 3f
       0.41466853 -0.7269173 -0.3599739 0.82404536
000030 1a 14 98 bf ee 69 24 3f 5f 45 cc 3f f2 12 d5 bd
       -1.1881135 0.64224136 1.595867 -0.10404004
000040 3f e3 ce 3f 5e 35 00 40 cb 8c a6 3f 92 5e c3 bf
       1.61631 2.0032573 1.3011717 -1.5263236
000050 ff 55 14 bf 65 70 a1 3f 9d 4d 20 bf 30 38 63 3e
       -0.5794372 1.2612425 -0.6261843 0.22189403
000060 5c fe 03 3f 4b 15 77 3f 86 b6 c4 3d d5 f7 96 3e
       0.51559997 0.96516865 0.09605126 0.29485956
000070 fc 03 f0 3e 63 1e fa bd 66 6c 00 3f 72 25 21 bf
       0.4687804 -0.12212827 0.501654 -0.6294776
000080 c5 70 33 3f 31 16 36 be 5d 16 14 3f 5d eb bc 3e
       0.7009395 -0.17781903 0.57846624 0.36898318
000090 c2 6c da 3c 0b 1a 34 3e 9d 2e a2 be f6 41 db be
       0.026663188 0.1758806 -0.31676188 -0.42823762
0000a0 22 a6 2b 3f aa 5e b0 bf 74 a8 b1 3e 37 42 4b bf
       0.67050374 -1.3778889 0.34698832 -0.7939791
0000b0 6f fc 4d 3f ee f6 7d be b5 30 28 3f c3 77 a1 be
       0.8046331 -0.24801227 0.6569932 -0.31536683
0000c0 17 51 0e 3f dc 4f 7b bf 2a 8d 62 bf 94 79 fc 3e
       0.55592483 -0.9816873 -0.8849665 0.49311507
0000d0 b2 4c 14 3e 47 a5 db 3e 91 a1 1b bf 95 34 8a be
       0.14482382 0.42899534 -0.60793406 -0.26993242
0000e0 7e ef 72 be d8 d7 6f be c9 ae f0 3e 02 8c 56 bf
       -0.23724172 -0.23422182 0.4700835 -0.83807385
0000f0 38 17 3c bf a1 42 23 c0 84 0d 31 bf b5 d6 9d bf
       -0.7347293 -2.5509417 -0.6916125 -1.2331148

value.2.weight f4 [1, 64]
000000 81 81 f3 bf c6 26 b3 3f 8f ae 06 bf ed ea e2 3f
       -1.9023896 1.3996208 -0.52610105 1.7727944
000010 8d 7c cc 3f a2 e0 5a 3f 0b 67 b0 bc 71 10 b9 be
       1.597551 0.8549901 -0.02153351 -0.36145356
000020 a2 07 a8 bf 43 70 80 be 1a de f7 3e 8c a7 95 be
       -1.3127329 -0.2508565 0.48411638 -0.2922939
000030 49 3f 2b 3f 19 3e 9f be a5 54 89 be 22 2d f8 3c
       0.6689344 -0.31102064 -0.2682239 0.030294959
000040 c3 56 19 3e fb 72 92 3e 5c 47 bd 3f fc 1b 49 3f
       0.14974503 0.28603348 1.4787402 0.78558326
000050 f0 da d1 bf 51 25 d5 3f d6 7b 0d 3f 54 8c ad bf
       -1.639494 1.6652013 0.55267084 -1.355845
000060 56 27 15 c0 dc 5e 29 3f d2 e2 f5 bc 0f e6 33 bf
       -2.3305259 0.6616037 -0.030015383 -0.70272917
000070 a1 f8 8c bd d0 62 d7 3c 93 20 24 bd 0d 8e ed be
       -0.0688336 0.026292235 -0.040070128 -0.4639744
000080 be 6d 5f 3f eb b0 97 3e a6 af 16 3f 6d d8 a4 3e
       0.8727683 0.29627165 0.5886177 0.3219637
000090 e0 01 12 bd 9b bd 59 3f 59 d1 12 c0 6e 58 26 bf
       -0.03564632 0.8505494 -2.2940276 -0.64978683
0000a0 dd fb bd be ee 55 8d bf aa 93 37 bf c2 e0 0d 3f
       -0.3710622 -1.1041849 -0.7170969 0.5542108
0000b0 ee 9b 3a 3f dc 6e 81 3b 61 79 ff 3e f4 fc f8 bb
       0.7289418 0.003949983 0.49897292 -0.0075985137
0000c0 c8 9f 4c be ac ea 3c 3f 38 11 04 c0 4b 96 f5 be
       -0.19982827 0.7379558 -2.063551 -0.47966227
0000d0 12 ae 01 3b 13 9e 22 bd 63 a8 00 3e 20 5b 5f be
       0.0019787592 -0.039701533 0.12564234 -0.21812105
0000e0 5e 1d d0 bd 9e 7b 1f 3f 14 af 0e bd d1 cb 91 3f
       -0.10161851 0.62298 -0.034834936 1.1390325
0000f0 5a 35 e5 3e 97 59 02 c0 c3 6f 96 bf e0 b3 46 bf
       0.44767267 -2.0367181 -1.1752857 -0.7761822

adv.0.weight f4 [64, 128]
000000 b2 67 46 be b2 63 82 3d 24 9a 23 3e 8a dc 9a 3e
       -0.19375494 0.063666716 0.15976769 0.30246383
000010 ca b0 95 39 e9 67 4f 3b 26 07 ce be b4 81 c8 be
       0.00028551213 0.0031647629 -0.4023983 -0.39161456
000020 43 4d 50 3e 9f 29 64 3d 1f 0b 2d 3f dd 50 f0 bd
       0.20341973 0.055703755 0.67595094 -0.117341734
000030 2a 5f b8 be ee 52 47 bf d3 38 7c be 56 ab 7c bf
       -0.36010104 -0.77860916 -0.24631052 -0.9869894
000040 38 85 0f bd 6c ba aa be 1b bb 8e bd 3c ae 82 bc
       -0.035039157 -0.33345354 -0.06969281 -0.015952222
000050 17 5b c6 3c e9 d7 95 bd bb b6 45 bf bb 8a a2 3c
       0.024213357 -0.07316572 -0.7723195 0.019841542
000060 d4 24 11 bf 1f 9f 2b 3a 8e 3d b3 bd 40 f9 4c be
       -0.5669682 0.0006546843 -0.08751975 -0.20016956
000070 f8 fb d5 3e b5 b8 5f be 0c 22 1c bc a3 8c b1 be
       0.417938 -0.21847804 -0.009529602 -0.3467761
000080 92 f4 ab 3c be 7c 84 bf 6c 31 25 be 59 09 12 bf
       0.020990644 -1.0350568 -0.16132134 -0.57045513
000090 1a 60 c4 bf d1 75 41 bf 48 82 89 bf 45 46 82 be
       -1.5341828 -0.755704 -1.0742884 -0.25444236
0000a0 9d 86 c1 bd 04 25 c6 bd f3 1e 8d be ee 66 54 bd
       -0.094495036 -0.09675029 -0.27562675 -0.051855974
0000b0 39 c8 f8 be 51 28 9c 3d cb ce cf be 11 78 8c be
       -0.48590258 0.07624877 -0.40587458 -0.27435353
0000c0 ff fe a1 3c 4d 44 7a bf 97 39 95 be bb 1a 03 bf
       0.019774912 -0.9776047 -0.291455 -0.5121266
0000d0 f8 ad 8c 3d 30 66 a2 be a9 54 1f be 49 16 31 3e
       0.068691194 -0.31718588 -0.15559639 0.17293657
0000e0 e7 2a c2 3e 8e 89 4e 3f a6 84 06 bf 4c 3c 4d bd
       0.37923357 0.8067864 -0.52546155 -0.05010633
0000f0 9e 0a 90 bd 22 56 84 bd b7 0d 67 bd 59 1c 86 bf
       -0.07033275 -0.06461741 -0.056409564 -1.0477401
000100 2b 58 5d bf 80 98 2a 3b 00 df 6b 3c 0d 49 5c 3d
       -0.8646266 0.0026030838 0.014396429 0.053780604
000110 71 a8 1e bf 61 1f 95 bd 19 47 89 bd 64 bf 7d bd
       -0.6197577 -0.07281376 -0.06703014 -0.061950102
000120 4d 9b b3 bf 9c 07 e0 be a4 64 6d bf 97 e4 c8 3c
       -1.4031769 -0.43755805 -0.9273169 0.024523063
000130 2b d6 a4 bc a1 16 26 bf 5a 07 9c 3e d2 e5 67 3e
       -0.020121654 -0.6487828 0.3047436 0.22646263
000140 14 f4 67 bd 5a f5 8a be 54 25 87 3f 91 ef 20 bd
       -0.056629255 -0.27140313 1.0558267 -0.03929097
000150 e2 c2 65 3d 17 0c 89 bd 66 49 f1 be e2 a6 8d bf
       0.056094058 -0.06691759 -0.4712631 -1.1066554
000160 c8 a7 43 bf 80 d3 e2 be a2 df b5 3a c4 34 c9 c0
       -0.7642789 -0.44301987 0.0013875852 -6.287691
000170 30 a4 67 be b3 14 ab be e0 fc 26 3e 47 f7 4e be
       -0.22621226 -0.3341423 0.16307402 -0.20211516
000180 5b f3 32 bd 4e 75 fc be e1 c8 6a bf 3e 60 5e bf
       -0.043689113 -0.49308246 -0.91712767 -0.86865604
000190 2f c8 58 3f 8b 92 99 3f 7f bb 8e bd 44 34 53 bf
       0.84680456 1.1997846 -0.06969356 -0.82501626
0001a0 1d 6b a4 bf b4 6d 84 bd b3 c2 6e 3e 19 40 f0 3c
       -1.2845188 -0.06466237 0.2331646 0.02932744
0001b0 8d 15 0e be 94 35 9b 3d 68 c7 25 3c 34 51 60 bd
       -0.13875408 0.075785786 0.010118343 -0.05476494
0001c0 27 9a 2f bf cc 87 9e bd fd a7 86 be d8 c4 d7 bd
       -0.6859459 -0.07740745 -0.2630004 -0.10535592
0001d0 76 46 ac bf da bf ec 3d e4 d9 81 bd b2 d9 cd bc
       -1.3459003 0.1156003 -0.063403875 -0.02512822
0001e0 0d d0 b5 be 00 94 a1 be 4b 9c 7e bb 65 a5 f7 3c
       -0.35510293 -0.31558228 -0.0038850482 0.030230233
0001f0 47 88 65 be 10 b6 e9 bb 6c a7 aa bd 2b 7d 79 be
       -0.22415267 -0.0071322992 -0.083327144 -0.24364154
000200 44 47 a0 bd a6 fc 21 3f fe 3b a9 be 73 83 a2 bf
       -0.07826093 0.63276136 -0.33053583 -1.2696365
000210 81 bf 07 bd 2a a2 47 bd a4 9d fd bd 6c 62 bb be
       -0.033141617 -0.048738636 -0.12383583 -0.36598527
000220 fb 8d 6d bd 48 ae c1 bd 32 1d f0 be bd 92 92 be
       -0.05799673 -0.0945707 -0.46897274 -0.28627577
000230 68 46 04 be 6e d3 1c be cc e3 7b be 74 79 99 be
       -0.12917483 -0.15315029 -0.24598616 -0.29975474
000240 d2 ac 76 3d 4b 3a 60 bf fc 03 16 bd c4 17 22 bf
       0.060223408 -0.8758895 -0.036624894 -0.63317513
000250 89 53 c5 bd 3e d2 b0 bd 70 95 18 3f 08 1c 4a bc
       -0.09635074 -0.086338505 0.59603024 -0.012335785
000260 6b 04 2d bd 29 76 9c 3d 15 89 9a 3c 7f ec 9d be
       -0.04224054 0.07639725 0.018864194 -0.30844495
000270 38 0c c2 be d5 78 c5 bd 66 65 2c 3d 94 18 af 3d
       -0.37899947 -0.096421875 0.04208889 0.0854961
000280 88 19 07 bd f2 63 3c bf 2d 1e 43 bf 85 41 95 3c
       -0.032983333 -0.73590004 -0.7621792 0.018219719
000290 91 67 b5 bd 3d c4 57 bd 1f 11 69 bf 97 95 fd bd
       -0.08857644 -0.05267738 -0.9104175 -0.123820476
0002a0 4d 59 6a 3d eb c1 d0 bd d8 0c 33 be 2c 13 bc 3c
       0.05721407 -0.10193237 -0.17485368 0.02295836
0002b0 68 87 f5 bd 49 23 4a bd 4c 84 36 be 7c ff 22 be
       -0.11988717 -0.049350057 -0.17823905 -0.15917772
0002c0 05 d8 54 3e 1b 0e 3b 3b f6 56 49 3f b6 e8 dc be
       0.2078553 0.0028542343 0.78648317 -0.43146294
0002d0 73 0d 8a bc b8 d8 98 3e cd d2 9f 3d 07 7b 6c 3e
       -0.016852116 0.29852843 0.07803879 0.23093806
0002e0 fe 67 ad bd ed 06 42 3e 4b 7c f2 3e 39 f6 a6 bd
       -0.084671006 0.18947954 0.47360453 -0.08152432
0002f0 a6 e9 49 3d db e0 93 bd a0 ff a8 3b 5d b6 87 be
       0.04929509 -0.07220622 0.005157426 -0.2650632
000300 3a c2 b2 3d 00 e3 ae b9 57 af 7b 3d 28 9e 43 3c
       0.08728452 -0.00033356994 0.061446514 0.011939563
000310 bb 20 72 bf ec 3a 71 3d 7f f7 6a bd bf 76 76 3c
       -0.9458119 0.058894083 -0.057364937 0.01504296
000320 56 d9 64 be 38 e6 1c 3e f8 4b 41 be 42 85 39 3d
       -0.22348532 0.15322196 -0.18876636 0.0452931
000330 03 2d 44 bd 46 2b d6 be ea ea bf 3e 26 18 9b 3e
       -0.04789449 -0.4182989 0.37483913 0.3029186
000340 e0 62 27 bc c8 87 47 be d1 5d 4f 3f 88 1f 8f bc
       -0.010216445 -0.1948539 0.8100253 -0.01747109
000350 c3 5d 9d 3d 6a 72 f9 bc 2f e8 32 bf 6b 7b 9e be
       0.07683899 -0.030450065 -0.69885534 -0.30953535
000360 69 9c 92 3d 01 af c0 be 0a 3e 4b 3d 64 96 fc be
       0.07158739 -0.37633517 0.049619712 -0.4933349
000370 1a 5e 02 be 1d e7 da be ec 3c 41 3e c4 f4 99 bc
       -0.1273121 -0.4275445 0.18870896 -0.018793471
000380 a3 d3 69 bd 99 96 f6 3d e8 4d d5 3e 2e 51 58 bf
       -0.057086598 0.12040443 0.41661 -0.8449887
000390 ec d8 70 3e 23 03 9d be 23 40 aa 3c c3 43 54 bf
       0.23520249 -0.30666456 0.020782536 -0.82915896
0003a0 9d 70 98 bf 8d 8d 7d bd 43 1f b2 be 85 fc f2 be
       -1.1909367 -0.06190257 -0.34789476 -0.47458282
0003b0 ea 93 38 bf 70 7a d2 bc 80 c2 e7 ba 6a 0f 68 3d
       -0.721007 -0.025693148 -0.0017681867 0.056655325
0003c0 38 c1 80 be 54 89 ab bd 9d 53 f1 bd 5d a5 ef bd
       -0.25147414 -0.08375803 -0.11783526 -0.117014624
0003d0 04 d0 9d 3e 6b 6f 47 3e 64 98 2b be 45 58 93 bd
       0.30822766 0.19476096 -0.16757351 -0.071945705
0003e0 6d c0 b5 3c 1e fa 65 bd de 80 66 bd 78 8d 06 bd
       0.022186482 -0.056146733 -0.05627524 -0.03284976
0003f0 15 6f 86 bd 3b 04 a4 3d f0 53 99 3b 0e 70 06 3e
       -0.06564156 0.080086194 0.0046791956 0.13128683

adv.0.bias f4 [64]
000000 fe c9 dc bf 8b 93 c0 bf b1 d5 2f bf 0d c5 35 bf
       -1.7249143 -1.5045027 -0.6868544 -0.710038
000010 c1 04 ae bf 07 9b 60 bf 17 47 8a bf d2 90 e0 bf
       -1.3595201 -0.8773655 -1.0802945 -1.7544196
000020 09 61 51 be ad f7 0b bf f1 1d 88 be 9e fb 9b bf
       -0.20447172 -0.546748 -0.26585343 -1.2186162
000030 72 fe c9 be cb e3 34 be af ad 03 bf b4 52 95 bf
       -0.3945194 -0.17665021 -0.51436895 -1.1665864
000040 ff cf c9 be 1e ca 03 c0 56 19 1b bf e8 b3 a6 bf
       -0.394165 -2.0592113 -0.60585535 -1.3023653
000050 04 d0 37 be e9 f9 68 be 83 76 16 bf 56 9a e2 bf
       -0.17950445 -0.22751583 -0.58774585 -1.770335
000060 8a 22 69 be 88 1e 28 bf ed 21 a3 be ed 05 24 bf
       -0.22767082 -0.65671587 -0.3186182 -0.6407154
000070 5b 85 02 bf eb 19 65 bf 03 5a 3b c0 93 6a 1b bf
       -0.50984734 -0.8949267 -2.9273689 -0.60709494
000080 a1 fd 94 3e bc e1 75 be 3b 28 8d be 6f 6f d4 bf
       0.29099753 -0.24011892 -0.27569756 -1.6596507
000090 d2 7a a5 bf 90 a1 11 bf 81 be b4 3d 3d 29 ee bd
       -1.2928107 -0.5688715 0.08825398 -0.11628959
0000a0 de 3d 33 bf 57 d0 b7 bc 44 c3 92 bf 4c 8e 1f be
       -0.70016277 -0.022438211 -1.146584 -0.15581626
0000b0 7b 16 0f bf d2 fe 34 3e 84 29 aa bf 0f 23 c2 bf
       -0.5589368 0.17675331 -1.329392 -1.5166949
0000c0 50 7c db bf d5 d7 89 3d f9 c1 9c 3e 98 33 41 be
       -1.7147312 0.0673062 0.3061674 -0.18867338
0000d0 a8 33 2a bf 0b a3 b1 bf fa fa d2 be 4b f1 ab be
       -0.6648507 -1.3877882 -0.41207105 -0.3358253
0000e0 0a 29 39 bf c9 05 fe bf 39 16 c6 be 41 19 af be
       -0.72328246 -1.9845515 -0.3868883 -0.34198955
0000f0 e6 d7 be 3d de 08 9c 3e 68 d9 9a be 1f 0e 01 bf
       0.09318523 0.30475515 -0.30243993 -0.5041217

adv.2.weight f4 [2, 64]
000000 be 1a 21 c0 bc 2e 89 3f e5 9e 21 c0 f4 7c 07 bf
       -2.5172572 1.0717387 -2.5253232 -0.5292504
000010 cd 32 a9 be ca 88 15 bc 42 80 86 3f 24 2d 10 c0
       -0.3304657 -0.009126851 1.0507891 -2.2527552
000020 31 94 ee 3d 89 02 a5 3f 26 f4 a2 bd fd 11 c8 bf
       0.11649359 1.2891399 -0.07956724 -1.563049
000030 47 fc 6f 3f d5 68 b1 3d ab db 98 bf 54 c5 86 bf
       0.9374432 0.08662573 -1.1942037 -1.052897
000040 5b 9f 7c be aa 4c 63 bf db e2 3b bf 90 48 67 3f
       -0.24670164 -0.88788855 -0.7339303 0.90345097
000050 6b 05 56 bf b2 b0 07 3f 49 de 2d 3f a9 29 83 bf
       -0.8360202 0.5300399 0.67917305 -1.0247089
000060 e3 da db be 30 f0 90 be 05 a0 88 be df dd d4 3e
       -0.42940435 -0.2830825 -0.26684585 0.41575524
000070 6f e7 39 3f 28 f8 83 bf 97 e2 85 bf 61 c3 5a 3d
       0.72618765 -1.0310106 -1.0459775 0.053408984
000080 d4 45 aa bf ee ab 75 3d 5a 52 e4 be 27 58 ca 3f
       -1.330256 0.059978418 -0.4459408 1.5808152
000090 6a 4a 04 c0 8b cb 0b 40 dc 55 0e 3f 7e 49 61 3f
       -2.0670419 2.1842983 0.5559976 0.88002765
0000a0 a1 da e5 3e 22 19 60 be c6 7d f0 bf 45 71 86 3d
       0.44893363 -0.21884587 -1.8788383 0.06564573
0000b0 dd 61 11 bf ba 12 55 3f 7e 31 46 bf b4 c9 f6 3f
       -0.5678995 0.832317 -0.7741927 1.9280305
0000c0 ae f0 50 c0 08 4f fa 3f 0e df 2f 3f 7b 40 3d ba
       -3.26469 1.9555368 0.6869973 -0.0007219386
0000d0 05 6d 07 bf 4d 77 4c 3f 9f 14 ea 3b 60 0f da bd
       -0.52900726 0.7986954 0.0071435715 -0.10647464
0000e0 e9 82 11 3f c4 f3 e2 3f 9a 46 36 bf 83 e1 38 3e
       0.5684038 1.7730641 -0.7120148 0.18054776
0000f0 a5 b1 84 bf 42 4d b1 3e bb e6 a1 3b 05 7a 72 bf
       -1.0366713 0.34629256 0.0049408353 -0.9471744
000100 72 e9 1c 40 28 24 87 bf c3 b1 25 40 91 13 e9 3e
       2.4517484 -1.0557909 2.5889747 0.4552274
000110 3d 8e cb 3e 79 8a 6e 3d f4 61 86 bf 76 1a 15 40
       0.39756957 0.058237527 -1.0498643 2.32974
000120 99 27 8f 3d f7 33 a1 bf ae e9 82 bd 17 69 b9 3f
       0.069899745 -1.2593983 -0.06392227 1.4485196
000130 4b 80 65 bf 52 af ad 3b 19 d5 88 3f 60 ce 70 3f
       -0.89648885 0.005300441 1.0690032 0.94064903
000140 79 c4 2d 3e 72 1f 75 3f c1 39 1a 3f 50 29 7a bf
       0.1696948 0.95751107 0.60244375 -0.9771929
000150 8f 5f 29 3f ea f3 1e bf 27 4e 35 bf f3 cc 7e 3f
       0.66161436 -0.62090933 -0.70822376 0.9953148
000160 97 c9 f2 3e 6f f6 7a 3e 64 42 5b 3d 81 1f fb be
       0.47419426 0.2450807 0.053530112 -0.49047473
000170 99 ce 2a bf 40 6b 82 3f c8 dc 66 3f c9 a9 58 be
       -0.66721493 1.018898 0.90180635 -0.21158518
000180 d2 19 a7 3f b6 e1 68 3c 73 70 b8 3e ed b6 c0 bf
       1.3054755 0.01421397 0.36023292 -1.5055825
000190 53 ad fb 3f b7 b6 12 c0 3e 92 28 bf 68 f6 50 bf
       1.9662269 -2.292402 -0.6584815 -0.81625986
0001a0 19 93 dc be 67 0d 5e 3e 9e 27 ed 3f df 70 aa 3c
       -0.43080977 0.216848 1.8527715 0.020805774
0001b0 73 55 e1 3e 6c ee 4c bf 26 62 5a 3f ce ce f5 bf
       0.44010505 -0.800513 0.8530601 -1.9203737
0001c0 68 d8 52 40 9f 62 ea bf 3a 75 3a bf f9 4d e7 3c
       3.2944584 -1.8311347 -0.72835124 0.028235422
0001d0 d5 49 0d 3f 71 74 6d bf a6 40 3d bd cb b6 c2 3d
       0.55190784 -0.927558 -0.04620423 0.09507521
0001e0 31 a6 22 bf 40 8e e5 bf de 2c 31 3f b1 c0 16 be
       -0.6353484 -1.7934036 0.69209087 -0.14721943
0001f0 43 89 6d 3f 4c c4 8e be 40 9b 68 bb 3b 7a 82 3f
       0.9278757 -0.27884138 -0.0035492927 1.0193552

adv.2.bias f4 [2]
000000 76 53 51 be 13 ee 63 3d
       -0.20441994 0.055646967
