positive_per_main/best_model.pt (torch, 146421 bytes, 11 tensors)

feature.0.weight f4 [128, 16]
000000 bc 15 02 40 54 ae ce be e2 ab 21 be e0 5c 99 be
       2.0325766 -0.40367377 -0.15788224 -0.2995367
000010 5c d7 2b c0 24 40 7d 3f bf a5 ba 3f 2d 08 89 3f
       -2.6850195 0.98925996 1.4581832 1.070562
000020 7c 3e 67 3f 80 00 57 3f b3 a0 ea be 26 ce 1c bf
       0.9032972 0.8398514 -0.4582573 -0.6125206
000030 72 c1 f4 3e 8b 93 1b 3f b7 f0 17 40 19 75 5d bf
       0.47803837 0.6077201 2.374067 -0.865068
000040 51 49 86 3e 74 fb bd bd fe ca e6 be 30 e6 7c be
       0.2622781 -0.092764765 -0.45076746 -0.24697185
000050 03 e2 ac 3e 88 3f 6c 3e 97 d5 22 3f ee d4 fb 3e
       0.33766183 0.2307111 0.6360716 0.4918589
000060 78 03 5a bf 57 90 fb be c9 40 6c be eb 07 1a bf
       -0.8516154 -0.4913356 -0.23071589 -0.6016833
000070 b5 87 b5 be 8a 24 ca be 52 0a 74 3e d8 51 03 bf
       -0.354551 -0.39481002 0.23832062 -0.5129676
000080 d5 3b ed be 27 35 a8 3e f7 e7 86 3e 1e 0c d3 3d
       -0.4633471 0.32853052 0.2634885 0.103050455
000090 0c ac 61 be fa b4 0e 3e 84 94 69 3e d6 53 bd 3e
       -0.22038287 0.13936225 0.2281056 0.36978024
0000a0 35 c8 0b 3e a5 61 15 3e e6 cd 6b 3f cd 95 57 3f
       0.13650592 0.1458803 0.9211105 0.8421295
0000b0 41 6f 31 3e 76 d6 e5 be 9c eb e0 be 85 21 11 bf
       0.17327596 -0.44890183 -0.43929756 -0.5669177
0000c0 d3 98 55 3f 5a 95 5b 3e 43 0f a5 3e 5f 14 0c 3f
       0.83436316 0.21443692 0.32238206 0.54718584
0000d0 e4 53 02 40 27 7a ad be 92 7f 9b 3d 9f 02 73 3d
       2.0363703 -0.33882257 0.075926915 0.05932867
0000e0 3e 7e 27 3f ac 76 3c 3f a7 c7 9c 3e 52 ae ba 3d
       0.65427005 0.7361858 0.30621073 0.0911528
0000f0 0c 75 e7 3e dd 95 6c bf 5c 63 14 3f 4a 96 4e bf
       0.45206487 -0.92416173 0.5796411 -0.8069807
000100 dd 14 bf 3f a2 9f fa bd c2 96 de bd ab 6b 34 3e
       1.4928242 -0.12237479 -0.108685985 0.17619197
000110 69 83 71 3f 92 92 3f bd b4 da 3d be 03 51 10 3e
       0.9434114 -0.04677064 -0.1854046 0.14093404
000120 c4 9a 9b 3f 6c a4 84 3f 17 95 2c bd 57 63 26 bd
       1.2156606 1.0362678 -0.04213437 -0.04062208
000130 7c 83 3b 3f f2 dd cd c0 ab 65 ec 3e 7d 79 fd bc
       0.73247504 -6.433343 0.46171317 -0.03094172
000140 a8 52 92 be 02 14 a3 3e 31 81 79 3d f8 5e 40 3e
       -0.28578687 0.31851202 0.060914222 0.18786228
000150 79 19 e9 bf 12 12 86 3f 7c 93 95 3f b4 90 a6 3f
       -1.8210899 1.0474265 1.1685634 1.301291
000160 2d d8 33 bf 4d 45 1c bf 76 9b 94 3e 6e 8b ce 3e
       -0.70251733 -0.61043245 0.29024857 0.4034075
000170 b7 f1 f5 3e 4b 4f f3 3e 83 41 5a 3f 83 fe 71 be
       0.48035976 0.47521433 0.8525621 -0.23632245
000180 aa 14 f1 3e 1f 40 b5 be 83 1e 66 be 54 c3 0b be
       0.47086078 -0.35400483 -0.22472577 -0.1364873
000190 c3 22 9e be e1 85 fb bc 18 73 0d 3e 0a f2 17 3e
       -0.30885896 -0.030703487 0.13813436 0.14838424
0001a0 38 b7 3a 3e 70 a6 43 3e 11 11 a7 3e 75 8d fb 3d
       0.18233955 0.1910646 0.32630208 0.1228284
0001b0 85 00 40 3e 48 d0 0f bf 78 83 00 3e ff 72 25 bf
       0.18750198 -0.56177187 0.12550151 -0.64628595
0001c0 5d 5e b8 3c 66 1f 42 be 0d 2f d8 bd cc 1b f0 bd
       0.022505933 -0.1895729 -0.10555849 -0.11724052
0001d0 91 93 0a c0 e2 f8 a3 bd db 0d ee bd de 1d ce bd
       -2.1652567 -0.08006455 -0.116237365 -0.100642905
0001e0 c4 e4 0b 3f b4 52 58 3f 9c cb 88 bf dd 26 a0 bf
       0.54645944 0.84501195 -1.0687137 -1.251186
0001f0 ea 99 76 bf 2a d1 91 bf b8 6d 9d bf 6b 20 83 3d
       -0.96328604 -1.1391957 -1.2299109 0.064026676
000200 5b c5 0f c0 45 44 ce be b9 6c b5 be 25 ec 04 bf
       -2.2464206 -0.4028646 -0.3543451 -0.5192283
000210 94 5d 0b 40 37 07 1f c0 c9 63 33 c0 11 2e 2f c0
       2.1775866 -2.4848154 -2.8029654 -2.7371867
000220 26 d5 1a 3f e8 90 21 3f e7 f6 41 3e 9f c9 81 3e
       0.6048149 0.63111734 0.18941842 0.25349137
000230 60 ad 09 be 3c a7 dc 3e f4 4c 5d bc 30 a6 ba 3d
       -0.13445044 0.4309634 -0.013507117 0.09113729
000240 d1 ab f9 bf 49 5b 6f 3f 24 d0 43 3f c0 45 5c 3f
       -1.9505559 0.93498665 0.7648947 0.8604393
000250 aa 74 f0 3f f0 91 65 be 14 28 53 be f6 ea 42 be
       1.8785603 -0.22418952 -0.20620757 -0.19034943
000260 43 88 49 be 67 3e c2 be 8f f0 db 3e b3 36 0e 3e
       -0.19680886 -0.37938234 0.4295697 0.13888054
000270 77 f2 1a 3f 1f 63 d3 be 7b f4 50 3e 67 92 8e be
       0.6052622 -0.4128656 0.20405762 -0.2784607
000280 c5 22 b8 3f d9 1c 7d bf 5b ed 6a bf 67 ee 9f bf
       1.4385611 -0.98872143 -0.91768426 -1.249463
000290 07 4d ba be be 03 03 bf e2 23 e9 be 76 3d b8 be
       -0.36386892 -0.51177585 -0.4553519 -0.3598439
0002a0 a0 a4 01 3e af 1d 68 3d 35 92 e8 be 84 df 08 bf
       0.12660456 0.056668933 -0.45424047 -0.5346606
0002b0 d0 83 40 bd f7 3f b0 bf 0f 0c 3c bf e4 6a 91 bd
       -0.047000706 -1.376952 -0.734559 -0.07100466
0002c0 61 4a 6a 3e 56 41 a8 3b 88 16 c2 bd ea 3d 5e bb
       0.22879936 0.005134742 -0.09476954 -0.0033911415
0002d0 2c 48 a6 3f 66 ed 64 3e 4a 37 fd 3d f8 a5 54 bd
       1.2990775 0.22356185 0.12364061 -0.051916093
0002e0 9d 37 47 bf ef 06 72 bf ac 32 05 be d4 63 01 be
       -0.77819234 -0.9454183 -0.13007611 -0.12635738
0002f0 f2 7e 95 3e d6 90 54 c0 2c 7b 00 3f 8a 13 c5 be
       0.29198414 -3.32134 0.50187945 -0.3849147
000300 91 b4 3a 3e c9 d1 18 3f 37 54 f1 3e 93 ef 28 3f
       0.18232943 0.59695107 0.47134563 0.6599056
000310 54 88 59 c0 0c cf 1e bf f6 e9 53 bf a4 11 50 bf
       -3.3989458 -0.6203468 -0.8277887 -0.8127692
000320 6c 87 05 bf 87 7f 0c bf ef 86 47 3f 76 e9 13 3f
       -0.5215976 -0.5488209 0.7794027 0.5777811
000330 83 5b 2d 3f cd 1e 94 bd 7c d5 de 3e e4 2b 91 bf
       0.6771776 -0.07232437 0.4352225 -1.1341519
000340 dd a2 44 3f aa 58 2b 3f fd 3f e7 3e 56 dc 4a 3e
       0.7681101 0.66932166 0.45166007 0.19810614
000350 aa 4c 02 40 00 cb 0f bf 96 cf aa be c8 50 04 bf
       2.0359292 -0.5616913 -0.333615 -0.5168576
000360 c9 35 a1 be ed 26 03 be 82 81 b1 3f 10 5b cd 3f
       -0.31486347 -0.12807818 1.3867648 1.6043415
000370 04 95 09 3f 8b e8 13 bf f2 40 5b bf 84 81 54 3d
       0.53743005 -0.5777671 -0.85645974 0.05188133
000380 f6 26 2e bf e0 36 15 3f f3 58 b6 3e df 70 bb 3e
       -0.680282 0.5828686 0.35614738 0.3660955
000390 36 16 86 bf db a6 23 bf 77 1d 70 bf e3 0d 49 bf
       -1.0475528 -0.63926476 -0.9379496 -0.78536814
0003a0 26 70 98 bf bd 1b a4 bf 2d 33 84 3f 9f b0 95 3f
       -1.1909225 -1.2820965 1.0328118 1.1694525
0003b0 18 80 02 3f 91 b8 52 be cb e5 24 3f f0 1b 3c be
       0.50976706 -0.20578219 0.64413136 -0.18370032
0003c0 a4 37 e3 3f e3 1b c7 be d9 e8 8b be dd 9e 70 be
       1.7751355 -0.38888463 -0.27326086 -0.23498102
0003d0 9b bd 23 c0 65 98 0a 3f 84 57 3c 3f 2f ee 0f 3f
       -2.5584476 0.54138786 0.7357104 0.56222814
0003e0 45 9b a1 3f bb 59 b8 3f e1 9c 2a bf 85 50 02 bf
       1.262551 1.4402384 -0.6664563 -0.50904113
0003f0 4e 44 46 3f 06 ad 2c be 16 fb ee 3c e5 2b c9 be
       0.77447975 -0.16862878 0.029172461 -0.392913

feature.0.bias f4 [128]
000000 09 9a 2e be 08 89 83 be b6 4d b4 be ce af ae 3f
       -0.17050947 -0.25690484 -0.3521554 1.3647401
000010 6f 8f ba 3f 75 7f 39 3f 7b 14 09 bf b2 99 a0 3f
       1.4575022 0.7246011 -0.53546876 1.2546904
000020 97 35 ab 3f ac 59 4b be f5 52 c2 be 5f e3 ad 3f
       1.3375729 -0.19858426 -0.37953916 1.3585013
000030 13 15 b1 3d 29 80 fc 3e d5 4b 30 3f 59 24 0c c0
       0.08646598 0.49316528 0.6886571 -2.1897185
000040 66 7f a5 bf 0f 0c 42 40 88 e6 db 3f 1e f8 1f 3e
       -1.2929504 3.031986 1.7179728 0.15621993
000050 7b 4e 45 3f 70 31 12 40 fc ae 90 3f 18 5d ce bd
       0.77072877 2.2842674 1.1303401 -0.1007635
000060 fa d6 de be e1 e9 66 3f a0 6d 74 bd 09 c6 6d bf
       -0.4352339 0.9020062 -0.05967486 -0.928803
000070 aa 93 af 3f f4 e5 15 bf f3 a9 6f 3f 8c d7 f1 be
       1.3716938 -0.58554006 0.93618697 -0.47234762
000080 6f 96 c4 be 58 e9 2c c0 5a 6f 9b bf 57 75 60 bd
       -0.38396022 -2.7017422 -1.2143357 -0.054799404
000090 c8 a9 89 3e 03 5e d1 3f 56 61 02 3f ed 21 10 3e
       0.26887345 1.6356815 0.5092977 0.14075442
0000a0 b9 f5 99 bf 67 af ca 3f e7 77 20 bf 24 93 fd 3f
       -1.2028114 1.5834779 -0.62682956 1.9810529
0000b0 fc e1 26 be 81 51 9d bd 07 b3 4a c0 0c c1 ce 3f
       -0.16297144 -0.07681561 -3.167177 1.6152663
0000c0 49 1c b1 3f dd cc 1f c0 1d c9 0a bd 40 5f 40 bf
       1.3836757 -2.4968789 -0.033883203 -0.7514534
0000d0 fd 99 21 bf a3 a5 b2 be 48 94 4d 3f 06 c0 4b 3f
       -0.6312559 -0.34891996 0.80304384 0.7958988
0000e0 d3 76 4b be e6 00 1a bf 36 29 3c 3d 20 98 c4 be
       -0.19869547 -0.6015762 0.04593774 -0.38397312
0000f0 7e ff 70 bf 60 4e 33 bc 68 14 1d 3d 72 51 19 3f
       -0.9413985 -0.010943979 0.03834954 0.598899
000100 be 43 ac bf 6d ec 2a c0 66 1f bb bf 22 88 dd bb
       -1.3458173 -2.6706803 -1.4618957 -0.006760613
000110 98 af df 3e a0 1f 8d 3f d3 03 93 3e 85 e1 8c 3f
       0.43688655 1.1025276 0.28713855 1.1006323
000120 e6 70 dd be f8 4d ca bf 3a cd c7 bf a5 25 e1 bf
       -0.43250197 -1.5805044 -1.5609505 -1.7589613
000130 39 b1 4f 3f 7e 3d d6 bf 2f 35 18 c0 3a b7 28 3f
       0.81129795 -1.6737516 -2.378246 0.6590458
000140 df 2b dd 3d b2 b8 ed bf ec e8 39 3e 7a e5 00 bc
       0.10799383 -1.857199 0.18155259 -0.0078672115
000150 f4 6a 3f bf 10 55 a0 be 2e 3a 15 3e 70 ab 11 bf
       -0.7477257 -0.31314898 0.14572975 -0.5690222
000160 21 38 ff 3c 57 9e a4 bf 74 51 50 be d9 f7 60 bf
       0.031154694 -1.2860821 -0.20343572 -0.87878186
000170 54 19 9f bf 94 14 3a bf 70 40 de be 39 7a d1 3f
       -1.2429605 -0.7268765 -0.43408537 1.6365424
000180 37 56 a2 be 80 37 91 bf c4 b7 e9 bc 97 01 13 bf
       -0.31706402 -1.1345062 -0.02853001 -0.574243
000190 1f 62 71 3f 0b 0e 50 bf 08 c4 63 c0 59 41 7d bf
       0.94290346 -0.8127143 -3.5588398 -0.9892784
0001a0 38 5c 6a bf d6 16 60 bf 32 71 8b 3e 34 69 f7 3e
       -0.91546965 -0.87534845 0.272348 0.4832245
0001b0 83 04 3c bd f9 d6 e0 bd e4 a1 52 3f 02 3a 61 bf
       -0.04590274 -0.10978503 0.82278275 -0.8797914
0001c0 e2 3b ae bf 64 f9 5c 3f 44 40 85 3f 02 59 3d 40
       -1.3612025 0.8631804 1.0410237 2.9585576
0001d0 44 a4 f6 3e d6 ec 2c 3f b0 65 15 bd 61 fb 1d 3f
       0.481722 0.6754888 -0.03647393 0.617117
0001e0 09 47 0d c0 3b 67 26 3f c0 da 80 bf cd 67 b1 bd
       -2.2074606 0.6500127 -1.0066757 -0.086623766
0001f0 f5 32 90 3f ef 7c 50 be 81 73 1f 3f a9 93 99 bf
       1.1265551 -0.20360158 0.6228562 -1.1998187

feature.2.weight f4 [128, 128]
000000 72 40 bf bd 16 08 3d bf 2d 49 b0 bd 8f f4 55 3d
       -0.09338464 -0.73840463 -0.08607707 0.052235182
000010 5c 1b a4 be 0f ae db 3d 9d 3d 50 bd ce 4f 86 bf
       -0.32052124 0.107265584 -0.05084001 -1.0493104
000020 f5 ef 6b 3c 2e 93 82 be 8f a7 09 be d9 9c 88 be
       0.014400472 -0.25502914 -0.13442825 -0.26682165
000030 26 79 07 3e 65 3b 85 bd a1 3b 0b 3c 77 c8 86 3c
       0.13229808 -0.06505469 0.008498103 0.016453011
000040 c6 36 a1 3d 96 c6 91 bd e3 76 28 3f 6b d3 64 be
       0.07871775 -0.071179554 0.65806407 -0.22346275
000050 b2 09 5e 3f 11 32 6c be 95 72 a5 bf ac 5e 70 3b
       0.86733544 -0.23065974 -1.2925593 0.0036677523
000060 0e f9 b2 be 9a 4d d3 bc 68 5a 58 3c c7 6a cc 3c
       -0.3495564 -0.02579384 0.013205148 0.02495326
000070 6c bd 01 3d 26 63 a8 bc da b2 15 bf f0 c6 91 3e
       0.031674787 -0.02055509 -0.5847603 0.2847209
000080 24 7c e1 3d f5 af 06 bf 55 4c 60 be 55 49 36 bd
       0.11010006 -0.5261224 -0.21904118 -0.04450353
000090 88 32 ad bd a7 6b a3 be c5 26 87 3d 2a 07 70 3d
       -0.08456904 -0.3191807 0.065991916 0.058600582
0000a0 cd bd fd bd ce 9c 35 be 62 2d 8a be 65 6a c3 bd
       -0.12389717 -0.17735597 -0.2698775 -0.095417775
0000b0 18 bf 2b bd 94 38 89 bd 5b 42 45 3d 07 86 2d be
       -0.041930288 -0.067002445 0.048158985 -0.16945659
0000c0 4a c1 78 be 35 68 c2 bb 9b 4f cc 3d 1e 96 c8 be
       -0.24292484 -0.0059328326 0.09976121 -0.3917703
0000d0 f4 b5 69 3d 4b 1e 18 3d af fb 05 be c0 5b 9d bd
       0.05705829 0.037138265 -0.13084291 -0.076835155
0000e0 5f a3 54 be 2c d0 1d bf 6f 14 0e 3e cc 4e 51 be
       -0.20765446 -0.6164577 0.13874982 -0.20440215
0000f0 02 14 07 3e 95 e4 46 bd e6 96 51 be ae 50 0b 3e
       0.13191226 -0.048557837 -0.2046772 0.13604996
000100 3c 82 37 be b5 40 aa be ea c0 e8 bd 3d 1a 38 3c
       -0.17920774 -0.33252493 -0.113649204 0.011236724
000110 c2 3d 8e be 98 a8 73 be 61 7d 80 be cd f5 53 bf
       -0.27781492 -0.23794782 -0.25095657 -0.8279694
000120 5c 23 cd 3d 6e a8 52 be ed 4f d9 3d f7 b7 03 bf
       0.1001651 -0.20572063 0.10610948 -0.51452583
000130 70 9e 2f bf 1a 3c 90 be 0f a3 b4 bd 2c 45 d6 3e
       -0.6860113 -0.28170854 -0.088201635 0.4184965
000140 0b 69 9e be 4e c7 34 be 3a f1 ce 3d db cb 13 3d
       -0.30939516 -0.17654154 0.10104604 0.036083084
000150 99 08 f2 3e 2d 57 cc be e1 04 85 bf 0c 10 33 bf
       0.47272184 -0.3991026 -1.0392114 -0.6994636
000160 2f 97 20 bb 9a 87 9a 3e 5b 2a 17 3e 80 c6 12 be
       -0.0024504175 0.3018158 0.14762251 -0.14333534
000170 7d a5 60 bf b7 67 a1 bd a7 0f 38 be e5 28 0a 3f
       -0.87752515 -0.0788111 -0.17974721 0.5396865
000180 eb 15 11 be 15 98 66 3e b8 c5 50 be bf c3 9e be
       -0.14168517 0.22518952 -0.20387924 -0.31008717
000190 5a e6 17 be b2 c3 27 3e c4 7e a0 3c 81 7f 1c be
       -0.14833966 0.16383246 0.019591697 -0.15283014
0001a0 77 08 17 bf 57 9d 07 be 9c bf 11 bf ed c0 31 3b
       -0.5899729 -0.13243614 -0.56933 0.002712305
0001b0 d0 b0 7d 3e fe df 93 3d e8 5b 49 3d ca b5 43 bf
       0.2477448 0.072204575 0.049159914 -0.76449263
0001c0 db d3 9b ba 2e eb 83 be 9b 92 85 bf 07 74 99 3c
       -0.0011888699 -0.25765365 -1.0435365 0.018732084
0001d0 4f c3 1b bf 7a 4c 6d be 3c 0a b4 bd 9b 88 39 3c
       -0.6084489 -0.23173705 -0.087910146 0.011324073
0001e0 95 58 89 be bd 6d f2 bf c6 a6 cd be 68 1b 4c 3e
       -0.26825395 -1.893974 -0.401663 0.1993233
0001f0 6b a0 37 3f 99 14 83 bd c0 67 09 3f a8 0c 30 bd
       0.71729153 -0.06400413 0.53673935 -0.04298082
000200 f5 2f 75 be 12 b3 0e 3d 46 90 26 3e 0a 7c d3 3e
       -0.23944075 0.034838744 0.16265973 0.41305572
000210 38 99 4a 3c 8d d8 39 be ec d8 fa bd 9d 97 63 3e
       0.012365632 -0.18149014 -0.12248406 0.22225805
000220 30 df 29 bf 2f 8a a2 bd df ca db be 72 df 3d 3e
       -0.6635618 -0.07936513 -0.42928216 0.18542269
000230 e4 a5 fd bd d4 39 58 3e 1b f9 82 3d 1f 6d 23 3d
       -0.12385157 0.2111581 0.06395169 0.039898988
000240 80 8a 96 ba 42 d3 2b be af c4 76 be 37 f9 00 3f
       -0.0011485368 -0.16779807 -0.24098466 0.5038027
000250 32 91 15 be 31 88 81 be 03 13 77 be 6d ab 38 be
       -0.14606169 -0.25299218 -0.24128346 -0.18034144
000260 72 89 98 be 68 46 f1 bd 56 c2 33 3d 4b b4 47 be
       -0.29792362 -0.11781007 0.043886505 -0.1950237
000270 db a3 4a be 35 56 13 bf 07 38 ad bd a6 29 94 bd
       -0.19789068 -0.57553416 -0.08457952 -0.07234506
000280 bd 1d 9d be cf e8 a0 be d8 a7 35 be 7b 80 62 3c
       -0.3068675 -0.3142762 -0.17739809 0.013824577
000290 29 f5 99 3e 6c df 99 3d 75 23 d1 be 40 d3 42 be
       0.30069855 0.075133175 -0.40847364 -0.19025898
0002a0 fa b4 1e be d5 9c 30 bf bb 19 ff bd 94 84 38 be
       -0.15498725 -0.68989307 -0.124560796 -0.18019325
0002b0 1a df 98 3d 65 e9 af bf a7 14 27 3e 51 07 90 be
       0.07464428 -1.3743101 0.16316472 -0.28130582
0002c0 ac e8 7e bd 44 b5 15 3d 18 0d 41 3e f3 2b b4 be
       -0.062233612 0.03654982 0.18852651 -0.3518978
0002d0 d7 5b 19 bd 25 53 a9 3c 85 0d 4f bd 45 17 99 bd
       -0.0374411 0.02066953 -0.050550003 -0.074751414
0002e0 fd 38 18 bd 4e 95 08 3d 72 27 50 3e 01 f3 ca bd
       -0.037163723 0.033345513 0.20327547 -0.099096306
0002f0 cc 2f c1 bd 90 26 0d bc 71 0d a2 bd 10 91 a4 bc
       -0.09432945 -0.008615151 -0.0791272 -0.020088702
000300 a4 98 fb 3d e4 56 cf 3e 0b 58 62 bd f8 3c 9e bd
       0.12284973 0.4049598 -0.055259746 -0.077264726
000310 67 c9 f1 3e 60 58 aa bc 10 ba a9 be d9 71 58 3d
       0.4722397 -0.020794094 -0.33149767 0.05284295
000320 82 12 0e bf 87 8e 2f bd 5b 24 bd bc ab ca 3d 3f
       -0.5549699 -0.042860534 -0.023088625 0.7413737
000330 55 63 cf 3c af 5a e6 bc 49 b8 bd 3d f7 0d b1 bd
       0.02531592 -0.028119413 0.09263665 -0.08645242
000340 ab 31 5b 3e ae 45 7d bf 2a cc 0e bf e9 6e 8c bc
       0.21405666 -0.9893445 -0.5578028 -0.01714273
000350 30 b3 a8 3e 7a b5 47 bf 7f e3 c2 be cc a8 7e bd
       0.3294921 -0.78011286 -0.3806419 -0.062172696
000360 2e d0 1e bd 0d b9 05 bd 37 b3 b5 3d 76 d6 04 bd
       -0.038772754 -0.03264718 0.08872073 -0.03243109
000370 60 1a 46 3f b3 04 32 be 4d 2c 86 3c 28 cb 3d be
       0.77383995 -0.17384605 0.016378546 -0.18534529
000380 dc a8 db be 89 59 02 bf 7f c1 d6 bd ff 83 06 bf
       -0.42902267 -0.5091787 -0.10486125 -0.5254516
000390 59 7b 31 be 64 68 58 bf d5 bf c4 3d 76 a8 ea 3d
       -0.1733221 -0.8453429 0.096069016 0.114579126
0003a0 81 db ea bc 54 0f 84 be 0b a0 89 bd 31 65 d4 be
       -0.02866912 -0.25792944 -0.06719979 -0.41483453
0003b0 36 e6 fa 3d bb 58 9d 3d 41 1d 4e be e9 f0 0d bd
       0.122509405 0.076829396 -0.20128347 -0.034653578
0003c0 1b 46 75 be f0 79 18 be 7a dc 3d be 5e 51 58 be
       -0.23952524 -0.14890265 -0.18541136 -0.21124789
0003d0 71 75 07 3e 7c e3 99 3d 30 4a a4 bb b1 c7 1e bf
       0.13228394 0.07514092 -0.0050137267 -0.62023455
0003e0 04 83 7a be c3 83 1a 3e 1a 2c 8b bd 57 d7 37 bf
       -0.24464041 0.15089326 -0.06795521 -0.7181296
0003f0 1f 4b 5c be 4a 59 63 bf 2a a5 57 be fe 61 03 bf
       -0.21513031 -0.8880812 -0.21059099 -0.513214

feature.2.bias f4 [128]
000000 26 f7 1c be 28 d2 02 be f9 7b 5f 3f 20 a5 f8 3f
       -0.15328655 -0.12775481 0.8729854 1.9425392
000010 68 17 88 bb 2c 54 40 bd 40 7d 64 bd 0c a8 06 3f
       -0.004153181 -0.046955273 -0.05578351 0.5260017
000020 f8 a3 77 3e c7 43 6e be 35 73 00 3f e0 bf 25 3e
       0.24183643 -0.23268043 0.5017579 0.16186476
000030 00 7d 26 3e d2 2f d4 be 69 89 35 be 99 23 d1 3c
       0.16258621 -0.41442734 -0.17728199 0.02552967
000040 b5 f3 53 bd 3d f1 f5 be 6a d6 33 bd 90 57 86 3f
       -0.05174609 -0.48035613 -0.043905653 1.0495472
000050 6b 23 9a bd 0d 61 11 be 4d 91 1a c0 41 3d 04 be
       -0.07526287 -0.14197178 -2.4151185 -0.12913992
000060 b1 14 f7 bd 4c 1a 01 be 78 9d 1d be 9d 59 ba be
       -0.120644934 -0.12607688 -0.15392101 -0.36396495
000070 3c 93 84 ba 9b 04 19 3f 11 2c 2a be 0e 00 ac 3e
       -0.001011468 0.5977265 -0.16618372 0.33593792
000080 b9 3d 81 bc 55 aa 07 3f dc 3e 28 3e bf be 94 bd
       -0.015776502 0.5299428 0.16430229 -0.072629444
000090 8a 04 cf 3e b2 30 18 3f 9d 3c 6b 3d 7c c4 63 3e
       0.4043315 0.59449303 0.057430852 0.22242922
0000a0 38 b0 01 be b6 f6 30 3d 87 4f ac bd 88 88 dd bd
       -0.12664878 0.043204032 -0.08413606 -0.10817057
0000b0 d1 ca 10 3e d4 a5 1a be 4f e5 ef bd 15 05 0f 3d
       0.14139868 -0.15102321 -0.11713659 0.034916956
0000c0 68 48 21 c0 1a a4 b0 be aa 1e e0 bf db 57 54 bf
       -2.5200443 -0.345002 -1.7509358 -0.82946557
0000d0 88 8d 8d bd 86 9a cb 3e fa ea 9d 3d ee 4f bc 3e
       -0.069117606 0.3976633 0.07710834 0.36779732
0000e0 18 3d 49 bd 17 af 07 bf 50 06 b5 3d 52 10 2b be
       -0.04913053 -0.5300154 0.08839095 -0.16705444
0000f0 26 85 54 bd b7 1d 46 bd e9 af 2d bd d8 bd 89 3f
       -0.051884793 -0.048368182 -0.04240409 1.0761061
000100 73 a2 66 3e 78 91 0e be d2 e6 40 be 2e db 97 bd
       0.22522907 -0.1392268 -0.18838051 -0.07414852
000110 95 4c ba bd ab 15 eb bb b9 0d 17 be 69 e1 1f be
       -0.09096638 -0.007174214 -0.14751329 -0.15613331
000120 52 ba 69 3e 11 c0 cd 3d 9d 59 94 3e fd 8a 56 bd
       0.22824982 0.100463994 0.2897462 -0.052378643
000130 e8 d0 0c be 59 2c b1 3c eb 87 9c 3e c4 32 12 be
       -0.13751566 0.021627592 0.30572447 -0.14277178
000140 56 b0 39 3f 1d 73 55 3e 78 d2 e3 be 7e 06 9d bd
       0.7253469 0.20844693 -0.44496512 -0.07667254
000150 a1 12 d7 bd 9b d3 a6 bd 49 59 ec 3e 60 32 81 3e
       -0.105016 -0.08145829 0.4616187 0.25233746
000160 46 4f 6e be 15 ab 13 bf 2a b5 23 bd fe 69 25 3f
       -0.23272428 -0.57682925 -0.039967693 0.64614856
000170 8f e0 25 bd 85 72 38 3f 0b 54 71 bf 5b 7e 57 bd
       -0.04049736 0.7204974 -0.94268864 -0.052610736
000180 d4 54 1f be 3b 28 e7 bd cb 5e 8a 3e ce cc 20 3f
       -0.15559703 -0.1128697 0.27025446 0.6281251
000190 41 2e 50 bd 22 3f 0d bf cf 03 33 3f 67 1e 17 3f
       -0.05082536 -0.5517446 0.69927686 0.59030765
0001a0 52 2a a2 3e 26 22 ef bd 39 99 c7 3e 53 bf 2a be
       0.31672913 -0.11676435 0.38984087 -0.16674547
0001b0 15 c8 0b 3f ad 68 90 3b 12 9b 68 bd c2 39 16 be
       0.54602176 0.0044070096 -0.05678851 -0.1467047
0001c0 ea 60 20 3f 03 1b f9 bd 77 97 e9 be 1a c8 c6 3c
       0.6264788 -0.12163355 -0.4562337 0.024265338
0001d0 6f 1d 80 3e 9f 49 0a 3e 17 ad 1b 3f 62 bd 8e bb
       0.25022456 0.13504647 0.6081099 -0.0043560723
0001e0 70 c9 38 bd d8 e0 e4 3e 61 28 a9 bd 46 5f c4 bd
       -0.04511398 0.44702792 -0.08259655 -0.095884845
0001f0 74 ca 45 3e cd 26 13 be 01 8c 22 bd be 1e 99 be
       0.19315511 -0.1437027 -0.0396843 -0.29906267

value.0.weight f4 [64, 128]
000000 dc 7c 20 3f a5 b1 14 bc eb c0 89 bf c3 88 f2 be
       0.6269052 -0.009075557 -1.0761999 -0.47369966
000010 72 fa a5 bc 51 fb b5 bd 08 12 2e be f9 07 39 bf
       -0.020261023 -0.088858254 -0.16999066 -0.7227779
000020 23 96 3d bf 69 c6 34 3d 4c 0b 94 be d5 f9 35 3b
       -0.74057215 0.04413453 -0.2891487 0.002776732
000030 2a c6 2f bf 20 82 96 bd a2 c5 24 bf 38 96 38 bf
       -0.6866175 -0.07349038 -0.64364064 -0.72104216
000040 92 78 ff bb 05 ad 5f bf 6a 89 81 3c 59 63 a0 bf
       -0.0077963555 -0.8737338 0.015812594 -1.2530318
000050 8e 12 c8 be 13 13 a1 bd ba be 1c c0 00 79 95 bb
       -0.39076656 -0.07864966 -2.449141 -0.0045615435
000060 53 7f 95 3b ba e0 84 bc ec f2 a8 3d e7 53 d0 be
       0.0045622974 -0.01622044 0.08249459 -0.40689012
000070 a0 ab 8a bc f2 e3 86 bd 00 97 06 3c 21 d2 9e bf
       -0.01692754 -0.06586446 0.008214712 -1.2407876
000080 cc da 78 bd 01 d1 d7 bf 1e 27 e9 bd af 5b a0 bd
       -0.060755536 -1.6860658 -0.11384414 -0.07829987
000090 dd 0f 57 bc 27 65 3a bf 15 60 2c bf 12 e6 49 be
       -0.013126341 -0.72810596 -0.6733411 -0.19716671
0000a0 f5 85 22 be 99 48 9e be b4 8d d9 be c2 4d 6e bd
       -0.15871413 -0.30914763 -0.42490923 -0.058179624
0000b0 44 2b 11 bf 4d 66 cd bd e7 b2 a8 bd 4a cf 84 3d
       -0.56706643 -0.10029278 -0.08237248 0.0648485
0000c0 20 25 67 3d e3 a4 e0 be 66 21 a1 bf ee 76 8c be
       0.05643189 -0.438758 -1.2588317 -0.27434486
0000d0 70 10 97 bc 72 23 af be d4 c5 b7 be 69 69 e0 bf
       -0.018440455 -0.3420673 -0.35893118 -1.7532169
0000e0 97 82 3c bf c3 55 89 3f 92 4b 06 bf 12 80 15 3d
       -0.73636764 1.0729297 -0.5245906 0.03649909
0000f0 f4 4c 14 3d 80 74 87 3a 52 09 52 3d 57 b8 8a bf
       0.0362062 0.0010334402 0.05127842 -1.0837506
000100 28 a5 61 be 2b b7 e0 3d 4a 2c 64 3d 54 49 8c 3c
       -0.22035658 0.109724365 0.0557063 0.01712481
000110 f6 d7 89 be 8b c6 13 3d a2 71 cb 3d 77 aa dc bd
       -0.26922578 0.036078017 0.09933783 -0.10774701
000120 4d de b1 be 58 7e 3f 3f 49 05 4d bf 39 9d 00 bd
       -0.34739915 0.7480216 -0.8008619 -0.03139994
000130 d6 9a 47 be 36 ea 9d be 5c 4b b5 be 9a 79 86 3d
       -0.19492659 -0.3084275 -0.35409057 0.065661624
000140 c4 df 7c bd 8e 31 19 bc f8 4b 59 3f fc ff 76 3d
       -0.061736837 -0.009350194 0.84881544 0.06030272
000150 1a 6a cf 3c d3 f0 48 bd 0b 66 af be f8 38 28 be
       0.025319148 -0.049057793 -0.3425754 -0.16427982
000160 45 1d 6e be 13 bc 4d 3e 0f 76 86 bc 70 6a 1c 3f
       -0.23253353 0.20091276 -0.016413717 0.6109991
000170 48 bc b6 be 1d 00 f6 bc 91 df a0 3e 4a 37 d5 be
       -0.35690522 -0.03002935 0.31420568 -0.41643745
000180 3f 96 68 3c 53 bc f4 3e 74 93 ac 3e 85 86 3a bd
       0.014195978 0.4779993 0.33706248 -0.045538444
000190 86 20 bf be c1 94 7e be 7e c1 00 c0 8f a8 5b bf
       -0.373295 -0.24861433 -2.0118098 -0.85804075
0001a0 d5 46 f3 bd 2c c1 cd 3c bd 48 e2 be fc 29 72 bf
       -0.118787445 0.025116526 -0.4419612 -0.94595313
0001b0 b1 9e b2 bf 03 6f 9e 3d 49 12 49 3d 93 d1 49 3d
       -1.3954679 0.077360176 0.049089704 0.04927213
0001c0 33 2e 8d be 72 fc cc bc d5 72 86 be ad 50 7e be
       -0.2757431 -0.025022719 -0.26259485 -0.24835463
0001d0 96 6c 8d be 03 ce 82 bf 76 24 5c 3e da 42 64 bd
       -0.27621907 -1.021912 0.21498284 -0.055727817
0001e0 bc 4c 41 3f 66 fe 3d 3e 4d 98 8e 3d fd ea 27 3d
       0.7550771 0.18554077 0.06962643 0.040995587
0001f0 5c c9 43 be 3a 47 94 bd 48 6e d7 3c 7c 26 8a 3e
       -0.19119781 -0.07240148 0.026297703 0.26982486
000200 27 ad ab bd 68 ae 0b bd e4 f5 0f be 29 68 68 bf
       -0.083826356 -0.034101874 -0.14058644 -0.90783936
000210 e4 9f 9e bd ac 74 b3 bd 3d 8f 9a be b6 37 b5 bc
       -0.077453405 -0.08762488 -0.30187407 -0.022121292
000220 10 e5 87 3e de 4b 03 3a 23 8a 06 bf e7 0b a1 be
       0.26541948 0.00050085585 -0.5255453 -0.31454393
000230 50 4d b9 3d 34 ed a8 3c 01 23 fe bd c3 c6 87 bd
       0.09047949 0.02062092 -0.1240902 -0.06629708
000240 4e 31 90 bd 94 85 4a 3e 7f 78 57 3d 55 d0 3a be
       -0.07040654 0.19777519 0.05260515 -0.18243535
000250 cd 4e a5 bd b9 09 69 bd 66 2a 67 3f 00 58 c0 3a
       -0.08071671 -0.056894038 0.9029907 0.0014674664
000260 d5 58 59 bf dc 36 0e be 88 bf 0e bd 54 db d7 bd
       -0.8490117 -0.13888115 -0.034850627 -0.105398804
000270 e9 e3 1c 3b 3b 52 20 be 0e 5b 7e bd 2f ec 88 bd
       0.0023939556 -0.15656368 -0.062098555 -0.066856734
000280 9a 28 4a 3d 7d d0 ef 3c 21 de ba 3e d3 73 43 3d
       0.049355127 0.02927422 0.36497596 0.04771788
000290 fd 31 93 bd 78 d1 c2 be 48 77 e5 bd 67 89 27 bd
       -0.07187269 -0.38050437 -0.11204392 -0.04090252
0002a0 0d 01 0e be f9 02 35 be 38 53 1d bd 40 69 2a bd
       -0.13867588 -0.17676915 -0.03840944 -0.04160428
0002b0 af dc d7 bd 66 e5 3c 3d 76 18 fd 3d 53 64 f0 bd
       -0.10540139 0.04611721 0.12358181 -0.11737885
0002c0 0b 43 e7 bd 38 f6 96 3d b1 71 c8 ba ce 23 cf bd
       -0.11292084 0.07371181 -0.0015292672 -0.10114251
0002d0 c6 da 58 3d 06 06 87 be 23 ec 42 be ef 05 6d bd
       0.052943014 -0.26371783 -0.19035392 -0.057866987
0002e0 9c 79 01 be 9e 6b 1e 3f a5 85 2c 3d a5 81 a2 3d
       -0.12644047 0.6188296 0.04211964 0.07934884
0002f0 91 bc 0d bd d3 87 b1 bd 6f 26 5e bd 1c 1e 89 bf
       -0.03460366 -0.086684845 -0.054235872 -1.0712314
000300 8c 5c 63 bd b0 c2 af bb 36 c4 7b 3d cf 1a 58 bd
       -0.05550818 -0.0053637847 0.06146642 -0.05275994
000310 d5 e3 d3 be be 83 1d 3d 90 fb f5 3b 78 e0 e7 3d
       -0.4138476 0.038455717 0.007506795 0.11322111
000320 8b 04 14 3d 99 97 f0 be 56 78 f9 be 2d 9a 64 3d
       0.036137145 -0.4699066 -0.48724622 0.055811096
000330 0d e7 99 bd 70 3d af be 46 81 75 bd 17 a9 c4 3d
       -0.075147726 -0.3422656 -0.059937738 0.09602564
000340 ba 71 f8 be f7 ff 12 3d 7e 47 1f 3e d3 d4 b3 3d
       -0.48524266 0.03588864 0.15554616 0.087808274
000350 a4 41 09 bd e8 d4 0e 3d a0 45 9b be 05 42 30 be
       -0.033509865 0.034871012 -0.30326557 -0.17212684
000360 a4 fa 98 bd 21 27 e7 3d 79 c6 1e bc aa f9 1b 3c
       -0.07469681 0.1128676 -0.009690874 0.009519974
000370 e4 0e 69 3d ee 93 82 be 7e 40 99 be f5 2c c1 3e
       0.056898966 -0.25503486 -0.29932016 0.37729612
000380 27 7c ef 3c 3b 24 bb 3c 62 0b 9e 3e 4b 6e 17 be
       0.029234005 0.022844424 0.3086806 -0.14788167
000390 2c de 9e bc 67 63 4d be 06 c8 13 bc 30 33 90 be
       -0.01939305 -0.2005745 -0.009019857 -0.28164053
0003a0 4a fa c5 be 00 a8 c9 39 81 c4 31 be f6 e4 30 be
       -0.38667518 0.00038462877 -0.17360117 -0.17274842
0003b0 ed a3 e8 bc 18 66 8a bd 68 d6 8f bc ce 70 7d 3d
       -0.028398478 -0.06757754 -0.017558292 0.061875157
0003c0 c2 2f a1 be 1d 59 9a bd 56 10 2c be 1d a6 99 bc
       -0.3148175 -0.07536528 -0.16803107 -0.018755967
0003d0 c7 cc cb bd 2d f2 59 be 17 50 1b bf e1 1d de ba
       -0.099511676 -0.21283789 -0.6066908 -0.001694616
0003e0 0d 7c 2f be 2f d7 38 bd 74 92 86 bd 7f 9b b1 3d
       -0.17137165 -0.04512709 -0.065709025 0.08672237
0003f0 56 7c c9 bd 5c ad cc bc 54 4b 87 bc f3 d0 9a be
       -0.09838168 -0.024985008 -0.016515411 -0.3023754

value.0.bias f4 [64]
000000 79 f7 8f bf bd e0 33 bf 2c da b5 3f 4c 8a a0 bf
       -1.1247398 -0.702648 1.4207206 -1.2542205
000010 42 fe 1d 40 14 34 72 3e 3c 59 76 be 99 c5 2e 3e
       2.4686437 0.23652679 -0.24057478 0.17067565
000020 aa f0 0a 3e 9c 48 5d bf 19 ed 95 3c 3f ab ca 3e
       0.13568369 -0.8643892 0.018301534 0.39583775
000030 45 21 5e bf f2 54 1f 3f ce b8 8d 3f f2 12 d5 bd
       -0.86769515 0.6223899 1.1072023 -0.10404004
000040 ac d1 11 40 67 ad 2a 40 9d 1f d2 3f 8a 47 81 bf
       2.2784224 2.6668336 1.6415898 -1.0099957
000050 c7 43 8d bf c3 c7 b4 3f e4 09 08 be bd 2d bb 3e
       -1.1036309 1.4123462 -0.13285023 0.36558333
000060 30 14 2f 3f 62 62 cb 3f 53 ca 17 be ae 81 19 3e
       0.6839018 1.5889399 -0.14823274 0.14990875
000070 fb f2 3c bd 63 1e fa bd e0 bb 44 bd 04 f4 5d bf
       -0.04613016 -0.12212827 -0.048030734 -0.86700463
000080 3f c0 6a 3f 26 e7 7a be 45 b5 57 3f 24 67 8c 3e
       0.91699594 -0.24502239 0.8426097 0.2742244
000090 7c 76 ba be da 6f 21 3f f6 e6 fb be ae 36 fa be
       -0.3641852 0.63061297 -0.49199647 -0.48869842
0000a0 c7 05 45 3f ee 45 bf bf ca 9b c0 3e a5 6e a5 be
       0.7696194 -1.4943216 0.37618858 -0.32310978
0000b0 be 6a 28 3f 07 6f 8d be fe 35 40 3f b4 7f b0 be
       0.65787876 -0.2762377 0.75082386 -0.3447243
0000c0 b4 ad dc 3c 20 bd 9b be e2 c5 af bf ca 06 16 3f
       0.026938297 -0.30417728 -1.3732264 0.5860411
0000d0 87 40 97 bc 4c 1b 02 be 91 a1 1b bf 48 4c e4 be
       -0.018463386 -0.12705725 -0.60793406 -0.44589448
0000e0 7e ef 72 be 0a d0 11 be e7 81 44 3d 27 25 8d be
       -0.23724172 -0.14239517 0.047975447 -0.27567407
0000f0 52 54 65 be d6 01 1b c0 7a e7 61 bf d4 d4 f1 bf
       -0.22395447 -2.421987 -0.8824383 -1.8893075

value.2.weight f4 [1, 64]
000000 b0 89 f4 bf a5 e5 b3 3f 0b fd 0e bf ed ea e2 3f
       -1.9104519 1.4054457 -0.5585486 1.7727944
000010 bf c4 e2 3f b6 a0 4e 3f 0b 67 b0 bc 1d 79 08 bf
       1.7716292 0.80713975 -0.02153351 -0.53309804
000020 7e 5c a9 bf 4c d5 7b be 35 25 eb 3e b0 b8 98 be
       -1.3231351 -0.24593085 0.45926824 -0.29828405
000030 25 b1 2d 3f 2d ba 84 be 5c 6c 3d be 22 2d f8 3c
       0.67848426 -0.2592329 -0.18498367 0.030294959
000040 fc 43 e6 3e 85 ac 2a 3f a1 77 e9 3f 80 10 33 3f
       0.44973743 0.66669494 1.8239633 0.6994705
000050 b2 4a da bf 0b 34 f2 3f de 3c f7 3e f3 02 a9 bf
       -1.7054045 1.8922132 0.48288625 -1.3204025
000060 d5 40 1f c0 26 04 42 3f 32 ff 86 bd a6 b9 2c bf
       -2.488332 0.7578758 -0.065916434 -0.6747078
000070 5c 01 86 bd d0 62 d7 3c 57 aa b7 bc 01 d5 18 bf
       -0.06543228 0.026292235 -0.022420092 -0.5970002
000080 81 96 5e 3f f3 02 fe 3e 68 33 2a 3f fc 7e bd 3e
       0.869484 0.49611625 0.6648469 0.37010944
000090 79 34 a2 bd d5 30 5c 3f 4e e2 0f c0 e1 d4 65 bf
       -0.079201646 0.8601201 -2.2481875 -0.8977795
0000a0 3d 0e d6 be cf 04 87 bf 25 81 21 bf 08 d8 a5 3f
       -0.41807738 -1.0548342 -0.63087684 1.2956553
0000b0 83 61 25 3f 7c 2c 09 3a f8 29 ff 3e 0a 68 9a 3c
       0.64601916 0.0005232764 0.49836707 0.018848438
0000c0 62 69 46 be 9e 9b 3a 3f f3 e2 07 c0 d3 c6 0d bf
       -0.19376138 0.72893703 -2.123227 -0.55381507
0000d0 4f 30 b5 3d 50 18 dc bc 63 a8 00 3e f2 b9 be be
       0.08847105 -0.026867062 0.12564234 -0.3725124
0000e0 5e 1d d0 bd 49 9e 19 3f 77 cf 6a bc 59 a0 89 3f
       -0.10161851 0.6000715 -0.01433169 1.0752059
0000f0 e1 2e 33 3f 8c f8 09 c0 b5 c3 ad bf 5e 43 56 bf
       0.69993407 -2.155795 -1.357535 -0.83696544

adv.0.weight f4 [64, 128]
000000 b2 67 46 be b2 63 82 3d 24 9a 23 3e 42 33 70 3e
       -0.19375494 0.063666716 0.15976769 0.23457053
000010 ca b0 95 39 e9 67 4f 3b 26 07 ce be b4 81 c8 be
       0.00028551213 0.0031647629 -0.4023983 -0.39161456
000020 43 4d 50 3e 9f 29 64 3d 1f 0b 2d 3f dd 50 f0 bd
       0.20341973 0.055703755 0.67595094 -0.117341734
000030 2a 5f b8 be ee 52 47 bf d3 38 7c be 56 ab 7c bf
       -0.36010104 -0.77860916 -0.24631052 -0.9869894
000040 38 85 0f bd 6c ba aa be 1b bb 8e bd 3c ae 82 bc
       -0.035039157 -0.33345354 -0.06969281 -0.015952222
000050 17 5b c6 3c e9 d7 95 bd bb b6 45 bf bb 8a a2 3c
       0.024213357 -0.07316572 -0.7723195 0.019841542
000060 fa c6 b2 be 1f 9f 2b 3a 8e 3d b3 bd 40 f9 4c be
       -0.34917432 0.0006546843 -0.08751975 -0.20016956
000070 f8 fb d5 3e b5 b8 5f be 0c 22 1c bc 33 40 bd be
       0.417938 -0.21847804 -0.009529602 -0.36963043
000080 92 f4 ab 3c ad 32 5c bf 6c 31 25 be 59 09 12 bf
       0.020990644 -0.86014825 -0.16132134 -0.57045513
000090 1a 60 c4 bf 56 f4 33 bf d7 72 85 bf 45 46 82 be
       -1.5341828 -0.702947 -1.0425671 -0.25444236
0000a0 9d 86 c1 bd 04 25 c6 bd f3 1e 8d be ee 66 54 bd
       -0.094495036 -0.09675029 -0.27562675 -0.051855974
0000b0 39 c8 f8 be 51 28 9c 3d 80 6c 08 bf 11 78 8c be
       -0.48590258 0.07624877 -0.5329056 -0.27435353
0000c0 ff fe a1 3c 4d 44 7a bf 97 39 95 be bb 1a 03 bf
       0.019774912 -0.9776047 -0.291455 -0.5121266
0000d0 f8 ad 8c 3d 30 66 a2 be a9 54 1f be 49 16 31 3e
       0.068691194 -0.31718588 -0.15559639 0.17293657
0000e0 e7 2a c2 3e 8e 89 4e 3f a6 84 06 bf 4c 3c 4d bd
       0.37923357 0.8067864 -0.52546155 -0.05010633
0000f0 9e 0a 90 bd 22 56 84 bd b7 0d 67 bd 22 0f 82 bf
       -0.07033275 -0.06461741 -0.056409564 -1.0160868
000100 2b 58 5d bf 4e 76 27 3d 00 df 6b 3c 0d 49 5c 3d
       -0.8646266 0.04088431 0.014396429 0.053780604
000110 63 49 11 bf 61 1f 95 bd 19 47 89 bd 64 bf 7d bd
       -0.56752604 -0.07281376 -0.06703014 -0.061950102
000120 4d 9b b3 bf c0 eb 2d bf a4 64 6d bf 97 e4 c8 3c
       -1.4031769 -0.6793785 -0.9273169 0.024523063
000130 2b d6 a4 bc a1 16 26 bf 5a 07 9c 3e d2 e5 67 3e
       -0.020121654 -0.6487828 0.3047436 0.22646263
000140 1d 21 03 3b 5a f5 8a be 54 25 87 3f 91 ef 20 bd
       0.002000875 -0.27140313 1.0558267 -0.03929097
000150 e2 c2 65 3d 17 0c 89 bd 66 49 f1 be e2 a6 8d bf
       0.056094058 -0.06691759 -0.4712631 -1.1066554
000160 c8 a7 43 bf 80 d3 e2 be a2 df b5 3a ba 1e c9 c0
       -0.7642789 -0.44301987 0.0013875852 -6.285001
000170 30 a4 67 be 51 6f d4 be e0 fc 26 3e 47 f7 4e be
       -0.22621226 -0.41491178 0.16307402 -0.20211516
000180 5b f3 32 bd 4e 75 fc be e1 c8 6a bf 3e 60 5e bf
       -0.043689113 -0.49308246 -0.91712767 -0.86865604
000190 2f c8 58 3f 8b 92 99 3f 7f bb 8e bd 44 34 53 bf
       0.84680456 1.1997846 -0.06969356 -0.82501626
0001a0 84 ea 6d bf b4 6d 84 bd b3 c2 6e 3e 19 40 f0 3c
       -0.9293597 -0.06466237 0.2331646 0.02932744
0001b0 8d 15 0e be 94 35 9b 3d 68 c7 25 3c 34 51 60 bd
       -0.13875408 0.075785786 0.010118343 -0.05476494
0001c0 34 ab 6f bf cc 87 9e bd fd a7 86 be d8 c4 d7 bd
       -0.9362061 -0.07740745 -0.2630004 -0.10535592
0001d0 76 46 ac bf da bf ec 3d e4 d9 81 bd b2 d9 cd bc
       -1.3459003 0.1156003 -0.063403875 -0.02512822
0001e0 0d d0 b5 be 00 94 a1 be 4b 9c 7e bb 65 a5 f7 3c
       -0.35510293 -0.31558228 -0.0038850482 0.030230233
0001f0 47 88 65 be 10 b6 e9 bb 6c a7 aa bd db 75 ab be
       -0.22415267 -0.0071322992 -0.083327144 -0.33488354
000200 44 47 a0 bd a6 fc 21 3f fe 3b a9 be 48 97 a7 bf
       -0.07826093 0.63276136 -0.33053583 -1.3093042
000210 81 bf 07 bd 2a a2 47 bd a4 9d fd bd 6c 62 bb be
       -0.033141617 -0.048738636 -0.12383583 -0.36598527
000220 fb 8d 6d bd 48 ae c1 bd 32 1d f0 be bd 92 92 be
       -0.05799673 -0.0945707 -0.46897274 -0.28627577
000230 68 46 04 be 6e d3 1c be cc e3 7b be 74 79 99 be
       -0.12917483 -0.15315029 -0.24598616 -0.29975474
000240 d2 ac 76 3d 4b 3a 60 bf fc 03 16 bd c4 17 22 bf
       0.060223408 -0.8758895 -0.036624894 -0.63317513
000250 89 53 c5 bd 3e d2 b0 bd 70 95 18 3f 08 1c 4a bc
       -0.09635074 -0.086338505 0.59603024 -0.012335785
000260 6b 04 2d bd 29 76 9c 3d 15 89 9a 3c 7f ec 9d be
       -0.04224054 0.07639725 0.018864194 -0.30844495
000270 38 0c c2 be d5 78 c5 bd 66 65 2c 3d 94 18 af 3d
       -0.37899947 -0.096421875 0.04208889 0.0854961
000280 88 19 07 bd f2 63 3c bf 2d 1e 43 bf 85 41 95 3c
       -0.032983333 -0.73590004 -0.7621792 0.018219719
000290 91 67 b5 bd 3d c4 57 bd 1f 11 69 bf 97 95 fd bd
       -0.08857644 -0.05267738 -0.9104175 -0.123820476
0002a0 4d 59 6a 3d eb c1 d0 bd d8 0c 33 be 2c 13 bc 3c
       0.05721407 -0.10193237 -0.17485368 0.02295836
0002b0 68 87 f5 bd 49 23 4a bd 4c 84 36 be 7c ff 22 be
       -0.11988717 -0.049350057 -0.17823905 -0.15917772
0002c0 05 d8 54 3e 1b 0e 3b 3b f6 56 49 3f b6 e8 dc be
       0.2078553 0.0028542343 0.78648317 -0.43146294
0002d0 73 0d 8a bc b8 d8 98 3e cd d2 9f 3d 07 7b 6c 3e
       -0.016852116 0.29852843 0.07803879 0.23093806
0002e0 fe 67 ad bd ed 06 42 3e 4b 7c f2 3e 39 f6 a6 bd
       -0.084671006 0.18947954 0.47360453 -0.08152432
0002f0 a6 e9 49 3d db e0 93 bd a0 ff a8 3b 5d b6 87 be
       0.04929509 -0.07220622 0.005157426 -0.2650632
000300 3a c2 b2 3d 00 e3 ae b9 57 af 7b 3d 28 9e 43 3c
       0.08728452 -0.00033356994 0.061446514 0.011939563
000310 bb 20 72 bf ec 3a 71 3d 7f f7 6a bd bf 76 76 3c
       -0.9458119 0.058894083 -0.057364937 0.01504296
000320 56 d9 64 be d0 21 53 3d f8 4b 41 be 42 85 39 3d
       -0.22348532 0.051545918 -0.18876636 0.0452931
000330 03 2d 44 bd 46 2b d6 be ea ea bf 3e 26 18 9b 3e
       -0.04789449 -0.4182989 0.37483913 0.3029186
000340 e0 62 27 bc c8 87 47 be d1 5d 4f 3f 88 1f 8f bc
       -0.010216445 -0.1948539 0.8100253 -0.01747109
000350 c3 5d 9d 3d 6a 72 f9 bc 2f e8 32 bf 6b 7b 9e be
       0.07683899 -0.030450065 -0.69885534 -0.30953535
000360 69 9c 92 3d 01 af c0 be 0a 3e 4b 3d de 63 06 bf
       0.07158739 -0.37633517 0.049619712 -0.52496135
000370 1a 5e 02 be 1d e7 da be ec 3c 41 3e c4 f4 99 bc
       -0.1273121 -0.4275445 0.18870896 -0.018793471
000380 a3 d3 69 bd 99 96 f6 3d e8 4d d5 3e 2e 51 58 bf
       -0.057086598 0.12040443 0.41661 -0.8449887
000390 ec d8 70 3e 23 03 9d be 23 40 aa 3c c3 43 54 bf
       0.23520249 -0.30666456 0.020782536 -0.82915896
0003a0 2e 78 94 bf 8d 8d 7d bd 43 1f b2 be 85 fc f2 be
       -1.1599176 -0.06190257 -0.34789476 -0.47458282
0003b0 ea 93 38 bf 70 7a d2 bc 80 c2 e7 ba 6a 0f 68 3d
       -0.721007 -0.025693148 -0.0017681867 0.056655325
0003c0 38 c1 80 be 54 89 ab bd 9d 53 f1 bd 5d a5 ef bd
       -0.25147414 -0.08375803 -0.11783526 -0.117014624
0003d0 04 d0 9d 3e 6b 6f 47 3e 64 98 2b be 45 58 93 bd
       0.30822766 0.19476096 -0.16757351 -0.071945705
0003e0 6d c0 b5 3c 1e fa 65 bd de 80 66 bd 78 8d 06 bd
       0.022186482 -0.056146733 -0.05627524 -0.03284976
0003f0 15 6f 86 bd 3b 04 a4 3d f0 53 99 3b 0e 70 06 3e
       -0.06564156 0.080086194 0.0046791956 0.13128683

adv.0.bias f4 [64]
000000 ed d2 d0 bf 69 b1 cc bf 7b 61 2e bf be d3 f5 be
       -1.631437 -1.5991641 -0.68117493 -0.4801311
000010 c1 04 ae bf 07 9b 60 bf ff ef a2 bf c5 2e ec bf
       -1.3595201 -0.8773655 -1.2729491 -1.8451773
000020 46 2f 83 be 17 48 1a bf f1 1d 88 be ee 7d 9b bf
       -0.25622004 -0.6026625 -0.26585343 -1.2147806
000030 72 fe c9 be 95 62 83 be 0f 15 34 bf 9a f4 96 bf
       -0.3945194 -0.2566115 -0.7034463 -1.1793396
000040 ff cf c9 be 1e ca 03 c0 8b 16 4e bf 80 9f ad bf
       -0.394165 -2.0592113 -0.8050315 -1.35643
000050 d7 25 82 3d 0b db 11 bf 83 76 16 bf b0 19 e5 bf
       0.063548736 -0.5697486 -0.58774585 -1.7898464
000060 8b d5 d5 be 88 1e 28 bf ed 21 a3 be 47 b7 55 bf
       -0.41764483 -0.65671587 -0.3186182 -0.83482784
000070 5b 85 02 bf a5 23 18 bf b9 7f 3e c0 84 34 30 bf
       -0.50984734 -0.5942939 -2.9765456 -0.6883013
000080 4c a4 97 3e ff 33 89 be 3b 28 8d be 4c 2d f4 bf
       0.29617536 -0.26797482 -0.27569756 -1.9076324
000090 2f 2b a6 bf ac ba 4c bf 30 4d 40 3d 1f ac 36 be
       -1.2981929 -0.7997234 0.04694861 -0.17839096
0000a0 de 3d 33 bf 0e 2b 62 bd e9 4e 88 bf 4c 8e 1f be
       -0.70016277 -0.05521684 -1.0649081 -0.15581626
0000b0 7b 16 0f bf d6 a8 22 3e 00 5f b3 bf 82 31 c6 bf
       -0.5589368 0.15884718 -1.4013367 -1.5483859
0000c0 e0 1f de bf 48 7a 0e 3e ac b3 a1 3e 98 33 41 be
       -1.7353477 0.13913834 0.3158239 -0.18867338
0000d0 8e ac 09 bf 6b ec b2 bf 78 4a 23 bf 4b f1 ab be
       -0.5377892 -1.3978399 -0.63785505 -0.3358253
0000e0 0a 29 39 bf c1 c5 08 c0 9f 94 e7 be 41 19 af be
       -0.72328246 -2.13707 -0.45230576 -0.34198955
0000f0 c1 ca fc 3d 06 35 74 3e 1d 24 9d be 1f 0e 01 bf
       0.1234336 0.23848352 -0.30691615 -0.5041217

adv.2.weight f4 [2, 64]
000000 c4 d8 15 c0 52 dd 81 3f ef 9c 1c c0 ff 3a 27 bf
       -2.3413553 1.0145667 -2.4470785 -0.65324396
000010 cd 32 a9 be ca 88 15 bc 0f cd 8c 3f 96 96 0d c0
       -0.3304657 -0.009126851 1.1000079 -2.212316
000020 c0 c5 b8 3e 51 c8 a1 3f 26 f4 a2 bd 7c 75 bf bf
       0.3608837 1.2639257 -0.07956724 -1.4957728
000030 47 fc 6f 3f 48 41 1b 3e d3 58 73 bf a5 29 83 bf
       0.9374432 0.15161622 -0.9505741 -1.0247084
000040 5b 9f 7c be aa 4c 63 bf 06 d0 24 bf 3c fe 63 3f
       -0.24670164 -0.88788855 -0.6437992 0.89059806
000050 64 8e 4b bf ee 8c e7 3e 49 de 2d 3f 1a 32 68 bf
       -0.79514146 0.45224708 0.67917305 -0.9070145
000060 e4 c0 23 bf 30 f0 90 be 05 a0 88 be 34 1b 9e 3e
       -0.639662 -0.2830825 -0.26684585 0.3088013
000070 6f e7 39 3f ad d1 95 bf 12 d9 76 bf f6 01 9b bb
       0.72618765 -1.1704613 -0.96424973 -0.0047304584
000080 6c 9a 9d bf b4 4e 04 3d 5a 52 e4 be e3 fd be 3f
       -1.2312751 0.03230162 -0.4459408 1.492123
000090 17 df 04 c0 7a 71 fa 3f 11 60 b9 3e 34 3b 51 3f
       -2.0761163 1.956588 0.36206105 0.8173096
0000a0 a1 da e5 3e dd bf 3d be 57 e7 c3 bf 45 71 86 3d
       0.44893363 -0.18530221 -1.5304974 0.06564573
0000b0 dd 61 11 bf 22 f0 5d 3f 7c 44 46 bf 70 bb f2 3f
       -0.5678995 0.8669454 -0.7744825 1.8963451
0000c0 d8 11 4f c0 85 d0 f2 3f 73 34 45 3f 7b 40 3d ba
       -3.235464 1.8969885 0.77033156 -0.0007219386
0000d0 01 a3 10 bf 8c d9 45 3f 56 3d 2f 3d 60 0f da bd
       -0.56498724 0.77285075 0.042783104 -0.10647464
0000e0 e9 82 11 3f 0e f9 c2 3f c4 fc 4a bf 83 e1 38 3e
       0.5684038 1.5232255 -0.7929194 0.18054776
0000f0 f6 80 94 bf 10 d6 56 3e 7f 0b 90 bc 05 7a 72 bf
       -1.1601856 0.20980096 -0.017583607 -0.9471744
000100 78 a7 11 40 77 a5 7f bf cd af 20 40 d7 47 14 3f
       2.2758465 -0.99861854 2.51073 0.5792212
000110 3d 8e cb 3e 79 8a 6e 3d c1 ae 8c bf e8 83 12 40
       0.39756957 0.058237527 -1.0990831 2.289301
000120 8a ad 32 be bf f9 9d bf ae e9 82 bd 96 cc b0 3f
       -0.17449012 -1.2341841 -0.06392227 1.3812435
000130 4b 80 65 bf 08 7d 74 bd a7 4b 53 3f f7 96 69 3f
       -0.89648885 -0.05968955 0.8253731 0.9124598
000140 79 c4 2d 3e 72 1f 75 3f ec 26 03 3f f9 de 76 bf
       0.1696948 0.95751107 0.51231265 -0.9643398
000150 6e e8 1e 3f 9c 09 0b bf 27 4e 35 bf 92 ab 60 3f
       0.6207341 -0.5431154 -0.70822376 0.87761796
000160 2e 38 2f 3f 6f f6 7a 3e 64 42 5b 3d ee 5c c4 be
       0.684451 0.2450807 0.053530112 -0.3835215
000170 99 ce 2a bf c5 44 94 3f ef f0 51 3f e7 20 1d be
       -0.66721493 1.1583487 0.8200826 -0.15344582
000180 6a 6e 9a 3f a6 95 2b 3d 73 70 b8 3e a9 5c b5 bf
       1.2064946 0.041890763 0.36023292 -1.4168903
000190 5b d6 fc 3f fb 23 04 c0 e3 d8 ed be 1e e8 40 bf
       1.9752916 -2.064696 -0.46454534 -0.7535418
0001a0 19 93 dc be 21 b4 3b 3e 2f 91 c0 3f df 70 aa 3c
       -0.43080977 0.18330432 1.5044307 0.020805774
0001b0 73 55 e1 3e d4 cb 55 bf 24 75 5a 3f 8a c0 f1 bf
       0.44010505 -0.8351414 0.8533499 -1.8886883
0001c0 92 f9 50 40 1c e4 e2 bf 9f ca 4f bf f9 4d e7 3c
       3.2652326 -1.7725863 -0.8116855 0.028235422
0001d0 d1 7f 16 3f 9c d6 66 bf 7e 9d a7 bd cb b6 c2 3d
       0.5878878 -0.9017122 -0.08184336 0.09507521
0001e0 31 a6 22 bf 8a 93 c5 bf 08 e3 45 3f b1 c0 16 be
       -0.6353484 -1.543565 0.7729955 -0.14721943
0001f0 cb 93 86 3f 6e c4 11 be c7 71 9b 3c 3b 7a 82 3f
       1.0513853 -0.14235088 0.018975152 1.0193552

adv.2.bias f4 [2]
000000 61 07 d4 bd 63 50 39 bd
       -0.1035297 -0.04524268
