advanced_positive_run/checkpoints/ep_0100.pt (torch, 145855 bytes, 11 tensors)

feature.0.weight f4 [128, 16]
0	0x3f2d82fe	0.67778003
1	0xbf6ad4bb	-0.9173085
2	0xbf2be8c3	-0.6715204
3	0xbf502c27	-0.8131737
4	0xc00a5ce6	-2.16192
5	0x3f529a3e	0.82266605
6	0x3fa5520c	1.2915664
7	0x3f676a5e	0.9039668
8	0x3eee4eb0	0.4654441
9	0x3ecdd234	0.40199435
10	0xbf2c8ca7	-0.6740212
11	0xbf540ac1	-0.8282891
12	0xbcf22789	-0.029559867
13	0x3e9be628	0.30449033
14	0x40072e65	2.1122067
15	0xbfa044d7	-1.2521008
16	0x3e864951	0.2622781
17	0xbdbdfb74	-0.092764765
18	0xbee6cafe	-0.45076746
19	0xbe7ce630	-0.24697185
20	0x3eace203	0.33766183
21	0x3e6c3f88	0.2307111
22	0x3f22d597	0.6360716
23	0x3efbd4ee	0.4918589
24	0xbf5a0378	-0.8516154
25	0xbefb9057	-0.4913356
26	0xbe6c40c9	-0.23071589
27	0xbf1a07eb	-0.6016833
28	0xbeb587b5	-0.354551
29	0xbeca248a	-0.39481002
30	0x3e740a52	0.23832062
31	0xbf0351d8	-0.5129676
32	0xbeed3bd5	-0.4633471
33	0x3ea83527	0.32853052
34	0x3e86e7f7	0.2634885
35	0x3dd30c1e	0.103050455
36	0xbe61ac0c	-0.22038287
37	0x3e0eb4fa	0.13936225
38	0x3e699484	0.2281056
39	0x3ebd53d6	0.36978024
40	0x3e0bc835	0.13650592
41	0x3e1561a5	0.1458803
42	0x3f6bcde6	0.9211105
43	0x3f5795cd	0.8421295
44	0x3e316f41	0.17327596
45	0xbee5d676	-0.44890183
46	0xbee0eb9c	-0.43929756
47	0xbf112185	-0.5669177
48	0x3f11898d	0.5685051
49	0x3ee5734e	0.44814533
50	0x3f0e5b6c	0.5560825
51	0x3f47e7e4	0.7808821
52	0x3f9a2c07	1.2044686
53	0xbf0d311a	-0.5515305
54	0xbe0c0f63	-0.13677745
55	0xbe1d0e7e	-0.1533756
56	0x3f12149d	0.57062703
57	0x3f270d67	0.65254825
58	0x3ed90441	0.42386058
59	0x3e55d032	0.20880201
60	0x3f271b78	0.6527629
61	0xbf7303f8	-0.9492793
62	0x3e23a3b4	0.15980417
63	0xbee4d871	-0.44696382
64	0x3f199c09	0.60003716
65	0xbdfa9fa2	-0.12237479
66	0xbdde96c2	-0.108685985
67	0x3e346bab	0.17619197
68	0x3f694b06	0.911301
69	0xbd3f9292	-0.04677064
70	0xbe3ddab4	-0.1854046
71	0x3e105103	0.14093404
72	0x3f5103b7	0.81646293
73	0x3f23171d	0.63707143
74	0xbd2c9517	-0.04213437
75	0xbd266357	-0.04062208
76	0x3e61f52d	0.22066183
77	0xc0a8d7cb	-5.276342
78	0x3f03f4a5	0.5154517
79	0x3d8a1972	0.067431346
80	0x3ed0e87a	0.40802366
81	0x3ee3825b	0.4443539
82	0x3e3f4040	0.18676853
83	0x3ea09ee9	0.3137124
84	0xc03cb90a	-2.948794
85	0x3f53d9bb	0.82754105
86	0x3f72dc57	0.9486746
87	0x3f8a6bdf	1.081417
88	0xbec79ed6	-0.3898837
89	0xbe9879a4	-0.29780304
90	0x3e2c6409	0.16835035
91	0x3e9021d7	0.28150818
92	0x3ebdca08	0.370682
93	0x3e86eab5	0.26350942
94	0x3f94c57f	1.1622771
95	0xbeedb845	-0.4642965
96	0x3ef114aa	0.47086078
97	0xbeb5401f	-0.35400483
98	0xbe661e83	-0.22472577
99	0xbe0bc354	-0.1364873
100	0xbe9e22c3	-0.30885896
101	0xbcfb85e1	-0.030703487
102	0x3e0d7318	0.13813436
103	0x3e17f20a	0.14838424
104	0x3e3ab738	0.18233955
105	0x3e43a670	0.1910646
106	0x3ea71111	0.32630208
107	0x3dfb8d75	0.1228284
108	0x3e400085	0.18750198
109	0xbf0fd048	-0.56177187
110	0x3e008378	0.12550151
111	0xbf2572ff	-0.64628595
112	0x3f3a27a7	0.72716755
113	0x3e454d1a	0.19267693
114	0x3e8dab0d	0.27669564
115	0x3e87afc0	0.26501274
116	0xbff71e7f	-1.9306182
117	0xbee3e2a9	-0.44508865
118	0xbef667f7	-0.48126194
119	0xbeee6bed	-0.46566716
120	0x3ed5ef6b	0.41784224
121	0x3f3765a5	0.7163947
122	0xbf7ac99c	-0.9796388
123	0xbf94c006	-1.1621101
124	0xbf1f97ac	-0.6234081
125	0xbf0f3ffe	-0.5595702
126	0xbf9b3fe6	-1.2128875
127	0x3e1558de	0.14584681
128	0xc035b8f2	-2.8394132
129	0xbca0c721	-0.019626202
130	0x3cecb3cb	0.028894326
131	0xbe0b4184	-0.13599211
132	0x3f8b45a6	1.088063
133	0xc032a81a	-2.79151
134	0xc04704ac	-3.1096601
135	0xc042cef4	-3.0438814
136	0x3f0bca3b	0.54605454
137	0x3f1285f7	0.57235664
138	0x3f27c650	0.65536976
139	0x3f382cfe	0.7194365
140	0xbe87c941	-0.26520732
141	0x3ebea0b1	0.37231973
142	0x3f4d1019	0.8010269
143	0x3dab523f	0.083652966
144	0xbfbfa851	-1.4973241
145	0x3f523650	0.82114124
146	0x3f26aafc	0.6510465
147	0x3f3f2092	0.74659073
148	0x3fc6beb6	1.552695
149	0xbe12dd54	-0.14342242
150	0xbe007384	-0.12544066
151	0xbde06cca	-0.1095825
152	0x3f102b93	0.5631649
153	0x3ec2dc7e	0.38058847
154	0xbea17ab8	-0.3153894
155	0xbf1b2830	-0.60608196
156	0x3f08c6de	0.5342845
157	0xbe544480	-0.20729256
158	0x3e03c377	0.12867533
159	0xbe8a0128	-0.26954007
160	0x3f8dc314	1.1075158
161	0xbf7d1cd9	-0.98872143
162	0xbf6aed5b	-0.91768426
163	0xbf9fee67	-1.249463
164	0xbe7d86a7	-0.24758397
165	0xbf0303be	-0.51177585
166	0xbee923e2	-0.4553519
167	0xbeb83d76	-0.3598439
168	0x3e1dea48	0.15421402
169	0x3dac9a30	0.084278464
170	0xbee89235	-0.45424047
171	0xbf08df84	-0.5346606
172	0xbe5bb134	-0.21454316
173	0xbfa8d1f6	-1.3189075
174	0xbf4589b0	-0.7716322
175	0x3c86f9e6	0.016476583
176	0xbe76d8a9	-0.24106087
177	0xbcd30711	-0.025760205
178	0xbe00ae31	-0.12566449
179	0xbd0c6f96	-0.034286104
180	0x3fbf0dcd	1.4926087
181	0x3e64ed66	0.22356185
182	0x3dfd374a	0.12364061
183	0xbd54a5f8	-0.051916093
184	0xbdb6caf6	-0.089254305
185	0xbe8350aa	-0.2564748
186	0xbe0532ac	-0.13007611
187	0xbe0163d4	-0.12635738
188	0x3ec402f8	0.38283515
189	0xc0287d16	-2.6326346
190	0x3f04b105	0.5183261
191	0xbe45ca30	-0.1931541
192	0x3ebd6860	0.36993694
193	0x3ee390ab	0.4444631
194	0x3ea34123	0.31885633
195	0x3f01e643	0.50741976
196	0xc0156167	-2.33407
197	0xbe3266b7	-0.17421995
198	0xbec36878	-0.3816564
199	0xbebbb7de	-0.36663717
200	0x3f1c1683	0.6097185
201	0x3f151e67	0.58249515
202	0x3f0dfdc7	0.5546536
203	0x3eb4bfc8	0.35302567
204	0x3f1d7918	0.615129
205	0xbe177a8c	-0.14792842
206	0x3f09e288	0.53861284
207	0xbf7c814e	-0.98634803
208	0xbc9b4051	-0.018951567
209	0x3f7cb4f1	0.98713595
210	0x3f44facb	0.7694518
211	0x3f0411e9	0.5158983
212	0x3f861d22	1.0477641
213	0xbeac9eed	-0.33715
214	0xbddf652e	-0.1090797
215	0xbe95aad5	-0.29231897
216	0x3e814e58	0.25255084
217	0x3ee0f0f6	0.4393384
218	0x3e719e3c	0.23595518
219	0x3ee836aa	0.45354205
220	0x3f3a0302	0.7266084
221	0xbecdb9bf	-0.40180776
222	0xbf0f5fa7	-0.5600533
223	0x3cdce112	0.02696279
224	0xbfa09e1e	-1.2548254
225	0x3f43ccb2	0.76484215
226	0x3f09c22e	0.5381192
227	0x3f0c4e10	0.54806614
228	0xbfa7b7c8	-1.310296
229	0xbee55fcc	-0.4479965
230	0xbf3f2658	-0.7466788
231	0xbf1816c9	-0.5940977
232	0xbf64c1b5	-0.89358073
233	0xbf7c18bf	-0.9847526
234	0x3e2fa94d	0.17154427
235	0x3e9dca55	0.3081843
236	0x3ee65d29	0.4499295
237	0xbebdc08d	-0.37060967
238	0x3e58c5ae	0.21169159
239	0xbe3c2ea4	-0.18377167
240	0x400c3755	2.1908772
241	0xbe9a65a0	-0.3015566
242	0xbe3e63cf	-0.18592761
243	0xbe17314f	-0.14764903
244	0xc017779c	-2.3666754
245	0x3eaf108d	0.34192315
246	0x3f094780	0.53624725
247	0x3eb9bc23	0.3627635
248	0x3f2e5efc	0.68113685
249	0x3f5bdbd2	0.85882294
250	0xbf8cadb1	-1.0990506
251	0xbf710f08	-0.9416356
252	0x3f128e73	0.5724861
253	0xbdeb08ec	-0.11476311
254	0x3b85ea27	0.004086751
255	0xbe61f3d2	-0.22065666

feature.0.bias f4 [128]
0	0xbda0fcac	-0.07860693
1	0xbe838908	-0.25690484
2	0xbeb44db6	-0.3521554
3	0x3f373df9	0.7157894
4	0x3faa1898	1.3288755
5	0x3f6db7e9	0.9285875
6	0xbf09147b	-0.53546876
7	0x3f9f58c9	1.244897
8	0x3f88a0df	1.0674094
9	0xbcf58d79	-0.029974686
10	0xbf0f695c	-0.5602014
11	0x3fac1287	1.3443154
12	0x3e8f897d	0.28034583
13	0x3e601da5	0.21886308
14	0x3e71b429	0.23603882
15	0xc00a98e5	-2.165582
16	0xbfa57f66	-1.2929504
17	0x40011009	2.0166037
18	0x3fe07617	1.7536038
19	0x3e8f3383	0.27968988
20	0x3f517a64	0.8182738
21	0x3fde0fdd	1.7348591
22	0x3fb2e1f2	1.3975203
23	0xbf0bab41	-0.5455819
24	0xbe54a16a	-0.207647
25	0x3f36f1f6	0.71462953
26	0xbd746da0	-0.05967486
27	0xbf996a60	-1.1985588
28	0x3f88ebd7	1.0696973
29	0xbed3d75c	-0.41375244
30	0x3f694196	0.911157
31	0xbef2c431	-0.47415307
32	0xbec4966f	-0.38396022
33	0xc00a1126	-2.1572967
34	0xbfad0895	-1.3518244
35	0xbd607557	-0.054799404
36	0x3ef9431a	0.48684007
37	0x3ff44362	1.9083064
38	0x3f1d635b	0.6147973
39	0xbd8ee001	-0.06976319
40	0xbf5cb9d9	-0.8622108
41	0x3fd2bdd1	1.6464177
42	0xbf1e16d2	-0.6175357
43	0x3fad96b0	1.3561611
44	0xbe1e49c7	-0.15457831
45	0xbf21ae88	-0.6315694
46	0xc02b0bc0	-2.6725922
47	0x3f3b66e6	0.73203886
48	0x3f7ed944	0.9955027
49	0xc0175c42	-2.365006
50	0x3f1cdb5a	0.61272204
51	0xbefdb630	-0.4955306
52	0xbf2199fd	-0.6312559
53	0xbeb2a5a3	-0.34891996
54	0x3f4fd29e	0.8118075
55	0x3f351a5e	0.7074336
56	0xbddca19e	-0.107730135
57	0xbed48376	-0.41506547
58	0x3bfe5f86	0.007762852
59	0xbec7a99b	-0.38996586
60	0xbf70ff7e	-0.9413985
61	0xbc334e60	-0.010943979
62	0x3edf60ef	0.43628642
63	0x3f5b3c75	0.85639125
64	0xbfe774ab	-1.8082479
65	0xbff4e94b	-1.9133695
66	0xbf9d9a1a	-1.2312653
67	0xbbdd8822	-0.006760613
68	0x3f4ff523	0.81233424
69	0x3f712fac	0.94213367
70	0x3cbed4e8	0.023294881
71	0x3f8255e9	1.0182468
72	0xbedd70e6	-0.43250197
73	0xbf5216cd	-0.8206604
74	0xbfc0ca18	-1.5061674
75	0xbfd15f73	-1.6357254
76	0x3f520d9c	0.82052016
77	0xbfd63d7e	-1.6737516
78	0xc0162f70	-2.3466454
79	0x3f207f38	0.6269412
80	0xbbb51fb3	-0.0055274605
81	0xbfdbb550	-1.7164707
82	0x3ddd555e	0.10807298
83	0x3e0a202b	0.13488834
84	0xbe723889	-0.23654379
85	0xbf143c19	-0.579042
86	0x3eb21c67	0.34787294
87	0xbeed7fdf	-0.4638662
88	0xbb431e2b	-0.002977262
89	0xbfa49e57	-1.2860821
90	0xbe505174	-0.20343572
91	0xbf60f7d9	-0.87878186
92	0xbf04a0cf	-0.51807874
93	0xbf25d236	-0.6477388
94	0xbf255c3c	-0.64593863
95	0x400117aa	2.0170693
96	0xbebaa3fa	-0.3645323
97	0xbf83a370	-1.0284252
98	0x3e897812	0.2684942
99	0xbf0c9cb1	-0.5492659
100	0x3fa32715	1.2746302
101	0xbf1928f5	-0.5982812
102	0xc0400760	-3.0004501
103	0xbf5879b6	-0.84560716
104	0xbf8f2c3a	-1.1185372
105	0xbf76e71b	-0.9644639
106	0x3efc1b15	0.49239412
107	0x3ef74fa3	0.48302945
108	0x3e812a53	0.25227603
109	0xbd947067	-0.072480015
110	0x3ee3f7d5	0.44525018
111	0xbf70fd68	-0.9413667
112	0xbf9fdd8e	-1.2489488
113	0x3e9a6c36	0.30160683
114	0x3ebb8cee	0.36630958
115	0x40013d43	2.019364
116	0x3e077b7a	0.13230696
117	0x3f384bf5	0.719909
118	0xbd1565b0	-0.03647393
119	0x3f813d7b	1.0096887
120	0xc01300d6	-2.296926
121	0x3f563aa3	0.8368322
122	0xbf80dac0	-1.0066757
123	0xbd9584f6	-0.07300751
124	0x3fb2fcf9	1.3983451
125	0xbf1393de	-0.576475
126	0x3f3c1a8b	0.73478
127	0xbf82fef7	-1.0234059

feature.2.weight f4 [128, 128]
0	0xbdbf4072	-0.09338464
1	0xbf3d0816	-0.73840463
2	0xbdb0492d	-0.08607707
3	0x3d55f48f	0.052235182
4	0xbea41b5c	-0.32052124
5	0x3ddbae0f	0.107265584
6	0xbd503d9d	-0.05084001
7	0xbf864fce	-1.0493104
8	0x3c6beff5	0.014400472
9	0xbe82932e	-0.25502914
10	0xbe09a78f	-0.13442825
11	0xbe889cd9	-0.26682165
12	0x3e077926	0.13229808
13	0xbd853b65	-0.06505469
14	0x3c0b3ba1	0.008498103
15	0x3c86c877	0.016453011
16	0x3da136c6	0.07871775
17	0xbd91c696	-0.071179554
18	0x3f2876e3	0.65806407
19	0xbe64d36b	-0.22346275
20	0x3f5e09b2	0.86733544
21	0xbe6c3211	-0.23065974
22	0xbfa57295	-1.2925593
23	0x3b705eac	0.0036677523
24	0xbeb2f90e	-0.3495564
25	0xbcd34d9a	-0.02579384
26	0x3c585a68	0.013205148
27	0x3ccc6ac7	0.02495326
28	0x3d01bd6c	0.031674787
29	0xbca86326	-0.02055509
30	0xbf15b2da	-0.5847603
31	0x3e91c6f0	0.2847209
32	0x3de17c24	0.11010006
33	0xbf06aff5	-0.5261224
34	0xbe604c55	-0.21904118
35	0xbd364955	-0.04450353
36	0xbdad3288	-0.08456904
37	0xbea36ba7	-0.3191807
38	0x3d8726c5	0.065991916
39	0x3d70072a	0.058600582
40	0xbdfdbdcd	-0.12389717
41	0xbe359cce	-0.17735597
42	0xbe8a2d62	-0.2698775
43	0xbdc36a65	-0.095417775
44	0xbd2bbf18	-0.041930288
45	0xbd893894	-0.067002445
46	0x3d45425b	0.048158985
47	0xbe2d8607	-0.16945659
48	0xbe78c14a	-0.24292484
49	0xbbc26835	-0.0059328326
50	0x3dcc4f9b	0.09976121
51	0xbec8961e	-0.3917703
52	0x3d69b5f4	0.05705829
53	0x3d181e4b	0.037138265
54	0xbe05fbaf	-0.13084291
55	0xbd9d5bc0	-0.076835155
56	0xbe54a35f	-0.20765446
57	0xbf1dd02c	-0.6164577
58	0x3e0e146f	0.13874982
59	0xbe514ecc	-0.20440215
60	0x3e071402	0.13191226
61	0xbd46e495	-0.048557837
62	0xbe5196e6	-0.2046772
63	0x3e0b50ae	0.13604996
64	0xbe37823c	-0.17920774
65	0xbeaa40b5	-0.33252493
66	0xbde8c0ea	-0.113649204
67	0x3c381a3d	0.011236724
68	0xbe8e3dc2	-0.27781492
69	0xbe73a898	-0.23794782
70	0xbe807d61	-0.25095657
71	0xbf53f5cd	-0.8279694
72	0x3dcd235c	0.1001651
73	0xbe52a86e	-0.20572063
74	0x3dd94fed	0.10610948
75	0xbf03b7f7	-0.51452583
76	0xbf2f9e70	-0.6860113
77	0xbe903c1a	-0.28170854
78	0xbdb4a30f	-0.088201635
79	0x3ed6452c	0.4184965
80	0xbe9e690b	-0.30939516
81	0xbe34c74e	-0.17654154
82	0x3dcef13a	0.10104604
83	0x3d13cbdb	0.036083084
84	0x3ef20899	0.47272184
85	0xbecc572d	-0.3991026
86	0xbf8504e1	-1.0392114
87	0xbf33100c	-0.6994636
88	0xbb20972f	-0.0024504175
89	0x3e9a879a	0.3018158
90	0x3e172a5b	0.14762251
91	0xbe12c680	-0.14333534
92	0xbf60a57d	-0.87752515
93	0xbda167b7	-0.0788111
94	0xbe380fa7	-0.17974721
95	0x3f0a28e5	0.5396865
96	0xbe1115eb	-0.14168517
97	0x3e669815	0.22518952
98	0xbe50c5b8	-0.20387924
99	0xbe9ec3bf	-0.31008717
100	0xbe17e65a	-0.14833966
101	0x3e27c3b2	0.16383246
102	0x3ca07ec4	0.019591697
103	0xbe1c7f81	-0.15283014
104	0xbf170877	-0.5899729
105	0xbe079d57	-0.13243614
106	0xbf11bf9c	-0.56933
107	0x3b31c0ed	0.002712305
108	0x3e7db0d0	0.2477448
109	0x3d93dffe	0.072204575
110	0x3d495be8	0.049159914
111	0xbf43b5ca	-0.76449263
112	0xba9bd3db	-0.0011888699
113	0xbe83eb2e	-0.25765365
114	0xbf85929b	-1.0435365
115	0x3c997407	0.018732084
116	0xbf1bc34f	-0.6084489
117	0xbe6d4c7a	-0.23173705
118	0xbdb40a3c	-0.087910146
119	0x3c39889b	0.011324073
120	0xbe895895	-0.26825395
121	0xbff26dbd	-1.893974
122	0xbecda6c6	-0.401663
123	0x3e4c1b68	0.1993233
124	0x3f37a06b	0.71729153
125	0xbd831499	-0.06400413
126	0x3f0967c0	0.53673935
127	0xbd300ca8	-0.04298082
128	0xbe752ff5	-0.23944075
129	0x3d0eb312	0.034838744
130	0x3e269046	0.16265973
131	0x3ed37c0a	0.41305572
132	0x3c4a9938	0.012365632
133	0xbe39d88d	-0.18149014
134	0xbdfad8ec	-0.12248406
135	0x3e63979d	0.22225805
136	0xbf29df30	-0.6635618
137	0xbda28a2f	-0.07936513
138	0xbedbcadf	-0.42928216
139	0x3e3ddf72	0.18542269
140	0xbdfda5e4	-0.12385157
141	0x3e5839d4	0.2111581
142	0x3d82f91b	0.06395169
143	0x3d236d1f	0.039898988
144	0xba968a80	-0.0011485368
145	0xbe2bd342	-0.16779807
146	0xbe76c4af	-0.24098466
147	0x3f00f937	0.5038027
148	0xbe159132	-0.14606169
149	0xbe818831	-0.25299218
150	0xbe771303	-0.24128346
151	0xbe38ab6d	-0.18034144
152	0xbe988972	-0.29792362
153	0xbdf14668	-0.11781007
154	0x3d33c256	0.043886505
155	0xbe47b44b	-0.1950237
156	0xbe4aa3db	-0.19789068
157	0xbf135635	-0.57553416
158	0xbdad3807	-0.08457952
159	0xbd9429a6	-0.07234506
160	0xbe9d1dbd	-0.3068675
161	0xbea0e8cf	-0.3142762
162	0xbe35a7d8	-0.17739809
163	0x3c62807b	0.013824577
164	0x3e99f529	0.30069855
165	0x3d99df6c	0.075133175
166	0xbed12375	-0.40847364
167	0xbe42d340	-0.19025898
168	0xbe1eb4fa	-0.15498725
169	0xbf309cd5	-0.68989307
170	0xbdff19bb	-0.124560796
171	0xbe388494	-0.18019325
172	0x3d98df1a	0.07464428
173	0xbfafe965	-1.3743101
174	0x3e2714a7	0.16316472
175	0xbe900751	-0.28130582
176	0xbd7ee8ac	-0.062233612
177	0x3d15b544	0.03654982
178	0x3e410d18	0.18852651
179	0xbeb42bf3	-0.3518978
180	0xbd195bd7	-0.0374411
181	0x3ca95325	0.02066953
182	0xbd4f0d85	-0.050550003
183	0xbd991745	-0.074751414
184	0xbd1838fd	-0.037163723
185	0x3d08954e	0.033345513
186	0x3e502772	0.20327547
187	0xbdcaf301	-0.099096306
188	0xbdc12fcc	-0.09432945
189	0xbc0d2690	-0.008615151
190	0xbda20d71	-0.0791272
191	0xbca49110	-0.020088702
192	0x3dfb98a4	0.12284973
193	0x3ecf56e4	0.4049598
194	0xbd62580b	-0.055259746
195	0xbd9e3cf8	-0.077264726
196	0x3ef1c967	0.4722397
197	0xbcaa5860	-0.020794094
198	0xbea9ba10	-0.33149767
199	0x3d5871d9	0.05284295
200	0xbf0e1282	-0.5549699
201	0xbd2f8e87	-0.042860534
202	0xbcbd245b	-0.023088625
203	0x3f3dcaab	0.7413737
204	0x3ccf6355	0.02531592
205	0xbce65aaf	-0.028119413
206	0x3dbdb849	0.09263665
207	0xbdb10df7	-0.08645242
208	0x3e5b31ab	0.21405666
209	0xbf7d45ae	-0.9893445
210	0xbf0ecc2a	-0.5578028
211	0xbc8c6ee9	-0.01714273
212	0x3ea8b330	0.3294921
213	0xbf47b57a	-0.78011286
214	0xbec2e37f	-0.3806419
215	0xbd7ea8cc	-0.062172696
216	0xbd1ed02e	-0.038772754
217	0xbd05b90d	-0.03264718
218	0x3db5b337	0.08872073
219	0xbd04d676	-0.03243109
220	0x3f461a60	0.77383995
221	0xbe3204b3	-0.17384605
222	0x3c862c4d	0.016378546
223	0xbe3dcb28	-0.18534529
224	0xbedba8dc	-0.42902267
225	0xbf025989	-0.5091787
226	0xbdd6c17f	-0.10486125
227	0xbf0683ff	-0.5254516
228	0xbe317b59	-0.1733221
229	0xbf586864	-0.8453429
230	0x3dc4bfd5	0.096069016
231	0x3deaa876	0.114579126
232	0xbceadb81	-0.02866912
233	0xbe840f54	-0.25792944
234	0xbd89a00b	-0.06719979
235	0xbed46531	-0.41483453
236	0x3dfae636	0.122509405
237	0x3d9d58bb	0.076829396
238	0xbe4e1d41	-0.20128347
239	0xbd0df0e9	-0.034653578
240	0xbe75461b	-0.23952524
241	0xbe1879f0	-0.14890265
242	0xbe3ddc7a	-0.18541136
243	0xbe58515e	-0.21124789
244	0x3e077571	0.13228394
245	0x3d99e37c	0.07514092
246	0xbba44a30	-0.0050137267
247	0xbf1ec7b1	-0.62023455
248	0xbe7a8304	-0.24464041
249	0x3e1a83c3	0.15089326
250	0xbd8b2c1a	-0.06795521
251	0xbf37d757	-0.7181296
252	0xbe5c4b1f	-0.21513031
253	0xbf63594a	-0.8880812
254	0xbe57a52a	-0.21059099
255	0xbf0361fe	-0.513214

feature.2.bias f4 [128]
0	0xbe1cf726	-0.15328655
1	0xbe02d228	-0.12775481
2	0x3f5f7bf9	0.8729854
3	0x3fbfe200	1.4990845
4	0xbb881768	-0.004153181
5	0xbd40542c	-0.046955273
6	0x3c9596ea	0.018260438
7	0x3f1431a2	0.57888234
8	0x3e77a3f8	0.24183643
9	0xbe6e43c7	-0.23268043
10	0x3ee1297f	0.43976972
11	0x3e25bfe0	0.16186476
12	0x3e267d00	0.16258621
13	0xbeae2b30	-0.34017324
14	0xbe358969	-0.17728199
15	0x3cd12399	0.02552967
16	0xbca3bc4e	-0.019987252
17	0xbec6074d	-0.38677445
18	0xbd33d66a	-0.043905653
19	0x3f8b28d7	1.0871838
20	0xbe2decc7	-0.16984855
21	0xbe11610d	-0.14197178
22	0xc00551ad	-2.08311
23	0xbe043d41	-0.12913992
24	0xbe29b81f	-0.16574143
25	0xbe011a4c	-0.12607688
26	0xbe1d9d78	-0.15392101
27	0xbeba599d	-0.36396495
28	0xba84933c	-0.001011468
29	0x3f2c2b3f	0.6725349
30	0xbe2a2c11	-0.16618372
31	0x3ebc9443	0.36831865
32	0xbb22bd21	-0.0024831968
33	0x3ef0d814	0.47039855
34	0x3e283edc	0.16430229
35	0xbd94bebf	-0.072629444
36	0x3ecf048a	0.4043315
37	0x3eb5de96	0.35521382
38	0x3e77271a	0.2413601
39	0x3e63c47c	0.22242922
40	0xbe01b038	-0.12664878
41	0x3d998950	0.074968934
42	0x3d7fd140	0.062455416
43	0xbddd8888	-0.10817057
44	0x3e649887	0.2232381
45	0xbe1aa5d4	-0.15102321
46	0xbea7ad76	-0.32749528
47	0x3d0f0515	0.034916956
48	0xbffa1d9a	-1.9540284
49	0xbea15933	-0.31513366
50	0xbfc18b14	-1.5120568
51	0xbf5457db	-0.82946557
52	0xbd8d8d88	-0.069117606
53	0x3edbe7f3	0.429504
54	0x3d9deafa	0.07710834
55	0x3ece6254	0.40309393
56	0xbd493d18	-0.04913053
57	0xbeeb0c0b	-0.45907626
58	0x3da7878a	0.08180149
59	0xbe2b1052	-0.16705444
60	0xbd548526	-0.051884793
61	0xbd461db7	-0.048368182
62	0xbd2dafe9	-0.04240409
63	0x3f91e0b0	1.1396694
64	0x3e7296c8	0.23690331
65	0xbdf02b39	-0.11726994
66	0xbe40e6d2	-0.18838051
67	0xbd97db2e	-0.07414852
68	0xbe4b3311	-0.19843699
69	0xbbeb15ab	-0.007174214
70	0xbe170db9	-0.14751329
71	0xbe1fe169	-0.15613331
72	0x3e69ba52	0.22824982
73	0xbf22ce18	-0.63595724
74	0x3e990652	0.29887635
75	0xbd568afd	-0.052378643
76	0xbe0cd0e8	-0.13751566
77	0x3d179110	0.037003577
78	0x3ea93b78	0.33053184
79	0xbe1232c4	-0.14277178
80	0x3f0a048d	0.53913194
81	0x3e55731d	0.20844693
82	0xbee3d278	-0.44496512
83	0xbd9d067e	-0.07667254
84	0xbdd712a1	-0.105016
85	0xbda6d39b	-0.08145829
86	0x3eec5949	0.4616187
87	0x3e813260	0.25233746
88	0xbe6e4f46	-0.23272428
89	0xbf13ab15	-0.57682925
90	0xbd23b52a	-0.039967693
91	0x3db1de75	0.086850084
92	0xbd25e08f	-0.04049736
93	0x3f618467	0.88092655
94	0xbf71540b	-0.94268864
95	0xbcf08553	-0.029360449
96	0xbe1f54d4	-0.15559703
97	0xbd0a7013	-0.03379829
98	0x3e8a5ecb	0.27025446
99	0x3f20ccce	0.6281251
100	0xbd502e41	-0.05082536
101	0xbf05e860	-0.523077
102	0x3f3303cf	0.69927686
103	0x3f2074bc	0.6267812
104	0x3f8825c6	1.0636528
105	0xbdef2226	-0.11676435
106	0x3ec79939	0.38984087
107	0xbe2abf53	-0.16674547
108	0x3efbdf05	0.49193588
109	0x3b9068ad	0.0044070096
110	0xbd689b12	-0.05678851
111	0xbe1639c2	-0.1467047
112	0x3f211354	0.6292012
113	0xbdf91b03	-0.12163355
114	0xbee99777	-0.4562337
115	0x3cc6c81a	0.024265338
116	0x3e801d6f	0.25022456
117	0x3e148836	0.14505085
118	0x3f0e8bdf	0.55682176
119	0xbb8ebd62	-0.0043560723
120	0xbd38c970	-0.04511398
121	0x3efea77c	0.49737155
122	0xbda92861	-0.08259655
123	0xbdc45f46	-0.095884845
124	0x3e45ca74	0.19315511
125	0xbe1326cd	-0.1437027
126	0xbc01d44f	-0.0079241535
127	0xbf175e5f	-0.59128374

value.0.weight f4 [64, 128]
0	0x3f207cdc	0.6269052
1	0xbc14b1a5	-0.009075557
2	0xbf89c0eb	-1.0761999
3	0xbf83e106	-1.0303047
4	0xbca5fa72	-0.020261023
5	0xbdb5fb51	-0.088858254
6	0xbe0d8dfc	-0.13823694
7	0xbf370a39	-0.71499974
8	0xbf3d9623	-0.74057215
9	0x3d34c669	0.04413453
10	0xbe8de1b6	-0.27711266
11	0x3b35f9d5	0.002776732
12	0xbf2fc62a	-0.6866175
13	0xbd968220	-0.07349038
14	0xbf24c5a2	-0.64364064
15	0xbf389638	-0.72104216
16	0xbbff7892	-0.0077963555
17	0xbf5fad05	-0.8737338
18	0x3c81896a	0.015812594
19	0xbf847d86	-1.0350807
20	0xbec8128e	-0.39076656
21	0xbda11313	-0.07864966
22	0xbfcf04e9	-1.6173373
23	0xbb957900	-0.0045615435
24	0xbce2c119	-0.027679967
25	0xbc84e0ba	-0.01622044
26	0x3da8f2ec	0.08249459
27	0xbed053e7	-0.40689012
28	0xbc8aaba0	-0.01692754
29	0xbd16265b	-0.036657672
30	0x3c069700	0.008214712
31	0xbe8918b5	-0.26776662
32	0xbd78dacc	-0.060755536
33	0xbfbb40e9	-1.4629184
34	0xbde9271e	-0.11384414
35	0xbda05baf	-0.07829987
36	0xbc570fdd	-0.013126341
37	0xbf6532b0	-0.8953047
38	0xbfa0c041	-1.2558671
39	0xbe49e612	-0.19716671
40	0xbe2285f5	-0.15871413
41	0xbeae8905	-0.34088913
42	0xbeee15a3	-0.46500883
43	0xbd6e4dc2	-0.058179624
44	0xbf112b44	-0.56706643
45	0xbdcd664d	-0.10029278
46	0xbcaeb6af	-0.021327345
47	0x3d84cf4a	0.0648485
48	0x3cfec8d4	0.031101622
49	0xbee0a4e3	-0.438758
50	0xbf581c4d	-0.84418184
51	0xbe8c76ee	-0.27434486
52	0xbc971070	-0.018440455
53	0xbeaf2372	-0.3420673
54	0xbeb7c5d4	-0.35893118
55	0xbfe06969	-1.7532169
56	0xbf3c8297	-0.73636764
57	0x3fc1944b	1.512338
58	0xbf064b92	-0.5245906
59	0x3d158012	0.03649909
60	0x3d144cf4	0.0362062
61	0x3a877480	0.0010334402
62	0x3d520952	0.05127842
63	0xbf8c68c8	-1.0969477
64	0xbe61a528	-0.22035658
65	0x3d92076b	0.07130321
66	0x3d642c4a	0.0557063
67	0x3c8c4954	0.01712481
68	0xbe586621	-0.21132709
69	0x3d13c68b	0.036078017
70	0x3dcb71a2	0.09933783
71	0xbddcaa77	-0.10774701
72	0xbeb1de4d	-0.34739915
73	0x3ee4d0b1	0.4469047
74	0xbf4d0549	-0.8008619
75	0xbd009d39	-0.03139994
76	0xbe479ad6	-0.19492659
77	0xbeb3b480	-0.35098648
78	0xbeb54b5c	-0.35409057
79	0x3d86799a	0.065661624
80	0xbe0b441a	-0.13600197
81	0xbc19318e	-0.009350194
82	0x3f594bf8	0.84881544
83	0x3d76fffc	0.06030272
84	0x3ccf6a1a	0.025319148
85	0xbd48f0d3	-0.049057793
86	0xbeaf660b	-0.3425754
87	0xbe2838f8	-0.16427982
88	0xbe6e1d45	-0.23253353
89	0x3e4dbc13	0.20091276
90	0xbc86760f	-0.016413717
91	0x3ec72e3d	0.38902465
92	0xbeb6bc48	-0.35690522
93	0x3c90da98	0.017682359
94	0x3ea0df91	0.31420568
95	0xbed5374a	-0.41643745
96	0x3c68963f	0.014195978
97	0x3eca3506	0.3949358
98	0x3eac9374	0.33706248
99	0xbd3a8685	-0.045538444
100	0xbebf2086	-0.373295
101	0xbe7e94c1	-0.24861433
102	0xc000c17e	-2.0118098
103	0xbf5ba88f	-0.85804075
104	0xbe12a9d1	-0.14322592
105	0x3ccdc12c	0.025116526
106	0xbee248bd	-0.4419612
107	0xbf7229fc	-0.94595313
108	0xbfb29eb1	-1.3954679
109	0x3d9e6f03	0.077360176
110	0x3d491249	0.049089704
111	0x3d49d193	0.04927213
112	0xbee855bb	-0.45377907
113	0xbcccfc72	-0.025022719
114	0xbe8672d5	-0.26259485
115	0xbe7e50ad	-0.24835463
116	0xbe8d6c96	-0.27621907
117	0xbf82ce03	-1.021912
118	0x3e5c2476	0.21498284
119	0xbd6442da	-0.055727817
120	0x3f414cbc	0.7550771
121	0x3e3dfe66	0.18554077
122	0x3d8e984d	0.06962643
123	0x3d27eafd	0.040995587
124	0xbe43c95c	-0.19119781
125	0xbd94473a	-0.07240148
126	0x3cd76e48	0.026297703
127	0x3ea2aaf6	0.31771058
128	0xbdabad27	-0.083826356
129	0xbd0bae68	-0.034101874
130	0xbe0ff5e4	-0.14058644
131	0xbf81e25c	-1.0147204
132	0xbd9e9fe4	-0.077453405
133	0xbdb374ac	-0.08762488
134	0xbe9a8f3d	-0.30187407
135	0xbcb537b6	-0.022121292
136	0x3e87e510	0.26541948
137	0x3a034bde	0.00050085585
138	0xbf068a23	-0.5255453
139	0xbea10be7	-0.31454393
140	0x3db94d50	0.09047949
141	0x3ca8ed34	0.02062092
142	0xbdfe2301	-0.1240902
143	0xbd87c6c3	-0.06629708
144	0xbd90314e	-0.07040654
145	0x3e4a8594	0.19777519
146	0x3d57787f	0.05260515
147	0xbe60cf59	-0.21954097
148	0xbda54ecd	-0.08071671
149	0xbd6909b9	-0.056894038
150	0x3f78a716	0.9712995
151	0x3ac05800	0.0014674664
152	0xbf2da4cc	-0.67829585
153	0xbe0e36dc	-0.13888115
154	0xbd0ebf88	-0.034850627
155	0xbdd7db54	-0.105398804
156	0x3b1ce3e9	0.0023939556
157	0xbe20523b	-0.15656368
158	0xbd7e5b0e	-0.062098555
159	0xbd88ec2f	-0.066856734
160	0x3d4a289a	0.049355127
161	0xbcc166d1	-0.023608597
162	0x3ebade21	0.36497596
163	0x3d4373d3	0.04771788
164	0xbd9331fd	-0.07187269
165	0xbebb7b0f	-0.36617324
166	0xbde57748	-0.11204392
167	0xbd278967	-0.04090252
168	0xbe0e010d	-0.13867588
169	0xbe3502f9	-0.17676915
170	0xbd1d5338	-0.03840944
171	0xbd2a6940	-0.04160428
172	0xbdd7dcaf	-0.10540139
173	0x3d3ce566	0.04611721
174	0x3d9226f5	0.07136337
175	0xbdf06453	-0.11737885
176	0x3d70f273	0.058824968
177	0x3d96f638	0.07371181
178	0xbcc9dd71	-0.024641724
179	0xbdcf23ce	-0.10114251
180	0x3d58dac6	0.052943014
181	0xbe870606	-0.26371783
182	0xbe42ec23	-0.19035392
183	0xbd6d05ef	-0.057866987
184	0xbe01799c	-0.12644047
185	0x3f474df7	0.7785334
186	0x3d2c85a5	0.04211964
187	0x3da281a5	0.07934884
188	0xbd0dbc91	-0.03460366
189	0xbdb187d3	-0.086684845
190	0xbd5e266f	-0.054235872
191	0xbf891e1c	-1.0712314
192	0xbd635c8c	-0.05550818
193	0xbbafc2b0	-0.0053637847
194	0x3d7bc436	0.06146642
195	0xbd581acf	-0.05275994
196	0xbe0839f7	-0.13303362
197	0x3d1d83be	0.038455717
198	0x3bf5fb90	0.007506795
199	0x3de7e078	0.11322111
200	0x3d14048b	0.036137145
201	0xbef9e39b	-0.48806462
202	0xbef97856	-0.48724622
203	0x3d649a2d	0.055811096
204	0xbd99e70d	-0.075147726
205	0xbeaf3d70	-0.3422656
206	0xbd758146	-0.059937738
207	0x3dc4a917	0.09602564
208	0xbeef0360	-0.46682262
209	0x3d12fff7	0.03588864
210	0x3e1f477e	0.15554616
211	0x3db3d4d3	0.087808274
212	0xbd0941a4	-0.033509865
213	0x3d0ed4e8	0.034871012
214	0xbe9b45a0	-0.30326557
215	0xbe304205	-0.17212684
216	0xbd98faa4	-0.07469681
217	0x3de72721	0.1128676
218	0xbc1ec679	-0.009690874
219	0x3c1bf9aa	0.009519974
220	0x3d690ee4	0.056898966
221	0xbe1a8072	-0.1508806
222	0xbe99407e	-0.29932016
223	0x3ec12cf5	0.37729612
224	0x3cef7c27	0.029234005
225	0xbbc249b0	-0.0059291944
226	0x3e9e0b62	0.3086806
227	0xbe176e4b	-0.14788167
228	0xbc9ede2c	-0.01939305
229	0xbe4d6367	-0.2005745
230	0xbc13c806	-0.009019857
231	0xbe903330	-0.28164053
232	0xbe82736e	-0.2547869
233	0x39c9a800	0.00038462877
234	0xbe31c481	-0.17360117
235	0xbe30e4f6	-0.17274842
236	0xbce8a3ed	-0.028398478
237	0xbd8a6618	-0.06757754
238	0xbc8fd668	-0.017558292
239	0x3d7d70ce	0.061875157
240	0xbea12fc2	-0.3148175
241	0xbd9a591d	-0.07536528
242	0xbe2c1056	-0.16803107
243	0xbc99a61d	-0.018755967
244	0xbdcbccc7	-0.099511676
245	0xbe59f22d	-0.21283789
246	0xbf1b5017	-0.6066908
247	0xbade1de1	-0.001694616
248	0xbe2f7c0d	-0.17137165
249	0xbd38d72f	-0.04512709
250	0xbd869274	-0.065709025
251	0x3db19b7f	0.08672237
252	0xbdc97c56	-0.09838168
253	0xbcccad5c	-0.024985008
254	0xbc874b54	-0.016515411
255	0xbeb0c6df	-0.34526727

value.0.bias f4 [64]
0	0x3ddce27b	0.10785385
1	0xbf002571	-0.5005713
2	0x3fad555b	1.3541673
3	0xbf5fd8a7	-0.8743996
4	0x3fb6cc2a	1.4281056
5	0x3f2f8e40	0.6857643
6	0xbe76593c	-0.24057478
7	0xbe972b56	-0.2952525
8	0x3eddebb5	0.43343893
9	0x3d46f71e	0.048575513
10	0xbfcdda23	-1.6082195
11	0x3f5e6a1d	0.86880666
12	0xbfc35f66	-1.5263488
13	0x3ec95223	0.39320478
14	0x400f2f6e	2.2372699
15	0xbdd512f2	-0.10404004
16	0x3fc79eb1	1.5595304
17	0x3fbe957a	1.4889367
18	0x3f635aed	0.88810617
19	0xc02c8bd2	-2.696034
20	0xbe1439a6	-0.14475116
21	0x3fbc499c	1.4709964
22	0xbfe7b1ed	-1.8101174
23	0x3d7d6019	0.061859224
24	0x3ef3546c	0.47525346
25	0x3d20bde5	0.039243598
26	0x3f808f36	1.0043705
27	0x3eb7e327	0.3591549
28	0x3f879ae5	1.0594145
29	0xbda25f12	-0.079282895
30	0x3f91915d	1.1372486
31	0xbe4badbc	-0.19890493
32	0x3f18513b	0.5949895
33	0xbd7556d8	-0.059897274
34	0x3e481f14	0.19543105
35	0x3edaef73	0.4276081
36	0x3f84ac02	1.0364993
37	0xbef0f446	-0.47061366
38	0xbec61261	-0.38685897
39	0xbe9811c4	-0.29701054
40	0x3f7ac015	0.97949344
41	0xbf91b73b	-1.1384043
42	0x3e613bef	0.21995519
43	0xbf340a79	-0.7032848
44	0x3fa2321e	1.2671545
45	0xbe403414	-0.18769866
46	0x3f4899ca	0.78359663
47	0xbe9274ca	-0.28604728
48	0x3f8e1cf7	1.1102589
49	0xbfc3fcea	-1.5311558
50	0x3e541d18	0.20714223
51	0x3e8876b6	0.2665307
52	0x3f9566ca	1.1671994
53	0x3f87ba5a	1.0603745
54	0xbeea8d48	-0.45810914
55	0xbe9a7cc1	-0.30173305
56	0xbe3493e1	-0.17634536
57	0xbfb0b330	-1.3804684
58	0x3f899314	1.074801
59	0xbfdaa143	-1.7080463
60	0xbf60b71f	-0.8777942
61	0xbfb70405	-1.4298102
62	0xbf6810d7	-0.90650696
63	0xbee72b5e	-0.45150274

value.2.weight f4 [1, 64]
0	0xbffb967d	-1.96553
1	0x3fc41024	1.5317426
2	0xbf0332b8	-0.51249266
3	0x3f8cd968	1.1003847
4	0x3fb85ecb	1.4403929
5	0x3f8332c3	1.0249866
6	0xbcb0670b	-0.02153351
7	0xbe61c846	-0.22049055
8	0xbf9553ef	-1.166624
9	0xbe1c54c2	-0.15266708
10	0x3f11cfeb	0.5695788
11	0xbe91826b	-0.28419814
12	0x3f34e247	0.7065777
13	0xbf130467	-0.5742859
14	0xbee69356	-0.45034283
15	0x3cf82d22	0.030294959
16	0xbe433147	-0.19061767
17	0xbe13ca65	-0.14432676
18	0x3f5898f8	0.8460841
19	0x3f70dc7b	0.94086426
20	0xbfd4e5cd	-1.663263
21	0x3fc46305	1.5342718
22	0x3efa4105	0.4887773
23	0xbfb29e32	-1.3954527
24	0xc015997b	-2.3374927
25	0x3f29693a	0.6617619
26	0xbe3c2d3e	-0.18376634
27	0xbeea0d9b	-0.45713505
28	0xbe5fa3b1	-0.21839787
29	0x3ba27680	0.004957974
30	0xbe560901	-0.20901872
31	0xbc043867	-0.008070088
32	0x3f3e7cce	0.74409187
33	0xbc17fb3f	-0.00927621
34	0x3f402150	0.7505083
35	0x3ec79df2	0.3898769
36	0xbe56d433	-0.20979385
37	0x3f7ac36a	0.9795443
38	0xc0116e26	-2.272348
39	0xbf0dd027	-0.5539574
40	0xbd77a938	-0.060464114
41	0xbf9d325b	-1.2280992
42	0xbf040565	-0.5157073
43	0x3f230b6d	0.6368931
44	0x3f41bcd7	0.7567877
45	0x3acb4ae7	0.0015509994
46	0x3f511bab	0.8168284
47	0x3cb30fe2	0.02185816
48	0xbea4ba58	-0.3217342
49	0x3f3ac845	0.7296184
50	0xc010928f	-2.2589452
51	0xbe464073	-0.19360523
52	0xbe44dbdc	-0.19224495
53	0xbe573ea9	-0.21019997
54	0x3ea40635	0.32035986
55	0xbd3dd5fe	-0.046346657
56	0xbe075ad0	-0.13218236
57	0x3f0410f7	0.51588386
58	0xbe3eab57	-0.18620048
59	0x3f9062f3	1.1280197
60	0x3f1b4219	0.6064773
61	0xc005be17	-2.0897272
62	0xbf9341bd	-1.1504437
63	0xbf603390	-0.8757868

adv.0.weight f4 [64, 128]
0	0xbe4667b2	-0.19375494
1	0x3d8263b2	0.063666716
2	0x3e239a24	0.15976769
3	0x3ea5a074	0.3234898
4	0x3995b0ca	0.00028551213
5	0x3b4f67e9	0.0031647629
6	0xbece0726	-0.4023983
7	0xbecd7867	-0.40130922
8	0x3e504d43	0.20341973
9	0x3d64299f	0.055703755
10	0x3f861e30	1.0477962
11	0xbdf050dd	-0.117341734
12	0xbeb85f2a	-0.36010104
13	0xbf4752ee	-0.77860916
14	0xbe7c38d3	-0.24631052
15	0xbf7cab56	-0.9869894
16	0xbd0f8538	-0.035039157
17	0xbeaaba6c	-0.33345354
18	0xbd8ebb1b	-0.06969281
19	0x3b681511	0.0035412947
20	0x3cc65b17	0.024213357
21	0xbd95d7e9	-0.07316572
22	0xbf45b6bb	-0.7723195
23	0x3ca28abb	0.019841542
24	0xbede99d1	-0.43476728
25	0x3a2b9f1f	0.0006546843
26	0xbdb33d8e	-0.08751975
27	0xbe4cf940	-0.20016956
28	0x3ed5fbf8	0.417938
29	0xbe540ce4	-0.20708042
30	0xbc1c220c	-0.009529602
31	0xbee602b3	-0.44923934
32	0x3cabf492	0.020990644
33	0xbf70d75e	-0.94078624
34	0xbe25316c	-0.16132134
35	0xbf120959	-0.57045513
36	0xbfc4601a	-1.5341828
37	0xbf4175d1	-0.755704
38	0xbf65d5d1	-0.8977938
39	0xbe824645	-0.25444236
40	0xbdc1869d	-0.094495036
41	0xbdc62504	-0.09675029
42	0xbe8d1ef3	-0.27562675
43	0xbd5466ee	-0.051855974
44	0xbef8c839	-0.48590258
45	0x3d9c2851	0.07624877
46	0xbde7f30c	-0.113256544
47	0xbe8c7811	-0.27435353
48	0x3d05fca2	0.032711633
49	0xbf7a444d	-0.9776047
50	0xbd161cbe	-0.036648504
51	0xbf031abb	-0.5121266
52	0x3d8cadf8	0.068691194
53	0xbe962fe7	-0.29333422
54	0xbe1f54a9	-0.15559639
55	0x3e311649	0.17293657
56	0x3ec22ae7	0.37923357
57	0x3f657cd8	0.8964362
58	0xbf0684a6	-0.52546155
59	0xbd4d3c4c	-0.05010633
60	0xbd900a9e	-0.07033275
61	0xbd845622	-0.06461741
62	0xbd670db7	-0.056409564
63	0xbf67032a	-0.902392
64	0xbf5d582b	-0.8646266
65	0x3b2a9880	0.0026030838
66	0x3c6bdf00	0.014396429
67	0x3d5c490d	0.053780604
68	0xbf1e36a1	-0.6180211
69	0xbd951f61	-0.07281376
70	0xbd894719	-0.06703014
71	0xbd7dbf64	-0.061950102
72	0xbfb39b4d	-1.4031769
73	0xbe92c63a	-0.2866686
74	0xbf6d64a4	-0.9273169
75	0x3cc8e497	0.024523063
76	0xbca4d62b	-0.020121654
77	0xbf1d5944	-0.61464334
78	0x3e9c075a	0.3047436
79	0x3e67e5d2	0.22646263
80	0xbe29268b	-0.16518609
81	0xbe8af55a	-0.27140313
82	0x3f872554	1.0558267
83	0xbd20ef91	-0.03929097
84	0x3d65c2e2	0.056094058
85	0xbd890c17	-0.06691759
86	0xbef14966	-0.4712631
87	0xbf8da6e2	-1.1066554
88	0xbf43a7c8	-0.7642789
89	0xbee2d380	-0.44301987
90	0x3ab5dfa2	0.0013875852
91	0xc09f1e55	-4.9724526
92	0xbe67a430	-0.22621226
93	0xbde5ac0b	-0.11214455
94	0x3e26fce0	0.16307402
95	0xbe4ef747	-0.20211516
96	0xbd32f35b	-0.043689113
97	0xbeef5565	-0.46744838
98	0xbf6ac8e1	-0.91712767
99	0xbf5e603e	-0.86865604
100	0x3f58c82f	0.84680456
101	0x3f9d3ddd	1.2284504
102	0xbd8ebb7f	-0.06969356
103	0xbf533444	-0.82501626
104	0xbf3df70a	-0.74205077
105	0xbd846db4	-0.06466237
106	0x3e6ec2b3	0.2331646
107	0x3cf04019	0.02932744
108	0xbe0e158d	-0.13875408
109	0x3d9b3594	0.075785786
110	0x3c25c768	0.010118343
111	0xbd605134	-0.05476494
112	0xbe8d002d	-0.27539197
113	0xbd9e87cc	-0.07740745
114	0xbe86a7fd	-0.2630004
115	0xbdd7c4d8	-0.10535592
116	0xbfac4676	-1.3459003
117	0x3decbfda	0.1156003
118	0xbd81d9e4	-0.063403875
119	0xbccdd9b2	-0.02512822
120	0xbeb5d00d	-0.35510293
121	0xbea19400	-0.31558228
122	0xbb7e9c4b	-0.0038850482
123	0x3cf7a565	0.030230233
124	0xbe658847	-0.22415267
125	0xbbe9b610	-0.0071322992
126	0xbdaaa76c	-0.083327144
127	0x3de58b7d	0.11208246
128	0xbda04744	-0.07826093
129	0x3f21fca6	0.63276136
130	0xbea93bfe	-0.33053583
131	0xbf74bc03	-0.95599383
132	0xbd07bf81	-0.033141617
133	0xbd47a22a	-0.048738636
134	0xbdfd9da4	-0.12383583
135	0xbebb626c	-0.36598527
136	0xbd6d8dfb	-0.05799673
137	0xbdc1ae48	-0.0945707
138	0xbef01d32	-0.46897274
139	0xbe9292bd	-0.28627577
140	0xbe044668	-0.12917483
141	0xbe1cd36e	-0.15315029
142	0xbe7be3cc	-0.24598616
143	0xbe997974	-0.29975474
144	0x3d76acd2	0.060223408
145	0xbf603a4b	-0.8758895
146	0xbd1603fc	-0.036624894
147	0xbf165399	-0.5872131
148	0xbdc55389	-0.09635074
149	0xbdb0d23e	-0.086338505
150	0x3f07a7aa	0.5299021
151	0xbc4a1c08	-0.012335785
152	0xbd2d046b	-0.04224054
153	0x3d9c7629	0.07639725
154	0x3c9a8915	0.018864194
155	0xbe9dec7f	-0.30844495
156	0xbec20c38	-0.37899947
157	0xbdc578d5	-0.096421875
158	0x3d2c6566	0.04208889
159	0xbd7ced1f	-0.061749574
160	0xbd071988	-0.032983333
161	0xbf3c63f2	-0.73590004
162	0xbf431e2d	-0.7621792
163	0x3c954185	0.018219719
164	0xbdb56791	-0.08857644
165	0xbcab50bb	-0.020912519
166	0xbf69111f	-0.9104175
167	0xbdfd9597	-0.123820476
168	0x3d6a594d	0.05721407
169	0xbdd0c1eb	-0.10193237
170	0xbe330cd8	-0.17485368
171	0x3cbc132c	0.02295836
172	0xbdf58768	-0.11988717
173	0xbd4a2349	-0.049350057
174	0xbdfe9a67	-0.12431794
175	0xbe22ff7c	-0.15917772
176	0x3ef65adb	0.48116192
177	0x3b3b0e1b	0.0028542343
178	0x3f2102b9	0.6289478
179	0xbedce8b6	-0.43146294
180	0xbc8a0d73	-0.016852116
181	0x3e98d8b8	0.29852843
182	0x3d9fd2cd	0.07803879
183	0x3e6c7b07	0.23093806
184	0xbdad67fe	-0.084671006
185	0x3e476061	0.1947036
186	0x3ef27c4b	0.47360453
187	0xbda6f639	-0.08152432
188	0x3d49e9a6	0.04929509
189	0xbd93e0db	-0.07220622
190	0x3ba8ffa0	0.005157426
191	0xbe87b65d	-0.2650632
192	0x3db2c23a	0.08728452
193	0xb9aee300	-0.00033356994
194	0x3d7baf57	0.061446514
195	0x3c439e28	0.011939563
196	0xbf69d7f3	-0.9134514
197	0x3d713aec	0.058894083
198	0xbd6af77f	-0.057364937
199	0x3c7676bf	0.01504296
200	0xbe64d956	-0.22348532
201	0x3e1b9bf4	0.1519621
202	0xbe414bf8	-0.18876636
203	0x3d398542	0.0452931
204	0xbd442d03	-0.04789449
205	0xbefedc17	-0.4977729
206	0x3ebfeaea	0.37483913
207	0x3e9b1826	0.3029186
208	0xbe191da7	-0.14952718
209	0xbe4787c8	-0.1948539
210	0x3f4f5dd1	0.8100253
211	0xbc8f1f88	-0.01747109
212	0x3d9d5dc3	0.07683899
213	0xbcf9726a	-0.030450065
214	0xbf32e82f	-0.69885534
215	0xbe9e7b6b	-0.30953535
216	0x3d929c69	0.07158739
217	0xbec0af01	-0.37633517
218	0x3d4b3e0a	0.049619712
219	0xbf60a112	-0.87745774
220	0xbe025e1a	-0.1273121
221	0xbea87064	-0.32898247
222	0x3e413cec	0.18870896
223	0xbc99f4c4	-0.018793471
224	0xbd69d3a3	-0.057086598
225	0xbe05af49	-0.13055147
226	0x3ed54de8	0.41661
227	0xbf58512e	-0.8449887
228	0x3e70d8ec	0.23520249
229	0xbe9d0323	-0.30666456
230	0x3caa4023	0.020782536
231	0xbf5443c3	-0.82915896
232	0xbef1626f	-0.4714541
233	0xbd7d8d8d	-0.06190257
234	0xbeb21f43	-0.34789476
235	0xbef2fc85	-0.47458282
236	0xbf3893ea	-0.721007
237	0xbcd27a70	-0.025693148
238	0xbae7c280	-0.0017681867
239	0x3d680f6a	0.056655325
240	0xbe80c138	-0.25147414
241	0xbdab8954	-0.08375803
242	0xbdf1539d	-0.11783526
243	0xbdefa55d	-0.117014624
244	0x3e9dd004	0.30822766
245	0x3e476f6b	0.19476096
246	0xbe2b9864	-0.16757351
247	0xbd935845	-0.071945705
248	0x3cb5c06d	0.022186482
249	0xbd65fa1e	-0.056146733
250	0xbd6680de	-0.05627524
251	0xbd068d78	-0.03284976
252	0xbd866f15	-0.06564156
253	0x3da4043b	0.080086194
254	0x3b9953f0	0.0046791956
255	0x3ea29dfd	0.3176116

adv.0.bias f4 [64]
0	0xbfc9b068	-1.575696
1	0xbfb63b96	-1.4236934
2	0xbf5cec10	-0.862977
3	0xbf26e98e	-0.65200126
4	0xbf9d322b	-1.2280935
5	0xbf33947e	-0.70148456
6	0xbf6b38f6	-0.9188379
7	0xbfbde395	-1.4835078
8	0xbe349266	-0.17633972
9	0xbf221ae8	-0.63322306
10	0xbe530388	-0.20606816
11	0xbf9c9ba6	-1.2235
12	0xbec9fe72	-0.3945194
13	0xbe1176d9	-0.14205493
14	0xbf8ea6cb	-1.1144651
15	0xbf943bd0	-1.1580753
16	0xbebb9dc5	-0.36643806
17	0xc0031b31	-2.0485346
18	0xbeaf2d51	-0.3421426
19	0xbed4bc3e	-0.41549867
20	0xbf37d84b	-0.7181441
21	0x3d9bc4ca	0.07605894
22	0xbf08167a	-0.53159297
23	0xc0124d8b	-2.2859828
24	0xbde23e6f	-0.110470645
25	0xbf281e88	-0.65671587
26	0xbeb809d0	-0.35944986
27	0xbec076eb	-0.37590727
28	0xbf02855b	-0.50984734
29	0xbf808eca	-1.0043576
30	0xc01f309f	-2.4873426
31	0xbee5f557	-0.44913742
32	0x3e08b519	0.13350333
33	0xbe518915	-0.20462449
34	0xbe8d283b	-0.27569756
35	0xbf98888c	-1.1916671
36	0xbf9a856f	-1.2071971
37	0xbed8f48d	-0.42374077
38	0xbebe90ec	-0.37219942
39	0xbda54075	-0.08068935
40	0xbf333dde	-0.70016277
41	0xbe094d33	-0.13408355
42	0xbfa956c2	-1.3229601
43	0xbe1f8e4c	-0.15581626
44	0xbef77085	-0.48328033
45	0x3dc881cf	0.09790384
46	0xbf983616	-1.1891506
47	0xbf42cc9c	-0.7609346
48	0xbfd0e667	-1.6320313
49	0xbba03028	-0.004888553
50	0x3e1ccfe6	0.15313682
51	0xbe20da3b	-0.15708248
52	0xbf23b6b0	-0.63950634
53	0xbf98e361	-1.194439
54	0xbebc59e6	-0.36787337
55	0xbe9de58c	-0.30839193
56	0xbf39290a	-0.72328246
57	0xbfb1d8a7	-1.3894242
58	0xbf6fe0f0	-0.937026
59	0xbe50de11	-0.20397212
60	0xbebb3e0c	-0.36570776
61	0xbe58644a	-0.21132007
62	0xbe2ce95f	-0.16885899
63	0xbf010e1f	-0.5041217

adv.2.weight f4 [2, 64]
0	0xc02936d8	-2.6439724
1	0x3f1b6edc	0.60716033
2	0xbfe4ecaa	-1.7884724
3	0xbf18e1d8	-0.5971961
4	0xbed92902	-0.424141
5	0x3cb736fa	0.022365082
6	0x3fc79530	1.5592403
7	0xbf850e42	-1.0394976
8	0x3db49eaa	0.08819325
9	0x3f6a625a	0.9155632
10	0xbd9c0eb1	-0.0761999
11	0xbfbfd901	-1.4988099
12	0x3f6ffc47	0.9374432
13	0x3d116211	0.035493914
14	0xbf1c8edc	-0.61155486
15	0xbf70b6eb	-0.9402911
16	0xbe70c654	-0.23513156
17	0xbf87cad6	-1.0608776
18	0xbf56fa88	-0.8397603
19	0x3e1dccb5	0.15410121
20	0xbf6cb667	-0.92465824
21	0x3e9b2734	0.30303347
22	0x3f18dc77	0.597114
23	0xbf82d154	-1.0220132
24	0x3ccc7eb5	0.024962762
25	0xbe90f030	-0.2830825
26	0xbe85b1ac	-0.26112115
27	0x3ef2e8f2	0.47443348
28	0x3f39e76f	0.72618765
29	0xbf97e83b	-1.1867746
30	0xbf78a3f1	-0.97125155
31	0x3e447623	0.1918569
32	0xbfaeafb1	-1.3647367
33	0x3cd634aa	0.026148159
34	0xbee4525a	-0.4459408
35	0x3f95e877	1.1711568
36	0xbfb101c5	-1.3828665
37	0x3f7d314e	0.9890336
38	0xbbabd5c3	-0.0052439882
39	0x3f60b0bd	0.8776968
40	0x3ee5daa1	0.44893363
41	0xbc37bb38	-0.01121407
42	0xbfb8bc6d	-1.4432503
43	0x3d867145	0.06564573
44	0xbf29c0b5	-0.6630967
45	0x3f5bdf2b	0.858874
46	0xbf60a9d1	-0.8775912
47	0x3f8c875d	1.097881
48	0xc03b85e7	-2.9300478
49	0x4009e1e9	2.1544135
50	0x3f1d4d26	0.61445844
51	0x3cfd8c74	0.030950762
52	0xbf06fc2c	-0.52728534
53	0x3f8b92b7	1.0904149
54	0xbd1794cd	-0.03700714
55	0xbe080534	-0.13283235
56	0x3f1182e9	0.5684038
57	0x3f6c79f0	0.9237356
58	0xbf426c88	-0.75946856
59	0x3ca4c8de	0.020115312
60	0xbf41e656	-0.7574209
61	0x3d17202b	0.036895912
62	0xbbf157e4	-0.0073652137
63	0xbf727a05	-0.9471744
64	0x4025058c	2.5784636
65	0xbf175947	-0.591206
66	0x3fed127a	1.8521264
67	0x3f05eeb4	0.5231736
68	0x3efb847a	0.4912451
69	0x3cdb1654	0.026744045
70	0xbfc776e2	-1.5583155
71	0x3f8ee921	1.1164895
72	0x3dc91d20	0.09820008
73	0xbf62c508	-0.88581896
74	0xbd89cf21	-0.0672896
75	0x3fb1301b	1.3842806
76	0xbf65804b	-0.89648885
77	0x3d6725b0	0.056432426
78	0x3ef90329	0.48635224
79	0x3f53faa5	0.8280433
80	0x3e21eb6e	0.15812466
81	0x3f90b448	1.1305017
82	0x3f35517c	0.7082746
83	0xbe69504f	-0.22784542
84	0x3f401099	0.75025326
85	0xbec9addc	-0.39390457
86	0xbf204c55	-0.62616473
87	0x3f7e1c3f	0.9926185
88	0x3ca26b7e	0.019826647
89	0x3e7af66f	0.2450807
90	0x3d43d046	0.047806047
91	0xbf0c957b	-0.5491559
92	0xbf2ace99	-0.66721493
93	0x3f965b53	1.174662
94	0x3f53bbbb	0.8270833
95	0xbeb33726	-0.35003012
96	0x3fab83af	1.3399562
97	0x3d44ca07	0.04804423
98	0x3eb87073	0.36023292
99	0xbf8c473d	-1.095924
100	0x3fa41a0f	1.2820452
101	0xbf8c6f31	-1.0971433
102	0xbdc723b0	-0.09723604
103	0xbf505da7	-0.813929
104	0xbedc9319	-0.43080977
105	0x3c16feb7	0.009216002
106	0x3fb5664d	1.4171845
107	0x3caa70df	0.020805774
108	0x3f0909a9	0.53530365
109	0xbf53bacf	-0.8270692
110	0x3f74da7a	0.9564587
111	0xbf8b8c7d	-1.0902249
112	0x403d6da1	2.9598162
113	0xc001ebda	-2.0300202
114	0xbf27e352	-0.6558124
115	0xbb6143c2	-0.0034372662
116	0x3f0cd8fc	0.5501859
117	0xbf9c1189	-1.2192851
118	0xbb069411	-0.0020535032
119	0x3df8b1d2	0.121432915
120	0xbf22a631	-0.6353484
121	0xbf71aeae	-0.94407165
122	0x3f3d52cc	0.73954463
123	0x3c587abf	0.013212859
124	0x3f260bfe	0.6486205
125	0x3cfa5465	0.03055782
126	0x3c0f7846	0.008756703
127	0x3f827a3b	1.0193552

adv.2.bias f4 [2]
0	0xbd954112	-0.07287802
1	0xbd9b6ef6	-0.075895235
