advanced_positive_run/checkpoints/ep_0250.pt (torch, 145855 bytes, 11 tensors)

feature.0.weight f4 [128, 16]
0.84580904 -1.0240772 -0.7782854 -0.9199387 -2.5915904 0.85397786 1.3229033 0.9352786
0.24001777 0.1765694 -0.4803373 -0.63460577 -0.08069533 0.3272634 2.1544044 -1.2717832
0.2622781 -0.092764765 -0.45076746 -0.24697185 0.33766183 0.2307111 0.6360716 0.4918589
-0.8516154 -0.4913356 -0.23071589 -0.6016833 -0.354551 -0.39481002 0.23832062 -0.5129676
-0.4633471 0.32853052 0.2634885 0.103050455 -0.22038287 0.13936225 0.2281056 0.36978024
0.13650592 0.1458803 0.9211105 0.8421295 0.17327596 -0.44890183 -0.43929756 -0.5669177
0.14425804 0.4557401 0.5636812 0.78848 1.3235039 -0.54914767 -0.13439496 -0.15099323
0.5086412 0.5905605 0.35845146 0.14339313 0.61039364 -0.99115336 0.13621818 -0.49127513
0.46681976 -0.12237479 -0.108685985 0.17619197 0.9683145 -0.04677064 -0.1854046 0.14093404
0.7791612 0.5997697 -0.04213437 -0.04062208 0.16337615 -5.472312 0.46288478 0.06454723
0.6041823 0.36766702 0.11007573 0.23702109 -2.5011945 0.8621142 0.98324776 1.1160033
-0.27293083 -0.18085217 0.16208512 0.2752453 0.41296393 0.27353182 1.2301621 -0.4864412
0.47086078 -0.35400483 -0.22472577 -0.1364873 -0.30885896 -0.030703487 0.13813436 0.14838424
0.18233955 0.1910646 0.32630208 0.1228284 0.18750198 -0.56177187 0.12550151 -0.64628595
0.7558457 -0.28571534 -0.20169896 -0.21338168 -2.1265574 -0.32286513 -0.35903835 -0.34344363
0.6315824 0.93013716 -0.95539093 -1.1378622 -0.7538562 -0.9801758 -1.4306856 0.21228361
-3.1161466 -0.17512144 -0.12660106 -0.29148605 1.4102262 -2.8198676 -3.1380177 -3.072239
0.7413068 0.7676089 0.43976295 0.50382936 -0.3354658 0.40475065 0.68413943 0.06920196
-2.170243 0.8061203 0.63602555 0.73156977 1.878458 -0.1285456 -0.11056345 -0.0947051
0.63232434 0.4497466 -0.06442628 -0.3551199 0.59306204 -0.16856381 0.003307567 -0.31219912
1.2153348 -0.98872143 -0.91768426 -1.249463 -0.32195625 -0.51177585 -0.4553519 -0.3598439
0.34597057 0.27603495 -0.45424047 -0.5346606 -0.14745422 -1.376952 -0.7662596 0.0054689436
-0.3991447 -0.025760205 -0.12566449 -0.034286104 1.7040864 0.22356185 0.12364061 -0.051916093
-0.25846988 -0.42568958 -0.13007611 -0.12635738 0.3892627 -2.4426188 0.5890187 -0.110241145
0.20789525 0.4349063 0.3092994 0.49786037 -3.2335994 -0.12648925 -0.33392832 -0.31890908
0.74947274 0.7222494 0.62611836 0.42449605 0.67569315 -0.17190321 0.56893164 -0.94232446
-0.16635671 1.0597382 0.8420735 0.58852 0.9979472 -0.2877762 -0.059699584 -0.2429443
0.057085365 0.24387103 0.99631023 1.2138929 0.7490665 -0.40815508 -0.56062186 0.047636807
-0.94654995 0.7510564 0.5243334 0.53428036 -1.5939405 -0.40476686 -0.7034498 -0.55086863
-0.78876925 -0.8799411 0.47333714 0.6099746 0.48687634 -0.4320732 0.30414692 -0.15371504
2.0344753 -0.03926483 0.07636081 0.114639625 -2.5844 0.41778 0.61210126 0.43862036
0.7270097 0.9046958 -1.0990506 -0.9416356 0.6968328 -0.12515698 0.1139611 -0.16622302
00000000: f186 583f f614 83bf b63d 47bf 1a81 6bbf
00000010: 9edc 25c0 4b9e 5a3f e554 a93f 6b6e 6f3f
00000020: 38c7 753e 9cce 343e c5ee f5be 8675 22bf
00000030: 9843 a5bd 128f a73e c3e1 0940 cbc9 a2bf
00000040: 5149 863e 74fb bdbd feca e6be 30e6 7cbe
00000050: 03e2 ac3e 883f 6c3e 97d5 223f eed4 fb3e
00000060: 7803 5abf 5790 fbbe c940 6cbe eb07 1abf
00000070: b587 b5be 8a24 cabe 520a 743e d851 03bf
00000080: d53b edbe 2735 a83e f7e7 863e 1e0c d33d
00000090: 0cac 61be fab4 0e3e 8494 693e d653 bd3e
000000a0: 35c8 0b3e a561 153e e6cd 6b3f cd95 573f
000000b0: 416f 313e 76d6 e5be 9ceb e0be 8521 11bf
000000c0: 61b8 133e c456 e93e 694d 103f d3d9 493f
000000d0: 9368 a93f f194 0cbf d59e 09be f89d 1abe
000000e0: 4f36 023f f92e 173f f386 b73e a6d5 123e
000000f0: c242 1c3f 3abc 7dbf c77c 0b3e 6a88 fbbe
00000100: 0003 ef3e a29f fabd c296 debd ab6b 343e
00000110: 76e3 773f 9292 3fbd b4da 3dbe 0351 103e
00000120: 1c77 473f 828a 193f 1795 2cbd 5763 26bd
00000130: 144c 273e 2e1d afc0 3cff ec3e 5731 843d
00000140: b1ab 1a3f da3e bc3e 626f e13d a8b5 723e
00000150: 9213 20c0 84b3 5c3f 20b6 7b3f 32d9 8e3f
00000160: 97bd 8bbe 5031 39be a4f9 253e f4ec 8c3e
00000170: 0270 d33e 5d0c 8c3e f475 9d3f d20e f9be
00000180: aa14 f13e 1f40 b5be 831e 66be 54c3 0bbe
00000190: c322 9ebe e185 fbbc 1873 0d3e 0af2 173e
000001a0: 38b7 3a3e 70a6 433e 1111 a73e 758d fb3d
000001b0: 8500 403e 48d0 0fbf 7883 003e ff72 25bf
000001c0: 1b7f 413f 4849 92be 2c8a 4ebe ba80 5abe
000001d0: 8419 08c0 944e a5be e0d3 b7be d8d7 afbe
000001e0: 62af 213f 781d 6e3f 8094 74bf 78a5 91bf
000001f0: b8fc 40bf cdec 7abf b520 b7bf e060 593e
00000200: f26e 47c0 0953 33be b5a3 01be a93d 95be
00000210: 4b82 b43f b678 34c0 48d5 48c0 909f 44c0
00000220: 48c6 3d3f 0482 443f 9c28 e13e f6fa 003f
00000230: 2cc2 abbe 7a3b cf3e c323 2f3f c2b9 8d3d
00000240: 43e5 0ac0 e65d 4e3f 92d2 223f 2848 3b3f
00000250: 5071 f03f 75a1 03be 176f e2bd bff4 c1bd
00000260: 02e0 213f 3045 e63e edf1 83bd 47d2 b5be
00000270: ead2 173f fe9b 2cbe c4c3 583b 90d8 9fbe
00000280: 1790 9b3f d91c 7dbf 5bed 6abf 67ee 9fbf
00000290: 73d7 a4be be03 03bf e223 e9be 763d b8be
000002a0: 0e23 b13e 7454 8d3e 3592 e8be 84df 08bf
000002b0: 3dfe 16be f73f b0bf 9729 44bf d334 b33b
000002c0: b25c ccbe 1107 d3bc 31ae 00be 966f 0cbd
000002d0: 811f da3f 66ed 643e 4a37 fd3d f8a5 54bd
000002e0: 2a56 84be fcf3 d9be ac32 05be d463 01be
000002f0: 714d c73e de53 1cc0 eec9 163f 1cc6 e1bd
00000300: 7ee2 543e 0aac de3e 7e5c 9e3e 8ee7 fe3e
00000310: 4bf3 4ec0 6686 01be a7f8 aabe 0d48 a3be
00000320: 72dd 3f3f 56e5 383f 4b49 203f 8c57 d93e
00000330: 3afa 2c3f 6507 30be 81a5 113f 2d3c 71bf
00000340: 6a59 2abe 80a5 873f 2192 573f 3fa9 163f
00000350: 7879 7f3f 6757 93be 8d87 74bd 64c6 78be
00000360: 58d2 693d 54b9 793e 300e 7f3f d860 9b3f
00000370: d2c2 3f3f b4f9 d0be ea84 0fbf d01e 433d
00000380: 1951 72bf 3b45 403f b73a 063f 99c6 083f
00000390: 3e06 ccbf 9a3d cfbe 4915 34bf ba05 0dbf
000003a0: c8ec 49bf d243 61bf 3f59 f23e 4c27 1c3f
000003b0: db47 f93e b338 ddbe 25b9 9b3e 7a67 1dbe
000003c0: d834 0240 29d4 20bd 0e63 9c3d 2ec8 ea3d
000003d0: cf66 25c0 43e7 d53e abb2 1c3f d992 e03e
000003e0: 4f1d 3a3f 259a 673f b1ad 8cbf 080f 71bf
000003f0: a263 323f 2729 00be 7064 e93d 5e36 2abe

feature.0.bias f4 [128]
-0.19437371 -0.25690484 -0.3521554 0.81854767 1.3143907 1.021803 -0.53546876 1.1588826
1.1195292 -0.05040479 -0.529749 1.4033055 0.3778575 0.22510034 0.45652062 -2.1887531
-1.2929504 2.0889044 1.8128418 0.37372404 0.8915855 1.7663187 1.4451212 -0.4446091
-0.06650318 0.80003303 -0.05967486 -1.2489097 1.0290755 -0.4428946 1.0450138 -0.47415307
-0.38396022 -2.4022658 -1.3339697 -0.054799404 0.5013304 1.7788119 0.6904922 -0.12780285
-0.97713697 1.7012712 -0.6636942 1.3432674 -0.15457831 -0.6158896 -2.6402302 0.8773985
1.0580758 -2.4212298 0.6283685 -0.5190876 -0.6312559 -0.34891996 0.80235654 0.7447956
-0.107730135 -0.45010582 0.04892334 -0.37297678 -0.9413985 -0.010943979 0.40627605 0.90095353
-1.8888767 -2.100073 -1.327302 -0.006760613 0.7504078 1.0624775 0.0069585526 1.0602005
-0.43250197 -0.8165903 -1.5566816 -1.7739364 0.88507664 -1.6737516 -2.232782 0.62242186
0.046810742 -1.952317 0.19270155 -0.02216647 -0.28849435 -0.5391869 0.20835966 -0.5097044
-0.002977262 -1.2860821 -0.20343572 -0.87878186 -0.7637175 -0.4522054 -0.7299778 2.1306581
-0.37890333 -1.1261089 -0.04827665 -0.37352327 1.1191889 -0.44985545 -3.1426935 -1.1141789
-1.2054734 -0.8841297 0.45630413 0.48302945 0.22167811 -0.072480015 0.54474664 -1.1403631
-1.3177013 0.39853925 0.32625246 2.0699809 0.08994492 0.67591953 -0.03647393 0.9657389
-2.1623256 0.82209826 -1.0066757 -0.086623766 1.1712877 -0.5765459 0.89376235 -1.2730879
00000000: e709 47be 0889 83be b64d b4be 578c 513f
00000010: f43d a83f 71ca 823f 7b14 09bf 4456 943f
00000020: bc4c 8f3f 4175 4ebd a19d 07bf 849f b33f
00000030: 8a76 c13e b480 663e 12bd e93e 8814 0cc0
00000040: 667f a5bf 9cb0 0540 330b e83f c258 bf3e
00000050: f33e 643f bb16 e23f bbf9 b83f cea3 e3be
00000060: d232 88bd f7ce 4c3f a06d 74bd 46dc 9fbf
00000070: bfb8 833f 15c3 e2be 03c3 853f 31c4 f2be
00000080: 6f96 c4be b9be 19c0 85bf aabf 5775 60bd
00000090: 3057 003f 1cb0 e33f 19c4 303f c0de 02be
000000a0: a625 7abf 41c3 d93f dde7 29bf 30f0 ab3f
000000b0: c749 1ebe f1aa 1dbf 88f9 28c0 309d 603f
000000c0: 076f 873f 6ef5 1ac0 c2dc 203f ede2 04bf
000000d0: fd99 21bf a3a5 b2be 3d67 4d3f edaa 3e3f
000000e0: 9ea1 dcbd 4574 e6be d763 483d d0f6 bebe
000000f0: 7eff 70bf 604e 33bc 6a03 d03e e4a4 663f
00000100: b6c6 f1bf 9967 06c0 08e5 a9bf 2288 ddbb
00000110: ba1a 403f 43ff 873f 9204 e43b a6b4 873f
00000120: e670 ddbe 100c 51bf 5841 c7bf 5910 e3bf
00000130: 6294 623f 7e3d d6bf e6e5 0ec0 0a57 1f3f
00000140: 9fbc 3f3d 86e5 f9bf 8e53 453e 7596 b5bc
00000150: 88b5 93be 2708 0abf 3c5c 553e fd7b 02bf
00000160: 2b1e 43bb 579e a4bf 7451 50be d9f7 60bf
00000170: fd82 43bf 7787 e7be d3df 3abf b45c 0840
00000180: 9eff c1be 5624 90bf bdbd 45bd 713e bfbe
00000190: 9541 8f3f 7453 e6be e421 49c0 6a9d 8ebf
000001a0: f44c 9abf 5356 62bf b2a0 e93e a34f f73e
000001b0: 96ff 623e 6770 94bd 8474 0b3f 6bf7 91bf
000001c0: 70aa a8bf 560d cc3e 900a a73e 917a 0440
000001d0: 0b35 b83d 1009 2d3f b065 15bd aa3a 773f
000001e0: 8b63 0ac0 0875 523f c0da 80bf cd67 b1bd
000001f0: c1ec 953f 8398 13bf 9ccd 643f 8bf4 a2bf

feature.2.weight f4 [128, 128]
-0.09338464 -0.73840463 -0.08607707 0.052235182 -0.32052124 0.107265584 -0.05084001 -1.0493104
0.014400472 -0.25502914 -0.13442825 -0.26682165 0.13229808 -0.06505469 0.008498103 0.016453011
0.07871775 -0.071179554 0.65806407 -0.22346275 0.86733544 -0.23065974 -1.2925593 0.0036677523
-0.3495564 -0.02579384 0.013205148 0.02495326 0.031674787 -0.02055509 -0.5847603 0.2847209
0.11010006 -0.5261224 -0.21904118 -0.04450353 -0.08456904 -0.3191807 0.065991916 0.058600582
-0.12389717 -0.17735597 -0.2698775 -0.095417775 -0.041930288 -0.067002445 0.048158985 -0.16945659
-0.24292484 -0.0059328326 0.09976121 -0.3917703 0.05705829 0.037138265 -0.13084291 -0.076835155
-0.20765446 -0.6164577 0.13874982 -0.20440215 0.13191226 -0.048557837 -0.2046772 0.13604996
-0.17920774 -0.33252493 -0.113649204 0.011236724 -0.27781492 -0.23794782 -0.25095657 -0.8279694
0.1001651 -0.20572063 0.10610948 -0.51452583 -0.6860113 -0.28170854 -0.088201635 0.4184965
-0.30939516 -0.17654154 0.10104604 0.036083084 0.47272184 -0.3991026 -1.0392114 -0.6994636
-0.0024504175 0.3018158 0.14762251 -0.14333534 -0.87752515 -0.0788111 -0.17974721 0.5396865
-0.14168517 0.22518952 -0.20387924 -0.31008717 -0.14833966 0.16383246 0.019591697 -0.15283014
-0.5899729 -0.13243614 -0.56933 0.002712305 0.2477448 0.072204575 0.049159914 -0.76449263
-0.0011888699 -0.25765365 -1.0435365 0.018732084 -0.6084489 -0.23173705 -0.087910146 0.011324073
-0.26825395 -1.893974 -0.401663 0.1993233 0.71729153 -0.06400413 0.53673935 -0.04298082
-0.23944075 0.034838744 0.16265973 0.41305572 0.012365632 -0.18149014 -0.12248406 0.22225805
-0.6635618 -0.07936513 -0.42928216 0.18542269 -0.12385157 0.2111581 0.06395169 0.039898988
-0.0011485368 -0.16779807 -0.24098466 0.5038027 -0.14606169 -0.25299218 -0.24128346 -0.18034144
-0.29792362 -0.11781007 0.043886505 -0.1950237 -0.19789068 -0.57553416 -0.08457952 -0.07234506
-0.3068675 -0.3142762 -0.17739809 0.013824577 0.30069855 0.075133175 -0.40847364 -0.19025898
-0.15498725 -0.68989307 -0.124560796 -0.18019325 0.07464428 -1.3743101 0.16316472 -0.28130582
-0.062233612 0.03654982 0.18852651 -0.3518978 -0.0374411 0.02066953 -0.050550003 -0.074751414
-0.037163723 0.033345513 0.20327547 -0.099096306 -0.09432945 -0.008615151 -0.0791272 -0.020088702
0.12284973 0.4049598 -0.055259746 -0.077264726 0.4722397 -0.020794094 -0.33149767 0.05284295
-0.5549699 -0.042860534 -0.023088625 0.7413737 0.02531592 -0.028119413 0.09263665 -0.08645242
0.21405666 -0.9893445 -0.5578028 -0.01714273 0.3294921 -0.78011286 -0.3806419 -0.062172696
-0.038772754 -0.03264718 0.08872073 -0.03243109 0.77383995 -0.17384605 0.016378546 -0.18534529
-0.42902267 -0.5091787 -0.10486125 -0.5254516 -0.1733221 -0.8453429 0.096069016 0.114579126
-0.02866912 -0.25792944 -0.06719979 -0.41483453 0.122509405 0.076829396 -0.20128347 -0.034653578
-0.23952524 -0.14890265 -0.18541136 -0.21124789 0.13228394 0.07514092 -0.0050137267 -0.62023455
-0.24464041 0.15089326 -0.06795521 -0.7181296 -0.21513031 -0.8880812 -0.21059099 -0.513214
00000000: 7240 bfbd 1608 3dbf 2d49 b0bd 8ff4 553d
00000010: 5c1b a4be 0fae db3d 9d3d 50bd ce4f 86bf
00000020: f5ef 6b3c 2e93 82be 8fa7 09be d99c 88be
00000030: 2679 073e 653b 85bd a13b 0b3c 77c8 863c
00000040: c636 a13d 96c6 91bd e376 283f 6bd3 64be
00000050: b209 5e3f 1132 6cbe 9572 a5bf ac5e 703b
00000060: 0ef9 b2be 9a4d d3bc 685a 583c c76a cc3c
00000070: 6cbd 013d 2663 a8bc dab2 15bf f0c6 913e
00000080: 247c e13d f5af 06bf 554c 60be 5549 36bd
00000090: 8832 adbd a76b a3be c526 873d 2a07 703d
000000a0: cdbd fdbd ce9c 35be 622d 8abe 656a c3bd
000000b0: 18bf 2bbd 9438 89bd 5b42 453d 0786 2dbe
000000c0: 4ac1 78be 3568 c2bb 9b4f cc3d 1e96 c8be
000000d0: f4b5 693d 4b1e 183d affb 05be c05b 9dbd
000000e0: 5fa3 54be 2cd0 1dbf 6f14 0e3e cc4e 51be
000000f0: 0214 073e 95e4 46bd e696 51be ae50 0b3e
00000100: 3c82 37be b540 aabe eac0 e8bd 3d1a 383c
00000110: c23d 8ebe 98a8 73be 617d 80be cdf5 53bf
00000120: 5c23 cd3d 6ea8 52be ed4f d93d f7b7 03bf
00000130: 709e 2fbf 1a3c 90be 0fa3 b4bd 2c45 d63e
00000140: 0b69 9ebe 4ec7 34be 3af1 ce3d dbcb 133d
00000150: 9908 f23e 2d57 ccbe e104 85bf 0c10 33bf
00000160: 2f97 20bb 9a87 9a3e 5b2a 173e 80c6 12be
00000170: 7da5 60bf b767 a1bd a70f 38be e528 0a3f
00000180: eb15 11be 1598 663e b8c5 50be bfc3 9ebe
00000190: 5ae6 17be b2c3 273e c47e a03c 817f 1cbe
000001a0: 7708 17bf 579d 07be 9cbf 11bf edc0 313b
000001b0: d0b0 7d3e fedf 933d e85b 493d cab5 43bf
000001c0: dbd3 9bba 2eeb 83be 9b92 85bf 0774 993c
000001d0: 4fc3 1bbf 7a4c 6dbe 3c0a b4bd 9b88 393c
000001e0: 9558 89be bd6d f2bf c6a6 cdbe 681b 4c3e
000001f0: 6ba0 373f 9914 83bd c067 093f a80c 30bd
00000200: f52f 75be 12b3 0e3d 4690 263e 0a7c d33e
00000210: 3899 4a3c 8dd8 39be ecd8 fabd 9d97 633e
00000220: 30df 29bf 2f8a a2bd dfca dbbe 72df 3d3e
00000230: e4a5 fdbd d439 583e 1bf9 823d 1f6d 233d
00000240: 808a 96ba 42d3 2bbe afc4 76be 37f9 003f
00000250: 3291 15be 3188 81be 0313 77be 6dab 38be
00000260: 7289 98be 6846 f1bd 56c2 333d 4bb4 47be
00000270: dba3 4abe 3556 13bf 0738 adbd a629 94bd
00000280: bd1d 9dbe cfe8 a0be d8a7 35be 7b80 623c
00000290: 29f5 993e 6cdf 993d 7523 d1be 40d3 42be
000002a0: fab4 1ebe d59c 30bf bb19 ffbd 9484 38be
000002b0: 1adf 983d 65e9 afbf a714 273e 5107 90be
000002c0: ace8 7ebd 44b5 153d 180d 413e f32b b4be
000002d0: d75b 19bd 2553 a93c 850d 4fbd 4517 99bd
000002e0: fd38 18bd 4e95 083d 7227 503e 01f3 cabd
000002f0: cc2f c1bd 9026 0dbc 710d a2bd 1091 a4bc
00000300: a498 fb3d e456 cf3e 0b58 62bd f83c 9ebd
00000310: 67c9 f13e 6058 aabc 10ba a9be d971 583d
00000320: 8212 0ebf 878e 2fbd 5b24 bdbc abca 3d3f
00000330: 5563 cf3c af5a e6bc 49b8 bd3d f70d b1bd
00000340: ab31 5b3e ae45 7dbf 2acc 0ebf e96e 8cbc
00000350: 30b3 a83e 7ab5 47bf 7fe3 c2be cca8 7ebd
00000360: 2ed0 1ebd 0db9 05bd 37b3 b53d 76d6 04bd
00000370: 601a 463f b304 32be 4d2c 863c 28cb 3dbe
00000380: dca8 dbbe 8959 02bf 7fc1 d6bd ff83 06bf
00000390: 597b 31be 6468 58bf d5bf c43d 76a8 ea3d
000003a0: 81db eabc 540f 84be 0ba0 89bd 3165 d4be
000003b0: 36e6 fa3d bb58 9d3d 411d 4ebe e9f0 0dbd
000003c0: 1b46 75be f079 18be 7adc 3dbe 5e51 58be
000003d0: 7175 073e 7ce3 993d 304a a4bb b1c7 1ebf
000003e0: 0483 7abe c383 1a3e 1a2c 8bbd 57d7 37bf
000003f0: 1f4b 5cbe 4a59 63bf 2aa5 57be fe61 03bf

feature.2.bias f4 [128]
-0.15328655 -0.12775481 0.8729854 1.5713922 -0.004153181 -0.046955273 -0.024019863 0.5962191
0.24183643 -0.23268043 0.55709875 0.16186476 0.16258621 -0.41442734 -0.17728199 0.02552967
-0.019987252 -0.48035613 -0.043905653 1.1591438 -0.16984855 -0.14197178 -2.1585608 -0.12913992
-0.21384026 -0.12607688 -0.15392101 -0.36396495 -0.001011468 0.7096666 -0.16618372 0.35749695
-0.0024831968 0.45561337 0.16430229 -0.072629444 0.4043315 0.39764857 0.2287429 0.22242922
-0.12664878 0.074968934 0.030997336 -0.10817057 0.19502954 -0.15102321 -0.32749528 0.034916956
-2.1025262 -0.31513366 -1.530253 -0.82946557 -0.069117606 0.429504 0.07710834 0.37454054
-0.04913053 -0.36319712 0.10765876 -0.16705444 -0.051884793 -0.048368182 -0.04240409 1.1453966
0.23690331 -0.11726994 -0.18838051 -0.07414852 -0.18272321 -0.007174214 -0.14751329 -0.15613331
0.22824982 -0.63326794 0.32788157 -0.052378643 -0.13751566 0.09164059 0.33053184 -0.14277178
0.53077745 0.20844693 -0.44496512 -0.07667254 -0.105016 -0.08145829 0.4616187 0.25233746
-0.23272428 -0.57682925 -0.039967693 0.17381744 -0.04049736 0.9455205 -0.94268864 -0.029360449
-0.15559703 -0.1694488 0.27025446 0.6281251 -0.05082536 -0.5517446 0.69927686 0.6267812
1.085447 -0.11676435 0.38984087 -0.16674547 0.56700927 0.0044070096 -0.05678851 -0.1467047
0.6986669 -0.12163355 -0.4562337 0.024265338 0.25022456 0.14505085 0.55682176 -0.0043560723
-0.04511398 0.5008177 -0.08259655 -0.095884845 0.19315511 -0.1437027 -0.0079241535 -0.55298984
00000000: 26f7 1cbe 28d2 02be f97b 5f3f 6123 c93f
00000010: 6817 88bb 2c54 40bd 4ec5 c4bc d1a1 183f
00000020: f8a3 773e c743 6ebe 069e 0e3f e0bf 253e
00000030: 007d 263e d22f d4be 6989 35be 9923 d13c
00000040: 4ebc a3bc 3df1 f5be 6ad6 33bd d35e 943f
00000050: c7ec 2dbe 0d61 11be dc25 0ac0 413d 04be
00000060: f1f8 5abe 4c1a 01be 789d 1dbe 9d59 babe
00000070: 3c93 84ba b6ac 353f 112c 2abe d709 b73e
00000080: 21bd 22bb 2846 e93e dc3e 283e bfbe 94bd
00000090: 8a04 cf3e 9898 cb3e 943b 6a3e 7cc4 633e
000000a0: 38b0 01be 5089 993d 20ee fd3c 8888 ddbd
000000b0: d3b5 473e d4a5 1abe 76ad a7be 1505 0f3d
000000c0: ca8f 06c0 3359 a1be 55df c3bf db57 54bf
000000d0: 888d 8dbd f3e7 db3e faea 9d3d c7c3 bf3e
000000e0: 183d 49bd f9f4 b9be 327c dc3d 5210 2bbe
000000f0: 2685 54bd b71d 46bd e9af 2dbd 5b9c 923f
00000100: c896 723e 392b f0bd d2e6 40be 2edb 97bd
00000110: cb1b 3bbe ab15 ebbb b90d 17be 69e1 1fbe
00000120: 52ba 693e d91d 22bf 18e0 a73e fd8a 56bd
00000130: e8d0 0cbe 10ae bb3d 783b a93e c432 12be
00000140: 08e1 073f 1d73 553e 78d2 e3be 7e06 9dbd
00000150: a112 d7bd 9bd3 a6bd 4959 ec3e 6032 813e
00000160: 464f 6ebe 15ab 13bf 2ab5 23bd 33fd 313e
00000170: 8fe0 25bd a20d 723f 0b54 71bf 5385 f0bc
00000180: d454 1fbe fc83 2dbe cb5e 8a3e cecc 203f
00000190: 412e 50bd 223f 0dbf cf03 333f bc74 203f
000001a0: edef 8a3f 2622 efbd 3999 c73e 53bf 2abe
000001b0: 8527 113f ad68 903b 129b 68bd c239 16be
000001c0: d5db 323f 031b f9bd 7797 e9be 1ac8 c63c
000001d0: 6f1d 803e 3688 143e df8b 0e3f 62bd 8ebb
000001e0: 70c9 38bd 9735 003f 6128 a9bd 465f c4bd
000001f0: 74ca 453e cd26 13be 4fd4 01bc be90 0dbf

value.0.weight f4 [64, 128]
0.6269052 -0.009075557 -1.0761999 -1.0159271 -0.020261023 -0.088858254 -0.13823694 -0.75030744
-0.74057215 0.04413453 -0.27711266 0.002776732 -0.6866175 -0.07349038 -0.64364064 -0.72104216
-0.0077963555 -0.8737338 0.015812594 -1.3669357 -0.39076656 -0.07864966 -2.2212353 -0.0045615435
0.12287404 -0.01622044 0.08249459 -0.40689012 -0.01692754 -0.036657672 0.008214712 -0.47363597
-0.060755536 -1.4561273 -0.11384414 -0.07829987 -0.013126341 -0.8532883 -1.1564705 -0.19716671
-0.15871413 -0.34088913 -0.4371828 -0.058179624 -0.56706643 -0.10029278 -0.021327345 0.0648485
0.11936921 -0.438758 -1.387207 -0.27434486 -0.018440455 -0.3420673 -0.35893118 -1.7532169
-0.73636764 1.5433216 -0.5245906 0.03649909 0.0362062 0.0010334402 0.05127842 -2.019334
-0.22035658 0.07130321 0.0557063 0.01712481 -0.25978228 0.036078017 0.09933783 -0.10774701
-0.34739915 0.5127611 -0.8008619 -0.03139994 -0.19492659 -0.19527411 -0.35409057 0.065661624
-0.10917594 -0.009350194 0.84881544 0.06030272 0.025319148 -0.049057793 -0.3425754 -0.16427982
-0.23253353 0.20091276 -0.016413717 0.38879162 -0.35690522 0.035313264 0.31420568 -0.41643745
0.014195978 0.50141084 0.33706248 -0.045538444 -0.373295 -0.24861433 -2.0118098 -0.85804075
-0.30975574 0.025116526 -0.4419612 -0.94595313 -1.3954679 0.077360176 0.049089704 0.04927213
-0.42542228 -0.025022719 -0.26259485 -0.24835463 -0.27621907 -1.021912 0.21498284 -0.055727817
0.7550771 0.18554077 0.06962643 0.040995587 -0.19119781 -0.07240148 0.026297703 0.36458546
-0.083826356 -0.034101874 -0.14058644 -0.94985217 -0.077453405 -0.08762488 -0.30187407 -0.022121292
0.26541948 0.00050085585 -0.5255453 -0.31454393 0.09047949 0.02062092 -0.1240902 -0.06629708
-0.07040654 0.19777519 0.05260515 -0.18243535 -0.08071671 -0.056894038 0.97688353 0.0014674664
-0.8174155 -0.13888115 -0.034850627 -0.105398804 0.0023939556 -0.15656368 -0.062098555 -0.066856734
0.049355127 -0.011415712 0.36497596 0.04771788 -0.07187269 -0.38050437 -0.11204392 -0.04090252
-0.13867588 -0.17676915 -0.03840944 -0.04160428 -0.10540139 0.04611721 0.07136337 -0.11737885
-0.053380884 0.07371181 -0.0015292672 -0.10114251 0.052943014 -0.26371783 -0.19035392 -0.057866987
-0.12644047 0.6814705 0.04211964 0.07934884 -0.03460366 -0.086684845 -0.054235872 -1.0712314
-0.05550818 -0.0053637847 0.06146642 -0.05275994 -0.3065788 0.038455717 0.007506795 0.11322111
0.036137145 -0.53887004 -0.48724622 0.055811096 -0.075147726 -0.3422656 -0.059937738 0.09602564
-0.48524266 0.03588864 0.15554616 0.087808274 -0.033509865 0.034871012 -0.30326557 -0.17212684
-0.07469681 0.1128676 -0.009690874 0.009519974 0.056898966 -0.23945704 -0.29932016 0.37729612
0.029234005 0.022844424 0.3086806 -0.14788167 -0.01939305 -0.2005745 -0.009019857 -0.28164053
-0.3235163 0.00038462877 -0.17360117 -0.17274842 -0.028398478 -0.06757754 -0.017558292 0.061875157
-0.3148175 -0.07536528 -0.16803107 -0.018755967 -0.099511676 -0.21283789 -0.6066908 -0.001694616
-0.17137165 -0.04512709 -0.065709025 0.08672237 -0.09838168 -0.024985008 -0.016515411 -0.26422268
00000000: dc7c 203f a5b1 14bc ebc0 89bf e609 82bf
00000010: 72fa a5bc 51fb b5bd fc8d 0dbe 2614 40bf
00000020: 2396 3dbf 69c6 343d b6e1 8dbe d5f9 353b
00000030: 2ac6 2fbf 2082 96bd a2c5 24bf 3896 38bf
00000040: 9278 ffbb 05ad 5fbf 6a89 813c c0f7 aebf
00000050: 8e12 c8be 1313 a1bd b828 0ec0 0079 95bb
00000060: 62a5 fb3d bae0 84bc ecf2 a83d e753 d0be
00000070: a0ab 8abc 5b26 16bd 0097 063c 6a80 f2be
00000080: ccda 78bd 6162 babf 1e27 e9bd af5b a0bd
00000090: dd0f 57bc 1a71 5abf 3a07 94bf 12e6 49be
000000a0: f585 22be 0589 aebe 6dd6 dfbe c24d 6ebd
000000b0: 442b 11bf 4d66 cdbd afb6 aebc 4acf 843d
000000c0: d877 f43d e3a4 e0be 0090 b1bf ee76 8cbe
000000d0: 7010 97bc 7223 afbe d4c5 b7be 6969 e0bf
000000e0: 9782 3cbf 908b c53f 924b 06bf 1280 153d
000000f0: f44c 143d 8074 873a 5209 523d c53c 01c0
00000100: 28a5 61be 6b07 923d 4a2c 643d 5449 8c3c
00000110: 2f02 85be 8bc6 133d a271 cb3d 77aa dcbd
00000120: 4dde b1be 5044 033f 4905 4dbf 399d 00bd
00000130: d69a 47be f0f5 47be 5c4b b5be 9a79 863d
00000140: a397 dfbd 8e31 19bc f84b 593f fcff 763d
00000150: 1a6a cf3c d3f0 48bd 0b66 afbe f838 28be
00000160: 451d 6ebe 13bc 4d3e 0f76 86bc b20f c73e
00000170: 48bc b6be a4a4 103d 91df a03e 4a37 d5be
00000180: 3f96 683c 765c 003f 7493 ac3e 8586 3abd
00000190: 8620 bfbe c194 7ebe 7ec1 00c0 8fa8 5bbf
000001a0: 4e98 9ebe 2cc1 cd3c bd48 e2be fc29 72bf
000001b0: b19e b2bf 036f 9e3d 4912 493d 93d1 493d
000001c0: f3d0 d9be 72fc ccbc d572 86be ad50 7ebe
000001d0: 966c 8dbe 03ce 82bf 7624 5c3e da42 64bd
000001e0: bc4c 413f 66fe 3d3e 4d98 8e3d fdea 273d
000001f0: 5cc9 43be 3a47 94bd 486e d73c f2aa ba3e
00000200: 27ad abbd 68ae 0bbd e4f5 0fbe 8329 73bf
00000210: e49f 9ebd ac74 b3bd 3d8f 9abe b637 b5bc
00000220: 10e5 873e de4b 033a 238a 06bf e70b a1be
00000230: 504d b93d 34ed a83c 0123 febd c3c6 87bd
00000240: 4e31 90bd 9485 4a3e 7f78 573d 55d0 3abe
00000250: cd4e a5bd b909 69bd 0a15 7a3f 0058 c03a
00000260: 2442 51bf dc36 0ebe 88bf 0ebd 54db d7bd
00000270: e9e3 1c3b 3b52 20be 0e5b 7ebd 2fec 88bd
00000280: 9a28 4a3d f708 3bbc 21de ba3e d373 433d
00000290: fd31 93bd 78d1 c2be 4877 e5bd 6789 27bd
000002a0: 0d01 0ebe f902 35be 3853 1dbd 4069 2abd
000002b0: afdc d7bd 66e5 3c3d f526 923d 5364 f0bd
000002c0: eaa5 5abd 38f6 963d b171 c8ba ce23 cfbd
000002d0: c6da 583d 0606 87be 23ec 42be ef05 6dbd
000002e0: 9c79 01be da74 2e3f a585 2c3d a581 a23d
000002f0: 91bc 0dbd d387 b1bd 6f26 5ebd 1c1e 89bf
00000300: 8c5c 63bd b0c2 afbb 36c4 7b3d cf1a 58bd
00000310: e5f7 9cbe be83 1d3d 90fb f53b 78e0 e73d
00000320: 8b04 143d 63f3 09bf 5678 f9be 2d9a 643d
00000330: 0de7 99bd 703d afbe 4681 75bd 17a9 c43d
00000340: ba71 f8be f7ff 123d 7e47 1f3e d3d4 b33d
00000350: a441 09bd e8d4 0e3d a045 9bbe 0542 30be
00000360: a4fa 98bd 2127 e73d 79c6 1ebc aaf9 1b3c
00000370: e40e 693d 3a34 75be 7e40 99be f52c c13e
00000380: 277c ef3c 3b24 bb3c 620b 9e3e 4b6e 17be
00000390: 2cde 9ebc 6763 4dbe 06c8 13bc 3033 90be
000003a0: eea3 a5be 00a8 c939 81c4 31be f6e4 30be
000003b0: eda3 e8bc 1866 8abd 68d6 8fbc ce70 7d3d
000003c0: c22f a1be 1d59 9abd 5610 2cbe 1da6 99bc
000003d0: c7cc cbbd 2df2 59be 1750 1bbf e11d deba
000003e0: 0d7c 2fbe 2fd7 38bd 7492 86bd 7f9b b13d
000003f0: 567c c9bd 5cad ccbc 544b 87bc 3248 87be

value.0.bias f4 [64]
0.06515356 -0.7145961 1.4531317 -0.7800496 1.4158316 0.6223896 -0.24057478 -0.34824032
0.47986755 -0.4562291 -1.4832337 0.97123384 -1.5777687 0.5607619 2.2319434 -0.10404004
1.5694776 1.4811645 0.74282694 -2.5480607 -0.02697538 1.4235868 -1.5787264 0.030968511
0.5433014 0.07691593 0.9847212 0.3638624 1.0503169 -0.079282895 1.1368324 -0.19890493
0.6414161 -0.059897274 0.118466206 0.38780963 1.032346 -0.16255485 -0.38685897 -0.4346087
0.7930023 -1.1384043 0.31309065 -0.73341805 1.2378045 -0.18769866 0.80189425 -0.28604728
1.0964215 -1.5104548 0.013600645 0.264587 1.1652393 1.0415735 -0.45810914 -0.30173305
-0.19372524 -1.41579 1.0622473 -1.6052849 -0.94403625 -1.8480091 -0.9077083 -0.240023
00000000: 3b6f 853d c5ef 36bf 3800 ba3f 55b1 47bf
00000010: f839 b53f ed54 1f3f 3c59 76be 8e4c b2be
00000020: 33b1 f53e dc96 e9be 9ada bdbf c8a2 783f
00000030: 53f4 c9bf 188e 0f3f 29d8 0e40 f212 d5bd
00000040: a4e4 c83f cc96 bd3f e829 3e3f 6d13 23c0
00000050: 79fb dcbc 1838 b63f b513 cabf adb1 fd3c
00000060: cd15 0b3f 1986 9d3d b016 7c3f 2c4c ba3e
00000070: c970 863f 125f a2bd b983 913f bcad 4bbe
00000080: d833 243f d856 75bd 699e f23d fc8e c63e
00000090: ea23 843f c774 26be 6112 c6be 0885 debe
000000a0: 3302 4b3f 3bb7 91bf 6b4d a03e 49c1 3bbf
000000b0: 6170 9e3f 1434 40be f148 4d3f ca74 92be
000000c0: 8a57 8c3f 9556 c1bf 3dd5 5e3c f277 873e
000000d0: 9026 953f 4852 853f 488d eabe c17c 9abe
000000e0: e95f 46be 9b38 b5bf b8f7 873f fa79 cdbf
000000f0: 5cac 71bf 908b ecbf 925f 68bf 97c8 75be

value.2.weight f4 [1, 64]
-2.1628492 1.476371 -0.5585568 1.5836223 1.3813808 0.9706542 -0.02153351 -0.17265783
-1.2069284 -0.058828577 0.452112 -0.31756887 0.7274258 -0.5752537 -0.43726233 0.030294959
-0.16352734 -0.111276425 1.1604943 0.9202889 -1.7210397 1.505743 0.5536383 -1.3498672
-2.3926713 0.5999352 -0.14225395 -0.63857114 -0.19998187 0.004957974 -0.18568914 -0.008070088
0.88808626 -0.00927621 0.64823616 0.33148643 -0.18804805 0.916219 -2.272348 -0.4767233
-0.00166991 -1.2280992 -0.6054273 0.6147615 0.7558632 0.0015509994 0.74354017 0.02185816
-0.30798396 0.6835491 -2.3047051 -0.23014417 -0.16837199 -0.18200462 0.32035986 -0.046346657
-0.11543398 0.5550395 -0.16234283 1.0709951 0.46929955 -2.6507397 -1.0288675 -0.92297417
00000000: 1f6c 0ac0 baf9 bc3f 94fd 0ebf 23b4 ca3f
00000010: 16d1 b03f cb7c 783f 0b67 b0bc 37cd 30be
00000020: a17c 9abf 3cf6 70bd 397b e73e 6398 a2be
00000030: 9438 3a3f d443 13bf d9e0 dfbe 222d f83c
00000040: b673 27be e5e4 e3bd 148b 943f 0e98 6b3f
00000050: 074b dcbf 30bc c03f 3dbb 0d3f 73c8 acbf
00000060: 8721 19c0 5a95 193f 05ab 11be 6679 23bf
00000070: 0cc8 4cbe 8076 a23b 4b25 3ebe 6738 04bc
00000080: 9f59 633f 3ffb 17bc cef2 253f 97b8 a93e
00000090: ab8f 40be 548d 6a3f 266e 11c0 1415 f4be
000000a0: e2e0 daba 5b32 9dbf 49fd 1abf 0261 1d3f
000000b0: 4080 413f e74a cb3a a658 3e3f e20f b33c
000000c0: 13b0 9dbe 13fd 2e3f 4a80 13c0 eaaa 6bbe
000000d0: b569 2cbe 6b5f 3abe 3506 a43e fed5 3dbd
000000e0: a768 ecbd 1217 0e3f 333d 26be 5e16 893f
000000f0: 0848 f03e b8a5 29c0 eeb1 83bf 0948 6cbf

adv.0.weight f4 [64, 128]
-0.19375494 0.063666716 0.15976769 0.4490074 0.00028551213 0.0031647629 -0.4023983 -0.39161456
0.20341973 0.055703755 0.83491635 -0.117341734 -0.36010104 -0.77860916 -0.24631052 -0.9869894
-0.035039157 -0.33345354 -0.06969281 0.098256074 0.024213357 -0.07316572 -0.7723195 0.019841542
-0.49021778 0.0006546843 -0.08751975 -0.20016956 0.417938 -0.20708042 -0.009529602 -0.4884637
0.020990644 -0.94078624 -0.16132134 -0.57045513 -1.5341828 -0.755704 -1.2911983 -0.25444236
-0.094495036 -0.09675029 -0.27562675 -0.051855974 -0.48590258 0.07624877 -0.113256544 -0.27435353
0.019774912 -0.9776047 -0.2582032 -0.5121266 0.068691194 -0.29333422 -0.15559639 0.17293657
0.37923357 0.8145124 -0.52546155 -0.05010633 -0.07033275 -0.06461741 -0.056409564 -0.97507256
-0.8646266 0.0026030838 0.014396429 0.053780604 -0.69796425 -0.07281376 -0.06703014 -0.061950102
-1.4031769 -0.31387937 -0.9273169 0.024523063 -0.020121654 -0.6487828 0.3047436 0.22646263
-0.16518609 -0.27140313 1.0558267 -0.03929097 0.056094058 -0.06691759 -0.4712631 -1.1066554
-0.7642789 -0.44301987 0.0013875852 -5.587447 -0.22621226 -0.19653021 0.16307402 -0.20211516
-0.043689113 -0.49308246 -0.91712767 -0.86865604 0.84680456 1.1997846 -0.06969356 -0.82501626
-1.1014758 -0.06466237 0.2331646 0.02932744 -0.13875408 0.075785786 0.010118343 -0.05476494
-0.37031373 -0.07740745 -0.2630004 -0.10535592 -1.3459003 0.1156003 -0.063403875 -0.02512822
-0.35510293 -0.31558228 -0.0038850482 0.030230233 -0.22415267 -0.0071322992 -0.083327144 -0.009901335
-0.07826093 0.63276136 -0.33053583 -1.0424297 -0.033141617 -0.048738636 -0.12383583 -0.36598527
-0.05799673 -0.0945707 -0.46897274 -0.28627577 -0.12917483 -0.15315029 -0.24598616 -0.29975474
0.060223408 -0.8758895 -0.036624894 -0.63317513 -0.09635074 -0.086338505 0.59603024 -0.012335785
-0.04224054 0.07639725 0.018864194 -0.30844495 -0.37899947 -0.096421875 0.04208889 0.14895795
-0.032983333 -0.73590004 -0.7621792 0.018219719 -0.08857644 -0.020912519 -0.9104175 -0.123820476
0.05721407 -0.10193237 -0.17485368 0.02295836 -0.11988717 -0.049350057 -0.12431794 -0.15917772
0.4400461 0.0028542343 0.68520904 -0.43146294 -0.016852116 0.29852843 0.07803879 0.23093806
-0.084671006 0.18947954 0.47360453 -0.08152432 0.04929509 -0.07220622 0.005157426 -0.2650632
0.08728452 -0.00033356994 0.061446514 0.011939563 -0.8169264 0.058894083 -0.057364937 0.01504296
-0.22348532 0.05317074 -0.18876636 0.0452931 -0.04789449 -0.47127795 0.37483913 0.3029186
-0.010216445 -0.1948539 0.8100253 -0.01747109 0.07683899 -0.030450065 -0.69885534 -0.30953535
0.07158739 -0.37633517 0.049619712 -0.6393386 -0.1273121 -0.45930982 0.18870896 -0.018793471
-0.057086598 0.12054979 0.41661 -0.8449887 0.23520249 -0.30666456 0.020782536 -0.82915896
-0.7980341 -0.06190257 -0.34789476 -0.47458282 -0.721007 -0.025693148 -0.0017681867 0.056655325
-0.25147414 -0.08375803 -0.11783526 -0.117014624 0.30822766 0.19476096 -0.16757351 -0.071945705
0.022186482 -0.056146733 -0.05627524 -0.03284976 -0.06564156 0.080086194 0.0046791956 0.2222215
00000000: b267 46be b263 823d 249a 233e 4ce4 e53e
00000010: cab0 9539 e967 4f3b 2607 cebe b481 c8be
00000020: 434d 503e 9f29 643d 14bd 553f dd50 f0bd
00000030: 2a5f b8be ee52 47bf d338 7cbe 56ab 7cbf
00000040: 3885 0fbd 6cba aabe 1bbb 8ebd 7b3a c93d
00000050: 175b c63c e9d7 95bd bbb6 45bf bb8a a23c
00000060: d3fd fabe 1f9f 2b3a 8e3d b3bd 40f9 4cbe
00000070: f8fb d53e e40c 54be 0c22 1cbc ea17 fabe
00000080: 92f4 ab3c 5ed7 70bf 6c31 25be 5909 12bf
00000090: 1a60 c4bf d175 41bf fc45 a5bf 4546 82be
000000a0: 9d86 c1bd 0425 c6bd f31e 8dbe ee66 54bd
000000b0: 39c8 f8be 5128 9c3d 0cf3 e7bd 1178 8cbe
000000c0: fffe a13c 4d44 7abf 3633 84be bb1a 03bf
000000d0: f8ad 8c3d e72f 96be a954 1fbe 4916 313e
000000e0: e72a c23e e283 503f a684 06bf 4c3c 4dbd
000000f0: 9e0a 90bd 2256 84bd b70d 67bd 5b9e 79bf
00000100: 2b58 5dbf 8098 2a3b 00df 6b3c 0d49 5c3d
00000110: c9ad 32bf 611f 95bd 1947 89bd 64bf 7dbd
00000120: 4d9b b3bf ccb4 a0be a464 6dbf 97e4 c83c
00000130: 2bd6 a4bc a116 26bf 5a07 9c3e d2e5 673e
00000140: 8b26 29be 5af5 8abe 5425 873f 91ef 20bd
00000150: e2c2 653d 170c 89bd 6649 f1be e2a6 8dbf
00000160: c8a7 43bf 80d3 e2be a2df b53a 5ecc b2c0
00000170: 30a4 67be 373f 49be e0fc 263e 47f7 4ebe
00000180: 5bf3 32bd 4e75 fcbe e1c8 6abf 3e60 5ebf
00000190: 2fc8 583f 8b92 993f 7fbb 8ebd 4434 53bf
000001a0: 29fd 8cbf b46d 84bd b3c2 6e3e 1940 f03c
000001b0: 8d15 0ebe 9435 9b3d 68c7 253c 3451 60bd
000001c0: c399 bdbe cc87 9ebd fda7 86be d8c4 d7bd
000001d0: 7646 acbf dabf ec3d e4d9 81bd b2d9 cdbc
000001e0: 0dd0 b5be 0094 a1be 4b9c 7ebb 65a5 f73c
000001f0: 4788 65be 10b6 e9bb 6ca7 aabd 3639 22bc
00000200: 4447 a0bd a6fc 213f fe3b a9be 566e 85bf
00000210: 81bf 07bd 2aa2 47bd a49d fdbd 6c62 bbbe
00000220: fb8d 6dbd 48ae c1bd 321d f0be bd92 92be
00000230: 6846 04be 6ed3 1cbe cce3 7bbe 7479 99be
00000240: d2ac 763d 4b3a 60bf fc03 16bd c417 22bf
00000250: 8953 c5bd 3ed2 b0bd 7095 183f 081c 4abc
00000260: 6b04 2dbd 2976 9c3d 1589 9a3c 7fec 9dbe
00000270: 380c c2be d578 c5bd 6665 2c3d 6f88 183e
00000280: 8819 07bd f263 3cbf 2d1e 43bf 8541 953c
00000290: 9167 b5bd bb50 abbc 1f11 69bf 9795 fdbd
000002a0: 4d59 6a3d ebc1 d0bd d80c 33be 2c13 bc3c
000002b0: 6887 f5bd 4923 4abd 679a febd 7cff 22be
000002c0: b94d e13e 1b0e 3b3b dc69 2f3f b6e8 dcbe
000002d0: 730d 8abc b8d8 983e cdd2 9f3d 077b 6c3e
000002e0: fe67 adbd ed06 423e 4b7c f23e 39f6 a6bd
000002f0: a6e9 493d dbe0 93bd a0ff a83b 5db6 87be
00000300: 3ac2 b23d 00e3 aeb9 57af 7b3d 289e 433c
00000310: 1722 51bf ec3a 713d 7ff7 6abd bf76 763c
00000320: 56d9 64be 90c9 593d f84b 41be 4285 393d
00000330: 032d 44bd 584b f1be eaea bf3e 2618 9b3e
00000340: e062 27bc c887 47be d15d 4f3f 881f 8fbc
00000350: c35d 9d3d 6a72 f9bc 2fe8 32bf 6b7b 9ebe
00000360: 699c 923d 01af c0be 0a3e 4b3d b2ab 23bf
00000370: 1a5e 02be a82a ebbe ec3c 413e c4f4 99bc
00000380: a3d3 69bd cfe2 f63d e84d d53e 2e51 58bf
00000390: ecd8 703e 2303 9dbe 2340 aa3c c343 54bf
000003a0: f64b 4cbf 8d8d 7dbd 431f b2be 85fc f2be
000003b0: ea93 38bf 707a d2bc 80c2 e7ba 6a0f 683d
000003c0: 38c1 80be 5489 abbd 9d53 f1bd 5da5 efbd
000003d0: 04d0 9d3e 6b6f 473e 6498 2bbe 4558 93bd
000003e0: 6dc0 b53c 1efa 65bd de80 66bd 788d 06bd
000003f0: 156f 86bd 3b04 a43d f053 993b 088e 633e

adv.0.bias f4 [64]
-1.732775 -1.4971634 -0.78674465 -0.65200126 -1.2653431 -0.6310455 -0.8986989 -1.7513157
-0.17633972 -0.6095394 -0.20606816 -1.1713729 -0.3945194 -0.15602812 -1.1941738 -1.2688191
-0.36643806 -2.1277492 -0.52988446 -1.2699978 -0.37052843 0.053338256 -0.54452837 -1.793323
-0.114060625 -0.65671587 -0.3186182 -0.59217536 -0.50984734 -1.0146073 -2.6899989 -0.51026565
0.27658904 -0.20462449 -0.27569756 -1.4264961 -1.1121572 -0.3716876 -0.37219942 -0.082064815
-0.70016277 -0.13408355 -1.3187093 -0.15581626 -0.52799535 0.16317332 -1.2012498 -0.78379273
-1.5865235 0.05430795 0.217025 -0.15708248 -0.63357025 -1.1207844 -0.38079053 -0.30839193
-0.72328246 -1.5619693 -0.93638676 -0.20397212 0.018420588 -0.21132007 -0.16885899 -0.5041217
00000000: 92cb ddbf 0da3 bfbf 1968 49bf 8ee9 26bf
00000010: c3f6 a1bf 338c 21bf 2211 66bf 1d2b e0bf
00000020: 6692 34be c60a 1cbf 8803 53be 8cef 95bf
00000030: 72fe c9be d6c5 1fbe b0da 98bf aa68 a2bf
00000040: c59d bbbe 0b2d 08c0 82a6 07bf 4a8f a2bf
00000050: e7b5 bdbe 3779 5a3d 3666 0bbf 9c8b e5bf
00000060: 9e98 e9bd 881e 28bf ed21 a3be ce98 17bf
00000070: 5b85 02bf a7de 81bf f128 2cc0 c5a0 02bf
00000080: 149d 8d3e 1589 51be 3b28 8dbe 6d97 b6bf
00000090: 2b5b 8ebf d64d bebe ec90 bebe 9911 a8bd
000000a0: de3d 33bf 334d 09be 77cb a8bf 4c8e 1fbe
000000b0: b42a 07bf e816 273e 8ec2 99bf a4a6 48bf
000000c0: 3413 cbbf 0372 5e3d cd3b 5e3e 3bda 20be
000000d0: a931 22bf dd75 8fbf faf6 c2be 8ce5 9dbe
000000e0: 0a29 39bf 9cee c7bf 0bb7 6fbf 11de 50be
000000f0: c6e6 963c 4a64 58be 5fe9 2cbe 1f0e 01bf

adv.2.weight f4 [2, 64]
-3.1750567 0.9908484 -2.6726017 -0.5971961 -0.32827258 -0.18808371 1.1895208 -1.8180959
0.08819325 0.9699865 -0.0761999 -1.7404003 0.9374432 0.049491365 -0.8400682 -0.9891556
-0.23513156 -0.89579487 -0.7477447 0.93398464 -0.92679447 0.3191618 0.58418906 -1.3805958
0.023344092 -0.2830825 -0.26684585 0.40215653 0.72618765 -1.1532817 -1.1273729 0.15886115
-1.4422479 0.026148159 -0.4459408 1.3474442 -2.017341 1.6003667 -0.0052439882 0.88186276
0.44893363 -0.01121407 -1.3149756 0.06564573 -0.5948136 0.8852176 -0.86322206 1.5854093
-3.0623894 2.4091597 0.6578837 0.030950762 -0.52980155 1.1061951 -0.02409322 -0.13283235
0.5684038 1.5051218 -0.8021716 0.020115312 -0.8408492 0.036895912 -0.0073652137 -0.9471744
3.1095479 -0.9748974 2.7362533 0.5231736 0.39537668 0.23719399 -1.188596 1.895088
0.09820008 -0.94024223 -0.0672896 1.625871 -0.89648885 0.042434976 0.7148701 0.8769061
0.15812466 0.96541727 0.616259 -1.007727 0.7523895 -0.41003314 -0.61323977 1.3512019
0.02144532 0.2450807 0.053530112 -0.47687423 -0.66721493 1.1411691 0.9831957 -0.3170349
1.4174674 0.04804423 0.36023292 -1.2722114 1.9165226 -1.7084771 -0.09723604 -0.81809497
-0.43080977 0.009216002 1.2889098 0.020805774 0.46701932 -0.8534128 0.94208956 -1.5777532
3.0921578 -2.2847662 -0.69923764 -0.0034372662 0.5527021 -1.2350651 -0.014967439 0.121432915
-0.6353484 -1.5254589 0.78224766 0.013212859 0.7320538 0.03055782 0.008756703 1.0193552
00000000: 2134 4bc0 3ea8 7d3f e80b 2bc0 d8e1 18bf
00000010: 5813 a8be 0499 40be 3842 983f 5eb7 e8bf
00000020: aa9e b43d 0951 783f b10e 9cbd 70c5 debf
00000030: 47fc 6f3f 75b7 4a3d b60e 57bf 4d39 7dbf
00000040: 54c6 70be d052 65bf 326c 3fbf 9e19 6f3f
00000050: 6742 6dbf 2d69 a33e 6a8d 153f 5db7 b0bf
00000060: 1c3c bf3c 30f0 90be 05a0 88be 76e7 cd3e
00000070: 6fe7 393f bc9e 93bf c14d 90bf 7fac 223e
00000080: 949b b8bf aa34 d63c 5a52 e4be 0d79 ac3f
00000090: 1d1c 01c0 d1d8 cc3f c3d5 abbb c2c1 613f
000000a0: a1da e53e 38bb 37bc 1f51 a8bf 4571 863d
000000b0: b445 18bf 9f9d 623f 1ffc 5cbf b1ee ca3f
000000c0: 30fe 43c0 ac2f 1a40 116b 283f 748c fd3c
000000d0: 13a1 07bf cd97 8d3f 255f c5bc 3405 08be
000000e0: e982 113f d5a7 c03f 1e5b 4dbf dec8 a43c
000000f0: e541 57bf 2b20 173d e457 f1bb 057a 72bf
00000100: d502 4740 e092 79bf c61e 2f40 b4ee 053f
00000110: d06e ca3e fbe2 723e ea23 98bf 3e92 f23f
00000120: 201d c93d b7b3 70bf 21cf 89bd 8a1c d03f
00000130: 4b80 65bf 4cd0 2d3d ba01 373f eb7c 603f
00000140: 6eeb 213e 9625 773f 26c3 1d3f 33fd 80bf
00000150: 999c 403f ddef d1be 48fd 1cbf 2ff4 ac3f
00000160: 19ae af3c 6ff6 7a3e 6442 5b3d dc28 f4be
00000170: 99ce 2abf d411 923f b7b2 7b3f 6652 a2be
00000180: 926f b53f 07ca 443d 7370 b83e d3d7 a2bf
00000190: 9d50 f53f 61af dabf b023 c7bd ac6e 51bf
000001a0: 1993 dcbe b7fe 163c fffa a43f df70 aa3c
000001b0: 281d ef3e 4379 5abf c82c 713f d1f3 c9bf
000001c0: eae5 4540 9c39 12c0 3d01 33bf c243 61bb
000001d0: e37d 0d3f 9d16 9ebf fd39 75bc d2b1 f83d
000001e0: 31a6 22bf 3d42 c3bf 6241 483f bf7a 583c
000001f0: e167 3b3f 6554 fa3c 4678 0f3c 3b7a 823f

adv.2.bias f4 [2]
-0.080723785 -0.06804908
00000000: 8352 a5bd 515d 8bbd
